ckpt/MAP_CAM/10/best_loss_BEST5.ckpt (torch, 186912 bytes, 19 tensors)

classifier.0.weight f4 [120, 99]
00000000: c151 c5bd 84d8 883d 7827 173e 1367 843d
00000010: cd07 283d d316 62be 9b14 f4bd e804 573e
00000020: 061c 9e3e f376 1cbf 00a2 a3bd 85f3 af3d
00000030: 199c 703d eda2 ed3c d59b e939 9abb b13e
00000040: 708a f7bc cc82 b5bc 866a 953c 1fb0 73bf
00000050: 7216 6dbe e4be 25bf e5db d8bd bd44 c83d
00000060: ad45 f0bd d24d 88bd 4994 d93d 2401 963e
00000070: d2e7 f03e 985e 38be 4a61 3e3e 4724 11bf
00000080: 911a 8e3e a82a bf3d e50b 073e c077 1a3e
00000090: 2b28 82bd 4e14 adbe 2e2f 933d 50c6 4b3e
000000a0: c27e 6ebc 98eb 2dbf bfd1 b9be 01b6 36bf
000000b0: 7768 7abe 6314 003d 35c6 a9bc 39c1 303e
000000c0: 70c6 87be 3e05 14bb 7866 163d 66c7 42be
000000d0: 1d41 aebe 48ba 04bf 0f4e a5be 57da 913d
000000e0: 846a 12bb c7aa 773d bf6c 973e bdee 7dbd
000000f0: 185a 52bd 8b59 3b3c c805 9ebe 0ae5 de3b
00000100: 057b ddbe b80d 19bf b379 773d 9d3b c73e
00000110: 09af c93d cedc 6a3d 1f54 8abe 0dec c6be
00000120: 2aa2 04bf 7416 9b3b 73e8 f5be 6266 8fbe
00000130: 2e42 463e 11a2 95bd a963 4a3e 91e1 0a3e
00000140: 0205 fc3d 9c42 adbd 8805 cc3f 2e5b 263f
00000150: 3e79 d8be ae62 b3be 77aa 0b3f e723 433e
00000160: 5e60 b53d eaec ce3c 4c54 a7be 3d69 3bbe
00000170: da45 503e 0a77 4c3d 87e3 eb3e 64b5 81bd
00000180: 78db bbbe 6ff6 0ebf 19de efbe b434 41bd
00000190: 9d1b 9abe e515 ca3d 578e 2fbd 391d c43c
000001a0: e747 d1bd dd61 51be 73e3 d3bd 8b87 0f3f
000001b0: 019b 95be 74d7 103f 7da6 b7bc 6c7a b73d
000001c0: 69fb e93d 81b3 57be d498 223d cae0 1abe
000001d0: 8da8 cc3d d05d 1d3e 5c4b 0b3e 7ea3 273f
000001e0: 809a 33be 51ea 31bd b8ec f4bd b542 8b3e
000001f0: 6709 633e ddd0 45be 6d24 fcbc ddd3 b3be
00000200: 4d59 14be b220 a53e 1611 623f e6a5 4dbf
00000210: c462 6f3d e20b 363e 0171 8d3d af4a 82bd
00000220: dc5b 03be 0288 253c f523 743d d0ca 6e3d
00000230: ed75 aa3e 87cd d03e 9225 183f 4d16 1c3e
00000240: cdad 09be c815 42bc 4547 0dbe 1a48 54be
00000250: fe5a 2ebe baa7 843e 5f97 9f3e 2625 213e
00000260: cc42 a5bd 4f30 0c3f 72e2 d4bd 92a1 77be
00000270: 45f5 d2be 3e3c 26be c92e 0ebd 0fff c93d
00000280: 1877 dfbd d983 babd d064 343d 7889 ae3e
00000290: 9aad 273f 93af 3f3d 8c04 033d 2a6b 87be
000002a0: f9bc 203e 20e3 8e3e c1ee b4bd d05f c53e
000002b0: ec83 58be e7a9 a93e 5af9 a63e f03c 03bf
000002c0: 95b5 813d 8752 893c 2dda d9bd b0a1 24be
000002d0: c064 97be 42b7 a03e 4e05 5abf 9c50 b73e
000002e0: 8f0f 893e 4d61 34bf d586 ed3d 73b3 31bd
000002f0: 635f 9d3c 6f2c e93d 13c4 78bd 5e53 a43a
00000300: cdd5 36be f0a9 32be 5927 f1be 9010 c63e
00000310: 8a7b c33e 9726 533f 67cc bdbd 291f e13d
00000320: cdfb a33d 7c4f 96be 22b5 65bd 786f b2bd
00000330: 47ce a7be b7de b33d 63d2 313e 23a2 18bf
00000340: 9365 143d f9e7 143e d7e7 523d 1333 103e
00000350: 25b1 963b 7202 1ebd 265e 29bd c001 8c3d
00000360: 1950 19be bf53 01bf 985a 90bd 129d e0bc
00000370: e209 bd3d a1b6 dfbb 7d9d 43bd 753a 493d
00000380: e292 82bb b867 cabb 06fc 38bd 5c9f 9ebd
00000390: 5fa8 febe c234 c63e ab69 703f 2e10 a6bd
000003a0: 92c6 8d3e 3bce 21bd a824 79bd 8093 87be
000003b0: 8e6d 6a3d 720a 813e b28a 8fbd c8df 2abe
000003c0: 5600 073f a21f 1a3f 0110 183f 8a32 1bbe
000003d0: dc9f 393d b7f3 db3d e0f0 bc3c d935 bd3d
000003e0: a44e c0bd 27d8 bebd 58df f43e 94e0 b9be
000003f0: cb94 96be b95c c8be d45e 00be ef8d 7d3c
-0.09634734 0.06681922 0.1476115 0.06464972 0.041023064 -0.22079019 -0.11917993 0.20997965
0.30880755 -0.61119 -0.079898834 0.085913695 0.058742616 0.029008353 0.00044557327 0.3471344
-0.03021738 -0.022157095 0.01823927 -0.95190614 -0.23153093 -0.647444 -0.105888166 0.09778736
-0.117320396 -0.06655468 0.10623986 0.29297745 0.47051865 -0.18004835 0.185918 -0.5669598
0.27754644 0.09334308 0.13188131 0.15084743 -0.06355318 -0.33804554 0.07186733 0.19899869
-0.014556589 -0.6793761 -0.36292836 -0.71371466 -0.24453913 0.031269442 -0.020724395 0.17261209
-0.26518583 -0.0022586132 0.036718816 -0.19021377 -0.34034052 -0.5184674 -0.32286116 0.07121723
-0.002234132 0.0604656 0.29575154 -0.061995257 -0.05135545 0.011434923 -0.30863786 0.006802206
-0.4325792 -0.5978656 0.060418796 0.3891267 0.098478384 0.057339482 -0.27017304 -0.38851967
-0.5180994 0.004732901 -0.48028907 -0.280078 0.19361183 -0.07306302 0.1976458 0.1356261
0.12305643 -0.0845997 1.5939188 0.6498288 -0.4228 -0.35036224 0.54556984 0.19056664
0.08856271 0.025259454 -0.326815 -0.18301864 0.20339146 0.049918212 0.46072027 -0.06333426
-0.3669088 -0.5584478 -0.46849135 -0.047169402 -0.30099192 0.09867457 -0.042860355 0.023939716
-0.102187924 -0.20447488 -0.10346117 0.560662 -0.2921982 0.56578755 -0.022418255 0.08958897
0.11424906 -0.21064569 0.03969653 -0.15124813 0.09993086 0.15367818 0.13602966 0.65483844
-0.17539406 -0.043436352 -0.11959213 0.2719933 0.22171555 -0.19317956 -0.030779088 -0.35122576
-0.1448719 0.32251507 0.8830732 -0.80331266 0.0584438 0.1777797 0.069063194 -0.06361901
-0.1282801 0.010103228 0.059604604 0.058298886 0.33293095 0.40781805 0.5943233 0.15242882
-0.13445206 -0.011846013 -0.13796718 -0.2073063 -0.17026898 0.25909215 0.31170174 0.15736827
-0.08069381 0.54761213 -0.103947535 -0.24182728 -0.4120275 -0.16233918 -0.034712587 0.09863102
-0.10911387 -0.09107179 0.044041455 0.34089255 0.6549927 0.0467983 0.031986758 -0.26448947
0.15697087 0.27907658 -0.08834601 0.38549662 -0.21144074 0.33137438 0.32612115 -0.5126486
0.06333462 0.016762985 -0.10637317 -0.16077304 -0.29569054 0.31389815 -0.85164344 0.35803688
0.26769683 -0.7046097 0.11597983 -0.043384027 0.019210523 0.11385428 -0.060733866 0.0012537052
-0.17854996 -0.17447639 -0.47100332 0.3868451 0.3818019 0.8248076 -0.09267502 0.109922715
0.080070116 -0.29357517 -0.056080945 -0.08712667 -0.32774565 0.08782714 0.17365412 -0.596224
0.03622968 0.14541616 0.05149063 0.14081983 0.004598754 -0.03857655 -0.041349553 0.06836271
-0.14971961 -0.5051841 -0.070485294 -0.027418647 0.092304006 -0.006827191 -0.047757614 0.049128015
-0.003984795 -0.006176915 -0.045162223 -0.07745239 -0.49737832 0.38712126 0.93911237 -0.08108555
0.2769056 -0.039503317 -0.060825974 -0.2647972 0.057233386 0.25203282 -0.07008876 -0.16686928
0.5273489 0.6020452 0.5939942 -0.15155998 0.04531847 0.10739844 0.023064077 0.09238786
-0.093899995 -0.093185715 0.47826648 -0.36304152 -0.29410395 -0.39133242 -0.12536174 0.015475734

classifier.0.bias f4 [120]
00000000: afa7 f1bd a1b9 f3bd 5a26 343e 9368 15bd
00000010: 9882 7b3e 4b53 6b3d 0032 0d3e f5c2 0d3e
00000020: 79f7 5abe 6875 19bb 03bf 0ebd dc18 1f3d
00000030: 6125 c7bd f38b 753d acf0 55be a981 81be
00000040: 9661 363e 9448 203d 141d abbd 5944 30be
00000050: 8753 953e da23 fa3d bfc4 e5bd 28c9 003e
00000060: 1ab0 1b3e 4775 5c3e 2c08 9e3c e000 03bd
00000070: 1c7a 013e ae6a 98bb 9dc7 03be 1946 75bd
00000080: 85c1 dcbc 252a 16be b5ee eabd dc5b 963d
00000090: 13c0 2dbd cc78 22bd c50c a63c e8a8 2fbe
000000a0: 5c35 00be bc50 ec3c e2d1 7aba 1218 9dbc
000000b0: e097 7a3d 439c 0e3e 8139 27be b1c1 013e
000000c0: aa5d ec3d c8fd 6e3c f82b edbb 83d0 c73d
000000d0: 09a7 963c 746b fe3a 3346 4bbe ac60 54be
000000e0: 2463 1dbe 6c57 7e3d 7777 06bd 0c0f 8abd
000000f0: 7f60 0a3e 03de 853e d621 053c 77d6 44be
00000100: 62c9 b0bd ffec 213e f4c3 f6bd 2b7b 09bd
00000110: 7922 cfbd 41cd 75bc cf33 09be 2c9e 5ebd
00000120: 3b75 ffbb b2be 613d eb2b 173e 9aa5 1fbd
00000130: a48d b1bd 5976 73bd 2182 3bbd f98d bfbc
00000140: fbfc 8b3b 0bb4 17bd f757 00be b1c4 0d3b
00000150: b0ca 3c3d ab7a 883e 3435 a6bd d3f5 ef3b
00000160: 1b56 303d 1b2d c7bc 7bfa 823c 3f73 11be
00000170: beb8 883d da54 693d cf87 aabb 96a2 f6bc
00000180: c740 473c f61b 973c b874 8bbe 3815 233d
00000190: 4e1a 023e 3975 acbd 845d 9bbd 1798 b7bd
000001a0: 61cb ec3c 91b5 a3bc c3d6 8e3d 5266 88bd
000001b0: e54f b4bc e99e 03be ed62 07be e59e cbbd
000001c0: b7ff 923d 8e7b d9ba 7379 263e 2881 d83c
000001d0: 351e a1bd 93f3 febd 08e5 94bd 4edc 1b3e
-0.11799561 -0.1190064 0.17592755 -0.036476683 0.24561536 0.05745248 0.13788605 0.13843901
-0.21383466 -0.0023415927 -0.03485013 0.038842067 -0.09723926 0.05994792 -0.2089259 -0.25294235
0.17810664 0.039131716 -0.083551556 -0.17213573 0.2916529 0.122138694 -0.11219167 0.12576735
0.15203896 0.21529113 0.019291006 -0.031983256 0.12644237 -0.004651389 -0.12869115 -0.059881303
-0.026947746 -0.14664514 -0.11471311 0.073417395 -0.042419504 -0.039665982 0.02026976 -0.17154276
-0.12520355 0.02884709 -0.0009568018 -0.019176517 0.061179996 0.13926797 -0.1633053 0.12671544
0.115413025 0.014586873 -0.0072379075 0.09756567 0.018390195 0.0019410686 -0.19850998 -0.20740002
-0.1536985 0.06209509 -0.032828774 -0.06741151 0.13513373 0.26145944 0.008125743 -0.19222437
-0.08632161 0.15813063 -0.12049094 -0.033564728 -0.10113997 -0.01500255 -0.1339867 -0.054350063
-0.0077959574 0.0551135 0.14762847 -0.03897629 -0.08669594 -0.059439037 -0.045778397 -0.023383128
0.004272101 -0.037036937 -0.12533556 0.002163213 0.046091735 0.26656088 -0.081156164 0.0073230057
0.043050867 -0.0243135 0.015988579 -0.14204119 0.06675862 0.056965686 -0.005204178 -0.030106824
0.01216144 0.01844595 -0.27237487 0.039815158 0.12705347 -0.08420796 -0.07586196 -0.08964556
0.028905572 -0.019984039 0.06974556 -0.06660141 -0.022010753 -0.12853588 -0.13221331 -0.09942416
0.0717768 -0.0016592608 0.16257267 0.026428774 -0.0786709 -0.12448802 -0.07270247 0.15220758

classifier.1.weight f4 [120]
00000000: e675 593f 868c 5a3f baa2 6f3f 4a1b 2d3f
00000010: 40b1 773f 579a 6b3f 61ef 653f dd99 813f
00000020: 8f95 633f 1e24 643f b5c0 5d3f a407 523f
00000030: eef7 6d3f e6cb 653f 92b6 443f 442e 793f
00000040: e91f 4f3f 021d 6a3f 1095 723f cea8 303f
00000050: 9f51 433f 8249 3e3f 8bb5 863f 905e 5c3f
00000060: 6d7f 2a3f 3a73 683f 03c9 553f fe83 653f
00000070: 4a02 6f3f a725 5a3f a908 5b3f b679 6b3f
00000080: 53f4 733f 5d49 7f3f 9e93 763f e041 8c3f
00000090: aae0 793f d3db 653f fa2e 623f 2bfa 683f
000000a0: 3390 743f 0c4b 5b3f bc51 4a3f 6bbb 5a3f
000000b0: 76fb 453f 84e5 463f a486 583f 3eab 733f
000000c0: b7d3 573f 5385 463f 9d22 4c3f beac 843f
000000d0: a07e 723f c321 833f 1c8e 803f 66ee 7a3f
000000e0: 4015 663f dc46 593f c39c 723f 20d0 5a3f
000000f0: 0bcb 573f b0f9 5c3f cc1b 643f e4fb 6d3f
00000100: c1fc 4e3f ba78 543f cc88 623f 46b6 523f
00000110: 179d 4b3f 42a4 823f a5c4 703f 3ee3 5d3f
00000120: 5dda 613f d8bb 4f3f 691a 7c3f 14b3 723f
00000130: faf7 653f 3cbb 823f 385f 443f 8f34 6a3f
00000140: da48 7b3f 866e 5a3f 8d05 7c3f 3194 4a3f
00000150: 6b24 8d3f c942 553f 073a 583f 574a 6d3f
00000160: 32b4 6a3f c902 773f 31b2 693f a939 673f
00000170: cbcc 7c3f 3f53 453f 6bd8 563f 4a3d 6f3f
00000180: a26a 753f cb82 463f e783 643f 76ff 823f
00000190: 2343 693f c8f5 543f 6a27 603f e09e 723f
000001a0: 3c31 7b3f 4da5 723f 25e8 813f 287d 693f
000001b0: 7737 703f e215 523f 298f 5b3f 0710 7a3f
000001c0: a1f6 743f 50f8 5c3f ca9f 6b3f 28ea 6e3f
000001d0: cb34 553f f879 523f ae22 793f c73c 5e3f
0.84945524 0.8537067 0.93607676 0.67619765 0.9675484 0.9203238 0.8981839 1.012508
0.88900083 0.8911761 0.8662217 0.8204291 0.92956436 0.8976425 0.7684108 0.9733622
0.80908066 0.9145051 0.947587 0.69007576 0.7629642 0.74330914 1.0524153 0.8608179
0.66600686 0.9080082 0.83509845 0.8965453 0.9336287 0.852137 0.8556009 0.9198259
0.95294684 0.9972132 0.96318996 1.0957603 0.97608435 0.8978855 0.8835293 0.91006726
0.9553253 0.8566139 0.79030967 0.8544223 0.77336824 0.77693963 0.84580445 0.9518317
0.84307426 0.77547187 0.79740316 1.0365217 0.94724464 1.0244678 1.0043368 0.9802002
0.89876175 0.8487375 0.9477045 0.85473824 0.84294194 0.8631849 0.89104915 0.9296248
0.8085442 0.82996714 0.88489985 0.8230938 0.79536575 1.0206378 0.94050056 0.8667487
0.8822382 0.81146 0.984778 0.948045 0.8983151 1.0213389 0.7670779 0.9148645
0.9815804 0.85324895 0.9844597 0.7913237 1.1026739 0.8330503 0.8446354 0.9269156
0.91681206 0.96488625 0.91287524 0.9032236 0.9874999 0.7708015 0.8392398 0.93452895
0.95865834 0.77543324 0.89263767 1.023421 0.9111807 0.8318753 0.8756014 0.94773674
0.98122 0.9478348 1.014897 0.912066 0.9383463 0.8206464 0.8576532 0.97680706
0.95688826 0.86316395 0.92040694 0.93326044 0.8328368 0.8221736 0.9731854 0.8681149

classifier.1.bias f4 [120]
00000000: 6c2c f4be 9d51 d2be 6af5 0abf 8d50 a9be
00000010: 9dc0 16bf d5fe 21bf 06fc 08bf 76c7 06bf
00000020: cad9 e2be f437 58be da8b d2be f9f6 f2be
00000030: ac10 e6be 28f6 08bf 5bd8 b7be a0a3 c3be
00000040: 0d78 17bf 2534 1abf 5aff c7be 54dd febe
00000050: 8fdb 02bf e810 0abe c409 e4be 4e82 0abf
00000060: fd58 c2be f07c acbe b8fc abbe e76a b8be
00000070: e7c5 d2be 6628 a8be 00d4 d9be 16b8 b2be
00000080: 713b ffbe 4727 cebe b52b d9be 71e7 e6be
00000090: dac1 f2be c2e8 e2be 8c75 f1be ad59 04bf
000000a0: 70bf cdbe 70b5 debe 7bf2 cdbe 6932 dcbe
000000b0: 36e0 c2be 3ddd d0be de28 cbbe dfe1 bdbe
000000c0: a6a1 eebe aed7 c4be 1e3b 14bf ff5a c7be
000000d0: 199d 05bf 0c37 06bf 087b b8be d111 efbe
000000e0: b95c f3be 0134 28bf 9812 d9be 8832 c2be
000000f0: 59cb a0be 8099 cdbe 16ae 15bf ed47 9abe
00000100: 0fae 97be 5f80 08bf b22f 95be f545 7ebe
00000110: f862 a3be 8b1f 0fbf aac7 b6be 2d11 f3be
00000120: 972e fcbe fb2a b1be 79c1 dfbe 48c4 fbbe
00000130: baa1 dabe caf4 c2be 0c2f 7fbe 3962 d2be
00000140: 51fe 93be 801d b2be 667c f9be f539 afbe
00000150: eaaa c1be 4eea 6abf 2aa8 fdbe 59a0 c4be
00000160: 01a9 bfbe a200 bdbe 091f cebe 5270 ccbe
00000170: b5e9 bebe c93f f9be 7e41 03bf f161 b0be
00000180: fa65 02bf 42f8 bfbe 6d1f 8abe 57eb c2be
00000190: 2496 17bf d196 28bf 94bf febe 0e4f 08bf
000001a0: 3207 acbe 6b36 a1be e0ca 0dbf 506d 3fbf
000001b0: 69ea fabe 1da5 36be adf8 f4be 7faa 5cbf
000001c0: 2bc6 37bf bcaf d0be 604c 9dbe 0c3b 13bf
000001d0: 5a6c a7be 476e e9be 282c ecbe b277 e4be
-0.4769014 -0.4107789 -0.5428072 -0.33069268 -0.58887655 -0.6327947 -0.5350956 -0.52648103
-0.44306785 -0.21115094 -0.41122323 -0.4745405 -0.44934595 -0.53500605 -0.35907254 -0.38210773
-0.5916756 -0.60235816 -0.39062005 -0.49778235 -0.5111627 -0.13483012 -0.445387 -0.5410508
-0.37958518 -0.3368907 -0.33591247 -0.3601906 -0.41166613 -0.32843322 -0.42544556 -0.3490607
-0.49850038 -0.4026434 -0.42416158 -0.4509845 -0.47413522 -0.44318205 -0.47159994 -0.51699334
-0.40185118 -0.434978 -0.4022406 -0.4300721 -0.38061684 -0.4079379 -0.39679617 -0.37086388
-0.46607703 -0.384458 -0.57902706 -0.38936612 -0.52192837 -0.52427745 -0.36031365 -0.4669328
-0.4753168 -0.6570435 -0.42396998 -0.37929177 -0.31405142 -0.40156174 -0.5846876 -0.30133
-0.29624984 -0.5332088 -0.2913795 -0.24831374 -0.31911445 -0.55907506 -0.35699207 -0.47474042
-0.49254295 -0.34603104 -0.43702295 -0.49173188 -0.42701513 -0.38077384 -0.2492029 -0.41090563
-0.28904966 -0.34788132 -0.4872772 -0.34223905 -0.3782571 -0.9176377 -0.49542361 -0.38403586
-0.37433627 -0.36914545 -0.40258053 -0.39929444 -0.3728768 -0.48681477 -0.5127181 -0.34449723
-0.50936854 -0.37494093 -0.269771 -0.38070175 -0.5921347 -0.6585513 -0.49755538 -0.5324563
-0.3359924 -0.3148683 -0.5538769 -0.7477617 -0.49006966 -0.17836423 -0.47845975 -0.86197656
-0.71786755 -0.40759075 -0.30722332 -0.57511973 -0.32699853 -0.45591947 -0.4612744 -0.4462257

classifier.1.running_mean f4 [120]
00000000: 4798 26bd b2cf dabd 85fd 633e 6a9c a43c
00000010: afc3 983e c264 773d 7614 f03d 9bc8 243e
00000020: 37be 46be ec9b f73c 2a59 a4bd 3b76 e9bd
00000030: 6605 82bd 2014 103b 5af3 dbbe ba52 07be
00000040: ce57 ee3d 9828 f03d 46a0 50bd 5134 f1bd
00000050: fb6b a83e 9961 6e3e 55b1 1cbe 6092 4f3e
00000060: 76e3 533d cf15 253e 847f 4d3e dce0 debc
00000070: 928d a33d e762 c3bd 62f6 80bd 5101 adbc
00000080: 6a44 52be c51f f6bd 4f77 0dbe c2bc 9c3e
00000090: 37d4 31be f9c7 913d 1bab d13d 9232 afbe
000000a0: 6f96 0cbd 5c3f 4c3c 64fd ae3d f0ec 6bbc
000000b0: 0757 e43c 2daa 763e a9d6 fb3b 6057 f53d
000000c0: 6ee9 813e c67e 323e 8845 05be 9f4f 753c
000000d0: b533 e23c 227b 4f3e 92ad 67be 1786 9ebe
000000e0: 865a 13be d737 d33d 8e89 9f3d 63d4 9b3d
000000f0: 1750 dcbd e9e1 9d3e 25a8 2f3d 2877 1abe
00000100: d5cc 063e 85a1 fabb 014e 2fbe 9f71 d83c
00000110: e904 3fbe 0f66 5b3d 5486 2cb8 0922 333e
00000120: 16ed ddbc ce5f 323e baaa b63e ddbc 56bd
00000130: e467 f63c e4fb 7abd 92c7 13bd 4583 3ebc
00000140: 901b 1b3e cd3a 013d 5001 77bd ad0e 6fbe
00000150: 86b8 873d 2db7 5d3e 5f2a 21be d280 98bd
00000160: 4b70 003e 63de 66bd 98db 20bd a31d 1bbd
00000170: c88d df3d 2d9b da3d dc6c d83d 8815 b3bd
00000180: 996e 0b3e 0b5a 793d 277a c6bd 0456 ad3e
00000190: 7cd2 a93e db49 343d 6c33 5abd 6486 27be
000001a0: 015f e03b e2cf 253d 652f 6f3c 4595 a8bd
000001b0: 90b8 5f3d 939c 6bbd 32ed 033e 1be6 c5bd
000001c0: e581 293d 5e81 4bbb e7f9 e83e 33ce c5bc
000001d0: 1996 2b3e cfa4 6cbd 4ee3 053e a557 3b3c
-0.040672567 -0.10684146 0.22264679 0.020094115 0.29836795 0.060398825 0.117226526 0.1609215
-0.19408499 0.030225717 -0.08024819 -0.11399504 -0.06348686 0.0021984652 -0.429591 -0.13215151
0.11637841 0.11726493 -0.0509341 -0.11777557 0.32894883 0.23279418 -0.15302022 0.20270681
0.051730596 0.161216 0.20068175 -0.02720683 0.07985987 -0.095403485 -0.06296994 -0.021118792
-0.2053391 -0.12017778 -0.13815044 0.3061276 -0.1736611 0.0711822 0.10237714 -0.3421827
-0.034323152 0.012466278 0.08544424 -0.014399752 0.02787353 0.24088354 0.0076855016 0.11979556
0.25373405 0.17431173 -0.13014805 0.014972596 0.027612546 0.20261815 -0.22624806 -0.30961677
-0.1439 0.10313385 0.07789908 0.07608869 -0.107574634 0.30836418 0.042884964 -0.15084517
0.13164075 -0.007648649 -0.171196 0.026421366 -0.18654217 0.053564128 -4.11331e-05 0.17493452
-0.02709059 0.17419359 0.3567713 -0.052426208 0.030078836 -0.061275378 -0.036078997 -0.011627977
0.15147233 0.031550217 -0.060303986 -0.23345442 0.06626992 0.21651907 -0.1573882 -0.074464455
0.12542836 -0.05636443 -0.03927192 -0.03787006 0.109157145 0.10674129 0.10567638 -0.08744341
0.13616408 0.060876887 -0.096912675 0.33854687 0.331684 0.044015747 -0.053271696 -0.1635986
0.006847263 0.040481456 0.014598702 -0.08231596 0.054619372 -0.057522368 0.12883452 -0.0966303
0.041383643 -0.003105245 0.4550316 -0.024146175 0.16756476 -0.05777436 0.13074991 0.01143447

classifier.1.running_var f4 [120]
00000000: 7a90 2c3b f82a cd3a 5311 043b f5e0 0d3b
00000010: d6aa c73a f4b6 1c3b d74c b33a 8df7 163b
00000020: fb8c fa3a ab0e 8e3b 6762 fc3a 6dcd d73a
00000030: 9558 963b 5d87 003b a11e 963b aa0a 993b
00000040: c91a 973a 5312 183b 2479 0a3c 1d4f 1b3b
00000050: e8b4 e83a 3184 7d3b cca3 753b 8e6b 593b
00000060: b8ef 753b 0105 ec3a ca9a 523b c8de 543b
00000070: 3a50 783a 5a4a ca3a 45b4 bb3b af44 f13a
00000080: d3c3 233b ae35 483b a82f 7b3b 0432 213b
00000090: 6781 e73a b79a 1d3b 9ab2 9e3a 7fbe 263b
000000a0: a05b 293b 791c ec3a 8fcf aa3b 2bfe 983a
000000b0: 3e3d 8f3b 2a0f 423b 38a0 593a 9d2f 803b
000000c0: 883f aa3a 42d4 833b 9b7d 803b e4af a03b
000000d0: 0090 573b 17bd 243b 7d29 053b b573 0d3b
000000e0: 4a4e 513b 378d 363b 588e 513b c7ea 013b
000000f0: 28db 2e3b 9d21 053b c238 c23a e432 093b
00000100: 9017 393b cee3 5f3b 0ce0 503b d56e 2e3b
00000110: 33c9 d03a 3a93 bd3a 9cf8 a33a 3d2a bf3b
00000120: 4a43 013b 510a bb3b cf07 2b3b 17ef 703b
00000130: abfc 123b 07dd bf3a 76a2 923b c67f 113b
00000140: 74d9 c33b 8b40 b53a 70f3 443b 575a b93b
00000150: 87fc 653b ed18 5b3a 1479 163b dfef 593b
00000160: 3201 df3a e298 053b a981 743a 9a85 af3b
00000170: cb77 2b3b a204 183b 40cb 1a3b 5907 113b
00000180: 7ecf 143b 251b 073b 86cb 603b 0972 283b
00000190: e830 f33a c4cf ef3a 6073 af3a 1187 e43a
000001a0: 4b9e cf3b 9f81 723b 07cb aa3a f1c1 8e3a
000001b0: f082 173b 1e76 3c3b eb60 813b 618d a73a
000001c0: 8003 cc3a bbbc 1a3b 9a45 d13b 68eb e23a
000001d0: a813 ee3a 716b 863b 3db6 d33a c7ef fd3a
0.0026331232 0.0015653064 0.0020151928 0.0021648977 0.0015233408 0.002391276 0.0013679516 0.0023035735
0.0019115502 0.0043352447 0.00192554 0.001646442 0.0045881965 0.0019611933 0.004581288 0.0046704607
0.0011528368 0.0023204281 0.008451734 0.0023698278 0.001775411 0.0038683529 0.0037481664 0.003317568
0.0037526917 0.0018006862 0.0032135719 0.003248142 0.0009472404 0.0015433535 0.005728277 0.001840731
0.0024988547 0.0030549574 0.0038327966 0.0024596462 0.0017662466 0.0024048516 0.0012107671 0.0025443134
0.0025841966 0.0018013857 0.005212731 0.0011672428 0.0043713143 0.002961109 0.00083017675 0.003911926
0.0012988904 0.004023106 0.0039212233 0.0049037803 0.0032892227 0.002513712 0.0020318918 0.002158386
0.0031937533 0.0027855167 0.0031975713 0.0019823776 0.002668092 0.0020314225 0.001481794 0.0020934874
0.0028242804 0.0034162882 0.0031871824 0.0026616354 0.0015929103 0.0014463433 0.0012510004 0.0058338926
0.0019723945 0.005708017 0.0026097184 0.0036763602 0.0022428434 0.0014638015 0.0044749333 0.0022201403
0.00597685 0.0013828439 0.0030052327 0.0056565213 0.0035093145 0.0008357901 0.0022960352 0.0033254547
0.0017013906 0.0020385315 0.0009327182 0.0053565027 0.0026163931 0.002319612 0.0023619682 0.0022129624
0.0022706683 0.0020615545 0.0034300997 0.0025702736 0.0018554004 0.0018296172 0.0013385825 0.0017435272
0.0063360087 0.003700353 0.0013030478 0.0010891539 0.0023118816 0.0028756927 0.003948321 0.0012783223
0.0015565008 0.0023611027 0.006386471 0.0017312588 0.0018163817 0.0041021635 0.0016152334 0.0019373827

classifier.4.weight f4 [130, 120]
00000000: 6d87 a7bd 3598 bb3d 4f37 87be 2bed 84bd
00000010: 08f3 e13c 9cfe 93bd 7a86 ac3d e76f 9bbe
00000020: 517d 7fbc 2257 193b 3c41 c8bc e20c 0b3d
00000030: 211f d3bc ec2d e2bc 00cb 45bc 392e fa3b
00000040: c18f 113d 9c21 503c 4452 aabe 94c0 9a3d
00000050: c217 c23b 65d4 d4bb 03b2 7a3b af1a 86bd
00000060: 43f5 bcbd a3c9 1abd 5c72 c23c 909b 93bd
00000070: 4b6c a5be 5200 4dbd 8f51 bdbd 991f 66bd
00000080: 844f 08bd ca45 c0be 98eb d2bd 52b1 d6be
00000090: 1cc5 45be 72c0 013e 2faf 363b a3e2 1e3e
000000a0: 3a0f 48bf dd93 f83d 9160 05bc b974 67bc
000000b0: e7c3 77bc 23c3 2bbd 60ad 33bd 7721 a73c
000000c0: 7435 1dbe eaca bbbc e56c f2bb dc09 b4bd
000000d0: 27c1 163e 4c2a 8dbe 6239 bbbd bbfc cfbd
000000e0: 4982 8d3c b18a 1b3d add5 27be 3221 04bd
000000f0: 68e3 ad3d aa81 0cbe ad34 40bd c13c 6c3d
00000100: e537 f03d fddc 0a3d d6ac 0abe 1e1f 02bd
00000110: 2ad8 13be 388f e5bd 2a09 bdbe ad03 ebbc
00000120: 117f a03b 5015 d2bd 7cfc b2be 020c 063e
00000130: 30ef 3b3d d356 8e3c 290d a0bd 2ca2 fe3d
00000140: 4f3a 9f3d a9f0 82bd f217 a4bd 455d 85bd
00000150: 8eb8 b6be ede9 6b3c 54ff 04be bfed 38be
00000160: c8f7 083d 630f 1f3c adb2 02bd 76b2 4dbd
00000170: 33fd 1abd 522b 0bbd aee3 c9bb 8a40 a93d
00000180: 4b91 c0bd fa4a 8bbd aa47 e0bc 44a7 bebe
00000190: 7f29 fc3c 6e62 9dbd f538 543e d8dc 093d
000001a0: 0017 663c 7722 6abd 6a31 d2be 2214 d1bd
000001b0: 6dbc 96bd 77f4 eb3d 0d55 2abe 8d18 633d
000001c0: 8f01 ed3a 1279 14be 7c5d 3fbd 9977 293d
000001d0: 8a39 9a3c 9a6f c33c f1f9 2bbe b9d8 483d
000001e0: ad0b 1d3d 0d10 b43d 65c5 eebc f954 1bbc
000001f0: a76b 9e3d cdf0 81bd ecf9 0abc dc24 4f3b
00000200: e2a8 8cbb 69b7 f6bd c900 61bc 8598 1c3d
00000210: d633 97be 8338 a5bd b51d bb3d 366b 47be
00000220: 32ce 4d3d 809a 173d fc45 053d 57ba a8bd
00000230: 3210 213d 1def 95be a595 96be a1d6 4cbe
00000240: 9f81 343d f1ff 9fbd 6b8e 01be 94b0 dbbd
00000250: aa48 99b8 0b3b af3d 2446 a03d 27bb ed3c
00000260: 58b8 5f3c d3c8 e8bc de11 c53c fb44 dabc
00000270: d532 55be 854c 9a3d 0f82 8b3d 4fad 56be
00000280: e0fc 44bd efea 0a3e 2c5a 9c3d 3b1a 5fbd
00000290: 3c1d c03c 89aa 763d 6b20 a9bc 4ab0 bd3d
000002a0: 56db febd 121d cdbd 299e 553d e7dd 69be
000002b0: b2a0 d1bd 0d1c 46be f163 3cbd 6eeb 933c
000002c0: 1144 9fbd 92da 38bd f3ca 48be 2921 25be
000002d0: 89c2 673d 0884 23be 0f73 953c d0cb 1cbd
000002e0: 7609 d33d e4de 5a3d b22a 5cbc ea69 02be
000002f0: dc66 1d3e f823 66be 1fa4 7bbe c330 98bc
00000300: 301c 2dbd 4182 f9bc d876 8abe 3ea6 84be
00000310: b65b da3c df4d 40bd 8fcc eaba d9d6 01be
00000320: a2e0 49be cf83 11be 7d25 1a3c 1563 533c
00000330: 4d73 483d 9509 a63c 36db 833e 83f2 ca3c
00000340: 80be c0bd b489 873c 983d 95bd 44b4 e93d
00000350: a083 9dbe d4a4 80bc ca8b df3c ee68 61be
00000360: 974c 6e3d ff75 ab3d 890e 92bd 20d2 39bd
00000370: f8ca 7d3c 132f 2d3d aca2 163e 1f53 5bbe
00000380: 6598 89be b4ec dabe 7884 d2bc 4220 bb3b
00000390: fc9c 583c 5bbb b53d 3341 15bc f2c5 3c3e
000003a0: 9ad2 713d 7862 a03b 16b5 33be 65a0 04be
000003b0: 17aa 203e 432b 213e fa6c 50be a098 a13d
000003c0: d685 333d c764 1a3d 9e5d 5abe 56e7 a43d
000003d0: 9fd8 8abe 965f 82be 9af2 06be 90a4 6d3e
000003e0: 5530 cabd 586e 723c a39a a33c 6bc5 9c3c
000003f0: def2 2c3d 42e4 33be 2070 0c3d 070e ff3c
-0.08180127 0.091598906 -0.26409385 -0.06490549 0.027581707 -0.07226297 0.08424087 -0.30358812
-0.015593843 0.0023397882 -0.024445169 0.033947833 -0.02577168 -0.027609788 -0.012072325 0.0076349047
0.035537485 0.012703326 -0.3326589 0.075562626 0.0059232423 -0.006495046 0.0038253076 -0.06548058
-0.092264675 -0.037789952 0.023736171 -0.072074056 -0.32309183 -0.050049134 -0.09244072 -0.056182478
-0.033278957 -0.37553245 -0.10298842 -0.4193216 -0.19313473 0.12671068 0.0027875414 0.15516143
-0.78148234 0.12137578 -0.008140699 -0.01412695 -0.01512239 -0.041934144 -0.043866515 0.0204017
-0.15352422 -0.022923905 -0.007398235 -0.08790943 0.1472212 -0.27571332 -0.09141804 -0.101556264
0.017274039 0.037974063 -0.16390105 -0.03225822 0.0849064 -0.13721338 -0.046925236 0.057675127
0.11729411 0.033902157 -0.13542494 -0.031767957 -0.14437929 -0.112089574 -0.36921054 -0.028688276
0.00489796 -0.10257971 -0.34958255 0.13090518 0.045882404 0.017375385 -0.0781501 0.124332756
0.07774793 -0.063935585 -0.0801238 -0.065119304 -0.3568768 0.014399034 -0.12988025 -0.18059443
0.033439428 0.009708258 -0.03190868 -0.05021902 -0.037839126 -0.03397686 -0.0061611747 0.08264263
-0.094027124 -0.0680141 -0.027377922 -0.3723699 0.030781506 -0.076847896 0.20724852 0.03365788
0.01404357 -0.057161774 -0.41053325 -0.10208918 -0.07360158 0.11521237 -0.16634007 0.055443335
0.001808213 -0.1449931 -0.046720013 0.041373823 0.018826265 0.023856927 -0.16794564 0.049034808
0.038341213 0.08792124 -0.02914686 -0.009480708 0.07735377 -0.06344757 -0.008482438 0.0031607663
-0.0042925933 -0.120467015 -0.013733097 0.03823139 -0.29531735 -0.080674194 0.091365255 -0.19474491
0.05024547 0.037012577 0.032537445 -0.082386665 0.039322086 -0.2928399 -0.29411045 -0.2000375
0.04406893 -0.07812489 -0.12651984 -0.10727039 -7.309143e-05 0.085561834 0.07825878 0.029019905
0.013654791 -0.028416073 0.024056371 -0.02664422 -0.20820172 0.07534126 0.06811916 -0.2096455
-0.048092723 0.13566183 0.076343864 -0.054468375 0.02345144 0.06022123 -0.02064534 0.0926214
-0.12444179 -0.1001531 0.052152786 -0.22838555 -0.10235728 -0.19346638 -0.04599375 0.018056598
-0.077766545 -0.04513032 -0.19608669 -0.16125931 0.056582008 -0.15968335 0.01824334 -0.03828031
0.10304539 0.05343522 -0.013437914 -0.12735716 0.15371269 -0.22474658 -0.24574326 -0.018577939
-0.04226321 -0.030457618 -0.27043796 -0.25908083 0.02665506 -0.046949264 -0.0017913746 -0.12679614
-0.19714597 -0.14210437 0.009408352 0.012902041 0.048938084 0.020268241 0.25753182 0.024773842
-0.09411335 0.016545154 -0.07287139 0.11411336 -0.30764484 -0.015703596 0.027288336 -0.22012684
0.05817851 0.08372115 -0.071316786 -0.045366406 0.015490286 0.04228122 0.14710492 -0.21418427
-0.2687408 -0.42758715 -0.025697932 0.0057106325 0.013221022 0.08873626 -0.009109783 0.18434885
0.059038736 0.004894551 -0.17549548 -0.1295181 0.15689884 0.1573916 -0.20354071 0.07890439
0.043828808 0.037693765 -0.21324775 0.08051936 -0.27118394 -0.2546355 -0.13178483 0.23207307
-0.098725 0.014796816 0.019971197 0.019137105 0.042223804 -0.17567542 0.03428662 0.031134618

classifier.4.bias f4 [130]
00000000: 2a68 bdbd 5bbb 31bd 1150 80bd 4d42 0bbd
00000010: 3c7e a7bd 138d e8bb ece3 a9bc 21d4 a1bb
00000020: c4c9 803c 5cd7 fcbc 5866 4ebd 84a2 c3bb
00000030: 3709 d03d 677f d2bc 1592 54bd d276 903c
00000040: 0123 18b9 51fd 903d 6145 c73c cf37 303c
00000050: b6eb 71bd bfd9 d43b 8d91 0a3d 7300 8e3d
00000060: 3751 82bd 72f1 0a3d b536 d6bd 3eb1 91bd
00000070: 6118 ef3d 2526 85bd 9367 5e3d 7144 01be
00000080: d63d 353d 0e67 9c3d 0aed 083c 3a5b f6bc
00000090: e8c2 193d a2a1 52bd c73e 773d 4dbf 693d
000000a0: a951 693d 4c7b 39bd 9df6 403e 6a0f 0d3c
000000b0: 3773 603d b70e a7ba c19d adbd 9291 65bd
000000c0: 24ce 0d3d e328 0ebe 1c6c 13bd 1f04 b0bc
000000d0: 8671 2fbd 55d6 4b3d 21c0 b23d a5fe 87bd
000000e0: 6b3c 29bc 1007 3a3d 192e e0bd 8df1 ee3c
000000f0: 02cd 82bd a1ac 853c f785 db3d d6f6 923a
00000100: 8952 aabd 3d1c a5bd 4893 f23d 2c00 a9bd
00000110: 02f3 8abd bbde e1bc 9595 e8bc 6445 843d
00000120: a8e7 c13b 52ae e8bd a9fd 583d b127 14bd
00000130: 75ee 813b e20e 2f3d 7916 5e3c e7a9 ccbc
00000140: 57dc 97bd 181d 65bb ba39 2c3d 68fc 773c
00000150: 40c4 17bd ea64 743d 114c b8bd d2eb b4bc
00000160: cc87 95bd 0bef 483d 3b2e 9b3d 54ca 113d
00000170: 9ef4 893d e847 a4bd 979a 14bd 2964 c03d
00000180: ae27 153d 0107 24bd dcd0 ca3c 3130 013d
00000190: b583 833c 7763 6fbd 3d60 a9bd d50d d53d
000001a0: 6569 a7bc 73e0 9b3b 69c0 803d 530f 9fbd
000001b0: ea0b a1bd f1b9 cdbc c802 d3bc 3101 39bd
000001c0: 51ef 35bc 70e7 ce3d e1de b6bc 02b6 793d
000001d0: 1645 e63d c9e2 e7bd 988d 703d 5c84 e13d
000001e0: 9a15 d8bc 36da 093d 67e0 5b3c 7642 c83c
000001f0: 87a1 c03d 8889 a13c 14cc 193d afbb 5b3c
00000200: c6a7 54bc 707e 373d
-0.09248383 -0.043391567 -0.062652715 -0.033998776 -0.08178374 -0.0070968955 -0.020738564 -0.004938618
0.01572121 -0.03086441 -0.05039057 -0.005970301 0.101580076 -0.025695516 -0.051897127 0.017634783
-0.0001450889 0.07079566 0.024325075 0.010755493 -0.059062682 0.006495684 0.033830214 0.069336794
-0.06363147 0.033921666 -0.10459653 -0.071138844 0.11674572 -0.06501416 0.054297995 -0.12623765
0.044248424 0.076368436 0.008357296 -0.030072797 0.037539393 -0.051423676 0.060362604 0.057067204
0.056962643 -0.0452836 0.18844076 0.008609632 0.054797377 -0.0012745474 -0.08477355 -0.05604703
0.03462042 -0.13882785 -0.035991773 -0.02148634 -0.042832874 0.04976495 0.08728052 -0.066403665
-0.010329346 0.04541689 -0.109462924 0.029167915 -0.063867584 0.016317667 0.10718911 0.0011212479
-0.083165236 -0.08062027 0.11844498 -0.08251986 -0.06784631 -0.027572026 -0.028391639 0.06458548
0.005917508 -0.11361374 0.052976284 -0.036170665 0.003965194 0.042738803 0.013555163 -0.02498336
-0.07415073 -0.0034959968 0.04204724 0.015135862 -0.037052393 0.05966655 -0.089988835 -0.022085104
-0.07301292 0.049056094 0.07577177 0.035593346 0.0673611 -0.080215275 -0.03628024 0.09394104
0.036414795 -0.040045742 0.024757795 0.0315401 0.016054014 -0.058444466 -0.08270309 0.10403029
-0.020435998 0.004756981 0.06286699 -0.07766595 -0.078636006 -0.025113078 -0.025758162 -0.04516715
-0.011104421 0.10102737 -0.022323074 0.06096459 0.11243646 -0.11322553 0.058728784 0.11011574
-0.026377488 0.033655368 0.013420201 0.024445754 0.09405809 0.0197189 0.03754814 0.0134114465
-0.012979453 0.044798315

classifier.5.weight f4 [130]
00000000: 1082 793f 4bd7 4f3f ea5f 433f 32ff 7c3f
00000010: 6092 873f ec61 713f a16b 383f a45e 5f3f
00000020: 181b 5b3f 4364 823f efdd 813f f513 923f
00000030: 5ffb 6d3f 6e34 4a3f 9abf 623f bc6f 923f
00000040: c7f0 343f d843 7c3f 1be7 6d3f ceeb 7e3f
00000050: f7e4 733f 7d5f 543f 953d 8f3f f636 933f
00000060: bf30 673f f790 783f 9b85 343f 152b 833f
00000070: 2e5d 903f 222b 693f 6feb 3f3f a163 943f
00000080: af4d 773f 459f 643f 208f 843f 7fea 6f3f
00000090: a283 803f f2c1 6f3f 0a94 6e3f 876b 413f
000000a0: 9f5b 6c3f 3326 763f 062b 2d3f 30b1 503f
000000b0: 6a15 8c3f 4a6d 4f3f e98d 8b3f 5d49 7a3f
000000c0: a723 713f ef29 4a3f 163a 3c3f ef65 4b3f
000000d0: 529b 763f 8111 833f 27b1 3b3f c660 593f
000000e0: a17b 613f 2d3f 363f 80f1 813f 8c34 863f
000000f0: 1aeb 5f3f d08e 843f 5c0e 7a3f 5ffa 483f
00000100: 9245 783f fd25 453f 0309 5d3f 61ae 293f
00000110: df12 523f 599d 8a3f 36e2 833f 0b81 463f
00000120: ca7c 773f 6960 513f 15f8 833f fa76 4a3f
00000130: dd62 753f 47e1 7b3f 6291 543f 30ec 6d3f
00000140: 4c75 943f d15a 7a3f ff47 813f 5d6b 403f
00000150: ef70 833f 2489 873f 224d 813f 40fa 803f
00000160: 23d3 633f 4b51 933f c834 5a3f c41e 853f
00000170: 714d 333f 281e 6d3f 8e37 773f 4ab6 6a3f
00000180: f069 523f f766 8d3f 58f8 4f3f f760 633f
00000190: dd29 8b3f d56a 8c3f 8db8 723f 6266 5a3f
000001a0: 4ab8 823f 5f90 7c3f f1e2 8a3f ed75 833f
000001b0: 76cb 4a3f 7a60 833f e561 733f 7cc5 663f
000001c0: 240a 783f 465d 4d3f dfd8 773f 87c2 953f
000001d0: 6af0 8b3f a4d8 683f f197 843f 3e3b 393f
000001e0: 47a7 6b3f e990 873f 384c 693f fb34 6a3f
000001f0: 22a2 883f adfd 7b3f 6447 803f 5a1f 673f
00000200: 69e3 563f b3a3 753f
0.97464085 0.81187886 0.7631823 0.988269 1.0591545 0.9429004 0.7203923 0.87253785
0.85588217 1.0186847 1.0145854 1.141234 0.92961687 0.7898625 0.8857361 1.1440349
0.706799 0.9854102 0.92930764 0.9957856 0.9527125 0.82958204 1.1190668 1.1501148
0.90308756 0.970962 0.70516366 1.0247523 1.1278436 0.9108144 0.7496862 1.1592904
0.9660291 0.89305526 1.0356178 0.9371719 1.0040171 0.9365531 0.9319464 0.755547
0.923273 0.9615204 0.67643774 0.81520367 1.0944035 0.81026137 1.0902683 0.97768193
0.94195026 0.78970236 0.7352613 0.79452413 0.9633075 1.0239717 0.7331719 0.8491329
0.8807927 0.7119015 1.0151825 1.0484786 0.8746811 1.0356083 0.9767816 0.78507036
0.96981156 0.7701109 0.86341876 0.66281706 0.82060045 1.0829269 1.0303409 0.77540654
0.9667479 0.81787735 1.0310084 0.79087794 0.9585398 0.9839062 0.83034337 0.9293852
1.1598296 0.97794825 1.0100096 0.75163823 1.026884 1.0588727 1.0101664 1.007637
0.88994044 1.1509184 0.8523679 1.0400014 0.7004004 0.9262414 0.96569145 0.916844
0.821929 1.1047047 0.8123832 0.8881983 1.0872151 1.0970103 0.9481285 0.85312474
1.021249 0.9865779 1.0850507 1.0270363 0.79216707 1.0263817 0.9507125 0.9014509
0.96890473 0.8022045 0.96815294 1.169999 1.0932744 0.9095557 1.0358869 0.7235602
0.9205212 1.0591098 0.91131926 0.9148709 1.0674479 0.98433954 1.0021787 0.90282214
0.8394075 0.9595291

classifier.5.bias f4 [130]
00000000: 5afe 95be d748 bfbe 13d5 d3be 8f3e 1fbe
00000010: 8dde 91be 139c babe 8c23 01be 0786 80be
00000020: e635 92bd b8b3 67be 10c4 79be 3bbe 98be
00000030: 16b6 a3be 58a3 03be c6cd c7be bf4f c2be
00000040: 059d c1bd 3258 e7bd e96e afbe 36b8 8abe
00000050: 3484 f8bd fcd7 ccbe 448d eebe a3ff 5cbe
00000060: 45de a1be d654 8dbe b6e3 fdbe ba18 77be
00000070: 6bef f3be 062d 02bf 283f 56bf dc84 94be
00000080: 9bf8 3abe b973 87be c33c 07bf 4c79 89be
00000090: 8447 88be 1118 e7be 8f39 89bd a652 70be
000000a0: 998b 82be 0946 e5be 47a1 20bf 18d3 e7be
000000b0: fc02 99be 8d4c 423d 6635 b0be b19c 37be
000000c0: 99da 59be c94e c1bd f718 e3be 6e25 2cbe
000000d0: 6fae c3be 9fe4 ffbd b8dc cebe 8fab 5fbe
000000e0: 5aaa d1bd f774 e5be f533 babe ce21 53be
000000f0: bffa 94be 4e76 a0be 79e4 76be aa39 30be
00000100: ec3d bebe cd21 1cbe 7eba 92be 8927 54be
00000110: 5998 dcbe eca1 9fbe eeb8 9abe d6c2 cfbe
00000120: 83fe 58be b6b3 00be 0497 a0be 54f1 1cbf
00000130: d5e3 d3be 839f 98be e40f a7be 06d5 bfbe
00000140: 0c58 abbe 3d9b 62be fa6a 6fbe 35cd e2be
00000150: 2b92 d0be 3704 87be f7e2 bcbe 30f3 40be
00000160: 25da 73be f915 8abe ad73 d7be adce a2be
00000170: c57b 32be bdf7 c5be f282 fbbe b043 ebbe
00000180: baf5 34be e175 91be cd9b f2be 9064 15be
00000190: e9f0 93be 2b5c b9be 0fc5 78be 097a efbe
000001a0: d533 b3be 0440 92be 5621 84be 997d edbe
000001b0: ba0f 0abf 8a1d 83be 26fd 97be 84ad 38be
000001c0: f279 b2bd 8532 16bf 7700 6abe 366e 4bbe
000001d0: 9297 b2be e5ea 28be 8c30 89be 86e2 f9bd
000001e0: 4ccd 7bbe abd9 27be e5fc 6cbe 4823 9ebe
000001f0: 9fb4 00bf 277e 4bbe 8045 acbe f11e 6bbe
00000200: 6156 9cbe 1461 eabd
-0.29295617 -0.3736026 -0.413735 -0.15551208 -0.28490105 -0.364472 -0.12611216 -0.25102255
-0.071391866 -0.22627151 -0.24391198 -0.29832634 -0.31974858 -0.1285528 -0.3902418 -0.37951466
-0.09453777 -0.11296119 -0.34264305 -0.27093667 -0.12134591 -0.40008533 -0.46592152 -0.21581893
-0.3161489 -0.27603787 -0.49587792 -0.24130526 -0.476436 -0.5084995 -0.8369012 -0.29007614
-0.18258898 -0.26455477 -0.5282709 -0.26850355 -0.26617062 -0.4513555 -0.067004316 -0.23469028
-0.2549713 -0.44779995 -0.6274609 -0.4527824 -0.2988509 0.047436286 -0.3441574 -0.17930867
-0.21274795 -0.09438855 -0.44354984 -0.16811153 -0.3821902 -0.12494778 -0.4040277 -0.21842788
-0.1023757 -0.448158 -0.36367765 -0.20618364 -0.29097554 -0.3134026 -0.24110593 -0.17209497
-0.37156618 -0.15247269 -0.28657907 -0.20718206 -0.43084982 -0.31178224 -0.30219215 -0.40578336
-0.21190839 -0.12568554 -0.31365216 -0.6130574 -0.4138476 -0.29809198 -0.3262931 -0.3746721
-0.33465612 -0.22129531 -0.23380652 -0.44297186 -0.40736517 -0.26370403 -0.3689191 -0.18842769
-0.23813684 -0.2696989 -0.4208044 -0.31798306 -0.17430027 -0.38665572 -0.4912334 -0.4595008
-0.17671862 -0.28410247 -0.47384492 -0.14589143 -0.28894737 -0.3620313 -0.24293922 -0.46772793
-0.35000482 -0.28564465 -0.25806683 -0.46384886 -0.53930247 -0.25608474 -0.29685324 -0.18034941
-0.087146655 -0.58670837 -0.2285174 -0.19866261 -0.34881264 -0.16495855 -0.2679485 -0.12201409
-0.24590033 -0.16391627 -0.23143347 -0.30886292 -0.50275606 -0.19872342 -0.33646774 -0.22961022
-0.30534652 -0.114442974

classifier.5.running_mean f4 [130]
00000000: 18ea b2bf dc71 7fbf 97fc 97bf be2e f6be
00000010: d88a 50bf 9f17 873d e092 f7be b732 3dbf
00000020: f690 19bf 6c32 efbe dd89 99bf 6836 e2be
00000030: 60bd 0c3e 7e8c 1fbf 6671 97bf 4ae8 4dbf
00000040: f0c2 13bf 5eaa fa3d 732a 2bbe f0e0 b2bf
00000050: a3a9 a1bf d08b 84bf 4fc2 3dbf d5b9 93bf
00000060: d837 33bf 451d 40bf 9c82 d2be 73e6 00bf
00000070: 9698 d6be 43a3 b6bf fa90 5dbe 2bcd 2abf
00000080: 015f 3dbf ad03 ce3c e675 7abf b452 debe
00000090: e01f 01bf f4a0 8bbf 90b8 f5bb 5abf af3d
000000a0: b3cc 50bf 6c8f 43bf d853 023e 8dd1 aebf
000000b0: ff81 eebe 24e9 ffbd c05b 3ebf cda8 0dbf
000000c0: deb2 0bbf 496d e3be 33c3 9fbf 737f 93bd
000000d0: e906 0b3d a929 e5be 640e 4ebf ba89 61bf
000000e0: c7a0 a5be 322b 03bf 5b75 53bf 0cb2 21bf
000000f0: 28c2 903d 606c 3bbf d318 75be 2b4f 3cbf
00000100: 14d6 c4bf cec0 50bf b514 f93d 040c 073e
00000110: 02b2 78be 146f 83bf 5e17 25bf 49bc 93bf
00000120: 76fe fdbd 5376 15bf f4e2 29bf e64f 96bf
00000130: 5a8f 21bf 2ca7 11bf 6408 abbe d7c9 8b3e
00000140: 7d58 d9bf ec29 b4bf 02ef f6be ed23 81bf
00000150: b771 94be f932 36bf 7fd8 30bf 1020 33bf
00000160: 4486 f6bd de70 93bf c97e adbf 3f94 05bf
00000170: a0e9 58bf 0952 c4bf 4268 67bf 9bae c2be
00000180: 2f3e 83bf 5209 04bf 0604 66bf 61b3 b1be
00000190: cf03 98be 072f 28bf 2abb 76bf 507c abbf
000001a0: 2f0d 19bf 3294 a9be ad4b 99bf b417 92bf
000001b0: 4a6d 98bf 2c46 bebe b170 1bbf 9e3f 13bf
000001c0: dd41 bebe a8e2 43bf be2a eebd 0d89 97bf
000001d0: 968d 7fbf cde1 49bf e1bc 34bf a06a 34bf
000001e0: cf18 24bf a21c 683b ac0e 3a3d 7364 0abc
000001f0: 088c 6bbf 88b2 57bf 00e9 45bf c2fe f9be
00000200: db2f 6fbf 44c9 663e
-1.397769 -0.9978311 -1.1873959 -0.48082536 -0.8146186 0.06596302 -0.48354244 -0.7390551
-0.5998682 -0.46718156 -1.1995198 -0.44182134 0.13744116 -0.6232375 -1.1831481 -0.8043257
-0.57719326 0.12239526 -0.16715412 -1.3974895 -1.2629894 -1.0355167 -0.74124616 -1.1541086
-0.70007086 -0.7504466 -0.41115272 -0.5035164 -0.4191329 -1.4268574 -0.21637335 -0.6671931
-0.7397309 0.025148237 -0.9783615 -0.43422472 -0.5043926 -1.0908494 -0.007498808 0.08581419
-0.81562346 -0.7639072 0.12727296 -1.36577 -0.46583554 -0.1249564 -0.7435875 -0.55335695
-0.54569805 -0.44419315 -1.2481445 -0.072020434 0.033942137 -0.44758347 -0.8049071 -0.8810078
-0.32349226 -0.51237786 -0.82600945 -0.631623 0.07068282 -0.7321224 -0.23935251 -0.735583
-1.5377831 -0.81544197 0.12162153 0.13188177 -0.24286655 -1.0268273 -0.6448878 -1.1541835
-0.1240205 -0.58383673 -0.6636193 -1.1743133 -0.6310936 -0.5689571 -0.3340484 0.2730243
-1.698013 -1.4075294 -0.48229223 -1.0089089 -0.28993008 -0.7117153 -0.69080347 -0.699708
-0.12037328 -1.1518819 -1.3554317 -0.5217933 -0.84731483 -1.5337535 -0.9039346 -0.38023838
-1.0253352 -0.5157672 -0.8984989 -0.34707168 -0.29690406 -0.6569676 -0.9637934 -1.3397312
-0.5978574 -0.33120877 -1.197622 -1.1413484 -1.1908352 -0.37162912 -0.6071883 -0.5751895
-0.37159625 -0.76517725 -0.11629246 -1.18387 -0.9982542 -0.7886017 -0.70600706 -0.70475197
-0.64100355 0.0035417457 0.04542415 -0.0084468005 -0.92010546 -0.8425679 -0.77308655 -0.48827177
-0.93432397 0.22537714

classifier.5.running_var f4 [130]
00000000: 5a75 1040 686a 8b3f 0d67 bd3f 26af b53f
00000010: 1543 d13f 6774 a83f 02c9 863f 37a1 e13f
00000020: 97b0 283f 7a28 9c3f 1e9c 5f3f 4d1e de3f
00000030: acdb 803f 3102 ea3f 14cf df3f 3a13 0040
00000040: ebad c93f f7f6 b63f 4f8a 863f 52e7 f43f
00000050: 413a 623f d82d 0240 ccfc 933f 16da d93f
00000060: c253 813f ce0e 7a3f b37f 753f 39b4 e43f
00000070: 19f1 973f 1be5 b53f 9798 d63e 2e53 da3f
00000080: 9c3f aa3f b45d a03f d601 9d3f 4fbb e63f
00000090: 9cb8 b03f 5159 863f 2a4e ad3f 64f8 533f
000000a0: a90a b43f 6832 923f 9a13 413f c161 e73f
000000b0: c130 ac3f 0dec 9d3f 3e50 a43f 1ba8 8e3f
000000c0: 9b16 8b3f 3e14 683f 4854 b63f 948e a43f
000000d0: 40f5 a73f 5202 b13f a829 ab3f 75aa 2b3f
000000e0: c0e4 da3f 5af0 8f3f cc1e 933f ed2c cc3f
000000f0: bbb7 a63f 1acd c63f cccc 9b3f 9533 8f3f
00000100: 82ab fb3f 39cf db3f 700c 923f b63e d93e
00000110: df18 6e3f cc2c c13f 6b46 cc3f 6cc0 8a3f
00000120: 97c6 9f3f de50 b43f 48b3 ef3f 6a3e 1d3f
00000130: 31c1 823f facf 273f 98da 973f e6f8 b03f
00000140: 8b64 8c3f 8a73 2140 a697 a43f 3420 f13f
00000150: 3640 993f 1622 e23f 42a2 d63f 9eb1 9f3f
00000160: d54b 903f f87f d13f de92 0e40 47a9 7e3f
00000170: 54ea 593f b30e ec3f 0ccc 8a3f 480a 813f
00000180: db93 db3f b8d0 953f f0e6 813f 2cc5 b73f
00000190: d05c c93f 4e9d b73f 446f ae3f 57b8 c53f
000001a0: 8474 e53f 80d9 d83f 4cb1 ce3f a6be 803f
000001b0: be29 3d3f 08ef a73f 74b2 f33f 2425 6e3f
000001c0: 326b e33f 4ef4 223f 0d2c a43f 801c d33f
000001d0: e150 b73f b859 c63f 5c54 0740 cff4 3c3f
000001e0: 2d4d 453f aefc 9e3f 6cfd 9b3f c8f2 9f3f
000001f0: c998 d23f 897f 923f 87a1 e13f 1f8b c03f
00000200: 7062 a93f a686 a23f
2.2571626 1.0891848 1.4797074 1.4194076 1.6348597 1.3160523 1.0530093 1.7627324
0.65894455 1.2199852 0.8734759 1.7352997 1.0067039 1.8281919 1.748507 2.0011735
1.57562 1.4294118 1.0510958 1.9133093 0.8837014 2.034048 1.1561522 1.701968
1.0103686 0.9767884 0.9589798 1.78675 1.1870452 1.4210542 0.41913292 1.7056634
1.3300662 1.2528596 1.2266185 1.8025912 1.3806338 1.0496007 1.3539479 0.8280089
1.4065753 1.1421633 0.75420535 1.8076707 1.3452379 1.2337662 1.2836988 1.1145052
1.0866274 0.9065589 1.4244471 1.2856011 1.3121719 1.3828833 1.3372087 0.6705697
1.7101059 1.1245224 1.1493773 1.595121 1.302482 1.5531342 1.2171874 1.1187617
1.9661715 1.7172614 1.1410046 0.42430657 0.930067 1.5091796 1.595899 1.0839972
1.248248 1.4087179 1.8726587 0.6142336 1.0215207 0.6555172 1.1863585 1.3825958
1.0968183 2.522677 1.285878 1.8837953 1.1972721 1.7666652 1.6768267 1.247608
1.1273142 1.6367178 2.227714 0.99477047 0.8512318 1.8441986 1.084352 1.0081263
1.7154497 1.1704321 1.0148602 1.4357047 1.5731449 1.434488 1.3627706 1.5446881
1.7926183 1.6941376 1.6147857 1.0058181 0.7389182 1.3119822 1.9038835 0.9302542
1.7767088 0.6365403 1.2825943 1.6493073 1.4321557 1.549613 2.114524 0.7381105
0.77070886 1.2420862 1.2186713 1.2495966 1.6452876 1.1445171 1.7627419 1.5042456
1.3233166 1.2697341

classifier.8.weight f4 [120, 130]
00000000: 0e66 10be 9623 7ebc ef3c 003d eb5b 79bd
00000010: ef74 9ebe 8e2e 28bf 5fb9 9dbd 5782 07be
00000020: cafa 04be d9ad a93c 3f76 95be 6f7b 113d
00000030: f152 3cbd 57ba 983c f620 a73d 4484 b3bc
00000040: bbe8 2dbd 1268 b7be e7fc 5d3c 78a5 50bd
00000050: 0332 11bb 2064 01be 4611 88bd 62a1 68bd
00000060: f2b9 9f3d 04c6 1bbe f2c1 113d ccc9 2ebd
00000070: a055 12bb 8286 283c f49d f53d 9fa4 97bc
00000080: 5361 20bd 77e1 5bbd 9139 a9bc fa40 a93c
00000090: 94f1 6dbd b616 8d3d 404f 143c 1794 bbbc
000000a0: aa1f 8e3c 3f97 b83c ff1e 503d 403a ba3d
000000b0: 7e66 d3be ea6a 41bd 0cc8 a9bd 2241 813d
000000c0: 0a71 21bd e1d8 7fbe 0ce0 d1bd eab5 23be
000000d0: eed9 e4be eb5f 3abd f0e6 00be 0fed 05be
000000e0: edd0 283d 6429 e63d bd72 65bd 0e49 c3bc
000000f0: bcba 18bc 09d7 2ebe 1492 09bf a1cb 8ebc
00000100: ca9e 4e3d 0d2e 7abd 48df 25bd a66d 83be
00000110: eaac eebd e19c 6ebe 7547 a9bc cb5f 2d3d
00000120: a80d 043d 4938 1a3b 0343 ac3c c480 47bd
00000130: ec8b f23d b75d 91bd 9f71 8bbe c7bd 943c
00000140: ccb3 893d d978 4ebe a337 abbd 6a94 8bbc
00000150: 42ce 57bf 337e 90bd 3ccf 853d fdf6 7d3c
00000160: 4d0a cdbc aac4 8e3d 4bf8 923b 3ed5 8c3c
00000170: 38fa f0bc 1b5d 3d3d 4c77 8d3b c272 68be
00000180: 1449 e43d e065 16bc ff26 0abe da1d 50bb
00000190: b63f e5bc b9db 24bd 48dc da3d d960 653d
000001a0: 4791 913a 9797 95bb 5db6 cc3c 021e 163d
000001b0: 4a86 99bd f379 11bf 9853 8fbd ba4c 35bd
000001c0: 309f 71bc 04eb c9bd cf92 73bd d649 acbd
000001d0: 869a ad3d 4114 f1bd 2e09 11bd e7d4 273d
000001e0: 4580 16bf 7309 c6be 1697 b93a 3251 413d
000001f0: 05e0 34bc 7507 28be 8f35 af3b 56e1 52bd
00000200: b269 d43b a5c1 393c d879 da3c c110 1ebe
00000210: b877 453d e5ad 5fbc 6d5d a13d d84a 923c
00000220: d033 473d 0599 c3bd 4b30 e53d ad5b d638
00000230: 421b a83d b9c3 3c3c 4d18 78bd 8ca2 98be
00000240: 2784 5bbe dfeb c1bd 247f edbd fc0e 2a3d
00000250: e329 893c a5a4 f8bd 8df7 a63c 5673 18be
00000260: 67f3 f6be 8cfd 023e 65d6 37bf 9bd4 c83c
00000270: ad99 ba3d e948 83bc bd21 a73c 7704 1abe
00000280: f406 113d 1b81 c2bc f258 0cbd af6a 2d3d
00000290: a52c a93c 0f0d c8bc 11d6 9f3d 84cc 38be
000002a0: 8068 6cbd 5238 c2bc e18e 04be c839 25bf
000002b0: 28b8 f33d eccb 1dbe 2be5 753d b627 103d
000002c0: 36d3 533d efaa 16bd dec9 e13d 4b41 373d
000002d0: d1fd 72bc 0e52 5bbd 5f7f 423c 49bd 153d
000002e0: abc7 70bd aba8 653d d611 72be d28d b1ba
000002f0: 8238 cd3d 4ad9 1e3d d653 1fbc 44a8 883e
00000300: 1996 bc3c 6ade 93be 5a5b f5bd 3ce9 b2bd
00000310: 1b3f ac3c c283 f23d 48d5 703c fe0b 1d3e
00000320: ac30 e63c 1ea6 30be 07b3 7cbe 90a3 d1bd
00000330: 6eec 09bd 8f3d fb3b 9acb 0dbf c66f 143e
00000340: 2613 da3d 04d0 e4bd c628 d9bd d662 44bc
00000350: f1a9 8b3c 1fec ac3d 3db0 e83d f211 103b
00000360: ff89 8dbc 7e09 d63c 6e07 99bd 7798 253e
00000370: d430 38bd ce50 f53a 95ed 0cbe 90d8 19be
00000380: b8cb 51bf 6c5f 33be db84 98bd f8cc a93c
00000390: 99f7 49bd f1fb c1bc 3f61 f3bc 9009 853d
000003a0: e654 20bd ee1d 88bd 66a5 08bd c216 39bd
000003b0: 2860 263e 4082 cc3d 3f80 603d 7a82 d83b
000003c0: baa3 b23d c3f7 003d 465e 28bc 5175 ef3d
000003d0: 581a cd39 9264 c73d 1e9b 853d b0f5 4a3d
000003e0: 492e d7bc e838 9ebb 5af8 7e3d 7901 7d3d
000003f0: 0426 2f39 dcea 46bd 8733 8abd 19ed 6d3d
-0.14101431 -0.015511414 0.03130811 -0.060878675 -0.30948588 -0.65696037 -0.07701372 -0.13233314
-0.12986293 0.02071278 -0.29191777 0.035518106 -0.045977537 0.018643541 0.08160584 -0.021913655
-0.042458277 -0.35821587 0.013549066 -0.050939053 -0.0022155053 -0.12635851 -0.0664392 -0.05679453
0.07799138 -0.15212256 0.03558535 -0.042672917 -0.0022328869 0.010285975 0.11993018 -0.018511115
-0.039155316 -0.053681817 -0.020657333 0.020660866 -0.058091715 0.068890974 0.009052098 -0.022897763
0.017349083 0.022533057 0.05081081 0.090931416 -0.41289133 -0.0472211 -0.08290109 0.06311251
-0.039414443 -0.24985076 -0.10247812 -0.15987363 -0.44697517 -0.04550163 -0.12588096 -0.13078712
0.041214872 0.112383634 -0.056017626 -0.023838546 -0.009321865 -0.17074217 -0.5373852 -0.017431082
0.0504444 -0.061079074 -0.04049614 -0.25669593 -0.116540745 -0.23302032 -0.020663956 0.042327683
0.032239586 0.0023532084 0.021028047 -0.048706785 0.11843094 -0.07097953 -0.27235124 0.0181569
0.06723747 -0.20163287 -0.08360221 -0.017038543 -0.842991 -0.070553206 0.065336674 0.015500781
-0.025029326 0.069711044 0.0044851652 0.017191526 -0.029416189 0.04623137 0.0043172 -0.22700027
0.11146751 -0.009179562 -0.13491438 -0.0031756074 -0.027984481 -0.040248606 0.106865466 0.056000564
0.0011105918 -0.00456519 0.024989301 0.03664971 -0.07496317 -0.56826705 -0.06998366 -0.044262625
-0.014747426 -0.09859279 -0.05946618 -0.084125206 0.08476739 -0.11771441 -0.035409145 0.040974524
-0.58789474 -0.38679084 0.0014159407 0.047196575 -0.011039739 -0.16409095 0.005346961 -0.05148443
0.0064823264 0.011337672 0.026669428 -0.15436079 0.048209876 -0.0136522995 0.07879148 0.017857954
0.048633397 -0.095506705 0.11190852 0.00010221391 0.08208324 0.011521273 -0.06057005 -0.29811513
-0.21437131 -0.09468817 -0.11596516 0.041518196 0.016743606 -0.121407785 0.020381713 -0.14887747
-0.48232576 0.12792033 -0.71811515 0.02451544 0.091113426 -0.016025977 0.02040183 -0.15040766
0.03540702 -0.023743203 -0.034264512 0.04233807 0.020651171 -0.02442029 0.07804502 -0.18046767
-0.057716846 -0.023708496 -0.12945129 -0.6454129 0.119003594 -0.15409821 0.060033005 0.03519412
0.0517151 -0.03678411 0.11024831 0.044740003 -0.014831022 -0.05354505 0.011871188 0.03655747
-0.05878417 0.056069057 -0.23639616 -0.0013546294 0.10020544 0.03878144 -0.009724578 0.26690876
0.02302079 -0.28880626 -0.119803146 -0.08735892 0.021026185 0.11841537 0.014699288 0.15336606
0.02809938 -0.17250869 -0.24677669 -0.10236275 -0.033672743 0.0076672505 -0.55388796 0.14495763
0.106481835 -0.11172488 -0.1060348 -0.011986455 0.017048808 0.08443474 0.1136174 0.0021983352
-0.017277716 0.026127573 -0.0747212 0.16171442 -0.04496844 0.0018716098 -0.13762505 -0.15024018
-0.81951475 -0.1751687 -0.07447215 0.02072762 -0.049308393 -0.023679705 -0.029709456 0.064959645
-0.039143465 -0.06646334 -0.03336086 -0.04518772 0.16247618 0.09985781 0.054809805 0.006607351
0.087226346 0.031486284 -0.010276383 0.11692298 0.00039120275 0.09735979 0.06523727 0.049550712
-0.026267188 -0.004828561 0.062248565 0.061768983 0.00016703462 -0.048563823 -0.06748109 0.058087442
