best_loss.ckpt (torch, 263712 bytes, 19 tensors)

classifier.0.weight f4 [140, 99]
00000000: d8bf 26bd f554 8a3d 0c1f eebc 8c63 6f3b
00000010: 9394 6cbd 369c 4e3d c6da 8b3d d92e a4bd
00000020: 119f a03d 249d e53b f07e 91be bf32 003d
00000030: 654a d3bc 2ea9 abbd 6d7f 973d 1191 713d
00000040: 361a 3a3d 5f23 1f3d a0af 12bd 9d93 c1bb
00000050: 179a 113d 4a50 b83e d0e9 8c3d 32a3 ef3c
00000060: 16d2 5fbd 09d5 d6bd 0093 623e 31e5 9e3d
00000070: 1d15 f23c 9fb8 703e cf5a 97bd 8695 913e
00000080: e5ab a3bb 1343 b8bc 6ca3 91bd f5e0 34bd
00000090: f13b ae3c bd5e 1d3e b695 e7bd bd41 c8bd
000000a0: 85df 6b3d e93e 103e 7f84 ae3d ea89 853d
000000b0: 2d2c c5bd 5415 6b3c 198d b0bd e919 20bd
000000c0: 490d aabc d215 e1bc 6c18 643e ebfd 393d
000000d0: 28e8 933e 83f4 0b3d 6495 a1bd e22c 05be
000000e0: dd2d 67bd 233e bb3d 1f10 5abe ce32 a1bd
000000f0: a121 a93d 17cf 093e 91c6 dcbc 6f7d 593e
00000100: f70e 3b3e 7edc 0f3b aa35 933d ed1f b4bd
00000110: f360 2e3d baf4 81bd 2fa7 debd 9596 f1bb
00000120: e4a9 3f3d 0ae6 8ebd d792 26bd 27a2 cbbd
00000130: ec76 c2bc f0c2 153c ef64 473a fe29 57bd
00000140: 1b9d 5a3c 1349 033e c9f6 a4be c91f 623d
00000150: 7845 30be 796a 31bd 4004 0f3e a8d2 933e
00000160: 5208 cdbd fef7 b83d ca0d 39be e859 5b3d
00000170: ec29 f73d 70fa f1bd 0170 f739 7d24 adbd
00000180: cc49 a63c 6ecb 10be 2b96 acbc 04af 8b3d
00000190: 2fd3 be3d 8801 273d b635 d5bd cf1f 6fbd
000001a0: 6a0b 99bd 4e26 ea3d c190 7abe c4ad 043e
000001b0: 7676 2d3e 7979 94be 60d5 423c 2975 a3bd
000001c0: 4bc2 3d3d ebef 9fbd 98a5 6a3d 2693 963d
000001d0: 2157 e2bd d83b 823d a009 b9bd 8620 7dbd
000001e0: 6891 b93e de73 063d 4b8b ea3b 9b1c 00bc
000001f0: 7999 1dbe 175a 463d 4b7c 893d 12a7 0d3d
00000200: d01c 0e3e e474 b4bb 6836 523e 1eab 02be
00000210: 28cd c0bc 5f41 0d3e 82f7 a4bd 06e0 a3bd
00000220: 245a dd3d e173 ecbd d2a9 2d3e 6300 1c3e
00000230: ad31 853e 3680 073e 455c 4e3d 614b d13c
00000240: 01f5 52bd 9562 ec3c f970 bfbd c250 fcbc
00000250: d674 2e3e bdee 3b3e f729 e33c 3809 ca3e
00000260: f6ef 81b8 d65a 92bd 5990 52be dad9 90bd
00000270: e0e9 6abd 37eb 99be e49d 533c 36af 063d
00000280: 9ed3 c63d a403 50be 3625 27ba 4bdd d43e
00000290: c1a2 33bb f982 87bd af32 d7bc c42b c9bd
000002a0: 6856 96bb 930e aa3d 8ff4 5a3e 44c6 b93d
000002b0: cc48 66bd 1f5a 69be 4ad3 3ebd 6ae7 09bc
000002c0: 9948 b23c 573f a3bd b75d 34bd 6513 01be
000002d0: b59d 6abc 247a b9be e2b7 173e 53ed 39be
000002e0: bde3 3c3e 0ecc e23d 34dd 9bbc 6665 973d
000002f0: 2adf c1bc a6ff 19be 935c 613d bbda 6b3a
00000300: 4e9c 27bd ba2d b43d f9ed c43d 4664 513c
00000310: 1306 9dbc cf12 aebe cc82 d7bc 7482 183e
00000320: f618 943d 0cb6 39be 4589 883c 9829 613d
00000330: 09b5 a73d ab5e d7bc fa92 5e3e 3486 193e
00000340: 384b 6ebe 50b6 c43d cd78 82bd 3986 acbd
00000350: 41fe 17bd 7df0 943c 4787 e53d 6f24 6e3d
00000360: 4510 88bd 19f0 463c c51b ecbd 211a 673e
00000370: 4c12 933d d073 7dbc c0da 6ebd be79 133d
00000380: e582 fc3d 97cd d5bb 191e 313c 1c31 cb3d
00000390: fdd0 54bd 67ba 433e 12ef 433d 8a94 09be
000003a0: 125b cd3d df2c 7fbc 9b4a 01be 7e15 233e
000003b0: 8ab1 07be b712 e7ba 151a d83c 27eb 8d3e
000003c0: ad71 7e3e 05a5 a43d 054f 2b3d 2cc5 d4bd
000003d0: e69f d6bc 674c c9bd 68f3 1fbc f0d3 023e
000003e0: 005c a836 9899 793d f287 a33e ea34 2f3d
000003f0: 7726 753c 0e40 1ebe 51e2 c5bd f71e 4ebc
-0.0407103 0.067544855 -0.029067539 0.003652784 -0.05775888 0.050441943 0.06828837 -0.08016748
0.078428395 0.007007258 -0.28417158 0.031298395 -0.02579231 -0.08381878 0.073973514 0.058976237
0.045435153 0.038852092 -0.03581202 -0.0059074895 0.035547342 0.35998756 0.06880534 0.029252622
-0.054643713 -0.10489852 0.22126389 0.077585585 0.029551083 0.23507927 -0.07390367 0.2843439
-0.0049948567 -0.022492921 -0.071112484 -0.04415985 0.021268817 0.15368171 -0.11307852 -0.097781636
0.05758621 0.14086498 0.085213654 0.06520446 -0.096275665 0.014348347 -0.08620662 -0.03908721
-0.020758288 -0.027476225 0.22274941 0.04540817 0.2888806 0.03416873 -0.07889822 -0.13005403
-0.056440223 0.09142711 -0.21295212 -0.07871018 0.08258367 0.13457905 -0.026950153 0.21239255
0.18267427 0.0021951492 0.0718797 -0.08795152 0.042572927 -0.06345506 -0.108717315 -0.007372687
0.04679288 -0.0697747 -0.04066738 -0.099430375 -0.023738347 0.009140715 0.0007606288 -0.05253028
0.013343121 0.12820844 -0.32219532 0.055206094 -0.17214 -0.04331443 0.13966465 0.28871655
-0.100113526 0.09031676 -0.18071666 0.05355254 0.12068543 -0.11815345 0.0004719496 -0.08454225
0.020298861 -0.14140102 -0.0210677 0.06820491 0.09317624 0.040772945 -0.10410635 -0.058379944
-0.0747288 0.11433087 -0.24469282 0.12956911 0.1693972 -0.28998926 0.011891693 -0.07981331
0.04632787 -0.078094326 0.05728683 0.07352285 -0.11051775 0.063590705 -0.09035039 -0.061798595
0.3624375 0.032825343 0.0071577183 -0.00781932 -0.15390576 0.04842576 0.0671316 0.03458316
0.13878179 -0.0055070985 0.20528567 -0.12760589 -0.023535326 0.13794468 -0.08055021 -0.080017135
0.108082086 -0.1154554 0.16959313 0.15234523 0.26014462 0.13232502 0.050380964 0.025548639
-0.051503185 0.028855601 -0.0934772 -0.030800227 0.17036757 0.1835279 0.027729971 0.39460158
-6.1958955e-05 -0.07146232 -0.20562877 -0.07072802 -0.057351947 -0.30062267 0.012916062 0.032881938
0.097083315 -0.20313889 -0.00063760893 0.41575083 -0.0027410241 -0.06616778 -0.026269285 -0.09822801
-0.004587937 0.08303561 0.21382354 0.09071019 -0.05622177 -0.22788285 -0.04658822 -0.00841699
0.021763133 -0.079710655 -0.044034686 -0.12605055 -0.014319827 -0.36225998 0.1481624 -0.18156938
0.1844625 0.110740766 -0.019026376 0.07392387 -0.023665983 -0.15038928 0.055019926 0.0008997132
-0.04092055 0.08797784 0.09615702 0.012780255 -0.019167935 -0.33998725 -0.026307486 0.14893514
0.072313234 -0.18135852 0.016667018 0.054971308 0.081888266 -0.026290258 0.21735755 0.149926
-0.23270881 0.09605086 -0.06370697 -0.084240384 -0.03710771 0.01818108 0.11207443 0.058140215
-0.06643728 0.012142205 -0.11528734 0.22568561 0.07181224 -0.015469506 -0.058314085 0.036004774
0.12329654 -0.0065247524 0.0108103985 0.09921476 -0.05195712 0.19114076 0.047835417 -0.1343557
0.10027136 -0.015574663 -0.12626116 0.15926167 -0.1325132 -0.0017629479 0.026379624 0.2771847
0.24848051 0.080392875 0.041823406 -0.1038917 -0.026199292 -0.09829026 -0.009762622 0.1277616
5.0175004e-06 0.060937494 0.31939656 0.042775072 0.014962784 -0.15454122 -0.09662307 -0.012580625

classifier.0.bias f4 [140]
00000000: 432a 3f3d e1a7 ffbc 6bf9 f0bd 1e87 023d
00000010: 86ab 2abd cb53 c53c a721 6bbc 73cf 6cbd
00000020: e5c3 78bd fc0a 41bd 30e4 43bd 2412 a4bc
00000030: 711b 55bd 856a 00bc d8bf 0d3d 5437 03be
00000040: 6f6f 52bd 1ae6 b23c 76a7 873d d75f 9dbd
00000050: 68cb 06bd 1510 d9bc 7444 85bc 4322 c4bd
00000060: 5bf5 f53c d339 30bd a881 a13c fa5f 14ba
00000070: 9bb0 c73c 9e0b a1bd 7baa 05bc 1e73 c93c
00000080: d2c9 163d 437c 1d3c a6f8 c23d ffc9 a53d
00000090: 8af0 7cbd 03c3 293d 2921 753c 5340 efbd
000000a0: 1914 59bd 0e88 e13d 5a4f 613d ce99 8dbd
000000b0: 1bfc 95bd 560e 913c 7d59 58bc 213c bd3c
000000c0: 4dbf 38bd 3e6c 26be b4ee b63d d34a 03bc
000000d0: 251f 03bd 9904 87bd f193 893d a3ec 1ebe
000000e0: a72a 693d 6d0c 393d 8fba b8bd 2bff 233c
000000f0: c533 213d 27d2 82bd 46b2 3abd ed57 923d
00000100: d9b1 113d 9f1d 8ebc aed2 abbd 7926 7ebd
00000110: 2232 d43d 05c6 f7bc 6f98 fcbc 5bed 9e3d
00000120: 074a 69bd b31f a03a d187 433d 07bb bfbd
00000130: abd4 b0bc 7d65 1ebc 7742 8f3c 26b6 33bd
00000140: b655 fabc ccb1 9cbc 6443 2fbd c502 d13c
00000150: 68de 38bd a554 d4bd e53d 683d 17f7 22be
00000160: 88d7 bdbd 1153 83bd 4a0d 1a3d 0f2d d43d
00000170: d5fc abbd 846e e53d a50f 58bd ebbb 96bd
00000180: a4d1 0f3d 55e9 8d3d 2d30 793d 208c 273e
00000190: b3cc f53c c238 0b3e 24ff 163d c9da b33b
000001a0: 0236 67ba 7497 febc 3bf1 343d dbcc 6a3d
000001b0: 47cc 18be 44f2 cebd a218 47bb b872 073d
000001c0: d28c bf3d 2a69 dbbc 364d dfbd 62fc e1bc
000001d0: 6cf4 503d 2d1d 5abd 84c3 9e3b 3e24 e1bd
000001e0: 801d 6ebd 2a71 b33d d4e1 bb3b 7463 2d3e
000001f0: 51e0 b33c 7afd 493d b0e2 a0bd 7724 78bd
00000200: 5249 debc 31b9 7a3d d302 9d3d ccb1 67bd
00000210: 9e7a 32bd cc8f 49be 4fc9 9b3c 0a6a 6c3d
00000220: f28f 4abd ee6c be3d 194c 333c 9681 8e3d
0.046671163 -0.03120798 -0.11766323 0.03186714 -0.041667484 0.024087807 -0.014351285 -0.057815026
-0.060733695 -0.047129616 -0.04782504 -0.020028181 -0.052028123 -0.007837896 0.034606785 -0.12814075
-0.051375803 0.021838237 0.066237375 -0.076842956 -0.032908827 -0.026496926 -0.016267993 -0.095768474
0.030024221 -0.043023895 0.019715145 -0.00056600536 0.024376204 -0.07863544 -0.0081583215 0.024591025
0.036813565 0.009612146 0.09520082 0.08095168 -0.061752833 0.041445743 0.014961519 -0.11682191
-0.052997682 0.110122785 0.055007316 -0.069141015 -0.07323476 0.017707031 -0.013204929 0.02309996
-0.045104314 -0.16252229 0.08932248 -0.008013445 -0.032012124 -0.06592674 0.06717671 -0.15519957
0.056925442 0.045177866 -0.09019958 0.010009567 0.039356012 -0.0638774 -0.04558017 0.07145677
0.03557 -0.017348109 -0.08389793 -0.06204841 0.103611246 -0.03024579 -0.030834405 0.07760116
-0.056955364 0.0012216478 0.047736946 -0.093618445 -0.021585783 -0.009667751 0.017487748 -0.043874882
-0.030558448 -0.019127749 -0.042788878 0.025514016 -0.045133978 -0.10367707 0.056699652 -0.1591457
-0.09269625 -0.06412328 0.03761033 0.10360157 -0.08397833 0.1120272 -0.052749295 -0.07360061
0.03511204 0.0692927 0.06083696 0.16362047 0.030004835 0.1359587 0.036864415 0.0054887277
-0.00088199985 -0.031078078 0.044175368 0.05732427 -0.14921676 -0.10104802 -0.0030379673 0.03306839
0.09353031 -0.026783545 -0.10903399 -0.027586166 0.05101435 -0.05325048 0.0048450846 -0.10993241
-0.058133602 0.08761819 0.005733708 0.1693247 0.021957548 0.049314 -0.07855737 -0.06058165
-0.027134571 0.06121177 0.07666554 -0.056566045 -0.043573968 -0.1968376 0.01901689 0.057718314
-0.049453683 0.092981204 0.010943436 0.0695831

classifier.1.weight f4 [140]
00000000: 5641 853f fca8 7d3f b7f3 8e3f d767 723f
00000010: 2073 803f fb2d 813f b213 5e3f 4de2 833f
00000020: b5fc 7f3f 5fe3 7c3f edbb 803f cad9 653f
00000030: 2239 823f 5b3a 8e3f bd48 813f d334 853f
00000040: d5c6 793f a544 763f 5700 823f a8ec 743f
00000050: ba07 7e3f 03f3 813f d50d 7a3f 66a9 6d3f
00000060: 0d6c 693f 780f 843f 04d8 713f b9aa 833f
00000070: 6c1a 783f ffbe 7f3f eb69 773f 1ca4 683f
00000080: d4cc 6e3f b8ad 5d3f c4b2 7f3f 1c93 753f
00000090: 65df 813f 28e0 793f 2e9c 913f 4ecb 7f3f
000000a0: 3e7b 813f ce13 813f 53fc 723f 7acd 863f
000000b0: 9453 7a3f 308c 813f 3d3e 823f 582b 853f
000000c0: bf70 7b3f 3e6f 893f a79d 843f 1b16 743f
000000d0: 54dd 833f 5dd9 863f 7124 743f c7b0 7c3f
000000e0: 5589 723f f30a 6b3f 9f8f 863f 9c07 833f
000000f0: 6c25 6d3f 31fb 803f 5693 7c3f 6468 753f
00000100: b126 7a3f d2a9 7a3f dd6b 6d3f d612 883f
00000110: 75bd 883f 99a9 673f dbd9 7a3f 0ae8 8e3f
00000120: a268 803f e611 813f aa1c 6e3f 3d48 713f
00000130: 9870 813f 4605 703f a98e 863f 0e62 7e3f
00000140: 533a 723f 5b1c 6b3f 07fb 653f 309f 7d3f
00000150: a232 7f3f 7ed4 8a3f c361 843f 79db 7c3f
00000160: 1e26 6e3f 3e8e 7b3f a4c1 713f aeb6 803f
00000170: dcee 733f 2ab0 863f 5109 853f 973b 703f
00000180: 98e5 733f aead 6b3f 07e7 8c3f d3d1 7e3f
00000190: e2e8 7f3f ded7 6b3f b972 723f 10ef 6a3f
000001a0: 629e 673f 89bf 783f d7df 813f 549b 793f
000001b0: a83e 7c3f d04b 803f 6568 863f b82d 6d3f
000001c0: c2b8 803f 7e4b 833f 70c8 723f 8575 763f
000001d0: 2f26 6f3f 483b 743f ff37 803f 71d9 6b3f
000001e0: f32e 803f a64b 7f3f e9f9 783f b995 823f
000001f0: 6b2b 813f 4835 783f 94b6 8c3f 537e 823f
00000200: 0f0d 733f 5e51 723f cb28 813f 528b 823f
00000210: 0dfe 6f3f 3af7 7a3f 48f4 7d3f 5d4c 673f
00000220: 27f0 793f 885d 853f a660 883f 9696 853f
1.0410564 0.99085975 1.1168126 0.946897 1.0035133 1.0092157 0.867488 1.0303437
0.99994975 0.9878444 1.005735 0.89785445 1.0173686 1.1111559 1.0100323 1.0406746
0.9756902 0.96198493 1.0156354 0.9567361 0.9923054 1.0152286 0.97677356 0.92836607
0.911805 1.0317221 0.9447024 1.0286475 0.96915317 0.9990081 0.96645993 0.9087541
0.9328129 0.865932 0.9988215 0.95927596 1.01463 0.9760766 1.1375787 0.99919593
1.0115736 1.0084169 0.94916266 1.0531456 0.9778378 1.0120907 1.0175244 1.0403852
0.9821891 1.0737073 1.0360612 0.9534623 1.0301919 1.0535084 0.95368105 0.9870724
0.947408 0.9181358 1.051258 1.0236697 0.92635226 1.0076658 0.98662317 0.9586241
0.9771529 0.97915375 0.9274271 1.0630748 1.0682818 0.9049316 0.9798867 1.1164563
1.0031931 1.0083587 0.9301249 0.9425085 1.0112486 0.93758047 1.0512286 0.9936837
0.94620246 0.9184014 0.8983616 0.99071026 0.99686635 1.0846097 1.0342335 0.9877239
0.9302691 0.9826392 0.944361 1.005575 0.95286345 1.0522511 1.0393468 0.93840927
0.9527221 0.9206189 1.1008004 0.99538916 0.99964726 0.9212626 0.947063 0.9177103
0.9047605 0.9716726 1.0146435 0.97502637 0.98533106 1.0023136 1.0500609 0.92647886
1.0056384 1.0257413 0.94837093 0.9627307 0.9341764 0.95402956 1.0017089 0.92128664
1.0014328 0.99724805 0.9725633 1.0201942 1.0091375 0.969563 1.0993218 1.0194801
0.949418 0.94655406 1.0090574 1.0198767 0.93747026 0.9803349 0.9920087 0.90350896
0.9763207 1.0419168 1.0654495 1.043658

classifier.1.bias f4 [140]
00000000: 8ce8 96bd 5f1d 4dbe c7d7 88be 6d4b 60be
00000010: 1802 3dbe 942d 56be a08a 0cbe a1f8 edbc
00000020: 0a7d 8bbe 7904 1ebe a2ec 14be 98c3 18be
00000030: 9e66 0bbe 1ad3 63bd 57f8 04be ed44 ecbd
00000040: 17a7 00be ccf0 bbbd b14b 21be 8e9d 54be
00000050: a1c7 51be f8db d6bd e171 28be 53da 4dbe
00000060: 206e 6abe fb6a e5bd f9c2 00be 176d 43bd
00000070: f26b 25be ff83 2dbe 2eab 12be 4836 1abe
00000080: 9cb7 0abe 6a05 b4bd 1ed3 1cbe d456 3abe
00000090: 7663 1dbe 1e15 a9bd ac92 99bd f009 fabd
000000a0: 544e 3bbe e18d 14be b5d5 1ebe eae0 d7bd
000000b0: 4040 aebd 5b04 0dbe 449e 50be 9293 73bd
000000c0: 8ad6 06be e5d3 a6be 56cf d6bd 94a8 9bbd
000000d0: ad29 b4bd c430 2bbe b93b d4bd 2d95 3ebe
000000e0: ea52 6dbe da31 26be 6361 a9bd 36d3 10bd
000000f0: 2609 8cbd 51ac 5abe 92c5 37be 7726 003d
00000100: 091f efbd 1bc3 29be 95ac 06be 45d0 afba
00000110: 9ca0 2c3c b598 0dbe c402 33be 6ce3 02be
00000120: 6f6d b5bd 13b3 24be b63a 87be 2fb4 22be
00000130: 3eb1 5bbd dd1d 81bd e8bd e9bd a2ea 3dbe
00000140: e821 15be 801c 63be 9290 87bd ccb2 04be
00000150: 3720 f0bd 03e6 e4bc a8a9 bfbd 0f5a 1dbe
00000160: ba3c 5dbe 2644 bbbd b7d5 edbd 439e 30bd
00000170: c15d 07be b637 f6bd 798f 3fbe a432 32be
00000180: b386 74bd 446f 0fbe 15ff efbc 3997 a5bd
00000190: ed08 d7bd 7371 65bd 714d 80be 1207 7bbe
000001a0: 9e2a 76bd 2fb0 05be adc0 3bbe 5f54 1ebe
000001b0: 7492 e3bd cf8f c2bd da3b 6dbe d312 78be
000001c0: 47f3 eabd 1185 49be db7f d9bd 4fcc 28be
000001d0: 1b80 11be 5a18 18be 185b 8ebd 754d 0bbe
000001e0: b19e 26be a368 c7bd 1cc8 80be af80 44bd
000001f0: 5c2e aabd 1d14 4abe ea91 f7bd 3aef 68be
00000200: 1258 55be 70aa edbd 44c2 f9bd db82 47be
00000210: bbdc 95bc 6610 63be 54d4 15be a015 86bd
00000220: 49a3 07be 4ce6 6fbe 8292 efbd 5366 e8bc
-0.073685735 -0.20030735 -0.26727125 -0.21903773 -0.1845783 -0.20915824 -0.13724756 -0.02904922
-0.27243835 -0.15431394 -0.14543393 -0.14918363 -0.13613364 -0.055621244 -0.12985359 -0.11536584
-0.1256374 -0.09176788 -0.1575153 -0.20763227 -0.20486309 -0.104911745 -0.16449691 -0.20102815
-0.22893572 -0.112020455 -0.12574376 -0.047711458 -0.16154459 -0.16944884 -0.14323112 -0.15059769
-0.13546604 -0.08790095 -0.1531491 -0.18197185 -0.15369973 -0.08255981 -0.074986786 -0.12208927
-0.18291599 -0.14507248 -0.1551121 -0.10540946 -0.085083485 -0.13771193 -0.20372874 -0.059466906
-0.13167778 -0.32583538 -0.10488765 -0.07600513 -0.087970115 -0.16717821 -0.10362954 -0.18611594
-0.2317616 -0.16229954 -0.08270528 -0.035357676 -0.068376824 -0.21354796 -0.17946461 0.031286683
-0.11675841 -0.16578333 -0.13151772 -0.001341351 0.010536339 -0.13827784 -0.17481524 -0.12782067
-0.088587634 -0.16083936 -0.2641198 -0.15889047 -0.05363583 -0.06304524 -0.11413175 -0.18546537
-0.14563715 -0.2217884 -0.066193715 -0.1295883 -0.117248945 -0.02794171 -0.09358531 -0.15366386
-0.21605197 -0.09143858 -0.116130285 -0.04311968 -0.13219358 -0.12022345 -0.18707074 -0.1740213
-0.05969877 -0.14007288 -0.029296437 -0.08085484 -0.10499749 -0.056016397 -0.25059083 -0.24514416
-0.060099237 -0.1305549 -0.18335219 -0.15461873 -0.11111918 -0.095000856 -0.23167363 -0.24225931
-0.11472183 -0.19679667 -0.106200896 -0.16484188 -0.14209025 -0.1485304 -0.069509685 -0.13603766
-0.16271473 -0.09736755 -0.2515267 -0.047974285 -0.083096236 -0.19734235 -0.12088378 -0.22747508
-0.20834377 -0.11604774 -0.12195256 -0.19483511 -0.018293729 -0.22174224 -0.14631778 -0.065470934
-0.13245882 -0.23427695 -0.11697866 -0.028369104

classifier.1.running_mean f4 [140]
00000000: d54b febc 97a3 e5bb 5981 25be 2914 273d
00000010: 8476 033d 9d62 433e dc0e 10be 6c2d aebc
00000020: 609f 85bc 0e00 1bbd 50f3 2ebe 3efb 13bd
00000030: 272d 1ebd dc69 bdbb fb12 99bd a3ae 03be
00000040: 0a67 85bd 7134 ce3d 9a17 1a3e 5967 f03a
00000050: efbc 353d 08e7 833c a363 323e e44d 7dbd
00000060: 81b7 063d dbf0 c7bc f4f4 673d 7e25 3c3d
00000070: c597 073d 2026 43be d5d1 a5bd 6668 853d
00000080: 465a 053e 72c9 a6bd a22e 5d3d c238 003e
00000090: 91b7 493d b041 b13c f740 b33d fc9c 37be
000000a0: 7ee5 4dbd 9896 ad3d d8f6 883d b5c1 5abc
000000b0: 9010 45be 4251 063e 9a1e 80bd 05b7 bb3c
000000c0: 729a afbd 306b 5cbe b0d4 533e fe10 453a
000000d0: f00a f93d a6fb afbd af3f 443d e794 65be
000000e0: 3740 263e 99fe e23d 441e 88bc 2c58 efbd
000000f0: 97e4 9ebd 43fe d9bc df7d 70bd b3f3 05bd
00000100: 4cea 70bc 61a6 11be ce59 03bd 5dc9 953d
00000110: f64c c33c 0076 fdbd 3d8a 2f3c 80d4 243d
00000120: b761 6b3c 4e8f f8bc dacb 4f3d 7aaf 81bd
00000130: 9865 b2bc b4a9 143d 5524 edbd a515 3b3d
00000140: 2a76 ebbc 6906 613d 9695 ce3c b749 f23d
00000150: ec74 12bd 49f5 16be 5ebc 3ebd 3344 4bbe
00000160: 694b 9bbd 1342 bdbd 1ee6 263b 4058 003e
00000170: bfa8 543d 324a 1b3e aa1f 8d3c 9d93 bc3c
00000180: e9e0 c7bd e2f2 0a3d 8ba2 aa3d b235 9b3e
00000190: a803 05bb d5d5 693d 4043 e4bc 991a 813d
000001a0: ea4a 9dbd fcea d43b 739f f13d d28e 1c3e
000001b0: 6fc4 fabd 32e3 35be 3fe7 993d ab0c 8b3c
000001c0: 86bd 833e 55fb fabd d67b 4bbe 9df0 bebc
000001d0: 54ee c43d bb35 27bd 2c8c 103e 2a6e 02be
000001e0: 6be6 0dbe aa60 2f3e 5bf3 013d 270d b33e
000001f0: 8fbb 293d efc3 dc3d 1a64 77bd 160f 89bc
00000200: df45 783d 74dc 893d 32ca 273d ab38 b9bd
00000210: 96fd 5cbe 4edf 5abe ebc5 d93d 8ae4 92bd
00000220: 7b36 aabd c526 c13d fb3c 2f3e 2290 533e
-0.031042019 -0.007008027 -0.16162623 0.04079071 0.032095447 0.19080587 -0.14068168 -0.021261893
-0.016311347 -0.03784185 -0.17085004 -0.036128275 -0.03861728 -0.0057804417 -0.07474323 -0.12859587
-0.06513794 0.10068596 0.15048066 0.0018341347 0.044369634 0.016101375 0.17420821 -0.06184186
0.032889847 -0.024406841 0.05663009 0.045934193 0.033103723 -0.19057512 -0.08096663 0.06514053
0.13022718 -0.081438914 0.05399955 0.12521651 0.04924733 0.021637768 0.087526254 -0.17930979
-0.05026769 0.08475989 0.06687707 -0.013351847 -0.192446 0.13116935 -0.06255837 0.022914419
-0.0857438 -0.21525264 0.20686603 0.00075174856 0.12160289 -0.0859292 0.047912296 -0.22420083
0.16235434 0.11083717 -0.016615994 -0.11686739 -0.07758444 -0.0266105 -0.05871379 -0.032703113
-0.014704298 -0.14223625 -0.032068066 0.073137976 0.023840409 -0.12376022 0.010714111 0.04024172
0.014366559 -0.03034177 0.050731517 -0.063322976 -0.02177696 0.036294654 -0.115791954 0.04567494
-0.028742868 0.054937754 0.025217813 0.11830466 -0.035756037 -0.14742006 -0.04656636 -0.19850235
-0.07582743 -0.09241118 0.002546675 0.12533665 0.05191874 0.15165022 0.017227013 0.023019606
-0.09759695 0.033923037 0.08331784 0.30314404 -0.0020296369 0.05708869 -0.027864099 0.06303901
-0.07680304 0.006497739 0.11797991 0.15288857 -0.12244498 -0.1776245 0.0751481 0.016973814
0.25730532 -0.12254969 -0.19871458 -0.023308093 0.0961577 -0.040822726 0.14115971 -0.12737337
-0.13857429 0.17126718 0.031726222 0.34970972 0.041438635 0.10779559 -0.0603982 -0.016730826
0.06061351 0.06731501 0.040964313 -0.09044012 -0.2158111 -0.21374246 0.10633453 -0.071724966
-0.083111726 0.09431223 0.17113106 0.20660451

classifier.1.running_var f4 [140]
00000000: ea16 9a3a c926 ce39 aacd f839 6dca 083a
00000010: 54a2 423a 4afc 6a3a f26c 293b cb9e bc3a
00000020: 4e21 243a f4d0 8a3a 2449 5c3a 9a65 ae3a
00000030: 8896 123a 4907 bb3a 601b 7b3a 2fb5 493a
00000040: c225 fa39 3599 1e3a a997 7f3a 3504 613a
00000050: 70ca eb3a 1178 933a 669d e63a 5cb1 d53a
00000060: 305e 5b3a 07ca 653a 7658 123b 30e5 cc3a
00000070: 4165 ce3a 1cb2 1d3a 441f ff3a 27ac 9c3a
00000080: 2a66 973a 0996 f53a 9a21 443a 6002 e73a
00000090: c165 813a d6f0 683b df4b 643a b37c 063a
000000a0: 6cb7 2a3a 7e4d 6f3a ef30 ae3a b70a 7e3a
000000b0: 63d3 ba3a 7050 6a3a fa74 083a 6f4e 383a
000000c0: d6d2 d13a 5627 ff39 1dd3 6f3a 1daa 493a
000000d0: 5c35 a53a 7073 893a 27c8 b63a 142f 873a
000000e0: 6e81 443a 10c2 213a f447 963a 9a8c d93a
000000f0: ec4c a63a b9f0 303a 601b 123a ff72 013b
00000100: 0873 153a 1f55 bc3a 1fb6 5e3a 3318 a13a
00000110: 68b1 273b b457 a13a 07e4 083a 2b39 7d3a
00000120: c4ca 493b a918 e63a 07da 363a 24ca ad3a
00000130: 5a5f e43a 7686 c23a abb3 1a3a 5cbd 643a
00000140: 16b9 383a c197 c23a e246 0d3b 2f4a 6f3a
00000150: d80b 763a 4d89 ba3a 4006 b43a cb98 823a
00000160: 7a73 323a 7446 8c3a fe97 623a aeb2 413b
00000170: 6c35 bb3a 59c9 343a edf6 0b3a b76d d73a
00000180: eb28 0e3b f51c c43a 22a3 ae3a 1ae9 c43a
00000190: b660 003b e77e 023b 9f9d 643a 0266 383a
000001a0: acd9 a43a dcb7 133a 39d8 9b3a f11e f83a
000001b0: d435 983a 09e6 493a e6c1 c43a 67de 293a
000001c0: 4f28 da3a 072d a13a debb 063b c069 4b3a
000001d0: 64b0 be3a c474 b63a 5d33 3b3a e6d3 8a3a
000001e0: fda9 993a c23b 6f3a f4af 313a f346 ab3a
000001f0: 01ed 393a 4dc4 6e3a bb4e c639 864e d03a
00000200: fd30 943a 621f 6d3a cc5b 303a 50a7 3d3a
00000210: a57a 933a 2eb3 8d3a 29a8 db3a 07c0 213b
00000220: 5324 733a 88d8 083a efd6 583a 4cf6 983a
0.0011756097 0.0003932028 0.00047455478 0.0005218152 0.00074247015 0.00089639856 0.002585229 0.0014390586
0.00062610663 0.0010590837 0.0008403233 0.0013305426 0.0005591889 0.0014269139 0.00095789693 0.000769454
0.00047711848 0.00060500513 0.0009750077 0.0008583696 0.0017989408 0.0011250993 0.0017594516 0.0016303468
0.0008368222 0.0008765761 0.002233056 0.0015632268 0.0015746729 0.0006015615 0.0019464274 0.0011953161
0.0011550833 0.001873673 0.00074818137 0.0017624609 0.0009872244 0.003554394 0.00087088154 0.0005130276
0.00065123173 0.00091286737 0.001328973 0.00096909277 0.0014253672 0.0008938378 0.0005205419 0.00070307305
0.0016008269 0.00048666698 0.0009148585 0.00076928904 0.0012604403 0.0010486674 0.0013945148 0.0010313713
0.0007496093 0.000617058 0.0011465535 0.0016597689 0.001268772 0.00067497377 0.0005573537 0.001975238
0.000570104 0.001436863 0.0008495766 0.0012290537 0.002558792 0.0012309463 0.0005221967 0.0009659703
0.0030791024 0.0017554957 0.00069752376 0.0013259095 0.0017423437 0.0014841098 0.00059014064 0.00087257265
0.0007046623 0.0014846252 0.0021557142 0.00091281807 0.000938592 0.0014231593 0.0013734773 0.0009963749
0.00068073685 0.0010702149 0.00086438644 0.0029555964 0.0014282889 0.0006896458 0.0005339224 0.0016435896
0.002169187 0.0014962243 0.0013323764 0.0015023083 0.0019588894 0.0019912065 0.0008720997 0.00070342433
0.0012577078 0.0005635002 0.0011890001 0.001893012 0.0011612722 0.00077018194 0.00150114 0.0006479979
0.0016644093 0.0012296744 0.0020558755 0.00077595934 0.0014548418 0.0013920297 0.00071411376 0.0010591715
0.0011723634 0.0009126031 0.0006778233 0.0013067409 0.0007092506 0.00091082306 0.00037824162 0.0015892542
0.0011306104 0.0009045509 0.0006727546 0.00072347093 0.0011251761 0.0010810846 0.001675849 0.0024681108
0.0009275127 0.0005220254 0.00082717737 0.0011670082

classifier.4.weight f4 [170, 140]
00000000: d7c8 d0bd cd84 4ebd 81e0 9fbd 2fb6 953d
00000010: 0b79 b7bd 627d e1bd be6f 29bc 8fcd babd
00000020: 3339 a3bd 4d08 6c3c 9316 953c 1037 52bd
00000030: 0e1b 8e3c 9a7a 21bd cc96 753b 6c82 cc3d
00000040: 2539 e93c 5a10 49bd c22c cabd 15c4 c9bc
00000050: 419b 733d b56e 1abd 4620 f33b f179 183d
00000060: bdb4 733d 90f9 2737 72e5 b8bd 6675 59bc
00000070: d780 aabc a832 783c f229 2bbe bfed 51bd
00000080: 3867 8fbd 9344 b4bc e609 23be 9730 fabc
00000090: 4daf e3bb 7b32 953d b8ac c8bd 2913 0cbd
000000a0: d4d6 07be 341a 7e3d 1d83 08bd d6ed acbd
000000b0: 980f 70bd 85b3 583b 2e92 7cbc e283 6e3d
000000c0: 260c 89bd e3e7 0fbd 7da4 bebd 881d bc3c
000000d0: 6781 49bd bc2a d23c 703f c5bd cc65 dcbd
000000e0: 210a aa3d 43a6 5ebd 6821 75bb 8730 05bd
000000f0: fe76 70bd 2195 4fbd 7c3f 093d 991e 393d
00000100: a6a6 b73d 983e 92bd 93bf 0f3d ddc7 17be
00000110: 1863 f6bc 661b 4ebb 3cf3 aebc 06ab 91bd
00000120: 82e0 afbd faaf 673c f860 5abc eb59 953d
00000130: d6b6 76bc d52f cbbc 6514 e63c 4324 8fbc
00000140: ca73 44bd fcae c6bd 6d9a f2bb d1e1 2dbd
00000150: 9d51 13bd 48db 933d 23ae 4dbd 33fc 9b3c
00000160: c51b 7dbd 7473 11bd 068b 96bd 64bd 1c3d
00000170: fa0b 05be b254 71bd be42 75bd d5c3 ddbd
00000180: d98a d4bc 21db 57bd b602 72bc 0c06 6abb
00000190: 2728 0fbd 4e4e a8bd 0d36 28bc 9e5b 0bbd
000001a0: d322 8bbc 0b40 32bd 3eb5 52bd 410b 513d
000001b0: a4c0 c5bc 6a66 6abd 575f 25bc f625 86bd
000001c0: ca8f b7bd a46d 053d d464 51bd d487 883c
000001d0: 6609 1dbe d886 0e3d dcb1 fd3c 8d1e 863d
000001e0: d9c9 ffbc 63af 7a3c ed11 8f3d 6c21 70bd
000001f0: 1be4 b4bc 8219 c0bd a822 70bb c3b9 0d3a
00000200: a188 913d 6496 e5bc 8f36 80bd f3be fdbc
00000210: 4f04 8abd 026a ecbd 05af aabd cd60 0c3c
00000220: 6783 653d 6118 1b3d 484a ecbd a27f f1bd
00000230: 54e2 4fbd 37b3 e83a 3a9e 763a 7efa f73d
00000240: 4f67 863b c65d efbc 175c 97bc 5a8f 273c
00000250: 75c9 44bd 94f6 37bc 044c 233d 847b 1dbd
00000260: 839b 0cbc 61e9 12be 103f 62bb 8f39 64bc
00000270: 135b 373d a2f0 ecbd 6dfd f0bc c980 123d
00000280: 55da 813b f2b1 963d a6be 9c3d e98b 60b9
00000290: e545 47bd 2f04 023d 9db7 9cbb fd4c 45bd
000002a0: 08d0 943d 1f6a 6ebd 8249 2e3c dad7 033d
000002b0: e1a9 9d3d a009 7c3d e374 723d a68b 8e3c
000002c0: a126 be3d 2717 f9bc d643 e9bc bca2 bdbd
000002d0: 8b28 173c 1e59 563e dfaa a5bc 7551 7e3c
000002e0: 563a 843d 687f 1f3d 68bc 68bd 8c12 03be
000002f0: fba8 e03d 7fab 62bc 24ee 99bd 3a8b 993d
00000300: 8b7e 363d c853 883d 62c0 2abd 2b88 0dbe
00000310: f0b2 d33d d650 783c 5ab6 e73c ab82 8cba
00000320: 9b14 8d3d 176b 13be f75a 503d c077 613d
00000330: 28e9 8c3d 220b 5e3d 2928 1d3d 0c83 583c
00000340: 2417 c9bd 1f08 763c 0810 b33c 793d 2b3e
00000350: 8fec 18bd 82e1 d3bc 75bf f93d 0044 ae3d
00000360: 3848 b93b 2964 b8bb 398f bcbd 761e ecbc
00000370: 6c48 c03d 0a80 e8bc 9b00 f43b e748 3f3d
00000380: 365a f0bd 8282 203d 8434 30bd 9d0d 5d3d
00000390: 9eac 993b eb66 643d e98a 863d ef43 5abd
000003a0: a7f8 0e3c 777b 82bd 7c46 dd3d f6c9 773d
000003b0: 8682 883d 71c7 60bb 20e6 c1bd e165 2e3d
000003c0: b4d0 6e3d 6671 ae3d eaae 94bd 66d2 6b3d
000003d0: 6dc0 843d c040 263d 193a 32bd 0f11 bebd
000003e0: 408a b93d 6453 f03b d830 42bd 71a9 c7bd
000003f0: a1c5 96bd cf1a b53a 6a87 b03d 74b4 fd3d
-0.10194557 -0.050419617 -0.078064926 0.073101394 -0.08958634 -0.11010243 -0.010341583 -0.091212384
-0.07969894 0.014406276 0.01819924 -0.051322043 0.017346885 -0.039423563 0.0037473915 0.099858135
0.028469631 -0.04908786 -0.09871818 -0.024629632 0.059474234 -0.037703235 0.007419619 0.037225667
0.059498537 1.00120815e-05 -0.09028138 -0.013272619 -0.020813389 0.015148796 -0.1671522 -0.051252123
-0.07002109 -0.022005355 -0.15921745 -0.030540748 -0.0069483877 0.07285019 -0.097985685 -0.03419796
-0.13265544 0.062036708 -0.033328164 -0.08443801 -0.05860862 0.0033065986 -0.015415711 0.058231242
-0.0669177 -0.035133254 -0.093087174 0.0229633 -0.049195673 0.025655143 -0.0963124 -0.10761604
0.08302713 -0.05435778 -0.0037403945 -0.032516982 -0.05870723 -0.05067933 0.03350781 0.045195196
0.089673325 -0.07140845 0.03509481 -0.14822336 -0.030076548 -0.0031449436 -0.021356218 -0.07112698
-0.08587743 0.014141077 -0.013328783 0.07292541 -0.01505824 -0.024803082 0.028085897 -0.017473346
-0.047961988 -0.09701344 -0.007403663 -0.042451683 -0.035966504 0.07219559 -0.050214898 0.019041156
-0.06179406 -0.035510495 -0.07350735 0.038266554 -0.1299285 -0.058918662 -0.059878103 -0.108283676
-0.025945114 -0.052699212 -0.014771154 -0.003570917 -0.0349504 -0.082180604 -0.010266793 -0.03402292
-0.016984379 -0.043518107 -0.051442377 0.051036123 -0.02413971 -0.057226576 -0.010093532 -0.06550209
-0.089629725 0.032575265 -0.051121548 0.01666633 -0.15335616 0.034796566 0.030968599 0.06548796
-0.031224178 0.0153006045 0.06985841 -0.058625624 -0.022081425 -0.09379865 -0.003664175 0.0005406404
0.07106138 -0.028025813 -0.06260406 -0.03097484 -0.06739103 -0.11543657 -0.083341636 0.008568001
0.05603352 0.037865046 -0.115376055 -0.11791922 -0.050752953 0.0017753605 0.0009407733 0.121083245
0.004101671 -0.02921952 -0.018476529 0.010227049 -0.048043687 -0.011228222 0.039867416 -0.03844787
-0.008581999 -0.1434684 -0.0034522451 -0.013929739 0.04476459 -0.115693346 -0.029417718 0.03576735
0.003962795 0.07358159 0.07653551 -0.00021414425 -0.04865064 0.03174227 -0.0047826306 -0.048169125
0.07266241 -0.058206674 0.010637643 0.032188274 0.076984175 0.061532617 0.059193503 0.017400574
0.09284712 -0.030406548 -0.02847473 -0.09259555 0.009225975 0.20932433 -0.02022308 0.015522351
0.06456439 0.038939863 -0.056820303 -0.12800044 0.109697305 -0.013834833 -0.07516125 0.074972585
0.044554275 0.06656605 -0.041687377 -0.13821475 0.10336864 0.015155992 0.028285194 -0.0010720094
0.06888696 -0.1439632 0.050868 0.055045843 0.068804085 0.054209836 0.038368378 0.013214838
-0.09818867 0.015016585 0.02185823 0.16722669 -0.037334975 -0.025864366 0.12194721 0.08509064
0.005654361 -0.0056271744 -0.09207005 -0.028823119 0.093888134 -0.028381366 0.0074463612 0.046700384
-0.11735956 0.039186962 -0.043018833 0.05396806 0.004689767 0.055762213 0.06569464 -0.053287443
0.0087262755 -0.06371205 0.108044595 0.06049534 0.0666552 -0.0034298564 -0.09467721 0.042577628
0.058304504 0.08517723 -0.07259925 0.0575737 0.06482015 0.040589094 -0.043512437 -0.092805974
0.09059572 0.0073341597 -0.047409862 -0.09749115 -0.073619135 0.0013817194 0.08619578 0.12387934

classifier.4.bias f4 [170]
00000000: fba8 7d3d 8aba 8ebc 38f5 0b3d de2b 95bd
00000010: f6a8 7b3c 0611 e03b 50fa 823c 51a4 55bd
00000020: 9153 953c 7d73 9dbc e226 7b3d b384 193a
00000030: df1a a33d c044 b5bd ed44 733d 7f33 803d
00000040: 430f a0bd 7701 4fbd 915e 8dbd c870 6d3d
00000050: 3147 c8bc bfad c3bd 5406 e7bb b200 93bd
00000060: a38f 333d 5232 9a3d 9eee 0e3d a0ca a6bc
00000070: 8e21 8fbd 9e8d 823d 3bd5 c63c f279 8abd
00000080: 3356 9f3c e00b 04bb d4fd 14be 4d27 27bc
00000090: 7153 6a3c 69a5 83bd 1e4c 743d 2345 64bd
000000a0: e052 cb3c cb24 7d3d 82ac f8bd f889 5f3d
000000b0: 8dbb 433d dc4e 8cbd 1c34 d43b 132f 76bd
000000c0: f199 453d aa40 31bd 4256 d63c cde4 ef39
000000d0: 2873 8bbd 82c9 a83d fb7c 893d e8a6 abbc
000000e0: 435d 683d 6702 81bd 3429 c63b 8f5b 67bc
000000f0: 77a3 0fbd 69ca 613c 50e2 a33d ae55 c6bd
00000100: 23d7 503d 0ca9 043d 30a8 aabd dddb c03c
00000110: bef2 1abd 9bfe 05bd a41f 773d 8d4e 223d
00000120: aa57 a8bd 8649 4ebd 9909 f53c ec86 40bd
00000130: 6ad7 ac3c c605 133d bdf3 4f3d 96de aabd
00000140: 8704 e7bc 6d49 773d 184f 643d c89b 913d
00000150: 35a8 a23d 1c95 813d 8bb0 31bd 6399 adbc
00000160: 9b74 0a3d b78d d7bc ac36 a5bd 8460 5fbb
00000170: 761a 183d 33dd 68bd f046 23bd da2b ba3c
00000180: 15b5 bc3d ead8 463a 5027 913c c922 353d
00000190: e765 b83d b473 493d 89c5 d6bc fcc4 05be
000001a0: aae1 7e3d 74b8 1bbc e19a 8dbb 9cbc 4bbd
000001b0: 24d1 b23d 8a51 8c3d 0874 163d 4ac3 ae3c
000001c0: b1f1 2fbd db92 96bd 79bd b038 a13d 573c
000001d0: 16af 3e3d f7de cb3c 952b 41bd 781d 7a3d
000001e0: 6f7d 52bd 309e cf3d 3094 57bd 9c0f bcbd
000001f0: d6f4 a13d 782a 013c f7e1 73bd f58d 5dbd
00000200: 4243 053b 270c 443d c840 8dbb 542c adbd
00000210: d2b3 a13d 0d6a f4bc 009a d23c 506b d5bd
00000220: 1e7c 113d 0030 2c3b 9b4b 603d fae6 853d
00000230: c142 9e3c b57b 52bd 1c10 97bc 174a b3bb
00000240: 1e6f dbbb ddc5 2e3d d687 1cbd 2c00 74bd
00000250: b221 97bc 6ad8 c1bc b0fb 2c3d efa0 b8bc
00000260: 0744 9fbd ba84 e2bc 3041 403d 7328 f13b
00000270: c8c8 053c f640 76bd 633f 71bd 3696 e03c
00000280: c2b8 9dbb 32b6 bf3c 1187 dfbb f5c8 8c3d
00000290: a492 8c3c b51a 843d 488d 643c b9e6 8fbd
000002a0: 8956 783d 1881 b6bd
0.06192873 -0.017422933 0.034169406 -0.072837576 0.015360108 0.006837967 0.015988499 -0.052158657
0.018228324 -0.019220108 0.06131638 0.00058562605 0.0796411 -0.08851004 0.059391905 0.06259822
-0.07815411 -0.050538506 -0.06902803 0.057968885 -0.02444801 -0.09554624 -0.007050315 -0.07177867
0.043838155 0.07529129 0.03489553 -0.020360291 -0.06988822 0.063746676 0.024271598 -0.067615405
0.019450283 -0.002014868 -0.14549953 -0.010202241 0.014302121 -0.06428034 0.059642904 -0.055729996
0.024819791 0.061802667 -0.12142278 0.054574937 0.047786284 -0.06850979 0.0064759385 -0.060103487
0.048242513 -0.04327456 0.026164178 0.00045756102 -0.06809074 0.082415596 0.06713291 -0.02095361
0.056729566 -0.06299286 0.0060473923 -0.01412095 -0.035068 0.0137811685 0.0800215 -0.09684311
0.05098642 0.03238778 -0.083328605 0.023542339 -0.037829153 -0.032713514 0.06033291 0.039625693
-0.082198456 -0.050363086 0.029911803 -0.04700367 0.021098811 0.035894178 0.050769556 -0.08343236
-0.028200401 0.06037276 0.055739492 0.07109791 0.07942239 0.063272685 -0.043381255 -0.021191305
0.03380261 -0.026312692 -0.080670685 -0.0034084627 0.03713461 -0.056851577 -0.039862573 0.022725988
0.09214226 0.00075854233 0.017718941 0.044222627 0.09003811 0.04918261 -0.026217239 -0.13063425
0.06222693 -0.009504426 -0.0043214415 -0.04974042 0.08731297 0.0685149 0.03673175 0.021333355
-0.042955104 -0.07352229 8.427626e-05 0.013137252 0.046553694 0.024886591 -0.047160704 0.06106326
-0.051389154 0.10137594 -0.052631557 -0.09182665 0.07908027 0.0078836605 -0.05954167 -0.05409046
0.0020334278 0.047863152 -0.004310701 -0.084557205 0.07895626 -0.029835725 0.025708199 -0.10420859
0.035518758 0.0026273727 0.054759603 0.06538196 0.01931894 -0.051387507 -0.018440299 -0.0054714787
-0.006696596 0.042669166 -0.03821548 -0.059570476 -0.018448684 -0.023662765 0.042232215 -0.022537677
-0.07776647 -0.02765118 0.046937168 0.0073595583 0.008165546 -0.060120545 -0.05889834 0.027415376
-0.0048132846 0.023402307 -0.006821521 0.06874267 0.017159767 0.064504065 0.0139497 -0.07026429
0.0606294 -0.089113414

classifier.5.weight f4 [170]
00000000: b0ad 853f ce6b 783f 0ca2 803f 9cbf 713f
00000010: 66f0 6b3f ff27 773f 8916 763f 6476 823f
00000020: 67b7 7c3f dc25 713f 0daf 683f 6553 723f
00000030: ac75 873f 6d51 753f 13fb 8e3f d228 823f
00000040: 22b8 763f 58ff 833f 8387 723f 43be 7f3f
00000050: 8c9a 783f 982f 823f a27b 833f ba98 853f
00000060: 138e 603f a536 793f 2346 823f 4beb 723f
00000070: 75e5 873f c36c 803f 5ea3 813f db78 793f
00000080: 9827 733f b69c 743f b639 823f a8e8 7c3f
00000090: 6fb7 8f3f 65f6 833f 843d 843f 85f4 7a3f
000000a0: c47f 7c3f a6c6 783f 03da 773f 6b3d 7d3f
000000b0: c38b 7a3f f4dc 7f3f 13b7 6e3f 991d 723f
000000c0: 80f8 783f 975f 713f 8bc2 753f 767b 723f
000000d0: ff66 663f 7572 683f d7eb 713f 511a 833f
000000e0: 1284 673f fbff 733f e654 713f 7282 743f
000000f0: 4822 843f ac60 633f f7df 723f 3482 803f
00000100: 93bc 853f 8e51 823f 9c0f 753f a367 8e3f
00000110: 256a 6f3f bd31 723f dab9 6a3f 998f 803f
00000120: e279 6e3f a737 893f abca 893f 32a7 8d3f
00000130: b4a3 653f d239 7f3f 2b1e 8a3f 0ae3 6e3f
00000140: b674 903f 7565 783f 0d3b 943f 81bf 853f
00000150: 6536 823f c847 803f 4fb9 793f 222d 813f
00000160: 48c7 723f acab 793f 6e47 6f3f 59db 713f
00000170: 4825 8c3f 69bb 7f3f a126 933f 20de 733f
00000180: 2ec5 763f 8780 813f a5cd 833f 9878 863f
00000190: 94f4 853f d6ba 853f c4c4 5b3f 1c37 783f
000001a0: 50af 6e3f 9615 843f 112c 823f dd05 843f
000001b0: 9f2c 813f 30af 7c3f 701d 7b3f c620 783f
000001c0: 62a3 7f3f 4673 693f 6600 813f dc2b 873f
000001d0: ecc5 893f 1e91 893f 6d1b 883f f603 813f
000001e0: d3e8 823f 3bf6 723f d3b2 803f 9b3b 883f
000001f0: 36f9 863f 2817 923f 00fb 793f 9158 7d3f
00000200: 4f63 7a3f cf12 8e3f 358b 6f3f 8038 783f
00000210: 417c 7d3f 0a10 7b3f 0f01 803f 12fe 8b3f
00000220: 3cc6 893f ec19 883f c498 8b3f b307 6d3f
00000230: 05d6 813f 30e4 823f 1b2c 5f3f b831 723f
00000240: 1a11 833f 82de 7f3f 90ba 873f d7cd 7c3f
00000250: c950 7e3f 72cc 713f 17d6 6b3f 4583 763f
00000260: 5ef3 813f fa7e 7d3f 0b01 833f 9ff5 803f
00000270: 4a9b 843f f8a4 6e3f 7006 8c3f 8da3 843f
00000280: e51e 833f ae74 733f 2d29 8f3f 4b68 7a3f
00000290: cf01 7b3f 2d9c 783f 6edf 883f cfa2 6f3f
000002a0: 45f8 7a3f 028c 803f
1.044363 0.97039497 1.0049453 0.94433 0.92163694 0.96545404 0.96128136 1.019238
0.9871735 0.94198394 0.90892106 0.946585 1.0582786 0.9582737 1.1170372 1.0168707
0.96374714 1.03123 0.94738024 0.9989969 0.9711082 1.0170774 1.0272105 1.0437233
0.8771679 0.97349006 1.0177654 0.9489028 1.06169 1.0033191 1.0127981 0.97450036
0.9498229 0.9555162 1.0173862 0.98792505 1.1227854 1.0309569 1.0331273 0.9802936
0.98632455 0.97178113 0.96817034 0.9892184 0.9786951 0.9994652 0.932481 0.9457641
0.9725418 0.94286484 0.95999974 0.94719636 0.9000091 0.9079965 0.9450049 1.0242406
0.904359 0.9531247 0.9427017 0.95511544 1.0322962 0.88819385 0.94872993 1.0039735
1.0448173 1.0181139 0.95726943 1.1125377 0.9352134 0.94607145 0.91689837 1.0043823
0.9315473 1.0720109 1.0764974 1.1066649 0.89702916 0.996976 1.0790457 0.93315184
1.1285617 0.9702981 1.1580521 1.0449067 1.017285 1.0021906 0.97548383 1.0091898
0.9483533 0.97527575 0.9346837 0.9447532 1.0948877 0.9989534 1.1496164 0.9526081
0.9639462 1.0117348 1.0297133 1.0505552 1.0465264 1.0447643 0.85847116 0.9695909
0.93236256 1.0319088 1.0169698 1.0314289 1.0091742 0.98704815 0.98091793 0.9692501
0.9985868 0.9119152 1.0078247 1.056026 1.0763526 1.0747411 1.063337 1.0079334
1.0227302 0.9490697 1.0054573 1.064319 1.0544803 1.1413317 0.9764862 0.98963267
0.9780778 1.109949 0.9357179 0.9696121 0.9901772 0.9807135 1.0000323 1.0936911
1.0763621 1.0632911 1.0905995 0.92589873 1.0143439 1.0225887 0.87176675 0.94607115
1.0239594 0.99948895 1.0603809 0.98751587 0.9934202 0.94452584 0.9212355 0.9629405
1.0152395 0.99021876 1.0234693 1.0074958 1.035989 0.9322047 1.0939465 1.0362412
1.0243803 0.95099914 1.1184441 0.9781539 0.98049635 0.97113305 1.0693185 0.936078
0.9803508 1.0042727

classifier.5.bias f4 [170]
00000000: fcca dbbc 2aac afbd afee b6bd d07b 1fbe
00000010: 945a a9bd fc1d 27bd 0832 82bd 8ed2 25be
00000020: 5813 f6bd e470 11be 40e5 d5bd 06f8 68bd
00000030: 5cb1 0bbc da39 0fbe c01b 27bd ba09 71bd
00000040: f878 86bd 9c40 083b b8fb 20bc 2e32 81bd
00000050: 187d 21bd 2920 09bd 433d c8bd b830 f9bb
00000060: c627 2abe 191c e4bd 37c2 a2bd 276f d7bd
00000070: bc37 a8bb 042e eebd dd0c 8abc 2b43 fabd
00000080: 7d7d e8bd 66d9 d3bd 0bb5 16be 0a9f a2bd
00000090: b455 08bd f18f f6bb b2fb 32bd 7f75 1ebe
000000a0: 11d1 a4bd 03cd adbc 0a32 dfbd 8cbc e2bd
000000b0: 3e23 8abd cc9e 3ebd 22ac cabd 7cb5 17bc
000000c0: d76b 77bd fc38 5dbe a2a0 56bd 4b4a b6bd
000000d0: 1c36 c6bd 419f 83bd 1253 ddbd 048a ffbd
000000e0: cc6c 56be 582c f3bd 66a0 dcbd 70ad 00be
000000f0: 67ef 953c f91f 70be 5105 ccbd fc34 c3bd
00000100: e4d4 8cbd 31cf 17be 4b31 81bc 279d d9bd
00000110: 7d3b 1dbd d1e6 93bd 0b75 e8bd 53d5 45be
00000120: 0cc5 36bd d475 bcbd 80ee 613d dde3 59bd
00000130: ab07 02be 401e b5bd b071 03be d670 f6bd
00000140: c33e 8ebc 9d81 d6bd da4c a9bd a85a 20bd
00000150: ecb8 72bd 61e6 05be f20c eebd 779e 9b3c
00000160: 0294 12be 621e 7ebd 2b9f 86bd 296f 11be
00000170: a387 a33b 590c 34bd 5340 313d 15f7 f3bd
00000180: ce9f c8bc 0df0 40bd 6a3c 99bd 7591 3fbd
00000190: dd8f fabd 30b2 463c 54d2 21be 5f0b febc
000001a0: 8f34 fdbd c8db 7dbc f231 ffbd f9a0 5bbe
000001b0: ff11 7fbc 1b45 1abe 91fd 9d3c 560b 2ebe
000001c0: 7331 f1bd b290 06be 2ef7 db3a 4ad2 c2bd
000001d0: 1d55 f1bc 540b 9abd 2499 3f3c 80d1 05be
000001e0: 4a79 2ebd 7092 82bd 33d7 59bc d22b d5bd
000001f0: 4b17 11be cd55 19bc 0a64 cfbd 0e0e 7abd
00000200: e48b 38be d49f 883d 8f8f 02be 7f8f 9fbd
00000210: 65a2 31bd 945c 0bbd aa8e c2bd e485 073d
00000220: b370 ec3c 2bd3 26bd 021b d2bd 9900 c0bd
00000230: 9f3f b4bd f380 a6bd 0a16 09be e2cc 16be
00000240: dd79 99bd ae9c a8bd b8ea c3bd 7dea f0bd
00000250: ae57 64bc d4c5 bbbd ac22 02be 5b4e 0cbd
00000260: 339a 18be a7c9 b9ba 9c04 57bd 222a ca3a
00000270: 1702 3bbd a079 0bbe 245f 183d 5cc0 36bd
00000280: 1f63 72bd ae3a 9ebd e677 25be cb9b b4bd
00000290: e2f7 fabd 4e19 12be d74e b1bc 245c 1abe
000002a0: 536e 46be 544c 6ebd
-0.026830189 -0.085777596 -0.08932244 -0.15574574 -0.082692295 -0.04080008 -0.06357199 -0.16193601
-0.12015408 -0.1420322 -0.104441166 -0.05687716 -0.0085261725 -0.13986912 -0.04079795 -0.058847167
-0.06566042 0.0020790463 -0.009825639 -0.06308399 -0.03942594 -0.033477936 -0.0977731 -0.0076046847
-0.16616735 -0.11138172 -0.079472 -0.105192475 -0.005133597 -0.116298705 -0.016851837 -0.122198425
-0.1135206 -0.103442 -0.147175 -0.079404905 -0.033284858 -0.0075244834 -0.043697067 -0.15474509
-0.08047689 -0.021215921 -0.10898216 -0.11071119 -0.06745003 -0.04653816 -0.09896113 -0.009259578
-0.06040558 -0.21603769 -0.052399285 -0.08900889 -0.09678289 -0.0642686 -0.1080686 -0.12477496
-0.2093994 -0.11873692 -0.10772781 -0.12566161 0.018302632 -0.23449697 -0.099619515 -0.0953159
-0.06876543 -0.14825131 -0.015770575 -0.106256776 -0.03838681 -0.07221759 -0.11350449 -0.19319658
-0.044621512 -0.092021614 0.055159092 -0.053195823 -0.12698238 -0.0884366 -0.12836337 -0.120332405
-0.017363911 -0.104739405 -0.082666114 -0.039148957 -0.059258386 -0.13076164 -0.11623563 0.01899646
-0.14314273 -0.062040694 -0.06573328 -0.1420256 0.0049905344 -0.04395709 0.043274235 -0.119123615
-0.024490263 -0.04710393 -0.07482226 -0.046769578 -0.12234471 0.012127444 -0.1580289 -0.031011282
-0.123635404 -0.015494294 -0.12460698 -0.21448125 -0.015568255 -0.15065424 0.019285949 -0.16996512
-0.1177701 -0.13141134 0.0016782039 -0.09512766 -0.02945953 -0.07521692 0.011694226 -0.13068199
-0.04259614 -0.06375587 -0.013295936 -0.10408749 -0.14169042 -0.009358835 -0.10126503 -0.06104856
-0.18022114 0.0667111 -0.12750076 -0.077910416 -0.043367762 -0.034023836 -0.09499867 0.033086672
0.028862333 -0.04072873 -0.102590576 -0.09375114 -0.08801197 -0.08130064 -0.13387313 -0.14726594
-0.07493947 -0.08233009 -0.095662534 -0.11763475 -0.01393692 -0.09168592 -0.12708539 -0.034254413
-0.14902572 -0.0014174477 -0.05249463 0.0015423934 -0.04565629 -0.13620615 0.03720011 -0.044617042
-0.05917656 -0.07726036 -0.16159019 -0.08818778 -0.12254311 -0.14267465 -0.02164404 -0.15074211
-0.19378023 -0.05817826

classifier.5.running_mean f4 [170]
00000000: 09f0 97bf 242e 253e f35d e23e ca80 55bf
00000010: 366f 23bf 1e89 f5bc 4dd6 db3c 222d dabd
00000020: 3fa6 973c 0a1a cdbe 9c8c 343e 2c03 94be
00000030: 5ade 96bf e69f 3cbd abdf be3d 9571 a2be
00000040: 47f0 25bf f150 3ebe 9080 053e fc1e 5dbf
00000050: afd8 bdbe bd32 37bf a52d 46bf 39b1 65bf
00000060: 9501 83be c9a3 b33e a66d d23e 04d5 56bf
00000070: 78bf 6ebf 2a92 bf3e 3080 58bf f95a bfbe
00000080: 7746 fb3d a912 013d 741d 25be 7f39 85bf
00000090: 1275 12bf 6531 32bf f9a6 f83e 04f0 f8be
000000a0: 9150 fc3e 7084 c3be 2777 07bf db72 f13e
000000b0: cd79 1bbd 53ba 9e3e bf88 653c dfba 02bf
000000c0: 201c 87bf 8da2 07bf 0118 b0be 0fe8 98bd
000000d0: 266c f8be 23c0 323d 9a95 393f b95f 8ebf
000000e0: 13e7 e63c e8c0 8bbf ca5c a3be f1ec 88be
000000f0: f9e4 91bf 6dde c2be a999 12bf 47d0 b13e
00000100: db58 0dbf 73da 89bd 2a46 f23d 6c53 89bd
00000110: ea4b 38be 569d 4a3d 5113 65bf 3380 263e
00000120: e689 11bf 0cd0 81bf 3ac3 09bf 4c1e c3be
00000130: ddd2 72bf 22f4 083e e3cc 8abe 95f4 7fbf
00000140: 2c79 a4bf 74e8 02bf 0898 373e 4a3b 33bf
00000150: ff27 c4be 6512 d4bc 1be4 5cbf 1bf2 d9be
00000160: 356d c33e 0de0 40bf a361 1cbf 14a3 a83e
00000170: 4860 b3bf 345b 33be 6b25 bdbf d285 95bf
00000180: 645d 6abf 5bd5 33bf 3768 8abe 679d 7cbf
00000190: 44f7 1abe a8ff 90bf 0f1e 6cbf c2eb 07be
000001a0: eb30 c1be 24f4 5bbf 3416 933e d4d3 873e
000001b0: 706a 04bf 84ce b8be 6ee6 16bf 077c 66bf
000001c0: a86e 69ba 781d 06bf 6121 94bf 682b 3c3e
000001d0: 8da1 8fbf 5935 a9be 5b6f a1be 166c 50bf
000001e0: b4f2 1abe f833 bebe 2333 dbbd 081f 223f
000001f0: f9dd 933d 6fb7 77bf 10e4 cb3d 5993 64bf
00000200: 5b7b 26bf f087 b7be 6069 f8be 7c2f bcbf
00000210: 21d2 17bf 37f3 c63d 4141 4cbf d5b2 b7bf
00000220: fbc9 abbf b258 40bf d62c 2cbf d756 59bf
00000230: 970b 78bf 8bde ad3d 0603 eebe 0c15 20bf
00000240: 6063 04bf 6565 82bf 23e6 483e 89ee 96be
00000250: 94d6 12bf 92a1 e7be f43a 85bf e700 0c3f
00000260: 6890 95be 0f7c b1be a176 85bf 4e55 5bbf
00000270: 694c debe de24 cebe fed5 b5be 12ed 40bf
00000280: b403 38bf 0d5b 32bf 621a 88bd 6aaf 72bf
00000290: 7beb cebe aa4f a23e 7830 e9be 50c5 8abe
000002a0: 9880 aabd 8956 97bf
-1.1870128 0.16130883 0.44212303 -0.8339964 -0.6384157 -0.02997261 0.026835585 -0.1065314
0.01851189 -0.4005893 0.17631763 -0.2890867 -1.1786606 -0.04605093 0.09320005 -0.3172728
-0.6481976 -0.18585564 0.13037324 -0.86375403 -0.3707938 -0.71561795 -0.774134 -0.89723545
-0.25587144 0.35085896 0.4109928 -0.83918786 -0.9326091 0.37416202 -0.845706 -0.37374094
0.122692995 0.031511936 -0.16124517 -1.0408171 -0.57209885 -0.6960662 0.4856489 -0.48620617
0.49280217 -0.3818698 -0.5291619 0.4715794 -0.037957955 0.3100153 0.014009654 -0.5106639
-1.0555458 -0.5298241 -0.34393314 -0.07466137 -0.4852001 0.043640267 0.724939 -1.1122962
0.028186357 -1.0918245 -0.3190673 -0.26743272 -1.1398002 -0.38060322 -0.57265717 0.34729216
-0.5521371 -0.06731119 0.11829789 -0.067053646 -0.17997709 0.049466453 -0.894826 0.16259842
-0.5685104 -1.0141616 -0.5381352 -0.38109052 -0.94853 0.1337438 -0.2710944 -0.9998258
-1.2849479 -0.51135945 0.17929089 -0.7001234 -0.38311765 -0.025887677 -0.8628556 -0.42567524
0.38169256 -0.75341874 -0.6108648 0.3293692 -1.4013758 -0.1751526 -1.4777044 -1.1681464
-0.9154875 -0.7024743 -0.27032635 -0.98677677 -0.15133387 -1.132802 -0.92233366 -0.13273528
-0.37732634 -0.85919404 0.28727877 0.265288 -0.5172491 -0.3609506 -0.5894536 -0.90033
-0.00089047337 -0.52388716 -1.1572686 0.18375933 -1.1221176 -0.33048514 -0.3153027 -0.81414926
-0.15131646 -0.37149024 -0.10703113 0.633286 0.07220072 -0.9676427 0.09955609 -0.89287335
-0.65031976 -0.358459 -0.48517895 -1.4701991 -0.59305006 0.09714358 -0.7978707 -1.435145
-1.3421015 -0.7513534 -0.67255914 -0.8489813 -0.96892685 0.08489712 -0.46486682 -0.62532115
-0.51714134 -1.0187193 0.1961904 -0.29478863 -0.5735867 -0.45240456 -1.0408616 0.54688877
-0.29211736 -0.34664962 -1.0426828 -0.8567704 -0.4341767 -0.40262502 -0.35514826 -0.7536174
-0.7188065 -0.6967018 -0.06645657 -0.9479891 -0.40414032 0.31701404 -0.4554479 -0.27103662
-0.083253086 -1.1823283

classifier.5.running_var f4 [170]
00000000: 6447 2c3f 8645 c23e 12e9 2f3f e816 043f
00000010: 1f31 e13e f26f 183f b762 683f bd53 543f
00000020: 68da 6e3f 0e2e 023f 28b5 593f 68c5 f93e
00000030: 5858 813f dd21 573f 8a7c 003f 25b9 313f
00000040: de2e 503f fa64 223f c26a 2e3f d7f7 5e3f
00000050: 3f48 1e3f bcdc 473f aa27 1c3f 4321 393f
00000060: 1707 943e de08 bc3e abfc 5c3f 093e 8e3e
00000070: f3c7 7d3f 169a 523f 475d 513f 8fbe 833e
00000080: 3cf5 1e3f dc0b 573f fa69 f33e abe7 6d3f
00000090: 671e b43f 03f7 7d3f 1450 6c3f 4d75 453f
000000a0: 2b4c 103f b86b 743f 1db9 4b3f 9317 143f
000000b0: 59ee e83e a134 f13e ef10 473f 3488 ef3e
000000c0: ba88 583f 0907 a53e 6b48 da3e 43ba f63e
000000d0: c378 573f 63a6 1a3f ac1a 233f ecde 703f
000000e0: 914a b93e 00a9 0c3f 3e13 0b3f ec91 653f
000000f0: 9d03 773f fe95 b83e 5723 e93e 74fd 6f3f
00000100: 5581 443f 0e0d 423f 5148 f63e ea39 5b3f
00000110: 0057 623f 5666 b63e c379 9c3e 72e8 203f
00000120: acfd 473f 56e2 443f 284f 6a3f b561 bb3f
00000130: f767 883e 3025 4b3f 69f2 4f3f c237 513e
00000140: 7c3e 963f 2adb 893f 1c53 5b3f bb40 4b3f
00000150: f47b 4e3f ad12 613f 850a 053f ec66 713f
00000160: b4ef 093f 94eb ee3e 5856 313f 6e3c 303f
00000170: 2a70 ad3f f77e ec3e eeaf 803f d237 b43e
00000180: e3b6 503f 0a19 ab3f 11f4 9a3f 01d9 4b3f
00000190: d4b2 853f 7774 893f 8e0a db3e f53c d53e
000001a0: 0f0a 343f 0f20 5b3f 825d d53e a4bc 3a3f
000001b0: f922 063f cd3b 3b3f 4ee7 3d3f fddd 753e
000001c0: d0e5 193f bcff e13e 55a3 603f 9cab 703f
000001d0: d570 543f 22db 863f ef5e 603f 1ffd 113f
000001e0: 0ef0 313f 2e14 e73e dd66 8a3f 4127 2c3f
000001f0: 6491 523f 1433 b33f 880b f73e 2e2e 113f
00000200: 13ab dc3e 7dc8 9b3f e10f 023f a030 013f
00000210: b5e5 ae3e 342d dd3e c49e db3e 0ccd b83f
00000220: 5f5d a63f 4139 893f f5f3 473f a15b c83e
00000230: e5da 563f 06d2 193f 8c2b 053f eba4 ab3e
00000240: 5987 0e3f a053 883f 2bab 813f 91c9 d43e
00000250: 6f22 983f 45da 2b3f 6ad9 013f d178 323f
00000260: 080c 2b3f 0b58 693f 9cde 0e3f 31b0 703f
00000270: c5ba 8c3f 105d bb3e 9394 743f e510 613f
00000280: 5c8e c83f ad1b fd3e 4b72 203f e263 1f3f
00000290: 976a 603f b38c a93e 6ca9 933f 6ca0 d63e
000002a0: ae27 553f 8eec e03e
0.67296433 0.37943667 0.6871501 0.5159745 0.4398279 0.59545815 0.90775627 0.82940274
0.9330201 0.50851524 0.8504205 0.48783422 1.0105085 0.84036046 0.5019003 0.69423133
0.81321514 0.6343533 0.6813165 0.87096924 0.6182899 0.7807119 0.6099802 0.7231638
0.2891166 0.36725515 0.8632304 0.27781704 0.99133223 0.82266366 0.81782955 0.25731322
0.6209295 0.8400247 0.4754179 0.9293162 1.4071778 0.99205035 0.9230969 0.7713211
0.56366223 0.95476866 0.79579335 0.5784847 0.45494345 0.47110465 0.77760214 0.46783602
0.8458363 0.3223193 0.42633376 0.4818898 0.8416864 0.60410136 0.63712573 0.9409015
0.36189702 0.54945374 0.54326236 0.89675784 0.9648989 0.36051935 0.45534775 0.93746114
0.76759845 0.7580117 0.48102048 0.85635245 0.88414 0.3562495 0.30561647 0.62854683
0.7812145 0.7690786 0.9152703 1.4639193 0.2664182 0.7935362 0.81229264 0.20431426
1.1737819 1.0770009 0.8567369 0.79395646 0.8065789 0.8791912 0.51969177 0.9429767
0.5388138 0.46664107 0.69272375 0.6884221 1.3549855 0.46190616 1.005369 0.35198838
0.81529063 1.3367016 1.2105733 0.79627997 1.0445199 1.0738667 0.4278149 0.4164807
0.7032785 0.8559579 0.41672903 0.7294409 0.52397114 0.73138124 0.7418107 0.24010463
0.6011629 0.44140422 0.87749225 0.94011855 0.8298467 1.0535624 0.8764486 0.5702686
0.6950692 0.45132583 1.0812641 0.67247397 0.822531 1.3999963 0.48250985 0.5671109
0.4309927 1.2170559 0.5080548 0.5046482 0.34159628 0.4319855 0.42894566 1.4437575
1.2997245 1.0720598 0.78106624 0.39132407 0.83927757 0.60086095 0.5201957 0.3352426
0.55675274 1.065052 1.0130361 0.41560033 1.1885508 0.6712993 0.5072237 0.697156
0.66815233 0.9114997 0.55808425 0.94018847 1.0994498 0.3659444 0.95539206 0.87916404
1.5668445 0.49435177 0.626744 0.62261784 0.87662643 0.33115157 1.1536078 0.41919267
0.8326367 0.43930477
