ckpt/MAP_CAM/1/best_loss_BEST3.ckpt (torch, 353760 bytes, 19 tensors)

classifier.0.weight f4 [200, 18]
0	0x3e59b5e4	0.21260792
1	0xbe9df51c	-0.30851066
2	0xbd4b89c4	-0.04969193
3	0xbe0a2bcd	-0.13493271
4	0xbdfc5ae9	-0.12322027
5	0x3deab892	0.11460985
6	0x3e94ba05	0.29048172
7	0xbe34aac5	-0.17643268
8	0xbf1e2f0d	-0.61790544
9	0xbc9220d7	-0.017837925
10	0x3fa36ea9	1.2768146
11	0xbe27eaee	-0.16398212
12	0xbe4c372e	-0.19942924
13	0x3d87040c	0.06592569
14	0x3df1636b	0.117865406
15	0x3df3311f	0.118746035
16	0x3e2e12e3	0.16999392
17	0x3e1afc14	0.15135223
18	0x3e50e370	0.2039926
19	0xbe6fc2a7	-0.23414098
20	0x3d46bfc3	0.048522722
21	0x3bae583a	0.005320576
22	0x3ea6a894	0.3255049
23	0xbd816111	-0.06317342
24	0xbe4dcd11	-0.20097758
25	0x3b878940	0.0041362345
26	0xbef790fb	-0.483528
27	0xbef39524	-0.47574723
28	0x3ed663d0	0.41873026
29	0xbe8c3b94	-0.27389205
30	0xbe168983	-0.14700894
31	0xbd0ee341	-0.034884695
32	0x3db60496	0.088875934
33	0x39c24591	0.00037054394
34	0x3e1b668c	0.15175837
35	0x3d33676a	0.043799795
36	0x3e1a6672	0.15078142
37	0x3e548e5e	0.20757434
38	0x3ea0366c	0.3129152
39	0x3da51f79	0.080626436
40	0x3e567cf1	0.20946099
41	0xbd1c7f15	-0.038207132
42	0xbe4bed95	-0.19914849
43	0x3f0557c4	0.52087045
44	0xbe4b09bc	-0.19827932
45	0x3ddb0c7e	0.10695742
46	0xbf3d83d7	-0.74029297
47	0xbe320ee4	-0.17388493
48	0xbc7cfef9	-0.01544165
49	0xbca16a61	-0.019704046
50	0x3d49f2ae	0.049303703
51	0xbb6fddd9	-0.0036600737
52	0xbed3d06c	-0.4136995
53	0x3d2eb29d	0.042650808
54	0xbe06ace0	-0.13151884
55	0x3e0e92ce	0.13923189
56	0xbd75a942	-0.05997587
57	0x3dcc77d6	0.099837944
58	0xbe3eae4b	-0.18621175
59	0xbe521db6	-0.20519146
60	0x3db05ea9	0.08611805
61	0x3eb0e395	0.3454863
62	0xbf82d6ed	-1.022184
63	0xbd8dc508	-0.06922346
64	0x3f2f10ef	0.68385214
65	0xbde3ced3	-0.11123433
66	0x3d51fc2c	0.05126588
67	0xbd48e866	-0.049049757
68	0x3d521578	0.051290005
69	0x3e3a9948	0.18222535
70	0x3de119f6	0.1099128
71	0xbe14f1b1	-0.14545323
72	0xbced2458	-0.028947994
73	0x3eb37603	0.35050973
74	0xbee0c065	-0.43896785
75	0x3e86e826	0.2634899
76	0x3e056175	0.13025458
77	0xbe0b7b0a	-0.13621154
78	0x3edba324	0.42897904
79	0x3e0268d0	0.12735295
80	0x3d357d2a	0.04430882
81	0xbd3935f9	-0.045217488
82	0x3f7c3e8c	0.9853294
83	0x3e5c0c9a	0.21489182
84	0xbe07339c	-0.13203281
85	0xbd16191a	-0.036645032
86	0x3d7e473b	0.06207965
87	0x3ed4d5ac	0.4156927
88	0x3cad4023	0.021148747
89	0xbd08ff1c	-0.033446416
90	0x3c12370f	0.00892426
91	0x3c72adc8	0.0148119405
92	0x3ea74a95	0.3267409
93	0x3ce786f2	0.02826259
94	0xbe732564	-0.23744732
95	0x3dbcc01e	0.09216331
96	0xbe1777d1	-0.147918
97	0xbefcc3b2	-0.49368054
98	0x3e70ccce	0.23515627
99	0x3e4512ed	0.19245501
100	0x3dec461e	0.11536811
101	0x3e6dc862	0.23220971
102	0xbd6b468f	-0.057440337
103	0x3e106346	0.1410037
104	0xbded3200	-0.11581802
105	0xbf2559e3	-0.6459028
106	0xbe15c042	-0.14624122
107	0xbd8d6826	-0.0690463
108	0x3e3bb0de	0.18329188
109	0x3e67cab8	0.22635925
110	0xbeb22647	-0.34794828
111	0xbddc0896	-0.10743825
112	0xbca44f7e	-0.020057436
113	0xbca6e0bc	-0.020370834
114	0x3e631ac1	0.22178175
115	0x3d9f88dc	0.07789776
116	0xbfe3ed54	-1.7806802
117	0xbdda927d	-0.10672472
118	0x3f9de137	1.2334355
119	0xbcd99b94	-0.026563443
120	0x3d2f23ba	0.04275868
121	0x3d84db14	0.06487098
122	0x3c4f6038	0.012657218
123	0xbbadcb09	-0.0053037447
124	0xbc707e7c	-0.014678594
125	0xbd638f62	-0.055556662
126	0xbc514294	-0.012772221
127	0xbec64348	-0.38723207
128	0x3e454c73	0.19267444
129	0xbe0017c3	-0.12509064
130	0xbec16459	-0.37771872
131	0xbe09df42	-0.13464072
132	0xbe214da1	-0.1575227
133	0x3d57e7bc	0.052711233
134	0x3e3b3a2f	0.18283914
135	0x3e6b3fc9	0.22973551
136	0xbea1c825	-0.3159801
137	0xbdd3cf83	-0.10342314
138	0xbdbb61c5	-0.091495074
139	0x3d94718c	0.0724822
140	0xbeae4f03	-0.34044656
141	0xbcd11b58	-0.025525734
142	0xbe0375c6	-0.12837896
143	0xbd93c7b9	-0.072158284
144	0xbe309d91	-0.17247607
145	0x3d96e377	0.07367604
146	0x3e159a6c	0.14609689
147	0x3e89c75e	0.26909918
148	0x3de2ed56	0.110804245
149	0xbe28d673	-0.16488056
150	0xbd8c6dd2	-0.06856884
151	0xbdff79b5	-0.12474386
152	0xbe44b3d1	-0.1920922
153	0x3d32845b	0.043583255
154	0xbf3c68a6	-0.7359718
155	0x3ead8a57	0.33894607
156	0x3e065ed1	0.13122107
157	0xbda57e17	-0.0808069
158	0x3dec27ca	0.11531027
159	0x3eb06f82	0.34460074
160	0xbe50562f	-0.20345376
161	0x3b8a16fa	0.004214165
162	0x3b1ca4ad	0.0023901865
163	0x3e3da5d7	0.18520294
164	0xbc2ac65d	-0.01042327
165	0xbe75a633	-0.23989181
166	0x3dd90ec0	0.105985165
167	0xbbdf84fd	-0.0068212734
168	0xbe01ada8	-0.12663901
169	0xbdc79378	-0.09744924
170	0xbecff20a	-0.4061435
171	0x3ac1b32d	0.001477813
172	0x3f150ae3	0.58219737
173	0x3db656b7	0.08903258
174	0x3b3ddca2	0.0028970619
175	0x3ddcd8f8	0.10783571
176	0xbdf920c1	-0.121644504
177	0xbed0e957	-0.40803024
178	0xbe7f9371	-0.24958588
179	0x3e7c2cd3	0.24626474
180	0x3d22aea3	0.039717328
181	0x3a227b9e	0.000619823
182	0xbdc287c9	-0.09498555
183	0x3d0d64ea	0.034520067
184	0x3dcdb40c	0.10044107
185	0x3dd2ba7b	0.102894746
186	0x3e30cdf7	0.1726607
187	0xbe8c7d03	-0.27439126
188	0x3e3341bd	0.17505546
189	0x3ead4b66	0.33846587
190	0xbefb598d	-0.4909176
191	0x3e9e8cfa	0.30966932
192	0xbe233de7	-0.15941583
193	0xbd2dd28b	-0.042437118
194	0x3e852cc0	0.26010704
195	0x3dd0112d	0.10159526
196	0xbeb2a6e1	-0.34892944
197	0x3e783433	0.24238662
198	0xbd8604d1	-0.065438874
199	0x3dbbb780	0.09165859
200	0x3dac7b03	0.084219
201	0xbdc56f98	-0.096404254
202	0xbe324547	-0.1740924
203	0x3df134db	0.117776595
204	0xbde78047	-0.11303764
205	0x3da3a6b0	0.079907775
206	0xbdf99349	-0.121862955
207	0xbd876233	-0.06610527
208	0x3e9a6f9e	0.30163282
209	0x3e35649f	0.17714165
210	0x3d9fbc8c	0.07799634
211	0xbd7197e4	-0.058982745
212	0x3e8d14e9	0.27555016
213	0xbdaf1410	-0.085487485
214	0x3d80023c	0.06250426
215	0xbec52ddf	-0.3851156
216	0x3e394f9d	0.18096776
217	0x3ec908c8	0.39264512
218	0x3da398c5	0.07988123
219	0xbd3c2922	-0.045937665
220	0xbeafc1c4	-0.3432752
221	0xbe2d2717	-0.16909443
222	0xbe93db1b	-0.28878102
223	0xbd77c95d	-0.06049477
224	0xbdb62d2f	-0.08895337
225	0xbe995460	-0.29947186
226	0x3d80e79c	0.06294176
227	0x3ea386f9	0.31938913
228	0xbceeaa45	-0.029133925
229	0x3e5b7e86	0.21434984
230	0xbe53e50b	-0.20692842
231	0x3d3a9d00	0.045559883
232	0xbdc534c5	-0.096292056
233	0xbdca428e	-0.098759755
234	0xbdb44d27	-0.08803778
235	0x3e44361f	0.1916127
236	0xbe3b6fa6	-0.18304309
237	0x3d99b477	0.07505124
238	0xbe16f35c	-0.14741272
239	0x3d1d1d0e	0.038357787
240	0x3e1529b2	0.14566687
241	0x3e914a9e	0.2837724
242	0x3e4606a9	0.19338478
243	0xbd50dd0b	-0.050992053
244	0xbe85d400	-0.26138306
245	0xbeba39b4	-0.3637215
246	0x3e294ed3	0.16533975
247	0x3d01386a	0.03154794
248	0xbedd7964	-0.43256676
249	0x3e87f92a	0.26557285
250	0xbe480326	-0.19532451
251	0xbc95ebeb	-0.018300971
252	0xbdc1a266	-0.09454803
253	0x3e953cfa	0.29148084
254	0xbc99eab1	-0.018788667
255	0x3ec0240c	0.37527502

classifier.0.bias f4 [200]
0	0x3e36bf8d	0.17846508
1	0xbea98145	-0.33106437
2	0x3dd745fd	0.10511396
3	0x3bf58136	0.00749221
4	0x3c2caba2	0.010538967
5	0xbbb215ab	-0.005434712
6	0xbe78fdc7	-0.24315558
7	0x3cf15662	0.029460136
8	0x3e11b838	0.1423043
9	0x3dd94692	0.10609163
10	0x3d0f7b07	0.035029437
11	0x3dac7fec	0.08422837
12	0xbe0dce09	-0.13848127
13	0xbe2b5b21	-0.16733982
14	0xbe268be4	-0.16264302
15	0xbe1b59e6	-0.15171012
16	0x3e6b5b39	0.22984017
17	0xbbf045ff	-0.007332563
18	0xbe4fb6b2	-0.20284536
19	0xbdbd607a	-0.09246917
20	0xbdbf8f6a	-0.09353526
21	0xbdef51ce	-0.11685525
22	0xbd934563	-0.07190969
23	0xbd8723b5	-0.065986075
24	0x3d22a87a	0.039711453
25	0xbe539b6f	-0.20664762
26	0x3e18f4d0	0.14937139
27	0x3e365c21	0.17808582
28	0x3e4ec58e	0.20192549
29	0x3da1f690	0.07908356
30	0xbd7e3981	-0.06206656
31	0x3ee542b4	0.44777453
32	0x3d517269	0.0511345
33	0x3d13682e	0.035988025
34	0x3ec10a08	0.37702966
35	0x3f09dda8	0.53853846
36	0x3da69b1f	0.08135056
37	0xbe057798	-0.13033903
38	0xbca41f71	-0.020034524
39	0xbe0ad040	-0.13556004
40	0x3d80f728	0.06297141
41	0x3e9818dd	0.2970647
42	0x3e0ed1fd	0.13947292
43	0x3e736a57	0.23771034
44	0x3e0eb862	0.13937524
45	0x3e9a0271	0.30079988
46	0x3e5e8ede	0.21734187
47	0x3d78b03c	0.060714945
48	0x3dc6d7ee	0.09709154
49	0x3e7f04af	0.2490413
50	0x3dc0529f	0.09390759
51	0x3e56018b	0.20899026
52	0xbd54049e	-0.051762216
53	0xbcb3ca49	-0.021947043
54	0x3d14da27	0.03634086
55	0xb9bea71e	-0.00036364136
56	0x3e0daa83	0.13834576
57	0x3cdf0466	0.027223777
58	0xbe43de3c	-0.19127744
59	0xbe2dcab1	-0.16971852
60	0x3d5b4b56	0.053538643
61	0xbcefaf8b	-0.02925851
62	0x3e5168a0	0.20450068
63	0xbd9544a2	-0.07288481
64	0x3e9c859a	0.3057068
65	0x3e273946	0.16330442
66	0xbd901dae	-0.07036911
67	0xbe33ae5c	-0.17546982
68	0x3e4d3be6	0.2004238
69	0xbe3306b4	-0.17483026
70	0x3eb88f3a	0.36046773
71	0x3e829013	0.25500545
72	0x3d9bff24	0.076170236
73	0xbdfa3a21	-0.122181185
74	0x3e795092	0.24347141
75	0xbe73fc0d	-0.23826618
76	0xbddda4b0	-0.10822427
77	0xbdab1fe4	-0.08355692
78	0xbe497065	-0.19671781
79	0x3e81d6a8	0.25359082
80	0xbbf750c2	-0.007547469
81	0x3cb00fb1	0.021491857
82	0xbe3d0215	-0.18457825
83	0x3ca78b9a	0.02045231
84	0x3ebdfb3f	0.37105748
85	0x3d8d1e59	0.06890554
86	0x3d259578	0.040425748
87	0xbdd14050	-0.10217345
88	0xbe3653f7	-0.17805468
89	0xbda30d37	-0.07961505
90	0x3bc37483	0.005964817
91	0x3dd0ef24	0.102018625
92	0x3ea9b02c	0.3314222
93	0xbe943cee	-0.28952736
94	0xbbdd7f17	-0.006759535
95	0xbc2224af	-0.009896441
96	0x3da627bd	0.08113048
97	0x3d2ecce7	0.04267588
98	0x3e26716c	0.16254205
99	0xbd0eff6d	-0.03491156
100	0x3e4df42f	0.2011268
101	0xbdb5425e	-0.08850549
102	0xbda168cd	-0.07881317
103	0x3e0e8ac9	0.1392013
104	0x3cd8efc5	0.026481519
105	0x3e1368a8	0.14395392
106	0xbd9529b8	-0.07283348
107	0xbe1b537c	-0.15168566
108	0x3d8b0d82	0.06789686
109	0x3db84158	0.08996838
110	0xbd360eea	-0.044447817
111	0xbdec9302	-0.11551477
112	0xbde44900	-0.11146736
113	0x3e647832	0.22311476
114	0x3d13b5a8	0.036061913
115	0x3d0d871f	0.03455269
116	0xbe2f31a6	-0.17108783
117	0x3d8094f2	0.06278409
118	0xbe0b3f50	-0.1359837
119	0xbeb93d19	-0.36179426
120	0x3e775a95	0.24155648
121	0xbeb6c2c5	-0.35695472
122	0x3e1cc2f1	0.15308739
123	0xbc5265c4	-0.012841646
124	0x3ea808ac	0.32819116
125	0x3bc0f1f6	0.005888219
126	0xbcf364a0	-0.029711068
127	0xbe68c098	-0.22729719
128	0xbea4e0ab	-0.32202658
129	0xbe3dea75	-0.1854647
130	0xbe05f9cf	-0.13083576
131	0x3e2fa3bd	0.17152305
132	0xbdbbb0c7	-0.09164577
133	0x3ebe135e	0.3712415
134	0xbd89e6c3	-0.067334674
135	0xbebb85f5	-0.3662564
136	0xbe8018c8	-0.25018907
137	0xbe7914d3	-0.2432435
138	0xbcd8a825	-0.026447365
139	0xbe175e40	-0.14782047
140	0x3e4191b9	0.18903245
141	0x3da6a44a	0.081368044
142	0x3cccfaa7	0.025021864
143	0x3d4e3f72	0.050353475
144	0x3a4ab71c	0.0007732974
145	0xbe058d61	-0.13042213
146	0xbdf96536	-0.121775076
147	0xbe068aa3	-0.13138823
148	0x3e2f3a00	0.17111969
149	0x3ea27ff7	0.31738254
150	0x3d335792	0.043784685
151	0x3da00799	0.07813949
152	0xbe849aba	-0.25899297
153	0xbe03f4c5	-0.12886341
154	0xbe9717fc	-0.29510486
155	0x3ddbe0f6	0.10736267
156	0x3cb42a7a	0.02199291
157	0xbe273fa8	-0.16332877
158	0x3d9f8157	0.077883415
159	0x3e3ee68d	0.18642636
160	0x3da50c63	0.08059003
161	0xbdd6eeef	-0.10494792
162	0x3c288178	0.010284774
163	0x3e499acd	0.19687958
164	0x3e6b246c	0.22963113
165	0x3eb7efb1	0.35925058
166	0x3c59fbf7	0.013304702
167	0xbe6fbe8f	-0.23412536
168	0xbd01dd1a	-0.031705
169	0xbe911982	-0.28339773
170	0x3e8dfae4	0.27730477
171	0x3e86600c	0.26245153
172	0x3d23c8cf	0.039986428
173	0xbe3085fd	-0.17238612
174	0xbc64d2ee	-0.013966305
175	0x3e14a044	0.14514261
176	0xbc34eec9	-0.011043259
177	0xbe05cee6	-0.13067207
178	0xbd0f8e76	-0.03504797
179	0xbe7426fd	-0.23842998
180	0x3e032620	0.12807512
181	0x3da40232	0.08008231
182	0x3e385d21	0.18004276
183	0x3e31d791	0.17367388
184	0xbded72a1	-0.11594129
185	0xbe764c27	-0.24052487
186	0xbe848e3a	-0.2588976
187	0x3de8cb55	0.113669075
188	0x3df665dc	0.12031147
189	0xbe425383	-0.1897717
190	0x3d372da5	0.044721264
191	0xbd00f5b1	-0.03148431
192	0x3de319aa	0.110888794
193	0xbe5de4b4	-0.21669275
194	0xbe368c52	-0.17826965
195	0x3e8a6d12	0.2703634
196	0xbce350a0	-0.027748406
197	0x3cdb9533	0.026804542
198	0xbea2ed49	-0.3182166
199	0xbe16077f	-0.14651297

classifier.1.weight f4 [200]
0	0x3f77cc26	0.9679588
1	0x3f7a85ff	0.9786071
2	0x3f89deaa	1.0771077
3	0x3f48e9df	0.7848186
4	0x3f8bf465	1.0933958
5	0x3f95a26c	1.1690192
6	0x3f87aa70	1.0598888
7	0x3f329441	0.6975747
8	0x3f806a9c	1.0032535
9	0x3f6fcdbf	0.9367332
10	0x3f58478d	0.8448418
11	0x3f312acb	0.6920592
12	0x3f6c0201	0.9219056
13	0x3f49d7f7	0.7884516
14	0x3f6f2f19	0.9343124
15	0x3f60af25	0.8776725
16	0x3f69685d	0.9117487
17	0x3f5e3c56	0.86810815
18	0x3f7e5262	0.99344456
19	0x3f208a4f	0.6271104
20	0x3f3fd101	0.7492829
21	0x3f52159c	0.82064223
22	0x3f55593e	0.833393
23	0x3f77a03c	0.96728873
24	0x3f5959f9	0.8490291
25	0x3f49b92e	0.78798187
26	0x3f4e0b7f	0.8048629
27	0x3f8d30ad	1.103048
28	0x3f6b3eb3	0.91892546
29	0x3f5577cc	0.8338592
30	0x3f5187e7	0.81847996
31	0x3f69b9c2	0.9129907
32	0x3f51e375	0.81987697
33	0x3f67ab9a	0.9049622
34	0x3f67ab01	0.90495306
35	0x3f2312f7	0.63700813
36	0x3f132954	0.57484937
37	0x3f3cbb44	0.73723245
38	0x3f0c6a57	0.5484976
39	0x3f891535	1.0709597
40	0x3f8a0b72	1.0784743
41	0x3f00fa16	0.503816
42	0x3f658795	0.89660007
43	0x3f7fc6df	0.9991283
44	0x3f211142	0.6291696
45	0x3f791ad5	0.9730657
46	0x3f2f1305	0.68388397
47	0x3f91d7b3	1.1393951
48	0x3f670195	0.9023679
49	0x3f9069a6	1.1282241
50	0x3f5e664a	0.8687483
51	0x3f863812	1.0485861
52	0x3f6f58e6	0.93495023
53	0x3f71544e	0.94269264
54	0x3f8a4965	1.0803648
55	0x3fa5ba2e	1.2947443
56	0x3f53bdfb	0.8271176
57	0x3f71d69b	0.94468087
58	0x3f5d0556	0.86336267
59	0x3f7f6655	0.9976552
60	0x3f5ff232	0.87478936
61	0x3f3f7067	0.7478089
62	0x3f8349c3	1.0256885
63	0x3f80b79c	1.0056033
64	0x3f9a07e8	1.2033663
65	0x3f382469	0.7193056
66	0x3f8b3983	1.0876926
67	0x3f4f8438	0.81061125
68	0x3f7900db	0.9726693
69	0x3f84f067	1.0385865
70	0x3f8cc370	1.0997143
71	0x3f4c1d56	0.79732263
72	0x3f89c663	1.0763668
73	0x3f49ccbc	0.78828025
74	0x3f9c8372	1.2227614
75	0x3f555008	0.83325243
76	0x3f832857	1.0246686
77	0x3f87fdbb	1.0624307
78	0x3f4d244a	0.801335
79	0x3f86accb	1.0521482
80	0x3f6327e3	0.8873274
81	0x3f447c3b	0.7675206
82	0x3f728757	0.9473776
83	0x3f8233ed	1.0172096
84	0x3f6e22af	0.9302167
85	0x3f6c36d8	0.92271185
86	0x3f7b0fe1	0.98071104
87	0x3f872581	1.055832
88	0x3f39a8c3	0.72523135
89	0x3f0f44e0	0.5596447
90	0x3f8889f7	1.0667104
91	0x3f87bb03	1.0603946
92	0x3f59db23	0.851
93	0x3f49bf12	0.78807175
94	0x3f943e46	1.1581504
95	0x3f5e79b4	0.86904454
96	0x3f5418e0	0.82850456
97	0x3f5d0e1c	0.86349654
98	0x3f3c0bc3	0.73455447
99	0x3f6ac0c5	0.9170039
100	0x3f816ea1	1.0111886
101	0x3f76fee8	0.96482706
102	0x3f7b0236	0.9805025
103	0x3f65aec9	0.89719826
104	0x3f843aa8	1.03304
105	0x3f7e89de	0.9942912
106	0x3f710c07	0.9415898
107	0x3f528050	0.8222704
108	0x3f46ab70	0.7760534
109	0x3f661e1a	0.8988968
110	0x3f8266f7	1.0187672
111	0x3f606ee8	0.8766923
112	0x3f97fe53	1.1874489
113	0x3f8e4606	1.111512
114	0x3f812323	1.0088848
115	0x3f2fadca	0.68624556
116	0x3f763f48	0.9619031
117	0x3f5db3b3	0.86602324
118	0x3f847e33	1.0351013
119	0x3f80452c	1.002111
120	0x3f77b66f	0.96762747
121	0x3f7ee966	0.9957489
122	0x3f5e0b45	0.86735946
123	0x3f870c1c	1.055057
124	0x3f728dba	0.9474751
125	0x3f54351d	0.82893544
126	0x3f916c67	1.1361207
127	0x3f61a1b1	0.88137347
128	0x3f991f6e	1.1962717
129	0x3f56edd8	0.8395667
130	0x3f37b585	0.7176135
131	0x3f8c2d3b	1.0951303
132	0x3f92fac6	1.148278
133	0x3f8aa0f4	1.0830369
134	0x3f801456	1.0006206
135	0x3f4bf0fc	0.7966459
136	0x3f570dc8	0.84005404
137	0x3f7d90c0	0.99048996
138	0x3f475eea	0.778792
139	0x3f821942	1.0163958
140	0x3f644a1d	0.8917559
141	0x3f63bf6a	0.8896395
142	0x3f824d4a	1.0179837
143	0x3f5eb974	0.8700173
144	0x3f60a927	0.87758106
145	0x3f688a4a	0.9083601
146	0x3f63160b	0.8870551
147	0x3f80b032	1.005377
148	0x3f4d76e5	0.80259544
149	0x3f706514	0.9390423
150	0x3f80dcb2	1.0067351
151	0x3f7eb502	0.99494946
152	0x3f6df3ad	0.92949945
153	0x3f7783be	0.966854
154	0x3f3def71	0.74193484
155	0x3f42a268	0.7602906
156	0x3f6ff534	0.93733525
157	0x3f618084	0.88086724
158	0x3f81f67a	1.0153344
159	0x3f41ab6d	0.756522
160	0x3f60ece5	0.8786147
161	0x3f8ad431	1.0846006
162	0x3f453aab	0.77042645
163	0x3f82cd31	1.021887
164	0x3f58845a	0.8457695
165	0x3f7db21c	0.990999
166	0x3f378567	0.7168793
167	0x3f6ed677	0.93296
168	0x3f71df00	0.94480896
169	0x3f2e1c0b	0.6801154
170	0x3f7c4dd4	0.98556256
171	0x3f6cfa8e	0.92569816
172	0x3f6fec30	0.9371977
173	0x3f612bb6	0.8795732
174	0x3f589b55	0.8461202
175	0x3f90183b	1.1257395
176	0x3f531eb7	0.8246874
177	0x3f9726ba	1.1808693
178	0x3f7e79f6	0.9940485
179	0x3f8a4ea3	1.0805248
180	0x3f2f6dad	0.68526727
181	0x3f494e55	0.7863515
182	0x3f5a5294	0.85282254
183	0x3f561791	0.8362971
184	0x3f6feca2	0.9372045
185	0x3f659aad	0.8968914
186	0x3f7d2244	0.9888041
187	0x3f6c00f4	0.92188954
188	0x3f86d6cd	1.0534302
189	0x3f829b1c	1.0203586
190	0x3f87a8a6	1.0598342
191	0x3f3dc156	0.7412313
192	0x3f6825ef	0.9068288
193	0x3f8f5088	1.1196451
194	0x3f7ed4b5	0.99543315
195	0x3f68faa4	0.9100745
196	0x3f7f7d23	0.9980032
197	0x3f467ec9	0.7753721
198	0x3f4b8f40	0.7951546
199	0x3f861734	1.0475831

classifier.1.bias f4 [200]
0	0xbf017adb	-0.5057809
1	0xbec3267e	-0.38115305
2	0xbeabbdc2	-0.3354321
3	0xbedecd9f	-0.4351625
4	0xbe9c35db	-0.30509838
5	0xbeaad09e	-0.33362287
6	0xbec3107f	-0.38098523
7	0xbeadba62	-0.3393126
8	0xbeb946f8	-0.36186957
9	0xbea31975	-0.3185536
10	0xbe596f56	-0.21233878
11	0xbe9d42dd	-0.30715075
12	0xbef79c07	-0.48361227
13	0xbedb762b	-0.42863593
14	0xbea5c972	-0.32380253
15	0xbe8dc88a	-0.27692062
16	0xbec8922a	-0.39174014
17	0xbe763b7b	-0.24046127
18	0xbe6ae24b	-0.22937886
19	0xbd85bbae	-0.06529938
20	0xbeaf35fe	-0.3422088
21	0xbe8fd749	-0.28093937
22	0xbdb4cf2c	-0.088285774
23	0xbf117bb4	-0.5682938
24	0xbec75f76	-0.38940018
25	0xbea3e585	-0.32011047
26	0xbe7114e4	-0.23543125
27	0xbe9d77fb	-0.307556
28	0xbe819df6	-0.25315827
29	0xbef1db57	-0.47237656
30	0xbeafd08f	-0.34338805
31	0xbeb90b97	-0.36141655
32	0xbea6905a	-0.32532007
33	0xbe84a8a6	-0.2590992
34	0xbeb16b16	-0.34652013
35	0xbe946277	-0.28981373
36	0xbd84106a	-0.06448443
37	0xbea6733a	-0.32509786
38	0xbd74f82b	-0.059806984
39	0xbed4f97e	-0.41596597
40	0xbea26d88	-0.3172419
41	0xbe94b392	-0.2904325
42	0xbeae593c	-0.34052455
43	0xbeac8d0b	-0.33701357
44	0xbe0fab2d	-0.14030142
45	0xbef1210f	-0.47095534
46	0xbea932b5	-0.330465
47	0xbf13b126	-0.5769218
48	0xbed9eda7	-0.42564127
49	0xbf1914a2	-0.5979711
50	0xbed52caf	-0.41635653
51	0xbe885ba5	-0.2663242
52	0xbeffbbad	-0.49947873
53	0xbed82a5c	-0.42219818
54	0xbeb076e5	-0.3446571
55	0xbf10bea8	-0.5654092
56	0xbea1abe3	-0.31576452
57	0xbe1cd5d7	-0.15315948
58	0xbe2182c7	-0.15772544
59	0xbea77093	-0.32703075
60	0xbe757d2e	-0.23973534
61	0xbea6b040	-0.32556343
62	0xbeddcc40	-0.43319893
63	0xbeb26b49	-0.34847477
64	0xbec796f8	-0.38982368
65	0xbed051ff	-0.40687558
66	0xbea92519	-0.33036116
67	0xbeaec916	-0.3413779
68	0xbeafda45	-0.34346214
69	0xbee84e6d	-0.45372334
70	0xbe75b172	-0.23993471
71	0xbe2ebfe4	-0.17065388
72	0xbec3e862	-0.38263232
73	0xbe755d54	-0.23961383
74	0xbec0658e	-0.3757748
75	0xbe88bc0a	-0.26705962
76	0xbf11597e	-0.5677718
77	0xbe83731e	-0.25673765
78	0xbeac8f97	-0.337033
79	0xbf1ebd22	-0.62007344
80	0xbe9724c8	-0.2952025
81	0xbeaec453	-0.34134158
82	0xbe8c1ce9	-0.27365807
83	0xbedbd27a	-0.42934018
84	0xbf01fc72	-0.50775826
85	0xbe767cb7	-0.24071012
86	0xbecbe8b1	-0.39825967
87	0xbecddfe6	-0.40209883
88	0xbf074989	-0.5284658
89	0xbe8fea52	-0.2810846
90	0xbeb35972	-0.3502918
91	0xbf1856c4	-0.59507394
92	0xbe3aa79f	-0.18228005
93	0xbe90f5ca	-0.28312522
94	0xbeeb5a84	-0.45967495
95	0xbea00f04	-0.31261456
96	0xbe95fd8b	-0.29295
97	0xbee03477	-0.43790027
98	0xbe9a4818	-0.30133128
99	0xbeafcae8	-0.34334493
100	0xbeb4c6e7	-0.35308
101	0xbe97799a	-0.29584962
102	0xbf102fcb	-0.56322926
103	0xbe98a4c1	-0.29813197
104	0xbeac2993	-0.3362547
105	0xbea7acba	-0.32748967
106	0xbeec53b9	-0.46157625
107	0xbeb96a27	-0.362138
108	0xbe049d20	-0.12950563
109	0xbec48731	-0.38384393
110	0xbec86974	-0.39142954
111	0xbea57b0e	-0.32320446
112	0xbe8f7146	-0.28016108
113	0xbe83d041	-0.25744823
114	0xbf1188d5	-0.56849414
115	0xbe0e80ad	-0.13916273
116	0xbeb884d6	-0.36038846
117	0xbe2724b3	-0.16322593
118	0xbe96c31f	-0.2944574
119	0xbeb08c0b	-0.34481844
120	0xbea41ba6	-0.32052344
121	0xbea3c792	-0.31988198
122	0xbeaf933c	-0.34292018
123	0xbec13ab7	-0.37740108
124	0xbea79308	-0.32729363
125	0xbe4ec91c	-0.20193905
126	0xbebb75c3	-0.36613283
127	0xbea77f05	-0.32714096
128	0xbed525f1	-0.4163051
129	0xbe801826	-0.25018424
130	0xbef08044	-0.4697286
131	0xbeedb990	-0.46430635
132	0xbf121ed9	-0.5707832
133	0xbee1027c	-0.43947208
134	0xbe4ec26b	-0.20191352
135	0xbe16ef62	-0.14739755
136	0xbede1fa0	-0.43383503
137	0xbe6df619	-0.2323841
138	0xbeebeb68	-0.46078038
139	0xbf16176c	-0.5862949
140	0xbe908b88	-0.28231454
141	0xbe96627a	-0.29372007
142	0xbe5a478e	-0.21316358
143	0xbe97d1eb	-0.29652342
144	0xbec8c709	-0.39214352
145	0xbea76752	-0.32696015
146	0xbe967c17	-0.29391548
147	0xbe5e967f	-0.21737097
148	0xbf0e2d8b	-0.55538243
149	0xbe574b7d	-0.2102489
150	0xbee905b7	-0.45512173
151	0xbead9307	-0.33901235
152	0xbe8210f8	-0.2540357
153	0xbe56ddad	-0.20983
154	0xbe7851e3	-0.24249987
155	0xbec026a2	-0.37529474
156	0xbed45bb6	-0.4147622
157	0xbea6acda	-0.3255375
158	0xbec296f7	-0.38005802
159	0xbe90416b	-0.2817491
160	0xbe7a9d8e	-0.24474165
161	0xbef934b0	-0.4867301
162	0xbe1f37ae	-0.15548584
163	0xbeda0c0b	-0.42587313
164	0xbe9bc19d	-0.30421153
165	0xbeaa3184	-0.33240902
166	0xbe46cc66	-0.1941391
167	0xbea819f9	-0.32832316
168	0xbf0d84a2	-0.55280507
169	0xbeb371e7	-0.35047838
170	0xbebc6d46	-0.3680212
171	0xbe26ab97	-0.16276394
172	0xbe9fde3e	-0.31224245
173	0xbecbdbe2	-0.39816195
174	0xbed31cbb	-0.41232857
175	0xbeb00a10	-0.34382677
176	0xbe4cd183	-0.20001797
177	0xbed1c5fb	-0.4097136
178	0xbf05c5a9	-0.5225473
179	0xbede28bb	-0.4339045
180	0xbe81fd7b	-0.25388703
181	0xbe92e57f	-0.28690717
182	0xbeac3691	-0.3363538
183	0xbe5c13bb	-0.21491902
184	0xbe836c7d	-0.25668707
185	0xbebc380e	-0.36761516
186	0xbebc2d7f	-0.3675346
187	0xbea6671e	-0.32500547
188	0xbe7d562a	-0.247399
189	0xbe9ad60d	-0.30241433
190	0xbed81dd4	-0.42210257
191	0xbe8537f4	-0.2601925
192	0xbde9fa8c	-0.11424741
193	0xbeb74fd6	-0.35803097
194	0xbecf1522	-0.4044581
195	0xbe79f553	-0.2440999
196	0xbe3c51ad	-0.18390532
197	0xbe8369ce	-0.2566666
198	0xbe7239c2	-0.23654845
199	0xbef9d3b4	-0.4879433

classifier.1.running_mean f4 [200]
0	0x3eb3eb26	0.35140342
1	0xbe73a280	-0.23792458
2	0x3ed382ad	0.41310635
3	0x3d965c77	0.07341855
4	0x3eb5e97a	0.3552969
5	0xbe865269	-0.2623475
6	0xbd48c365	-0.049014468
7	0xbe65f1ea	-0.22455564
8	0x3de0c632	0.10975303
9	0x3c3ff4ee	0.011716111
10	0x3e371815	0.1788028
11	0x3cc7659b	0.024340441
12	0xbe2dc2e1	-0.16968872
13	0xbe71a60e	-0.23598501
14	0x3e571a8d	0.21006222
15	0xbe3bd504	-0.18342978
16	0x3e9e39fa	0.30903608
17	0x3d6f8a05	0.058481235
18	0xbed69558	-0.41910815
19	0xbdc86b35	-0.09786073
20	0xbd03d14a	-0.032182015
21	0xbdd3c90a	-0.103410795
22	0xbd9148a8	-0.07093936
23	0x3cd12d1e	0.025534209
24	0x3b4cc09e	0.0031242738
25	0xbe7e8bd5	-0.24858029
26	0xbe01c569	-0.12672962
27	0xbe7f6150	-0.24939466
28	0x3e1ea07f	0.15490912
29	0x3d3d006f	0.04614299
30	0x3d3619dd	0.04445826
31	0x3f419494	0.7561734
32	0x3e92aed7	0.28649017
33	0x3e90a8c7	0.28253767
34	0x3eca1f21	0.39476874
35	0x3f4558f3	0.7708885
36	0x3e4c3737	0.19942938
37	0x3dd4c81d	0.10389731
38	0xbe64f936	-0.22360691
39	0xbeef56af	-0.46745822
40	0x3d5a7f6c	0.053344175
41	0xbe94c36d	-0.29055348
42	0x3ce3fdc1	0.02783096
43	0x3ec21487	0.37906286
44	0x3dcc85ef	0.09986483
45	0x3eaac4ea	0.33353359
46	0x3e91da87	0.28487036
47	0xbe084ee1	-0.1331134
48	0x3e71dd42	0.2361956
49	0x3e738b7c	0.23783678
50	0xbb704c24	-0.0036666477
51	0x3ed8491e	0.42243284
52	0xbe25d211	-0.16193415
53	0xbe14548e	-0.1448538
54	0x3e800c57	0.25009415
55	0xbdbee5e4	-0.09321192
56	0x3e273354	0.16328174
57	0xbd594ac2	-0.05304981
58	0xbea7b312	-0.32753807
59	0x3dabd615	0.08390442
60	0x3d85333f	0.06503915
61	0xbdf28cae	-0.11843239
62	0x3e7a08bb	0.24417393
63	0xbe8fb413	-0.28067073
64	0x3d1ee63a	0.03879378
65	0x3ed24b4b	0.4107307
66	0xbe28c84b	-0.16482656
67	0xbe8841d9	-0.26612738
68	0x3ed9d41f	0.42544648
69	0x3db1bfc6	0.08679156
70	0x3edd7adc	0.43257797
71	0x3f3698dd	0.71327
72	0xbe20ab5d	-0.1569037
73	0xbd4824d7	-0.04886326
74	0x3df83c83	0.12120917
75	0xbea05e16	-0.31321782
76	0xbea0b2d3	-0.31386432
77	0x3ea04ce3	0.3130866
78	0x3d456898	0.04819545
79	0xbd22c805	-0.039741535
80	0x3e7ae632	0.24501875
81	0xbd02bfc4	-0.031921163
82	0x3de04d5c	0.10952255
83	0xbdf0c5ce	-0.11756478
84	0x3e9463e2	0.28982455
85	0x3e8fffe9	0.2812493
86	0x3e10e99a	0.14151612
87	0x3e3dfae7	0.18552743
88	0xbe56c622	-0.20974019
89	0xbcbc466c	-0.022982799
90	0xbe54a9f4	-0.20767957
91	0x3e4b89f8	0.1987685
92	0x3f0b434e	0.54399574
93	0xbe8d18f5	-0.27558103
94	0x3cf416f1	0.029796096
95	0xbe823740	-0.25432777
96	0x3e68a6f7	0.22719942
97	0xb9ef8d83	-0.00045691067
98	0x3e36d635	0.17855151
99	0x3e0c4edf	0.13701962
100	0x3e8121ae	0.25221008
101	0xbd653757	-0.05596098
102	0xbdd62dc4	-0.10457948
103	0x3ee91104	0.45520794
104	0xbe0f7cc4	-0.14012438
105	0xbde6cc78	-0.11269468
106	0x3eb7e810	0.35919237
107	0xbea2c13c	-0.3178805
108	0x3dbed3c7	0.09317737
109	0x3eb8b89c	0.36078346
110	0xbd01859f	-0.03162157
111	0xbdf9af4c	-0.12191638
112	0x3e6e3401	0.23262025
113	0xbdf1b744	-0.11802533
114	0xba48686d	-0.0007644955
115	0x3f07d0cc	0.53052974
116	0x3a2ef5b6	0.0006674187
117	0x3d1f8357	0.038943615
118	0xbebeeac4	-0.37288487
119	0xbeb3dee0	-0.35130978
120	0x3e2661a9	0.16248192
121	0xbe881f42	-0.26586348
122	0x3e87a25d	0.2649106
123	0x3ee2f02f	0.4432387
124	0x3ecfa26f	0.40553614
125	0x3dbf8469	0.09351427
126	0xbe1b6e71	-0.15178849
127	0x3e1428c0	0.1446867
128	0xbf02878b	-0.5098807
129	0xbe4cbc01	-0.19993593
130	0xbce3da2a	-0.02781399
131	0x3ee10809	0.43951443
132	0x3ca5eb7e	0.020253893
133	0x3eead0c3	0.45862398
134	0xbdb9d7d5	-0.0907437
135	0xbf185f59	-0.5952049
136	0x3dd5a452	0.10431732
137	0xbecb6644	-0.3972646
138	0xbe8bff9c	-0.27343452
139	0x3c0a61e0	0.008446187
140	0x3e4d65bb	0.20058338
141	0x3e5834c9	0.21113886
142	0xbe874241	-0.26417735
143	0x3dc389fd	0.095478036
144	0x3d9f4b77	0.07778066
145	0xbe385cad	-0.18004103
146	0xbeab46fa	-0.33452588
147	0x3e3b643a	0.18299952
148	0x3e4ade1f	0.19811295
149	0x3f2e96db	0.6819894
150	0xbd67c2f2	-0.0565824
151	0x3e8e2158	0.27759814
152	0xbefb1755	-0.49041238
153	0x3d7b9121	0.061417703
154	0xbec12ba8	-0.3772862
155	0xbc962034	-0.018325903
156	0xbe8ad6cd	-0.27117005
157	0x3d2b600c	0.041839644
158	0x3eb7c858	0.35895038
159	0x3f003333	0.50078124
160	0xbdcb6013	-0.09930434
161	0xbe82c4c1	-0.25540736
162	0xbb884741	-0.0041588848
163	0x3ee09987	0.43867132
164	0xbd8594e0	-0.06522536
165	0x3e49bfa6	0.19702014
166	0xbe9bad41	-0.3040562
167	0xbd319ee4	-0.04336442
168	0x3e4853d6	0.19563231
169	0xbf0c1350	-0.5471697
170	0x3e73a8e6	0.23794898
171	0x3e8f2841	0.279604
172	0x3f1fb994	0.62392545
173	0x3c99e464	0.018785663
174	0xbea75176	-0.32679337
175	0xbd8174db	-0.063211165
176	0xbea15efb	-0.31517777
177	0xbe09ef16	-0.1347011
178	0xbd9d489e	-0.07679866
179	0xbeb44545	-0.35209098
180	0xbd786f3a	-0.06065295
181	0x3d0aec40	0.03391671
182	0x3e6ba4f9	0.23012151
183	0x3e75e85f	0.24014424
184	0xbbf1cc7f	-0.007379114
185	0xbe42dfcf	-0.19030689
186	0x3d19ff0b	0.037596744
187	0xbd117151	-0.035508458
188	0x3f0d1778	0.55113935
189	0xbe02d638	-0.1277703
190	0x3e2eb2f5	0.17060454
191	0x3e060dd6	0.13091215
192	0x3ddd139d	0.107947566
193	0xbe5c50b7	-0.21515165
194	0xbe6c17c2	-0.23055938
195	0x3e5718bd	0.2100553
196	0xbe9af5e2	-0.3026572
197	0x3edb2138	0.4279878
198	0xbed41d9a	-0.41428834
199	0x3e713229	0.23554291

classifier.1.running_var f4 [200]
0	0x3b5c6263	0.003362798
1	0x3c08f026	0.008358037
2	0x3bf8a837	0.007588412
3	0x3b67f7d9	0.0035395531
4	0x3b2709c0	0.002548799
5	0x3b1e257e	0.0024131234
6	0x3ac186e4	0.0014764932
7	0x3bd6d6bb	0.0065563596
8	0x3b1a1b47	0.0023514794
9	0x3b9809ce	0.0046398407
10	0x3c44cf0a	0.012012253
11	0x3c167bbb	0.009184773
12	0x3b92309e	0.004461362
13	0x3bf26d9b	0.00739832
14	0x3b92503b	0.0044651306
15	0x3b105c3b	0.002202763
16	0x3b3634b5	0.0027802412
17	0x3b4ee3aa	0.0031568804
18	0x3ba2777e	0.0049580922
19	0x3c267628	0.010160007
20	0x3bb9d561	0.0056711887
21	0x3c428a6d	0.011873824
22	0x3b1b8af8	0.0023733955
23	0x3b56a5eb	0.0032752703
24	0x3b28dedb	0.0025767598
25	0x3afc4e9e	0.0019249504
26	0x3bb28008	0.0054473914
27	0x3b5de221	0.0033856707
28	0x3baa673b	0.0052002943
29	0x3a96eb5e	0.0011514237
30	0x3bbcc594	0.005760858
31	0x3b8549eb	0.0040676496
32	0x3c3c40a1	0.011490018
33	0x3b6f11a7	0.0036479027
34	0x3ba6daba	0.005091992
35	0x3b700f3d	0.0036630176
36	0x3b8712e4	0.004122125
37	0x3b3a38b0	0.0028415136
38	0x3c70a2b7	0.014687232
39	0x3c15e625	0.009149109
40	0x3b1e9d66	0.0024202703
41	0x3d0f3948	0.034966737
42	0x3a803816	0.000978234
43	0x3b8cff86	0.0043029217
44	0x3c3e7e1c	0.0116267465
45	0x3b3aa1e4	0.0028477842
46	0x3bbf69c4	0.0058414657
47	0x3ae8e023	0.0017766993
48	0x3b992f51	0.00467483
49	0x3b1eb11a	0.0024214447
50	0x3bfac4bc	0.007652847
51	0x3b63f8f8	0.0034785848
52	0x3b2c61b4	0.0026303353
53	0x3c1fb235	0.009747078
54	0x3bdf5a8b	0.0068162135
55	0x3b55a320	0.003259845
56	0x3bbd1c6f	0.005771212
57	0x3af0e737	0.0018379454
58	0x3b8fa74d	0.0043839575
59	0x3bb2017c	0.005432306
60	0x3b4a1395	0.0030834426
61	0x3b9098fc	0.0044127684
62	0x3ac517c2	0.0015036988
63	0x3b3a8ce9	0.0028465337
64	0x3c846e32	0.016165826
65	0x3bf92f38	0.007604506
66	0x3be8c57c	0.00710362
67	0x3b4c840f	0.0031206643
68	0x3b6a85b0	0.003578525
69	0x3bbbcdf3	0.005731338
70	0x3ada7b0c	0.0016668751
71	0x3c1d1cf0	0.009589419
72	0x3ac0f728	0.0014722096
73	0x3bbb946e	0.0057244813
74	0x3b57b0bf	0.0032911745
75	0x3b39f30c	0.0028373627
76	0x3b95dc8a	0.0045734094
77	0x3a9d4c12	0.001200082
78	0x3bb32307	0.005466822
79	0x3b84eed2	0.00405679
80	0x3b24a55d	0.0025122978
81	0x3ba78161	0.0051118587
82	0x3b605b0c	0.0034233956
83	0x3b98c02e	0.0046615815
84	0x3b39e736	0.0028366572
85	0x3c0aa66e	0.0084625315
86	0x3b34dc56	0.002759715
87	0x3c23ce7d	0.009997961
88	0x3b64e9da	0.0034929425
89	0x3bb5ed22	0.00555195
90	0x3c2318a4	0.009954605
91	0x3b49d118	0.0030794796
92	0x3bb3ab88	0.0054830946
93	0x3bb0bd4b	0.005393659
94	0x3b8dabef	0.0043234746
95	0x3b6e9c98	0.0036409255
96	0x3c44f1d7	0.01202055
97	0x3b98c540	0.004662186
98	0x3b5bf9e4	0.0033565694
99	0x3b1e4f5d	0.002415619
100	0x3b92dce2	0.0044818977
101	0x3c94120f	0.018075017
102	0x3b86e660	0.0041168183
103	0x3b37ee79	0.0028065725
104	0x3b9ac0e2	0.0047227005
105	0x3c4a9678	0.012364976
106	0x3b7c6195	0.0038510312
107	0x3bb07d29	0.005386014
108	0x3bfbae76	0.0076807095
109	0x3b8b1fd3	0.004245737
110	0x3aff576d	0.0019481011
111	0x3bb4d659	0.0055187163
112	0x3a583dae	0.0008248937
113	0x3c81088a	0.015751142
114	0x3b5e7923	0.0033946715
115	0x3c79abf0	0.015238747
116	0x3aff28f9	0.0019467167
117	0x3cb6b764	0.022304244
118	0x3b35cee5	0.0027741727
119	0x3addc84f	0.0016920659
120	0x3b6212a2	0.003449597
121	0x3c19dea0	0.009391457
122	0x3ba5e48d	0.0050626458
123	0x3b371de0	0.002794139
124	0x3c20bea1	0.0098110745
125	0x3c01c774	0.0079210885
126	0x3b08cf0f	0.002087537
127	0x3badb967	0.0053016427
128	0x3c1e14d9	0.009648525
129	0x3b3d7116	0.0028906516
130	0x3be67fc4	0.007034274
131	0x3b54d5e4	0.0032476122
132	0x3ad086ec	0.001590935
133	0x3adb63ab	0.0016738077
134	0x3b865967	0.004100013
135	0x3b87b27a	0.004141149
136	0x3b590852	0.0033116532
137	0x3b545448	0.0032398868
138	0x3b1b9b63	0.002374374
139	0x3b3d406c	0.002887751
140	0x3bab2b12	0.0052236402
141	0x3bd2d6ee	0.006434313
142	0x3bd5f10e	0.00652898
143	0x3b7519ed	0.0037399486
144	0x3b47e411	0.0030500928
145	0x3ba5614e	0.005047
146	0x3b4c744a	0.0031197243
147	0x3b5153cd	0.0031940818
148	0x3b360245	0.002777235
149	0x3b1bec05	0.0023791802
150	0x3b1ec70e	0.0024227533
151	0x3bf6b6df	0.007529124
152	0x3bb5a113	0.005542883
153	0x3bb04709	0.005379562
154	0x3b90dfd3	0.004421213
155	0x3bb443ba	0.0055012377
156	0x3bd8315f	0.0065976824
157	0x3c99fcd8	0.018797323
158	0x3b55bf6d	0.003261532
159	0x3c1444be	0.009049593
160	0x3c490d44	0.012271229
161	0x3b8d5063	0.0043125614
162	0x3b8e385d	0.004340215
163	0x3c12ce44	0.00896031
164	0x3ca123c6	0.019670378
165	0x3b901091	0.004396506
166	0x3c556c52	0.013026314
167	0x3c3f50fa	0.011677021
168	0x3c23bdb6	0.009993961
169	0x3be4db1d	0.006984128
170	0x3c35bddf	0.011092632
171	0x3b2c9a48	0.0026337076
172	0x3cb776e6	0.022395562
173	0x3b12da8e	0.00224081
174	0x3bf9eff9	0.007627484
175	0x3c3dbe82	0.011581065
176	0x3bbd12ac	0.005770048
177	0x3bebea17	0.0071995365
178	0x3ba2cec6	0.004968497
179	0x3afaf2cc	0.0019145845
180	0x3c7af0ed	0.01531623
181	0x3b526c2a	0.0032107928
182	0x3bf6c392	0.007530638
183	0x3b5bd6d8	0.0033544805
184	0x3b47f55a	0.003051123
185	0x3c0dcebe	0.008655248
186	0x3a539744	0.00080715516
187	0x3b9b2621	0.00473477
188	0x3b0fd273	0.0021945506
189	0x3bf42512	0.007450708
190	0x3ba83675	0.005133445
191	0x3ba98e2e	0.00517442
192	0x3c62a498	0.0138331875
193	0x3b4bcb8c	0.0031096665
194	0x3c0a83b0	0.008454248
195	0x3c02f791	0.007993595
196	0x3b0c2a7e	0.0021387632
197	0x3b39dace	0.0028359178
198	0x3bd47be2	0.0064844945
199	0x3af1e53e	0.001845516

classifier.4.weight f4 [200, 200]
0	0x3e442aa0	0.19156885
1	0x3e0747b2	0.13210943
2	0xbe21faed	-0.15818377
3	0xbcf49c9f	-0.029859839
4	0x3e468513	0.19386701
5	0x3cc3f17d	0.023918862
6	0xbcb7717b	-0.022392979
7	0xbdc70291	-0.097172864
8	0x3d8f8486	0.07007699
9	0x3d8c3824	0.068466455
10	0x3d810e83	0.06301596
11	0xbd91c110	-0.07116902
12	0xbedb7c3b	-0.42868218
13	0xbd320b32	-0.043467708
14	0xbdca9c36	-0.09893076
15	0xbcac891f	-0.021061478
16	0x3e683b52	0.22678879
17	0xbc99895b	-0.018742254
18	0xbd45a42e	-0.048252277
19	0xbcf99f4e	-0.03047147
20	0xbcae8d87	-0.02130772
21	0xbb4379e6	-0.0029827296
22	0xbe0935c8	-0.13399422
23	0x3c1bcd6c	0.009509426
24	0xbd264e6b	-0.04060213
25	0xbe84b29e	-0.25917524
26	0xbde4a001	-0.11163331
27	0xbdccb0a1	-0.09994627
28	0xbdf73323	-0.120703004
29	0xbdc23d47	-0.09484344
30	0xbdd57c7b	-0.104241334
31	0xbd46498e	-0.04840999
32	0x3d5bc868	0.05365792
33	0xbdab95ee	-0.08378206
34	0xbc81a8bb	-0.015827527
35	0xbbc45ea4	-0.0059927274
36	0x3c922dd5	0.01784412
37	0xbc9f676d	-0.019458497
38	0xbd0062e4	-0.03134431
39	0x3db97935	0.090563215
40	0x3e5c1667	0.21492921
41	0x3d5602cb	0.052248757
42	0x3d426fbb	0.047469836
43	0x3e33c46b	0.17555396
44	0xbdc01b75	-0.09380237
45	0xbd81c253	-0.063358925
46	0xbd63e086	-0.055634044
47	0xbcb43e5e	-0.022002395
48	0xbd834e0b	-0.0641137
49	0x3e7585c1	0.23976804
50	0xbe3e94f2	-0.18611506
51	0x3e9f0b1e	0.3106317
52	0xbe26b159	-0.1627859
53	0xbd692b8a	-0.056926288
54	0xbe2dc85a	-0.1697096
55	0xbecc034d	-0.39846268
56	0xbdbc6e52	-0.092007294
57	0x3c22b5f6	0.009931078
58	0x3d9e1627	0.07719069
59	0xbd43636a	-0.04770223
60	0x3d50646a	0.050877012
61	0xbec055f6	-0.37565583
62	0x3e12d165	0.1433769
63	0x3d5381fe	0.051637642
64	0xbdb7ad64	-0.089686185
65	0x3e846b72	0.25863224
66	0xbe4d2cd8	-0.20036638
67	0x3d142594	0.03616865
68	0xbda5a34b	-0.08087786
69	0x3df4747e	0.119362816
70	0xbe855dc3	-0.26048097
71	0x3c60ad6f	0.013713225
72	0xbd874ea9	-0.066068
73	0x3d31af13	0.043379854
74	0xbd338523	-0.04382814
75	0x3caca517	0.021074815
76	0xbe8504ee	-0.25980324
77	0x3d97246b	0.07379993
78	0xbd3010ca	-0.04298476
79	0x3d4e51fc	0.050371155
80	0xbd5869cf	-0.052835282
81	0x3cf2b555	0.029627481
82	0x3e4453c4	0.19172579
83	0xbe690a22	-0.22757772
84	0x3e57c59c	0.21071476
85	0xbe854ae4	-0.260337
86	0x3ccba0a9	0.024856882
87	0xbda4a3db	-0.080390655
88	0xbe2942a3	-0.16529326
89	0xbda958f3	-0.08268919
90	0x3d8aef10	0.06783879
91	0xbe5c11a4	-0.21491104
92	0xbd2a4407	-0.041568782
93	0x3d70d38b	0.058795493
94	0xbdda26a4	-0.10651901
95	0x3d6a79ef	0.05724519
96	0x3dcd7556	0.10032146
97	0xbee7e293	-0.4529005
98	0x3d476d71	0.048688356
99	0xbe91019d	-0.28321543
100	0xbd2821f8	-0.04104802
101	0xbe0dcff7	-0.13848864
102	0x3d9238bb	0.07139727
103	0xbbf725ac	-0.0075423326
104	0x3add80bf	0.0016899331
105	0xbe27bedd	-0.16381402
106	0x3ea9feef	0.3320231
107	0xbd62146b	-0.055195253
108	0xbe6cb286	-0.23114976
109	0xbccec051	-0.025238188
110	0x3e3f621e	0.18689772
111	0x3d9ff6e3	0.07810762
112	0x3dd42b96	0.10359876
113	0xbcb4e8e2	-0.022083703
114	0xbe437195	-0.19086297
115	0x3bcff5b9	0.006346431
116	0xbd0d350f	-0.03447443
117	0xbdb99fd4	-0.09063688
118	0xbd173fd6	-0.036926113
119	0xbdb3ee83	-0.08785727
120	0xbeb2ac2c	-0.34896982
121	0x3e15a366	0.14613113
122	0x3d7740d3	0.060364556
123	0x3cac7c69	0.021055417
124	0xbe9cc697	-0.30620262
125	0x3e4fa8b1	0.20279194
126	0x3c10734d	0.008816552
127	0x3dd632b7	0.10458892
128	0x3d94cece	0.07266007
129	0x3c719d8d	0.014747036
130	0x3da2d34b	0.07950457
131	0x3df30565	0.11866263
132	0x3eec5b41	0.4616337
133	0x3b6b5c51	0.003591318
134	0x3d122ecf	0.03568917
135	0xbce0fab3	-0.027463293
136	0x3e333395	0.17500146
137	0xbda2ac9a	-0.079430774
138	0xbe8b63b4	-0.27224505
139	0x36b2f000	5.332753e-06
140	0x3e050a3b	0.12992184
141	0xbe0b91a1	-0.13629772
142	0x3d79c9ee	0.06098359
143	0x3c97276a	0.018451411
144	0x3d954993	0.07289424
145	0xbe4769c8	-0.19473946
146	0x3d5b58a7	0.053551342
147	0x3e44a07c	0.19201845
148	0xbdcc44c8	-0.099740565
149	0x3cf65b31	0.03007278
150	0xbe5d6528	-0.2162062
151	0x3e89bcd8	0.2690189
152	0xbd56bd4c	-0.05242662
153	0xbd653252	-0.055956192
154	0x3d12ea14	0.035867766
155	0x3d2e028d	0.0424829
156	0x3d8cb962	0.068712965
157	0xbc46078f	-0.012086763
158	0xbda8870c	-0.08228883
159	0x3d245665	0.040121455
160	0xbe0279a8	-0.1274172
161	0xbdac65d1	-0.084178574
162	0xbcd72a17	-0.026265187
163	0xbe2ae295	-0.16687997
164	0x3e33c831	0.17556836
165	0xbdc70911	-0.09718526
166	0xbb50acec	-0.003184135
167	0xbd38c886	-0.04511311
168	0xbe3f176a	-0.18661276
169	0x3b9912bc	0.0046714228
170	0x3d99f290	0.07516968
171	0xbe991d99	-0.29905394
172	0x3e1d1460	0.15339804
173	0x3c7efb31	0.015562818
174	0xbce152f3	-0.027505374
175	0x3e70210b	0.23450105
176	0x3de29cfc	0.11065099
177	0x3e261595	0.1621917
178	0x3d01da68	0.03170243
179	0xbd8d6375	-0.069037355
180	0x3d131fa8	0.03591886
181	0xbd554b6a	-0.052073874
182	0xbe0851e2	-0.13312486
183	0xbd1945c1	-0.037420038
184	0xbd26f414	-0.040760115
185	0x3e131750	0.14364362
186	0x3c7a322f	0.015270754
187	0xbeb904d9	-0.3613651
188	0x3e9cf31d	0.3065423
189	0x3dd31ed5	0.10308615
190	0xbdd09123	-0.10183933
191	0x3e045ebe	0.12926766
192	0xbb0455b7	-0.0020192692
193	0xbde41a28	-0.111378014
194	0xba50895b	-0.0007955038
195	0x3cd1ee8d	0.025626445
196	0xbe84d5d9	-0.25944403
197	0x3dd35668	0.10319215
198	0xbdc0b502	-0.094095245
199	0x3e3e55c6	0.18587407
200	0x3e3cb959	0.1843008
201	0x3d743ff7	0.059631314
202	0x3df86155	0.121279396
203	0xbbcc8434	-0.006241346
204	0xbdc4254f	-0.095774285
205	0xbd7233f3	-0.059131574
206	0x3c0100bd	0.007873711
207	0xbeaf8eaf	-0.34288546
208	0x3e476c00	0.19474792
209	0x3e034606	0.1281968
210	0xbce39e7e	-0.027785536
211	0xbe011e1a	-0.12609139
212	0xbdc12024	-0.094299585
213	0xbd9715e1	-0.0737722
214	0xbd200764	-0.03906955
215	0xbdccb32a	-0.0999511
216	0xbe0d704c	-0.13812369
217	0x3e075ec9	0.13219751
218	0xbd96e905	-0.07368664
219	0xbe07f136	-0.13275608
220	0xbe2f6131	-0.1712692
221	0xbdeaf9a4	-0.114733964
222	0xbdf702b8	-0.120610654
223	0xbc829079	-0.01593803
224	0x3e483b9f	0.19553994
225	0x3d2e11d5	0.042497475
226	0xbe30054b	-0.17189519
227	0x3e1075ea	0.1410748
228	0x3dca531b	0.09879132
229	0xbf200081	-0.6250077
230	0xbdd1c20d	-0.102420904
231	0x3c1d35a7	0.009595311
232	0xbdda5693	-0.10661044
233	0x3dc1e09f	0.09466671
234	0xbd80d214	-0.06290069
235	0x3dc66616	0.0968744
236	0x3bc6c1cd	0.0060655833
237	0x3d20a66f	0.039221223
238	0xbdfa9a56	-0.122364685
239	0xbedd9760	-0.43279552
240	0xbe4839b0	-0.19553256
241	0xbe2103bc	-0.15724081
242	0x3e0040b0	0.12524676
243	0xbd14190b	-0.036156695
244	0xbcf77d85	-0.03021122
245	0x3daadc08	0.08342749
246	0xbdb72b8e	-0.08943854
247	0x3d074d4c	0.0330327
248	0x3ce70460	0.028200328
249	0xbddf2976	-0.1089658
250	0xbdc75ebb	-0.09734865
251	0xbdff0eeb	-0.12454017
252	0x3d920009	0.07128913
253	0xbe1354b1	-0.14387776
254	0x3c52ba74	0.012861837
255	0x3e0b2232	0.13587263

classifier.4.bias f4 [200]
0	0x3dd2519b	0.10269471
1	0x3d3f0b13	0.04664142
2	0x3b02c4f9	0.001995383
3	0x3d45b934	0.048272327
4	0xbcebee27	-0.028800083
5	0xbd88894a	-0.06666811
6	0xbc613368	-0.013745166
7	0xbd9b411e	-0.075807795
8	0x3d3472bf	0.044054743
9	0xbdab443c	-0.08362624
10	0xbd1fab3c	-0.03898166
11	0x3c95e7d6	0.018299025
12	0xbdc0f046	-0.094208285
13	0x3b1d6ef5	0.0024022434
14	0xbd53d68c	-0.05171828
15	0xbd690f0f	-0.056899127
16	0x3b9a99b0	0.004718028
17	0xbcc6e1d2	-0.024277601
18	0x3d2f5195	0.042802412
19	0x3d13a736	0.036048137
20	0x3d769121	0.060197
21	0xbdc8a4e2	-0.09797074
22	0x3ca1d652	0.019755516
23	0x3da0e6df	0.07856535
24	0xbcfb1ea2	-0.030654255
25	0x3bbdc086	0.005790773
26	0x3deedd35	0.11663286
27	0xbd21684b	-0.039406102
28	0xbcee59ec	-0.029095612
29	0x3d72bd73	0.059262704
30	0xbc56dc51	-0.013114051
31	0xbd207537	-0.039174285
32	0x3b5383b8	0.0032274555
33	0xbd0e0fe7	-0.034683134
34	0x3caab53b	0.02083837
35	0x3ccbe8a1	0.0248912
36	0xbd680b53	-0.056651425
37	0xbba4674b	-0.0050171963
38	0xbcb8258a	-0.022478838
39	0xbd980f48	-0.0742479
40	0x3d78812e	0.06067007
41	0x3cbb68df	0.022877155
42	0xbdb7e971	-0.08980072
43	0xbd53d6c8	-0.051718503
44	0x3b82d939	0.00399318
45	0x3d0e2e47	0.034712102
46	0xbce03ae1	-0.027371826
47	0xbc883a31	-0.01662931
48	0xbd908f31	-0.070585616
49	0x3cfc6ef5	0.030814627
50	0xbd7c8f19	-0.061659906
51	0xbcd174fd	-0.02556848
52	0x3cb20b02	0.021733765
53	0xbc9cfad4	-0.019162573
54	0x3d21aac0	0.03946948
55	0x3c52c311	0.01286389
56	0x3d8c9e6f	0.06866156
57	0xbd806487	-0.06269174
58	0xbd1f7002	-0.03892518
59	0xbd68a850	-0.05680114
60	0xbd66bfb8	-0.05633518
61	0x3b1d6bac	0.0024020476
62	0x3d8e6201	0.069522865
63	0x3d394fe2	0.045242198
64	0x3cb759ec	0.022381745
65	0xbd07a408	-0.033115417
66	0x3ca52b60	0.020162284
67	0xbb987784	-0.0046529192
68	0x3d6b3d9c	0.057431802
69	0xbdbf8a70	-0.09352577
70	0xbd6c51b4	-0.057695106
71	0xbd4e4642	-0.05035997
72	0xbd809f05	-0.062803306
73	0xbd176c60	-0.03696859
74	0x3d1447b5	0.036201198
75	0xbcd98b08	-0.026555553
76	0xbd8f0059	-0.06982488
77	0xbbee2594	-0.0072676633
78	0xb9ee4488	-0.00045445957
79	0x3d6d8b7d	0.057994355
80	0xbd532e55	-0.051557858
81	0xbd768798	-0.060187906
82	0xba224d7a	-0.00061913545
83	0x3d12a66e	0.03580325
84	0xbd45bf4f	-0.04827815
85	0x3cce19ad	0.025158728
86	0x3d821767	0.0635212
87	0xbb9560bf	-0.004558652
88	0x3d124d0b	0.035718005
89	0x3da2ffe9	0.07958967
90	0x3c477b2a	0.012175361
91	0x3c0b3cf2	0.008498417
92	0xbce415a6	-0.027842354
93	0x3d643270	0.055712163
94	0x3cd56a66	0.026051711
95	0x3d7438e8	0.059624583
96	0xbceb0098	-0.028686807
97	0x3cb1fa6f	0.021725861
98	0xbc74d22c	-0.014942687
99	0x3d7b82f4	0.061404184
100	0xbdd5baf2	-0.104360476
101	0xbe35d529	-0.17757095
102	0xbc256a47	-0.010096139
103	0xbd82f823	-0.063949846
104	0x3cc307e4	0.023807473
105	0xbbebf741	-0.007201106
106	0x3c86615e	0.01640385
107	0x3aff0c7a	0.0019458674
108	0xbca58038	-0.020202741
109	0x3c2c4f56	0.010516962
110	0x3c2f3c96	0.010695597
111	0xbc95d76f	-0.018291203
112	0x3c9c4414	0.01907543
113	0xbd388c43	-0.04505564
114	0xbbe83bd4	-0.00708721
115	0x3d7d8d98	0.061902612
116	0xbd23002d	-0.03979509
117	0x3d1328b9	0.035927508
118	0x3bbe84de	0.005814179
119	0x3d7b816b	0.06140272
120	0x3ca298ed	0.019848311
121	0x3d0ba5bd	0.034093607
122	0x3dca3ec6	0.09875254
123	0x3cf53500	0.029932499
124	0xbd9f94d8	-0.077920616
125	0x3d954b88	0.07289797
126	0xbd252e83	-0.04032756
127	0xbd0af419	-0.033924196
128	0xbcfd0c62	-0.030889694
129	0xbb720117	-0.003692692
130	0xbbd3a711	-0.006459125
131	0xbccffd1f	-0.025389252
132	0xbd971c1e	-0.0737841
133	0x3d6ed2e2	0.058306582
134	0xbc4e6a83	-0.012598637
135	0x3c3a177c	0.011358138
136	0x3cc1779b	0.023616603
137	0x3d6b2db3	0.05741663
138	0x3d145700	0.036215782
139	0xbba4f1f9	-0.005033728
140	0xbd300cea	-0.042981066
141	0x3d7d1903	0.06179143
142	0xbaa519fe	-0.0012596247
143	0xbbc75e9b	-0.006084276
144	0xbcf90795	-0.030399123
145	0xbda2751b	-0.07932492
146	0xbcdd405e	-0.027008232
147	0xbcec1390	-0.028817922
148	0x3d6236d2	0.055228062
149	0x3ce713ac	0.028207622
150	0xba50ddb0	-0.00079676043
151	0xbc20d172	-0.009815561
152	0xbcdc464d	-0.02688899
153	0x3d3909f0	0.045175493
154	0xbcc0da4d	-0.023541594
155	0x3d84d856	0.06486575
156	0x3c4fdc4f	0.012686803
157	0x3d29d622	0.04146398
158	0xb9e79a2f	-0.0004417463
159	0x3d870ab1	0.06593836
160	0xbd4e45b9	-0.05035946
161	0xbcd69d55	-0.026198069
162	0x3e003f09	0.12524046
163	0x3dce67da	0.10078402
164	0xbd02e946	-0.031960748
165	0xbcfb4dc0	-0.030676723
166	0xbd743508	-0.059620887
167	0xbd4bade5	-0.049726386
168	0xbd04d738	-0.03243181
169	0xbd34f401	-0.044178013
170	0x3d9811f3	0.074252985
171	0xbcadad65	-0.021200845
172	0xbd0acd08	-0.03388694
173	0x3d05d1d6	0.03267082
174	0xbd8fd5e4	-0.07023218
175	0x3cfb75b7	0.03069578
176	0x3cc3d337	0.023904426
177	0xbd2658e7	-0.040612128
178	0xbc645e33	-0.0139384745
179	0x3d350a16	0.04419907
180	0xbd476eae	-0.048689537
181	0xbd118011	-0.035522524
182	0x3d766b9f	0.06016123
183	0xbda6d677	-0.08146375
184	0x3dc6e8b6	0.09712355
185	0xbc74cb16	-0.014940998
186	0xbd97d861	-0.07414318
187	0x3d5034e6	0.050831698
188	0x3c593b7a	0.013258809
189	0xbc3dbdcf	-0.011580898
190	0x3cda2123	0.026627129
191	0xbd52cc90	-0.051464617
192	0x3d04a145	0.03238036
193	0x3d81b4b9	0.06333298
194	0xbd1044be	-0.035221808
195	0xbad67e52	-0.0016364551
196	0x3d979623	0.07401683
197	0x3aab7bd7	0.0013083172
198	0x3c1fa6b3	0.009744334
199	0xbdc158a1	-0.09440733

classifier.5.weight f4 [200]
0	0x3f7d8b5e	0.9904078
1	0x3f6d2883	0.9263994
2	0x3f6fd10d	0.9367836
3	0x3f7acda1	0.97970015
4	0x3f8a1af0	1.0789471
5	0x3f5f0af1	0.8712607
6	0x3f840155	1.0312907
7	0x3f7b53eb	0.98174924
8	0x3f8250a2	1.0180857
9	0x3f8cefaa	1.101064
10	0x3f89a4ee	1.0753458
11	0x3f560c7e	0.8361281
12	0x3f8918e5	1.0710722
13	0x3f862c7c	1.0482326
14	0x3f676300	0.90385437
15	0x3f51dbed	0.81976205
16	0x3f79c922	0.9757253
17	0x3f7d0522	0.9883596
18	0x3f4e3bc5	0.8055995
19	0x3f6003fe	0.8750609
20	0x3f84d7a2	1.0378306
21	0x3f758c77	0.9591746
22	0x3f442aeb	0.7662799
23	0x3f5da56b	0.8658053
24	0x3f6c6eaf	0.9235639
25	0x3f5e3113	0.8679363
26	0x3f5343c8	0.825253
27	0x3f640f5b	0.8908593
28	0x3f68e3b6	0.9097246
29	0x3f7793d6	0.96709955
30	0x3f7d5990	0.98964787
31	0x3f46f721	0.7772084
32	0x3f30da25	0.6908286
33	0x3f5a8040	0.85351944
34	0x3f3a38a6	0.7274269
35	0x3f3a0859	0.7266899
36	0x3f6c45ce	0.92294014
37	0x3f7e978f	0.9945001
38	0x3f4a0bd6	0.7892431
39	0x3f70f459	0.94122845
40	0x3f49dc66	0.78851926
41	0x3f57f6ee	0.8436116
42	0x3f82a294	1.0205865
43	0x3f5eb054	0.86987805
44	0x3f72682a	0.9469019
45	0x3f619321	0.88115126
46	0x3f864ac4	1.0491567
47	0x3fa0870c	1.2541213
48	0x3f504f41	0.8137093
49	0x3f8c0994	1.0940423
50	0x3f70cefe	0.94065845
51	0x3f68c590	0.90926456
52	0x3f4681be	0.7754172
53	0x3f7b380e	0.9813241
54	0x3f6fbfb1	0.9365187
55	0x3f5f0e4f	0.8713121
56	0x3f8111b0	1.0083523
57	0x3f5fd8d7	0.87440246
58	0x3f52c42b	0.8233058
59	0x3f6da83d	0.92834836
60	0x3f754e4f	0.95822614
61	0x3f508b80	0.8146286
62	0x3f81b911	1.0134603
63	0x3f5627d1	0.83654505
64	0x3f4623ef	0.7739858
65	0x3f58eabf	0.84733194
66	0x3f790f61	0.9728909
67	0x3f6dbd8d	0.92867357
68	0x3f766d10	0.96260166
69	0x3f5da61d	0.86581594
70	0x3f42d666	0.76108396
71	0x3f681ceb	0.90669125
72	0x3f69014e	0.91017616
73	0x3f45562b	0.77084607
74	0x3f91a52f	1.1378535
75	0x3f78e6c2	0.9722711
76	0x3f7e80a9	0.9941507
77	0x3f579e26	0.8422569
78	0x3f6d4594	0.9268429
79	0x3f795300	0.9739227
80	0x3f48ee65	0.7848876
81	0x3f470866	0.7774719
82	0x3f5f91e4	0.87331986
83	0x3f9137f9	1.1345206
84	0x3f735145	0.9504588
85	0x3f82314a	1.0171292
86	0x3f6c0b29	0.9220453
87	0x3f88d646	1.0690391
88	0x3f9318d7	1.1491956
89	0x3f5e8a0d	0.869294
90	0x3f783751	0.96959406
91	0x3f4d1e44	0.80124307
92	0x3f5fbdde	0.8739909
93	0x3f823c42	1.0174639
94	0x3f5ab9d4	0.854398
95	0x3f68bd54	0.9091389
96	0x3f773832	0.9657012
97	0x3f80534a	1.0025418
98	0x3f63b780	0.88951874
99	0x3f8345ae	1.025564
100	0x3f37cb1d	0.717943
101	0x3f85e0a6	1.0459182
102	0x3f417277	0.75565284
103	0x3f841dd6	1.0321605
104	0x3f5339fe	0.82510364
105	0x3f502469	0.8130556
106	0x3f9f733c	1.2457042
107	0x3f69eb9b	0.9137513
108	0x3f816eca	1.0111935
109	0x3f6ea95f	0.9322719
110	0x3f67fbf9	0.90618855
111	0x3f7ea330	0.99467754
112	0x3f83211d	1.024448
113	0x3f7e2415	0.99273807
114	0x3f73af40	0.95189285
115	0x3f64e6d7	0.89414734
116	0x3f7e4b13	0.99333304
117	0x3f48a208	0.7837224
118	0x3f8ad619	1.0846587
119	0x3f83dae5	1.0301176
120	0x3f7890bb	0.9709584
121	0x3f8527ba	1.0402749
122	0x3f839612	1.0280173
123	0x3f6e0199	0.9297119
124	0x3f5ce2d7	0.8628363
125	0x3f6d1bf3	0.9262077
126	0x3f4c53a0	0.798151
127	0x3f52c941	0.8233834
128	0x3f68fdab	0.91012067
129	0x3f968cea	1.1761754
130	0x3f637c7b	0.8886182
131	0x3f6cbe1e	0.92477596
132	0x3f6fc3fe	0.93658435
133	0x3f87be6e	1.060499
134	0x3f774e38	0.9660373
135	0x3f7e0d43	0.99238986
136	0x3f40a692	0.75254166
137	0x3f6498ed	0.89295846
138	0x3f763f1b	0.9619004
139	0x3f4871d6	0.782987
140	0x3f491ee7	0.7856278
141	0x3f5bb387	0.8582081
142	0x3f85e212	1.0459616
143	0x3f4dc549	0.8037916
144	0x3f806600	1.0031128
145	0x3f5c3c72	0.8602973
146	0x3f76a779	0.96349293
147	0x3f6dd46e	0.92902267
148	0x3f5bb92f	0.8582944
149	0x3f58e9ce	0.8473176
150	0x3f331eb6	0.69968736
151	0x3f50697f	0.81410974
152	0x3f4927d1	0.7857638
153	0x3f7f0fe1	0.99633604
154	0x3f80192c	1.0007682
155	0x3f6944a3	0.91120356
156	0x3f688aad	0.908366
157	0x3f650267	0.8945679
158	0x3f3d661d	0.7398394
159	0x3f69d3f3	0.91339034
160	0x3f43bdad	0.764613
161	0x3f9d9fd7	1.2314404
162	0x3f8603e5	1.0469939
163	0x3f94194b	1.1570219
164	0x3f46d40c	0.7766731
165	0x3f511c48	0.8168378
166	0x3f60c1d3	0.8779575
167	0x3f5dabb6	0.86590135
168	0x3f595f4f	0.84911054
169	0x3f86adc9	1.0521785
170	0x3f44d9e9	0.76895005
171	0x3f637a7b	0.88858765
172	0x3f3eda16	0.7455152
173	0x3f57e84a	0.8433882
174	0x3f36f93e	0.71474063
175	0x3f6422f0	0.8911581
176	0x3f8fc47b	1.1231836
177	0x3f4bbb7f	0.7958297
178	0x3f82b3ba	1.0211098
179	0x3f8ec157	1.1152753
180	0x3f90df70	1.1318188
181	0x3f780b73	0.9689247
182	0x3f5d01f6	0.8633112
183	0x3f497984	0.78701043
184	0x3f68f1d1	0.9099398
185	0x3f7c47d5	0.98547107
186	0x3f86f36b	1.0543035
187	0x3f62a079	0.8852611
188	0x3f887294	1.0659966
189	0x3f7832f1	0.9695273
190	0x3f7bd6b5	0.9837449
191	0x3f4f0e65	0.8088134
192	0x3f9fc774	1.2482743
193	0x3f30ceed	0.69065744
194	0x3f76f2ce	0.9646424
195	0x3f7be45c	0.98395324
196	0x3f88af31	1.0678464
197	0x3f762a2e	0.9615811
198	0x3f9932df	1.196865
199	0x3f484d78	0.7824321
