ckpt/MAP_CAM/1/best_loss_BEST1.ckpt (torch, 233952 bytes, 19 tensors)

classifier.0.weight f4 [130, 18]
0.19821377 -0.18446794 0.122179605 -0.13712311 0.030212358 -0.061446548 0.2078255 -0.16748604
-0.6952727 -0.15552853 0.46405122 -0.17409484 -0.19942924 0.08626398 0.11873308 0.24594754
0.13340358 0.28206185 0.033736043 -0.12785727 0.017838873 0.05309498 0.3026691 0.007000269
-0.13766585 -0.124473155 -1.3891478 0.040447805 0.82775354 -0.29436195 -0.14700894 0.14103709
-0.008080612 -0.03483683 -0.05101299 0.085192315 0.23966216 0.30052462 -0.10392522 0.13737494
0.35751063 -0.033935823 0.14839327 0.3093583 -0.012298065 0.018351002 -0.29910877 -0.25561184
-0.01544165 0.018626427 0.04309867 -0.2520016 -0.15855859 -5.747075e-06 -0.19450052 0.11486518
0.14691874 0.045180973 -0.2839689 -0.19479759 0.018738106 0.42813048 -0.3428064 -0.06281613
0.49930856 -0.1457097 0.05126588 -0.0620671 0.073947944 -0.12868837 0.06391931 -0.17649436
-0.17043132 0.06768651 -0.4036168 0.22938181 -0.12300706 -0.5097871 0.114349075 -0.07680982
-0.39653683 -0.18902622 0.9344919 0.20802815 -0.13203281 0.085306145 0.022908296 0.13037081
-0.10762376 -0.07914213 0.0116984 -0.013354841 0.24824455 0.021660771 -0.23112665 0.053119246
-0.10335634 -0.4432994 0.2578601 0.23109096 -0.36093512 0.30225253 -0.057440337 0.103819944
-0.11614523 -0.57132405 -0.10407915 -0.072233394 0.24345335 0.07971716 -0.41058543 -0.09720723
-0.02339039 -0.011532543 0.2909179 0.05368723 -1.3334669 -0.013998484 1.2109184 -0.09374311
0.04275868 0.0076506883 -0.006916354 0.04822214 0.09623708 -0.043632034 -0.089379184 0.1360994
0.3829568 0.04191728 -0.055820044 0.0008800558 -0.18567847 0.18605746 -0.026829865 0.13629512
-0.31125987 -0.18015547 -0.091495074 -0.07668904 -0.527045 -0.022030178 -0.29998633 -0.054645468
-0.21218412 0.07636835 0.2942418 0.26769993 -0.016444061 0.029831043 -0.15247618 -0.10102288
0.8269287 -0.041051622 0.04546898 0.1535029 0.13122107 -0.032564152 0.12629403 0.35212126
-0.1837007 0.015981058 0.042784315 0.30616876 -0.25134325 -0.02013307 0.34313503 0.022677159
-0.14065613 -0.001432836 -0.9105196 0.09856921 0.71498704 -0.0018059122 0.0028970619 0.09468523
-0.42275873 -0.10313845 -0.1424387 0.16040924 0.20369026 0.18720998 0.1581076 0.020484127
0.23094697 -0.1394967 -0.070656665 -0.2139151 -0.19563518 0.073587246 0.15166722 0.30668452
-0.15941583 0.08035648 -0.21713518 0.18383454 -0.29961798 0.2943908 -0.24737763 0.2692568
0.28139788 -0.015888479 -0.060411327 0.091995835 -0.15000612 0.15920691 -0.76132584 -0.04065559
0.105717964 -0.0004186634 0.07799634 -0.12434946 0.27641243 -0.17066921 -0.20062461 -0.16605537
0.09089798 -0.11746058 -0.21666111 0.008051521 -0.120224476 -0.03208724 0.035653904 -0.22710945
0.43632933 -0.13334675 0.7310043 0.111182325 -0.029133925 0.35658836 -0.26074123 -0.8563212
-0.00021591532 -0.08852984 -0.0568821 0.1103225 -0.18178993 0.10150193 -0.08661444 -0.09163847
0.19378667 0.25802386 1.013615 -0.26167113 0.0033239333 -0.33585262 0.16533975 -0.22933818
-0.23494983 0.17924011 -0.13467969 -0.056683317 -0.01637615 0.27774286 0.081047155 0.262575
00000000: 8df8 4a3e 2ae5 3cbe 4d39 fa3d 006a 0cbe
00000010: e87f f73c 60af 7bbd 35d0 543e 7681 2bbe
00000020: 64fd 31bf df42 1fbe 1f98 ed3e eb45 32be
00000030: 2e37 4cbe 2bab b03d 542a f33d acd9 7b3e
00000040: f39a 083e 696a 903e ce2e 0a3d 04ed 02be
00000050: d422 923c 1f7a 593d 72f7 9a3e 8362 e53b
00000060: 47f8 0cbe c8eb febd 98cf b1bf 99ac 253d
00000070: a8e7 533f 9cb6 96be 8389 16be 076c 103e
00000080: 8b64 04bc 10b1 0ebd fff2 50bd 4f79 ae3d
00000090: ff69 753e 5dde 993e bfd6 d4bd 04ac 0c3e
000000a0: a20b b73e 4a00 0bbd 68f4 173e 3664 9e3e
000000b0: d37d 49bc d754 963c c924 99be 8edf 82be
000000c0: f9fe 7cbc 7396 983c 3b88 303d 5b06 81be
000000d0: 2f5d 22be 00d7 c0b6 252b 47be 6f3e eb3d
000000e0: de71 163e af0f 393d 5f64 91be 0579 47be
000000f0: a880 993c eb33 db3e 5284 afbe bea5 80bd
00000100: 5fa5 ff3e ec34 15be 2cfc 513d 123a 7ebd
00000110: 0572 973d e2c6 03be 21e8 823d f0ba 34be
00000120: 8c85 2ebe 3a9f 8a3d dca6 cebe 11e3 6a3e
00000130: 20eb fbbd 6881 02bf d92f ea3d 784e 9dbd
00000140: e006 cbbe 1790 41be dc3a 6f3f 5505 553e
00000150: 9c33 07be fdb4 ae3d 2eaa bb3c ed7f 053e
00000160: d969 dcbd 4515 a2bd a5aa 3f3c 43ce 5abc
00000170: d233 7e3e ee71 b13c 77ac 6cbe 9193 593d
00000180: 7dac d3bd 24f8 e2be 3d06 843e 1ca3 6c3e
00000190: 7dcc b8be d8c0 9a3e 8f46 6bbd 8d9f d43d
000001a0: 8ddd edbd 4b42 12bf 7327 d5bd 1aef 93bd
000001b0: d64b 793e c042 a33d 4138 d2be 9614 c7bd
000001c0: 349d bfbc fef2 3cbc 31f3 943e 24e7 5b3d
000001d0: 0baf aabf e659 65bc 60ff 9a3f 63fc bfbd
000001e0: ba23 2f3d a0b2 fa3b 95a2 e2bb 9484 453d
000001f0: f217 c53d 81b7 32bd 6f0c b7bd a45d 0b3e
00000200: ea12 c43e 74b1 2b3d 8fa3 64bd 8cb3 663a
00000210: 7f22 3ebe d985 3e3e 4eca dbbc f390 0b3e
00000220: 745d 9fbe ad7a 38be c561 bbbd 250f 9dbd
00000230: 6cec 06bf a278 b4bc cf97 99be edd3 5fbd
00000240: cb46 59be 0267 9c3d dca6 963e f70f 893e
00000250: b2b5 86bc 3b60 f43c b722 1cbe 15e5 cebd
00000260: 99b1 533f bf25 28bd ae3d 3a3d dd2f 1d3e
00000270: d15e 063e fd61 05bd 3953 013e 3d49 b43e
00000280: 091c 3cbe b5ea 823c 9b3e 2f3d 27c2 9c3e
00000290: 10b0 80be 1cee a4bc 65af af3e 73c5 b93c
000002a0: 2908 10be 00ce bbba d017 69bf a7de c93d
000002b0: 6409 373f 5cb4 ecba a2dc 3d3b 54ea c13d
000002c0: d573 d8be 403a d3bd 73db 11be 5242 243e
000002d0: 2e94 503e f9b3 3f3e f5e6 213e 54ce a73c
000002e0: 5d7d 6c3e 39d8 0ebe 71b4 90bd 8f0c 5bbe
000002f0: 9754 48be e9b4 963d a74e 1b3e c105 9d3e
00000300: e73d 23be f091 a43d af58 5ebe 1f3f 3c3e
00000310: 8767 99be 64ba 963e 9050 7dbe 07dc 893e
00000320: 6213 903e 8e28 82bc de71 77bd 5068 bc3d
00000330: 349b 19be 2307 233e 40e6 42bf 7a86 26bd
00000340: a982 d83d 0d80 dbb9 8cbc 9f3d eeaa febd
00000350: ee85 8d3e e9c3 2ebe 8a70 4dbe 6b0a 2abe
00000360: b828 ba3d 2c8f f0bd 69dc 5dbe 87ea 033c
00000370: 4038 f6bd e96d 03bd d409 123d 618f 68be
00000380: 8f66 df3e 0d8c 08be 1923 3b3f 8fb3 e33d
00000390: 45aa eebc c092 b63e e07f 85be de37 5bbf
000003a0: 5467 62b9 224f b5bd 34fd 68bd c3f0 e13d
000003b0: 2427 3abe 3ee0 cf3d e962 b1bd f3ac bbbd
000003c0: 0370 463e b41b 843e 23be 813f c2f9 85be
000003d0: 59d6 593b e0f4 abbe d34e 293e a1d7 6abe
000003e0: b096 70be b88a 373e 79e9 09be c42c 68bd
000003f0: 4727 86bc 5034 8e3e 0dfc a53d 3b70 863e

classifier.0.bias f4 [130]
-0.2798598 -0.1615916 0.042672742 -0.17249404 0.13081414 0.08406257 0.15298508 0.37805498
-0.16670994 -0.08872394 0.18629147 0.23846376 -0.095271125 0.17151715 0.068133876 0.3511427
0.066358574 0.090898626 -0.18377662 0.011756039 0.13891526 0.072173476 0.0001948339 -0.23488358
-0.12865648 0.0023715072 0.15558355 0.28383827 -0.16081996 -0.16467091 -0.0835506 0.20363641
0.08694437 -0.09818676 0.14668961 -0.0013294902 0.08586365 -0.1788169 -0.10792615 -0.11304219
0.015468379 0.1928169 0.15005557 0.24711071 -0.067589015 0.10838528 0.22656061 -0.114339024
0.1643704 -0.13972199 0.28849357 -0.16527244 0.18262748 0.0035652837 0.15025519 0.3669005
-0.224247 0.023173038 0.02384704 -0.09160842 -0.059284862 0.10684727 -0.19115512 0.03773398
0.29409117 -0.091666676 0.37358716 -0.02742678 0.25813973 -0.19416533 -0.04845343 0.005316161
-0.2985298 0.044909194 0.13975498 0.05290467 0.006265183 0.31842148 0.2881423 -0.019768778
0.048290282 0.21406706 0.08233255 0.2940583 0.03983267 0.02854158 0.08634026 -0.15846062
0.0021540704 -0.062135108 -0.26335755 0.033656478 -0.027855009 0.12547642 -0.17934518 0.011956763
0.07457763 -0.081565425 -0.022222333 -0.0021427956 0.19917463 0.18383597 0.003409222 -0.10751433
0.1961867 -0.058625672 0.2647142 -0.048543394 0.17667277 -0.14588344 0.03825668 -0.16344374
0.51688856 0.22587547 0.09991362 -0.13368368 -0.14041574 -0.078111425 -0.07777927 0.3732362
-0.1072131 0.026586326 0.063125566 -0.09017007 -0.085685246 0.0990235 -0.37517992 -0.1410975
-0.13837148 0.0021240215
00000000: c949 8fbe 4578 25be 9dc9 2e3d 47a2 30be
00000010: 24f4 053e ff28 ac3d 1fa8 1c3e 6c90 c13e
00000020: 03b6 2abe e6b4 b5bd 31c3 3e3e d82f 743e
00000030: 821d c3bd 31a2 2f3e c689 8b3d fac8 b33e
00000040: 01e7 873d 0f29 ba3d f02f 3cbe 679c 403c
00000050: cd3f 0e3e b0cf 933d 544c 4c39 5285 70be
00000060: 86be 03be 4a6b 1b3b 4b51 1f3e 4053 913e
00000070: fdad 24be 7e9f 28be 941c abbd 1086 503e
00000080: e40f b23d 2416 c9bd cd35 163e 4a42 aeba
00000090: 48d9 af3d c71b 37be 6308 ddbd aa82 e7bd
000000a0: 156f 7d3c cb71 453e 2ba8 193e 970a 7d3e
000000b0: 1c6c 8abd 1af9 dd3d 81ff 673e 942a eabd
000000c0: b750 283e 4813 0fbe 6eb5 933e 2e3d 29be
000000d0: b302 3b3e 89a7 693b 7fdc 193e 62da bb3e
000000e0: 01a1 65be 62d5 bd3c de5a c33c 329d bbbd
000000f0: afd4 72bd bed2 da3d 2bbe 43be f28e 1a3d
00000100: 1e93 963e bdbb bbbd d146 bf3e 20ae e0bc
00000110: e42a 843e 47d3 46be 1b77 46bd 3133 ae3b
00000120: e6d8 98be b4f2 373d ee1b 0f3e 91b2 583d
00000130: 2a4c cd3b 2408 a33e 6387 933e 22f2 a1bc
00000140: 08cc 453d 6534 5b3e f89d a83d cf8e 963e
00000150: 9527 233d 08d0 e93c 2ad3 b03d 8043 22be
00000160: 4e2b 0d3b 6281 7ebd cdd6 86be 60db 093d
00000170: 3030 e4bc e47c 003e 43a6 37be 4de6 433c
00000180: 28bc 983d c60b a7bd 9c0b b6bc 256e 0cbb
00000190: 6ff4 4b3e 7f3f 3c3e 416d 5f3b 7930 dcbd
000001a0: 2be5 483e 7921 70bd 9f88 873e 70d5 46bd
000001b0: b5e9 343e 7862 15be 09b3 1c3d cc5d 27be
000001c0: cf52 043f e64b 673e 839f cc3d 60e4 08be
000001d0: 25c9 0fbe e2f8 9fbd bd4a 9fbd d118 bf3e
000001e0: 8b92 dbbd 91cb d93c fa47 813d 16ab b8bd
000001f0: bf7b afbd d5cc ca3d 9517 c0be dd7b 10be
00000200: 41b1 0dbe 2b33 0b3b

classifier.1.weight f4 [130]
0.9988606 1.1484616 0.9816682 0.7734302 1.0480053 0.92763317 1.0973359 0.6968501
0.90567994 0.9189487 0.817149 0.7321652 1.0535836 0.5710936 0.9892057 0.8915119
0.84978235 0.85841554 0.9884794 0.6853019 0.8209011 0.8726286 0.8481287 0.9911269
0.767516 0.5691338 0.8231786 1.1051118 0.952759 0.93148535 0.6902652 0.82769984
0.80630845 1.014441 0.87605524 0.55479 0.80494136 0.7357522 0.6338714 0.94980556
0.97697186 0.523983 0.9057676 0.87873906 0.54098994 0.9078229 0.5377161 0.9214577
0.8888041 0.9850252 0.7663676 0.9515249 0.9221995 1.0517844 1.0784038 1.2043942
0.93117 0.82883006 0.88865894 0.9953296 0.74205714 0.9614499 0.8744491 0.842479
0.8338146 0.92817426 0.94380856 0.68361336 1.0530251 0.93232477 1.0158964 1.0350747
1.0188191 0.8322848 0.99528027 0.69355273 0.92899173 1.0009551 0.8774534 1.1598473
1.0079695 0.6781307 0.8817567 0.7683133 0.98697424 1.1086203 0.9055263 1.0816644
0.7944699 0.72468144 1.1031733 0.9791979 0.9893878 0.79619163 1.0471809 0.8359561
0.8878429 0.9202178 0.6368849 0.94534117 0.82968736 0.9192033 0.83856505 0.78298336
0.77320194 0.7129883 1.1270099 0.9121367 0.8132543 0.95193285 0.9795617 1.0273614
0.98531306 0.9949385 0.97664016 0.8002309 0.9917666 0.7886783 0.9819971 0.98903805
1.0017275 1.0237293 0.88950473 0.9678352 1.0096583 0.9100004 1.0118077 0.9867492
1.1080167 0.861536
00000000: 54b5 7f3f ca00 933f 9b4e 7b3f 86ff 453f
00000010: 0a25 863f 5e79 6d3f 8175 8c3f c564 323f
00000020: a4da 673f 3940 6b3f ad30 513f 2e6f 3b3f
00000030: d4db 863f 3133 123f 963c 7d3f 203a 643f
00000040: 568b 593f 1fc1 5b3f fc0c 7d3f f26f 2f3f
00000050: 9326 523f 9764 5f3f f61e 593f 7eba 7d3f
00000060: ee7b 443f c1b2 113f d5bb 523f 4e74 8d3f
00000070: 04e8 733f d375 6e3f 38b5 303f 23e4 533f
00000080: 3b6a 4e3f 34d9 813f 2845 603f b806 0e3f
00000090: a310 4e3f 425a 3c3f 6545 223f 7526 733f
000000a0: d41a 7a3f c023 063f 63e0 673f 0bf5 603f
000000b0: 517e 0a3f 1567 683f c3a7 093f a7e4 6b3f
000000c0: aa88 633f 9d2a 7c3f ab30 443f 2397 733f
000000d0: 4415 6c3f dfa0 863f 2309 8a3f 9729 9a3f
000000e0: 2861 6e3f 352e 543f 277f 633f eccd 7e3f
000000f0: 75f7 3d3f 9521 763f e5db 5f3f b4ac 573f
00000100: e074 553f d49c 6d3f 709d 713f 4901 2f3f
00000110: 87c9 863f d6ac 6e3f e508 823f 547d 843f
00000120: aa68 823f 9e10 553f b0ca 7e3f ac8c 313f
00000130: 67d2 6d3f 4c1f 803f c9a0 603f e075 943f
00000140: 2505 813f f999 2d3f cfba 613f 2eb0 443f
00000150: 58aa 7c3f 45e7 8d3f 92d0 673f fb73 8a3f
00000160: 6162 4b3f b984 393f c834 8d3f b7ac 7a3f
00000170: 8548 7d3f 37d3 4b3f 060a 863f 3801 563f
00000180: ac49 633f 6593 6b3f e40a 233f e101 723f
00000190: 6466 543f e850 6b3f 33ac 563f 9971 483f
000001a0: 90f0 453f 6786 363f dc41 903f ca81 693f
000001b0: 6f31 503f dfb1 733f 8ec4 7a3f 9480 833f
000001c0: 7a3d 7c3f 4ab4 7e3f 1705 7a3f efdb 4c3f
000001d0: 6ae4 7d3f d2e6 493f 2964 7b3f 9931 7d3f
000001e0: 9b38 803f 9009 833f 95b6 633f 0cc4 773f
000001f0: 7c3c 813f c9f5 683f ea82 813f 989b 7c3f
00000200: 7ed3 8d3f a08d 5c3f

classifier.1.bias f4 [130]
-0.48660097 -0.44367477 -0.37168938 -0.46580282 -0.52346224 -0.22573152 -0.5021445 -0.4627045
-0.25990358 -0.524206 -0.1909018 -0.53855145 -0.3603141 -0.3546108 -0.54970646 -0.2289481
-0.39227524 -0.49020308 -0.5481385 -0.3573337 -0.37800786 -0.35094744 -0.15699229 -0.61245525
-0.3000684 -0.29366866 -0.20406051 -0.35752726 -0.32756943 -0.3817844 -0.34419712 -0.40421107
-0.3637956 -0.46079758 -0.43551725 -0.20609489 -0.008995769 -0.22688437 -0.28448123 -0.3745444
-0.21195818 -0.14514875 -0.59426075 -0.30502328 -0.16485913 -0.6047906 -0.15998651 -0.323999
-0.38597047 -0.36329043 -0.5125178 -0.30196595 -0.23001486 -0.2801286 -0.50577015 -0.41937494
-0.53597647 -0.15691984 -0.46500534 -0.30193743 -0.35541537 -0.5603252 -0.21337786 -0.2697839
-0.26507258 -0.4589292 0.034878004 -0.3617934 -0.3976649 -0.16520187 -0.36925325 -0.549259
-0.410237 -0.29722738 -0.4988819 -0.3662567 -0.23153952 -0.23890139 -0.39969432 -0.5032372
-0.3910913 -0.248679 -0.32425794 -0.34811288 -0.40615246 -0.5139473 -0.49516377 -0.58974487
-0.5523664 -0.2938922 -0.3563279 -0.27433005 -0.45121226 -0.37789723 -0.5256407 -0.3677833
-0.31320816 -0.28912187 -0.37899157 -0.58163524 -0.23013547 -0.35608774 -0.37511978 -0.21419875
-0.3493923 -0.31734112 -0.4065247 -0.40699014 -0.117308706 -0.42795587 -0.35383812 -0.39558026
-0.39437386 -0.46448323 -0.68670005 -0.29358447 -0.5261489 -0.14529237 -0.36074585 -0.40229365
-0.4142497 -0.29172543 -0.23484588 -0.46038398 -0.27879676 -0.3115105 -0.27889052 -0.4862971
-0.43401018 -0.31129885
00000000: c323 f9be 5729 e3be 124e bebe b57d eebe
00000010: 9f01 06bf 2a26 67be 8b8c 00bf 9be7 ecbe
00000020: 1512 85be 5d32 06bf c37b 43be 82de 09bf
00000030: 177b b8be 8c8f b5be 90b9 0cbf 5f71 6abe
00000040: 4dd8 c8be e6fb fabe ce52 0cbf 71f4 b6be
00000050: 3f8a c1be 62af b3be 96c2 20be dec9 1cbf
00000060: 91a2 99be bd5b 96be 3df5 50be d00d b7be
00000070: 2eb7 a7be 3f79 c3be 9b3a b0be c1f4 cebe
00000080: 6b43 babe a9ed ebbe 1efc debe 8a0a 53be
00000090: fd62 13bc 6054 68be 86a7 91be 49c4 bfbe
000000a0: 910b 59be e0a1 14be 7921 18bf 032c 9cbe
000000b0: d5d0 28be 8fd3 1abf 81d3 23be 32e3 a5be
000000c0: ec9d c5be 3401 babe 5e34 03bf 489b 9abe
000000d0: 0489 6bbe 046d 8fbe 277a 01bf 50b8 d6be
000000e0: c135 09bf 98af 20be 2e15 eebe 8b97 9abe
000000f0: 01f9 b5be 7971 0fbf ba7f 5abe 1e21 8abe
00000100: 98b7 87be c5f8 eabe 3ddc 0e3d fc3c b9be
00000110: bc9a cbbe ae2a 29be c30e bdbe 3d9c 0cbf
00000120: 960a d2be 302e 98be 736d ffbe 0086 bbbe
00000130: b218 6dbe 91a2 74be bca4 ccbe 27d4 00bf
00000140: 1e3d c8be b5a5 7ebe 2305 a6be da3b b2be
00000150: 37f3 cfbe 0d92 03bf 1b86 fdbe 85f9 16bf
00000160: e267 0dbf 0a79 96be 9c70 b6be fd74 8cbe
00000170: 4b05 e7be bf7b c1be 6490 06bf 184e bcbe
00000180: d25c a0be c807 94be 2f0b c2be 0ce6 14bf
00000190: a2a8 6bbe 2251 b6be b30f c0be eb56 5bbe
000001a0: 8ce3 b2be 897a a2be 0124 d0be 0361 d0be
000001b0: 8c3f f0bd 081d dbbe 452a b5be 7f89 cabe
000001c0: 5feb c9be bfd0 edbe 93cb 2fbf b450 96be
000001d0: b2b1 06bf 86c7 14be aeb3 b8be 6ff9 cdbe
000001e0: 8918 d4be 095d 95be 707b 70be 73b7 ebbe
000001f0: 73be 8ebe 4e7e 9fbe bdca 8ebe effb f8be
00000200: 9536 debe 9062 9fbe

classifier.1.running_mean f4 [130]
-0.15745859 -0.19046688 0.4066954 -0.17873633 0.07350569 -0.14934914 0.38228828 0.18658072
-0.19691274 -0.077492334 0.3409957 0.111091055 -0.18620892 0.16576187 0.39272642 0.48244014
0.034095213 0.116214395 -0.3421953 0.2145953 0.31819907 0.081504114 -0.053293824 -0.37081033
-0.1801367 0.06134732 0.030784745 -0.06895841 -0.25364605 -0.29027244 0.10027739 0.33082098
0.12573002 -0.061610617 0.12915392 0.20862164 0.19347633 -0.12373418 -0.10071223 -0.48843077
0.07440015 -0.21021944 0.00023714847 0.31305057 -0.35010758 0.16053271 0.23700504 -0.06676271
0.61624604 -0.20675007 0.246918 0.13208437 -0.14443024 0.11089615 0.3439136 0.28776515
-0.26645997 -0.16877985 -0.16705765 0.17945218 -0.19545783 0.17502107 -0.38938847 0.03367779
0.032363333 0.12651937 0.14856151 -0.24944443 0.27459666 0.113898784 -0.15093388 0.40188614
-0.4846219 0.067167394 0.32757422 -0.12412193 -0.367249 0.8253958 0.4815907 -0.44824722
0.30741686 0.22890912 0.2873688 0.211439 0.08822006 0.21541697 0.28750473 0.12830395
-0.050939996 -0.18616837 -0.33608878 0.35884568 0.07196804 0.18060075 -0.25018278 -0.37938944
0.33378664 0.0062531894 0.05180582 0.05694688 0.19999091 0.30246398 -0.05025805 0.037821013
-0.097565874 -0.23058867 0.76922965 0.008041838 0.18828836 0.18761608 -0.035824705 -0.14371115
0.67863274 0.08710661 0.11597286 0.032172136 0.043660592 0.107901484 -0.28724968 0.30187792
0.07107298 0.11722153 0.29573253 0.4130237 0.005893076 0.122268565 -0.39053264 0.06944212
-0.2390925 -0.06487578
00000000: d33c 21be c009 43be 613a d03e a806 37be
00000010: 278a 963d fbee 18be 4abb c33e 040f 3f3e
00000020: 7ea3 49be 4db4 9ebd fd96 ae3e b583 e33d
00000030: 8dad 3ebe 7bbd 293e 7013 c93e 6502 f73e
00000040: 6ca7 0b3d d001 ee3d 3934 afbe dfbe 5b3e
00000050: fdea a23e a1eb a63d a04a 5abd dada bdbe
00000060: c175 38be 5447 7b3d 4a30 fc3c 113a 8dbd
00000070: e5dd 81be 979e 94be 3b5e cd3d 5e61 a93e
00000080: 5fbf 003e 6a5b 7cbd ed40 043e e9a0 553e
00000090: a91e 463e 5968 fdbd 3742 cebd 9913 fabe
000000a0: 1b5f 983d c443 57be 0fab 7839 2a48 a03e
000000b0: 4d41 b3be b062 243e 73b1 723e e3ba 88bd
000000c0: 4dc2 1d3f 4ab6 53be 12d8 7c3e 2041 073e
000000d0: 85e5 13be 851d e33d 7215 b03e f455 933e
000000e0: 716d 88be a0d4 2cbe 2911 2bbe 50c2 373e
000000f0: 1926 48be b938 333e ed5d c7be b9f1 093d
00000100: 6a8f 043d 4b8e 013e 8220 183e 5c6e 7fbe
00000110: ef97 8c3e c443 e93d 698e 1abe 05c4 cd3e
00000120: 5d20 f8be 0f8f 893d cfb7 a73e a333 febd
00000130: 1008 bcbe 244d 533f 0e93 f63e a980 e5be
00000140: be65 9d3e 2767 6a3e 0122 933e 7783 583e
00000150: b8ac b43d 4496 5c3e d233 933e 1c62 033e
00000160: 75a6 50bd eca2 3ebe d413 acbe 9fba b73e
00000170: fb63 933d 67ef 383e f517 80be 553f c2be
00000180: 15e6 aa3e 8ee7 cc3b 5732 543d 2241 693d
00000190: 6bca 4c3e 8fdc 9a3e 63db 4dbd 35ea 1a3d
000001a0: 9ed0 c7bd 701f 6cbe 3cec 443f eac1 033c
000001b0: aace 403e 6e1e 403e edbc 12bd 0429 13be
000001c0: e0ba 2d3f f364 b23d 2e83 ed3d eec6 033d
000001d0: 73d5 323d 74fb dc3d 6412 93be be8f 9a3e
000001e0: b68e 913d d711 f03d 416a 973e d877 d33e
000001f0: b41a c13b f167 fa3d e5f3 c7be ac37 8e3d
00000200: aad4 74be 98dd 84bd

classifier.1.running_var f4 [130]
0.0069430675 0.0037011087 0.005574606 0.0042239986 0.005060425 0.0017539603 0.0009062453 0.009497173
0.002011217 0.006201109 0.010031551 0.0042351144 0.0049342792 0.0043635587 0.006469783 0.0029077227
0.008877144 0.0042545847 0.0022982615 0.0030380422 0.004623737 0.011513816 0.0022542195 0.0040980754
0.003794721 0.0033584437 0.002468467 0.0067324205 0.0034083342 0.002624916 0.004173408 0.0056019137
0.013553402 0.0074149743 0.010926789 0.004874849 0.0018966648 0.0033009048 0.008469168 0.020224087
0.0022747556 0.012129879 0.0028895587 0.0042600203 0.02607523 0.0038502554 0.008759557 0.00382151
0.010493591 0.0044610747 0.0021992705 0.003658574 0.0013953743 0.010690689 0.0067943926 0.009358778
0.0045445203 0.0017379373 0.002969429 0.003571357 0.004304339 0.002791255 0.010852668 0.0029528
0.010640637 0.004953795 0.0026768453 0.003447887 0.0034074646 0.008564826 0.0035190156 0.0019315424
0.0031665792 0.0069771577 0.0029543366 0.0039259954 0.00958974 0.0011130368 0.0021043841 0.008411399
0.0021293052 0.003346439 0.0019974168 0.0044030207 0.0027730241 0.018494442 0.005199151 0.0086176675
0.0011969893 0.0032673976 0.0036651166 0.0028598725 0.012466458 0.006265419 0.002878221 0.006115112
0.0026133251 0.005723872 0.002545812 0.0063289073 0.0042054225 0.023258999 0.003034013 0.003272349
0.0038680723 0.0016938118 0.001005234 0.00570413 0.0059949323 0.0031300203 0.0009808542 0.0048647844
0.001403591 0.016078101 0.0033608389 0.005502547 0.002878761 0.03117389 0.0037536495 0.002902972
0.0025263198 0.007657755 0.006519014 0.003033966 0.0051598335 0.0072326707 0.0037027579 0.0026674885
0.006673008 0.002857048
00000000: ac82 e33b 4d8e 723b 2fab b63b 7869 8a3b
00000010: ecd1 a53b 24e5 e53a 1891 6d3a 089a 1b3c
00000020: 9fce 033b ac32 cb3b 605b 243c b7c6 8a3b
00000030: bcaf a13b 2ffc 8e3b 7900 d43b 7e8f 3e3b
00000040: 7171 113c 0b6a 8b3b 6e9e 163b e419 473b
00000050: b882 973b 72a4 3c3c 87bb 133b 2649 863b
00000060: dbb0 783b 5619 5c3b 01c6 213b a39b dc3b
00000070: 5c5e 5f3b c806 2c3b 15c1 883b 4290 b73b
00000080: 170f 5e3c 50f9 f23b 4606 333c 33bd 9f3b
00000090: 8399 f83a fe53 583b 44c2 0a3c fcac a53c
000000a0: 1114 153b 66bc 463c c05e 3d3b a497 8b3b
000000b0: b99b d53c 9154 7c3b 3f84 0f3c 4c72 7a3b
000000c0: 50ed 2b3c 352e 923b a321 103b b0c4 6f3b
000000d0: fee4 b63a 0028 2f3c 7fa3 de3b 8f55 193c
000000e0: 33ea 943b 80cb e33a c09a 423b 6e0d 6a3b
000000f0: 6a0b 8d3b 7ded 363b 64cf 313c c383 413b
00000100: 1156 2e3c 7253 a23b 036e 2f3b f2f5 613b
00000110: c54f 5f3b 7c53 0c3c 499f 663b cf2b fd3a
00000120: 6286 4f3b a4a0 e43b 8b9d 413b a3a5 803b
00000130: 491e 1d3c 51e3 913a b5e9 093b f7cf 093c
00000140: d08b 0b3b ee4f 5b3b 18e7 023b 3747 903b
00000150: a0bb 353b a881 973c a45d aa3b 1e31 0d3c
00000160: 4ce4 9c3a d621 563b 7432 703b b36c 3b3b
00000170: 1d40 4c3c 254e cd3b 89a0 3c3b 4761 c83b
00000180: 5244 2b3b 528f bb3b a3d7 263b b962 cf3b
00000190: a4cd 893b a889 be3c 4bd6 463b e874 563b
000001a0: 7c7f 7d3b e502 de3a 0ec2 833a b6e9 ba3b
000001b0: 2371 c43b 0721 4d3b 0190 803a c568 9f3b
000001c0: b3f8 b73a 39b6 833c 8541 5c3b b64e b43b
000001d0: 98a9 3c3b 6360 ff3c caff 753b ca3f 3e3b
000001e0: 9d90 253b e8ed fa3b 749d d53b 81d5 463b
000001f0: d213 a93b 0a00 ed3b f8a9 723b 08d1 2e3b
00000200: 40a9 da3b 503d 3b3b

classifier.4.weight f4 [200, 130]
-0.158221 0.07136856 0.016629914 0.018004635 -0.12878464 0.15912555 0.013241389 0.13483529
0.10964016 -0.20943987 -0.045499273 0.021872723 -0.00011059934 0.013386815 0.24643475 -0.059693813
0.19431873 -0.148871 0.055174798 0.07760308 -0.161546 -0.010347252 -0.07038636 0.08102174
-0.18437406 -0.056445304 0.03961725 -0.7139874 -0.02791554 0.13034092 -0.15904665 -0.19453736
0.028774826 0.17762548 0.14546748 0.025569338 0.024045652 0.078053385 0.06721882 0.15245508
-0.3367973 0.10639954 0.27725407 -0.085694045 0.054458912 -0.014531072 0.10045171 -0.12198833
-0.0020000953 -0.018641485 0.00900574 -0.29906243 0.0017669828 0.005585928 0.067378655 0.15951498
-0.05081909 -0.11416172 -0.7450444 0.03597686 0.058512602 0.028899565 0.10191803 0.04189055
0.051310576 -0.06701025 0.08383079 0.039491054 -0.028450228 0.06955747 0.0056298347 0.0513186
0.1168158 -0.12363861 -0.4675529 -0.045230586 -0.2140717 -0.028690796 -0.040101625 0.051261425
0.004411271 -0.085537046 -0.068141304 0.055265404 -0.024032667 0.025018437 -0.0671005 0.14073628
0.117499635 0.088627696 -0.114104554 0.020384042 0.017818261 -0.01004763 0.11996726 0.19519019
-0.30800456 0.15624778 0.043206636 0.05686395 0.1551649 0.048592117 -0.5570186 0.021848667
-0.062283337 0.026087957 0.066460125 -0.5302239 -0.045520037 0.09868355 0.1119823 0.050006986
-0.0038362744 0.0336163 -0.026290018 -0.008952262 -0.38179913 0.014890459 -0.018100774 0.056423176
0.256138 -0.04835387 -0.062128022 0.11620469 -0.0055817557 -0.35301042 -0.0714836 -0.2026553
0.17710376 -0.037023265 0.054366946 -0.13177226 0.036730386 0.0339608 -0.2694132 0.02531836
0.25632215 0.07912814 -0.022538802 0.12736112 0.34093425 -0.10803395 0.26615262 0.07607185
-0.023891024 -0.10215082 0.14469488 0.07865248 -0.3625626 -0.09771402 -0.12528561 0.082020655
0.06865996 0.064053014 0.09049008 0.028498149 0.005137608 0.13382849 0.17595613 -0.32074645
-0.040418208 0.15621696 -0.12732227 0.19568609 0.01914465 -0.21441792 0.006617835 0.099646255
0.020375876 -0.066515155 0.1013724 0.2225122 -0.19574727 -0.042221166 0.0060794246 0.0012700985
-0.11333278 0.09756837 0.27160186 0.024406666 0.23948295 0.09370231 -0.17000633 -0.3566378
0.15995295 -0.124655165 -0.0513952 -0.09222947 -0.04977886 0.017615875 0.21113907 0.13976012
0.037730638 0.00971832 0.10419843 0.15599853 -0.0044035125 -0.0096419845 -0.023444002 0.20448267
0.045845043 -0.23026182 0.18988632 -0.11784522 -0.012665701 -0.076216854 -0.26515454 0.01194793
0.07284689 -0.17221795 0.040120833 0.058240205 0.19172914 -0.015962142 0.049729552 0.22108659
0.15379481 0.010608451 0.06036058 -0.08233765 -0.049034845 0.24717696 0.0700938 -0.11566326
0.013504734 0.046823718 0.05037256 -0.06435733 -0.0008185651 0.099495485 0.013842897 0.25733507
-0.18232515 -0.0022641174 0.13434456 -0.13317803 -0.25705832 0.14493673 0.27419642 0.09095415
-0.06305485 0.123572215 0.027629154 0.08803374 0.028462816 0.16291906 0.00018464647 0.29709214
0.12241671 -0.11757033 -0.04204015 -0.0053283535 -0.048700247 0.12138028 0.37922466 0.12883359
00000000: b004 22be ae29 923d 753b 883c 757e 933c
00000010: 1fe0 03be cff1 223e 69f2 583c 4312 0a3e
00000020: 058b e03d 6877 56be 725d 3abd 6d2e b33c
00000030: 92f1 e7b8 5f54 5b3c 6459 7c3e 8081 74bd
00000040: 7dfb 463e a471 18be f8fe 613d 5dee 9e3d
00000050: 516c 25be 8587 29bc b926 90bd baee a53d
00000060: 8ecc 3cbe 3133 67bd b345 223d e1c7 36bf
00000070: 21af e4bc 1778 053e 20dd 22be cd34 47be
00000080: 2fb9 eb3c 74e3 353e 6df5 143e ca76 d13c
00000090: 63fb c43c 74da 9f3d 05aa 893d 2f1d 1c3e
000000a0: b270 acbe 01e8 d93d 3ff4 8d3e 5c80 afbd
000000b0: 4f10 5f3d bc13 6ebc a0b9 cd3d 04d5 f9bd
000000c0: 0814 03bb 07b6 98bc d08c 133c b61e 99be
000000d0: 1b9a e73a 290a b73b d2fd 893d e557 233e
000000e0: ae27 50bd 9fcd e9bd 3bbb 3ebf 795c 133d
000000f0: e9aa 6f3d c8be ec3c 66ba d03d 6d95 2b3d
00000100: 0a2b 523d ac3c 89bd 7aaf ab3d 5fc1 213d
00000110: 7410 e9bc 2674 8e3d 7a7a b83b 7433 523d
00000120: 1f3d ef3d 3d36 fdbd 1863 efbe b543 39bd
00000130: 9d35 5bbe f608 ebbc 9a41 24bd 80f7 513d
00000140: 6c8c 903b 0c2e afbd ab8d 8bbd fa5d 623d
00000150: 28e0 c4bc 77f3 cc3c fd6b 89bd 2c1d 103e
00000160: a6a3 f03d 7082 b53d a6af e9bd 6ffc a63c
00000170: 9af7 913c d19e 24bc 65b1 f53d f0df 473e
00000180: c6b2 9dbe 6bff 1f3e 71f9 303d 2cea 683d
00000190: 8ce3 1e3e 8708 473d c598 0ebf fafb b23c
000001a0: d01c 7fbd 69b6 d53c 3f1c 883d c1bc 07bf
000001b0: 3873 3abd 9a1a ca3d fa56 e53d 20d4 4c3d
000001c0: 016a 7bbb 3fb1 093d 2a5e d7bc 82ac 12bc
000001d0: 2d7b c3be 1df7 733c 1348 94bc fd1b 673d
000001e0: 8524 833e b50e 46bd f479 7ebd b9fc ed3d
000001f0: 29e7 b6bb c8bd b4be fe65 92bd df84 4fbe
00000200: b05a 353e b5a5 17bd e0af 5e3d 4fef 06be
00000210: 9a72 163d 7b1a 0b3d 87f0 89be 7368 cf3c
00000220: a83c 833e ef0d a23d 4ba3 b8bc f46a 023e
00000230: ef8e ae3e e740 ddbd 2845 883e 8fcb 9b3d
00000240: 1cb7 c3bc 7334 d1bd e52a 143e 8d14 a13d
00000250: cea1 b9be 4a1e c8bd df4a 00be 72fa a73d
00000260: 989d 8c3d 3a2e 833d dd52 b93d f374 e93c
00000270: 6159 a83b 560a 093e d82d 343e e138 a4be
00000280: 908d 25bd 57f7 1f3e c560 02be ef61 483e
00000290: 3ed5 9c3c 5f90 5bbe 6cda d83b 5613 cc3d
000002a0: 4feb a63c 1939 88bd 559c cf3d 3dda 633e
000002b0: f971 48be 1af0 2cbd e935 c73b 6f79 a63a
000002c0: 041b e8bd edd1 c73d 660f 8b3e 7df0 c73c
000002d0: 053b 753e ffe6 bf3d 2416 2ebe 3b99 b6be
000002e0: b5ca 233e 354b ffbd c683 52bd cee2 bcbd
000002f0: ebe4 4bbd 2b4f 903c d734 583e 471d 0f3e
00000300: 718b 1a3d 9739 1f3c fd65 d53d 14be 1f3e
00000310: 574b 90bb 6af9 1dbc a30d c0bc e863 513e
00000320: 03c8 3b3d c1c9 6bbe 8f71 423e d658 f1bd
00000330: cd83 4fbc 9517 9cbd 56c2 87be 40c1 433c
00000340: c030 953d e759 30be be55 243d 488d 6e3d
00000350: a554 443e 0ac3 82bc 37b1 4b3d 8664 623e
00000360: 637c 1d3e 12cf 2d3c a83c 773d a4a0 a8bd
00000370: c3d8 48bd f51b 7d3e 578d 8f3d dce0 ecbd
00000380: f642 5d3c 3aca 3f3d 7553 4e3d c7cd 83bd
00000390: f994 56ba 4ac4 cb3d 51cd 623c 6cc1 833e
000003a0: 72b3 3abe 9661 14bb 9f91 093e d25f 08be
000003b0: 269d 83be 4b6a 143e 7963 8c3e 2b46 ba3d
000003c0: e722 81bd 6e13 fd3d 8956 e23c 094b b43d
000003d0: da2a e93c 41d4 263e a99d 4139 761c 983e
000003e0: 9db5 fa3d b7c8 f0bd 4b32 2cbd 7899 aebb
000003f0: e979 47bd 3996 f83d bc29 c23e f4ec 033e

classifier.4.bias f4 [200]
0.022521231 0.06997259 -0.008674606 -0.0012762991 -0.042915992 0.008344592 -0.005590052 -0.061609566
-0.092990145 -0.06343291 0.00225765 0.10194099 0.015519302 0.043688737 -0.044111364 -0.02319609
-0.08472859 0.039501023 -0.07449103 -0.038151722 0.0875997 0.12612036 0.03253013 0.0057918886
-0.059639692 -0.034482956 -0.06399473 0.0674813 -0.01506691 -0.06950334 -0.07794058 0.004643014
0.0026995388 -0.059462927 -0.11694186 -0.09066199 -0.0039155977 -0.064686015 0.087460674 -0.040263902
-0.061694536 -0.0366449 -0.08737907 -0.06732898 -0.07136073 -0.011017379 -0.03130705 0.05663497
0.07412588 0.12380837 0.03453961 0.02364539 0.034089707 0.03503064 0.041956514 0.006562771
-0.037625913 0.12371617 -0.011485236 -0.08174408 0.034288216 0.07353032 0.14404882 0.065315254
-0.089941345 -0.035936292 0.08690362 -0.071759365 0.008156048 -0.0069328668 -0.06974337 0.15328069
0.067982346 -0.13016464 0.024735907 -0.0873813 0.05720363 0.07609606 -0.019221323 0.016009586
-0.005346355 0.023872565 -0.0058528134 -0.011571843 -0.035547506 0.012988074 -0.09834411 -0.06005718
-0.040065 -0.11346235 0.03059951 -0.036484234 -0.1190029 -0.020175667 0.01922371 -0.019401718
-0.0003088966 0.04132836 0.016789146 0.053661738 -0.037169922 -0.045205243 0.027337477 -0.041810934
0.00057518895 0.025067085 -0.056459073 -0.010836864 -0.0027542019 -0.020690413 0.09414336 -0.07245058
0.0066796616 0.10212341 0.030600948 0.13942564 0.12886979 0.0804733 0.06373988 0.029435756
0.050991684 -0.012501736 -0.021676335 -0.068339884 -0.020474961 0.05774136 0.08642357 -0.004781494
-0.08660426 -0.112625144 0.114603385 -0.06862154 -0.055361748 0.052518763 -0.042652324 0.025481487
0.0067796996 0.07368835 0.005728134 -0.037889156 -0.058726992 -0.15416718 -0.0031089531 0.05966475
-0.093979955 -0.13519146 0.04879827 -0.033685036 0.05833801 -0.044409607 -0.030019777 0.05322848
-0.05781199 0.06592076 -0.05676527 -0.046835653 -0.046823516 -0.08673224 0.07365014 -0.090887345
-0.032423105 -0.002501654 0.0898525 0.0067480253 0.054365996 -0.054619584 0.007457213 0.095229626
-0.035372533 -0.022176798 -0.085956424 -0.063816346 0.018997261 -0.07359144 -0.083005406 -0.050296497
-0.002911428 0.041643437 0.05516806 -0.003239449 0.028697232 0.064364836 -0.004524595 -0.063100636
-0.02252431 0.09309072 0.070860304 0.015686005 -0.031622384 0.07484857 0.08282537 0.018549373
0.08413318 0.02147458 0.018118847 -0.08435712 -0.06851018 -0.04838591 -0.05178729 0.0059035164
00000000: 727e b83c ca4d 8f3d ef1f 0ebc 7e49 a7ba
00000010: aec8 2fbd c1b7 083c c12c b7bb 505a 7cbd
00000020: 9e71 bebd 1de9 81bd 15f5 133b 70c6 d03d
00000030: ac44 7e3c f6f2 323d 1eae 34bd ba05 bebc
00000040: 2f86 adbd d3cb 213d c18e 98bd fb44 1cbd
00000050: 7967 b33d b225 013e 503e 053d e2c9 bd3b
00000060: c048 74bd 003e 0dbd ab0f 83bd a333 8a3d
00000070: 33db 76bc c457 8ebd 509f 9fbd 6d24 983b
00000080: bfea 303b 668f 73bd 377f efbd feac b9bd
00000090: 6a4e 80bb 1a7a 84bd 951e b33d c3eb 24bd
000000a0: 69b3 7cbd f618 16bd ccf3 b2bd c7e3 89bd
000000b0: 9325 92bd 3d82 34bc d23b 00bd 12fa 673d
000000c0: 4fcf 973d 3e8f fd3d 6879 0d3d fab3 c13c
000000d0: a6a1 0b3d 4a7c 0f3d 98da 2b3d 830c d73b
000000e0: a11d 1abd e75e fd3d 922c 3cbc 7169 a7bd
000000f0: cd71 0c3d 1097 963d 8981 133e 01c4 853d
00000100: 2b33 b8bd ef31 13bd 86fa b13d 93f6 92bd
00000110: f2a0 053c 1a2d e3bb 9dd5 8ebd 9df5 1c3e
00000120: 543a 8b3d e149 05be f5a2 ca3c f8f4 b2bd
00000130: 5b4e 6a3d 40d8 9b3d 0976 9dbc 8926 833c
00000140: 7a30 afbb 6690 c33c f5c8 bfbb d497 3dbc
00000150: 439a 11bd eecb 543c a368 c9bd 84fe 75bd
00000160: 331b 24bd f35e e8bd d3ab fa3c 7e70 15bd
00000170: cbb7 f3bd 7147 a5bc 0b7b 9d3c 5af0 9ebc
00000180: 66f3 a1b9 ed47 293d 6489 893c 69cc 5b3d
00000190: 7d3f 18bd 2229 39bd d8f2 df3c f141 2bbd
000001a0: 47c8 163a 7d59 cd3c a141 67bd 1a8d 31bc
000001b0: d77f 34bb f17e a9bc 3cce c03d f860 94bd
000001c0: 10e1 da3b 1426 d13d d7ae fa3c 98c5 0e3e
000001d0: 71f6 033e 2fcf a43d 0e8a 823d 4123 f13c
000001e0: a8dc 503d 15d4 4cbc 9292 b1bc c8f5 8bbd
000001f0: 1bbb a7bc 3482 6c3d d7fe b03d 14ae 9cbb
00000200: 935d b1bd 03a8 e6bd 2eb5 ea3d 7389 8cbd
00000210: 00c3 62bd ea1d 573d 34b4 2ebd 8dbe d03c
00000220: 3e28 de3b ebe9 963d 12b3 bb3b a931 1bbd
00000230: b78b 70bd 00de 1dbe 94bf 4bbb 0663 743d
00000240: 9078 c0bd a16f 0abe b2e0 473d 52f9 09bd
00000250: d6f3 6e3d d9e6 35bd 09ec f5bc 1b06 5a3d
00000260: 44cc 6cbd 7701 873d b382 68bd bed6 3fbd
00000270: 04ca 3fbd aca0 b1bd e2d5 963d 2523 babd
00000280: 17ce 04bd caf2 23bb 9604 b83d 8a1e dd3b
00000290: e1ae 5e3d c9b8 5fbd a35b f43b c007 c33d
000002a0: cae2 10bd 1eac b5bc ec09 b0bd 25b2 82bd
000002b0: 25a0 9b3c 1cb7 96bd bdfe a9bd b303 4ebd
000002c0: a8cd 3ebb 4f92 2a3d e7f7 613d f04c 54bb
000002d0: 7516 eb3c b6d1 833d 0e43 94bb e83a 81bd
000002e0: e784 b8bc 59a6 be3d 351f 913d f07f 803c
000002f0: 7986 01bd 354a 993d 59a0 a93d dbf4 973c
00000300: 044e ac3d 75eb af3c fa6d 943c 6dc3 acbd
00000310: 114f 8cbd 4e30 46bd e91e 54bd 4972 c13b

classifier.5.weight f4 [200]
0.82280576 1.0671567 0.77540874 1.2517715 0.6566325 0.99634886 0.80782306 0.6950544
0.8192505 0.79345936 0.9506548 0.9387988 0.85516924 0.86005706 0.79803455 0.74709356
1.0665817 0.8600064 1.0650008 0.7501446 0.8502747 0.9173041 1.158227 0.97346073
1.0327169 0.86729646 0.73905414 0.7738535 0.9894125 0.9884404 1.0150962 1.1896899
0.8818523 0.637944 0.97188294 0.8084568 0.84431636 0.73339 0.8984731 0.8512478
0.7799083 0.91415215 0.85848486 0.86329335 1.0078642 0.9696007 0.8220894 0.8345864
0.70986444 0.916769 0.89593464 0.77766657 0.8238496 0.78998786 0.8483776 1.1181982
0.88350034 0.94770885 0.7834236 0.9111749 0.7810227 0.9605196 1.0018294 0.86891973
1.1097445 0.71577334 0.84639055 0.8222273 0.78651106 0.9769182 0.8867728 0.9311315
0.8850048 0.9990629 0.92476195 1.0692109 1.0116389 0.9837753 0.87006676 0.76173776
0.97810036 0.7917688 0.8341792 0.9598399 0.7162434 1.0689284 0.9544381 0.84340227
0.9065136 0.84271526 0.9666849 0.76556414 1.0570506 1.0177644 0.7497664 1.0117443
0.8047295 0.9172259 0.8821287 0.91949993 0.8229893 0.8046333 0.8265548 0.7539556
0.980996 0.8568716 0.8328004 0.77362996 0.96259457 0.7326559 0.92346805 1.0175681
0.86433154 0.84663594 0.8825076 0.871049 1.0183585 1.0336946 0.8783263 0.813767
0.9690412 0.912397 1.0089115 0.88096565 0.974765 1.0037256 0.9428173 0.8589472
0.7051232 0.88430214 0.891195 0.78464997 0.89455366 1.0708402 0.75154334 0.8875184
1.0486376 0.88253224 0.7154674 0.8350893 0.6248555 1.0333173 0.8979052 0.99651307
1.0127002 1.0359077 0.96782047 0.8180332 0.8950053 0.842626 0.9609497 0.91087145
0.72062886 0.7749433 0.791781 1.0418601 0.85773987 1.0337145 0.89452255 0.75193965
0.7852478 0.885578 0.8994784 0.9270677 1.0143716 0.9681997 1.0424585 1.0567673
0.97138244 0.7723121 0.9254694 0.8140004 0.9506564 0.9365331 0.92182636 0.9289955
0.74111557 0.909244 0.7515024 0.82347065 0.78309053 1.0725812 0.99767214 0.7298318
0.89247507 0.84317 0.85739166 0.9139936 0.9807739 0.92734957 0.71935827 0.6757052
0.9666198 0.9676793 0.8238303 0.920119 0.86515397 0.8944793 0.94163597 1.0733693
00000000: 66a3 523f 9798 883f 3081 463f 0c3a a03f
00000010: 1119 283f b810 7f3f 7ecd 4e3f 16ef 313f
00000020: 67ba 513f 2720 4b3f 1d5e 733f 1e55 703f
00000030: 5fec 5a3f b32c 5c3f fe4b 4c3f 8641 3f3f
00000040: c085 883f 6129 5c3f f251 883f 7a09 403f
00000050: 9aab 593f 71d4 6a3f c840 943f b934 793f
00000060: 1130 843f 2407 5e3f a732 3d3f 431b 463f
00000070: 234a 7d3f 6e0a 7d3f acee 813f c247 983f
00000080: 13c1 613f 4c50 233f 52cd 783f 06f7 4e3f
00000090: 1e25 583f 72bf 3b3f 5502 663f 60eb 593f
000000a0: 12a8 473f e005 6a3f aac5 5b3f cb00 5d3f
000000b0: b201 813f c037 783f 7374 523f 74a7 553f
000000c0: adb9 353f 60b1 6a3f f95b 653f 2815 473f
000000d0: cfe7 523f a53c 4a3f 462f 593f 1e21 8f3f
000000e0: 142d 623f 0c9d 723f 738e 483f c242 693f
000000f0: 1bf1 473f 9de4 753f f23b 803f 8671 5e3f
00000100: 1c0c 8e3f ec3c 373f 0dad 583f 7d7d 523f
00000110: ca58 493f 5017 7a3f 8b03 633f a25e 6e3f
00000120: ad8f 623f 96c2 7f3f 33bd 6c3f e7db 883f
00000130: 627d 813f b3d8 7b3f b2bc 5e3f 3f01 433f
00000140: c964 7a3f 5cb1 4a3f c58c 553f 11b8 753f
00000150: ba5b 373f a5d2 883f 0e56 743f 36e9 573f
00000160: 4611 683f 30bc 573f a978 773f 03fc 433f
00000170: 6f4d 873f 1b46 823f b1f0 3f3f d680 813f
00000180: c102 4e3f 51cf 6a3f 30d3 613f 5964 6b3f
00000190: 6daf 523f 73fc 4d3f 1899 533f 3c03 413f
000001a0: 8e22 7b3f f05b 5b3f 6832 553f 9d0c 463f
000001b0: 996c 763f 568f 3b3f 6768 6c3f ac3f 823f
000001c0: d544 5d3f 22bd 583f 05ec 613f 11fd 5e3f
000001d0: 9259 823f 1b50 843f fed9 603f 0953 503f
000001e0: 1613 783f da92 693f 0324 813f f786 613f
000001f0: 338a 793f 157a 803f 795c 713f f7e3 5b3f
00000200: f482 343f a061 623f 5b25 643f d2de 483f
00000210: 7801 653f 4b11 893f 2565 403f 6834 633f
00000220: c239 863f a2ed 613f df28 373f 6ac8 553f
00000230: 88f6 1f3f be43 843f 1ddd 653f 7b1b 7f3f
00000240: 29a0 813f a098 843f 15c3 773f a06a 513f
00000250: 111f 653f 56b6 573f cd00 763f df2e 693f
00000260: 227b 383f af62 463f 29b2 4a3f ac5b 853f
00000270: d794 5b3f c250 843f 6eff 643f 1e7f 403f
00000280: 0006 493f 3db5 623f 3744 663f 4f54 6d3f
00000290: eed6 813f efdb 773f 486f 853f 2744 873f
000002a0: 85ac 783f 3fb6 453f 90eb 6c3f 5562 503f
000002b0: 385e 733f a2c0 6f3f d0fc 6b3f a6d2 6d3f
000002c0: c0b9 3d3f 37c4 683f 7662 403f f9ce 523f
000002d0: 9f78 483f 574a 893f 7167 7f3f 42d6 3a3f
000002e0: 3f79 643f fdd9 573f 057e 5b3f 7cfb 693f
000002f0: 0014 7b3f c866 6d3f dd27 383f 04fb 2c3f
00000300: 6574 773f d5b9 773f 8be6 523f eb8c 6b3f
00000310: bb7a 5d3f 98fc 643f 0e0f 713f 2a64 893f

classifier.5.bias f4 [200]
-0.42250675 -0.4541549 -0.22909087 -0.83785015 -0.48588544 -0.2298102 -0.24093652 -0.28548256
-0.2806532 -0.33405653 -0.13954236 -0.25014022 -0.36186582 -0.30508205 -0.6821399 -0.44795135
0.14450993 -0.44705203 -0.34122562 -0.51331204 -0.33958253 -0.81395847 -0.52434415 -0.06909417
-0.14173777 -0.3423357 -0.21544576 -0.3652315 -0.3314084 -0.25915232 -0.15774947 -0.4089091
-0.2718296 -0.08852906 -0.06651393 -0.32651442 -0.4260101 -0.3027666 -0.55387735 -0.46670845
-0.3466346 -0.2903918 -0.24815974 -0.48900974 -0.5082786 -0.78416795 -0.44969246 -0.35231575
-0.2920169 -0.5605241 -0.51751643 -0.4179973 -0.2905052 -0.59480983 -0.22963007 -0.92010546
-0.27819765 -0.14933199 -0.26823065 -0.4497325 -0.3272894 -0.339909 -0.2901022 -0.30866414
-0.35228005 -0.3161179 -0.44574183 -0.2897458 -0.28020608 -0.18430027 -0.44622496 -0.30102286
-0.528919 -0.5076488 -0.21415727 -0.628814 -0.13616449 -0.1697773 -0.2811314 -0.2907485
-0.5224357 -0.25344348 -0.31753692 -0.13536277 -0.44425157 -0.582985 -0.24977155 -0.27424383
-0.406226 -0.27750173 -0.4435035 -0.46718925 -0.4857507 -0.16399494 -0.44534612 -0.3058059
-0.21988493 -0.68091005 -0.20726317 -0.17607155 -0.34762225 -0.43590316 -0.26634222 -0.48759523
-0.15510885 -0.41969055 -0.24598943 -0.36121053 -0.35247338 -0.44721705 -0.36600202 -0.24368125
-0.3502155 -0.2240111 -0.1303293 -0.67285174 -0.63568527 -0.12168924 -0.6303669 -0.460926
-0.19136672 -0.60961694 -0.43898124 -0.47640395 -0.14117692 -0.36052993 -0.35007852 -0.5149004
-0.5174459 -0.10214787 -0.23299521 -0.49994144 -0.33716977 -0.513361 -0.49911013 -0.41889745
-0.4090705 -0.11152166 -0.37200648 -0.3628691 -0.15519461 -0.8737922 -0.52049685 -0.2741423
-0.33632424 -0.6215739 -0.4310047 -0.17283499 -0.21941362 -0.1283735 -0.48410597 -0.4244418
-0.3887679 -0.31378022 -0.48220176 -0.06845589 -0.07504686 -0.7613546 -0.25016794 -0.12779358
-0.25870138 -0.47920987 -0.47086 -0.38403636 -0.16611934 -0.12539828 0.0656767 0.044762693
-0.2897452 -0.53011286 -0.52601606 -0.24994677 -0.23025253 -0.14168437 -0.3045033 -0.4601356
-0.49288356 -0.5450361 -0.29081935 -0.50633574 -0.17768759 -0.45892632 -0.23445159 -0.39704686
-0.3740845 -0.45930126 -0.48089346 -0.35621187 -0.2632295 -0.33248183 -0.33043385 -0.3593651
-0.30942667 -0.15789498 -0.4247228 -0.3554598 -0.51333505 -0.5911964 -0.4517065 -0.6162467
00000000: ce52 d8be fe86 e8be cc96 6abe 597d 56bf
00000010: fac5 f8be 5d53 6bbe 10b8 76be c52a 92be
00000020: c7b1 8fbe 7509 abbe 31e4 0ebe 6112 80be
00000030: 7a46 b9be b733 9cbe b8a0 2ebf e159 e5be
00000040: 69fa 133e 01e4 e4be 20b5 aebe 6b68 03bf
00000050: c3dd adbe 955f 50bf 6b3b 06bf 3f81 8dbd
00000060: b523 11be a046 afbe d09d 5cbe a0ff babe
00000070: 5dae a9be 9daf 84be 1489 21be 895c d1be
00000080: 402d 8bbe b94e b5bd 7538 88bd e62c a7be
00000090: ff1d dabe 3904 9bbe e8ca 0dbf 69f4 eebe
000000a0: 177a b1be 3cae 94be 961d 7ebe 7c5f fabe
000000b0: 8c1e 02bf 3bbf 48bf 173e e6be bb62 b4be
000000c0: 3d83 95be 827e 0fbf f57b 04bf be03 d6be
000000d0: 19bd 94be 7545 18bf 2524 6bbe 088c 6bbf
000000e0: ec6f 8ebe 7cea 18be 8755 89be 5743 e6be
000000f0: 7a92 a7be 8d08 aebe 4788 94be 3a09 9ebe
00000100: 0d5e b4be 35da a1be 4638 e4be 9059 94be
00000110: 2c77 8fbe 36b9 3cbe 9977 e4be ab1f 9abe
00000120: 3c67 07bf 46f5 01bf 0b4c 5bbe f4f9 20bf
00000130: b46e 0bbe 1ada 2dbe 74f0 8fbe fddc 94be
00000140: 59be 05bf 58c3 81be 3394 a2be 8a9c 0abe
00000150: f174 e3be 813e 15bf 1dc4 7fbe b069 8cbe
00000160: dbfc cfbe b514 8ebe e412 e3be 6e33 efbe
00000170: 51b4 f8be 4aee 27be 6804 e4be 9792 9cbe
00000180: 8429 61be 1f50 2ebf cc3c 54be 1a4c 34be
00000190: 8bfb b1be b32e dfbe 025e 88be 15a6 f9be
000001a0: dbd4 1ebe aee1 d6be a7e4 7bbe 96f0 b8be
000001b0: 6477 b4be a2f9 e4be 9e64 bbbe 9487 79be
000001c0: 724f b3be 2a63 65be 0b75 05be 0340 2cbf
000001d0: 45bc 22bf 3538 f9bd ba5f 21bf 7efe ebbe
000001e0: a3f5 43be db0f 1cbf 26c2 e0be 38eb f3be
000001f0: af90 10be 6197 b8be 7e3d b3be 83d0 03bf
00000200: 5677 04bf e732 d1bd 4c96 6ebe 53f8 ffbe
00000210: 84a1 acbe a06b 03bf 5d8b ffbe ba79 d6be
00000220: b071 d1be 7865 e4bd a277 bebe fbc9 b9be
00000230: 56eb 1ebe d8b0 5fbf 483f 05bf 615c 8cbe
00000240: b132 acbe 781f 1fbf a6ac dcbe a8fb 30be
00000250: f7ad 60be 5874 03be bddc f7be 7050 d9be
00000260: 960c c7be cda7 a0be 26e3 f6be 9a32 8cbd
00000270: 2bb2 99bd 23e8 42bf 0316 80be 52dc 02be
00000280: 8274 84be ff5a f5be 9014 f1be 6aa0 c4be
00000290: 301b 2abe 6868 00be 8181 863d 1659 373d
000002a0: 7c59 94be 7ab5 07bf fda8 06bf 0cf2 7fbe
000002b0: 52c7 6bbe b515 11be dbe7 9bbe e596 ebbe
000002c0: 3c5b fcbe 7c87 0bbf 46e6 94be 389f 01bf
000002d0: bcf3 35be 64f8 eabe 1414 70be ba49 cbbe
000002e0: 0188 bfbe 8929 ebbe ab37 f6be 6761 b6be
000002f0: 04c6 86be 0f3b aabe a02e a9be b4fe b7be
00000300: 2c6d 9ebe 39af 21be 4475 d9be d4fe b5be
00000310: ed69 03bf a658 17bf 1346 e7be 58c2 1dbf

classifier.5.running_mean f4 [200]
-0.40690967 0.79644305 0.015119929 -1.1457762 -0.57564527 -0.6425057 0.03327209 -0.27729347
-0.87292254 -0.667746 -1.0258327 0.1339765 -0.75019526 -0.7553928 -0.097287655 0.6903768
-0.93607736 -0.9498898 -1.6742961 -0.5824205 -0.7922617 -0.4369695 0.37414017 -0.8103033
-0.8973462 -0.72739196 0.5981146 -0.761281 -0.60333335 -0.8774508 -0.7235582 -1.0680974
-0.035937503 0.43371165 -1.0051212 0.24293394 -0.45153967 -0.36862183 -1.1685727 -0.9733515
-1.0234389 -0.568053 -0.37114543 -1.2603232 -0.5539319 -1.2896777 -0.4957785 -1.0025303
-0.11460589 -0.48956373 -0.088911414 -0.50852525 -0.2656353 -0.38657358 -0.41869304 -1.0240061
-0.5824986 -0.68532807 -0.9278107 -0.85480237 -0.5397611 0.78943795 -0.45309463 -0.31455272
-0.8791778 -0.7636969 -0.65879244 -0.60595363 -0.26467752 -1.0696874 -0.30491716 -0.592251
-0.8804747 -0.10954133 -0.74461335 -0.5543426 -0.6961323 -0.8615601 -0.54160583 -0.79174256
-0.95668817 -0.47370827 0.19945262 -1.1779019 -0.5979674 -0.5369771 0.07234238 -0.90207934
-0.39000025 -0.9766778 -0.53796506 -0.20525515 -0.8016323 -0.6198114 -0.82572377 -0.8089181
-1.1624577 -0.5899413 -0.24049743 -0.10180779 -0.62532467 0.67134327 0.020972162 -0.6697991
-1.0079383 -0.74774253 -0.37423196 -0.7972063 -0.4249526 -1.251304 -0.8679189 -0.0852575
-1.1529071 -0.34922382 -0.24941567 -0.7590832 -0.86644214 -0.4049134 -0.26298156 0.661132
-0.018417316 -0.27616093 -0.47970098 -0.4770971 -0.89147836 -0.62168163 -0.3163029 -1.0177348
-0.23048359 -0.6840455 -0.3303718 -0.52981997 -1.3634726 -0.67376375 0.016680634 -0.72750646
-0.41861093 -0.8065145 -1.0755011 -0.45857936 0.32147175 -1.020384 -0.057547957 -0.34232315
-0.46537223 -0.78158635 0.06559934 0.14768326 0.22859086 -0.5640661 -1.2289603 -0.35625097
-0.8154304 -0.68982315 -0.21666837 -0.90987384 -0.6684819 -0.8247639 0.117383815 0.46618703
-0.14910012 -0.56316257 -0.22377591 0.03806293 -1.4472669 -1.0447286 -1.1800594 -1.0596085
-0.5261899 -1.0088044 -0.96218574 -1.0236195 -0.6342399 -0.61276865 -0.36971536 -0.92305475
-0.15695743 0.4147947 -0.5575677 -0.21821542 -0.7837374 -0.14185572 -0.46400434 -0.4846746
-0.8873095 -0.23497549 -0.8742965 -0.35212058 -0.8299006 0.7505533 -0.20723522 0.21476337
-0.93380964 -0.84606785 -0.87038857 -1.450631 -1.0761238 -0.52514523 -0.5700858 -0.50363666
00000000: 7756 d0be b1e3 4b3f 94b9 773c cba8 92bf
00000010: 7d5d 13bf 417b 24bf 5148 083d 69f9 8dbe
00000020: da77 5fbf 67f1 2abf 7c4e 83bf 2331 093e
00000030: cc0c 40bf 6c61 41bf c03e c7bd 89bc 303f
00000040: c4a2 6fbf fa2b 73bf 564f d6bf 8319 15bf
00000050: aad1 4abf 77ba dfbe 4d8f bf3e 0970 4fbf
00000060: 7bb8 65bf 5c36 3abf 0a1e 193f 50e3 42bf
00000070: 0e74 1abf 9ea0 60bf 1c3b 39bf 6ab7 88bf
00000080: 3433 13bd 740f de3e d0a7 80bf adc3 783e
00000090: 3530 e7be 00bc bcbe ca93 95bf 902d 79bf
000000a0: 0c00 83bf ec6b 11bf c606 bebe 4552 a1bf
000000b0: 7bce 0dbf 2914 a5bf aed6 fdbe ea52 80bf
000000c0: 7eb6 eabd 19a8 fabe 3017 b6bd b62e 02bf
000000d0: 5a01 88be f9ec c5be ef5e d6be a212 83bf
000000e0: a11e 15bf a971 2fbf 0185 6dbf 54d4 5abf
000000f0: c92d 0abf 9b18 4a3f 05fc e7be 0e0d a1be
00000100: cc11 61bf a481 43bf 9fa6 28bf c71f 1bbf
00000110: d083 87be 84eb 88bf 1a1e 9cbe c39d 17bf
00000120: ca66 61bf 3457 e0bd fb9e 3ebf 66e9 0dbf
00000130: ba35 32bf 348f 5cbf aea6 0abf a4af 4abf
00000140: 84e9 74bf e489 f2be 4f3d 4c3e 7dc5 96bf
00000150: 6414 19bf 5577 09bf 3e28 943d acee 66bf
00000160: 1dae c7be 8e07 7abf 14b8 09bf 682e 52be
00000170: c637 4dbf f6ab 1ebf a262 53bf 4215 4fbf
00000180: 6acb 94bf 6506 17bf f544 76be 9a80 d0bd
00000190: 4715 20bf 27dd 2b3f d0cd ab3c f477 2bbf
000001a0: 1f04 81bf 0e6c 3fbf 559b bfbe b615 4cbf
000001b0: 6393 d9be bb2a a0bf ef2f 5ebf 7c9b aebd
000001c0: 7692 93bf 77cd b2be d266 7fbe 4753 42bf
000001d0: 27cf 5dbf cf50 cfbe 85a5 86be f23f 293f
000001e0: e9df 96bc f764 8dbe 5e9b f5be 1246 f4be
000001f0: ed37 64bf 8726 1fbf 74f2 a1be 2245 82bf
00000200: e403 6cbe 9b1d 2fbf 7e26 a9be 48a2 07bf
00000210: 4586 aebf c87b 2cbf d3a5 883c dd3d 3abf
00000220: 2c54 d6be bc77 4ebf 05aa 89bf eaca eabe
00000230: f297 a43e f19b 82bf 68b7 6bbd fb44 afbe
00000240: 4545 eebe 0b16 48bf f258 863d 483a 173e
00000250: b913 6a3e a366 10bf 924e 9dbf 8766 b6be
00000260: 0cc0 50bf 4098 30bf 50de 5dbe 7eed 68bf
00000270: a121 2bbf ba23 53bf ed66 f03d 11b0 ee3e
00000280: b4ad 18be 6c2b 10bf 8325 65be e0e7 1b3d
00000290: 0b40 b9bf abb9 85bf 300c 97bf 40a1 87bf
000002a0: 62b4 06bf 8120 81bf ce51 76bf f705 83bf
000002b0: 8c5d 22bf 68de 1cbf 554b bdbe 514d 6cbf
000002c0: 73b9 20be f95f d43e c2bc 0ebf dd73 5fbe
000002d0: 04a3 48bf a042 11be fa91 edbe 4527 f8be
000002e0: b726 63bf 6a9d 70be e5d1 5fbf 2649 b4be
000002f0: 5e74 54bf 4324 403f 7835 54be eeea 5b3e
00000300: 260e 6fbf e797 58bf c9d1 5ebf 47ae b9bf
00000310: 6dbe 89bf eb6f 06bf 25f1 11bf 55ee 00bf
