ckpt/H_k10_h20_f10_typeM_CAM_ACCD.ckpt (torch, 21391 bytes, 8 tensors)

encoder.0.weight f4 [20, 99]
00000000: 741a a13e 1d8b 0e3f a8f0 2d3e fc50 333e
00000010: 2b0d 5a3d 6723 f5bb fa40 79bc eaf0 a7bc
00000020: afcc fa3b 659a 263d ca4f 973c 6be5 073e
00000030: d5a2 b33e 77c1 b63e e1b8 7dbc 871b d0bc
00000040: cfb9 73ba e753 a1bd 9c95 babc e27c 5c3d
00000050: eef1 34bd 64ca 55bd d9c1 b13e 37c3 fdbe
00000060: 1b04 b03e 4a98 c7bb 6666 df3c a034 b03c
00000070: e0f9 e8bc c3c6 eebb cf86 6ebb 9963 063d
00000080: d081 a0bc 19b0 c43d f95b 993d 012b 373c
00000090: 8a97 afbd df22 7c3c c99d 303d 047d 06bd
000000a0: be15 bfbc bcfe b3bd d69b 2f3d dcd8 5ebd
000000b0: 2a2e 353d 2175 0a3d 899e 4fbd 7145 e4bc
000000c0: be3d 923c 9869 87bd 3f80 8fbc dd59 0b3d
000000d0: a027 0bbc 8233 a23d 3add 4a3d 6fb4 893e
000000e0: d194 a83d 6c2c ae3d 997a 97bd 80e4 133c
000000f0: 87a2 253b 83fc 17bd 3443 403d c3dc 91bd
00000100: 2224 893c f664 4e3d 635a 79bd 5c1b 2f3d
00000110: b000 1a3d b4c3 b4bb 3cfe b0bc 5ea9 c0bc
00000120: df3b e8bc ab77 8fbb b669 a5bd a591 9abd
00000130: 0b4f 71bd 8c1b ec3d e6ae aa3d 294a 013d
00000140: 77be 693b 38aa c03d 8caf 85bc b8bc bebc
00000150: e52f 92bd 00e4 b03d 01a8 8ebc 0790 9abd
00000160: 9e30 97be f249 0dbe 69c6 7e3e e29e 05be
00000170: bac9 51bc f0d4 dabc 35b2 8e3d ff14 a93c
00000180: 4f3d 2ebd 45c4 ebbc 4b30 e33d 5004 55bd
00000190: 63da 16bd f07f 15bd 9739 833d 5e6b 86bd
000001a0: 3c23 98bd af4d 8b3b 8cd0 25bb 3007 b03c
000001b0: 9716 acbd cd3f b73d f97d 903d b5ba 59bd
000001c0: f82e 053d cb49 b6bd 1c66 853d 4065 aebd
000001d0: 1721 9f3c f87e 1abd 52da 90bd 69f3 0bbd
000001e0: 18f3 ca3d 85fb b4bd cc33 63bc 187e 3ebc
000001f0: e87f 55bc e7d3 ae3d c61e 8ebc f38a 793d
00000200: 5baa 40bd f69b 8dbd 33f0 a43d 6d18 283d
00000210: 0512 0dbc d779 973c f21a 62bd 00dd 053d
00000220: e289 b63d c0cc 933b ace2 0fbd ef0b bc3d
00000230: 3f9e 543d 26ab 1bbd 3e15 a03d 70e5 403d
00000240: b045 d83c 42a2 603b fe01 8f3d f86e 853d
00000250: e23e 903c 392d 99bd 1d42 b53d 3e81 54bc
00000260: 7408 90bd af0e a7bd 8c77 03bd dbd0 053d
00000270: 4732 943d 0b25 b83d d4e6 fb3c 2929 4b3d
00000280: 1f4a b23d 51f1 8bbd 38d6 933d 9e05 ad3c
00000290: 0c32 a73a c452 973d c2d6 02bd d575 9ebc
000002a0: df8e 87bd 10e6 bb3d b28b 9ebc 6dcd 33bd
000002b0: 508d 513d fd36 aebd 0c2e c2bd 11ea ff3c
000002c0: e858 cbbd a157 583d 2cf7 2c3d 7910 533d
000002d0: bbbc 24bd 5741 6ebd 7902 7d3d 1723 6cbd
000002e0: 6149 8fbd d3b6 103d f4c5 01bd 6be2 8cbd
000002f0: 253f 3c3c cfb7 05bc bb1b 36bd 531b b2bd
00000300: e64d bcbc 3131 3a3b 2dd1 d53c 2de0 2fbd
00000310: 0376 dcbc 1a01 6ebd a8b9 803c dc17 e93c
00000320: fb50 bf3d 9873 913c e837 b7ba 5380 1c3c
00000330: 9750 b83c 9b4b c0bd d3f5 4ebd 59e2 0cbd
00000340: 884b c63d 93ea 613d 839d b7bd aada 883c
00000350: e686 67bb d49b 983c 397f bdbd ba9c ceba
00000360: 7bdf 84bd c27c ca3d d0be e53c 498f 5a3d
00000370: d693 33bb 7fc4 67bd cf2c 813c 9ada c53d
00000380: 967f 443d 5817 b7bc 8264 b23d 8045 c63c
00000390: 6780 613d 0267 9f3d 4daf 2a3d 192d bdbd
000003a0: 67d4 8dbd 7fd7 abbd 825f 37bd e18f 59bc
000003b0: 6fcd a5bd 17f4 913c b567 06bd bcd2 b7bd
000003c0: aedb a23b 5b4f c93d 3034 663d d023 c6bd
000003d0: cdd5 1a3d 1cae e93c cbe4 ad3d 325e 98bc
000003e0: 4363 4f3d 124f 86bc b11a 99bd f792 fd3c
000003f0: d6c8 c1bd 90a4 32bd fecb 803d 0577 bebd
0.31465495 0.5568102 0.16986334 0.17511362 0.053235214 -0.007481027 -0.0152132455 -0.020500619
0.0076537947 0.040674586 0.018470664 0.1327111 0.35085168 0.35694477 -0.015485973 -0.025403751
-0.0009297402 -0.07877331 -0.022776417 0.053830035 -0.044176035 -0.052194968 0.34718207 -0.49563
0.34378132 -0.0060911523 0.027270507 0.021509469 -0.028439462 -0.007286878 -0.003639627 0.032809827
-0.01959315 0.096039005 0.074882455 0.0111796865 -0.08573826 0.015389173 0.043119226 -0.032834068
-0.023325797 -0.08788821 0.042873226 -0.054406032 0.04423348 0.03380311 -0.0506883 -0.027865143
0.017851707 -0.06611937 -0.017517207 0.034021247 -0.008493334 0.079199806 0.049527384 0.26895472
0.082315095 0.085045666 -0.073964305 0.009026647 0.0025273876 -0.03710605 0.04693909 -0.07122185
0.016740862 0.050389253 -0.060877215 0.0427507 0.037598312 -0.0055164937 -0.021605603 -0.02351826
-0.028348861 -0.004378279 -0.080768034 -0.07547311 -0.058913272 0.11528692 0.083341405 0.031564865
0.0035666504 0.09407467 -0.016319059 -0.023283347 -0.071380414 0.086372375 -0.017414095 -0.07547002
-0.2952928 -0.13797739 0.24880375 -0.1304889 -0.012804443 -0.026712865 0.06967584 0.020639895
-0.042538937 -0.028780112 0.110931955 -0.052006066 -0.036829364 -0.036498964 0.06407469 -0.065634474
-0.074285954 0.004251204 -0.0025301306 0.021487802 -0.08402746 0.08947716 0.070552774 -0.053156573
0.032515496 -0.08900794 0.065136164 -0.08515406 0.019424958 -0.037718743 -0.07072891 -0.03416768
0.09909648 -0.08837036 -0.01386733 -0.011626743 -0.0130309835 0.08536511 -0.017348658 0.060923528
-0.047037464 -0.06914513 0.08053627 0.04103892 -0.008610253 0.018490715 -0.05520148 0.032681465
0.08913018 0.004510492 -0.03512828 0.09181964 0.051908728 -0.038005017 0.078165516 0.04709381
0.026400417 0.00342764 0.06982802 0.06515306 0.01760811 -0.07479329 0.08850501 -0.012970267
-0.07032862 -0.081570975 -0.03209643 0.032669883 0.07236152 0.089914404 0.030749716 0.0495998
0.08705544 -0.06833137 0.07218593 0.021120843 0.0012756004 0.07388833 -0.03194309 -0.019343296
-0.066190474 0.0917474 -0.019353721 -0.04389708 0.051160157 -0.08506582 -0.09481439 0.031239541
-0.09929067 0.052817944 0.04222791 0.05152938 -0.04021905 -0.05816778 0.061769936 -0.05765065
-0.06996418 0.035330605 -0.031682923 -0.06879123 0.011489664 -0.008161499 -0.04446004 -0.08696618
-0.022986364 0.0028410668 0.02610072 -0.0429384 -0.026911741 -0.05810652 0.015713528 0.02845376
0.09341618 0.017755315 -0.0013978453 0.009552079 0.022499366 -0.093894206 -0.050527405 -0.03439555
0.09682375 0.055155348 -0.0896559 0.01670583 -0.0035328208 0.018628992 -0.092527814 -0.0015763261
-0.06487938 0.09887077 0.028045088 0.053359304 -0.002740135 -0.056583878 0.015768437 0.096608356
0.047973238 -0.022349998 0.087105766 0.024203062 0.055054095 0.07783319 0.041671086 -0.09237117
-0.06925278 -0.08390712 -0.044768818 -0.013278932 -0.08095824 0.017816586 -0.032813746 -0.08975741
0.0049700355 0.09829589 0.056202114 -0.096747994 0.037801553 0.028525405 0.084909044 -0.018599603
0.050631773 -0.016395126 -0.07475794 0.030953867 -0.094621345 -0.04361397 0.062889084 -0.09300045

encoder.0.bias f4 [20]
00000000: de70 ad3e 0f43 f8bc d352 d63c 9c29 393e
00000010: a9e3 293e 03b9 b33d 324a 583d 7adc 263e
00000020: 1d73 333d 8a62 523e be74 ccbd eadb a43e
00000030: 7750 fb3d 67a2 a7bd 6da5 253e 337a 523d
00000040: 9b99 a13d 7b16 f13c bc96 843d a09c b7bd
0.33875173 -0.030305414 0.02616254 0.18082279 0.16590752 0.087755226 0.052805133 0.16295043
0.043810952 0.20545402 -0.09983204 0.3219903 0.12271207 -0.08185273 0.16176386 0.05138607
0.07890626 0.029429665 0.06474063 -0.08965421

encoder.2.weight f4 [10, 20]
00000000: 8e3c 17bf a044 0f3e f10e 19be 4318 f3be
00000010: 3019 0b3c 1857 123e bd52 12bb 3aba b53e
00000020: d12a 353e b828 d5bc 4ded 2e3e 8e87 d13e
00000030: de8e d43d 6d0b f2bd a961 093e c803 1f3d
00000040: 4965 b23e fa08 2dbf f28f 6a3c 58e4 bfbc
00000050: a05d 64bd 6332 5b3c 48fe 05be 693a a63e
00000060: d125 1b3e d23c 4fbe 6d4b 3dbd 2a31 3e3f
00000070: f938 263e 5125 ffbd aeb2 933c 7496 43be
00000080: f54a 1cbe 68c2 113e 1aef 80be dfe9 55bc
00000090: b93f 02bf c449 143e a625 61be 4e90 283e
000000a0: a504 fbbd 597c c1bc aedd 43be 8b31 12bf
000000b0: ffc5 8ebe 4f58 8abe e9e7 273e 3ba2 24be
000000c0: 0007 693d 801d f5bb e233 5a3c d87f c9be
000000d0: 2464 84bc db63 4a3e e26b 27be ee7f 91be
000000e0: d9a0 82bd e7d3 50be 868a 8cbe 9453 593e
000000f0: db6e 673e 1606 493d 1960 493e 707d 483e
00000100: bf43 373e f859 a7be 2b5c 283e 4696 8d3e
00000110: a31f 103e deb5 993b 82b4 0abe 4568 c13d
00000120: 7d4d c2be 4ef4 c0bb aa3f 75be 3e3c afbe
00000130: 923f 7f3e 9194 d9bd 1e49 a4be 2e65 5f3e
00000140: 0ba4 aa3e 006c 34bd 6ef6 a23d 8c4c b33e
00000150: 930d 8bbe b58f 3bbe 0dd6 47be fad4 573e
00000160: e3b1 94bc b5bc ca3e 7c59 bf3c 53eb b93c
00000170: 4be7 4c3e 299d 593e b174 173e 9ecd 15bf
00000180: 9469 0f3e 44dc 62be 8a68 31be 8649 913d
00000190: eda0 893e a7ab 66be 68fa b5bd bfac 5b3e
000001a0: f61a a8bd 6b3c acbe 67ac 6cbd 2b49 9bbe
000001b0: ed28 353e f969 033f 8021 20bc e3a4 463e
000001c0: 06e4 84be 845c 113e 33d0 8cbe c43d 2a3e
000001d0: 0c6b a3be 0812 b7be befa d1bd 19f6 933d
000001e0: 6f1b 473f 7351 313e d676 9b3d f842 fbbe
000001f0: 4b14 813c 9bad fa3d 1db0 07be ea25 05be
00000200: f814 583e e2c1 00bf dffd 06bd 0ce5 cf3e
00000210: 342d 803c b500 5b3e 6a14 923d 1992 78be
00000220: a7ed acbe fc8f 8bbe d9b9 92be 42b2 283e
00000230: 3049 c23d e735 38be f67c 42bc 7872 74be
00000240: 4428 4f3e 42b3 a03e 5cca 0bbe 0889 b8bb
00000250: 0e77 09be a899 c03e c867 593e ecd2 44be
00000260: 1bda f7bd 0407 75bd 2046 babe 9334 aebe
00000270: a546 19be 30bf 093e ddc2 4d3e e823 133b
00000280: 5fef 42be fffa b0bd 0320 4cba ec14 64be
00000290: f7e7 63be 27e5 4a3e 09a7 88bd a023 e53e
000002a0: d44e 3bbe 0633 793e 7688 853d 695c 163f
000002b0: 6dc7 313e 8a5c 0d3e 4b08 5a3e cac2 a5be
000002c0: febd 1dbe 4011 4dbc c687 5f3d 5f88 c73d
000002d0: 4711 923c b7c3 54be 3b92 8cbd 4c10 79be
000002e0: f792 a2be b35b 0bbe b2c3 5e3d 8e88 03be
000002f0: eea0 58be f6bd 0b3d 6fd5 1abb 943b b93e
00000300: 4a0a cbbe 4257 433e 4169 5b3c 7164 d9bd
00000310: df37 a33d e487 643f 8628 cbbe 23e7 9fbc
-0.59076774 0.13991022 -0.14947106 -0.47479448 0.008489892 0.14291036 -0.0022327148 0.35493642
0.17692114 -0.026020393 0.1708271 0.40923733 0.10378812 -0.118185855 0.1341616 0.038821965
0.348429 -0.6759182 0.014316546 -0.023424312 -0.05575335 0.013378712 -0.13085282 0.32466438
0.15151145 -0.20238045 -0.04621451 0.7429377 0.16232671 -0.124582894 0.018029537 -0.19100362
-0.15262969 0.14234316 -0.2518242 -0.0130562475 -0.50878483 0.14481264 -0.21987018 0.16461298
-0.12256745 -0.023618864 -0.19127533 -0.57106847 -0.27885434 -0.270205 0.1639706 -0.16077511
0.05689144 -0.0074803233 0.013318034 -0.3935535 -0.016161032 0.19764654 -0.16349748 -0.28417915
-0.063783355 -0.20393334 -0.27449435 0.21223289 0.22600882 0.04907807 0.19665565 0.195791
0.17896937 -0.32685828 0.1644141 0.27653712 0.14074568 0.0046908697 -0.13545421 0.09443716
-0.37949744 -0.0058884984 -0.23950067 -0.3422565 0.24926594 -0.1062404 -0.32087034 0.2181594
0.3332828 -0.04404831 0.07957159 0.35019338 -0.27158794 -0.18316539 -0.19515248 0.21077338
-0.01815123 0.39597097 0.0233581 0.02269522 0.20010106 0.21251358 0.14790608 -0.5851687
0.14005119 -0.22154337 -0.17325035 0.070941016 0.2688059 -0.22526418 -0.08885652 0.21452616
-0.082082674 -0.33639845 -0.057781603 -0.3032926 0.17691393 0.51333576 -0.009773612 0.19398837
-0.25955218 0.14195448 -0.27502593 0.16625124 -0.31917608 -0.35755944 -0.102529034 0.07224674
0.77776235 0.17316227 0.075910255 -0.4907453 0.015756747 0.12240144 -0.13250776 -0.13002744
0.21101749 -0.5029584 -0.032956954 0.40604436 0.015646555 0.21386988 0.071328 -0.24274482
-0.33775064 -0.2725829 -0.28657416 0.1647425 0.09486616 -0.17989312 -0.011870613 -0.23871791
0.20230204 0.31386763 -0.13651413 -0.00563157 -0.13424322 0.3761723 0.21230996 -0.19221085
-0.12102147 -0.059821144 -0.36381626 -0.34024486 -0.14968355 0.13451838 0.20093866 0.0022451822
-0.19036625 -0.08641624 -0.00077867525 -0.22273606 -0.22256456 0.19813977 -0.066724844 0.44753742
-0.1829179 0.2433587 0.065201685 0.58734757 0.17361231 0.13804832 0.21292226 -0.32375175
-0.15404508 -0.01251632 0.054572843 0.097428076 0.017830504 -0.20777784 -0.06863829 -0.24322623
-0.3175275 -0.13609199 0.05438585 -0.1284506 -0.2115514 0.034116708 -0.0023625751 0.36178267
-0.39656287 0.19076255 0.013391794 -0.10614861 0.07969641 0.8926985 -0.39679354 -0.019519394

encoder.2.bias f4 [10]
00000000: 4e5e 72bd 0fa6 4bbd 512b 60be 2324 d63c
00000010: f8a7 51be 435e 3b3e d74f eebd 864f 48bd
00000020: 1265 e63d 550f 95be
-0.059171967 -0.049718913 -0.21891524 0.026140278 -0.20474231 0.18297677 -0.11636322 -0.048903964
0.112497464 -0.2911326

decoder.0.weight f4 [20, 10]
00000000: 11c4 a93e 4bdb ecbd af9a b2be 3bf3 22be
00000010: 3001 2a3e 57f7 8abe 02c9 a93e 81e6 99be
00000020: 0bc1 923e 4609 ccbd dbe3 a13e aa08 9f3c
00000030: 41e5 803e f8e3 bcbb 70a5 6d3e 8af1 603e
00000040: 984a 8c3e ebbe 993e 6ef6 803e e1b1 9ebe
00000050: 0d05 9fbe 05f9 8a3e 64d3 bcbe adea 993e
00000060: fb33 073f 6f01 56bd 25a3 fbbe e560 c2be
00000070: c242 64be fd2b 81be 8a2b e23e c37a 10be
00000080: 6f28 c1be c0c1 88bd 6373 d2be 482f 083d
00000090: 8219 48be fde0 66be 2c1d 25be 65b8 a6be
000000a0: 6582 98be d394 e8be 5df3 8bbe e760 20bf
000000b0: 994d 0cbe 1d88 88be cd9a aebd d441 e7bc
000000c0: d3bc ffbd f00a 063e 48ef 89bd d656 533c
000000d0: 011b 413e 070d bdbd 5b54 893e 48fd 2ebe
000000e0: edd0 05be 0703 1abe fefa 59bc 509f 7bbc
000000f0: 39b9 30be 098f 60be fc81 5c3e bdb4 303e
00000100: c37e 623e 366f 7b3e 70ea 803d e454 4abe
00000110: 928d 95be 964c eb3d d7bd 053e 97e1 6b3c
00000120: f9f0 6e3e 354b 953e f028 523e e64a 863d
00000130: 1554 cfbd 7fdf 8b3d f893 283e d35e 003d
00000140: 9559 5fbe 0ece a7bd 7a37 fe3d 311f 9b3c
00000150: b518 54be a044 d53d b733 123d ccf4 6e3e
00000160: 1550 12be 360a 213e e4aa f63d f96d 303e
00000170: 75dd f8bb 8214 ddbd 0dd8 b9bd 7f8f 733e
00000180: 1356 483e dca7 4d3e de4b 70bd ae79 823e
00000190: 20ce d9be e977 0dbe c345 203e 7191 a1be
000001a0: f7df 883e 0df2 393f 2a66 12bd 6a58 e33c
000001b0: 9383 753e bc7b cdbe 7c37 03bb 8ffb 833e
000001c0: 12e5 eebd 048b b2bd 34c3 41be d760 b13e
000001d0: 32db cbbd 1ead 9abe 4007 e43e 9ea4 ad3e
000001e0: 4f45 d7bc b3f4 36bf a952 24be 1b6e 153f
000001f0: 6a41 cd3e 3993 1a3f d0a1 45be baa7 ac3e
00000200: 050d b53d caf8 12b8 36bd 9e3e eb48 31be
00000210: daa4 c73d d670 213d 217f 8b3d 63b9 f1bd
00000220: f784 8dbe 6ccd 93bd aec5 31be c8df ed3d
00000230: c175 9a3b aea1 8c3d dbab 983e 9b6e a2bd
00000240: 23e2 ad3d 456b 533e 33b4 0fbe 18a4 d3bd
00000250: 4b0e b53c 2fa9 50be 529c 1bbe 4d37 7e3c
00000260: ccf8 afbe da91 0a3f e23c f5bd ec40 bd3d
00000270: 1fdb ab3e 06fc 6d3e 54a9 2bbe bd75 50bd
00000280: 914e 84be 590b 763e 8715 923e 87ab 4d3e
00000290: 4b9e 37be 99a4 373d 9901 0cbe f9ad 55be
000002a0: 4b47 3fbe c1c9 113e 5aba 05be 677b babc
000002b0: d7d0 6d3e 5ca8 5ebe bf15 99be 9dd7 713e
000002c0: d19e 143e df55 da3d 66cf 263d 5a23 923e
000002d0: 1808 a6bc cc4b 91bd 2440 933e 924b db3d
000002e0: dcdc 6c3e 2290 2e3e db03 52be c0dd dbbd
000002f0: 08de c73d a2d1 04bd 729e 30bd d94f 053e
00000300: 46ee 39be 5d74 853d 6fbb 0e3e 8a92 c8bd
00000310: 8156 bebe c94c 033f 09d3 b23e 500b 8cbd
0.331574 -0.11565264 -0.3488364 -0.15913098 0.16602015 -0.2714183 0.3316117 -0.30058673
0.28662905 -0.09962706 0.31619152 0.019413311 0.25174907 -0.0057644807 0.2320764 0.2196714
0.2740066 0.3002847 0.2518801 -0.30995086 -0.3105854 0.27143112 -0.36880028 0.30061856
0.5281369 -0.05224746 -0.49147907 -0.3796455 -0.22291091 -0.25228873 0.44173843 -0.1410933
-0.3772616 -0.0667758 -0.41103658 0.033248216 -0.1954098 -0.22546764 -0.1612441 -0.32562557
-0.29786983 -0.45426044 -0.2733411 -0.6264786 -0.13701476 -0.26666346 -0.0852562 -0.028229631
-0.12487187 0.1309011 -0.067350924 0.012899121 0.18857957 -0.092310004 0.2682217 -0.17088807
-0.1306798 -0.15040217 -0.01330447 -0.015357807 -0.17258157 -0.21929564 0.2153396 0.17256446
0.22118668 0.24554142 0.062947154 -0.19758946 -0.29209572 0.11489217 0.130607 0.0143970465
0.23334111 0.2915894 0.20523429 0.065572545 -0.10123459 0.06829738 0.16462696 0.03134043
-0.21811517 -0.08193599 0.12412925 0.018935772 -0.2071255 0.1041348 0.03569385 0.2333557
-0.14288361 0.15726551 0.120443135 0.17229451 -0.007594759 -0.10794927 -0.090744115 0.23785208
0.19564085 0.20083565 -0.058666103 0.2548346 -0.42540073 -0.13815273 0.15651612 -0.31556275
0.26733372 0.72634965 -0.035741962 0.02775212 0.23975973 -0.40133464 -0.0020022085 0.2577786
-0.116647854 -0.087179214 -0.1892212 0.34644195 -0.099539176 -0.30210203 0.4453678 0.33914655
-0.026278166 -0.7146713 -0.16047157 0.5837113 0.4008897 0.60380894 -0.19300008 0.33721715
0.08840374 -3.5040815e-05 0.3100373 -0.17312972 0.0974824 0.03941425 0.06811357 -0.11802938
-0.27640507 -0.072169155 -0.17360565 0.116149485 0.0047137444 0.068667755 0.29818615 -0.079312526
0.08490398 0.20646389 -0.14033584 -0.10334033 0.022101542 -0.20377038 -0.1519635 0.015516114
-0.34369504 0.541288 -0.11974503 0.092408985 0.33565614 0.2324067 -0.16763812 -0.050893534
-0.2584119 0.24027766 0.2853205 0.20084964 -0.17931478 0.044834707 -0.13672484 -0.20867147
-0.1867954 0.1423712 -0.13059369 -0.022763921 0.23224197 -0.21743912 -0.29899403 0.23617406
0.14513709 0.1066091 0.040725134 0.28542596 -0.020267531 -0.07094535 0.28759873 0.10707773
0.23131126 0.1704717 -0.20509283 -0.10735655 0.09759146 -0.032426484 -0.043119855 0.1301874
-0.181573 0.06516335 0.13938688 -0.09793575 -0.37175372 0.5128904 0.34926632 -0.06838095

decoder.0.bias f4 [20]
00000000: cd32 933d 7817 9fbe 95c9 aabe 0775 7b3d
00000010: 8340 a63a 56eb c6bd b4d6 42be 349a 11be
00000020: 1bed 8bbe 0cb7 c3bc 0223 b03c 4241 1c3d
00000030: f94b 9b3d b851 7dbe 4ee5 36be ea75 df3d
00000040: 6148 8ebd 87fe 23be 1ce7 32be 424c d23d
0.07187424 -0.31072593 -0.3335692 0.061390903 0.0012684021 -0.097128555 -0.19027215 -0.1421898
-0.27329335 -0.023890994 0.021501068 0.038148172 0.0758285 -0.24738204 -0.1786091 0.10911162
-0.06947399 -0.16015063 -0.17470974 0.10268451

decoder.2.weight f4 [99, 20]
00000000: 4821 de3d b87f 9f3c d62d 003f b69b e1bd
00000010: 4611 f9bd 7dff 0d3e 73f4 e1bd 8cbd 97bd
00000020: f93b c1bd 4c87 5f3e c9e1 a43e 6fd6 78bd
00000030: 0505 9a3d 9717 1c3e acd8 45bd 549e 883d
00000040: c43d b2bd aaa2 31bd 94d7 29bd 9cdf f7ba
00000050: dc50 63be cacc 33bd dec2 9fbe 566d 22be
00000060: 4856 d43e daa6 fd3c b30d a9bd 60e2 d73d
00000070: 11a8 9d3d 9576 3cbe b0cc 173b a07f 0f3f
00000080: 1452 acba 52e4 1b3e 48a4 83bd f789 a93e
00000090: 0b37 c23d 5395 273e 8334 083c adb5 f83d
000000a0: de11 cdbe 7403 443e a069 143d 5001 e03e
000000b0: 4caf bf3d 0032 d9bd ead6 3e3e bc44 0f3e
000000c0: f6fa 9d3c 281e 80bd cae2 3dbe 6f07 8bbe
000000d0: 5533 b83d ef0e f1bd f1cf 373e f1b8 163f
000000e0: cc01 b3bd 0acf 683c d6c5 6dbe 697f 28be
000000f0: 4dd3 643d 5929 3c3d ed6d 46bd daef 0abe
00000100: 5ce0 fc3d a174 34be 052e 2fbd cccb 5abe
00000110: 4cad 99bd ed8d 41bc 83c2 cb3b 9608 a0bc
00000120: 8283 b4bd efa3 b8bd d136 f0bd 59f0 683d
00000130: 2544 e4bd 04f7 163e 161e 803d a686 963e
00000140: 8f3d 90bd cd44 14be 66e5 6c3a fcde 933d
00000150: 6a94 b03c c8d4 29bd dc18 6cbd 1dc0 33be
00000160: 2bbc 08be b583 1fbe f681 aebd 186b 28bd
00000170: 2664 b33d a83d 083e ac93 3b3d eb61 9a3c
00000180: d391 01bd 9477 d13d ad05 5abe cfe9 29bd
00000190: 32b9 263c 1d0e c6bc cc47 ebba 081b f9bb
000001a0: 8bce a43a f7a2 3a3d 81da fbbd 28c8 ec3d
000001b0: c311 463d 57e0 2b3d 3346 ec3b 9a66 bcbb
000001c0: 2188 c2bb 9eef 13be 0a7b 81bd 877e 883b
000001d0: 4594 b2bd 85da 3a3e 2173 a63d 08ae f03c
000001e0: b8a2 94b9 1897 563e d077 0039 b6fe b63a
000001f0: 12bb ef3a acc1 403d 7055 06bd 40b5 7e3d
00000200: ff7a f13d dcff 273e 0047 b035 e8d3 8dbb
00000210: 23d2 343b b52e e6bc ae86 20be e831 013b
00000220: 5a3c 06be b29b ebbd a47a f43d 00f2 453b
00000230: 3a37 9d39 8fd8 0bbe 7840 1cba 7c7f de39
00000240: a82a 33b9 bf9d 24be 5812 a53d df81 7bbd
00000250: f721 9abd 15cf 57be 2878 313a 1fdd b6b9
00000260: e652 8db9 d288 20be 780d fb3d 4594 9f3a
00000270: 420c c93d ab0f 7cbd 49ab 9e3d e6ea f13a
00000280: c29a f239 ca2b e83d 9fb6 b1b8 7e06 7139
00000290: 2a16 1939 57b3 1ebe b9fd 193e ba89 20bd
000002a0: 9ef9 263e aa8f d43c 5ea5 263a 5d5b 38b9
000002b0: 84a1 0b39 fbd4 19be 55eb fdbc 8b4b f539
000002c0: c8f7 523e 0673 46be 7687 89bc e6f6 603a
000002d0: 1bb5 7238 8eb3 43be 4526 19b9 490b b838
000002e0: 579f a0b6 cd33 6abd 9201 f73d 91f4 88bd
000002f0: 3de5 633d 7683 5abe ba3d e638 fc56 58b7
00000300: e8a6 4538 fff5 4ebe a2f8 eabd d385 1239
00000310: 56d8 e6bd dcf1 fcbd 59a3 103e 33d8 9c39
00000320: 9c40 29b7 17fb 0dbe 9e1f 40b8 cee9 8237
00000330: e268 b5b7 86d9 b7bd 8d10 18be 0c19 41be
00000340: bb3b 46be 4525 bd3c d887 a0b7 5e63 88b8
00000350: 3893 8336 e998 13be 437f 563d 0054 ee35
00000360: cf18 b8bd 59e0 92bd 918c 62be e05e 9038
00000370: 0505 e4bc ea51 333c 7262 02bd 8e40 aa3b
00000380: 2a9e 2c3d 781b 42bd ff83 dc3c d53d ca3d
00000390: bb69 0fbe 3cfc 69bb e668 173d 1711 d33d
000003a0: b412 bd3b d5c5 ccbd 673a 373e 5c06 9d3c
000003b0: a035 3cbe 54bd a33a beb3 b53d f1c7 2fbd
000003c0: a4ee 24be 7486 f33d 0545 ee3e 255b 833e
000003d0: 4472 793d f310 903d 9a32 2e3e afa0 a5bd
000003e0: b215 0bbe f68b fb3d 9381 ca3d 4346 f9bd
000003f0: 6af4 43be e4a7 1bbe 5539 673d 0445 0e3f
0.10846192 0.01947008 0.5006994 -0.11016028 -0.12161498 0.13866992 -0.11032953 -0.074092
-0.09435267 0.21828955 0.3220351 -0.060751375 0.07520489 0.15243374 -0.048302338 0.06670824
-0.08703187 -0.04336802 -0.041465357 -0.0018911245 -0.22198814 -0.043896474 -0.3120336 -0.15862021
0.41472077 0.03096335 -0.08254566 0.105412245 0.07698072 -0.1840461 0.0023162775 0.56054115
-0.001314702 0.15223816 -0.064278185 0.3311307 0.09483155 0.16365556 0.008313301 0.12144027
-0.40052694 0.19141942 0.036233544 0.43751 0.09359607 -0.1060524 0.1863667 0.13991064
0.019284707 -0.06255752 -0.18543544 -0.2715411 0.08994166 -0.117704265 0.17950417 0.5887595
-0.08740577 0.014209518 -0.2322 -0.16454853 0.055865575 0.04593787 -0.048444677 -0.13568059
0.12347481 -0.17622615 -0.042768497 -0.21366805 -0.07503757 -0.011813623 0.006218256 -0.019535344
-0.088141456 -0.09015643 -0.117292054 0.05686984 -0.1114581 0.14742666 0.062557384 0.29399604
-0.07042991 -0.1447937 0.00090368686 0.07220265 0.021555144 -0.04146269 -0.057640895 -0.17553754
-0.1335303 -0.15577586 -0.08520882 -0.041117758 0.08759336 0.1330477 0.045795128 0.018845519
-0.03163321 0.10227886 -0.21291228 -0.041482743 0.01017599 -0.024176652 -0.0017950474 -0.0076020993
0.0012573762 0.04556557 -0.12297536 0.11561614 0.048356783 0.041961994 0.007210517 -0.0057495357
-0.005936638 -0.14446875 -0.06322296 0.004165474 -0.087196864 0.18247421 0.08127428 0.02937986
-0.00028349995 0.20956075 0.00012251665 0.0013961408 0.0018290004 0.0470597 -0.032796323 0.062184572
0.11791038 0.16406196 1.3133686e-06 -0.0043282397 0.0027591072 -0.028098444 -0.15676376 0.0019713584
-0.1310896 -0.11504306 0.11937454 0.0030204058 0.0002998652 -0.1365683 -0.00059605343 0.00042438123
-0.00017086661 -0.160758 0.080601394 -0.06140315 -0.075260095 -0.2107509 0.0006769919 -0.00034878493
-0.0002695538 -0.15677193 0.12258428 0.0012174925 0.09816791 -0.06153838 0.07747514 0.0018456846
0.0004627314 0.11336477 -8.4740335e-05 0.0002298597 0.00014599474 -0.154981 0.15038194 -0.039193846
0.16306159 0.02594741 0.0006357039 -0.00017581643 0.00013316242 -0.15022652 -0.030996004 0.00046786325
0.20602334 -0.19379815 -0.016788226 0.00085817126 5.7865964e-05 -0.19111463 -0.00014605474 8.775906e-05
-4.786921e-06 -0.057178307 0.120608464 -0.06687272 0.05563854 -0.21339211 0.00010978752 -1.2894856e-05
4.7123904e-05 -0.20211028 -0.11473204 0.00013973498 -0.112717316 -0.123508185 0.14124812 0.0002991572
-1.0088228e-05 -0.13865314 -4.5805813e-05 1.5606081e-05 -2.1625721e-05 -0.08977036 -0.14850064 -0.18857211
-0.19358723 0.02308906 -1.9136744e-05 -6.503494e-05 3.9212428e-06 -0.144138 0.05236746 1.7756829e-06
-0.08989107 -0.07171697 -0.22123934 6.884127e-05 -0.027834425 0.010944823 -0.031832166 0.005195684
0.042143025 -0.047389477 0.02691841 0.09875075 -0.14005177 -0.0035703322 0.036965273 0.10305994
0.005770052 -0.09998671 0.17893372 0.019168071 -0.18379831 0.0012492337 0.08872174 -0.04291529
-0.16106659 0.11890879 0.46537033 0.25655475 0.060899988 0.07034483 0.1701149 -0.080872886
-0.13582495 0.12282555 0.098879956 -0.121716045 -0.19136205 -0.15200764 0.05645116 0.5557406

decoder.2.bias f4 [99]
00000000: f9ff a3bc c7d6 dfbc 1859 a5bd a9a8 81bd
00000010: 5a63 cd3a 4621 2bbc 9539 c4ba 1f08 91ba
00000020: a8d3 f1b9 7da3 82b9 3431 a1b8 577f c3bb
00000030: 84ee 31be 4468 a8bd 2949 1dbc 74c9 9bbc
00000040: 1942 deb8 a8b5 edba f4e0 7cba e4ce afb9
00000050: d080 ecb8 3536 85b8 0954 4f3e 9e88 5f3f
00000060: d6d2 673e b128 2f3e 7f0a 5f3b 20d5 843b
00000070: be4c c9ba adaa 14ba 0a75 9bb9 cd1e 0fb9
00000080: 9191 01b8 b9b3 bc3e eb73 4d3e 324b b13e
00000090: 281e 90bd 80b7 d5bd 1952 0dbd a0b7 84bc
000000a0: 1c10 02bc 8073 69bb 0ea2 afba 9300 12ba
000000b0: 7c6c beba c893 743d ee2f cb3d e667 f5bc
000000c0: e4e7 55bc 3a1e 01bc f97c 52bb 2ea7 baba
000000d0: 8090 01ba 0f5c 68b9 d24c c2b8 6b57 f93c
000000e0: b5c4 283e 6011 043e ffb3 0d3d 4d84 cdbb
000000f0: b9bc b5ba a6dd a2ba 6ebb 12ba bdc8 90b9
00000100: f00a c5b8 e5a1 10b8 c45c 33b7 e0e6 843b
00000110: a684 9b3c 1a75 2d3c 2783 a23b 6e84 9c3a
00000120: 4815 3839 2777 8438 6260 49b7 f6fc 8537
00000130: 685b f2b3 2a8c 80bd 2826 303d a6b1 e83b
00000140: 87ce 723c e565 333b 50fe bc3a 644b e039
00000150: aa64 a438 1c78 e937 fc29 49b6 fe8f b436
00000160: b771 893d e4da 49be 6caa a83e 2ce9 6bbe
00000170: 7526 c4bd 88e4 1ebd 3f02 3dbc 56af d7bb
00000180: 920a 4bbb cb12 a0ba 05a9 03ba
-0.020019518 -0.027324094 -0.08073634 -0.063309975 0.0015669868 -0.010444945 -0.0014970774 -0.0011065042
-0.00046124798 -0.0002491734 -7.686243e-05 -0.005966108 -0.17376143 -0.08223012 -0.009599962 -0.019016959
-0.000105980966 -0.0018135803 -0.0009646558 -0.00033532747 -0.0001127735 -6.352031e-05 0.202469 0.87317836
0.22639021 0.17105366 0.0034033356 0.004053727 -0.0015357954 -0.00056711846 -0.00029651105 -0.00013649017
-3.0891566e-05 0.36855868 0.2006375 0.34627682 -0.07037002 -0.104353905 -0.034502123 -0.01620084
-0.007938411 -0.0035621822 -0.0013399736 -0.00055695436 -0.001452818 0.059711248 0.09921251 -0.02995677
-0.013055775 -0.007880742 -0.0032117947 -0.0014240497 -0.00049424917 -0.00022159539 -9.26495e-05 0.030437192
0.16481288 0.12897253 0.034595486 -0.006271875 -0.0013865448 -0.0012425676 -0.0005597387 -0.00027615382
-9.395729e-05 -3.448305e-05 -1.069083e-05 0.0040558428 0.01898415 0.010587001 0.0049594822 0.0011941323
0.00017555535 6.316444e-05 -1.20029745e-05 1.597263e-05 -1.128563e-07 -0.06276734 0.04300514 0.0071012555
0.014819748 0.0027373966 0.0014419053 0.0004278078 7.8388795e-05 2.7831695e-05 -2.9975772e-06 5.381181e-06
0.067111425 -0.19712406 0.32942522 -0.23038167 -0.095776476 -0.038792163 -0.01153618 -0.006582181
-0.0030981642 -0.0012212632 -0.0005022439
