ckpt/MAP_CAM/5/best_loss_BEST4.ckpt (torch, 204256 bytes, 19 tensors)

classifier.0.weight f4 [160, 54]
-0.001957299 -0.350763 -0.03977949 0.02994596 -0.08728322 0.21690604 0.20112015 -0.009874529
-0.023886265 0.20489314 -0.025509847 -0.05417639 -0.38217917 -0.10086759 -0.008904688 0.2528695
-0.36875558 0.11227783 -0.124645896 -0.25348997 0.118611485 0.027768323 -0.054690026 0.03496524
0.2715581 0.2101124 -0.10680528 -0.20849927 -0.67969614 -0.06288835 0.40323272 0.1469837
-0.056968365 -0.4241246 -0.08562606 -0.54932964 -0.011747092 0.14291604 0.15945077 -0.021141712
0.41116232 -0.16453601 -0.13862973 -0.10476912 -0.1380623 0.089468695 -0.70105743 -0.53273433
-0.19208142 -0.03019277 0.17930727 -0.24379049 0.1572333 0.040479787 0.100261636 0.09480322
-0.073823966 0.23926245 0.5085583 -0.25770986 0.38582572 -0.07189112 0.13384995 0.090435006
0.25786304 0.39448377 0.14458612 -0.08231783 -0.27585068 -0.032533392 0.5064759 0.256757
0.0680955 0.29698917 -0.21678686 -0.122611366 0.111363426 -0.12416087 -0.50833017 0.11683125
-0.24601181 -0.3239217 0.22978699 -0.19036081 -0.2193259 -0.28300422 0.12402546 -0.03310239
-0.082301095 0.21557376 0.04416236 0.0024033668 0.12598623 -0.1024305 -0.22780238 0.32611176
-0.1406617 0.10022486 0.021523766 -0.17818 0.3269524 2.0943198 0.07263626 0.023659406
-0.08735922 0.16673216 0.038241565 0.10382943 0.020383772 0.17389004 0.054374114 -0.10380934
0.054184824 0.21838503 0.02922347 -0.045981545 -0.023031028 -0.060159117 0.04721971 -0.04918547
-0.008758002 -0.015941272 -0.056697298 -0.07312189 0.36169255 -0.2767341 0.007443175 0.043971665
0.011663833 0.10509358 0.06999784 0.17172612 -0.8390032 0.1544853 -0.04372739 -0.22733332
0.70433325 -1.7143432 -0.014060849 -0.087328754 -0.042260747 0.062562555 -0.048368264 -0.35117555
-0.028883064 0.08198386 0.2718581 -0.29287025 -0.101355456 -0.1877191 0.037172873 -0.45895857
0.16501974 0.005276081 -0.32342163 -1.9444824 0.015408551 0.10400929 -0.12837036 -0.21500707
-0.11448451 0.11193789 0.18237256 -0.13197072 0.19485614 -0.22959913 -0.19956116 -0.13083756
0.12933563 0.1391357 0.28937408 -0.12176486 0.12359689 0.18188356 0.1109534 0.0072690146
0.058016356 0.15448442 -0.3227918 0.4096768 0.4196482 -0.16175747 -0.21448505 -0.17117785
-0.0823126 0.38797525 0.451598 0.043344833 -0.08112722 0.13019936 0.0053655654 0.18632971
-0.07006766 -0.25084233 -0.09785618 -0.24162082 0.14642596 -0.062258985 0.023132782 0.07835144
0.17044824 -0.18829504 0.18479621 0.57887113 0.14316475 0.16607809 -0.058998536 0.014524408
0.22756392 0.4422456 0.146054 -0.116594695 0.035375945 0.0032020635 -0.10580401 0.044412594
0.06419242 -0.27768618 0.028764307 -0.21616812 0.09428492 0.065858655 -0.21535262 -0.061966434
0.32012868 0.12313328 -0.19383249 -0.1806217 0.12972745 0.017338743 -0.0423127 -0.104402274
0.01987754 -0.2969817 -0.038778465 -0.12063492 0.0802962 0.24171384 0.21902229 0.038119286
0.39899692 -0.007282541 -0.06503871 0.11471677 0.07809002 -0.049150642 0.00010304042 0.07640059
0.051999193 -0.2230188 -0.0131918285 -0.061032254 0.020216981 -0.3108186 -0.0076486473 0.054115485
00000000: 0746 00bb 3597 b3be d2ef 22bd 3b51 f53c
00000010: 8bc1 b2bd 9e1c 5e3e 71f2 4d3e c7c8 21bc
00000020: 21ad c3bc 82cf 513e 07fa d0bc 10e8 5dbd
00000030: fdac c3be ab93 cebd f8e4 11bc 1c78 813e
00000040: 88cd bcbe ebf1 e53d 5946 ffbd 70c9 81be
00000050: 94ea f23d 657a e33c a602 60bd b637 0f3d
00000060: aa09 8b3e b427 573e babc dabd d580 55be
00000070: 9100 2ebf 9bcb 80bd 8574 ce3e e582 163e
00000080: a957 69bd dc26 d9be b75c afbd dea0 0cbf
00000090: e076 40bc 9558 123e 1047 233e 6231 adbc
000000a0: de83 d23e 217c 28be f4f4 0dbe 3191 d6bd
000000b0: 3460 0dbe 5d3b b73d 8078 33bf 4761 08bf
000000c0: feb0 44be d456 f7bc 539c 373e 37a4 79be
000000d0: c401 213e 22ce 253d f955 cd3d 3128 c23d
000000e0: 0531 97bd 3701 753e e030 023f 8cf2 83be
000000f0: f38a c53e a73b 93bd f60f 093e fd35 b93d
00000100: a006 843e c7f9 c93e 620e 143e 4096 a8bd
00000110: 4d3c 8dbe bc41 05bd 68a8 013f a775 833e
00000120: a775 8b3d f70e 983e 60fd 5dbe ab1b fbbd
00000130: 8212 e43d 0e48 febd ed21 02bf 3945 ef3d
00000140: 85ea 7bbe 11d9 a5be 484d 6b3e f2ed 42be
00000150: f896 60be eee5 90be 0f01 fe3d 5f96 07bd
00000160: 7a8d a8bd 5ebf 5c3e 97e3 343d ce81 1d3b
00000170: 8902 013e 15c7 d1bd 0745 69be 1ff8 a63e
00000180: 9f09 10be b142 cd3d 9c52 b03c d174 36be
00000190: 4e66 a73e 5609 0640 52c2 943d 5fd1 c13c
000001a0: 64e9 b2bd d6bb 2a3e 30a3 1c3d 86a4 d43d
000001b0: defb a63c 3b10 323e 64b7 5e3d fe99 d4bd
000001c0: e8f0 5d3d 53a0 5f3e 0f66 ef3c 2557 3cbd
000001d0: 91ab bcbc 6869 76bd 7469 413d b476 49bd
000001e0: b97d 0fbc 4597 82bc 6d3b 68bd eec0 95bd
000001f0: c42f b93e 18b0 8dbe e1e5 f33b a21b 343d
00000200: a919 3f3c 4e3b d73d 075b 8f3d f9d8 2f3e
00000210: eac8 56bf 6531 1e3e 7e1b 33bd 11ca 68be
00000220: 2f4f 343f 996f dbbf 7a5f 66bc 6bd9 b2bd
00000230: 9b19 2dbd cc20 803d cd1d 46bd 48cd b3be
00000240: 2d9c ecbc 27e7 a73d fc30 8b3e 17f3 95be
00000250: 7393 cfbd 7039 40be 9542 183d 9efc eabe
00000260: effa 283e fae2 ac3b 8597 a5be cde4 f8bf
00000270: 2674 7c3c d302 d53d 8573 03be d02a 5cbe
00000280: db76 eabd b13f e53d dfbf 3a3e 5523 07be
00000290: 5e88 473e 091c 6bbe c359 4cbe 48fa 05be
000002a0: 8f70 043e 9779 0e3e d728 943e db5f f9bd
000002b0: 5e20 fd3d af3f 3a3e 893b e33d ea30 ee3b
000002c0: 8fa2 6d3d 2a31 1e3e f844 a5be 28c1 d13e
000002d0: 21dc d63e c0a3 25be f8a1 5bbe 3f49 2fbe
000002e0: 8293 a8bd b1a4 c63e da37 e73e 5a8a 313d
000002f0: 0726 a6bd fb52 053e a0d1 af3b 37cd 3e3e
00000300: a27f 8fbd 686e 80be d268 c8bd 736b 77be
00000310: b0f0 153e 4703 7fbd f680 bd3c b876 a03d
00000320: fc89 2e3e 6ad0 40be 383b 3d3e e630 143f
00000330: c899 123e 6010 2a3e 73a8 71bd c8f7 6d3c
00000340: 8406 693e 046e e23e 2e8f 153e 33c9 eebd
00000350: 5ee6 103d b6d9 513b c6af d8bd fbe9 353d
00000360: 5177 833d e22c 8ebe 20a3 eb3c 2d5b 5dbe
00000370: 7418 c13d e7e0 863d 6685 5cbe 84d0 7dbd
00000380: e8e7 a33e 4d2d fc3d 067c 46be e5f4 38be
00000390: 46d7 043e fb09 8e3c 1550 2dbd dcd0 d5bd
000003a0: 39d6 a23c fc0d 98be 2bd6 1ebd 710f f7bd
000003b0: 5672 a43d d583 773e 6147 603e f822 1c3d
000003c0: 5349 cc3e 62a2 eebb 0433 85bd a0f0 ea3d
000003d0: a9ed 9f3d 2f52 49bd 6717 d838 ea77 9c3d
000003e0: 1bfd 543d 0a5f 64be 8a22 58bc f5fc 79bd
000003f0: 159e a53c 9e23 9fbe 81a1 fabb 33a8 5d3d

classifier.0.bias f4 [160]
0.1306307 -0.22578365 -0.19142874 -0.105365284 -0.16103646 -0.09643963 -0.30626222 -0.15656489
-0.07044511 -0.13322715 -0.17538083 0.027476814 0.23907165 -0.11598201 -0.094035424 -0.20048526
0.06708513 -0.052330874 0.06463556 0.014520079 -0.06365004 -0.0731313 -0.048601042 -0.42916343
-0.1641156 0.057105377 0.164375 0.19051066 -0.06673402 -0.03868356 0.09175281 -0.25251126
-0.2015559 0.051585626 -0.12233274 0.31452787 -0.27976546 0.07026974 0.04143486 0.1758305
-0.033222318 0.24532416 -0.04849299 -0.25399524 -0.049480613 -0.09044212 -0.088555366 0.17554685
-0.10772948 -0.033773314 -0.13064751 0.032375377 -0.14748886 -0.03251109 -0.032677274 -0.32881692
-0.05814582 0.18563199 0.14690652 0.16391668 -0.22515008 -0.04841636 0.19110008 0.04432405
0.036686923 -0.08233399 0.26589775 0.1499879 0.09433082 -0.15492915 0.008864414 0.0384202
-0.07214865 0.00026038318 -0.06333524 0.045727372 -0.15457428 -0.071893744 0.12673311 0.1168741
-0.28718 -0.17356966 -0.052475076 -0.050457906 -0.19251214 -0.10722675 0.18458308 -0.1701106
0.018494792 -0.05001232 0.246567 0.15751784 0.025083765 0.26631483 -0.008051996 -0.44058877
0.11998418 -0.1262465 -0.028157147 0.055007406 -0.16344728 0.2002831 -0.12504283 -0.08548181
-0.040150955 0.088941224 -0.16695648 0.08939264 0.3555746 0.06719248 0.021171968 -0.12737016
0.0049099703 0.030064944 0.263427 0.47919884 0.14406298 -0.31301248 0.2312384 -0.13983573
0.17896456 0.10552571 -0.040399075 0.07436732 0.13563919 -0.13519052 -0.16890554 -0.23274098
0.036559608 0.08160504 0.058926817 0.2549732 -0.042637933 -0.24683979 -0.016849054 -0.031885363
0.048147473 0.2306114 0.22760262 -0.12712984 0.18344733 0.21500953 -0.17278528 0.010705477
0.22219321 0.14717878 0.25234634 -0.10422395 -0.17275625 0.23365237 0.058490958 -0.123650335
0.14637445 -0.22193332 0.02949499 0.1980048 -0.17775999 0.08706219 -0.13695303 -0.047712293
00000000: 0ec4 053e d433 67be e505 44be c1c9 d7bd
00000010: bee6 24be 2482 c5bd 67ce 9cbe 8c52 20be
00000020: 8745 90bd b36c 08be 0897 33be 0e17 e13c
00000030: 33cf 743e fa87 edbd a595 c0bd 024c 4dbe
00000040: ee63 893d e658 56bd a65f 843d a0e5 6d3c
00000050: f45a 82bd ddc5 95bd e311 47bd 4fbb dbbe
00000060: eb0d 28be 54e7 693d ec51 283e 3a15 433e
00000070: d9ab 88bd a772 1ebd e6e8 bb3d 2849 81be
00000080: ab64 4ebe 734b 533d 9689 fabd cc09 a13e
00000090: 6b3d 8fbe 95e9 8f3d 9ab7 293d e90c 343e
000000a0: 2014 08bd 4236 7b3e 96a0 46bd aa0b 82be
000000b0: 2fac 4abd b839 b9bd 845c b5bd 8ec2 333e
000000c0: 46a1 dcbd e355 0abd 76c8 05be 0b9c 043d
000000d0: 5207 17be 592a 05bd 9bd8 05bd b15a a8be
000000e0: 502a 6ebd 5016 3e3e aa6e 163e c6d9 273e
000000f0: be8d 66be 3c50 46bd bdaf 433e 238d 353d
00000100: 0745 163d b99e a8bd c023 883e 6e96 193e
00000110: 8430 c13d bfa5 1ebe 0c3c 113c 805e 1d3d
00000120: acc2 93bd 0a84 8839 e8b5 81bd a04c 3b3d
00000130: b848 1ebe 073d 93bd 53c6 013e b05b ef3d
00000140: 4209 93be 3fbc 31be 1bf0 56bd f3ac 4ebd
00000150: e721 45be b399 dbbd 5903 3d3e 7931 2ebe
00000160: 6482 973c b8d9 4cbd 0f7c 7c3e 5b4c 213e
00000170: 787c cd3c 6b5a 883e 85ec 03bc da94 e1be
00000180: 44ba f53d c346 01be d1a9 e6bc 724f 613d
00000190: b95e 27be 0317 4d3e 3a0b 00be 1611 afbd
000001a0: 5475 24bd d126 b63d a4f6 2abe 7d13 b73d
000001b0: e00d b63e 369c 893d d670 ad3c 536d 02be
000001c0: d1e3 a03b c24a f63c e7df 863e 8d59 f53e
000001d0: 3f85 133e 2c43 a0be c2c9 6c3e 1931 0fbe
000001e0: 7c42 373e dd1d d83d 8079 25bd e54d 983d
000001f0: 00e5 0a3e 626f 0abe 93f5 2cbe a753 6ebe
00000200: 87bf 153d 8b20 a73d 3f5d 713d d98b 823e
00000210: 1da5 2ebd 92c3 7cbe 0707 8abc 3a9a 02bd
00000220: 4936 453d 6525 6c3e a910 693e 532e 02be
00000230: 9ed9 3b3e 752b 5c3e a0ee 30be 0666 2f3c
00000240: 9e86 633e 09b6 163e 8a33 813e 5e73 d5bd
00000250: 04e7 30be 9142 6f3e 3794 6f3d 633c fdbd
00000260: 2fe3 153e 7d42 63be 7a9f f13c c5c1 4a3e
00000270: b706 36be a94d b23d 6a3d 0cbe f76d 43bd

classifier.1.weight f4 [160]
0.82523996 0.8994028 0.938446 0.93374354 0.96307343 0.9947851 0.8607757 0.94474167
0.8798155 0.85146856 0.81873935 0.80625105 0.9853998 0.7585998 0.7190107 0.80968845
0.7413092 0.849411 0.9674912 0.828981 0.7397612 0.62691027 0.7783254 0.9040881
0.82718176 0.9951167 0.92480105 0.93934584 0.88949436 0.79144716 0.94031584 0.93528825
0.9669005 0.82772106 0.9674075 0.9508828 0.87079287 0.9603067 0.7906485 1.0068511
0.85565734 0.7693632 1.0276498 1.0256153 0.89765435 0.83977205 0.9341073 0.7232835
0.8125855 0.80197394 0.80514544 0.9620966 0.6304851 0.8778955 0.9520595 0.91724694
1.0430387 0.83521837 0.85464 0.94579345 0.874772 0.96632296 0.7314482 0.6944905
0.6313179 0.89963365 0.9393881 1.0110179 0.79092604 0.7055493 0.9594496 0.818469
0.84287477 0.85631007 0.91716254 0.88975114 0.6731269 0.7954406 0.7806767 0.97838104
0.93998563 0.88824266 0.8697384 0.90526575 0.96818376 0.8056195 0.9058306 0.8381513
0.7970836 0.8503374 0.67887557 0.7753263 0.7882284 0.85657626 1.0215085 0.86877036
0.8842437 0.86628795 0.91871613 0.79480165 0.84444654 0.76426303 0.7164156 0.89962757
0.8839532 0.99392724 0.94549906 0.905636 0.7759806 0.8310593 0.8753702 0.8554062
0.73871887 0.8316246 0.8609788 0.82429904 0.89824617 0.6918143 0.8931222 0.83611447
0.76363885 0.7433874 0.7098292 0.85584134 0.94822764 0.93647134 0.8686528 0.8887382
0.95527935 1.047729 0.71346647 0.8745762 0.88066775 1.0747721 0.9733585 0.8599977
0.66841096 0.7882972 0.83987105 0.79069656 0.8813369 0.86723685 0.7881381 0.86378026
0.893867 0.90167063 0.8504153 0.96151334 0.9294073 0.77303797 0.8521046 0.9036052
0.81888884 0.88734263 0.78038454 0.91670275 0.8981683 0.74856335 0.88669884 0.986466
00000000: ed42 533f 433f 663f ff3d 703f d109 6f3f
00000010: fb8b 763f 3caa 7e3f cc5b 5c3f 97da 713f
00000020: 973b 613f d8f9 593f e798 513f 7866 4e3f
00000030: 2943 7c3f 9933 423f 1611 383f be47 4f3f
00000040: 71c6 3d3f 0073 593f 81ad 773f 1938 543f
00000050: fd60 3d3f 317d 203f 5540 473f 5172 673f
00000060: 2fc2 533f f8bf 7e3f c3bf 6c3f f878 703f
00000070: e7b5 633f 489c 4a3f 8ab8 703f 0d6f 6f3f
00000080: cb86 773f 87e5 533f 05a8 773f 0e6d 733f
00000090: 48ec 5e3f a9d6 753f f167 4a3f 7fe0 803f
000000a0: 5c0c 5b3f fdf4 443f 078a 833f 5d47 833f
000000b0: adcc 653f 4dfb 563f a821 6f3f 1c29 393f
000000c0: 9a05 503f 2a4e 4d3f 031e 4e3f f64b 763f
000000d0: 7967 213f c2bd 603f 2cba 733f b2d0 6a3f
000000e0: 4b82 853f dfd0 553f b0c9 5a3f 851f 723f
000000f0: 0ff1 5f3f f160 773f 3040 3b3f 21ca 313f
00000100: 0d9e 213f 644e 663f bd7b 703f 0969 813f
00000110: 217a 4a3f e19e 343f 7d9e 753f 2f87 513f
00000120: a4c6 573f 2337 5b3f 2acb 6a3f bbc6 633f
00000130: 0b52 2c3f ffa1 4b3f 6eda 473f 2e77 7a3f
00000140: e6a2 703f df63 633f 2da7 5e3f 7fbf 673f
00000150: e4da 773f 143d 4e3f 84e4 673f 1591 563f
00000160: ac0d 4c3f b6af 593f caca 2d3f c97b 463f
00000170: 56c9 493f 9548 5b3f cac0 823f bc67 5e3f
00000180: cc5d 623f 0cc5 5d3f fb30 6b3f 1f78 4b3f
00000190: a62d 583f bea6 433f 0367 373f fe4d 663f
000001a0: c24a 623f 0472 7e3f 3a0c 723f c3d7 673f
000001b0: aaa6 463f 4dc0 543f 4318 603f e7fb 5a3f
000001c0: ae1c 3d3f 5ae5 543f 1b69 5c3f 4305 533f
000001d0: 76f3 653f be1a 313f a8a3 643f 990b 563f
000001e0: d67d 433f a34e 3e3f 5eb7 353f 6b18 5b3f
000001f0: 0cbf 723f 96bc 6f3f 0860 5e3f 5984 633f
00000200: 308d 743f fc1b 863f bda5 363f 3ae4 5f3f
00000210: 7173 613f 2292 893f 062e 793f cf28 5c3f
00000220: fb1c 2b3f d8cd 493f ca01 573f 176b 4a3f
00000230: 4c9f 613f 3c03 5e3f 6bc3 493f b420 5d3f
00000240: 78d4 643f e3d3 663f d1b4 593f bd25 763f
00000250: a3ed 6d3f d1e5 453f 8723 5a3f ac52 673f
00000260: b3a2 513f e328 633f 48c7 473f 08ad 6a3f
00000270: 5cee 653f d9a1 3f3f b2fe 623f 0989 7c3f

classifier.1.bias f4 [160]
-0.31604916 -0.66082 -0.6957055 -0.44599676 -0.37191424 -0.7340258 -0.45139936 -0.5195054
-0.47625464 -0.5072895 -0.45749417 -0.6008555 -0.5008944 -0.32687435 -0.39111194 -0.5504189
-0.5699329 -0.43074942 -0.5352354 -0.50753444 -0.3920622 -0.16806708 -0.4364691 -0.68420416
-0.44204828 -0.49712655 -0.30129173 -0.38770536 -0.45807374 -0.65711194 -0.5591262 -0.43083546
-0.55337894 -0.36181283 -0.4631882 -0.4950673 -0.34902692 -0.4956518 -0.56598794 -0.4357522
-0.7971826 -0.5745616 -0.6717599 -0.6651822 -0.4484368 -0.3245119 -0.57175446 -0.5542303
-0.3998038 -0.8028518 -0.31031364 -0.80830026 -0.12785958 -0.5728643 -0.5151294 -0.37779287
-0.5701705 -0.30285382 -0.50167114 -0.73350567 -0.50638276 -0.7495365 -0.32080927 -0.27995676
-0.32093093 -0.58635896 -0.4598373 -0.38003495 -0.14440612 -0.3360601 -0.6856874 -0.39582977
-0.43320605 -0.44353065 -0.6061807 -0.44971082 -0.41381723 -0.456579 -0.7529051 -0.56156665
-0.30152056 -0.39710835 -0.59066314 -0.68181413 -0.54341435 -0.59480953 -0.6955691 -0.45415536
-0.6005524 -0.43431872 -0.18688586 -0.38411292 -0.44794908 -0.38262624 -0.6882304 -0.76319593
-0.56658417 -0.4107889 -0.38225204 -0.28438747 -0.619964 -0.42952424 -0.45634395 -0.64453065
-0.53451043 -0.8101913 -0.66413784 -0.5618434 -0.33893052 -0.4793097 -0.4814207 -0.47281405
-0.31151477 -0.42691803 -0.7311691 -0.52141446 -0.4584014 -0.38819456 -0.6904553 -0.36947948
-0.24921939 -0.56380117 -0.50193506 -0.42253333 -0.48979074 -0.31324187 -0.42321017 -0.4684133
-0.7048226 -0.4651833 -0.41257596 -0.37116143 -0.6796499 -0.6225901 -0.4560962 -0.47605133
-0.25369632 -0.6380792 -0.5665353 -0.6051339 -0.39225632 -0.64047694 -0.47393256 -0.37448916
-0.46607092 -0.49873957 -0.7283721 -0.5538392 -0.45748952 -0.41131255 -0.64045835 -0.4538983
-0.69214267 -0.60098445 -0.2891 -0.6903353 -0.34255007 -0.5378437 -0.33066818 -0.867899
00000000: 32d1 a1be 802b 29bf c119 32bf b059 e4be
00000010: 8b6b bebe 1de9 3bbf d11d e7be 4efe 04bf
00000020: a6d7 f3be badd 01bf ad3c eabe abd1 19bf
00000030: 9e3a 00bf 135c a7be d33f c8be 41e8 0cbf
00000040: 1fe7 11bf 308b dcbe 3005 09bf c7ed 01bf
00000050: 60bc c8be c719 2cbe e178 dfbe 0128 2fbf
00000060: 2754 e2be 5f87 febe e942 9abe 5181 c6be
00000070: a488 eabe 7d38 28bf e522 0fbf 7796 dcbe
00000080: 3eaa 0dbf 883f b9be 0127 edbe 7679 fdbe
00000090: a8b3 b2be 13c6 fdbe 96e4 10bf ea1a dfbe
000000a0: 2914 4cbf 7816 13bf 75f8 2bbf 6149 2abf
000000b0: 8299 e5be 6c26 a6be 805e 12bf 09e2 0dbf
000000c0: 15b3 ccbe b287 4dbf 6ee1 9ebe c4ec 4ebf
000000d0: 9fed 02be 3ca7 12bf 85df 03bf 116e c1be
000000e0: b2f6 11bf a80f 9bbe 856d 00bf 07c7 3bbf
000000f0: 4da2 01bf a0e1 3fbf 1d41 a4be 7e56 8fbe
00000100: 0f51 a4be 9f1b 16bf cb6f ebbe f193 c2be
00000110: 33df 13be 1210 acbe 3689 2fbf 33aa cabe
00000120: 2fcd ddbe 7316 e3be a92e 1bbf 7f40 e6be
00000130: dadf d3be b9c4 e9be 63be 40bf d5c2 0fbf
00000140: e760 9abe c951 cbbe b335 17bf 5f8b 2ebf
00000150: 341d 0bbf 7045 18bf d110 32bf 0d87 e8be
00000160: cdbd 19bf 065f debe 025f 3fbe 73aa c4be
00000170: 9559 e5be 96e7 c3be de2f 30bf cf60 43bf
00000180: a90b 11bf ec52 d2be 8ab6 c3be 3c9b 91be
00000190: f6b5 1ebf 9aea dbbe eaa5 e9be f6ff 24bf
000001a0: add5 08bf b268 4fbf f004 2abf f8d4 0fbf
000001b0: 4d88 adbe 1568 f5be c67c f6be af14 f2be
000001c0: dd7e 9fbe 0095 dabe e62d 3bbf 6b7b 05bf
000001d0: 97b3 eabe 70c1 c6be aec1 30bf 6a2c bdbe
000001e0: 5e33 7fbe 4655 10bf d17e 00bf 4a56 d8be
000001f0: dac5 fabe 3d61 a0be 01af d8be ded3 efbe
00000200: 416f 34bf 812c eebe 283d d3be df08 bebe
00000210: 89fd 2dbf 1162 1fbf 7185 e9be 00bd f3be
00000220: 7ce4 81be 2959 23bf 7508 11bf 0eea 1abf
00000230: d2d5 c8be 4cf6 23bf 4aa7 f2be 0bbd bfbe
00000240: d9a0 eebe cb5a ffbe 9876 3abf 68c8 0dbf
00000250: 113c eabe 8f97 d2be 14f5 23bf 5c65 e8be
00000260: 4330 31bf 1eda 19bf ea04 94be d0b9 30bf
00000270: b962 afbe 20b0 09bf 574d a9be a12e 5ebf

classifier.1.running_mean f4 [160]
-0.10106701 -0.16966136 -0.18371773 -0.006104325 -0.09090382 0.038606316 -0.32665214 -0.49129686
0.33725902 -0.014078146 0.14953697 0.41157734 0.31709915 -0.24280754 -0.16025348 -0.1920514
0.03610784 0.14059383 -0.10171629 -0.18852833 -0.0019870999 -0.23340195 -0.076109216 -0.14137904
-0.051053975 0.16829103 0.33303252 0.07781262 -0.16186331 0.23350619 0.09493716 -0.056194995
-0.17486595 0.09677332 -0.23841734 0.4122975 -0.20812444 -0.22098905 0.033791546 0.21061765
0.26812634 0.40350989 0.29358605 -0.2670687 -0.076744005 -0.2659969 -0.037204564 0.28540567
0.017152304 0.06903579 -0.0876139 0.050486878 -0.33469307 0.054406166 -0.009394375 -0.4278457
-0.19004111 0.27367392 0.24947885 0.03422595 -0.09610196 -0.13554865 0.21827848 -0.33179942
-0.25098193 -0.19190061 0.28501973 0.10808084 -0.08535448 -0.23513402 0.18815151 -0.018992314
-0.09340701 0.16321856 0.13764833 0.16755892 -0.15291937 -0.08901346 0.12900294 0.22178438
-0.20527479 0.10234412 -0.03251681 -0.039446503 -0.10071436 0.030650556 -0.032381903 -0.4649101
0.0011192242 -0.20028317 0.20622674 0.10888769 -0.28606436 0.40597028 0.14085218 -0.5377853
-0.022783969 0.082752295 0.06270428 0.0991183 -0.05758652 0.036100578 -0.327375 0.09476954
0.2609799 0.096737996 -0.16299982 0.08157421 0.493955 0.04228946 0.2004419 -0.19879769
-0.2962352 0.43453413 0.22172719 0.20693544 0.096897885 -0.4898035 0.028975382 -0.065116294
0.3308299 0.3165788 -0.107394435 0.2312105 0.22692488 -0.069181204 0.04903675 -0.13303314
-0.029942561 0.08883188 0.06435524 0.4659606 -0.011765207 -0.1213823 -0.069989935 0.0040580533
0.070511535 0.17110376 0.1448033 0.015633717 0.15153997 0.16939516 -0.18724725 0.27243975
0.2544058 0.09673486 0.44227153 0.090995036 -0.18420137 0.27371597 -0.04370725 -0.36246586
0.17096329 -0.20689325 -0.057640344 0.0863817 -0.036738224 0.31932727 -0.13260017 0.066451244
00000000: 38fc cebd b5bb 2dbe 8020 3cbe ca06 c8bb
00000010: c82b babd a821 1e3d f33e a7be 438b fbbe
00000020: 37ad ac3e 06a8 66bc 3820 193e 44ba d23e
00000030: d25a a23e 8aa2 78be 7d19 24be 1fa9 44be
00000040: d0e5 133d d4f7 0f3e a150 d0bd 920d 41be
00000050: 013a 02bb ec00 6fbe 26df 9bbd abc5 10be
00000060: f91d 51bd 7c54 2c3e 3d83 aa3e 395c 9f3d
00000070: 7fbf 25be 3f1c 6f3e 6a6e c23d b92c 66bd
00000080: 0f10 33be 1731 c63d ad23 74be a818 d33e
00000090: 931e 55be f44a 62be 0169 0a3d 27ac 573e
000000a0: db47 893e d998 ce3e e950 963e 3bbd 88be
000000b0: f62b 9dbd bf30 88be d063 18bd b120 923e
000000c0: fd82 8c3c a362 8d3d eb6e b3bd 54cb 4e3d
000000d0: e45c abbe 00d9 5e3d ddea 19bc 970e dbbe
000000e0: 239a 42be fd1e 8c3e 6277 7f3e 8230 0c3d
000000f0: 1bd1 c4bd 44cd 0abe 6584 5f3e 9de1 a9be
00000100: b480 80be 9881 44be 1bee 913e 7d59 dd3d
00000110: 54ce aebd f9c6 70be caaa 403e c595 9bbc
00000120: 2d4c bfbd c422 273e aff3 0c3e 9194 2b3e
00000130: e596 1cbe b04c b6bd 5919 043e 721b 633e
00000140: 8e33 52be cb99 d13d 5930 05bd a892 21bd
00000150: 5543 cebd e016 fb3c e3a2 04bd b208 eebe
00000160: efb2 923a 0817 4dbe 1a2d 533e 8200 df3d
00000170: 0777 92be 56db cf3e 8e3b 103e 4cac 09bf
00000180: 72a5 babc 097a a93d 1a6b 803d 89fe ca3d
00000190: d8df 6bbd 33de 133d b29d a7be 8816 c23d
000001a0: 289f 853e 921e c63d 6de9 26be 6110 a73d
000001b0: abe7 fc3e b637 2d3d a440 4d3e 9f91 4bbe
000001c0: 24ac 97be 427b de3e 740c 633e e2e6 533e
000001d0: 6672 c63d 86c7 fabe c85d ed3c b15b 85bd
000001e0: 8962 a93e 9e16 a23e 9df1 dbbd 72c2 6c3e
000001f0: ff5e 683e e0ae 8dbd c2da 483d d739 08be
00000200: 1a4a f5bc 7ded b53d aecc 833d 6392 ee3e
00000210: dbc2 40bc 4997 f8bd e256 8fbd 6bf9 843b
00000220: 5a68 903d d335 2f3e 5147 143e 4812 803c
00000230: 4b2d 1b3e ed75 2d3e bebd 3fbe 397d 8b3e
00000240: 7a41 823e ed1c c63d 6a71 e23e 9b5b ba3d
00000250: 499f 3cbe 8024 8c3e 6006 33bd 2095 b9be
00000260: 0011 2f3e d3db 53be 4818 6cbd e4e8 b03d
00000270: d27a 16bd dd7e a33e 57c8 07be 9717 883d

classifier.1.running_var f4 [160]
0.0026624047 0.00223816 0.001876668 0.0093367975 0.0108426325 0.003233102 0.0069880276 0.007785916
0.010643116 0.0044813063 0.005749593 0.002203804 0.005173416 0.012512998 0.005031153 0.0025810106
0.0055628046 0.0036685034 0.00233073 0.0057957717 0.0054381783 0.022001404 0.0018801012 0.0058251712
0.0058626523 0.005442404 0.007161342 0.0060650175 0.004403985 0.0048527843 0.0031580632 0.0036895922
0.00299476 0.009807227 0.004474389 0.0042541116 0.0059052063 0.006579281 0.006460229 0.006382658
0.003584341 0.003116897 0.0012290275 0.0037618503 0.0036514932 0.0028237372 0.0023364518 0.0063151037
0.002677329 0.0027944886 0.012168931 0.002526824 0.008533067 0.00462415 0.006614402 0.0041534915
0.006390239 0.010953771 0.0020853928 0.0027781487 0.0042014783 0.001929198 0.016006745 0.0147876805
0.009322868 0.005182635 0.010605267 0.0055731973 0.0036350612 0.00428413 0.0051059816 0.004773555
0.0024443155 0.0037737822 0.0035064176 0.0029348517 0.0017908647 0.007977717 0.0019876466 0.0036710994
0.0071495348 0.0039418936 0.0028952903 0.002323654 0.0029525647 0.009308352 0.004888154 0.0029426008
0.0029556456 0.0035845889 0.008740048 0.0038479771 0.013573159 0.009792136 0.0015001842 0.0021812452
0.0062787165 0.008112797 0.0047651767 0.0067050746 0.0042521968 0.0020669291 0.006836829 0.0024582392
0.008319631 0.002453062 0.0019456239 0.0022880249 0.0082248645 0.005490592 0.00403348 0.0073553994
0.015380543 0.010767514 0.003232026 0.0019803857 0.005485938 0.0066820253 0.0046987343 0.0063088047
0.0061484035 0.0041073426 0.0051423335 0.0036158662 0.0030668648 0.0072080945 0.0056365384 0.011147225
0.0029762979 0.0037784188 0.002359159 0.004485558 0.0031301596 0.0025521424 0.0029839105 0.009834992
0.0053872284 0.0016024768 0.0036251366 0.0034735326 0.003353673 0.003000316 0.006857048 0.008814673
0.003219516 0.0043752175 0.0038820691 0.0059268004 0.0034127792 0.008802293 0.0047643688 0.005797924
0.0034153557 0.002457748 0.0036374286 0.004012559 0.0043628104 0.004807618 0.0074175764 0.0021865696
00000000: bd7b 2e3b 18ae 123b 87fa f53a 5ef9 183c
00000010: 4ca5 313c 73e2 533b d3fb e43b ff20 ff3b
00000020: 7760 2e3c ecd7 923b 1567 bc3b b26d 103b
00000030: c285 a93b 5103 4d3c 5fdc a43b 2c26 293b
00000040: 3048 b63b 466b 703b 29bf 183b 75ea bd3b
00000050: bf32 b23b 4a3c b43c ba6d f63a 14e1 be3b
00000060: 7e1b c03b 3256 b23b b1a9 ea3b 0ebd c63b
00000070: 4e4f 903b 1b04 9f3b 82f7 4e3b 16cd 713b
00000080: bc43 443b 7eae 203c e59d 923b 1366 8b3b
00000090: 7680 c13b 0297 d73b 54b0 d33b 9e25 d13b
000000a0: 43e7 6a3b db44 4c3b 5217 a13a 6089 763b
000000b0: e44d 6f3b 730e 393b 281f 193b eeee ce3b
000000c0: 2076 2f3b bd23 373b 3260 473c 1299 253b
000000d0: 47ce 0b3c 2f86 973b a0bd d83b 031a 883b
000000e0: 3665 d13b 7277 333c 16ab 083b 9a11 363b
000000f0: 8eac 893b 25dd fc3a 9420 833c 0748 723c
00000100: f1be 183c 18d3 a93b b7c1 2d3c 5e9f b63b
00000110: 353a 6e3b e361 8c3b 1450 a73b 7b6b 9c3b
00000120: cf30 203b 8f51 773b edcb 653b a456 403b
00000130: 73bb ea3a f8b4 023c 2d43 023b d496 703b
00000140: a546 ea3b 002b 813b e9be 3d3b 7248 183b
00000150: d17f 413b 0f82 183c cf2c a03b a6d8 403b
00000160: 81b3 413b 6ceb 6a3b 6b32 0f3c 582e 7c3b
00000170: f561 5e3c 326f 203c d4a1 c43a 39f3 0e3b
00000180: b1bd cd3b 89eb 043c 3325 9c3b 3eb6 db3b
00000190: 0356 8b3b 5175 073b 7a07 e03b 691a 213b
000001a0: 104f 083c 8dc3 203b 4e04 ff3a b0f2 153b
000001b0: 95c1 063c 6dea b33b 482b 843b 9005 f13b
000001c0: acfe 7b3c 3a6a 303c 66d0 533b 5cc9 013b
000001d0: 62c3 b33b e4f4 da3b d7f7 993b 17ba ce3b
000001e0: 8c78 c93b e396 863b 0581 a83b 2bf8 6c3b
000001f0: 74fd 483b e131 ec3b b6b2 b83b daa2 363c
00000200: fe0d 433b 599f 773b 1f9c 1a3b 96fb 923b
00000210: 5d23 4d3b d841 273b b68d 433b f222 213c
00000220: 5987 b03b 330a d23a b393 6d3b 35a4 633b
00000230: 4cc9 5b3b f3a0 443b 16b1 e03b 6b6b 103c
00000240: 84fe 523b fc5d 8f3b 506a 7e3b 9b35 c23b
00000250: efa8 5f3b 7e37 103c 6c1e 9c3b 83fc bd3b
00000260: 29d4 5f3b 2b12 213b ed61 6e3b c97b 833b
00000270: e8f5 8e3b 3989 9d3b 240f f33b 8d4c 0f3b

classifier.4.weight f4 [120, 160]
0.08439909 0.10108592 -0.08600688 0.21475275 -0.01573538 -0.07238519 -0.09641645 -0.069918096
0.034875333 -0.3101162 -0.24927272 0.07971471 0.33518675 -0.12372255 0.22946663 -0.02647623
-0.14564198 0.031907085 -0.10816602 -0.45997417 0.08051889 -0.27694732 -0.053832233 -0.029857665
-0.015142221 0.21899572 -0.11271228 -0.13139261 0.03337463 -0.21032023 -0.40418005 -0.051982485
-0.07491042 -0.101662636 0.017892694 -0.09847875 0.12843817 -0.28055653 -0.07672176 -0.0529973
0.32903022 -0.24385723 0.013741843 0.08256663 -0.05788378 0.077804856 0.2507885 -0.22756515
-0.027222363 0.027898123 -0.11147454 0.06521127 -0.20714524 0.02716745 -0.08040631 -0.085930474
0.018819686 0.11761078 0.19396086 0.005091415 -0.079178944 -0.17183279 -0.24394071 -0.46165732
-0.34604347 -0.0033186355 -0.0114007685 0.11074962 0.04353252 -0.46760947 -0.09570779 0.038851455
-0.15328431 -0.049386453 -0.22181903 0.03315498 0.16557643 -0.13852087 0.027213562 -0.0032672281
-0.06600326 -0.026680924 -0.13824576 -0.35512012 -0.02721097 0.076516904 -0.05264232 -0.018465124
-0.0801153 -0.033740547 -0.6243124 -0.020997584 -0.0042080665 -0.18855184 0.1208324 -0.5149721
-0.028687255 0.05374257 -0.044135444 0.22709276 -0.24717084 -0.008931898 -0.039691985 0.05742092
-0.0067101903 0.17916672 -0.17896542 -0.04877303 0.073345885 0.0045015337 0.008710577 -0.03949535
-0.5458665 -0.045861572 -0.19466628 -0.011667677 0.049360972 -0.19705671 0.106685646 -0.102999136
-0.015180007 -0.2118153 -0.091966555 0.14086744 -0.3635173 -0.19350055 -0.11706931 -0.13162762
-0.14194229 0.045976765 -0.059282128 -0.18799892 0.18734 -0.05220194 0.027058711 -0.06201315
-0.07946759 -0.20807661 0.18430711 -0.017258896 -0.0910147 -0.1501059 -0.21632433 0.040222377
-0.29051647 0.07457666 0.29212248 0.036003504 -0.18907028 0.13260579 0.039603174 -0.19949749
0.059899636 0.06564855 0.012857088 -0.009504669 0.0062488825 -0.18016014 -0.058937497 0.02864992
-0.00919179 0.13430275 0.19612367 -0.16129974 -0.045735832 -0.07801006 -0.13077384 -0.13868105
-0.073871635 -0.14183824 -0.1217948 0.02324165 0.18933907 -0.03105183 0.28328714 0.0551518
0.09621253 0.0631326 0.023160812 0.064033315 0.10345074 -0.07495025 0.049061902 0.07175256
-0.042895492 0.12465048 0.029753983 -0.11022909 -0.3820211 -0.17745757 -0.1747224 -0.07839019
-0.11022607 -0.1799653 -0.040707536 -0.3343647 0.015390724 -0.6589323 -0.36689085 0.029167933
0.31561553 0.058826145 0.054324932 -0.06338143 -0.085197866 -0.33257538 -0.10165796 -0.1830367
-0.0040951995 -0.041721817 0.0528787 0.14021784 0.016089048 0.03198424 -0.32585764 0.07239311
-0.2516125 -0.016369347 -0.004625517 0.06259525 -0.11275145 -0.1595668 0.042600643 0.035647392
-0.009930584 -0.14165361 0.13055362 0.0318482 -0.0010448387 -0.015473373 -0.06729052 0.06074968
0.08102275 -0.07050685 -0.3065793 -0.002219781 0.12664934 -0.30858094 -0.2554056 -0.18380831
-0.026414579 -0.100996375 0.06504415 -0.06408494 0.16750841 0.028819436 -0.56848174 -0.30221188
-0.32556638 -0.47992966 -0.11281556 0.021390218 -0.003908251 -0.0010397937 0.045372944 -0.019860096
00000000: 6ed9 ac3d 2306 cf3d 6024 b0bd 25e8 5b3e
00000010: 7ce7 80bc b03e 94bd fd75 c5bd 3831 8fbd
00000020: 70d9 0e3d 8dc7 9ebe 5941 7fbe 7741 a33d
00000030: 999d ab3e 4062 fdbd 4df9 6a3e aee4 d8bc
00000040: 2c23 15be 01b1 023d 2586 ddbd bc81 ebbe
00000050: 16e7 a43d 0acc 8dbe 307f 5cbd 1098 f4bc
00000060: 1417 78bc 6a40 603e b2d5 e6bd c98b 06be
00000070: d6b3 083d 305e 57be b0f0 cebe 96eb 54bd
00000080: a26a 99bd 8034 d0bd b393 923c 3aaf c9bd
00000090: 4c85 033e 1ba5 8fbe 4c20 9dbd b213 59bd
000000a0: a676 a83e b6b5 79be 7825 613c b118 a93d
000000b0: 8b17 6dbd 2758 9f3d 5a67 803e d706 69be
000000c0: 6f01 dfbc 9b8a e43c c34c e4bd 7c8d 853d
000000d0: e21d 54be 468e de3c 10ac a4bd 51fc afbd
000000e0: be2b 9a3c ecdd f03d ad9d 463e e2d5 a63b
000000f0: 9228 a2bd eff4 2fbe 98cb 79be 595e ecbe
00000100: 9c2c b1be 777d 59bb 4aca 3abc b2d0 e23d
00000110: 284f 323d 826a efbe 7202 c4bd b422 1f3d
00000120: 90f6 1cbe 7349 4abd 8724 63be 84cd 073d
00000130: de8c 293e 6ad8 0dbe faee de3c fe1e 56bb
00000140: b82c 87bd f491 dabc 4c90 0dbe 4ed2 b5be
00000150: 8ae9 debc e5b4 9c3d 799f 57bd 2c44 97bc
00000160: 7e13 a4bd 8733 0abd f0d2 1fbf 2003 acbc
00000170: d2e3 89bb bc13 41be fa76 f73d 36d5 03bf
00000180: 8901 ebbc 2b21 5c3d 5ec7 34bd 018b 683e
00000190: 5a1a 7dbe 1857 12bc 1094 22bd 3332 6b3d
000001a0: 28e1 dbbb 7b77 373e b642 37be 3bc6 47bd
000001b0: 5e36 963d 9a81 933b cfb6 0e3c e0c5 21bd
000001c0: e8bd 0bbf 58d9 3bbd 9956 47be c929 3fbc
000001d0: bb2e 4a3d 3cc9 49be 017e da3d 36f1 d2bd
000001e0: 90b5 78bc 1ce6 58be f658 bcbd 8e3f 103e
000001f0: f11e babe 0225 46be 09c2 efbd 64c9 06be
00000200: 5259 11be 2252 3c3d d1d1 72bd ca82 40be
00000210: 0fd6 3f3e b4d1 55bd 3baa dd3c 8001 7ebd
00000220: e7bf a2bd 0912 55be 01bb 3c3e 8762 8dbc
00000230: ea65 babd 5cb5 19be 2084 5dbe 38c0 243d
00000240: 93be 94be a6bb 983d 1491 953e 6978 133d
00000250: a49b 41be d0c9 073e f036 223d 1249 4cbe
00000260: 5259 753d bf72 863d 89a6 523c 79b9 1bbc
00000270: 6dc3 cc3b e67b 38be 7268 71bd 3db3 ea3c
00000280: 2999 16bc a986 093e a5d4 483e c22b 25be
00000290: 7f55 3bbd bdc3 9fbd 94e9 05be 6802 0ebe
000002a0: 034a 97bd 0b3e 11be 8d6f f9bd 4665 be3c
000002b0: 1ae2 413e 6860 febc 030b 913e dbe6 613d
000002c0: 130b c53d aa4b 813d bebb bd3c e623 833d
000002d0: fbdd d33d 847f 99bd 22f5 483d 02f3 923d
000002e0: 2fb3 2fbd c048 ff3d a0be f33c cabf e1bd
000002f0: 4598 c3be 70b7 35be 6eea 32be 098b a0bd
00000300: 35be e1bd d348 38be f2bc 26bd da31 abbe
00000310: 6029 7c3c caaf 28bf 1ed9 bbbe 97f1 ee3c
00000320: 5c98 a13e aff3 703d d283 5e3d 20ce 81bd
00000330: 387c aebd 5247 aabe 0c32 d0bd f96d 3bbe
00000340: 0631 86bb 7fe4 2abd 5697 583d 4495 0f3e
00000350: 2ecd 833c e801 033d d0d6 a6be d742 943d
00000360: 5bd3 80be 0219 86bc a691 97bb f031 803d
00000370: 3bea e6bd 7b65 23be 037e 2e3d 0003 123d
00000380: e3b3 22bc a50d 11be d9af 053e 4273 023d
00000390: f8f2 88ba 0884 7dbc 9dcf 89bd a8d4 783d
000003a0: 41ef a53d e565 90bd f6f7 9cbe bf79 11bb
000003b0: 5db0 013e 52fe 9dbe 86c4 82be 3f38 3cbe
000003c0: 6363 d8bc 30d7 cebd de35 853d f73e 83bd
000003d0: 5387 2b3e bd16 ec3c 0588 11bf 84bb 9abe
000003e0: a3b0 a6be 57b9 f5be d80b e7bd 8a3a af3c
000003f0: c910 80bb b049 88ba fbd8 393d a4b1 a2bc

classifier.4.bias f4 [120]
0.004347584 0.14419125 0.0067425594 0.008470355 0.089930765 0.013913382 0.05821885 0.08564641
0.023472495 -0.032006186 -0.02214982 -0.076747656 0.01874549 -0.06585638 -0.1120494 0.0026508034
-0.07713822 -0.13975064 0.043119308 0.052599363 0.044966467 -0.04159176 0.042427517 0.04347924
0.0902475 -0.050002348 0.004185304 -0.07049213 -0.08347466 0.07441298 -0.10356518 -0.05641282
0.011277603 -0.059669625 -0.019115925 0.048780628 0.03142181 0.00020429725 0.072304845 0.010709701
-0.10611276 -0.015119202 -0.012944318 -0.066409655 0.028522775 0.07656253 0.0317689 0.019907266
0.041455768 -0.0709587 -0.021637257 -0.06748304 -0.0283771 0.0065195356 -0.0053809653 0.11677691
-0.061996035 0.025074936 -0.09190324 0.03004412 0.018167892 -0.05076616 -0.012950125 0.085126385
-0.024094798 -0.051881462 -0.0753982 -0.035410598 -0.061013278 -0.0663608 -0.07927796 -0.033828624
0.013355684 -0.0819955 -0.0656353 0.04188288 0.021674125 -0.018913688 -0.033121344 0.02603214
-0.015195274 0.11346228 0.09010504 0.0010689354 -0.10865057 -0.019696869 0.039343752 0.11864375
-0.06447339 -0.04479578 -0.0006354827 -0.0044245385 -0.030022519 0.018231273 -0.11365353 -0.013904467
0.050318167 -0.087514624 0.106102996 -0.0638888 -0.061264776 -0.018318627 -0.035444815 0.07225462
0.100863 0.066189975 -0.051455375 -0.098831266 -0.08489537 -0.10367421 0.0742332 0.029097013
-0.029073315 0.01852891 0.08347891 -0.038478404 0.086604886 -0.025181085 0.075178355 -0.026661593
00000000: 2e76 8e3b dfa6 133e b0f0 dc3b 3ec7 0a3c
00000010: 9f2d b83d f4f4 633c e476 6e3d 6367 af3d
00000020: 6449 c03c eb18 03bd 8a73 b5bc e02d 9dbd
00000030: 2490 993c b6df 86bd 287a e5bd 1ab9 2d3b
00000040: a5fa 9dbd cb1a 0fbe df9d 303d 6e72 573d
00000050: c22e 383d 1f5c 2abd 7ac8 2d3d 4a17 323d
00000060: aed3 b83d 43cf 4cbd e024 893b 2e5e 90bd
00000070: c3f4 aabd d565 983d fb19 d4bd 2111 67bd
00000080: b2c5 383c 2368 74bd 0099 9cbc 32ce 473d
00000090: 28b4 003d a038 5639 9014 943d be77 2f3c
000000a0: a651 d9bd 88b6 77bc 6814 54bc c901 88bd
000000b0: 98a8 e93c d1cc 9c3d 1b20 023d 9014 a33c
000000c0: 86cd 293d cb52 91bd 9e40 b1bc 8c34 8abd
000000d0: 1877 e8bc d4a1 d53b cf52 b0bb bc28 ef3d
000000e0: 8eef 7dbd f469 cd3c c437 bcbd 161f f63c
000000f0: d5d4 943c 2df0 4fbd c32c 54bc be56 ae3d
00000100: 7462 c5bc a881 54bd 5f6a 9abd b40a 11bd
00000110: 0fe9 79bd 2ce8 87bd 7c5c a2bd e28f 0abd
00000120: ccd1 5a3c 42ed a7bd cd6b 86bd 628d 2b3d
00000130: ef8d b13c e1f0 9abc 3faa 07bd 5b41 d53c
00000140: 99f5 78bc e95e e83d fe88 b83d 851b 8c3a
00000150: 3184 debd 545b a1bc ea26 213d 7ffb f23d
00000160: a00a 84bd c87b 37bd 8696 26ba b8fb 90bb
00000170: c9f1 f5bc c059 953c 2fc3 e8bd 90cf 63bc
00000180: 6c1a 4e3d de3a b3bd 874c d93d 22d8 82bd
00000190: c6f0 7abd f210 96bc 952e 11bd 3bfa 933d
000001a0: 4391 ce3d 9c8e 873d dfc2 52bd 0c68 cabd
000001b0: a0dd adbd 2553 d4bd 9307 983d dc5c ee3c
000001c0: 292b eebc f1c9 973c fef6 aa3d 889b 1dbd
000001d0: e75d b13d 9048 cebc 1cf7 993d 6a69 dabc

classifier.5.weight f4 [120]
0.9771159 0.77841663 0.8739677 0.9897719 0.9306662 0.94929296 0.7139581 1.1110619
0.73718154 0.83759123 0.7698405 1.0980921 1.0428404 1.0231185 0.9020937 0.9325366
0.9882502 0.9428713 1.1384811 0.9265118 0.90222526 0.7304965 0.99719757 0.939909
0.7916223 1.0446372 0.8799262 0.6321379 0.8589925 0.7041474 0.94871795 0.86072296
0.9203985 0.94059044 0.76120836 0.86855423 0.9931608 0.7455747 0.9169193 0.8182613
0.98567045 1.120918 1.0136912 0.9998528 1.0422306 0.7868499 1.0404311 0.66580075
0.7985789 0.7983618 0.97323877 0.61542153 0.8031456 0.93601894 0.8133031 1.0745814
0.87268734 0.9849099 0.7448134 1.062761 0.8867997 1.0050911 0.9004412 0.83906466
0.8046613 0.9072506 0.7166319 1.0901284 1.0579269 0.9816351 1.045673 0.8561946
0.91799104 0.6868054 0.7998461 0.87304246 0.8974759 1.048326 0.8496042 0.93918824
1.1140118 0.8209427 0.73451954 0.9617154 0.9454272 0.80600667 1.0702562 1.0353901
0.902108 0.9634543 0.8742868 1.1044548 1.0083078 0.9280185 1.0886288 0.6554278
0.65583676 0.73597336 0.86573315 0.93202287 0.68417245 0.9254123 0.8721534 0.9353154
0.9509229 0.946192 0.779833 1.0682044 1.1176293 0.8638714 1.0494529 0.9608949
0.6528167 0.97466534 0.8956426 0.96383274 1.0327353 0.66986924 0.6834524 0.6840305
00000000: 4524 7a3f 5046 473f 59bc 5f3f b161 7d3f
00000010: 2440 6e3f dd04 733f f5c5 363f 4737 8e3f
00000020: eeb7 3c3f 616c 563f 4414 453f 488e 8c3f
00000030: cb7b 853f 8cf5 823f 9def 663f b8ba 6e3f
00000040: f7fd 7c3f 0360 713f c0b9 913f e12f 6d3f
00000050: 3cf8 663f d201 3b3f 5748 7f3f e09d 703f
00000060: c2a7 4a3f acb6 853f d842 613f cad3 213f
00000070: efe6 5b3f 0143 343f 2edf 723f 5758 5c3f
00000080: 3c9f 6b3f 89ca 703f 8dde 423f 9259 5e3f
00000090: c93f 7e3f fcdd 3e3f 39bb 6a3f 9379 513f
000000a0: e654 7c3f 3e7a 8f3f a2c0 813f 5af6 7f3f
000000b0: d067 853f ff6e 493f d92c 853f eb71 2a3f
000000c0: ab6f 4c3f 7061 4c3f 2d26 793f 448c 1d3f
000000d0: f39a 4d3f f09e 6f3f a234 503f e28b 893f
000000e0: 7068 5f3f 0e23 7c3f 17ac 3e3f 8d08 883f
000000f0: 4e05 633f d3a6 803f 5183 663f f1cc 563f
00000100: 48fe 4d3f 9341 683f 3075 373f 5489 8b3f
00000110: 266a 873f 704c 7b3f 9dd8 853f 922f 5b3f
00000120: 7601 6b3f 7bd2 2f3f b7c2 4c3f b67f 5f3f
00000130: fbc0 653f 8c2f 863f a97f 593f a46e 703f
00000140: f097 8e3f 4d29 523f 7909 3c3f fb32 763f
00000150: 8407 723f 7456 4e3f 28fe 883f aa87 843f
00000160: 8df0 663f f1a4 763f 42d1 5f3f c65e 8d3f
00000170: 3b10 813f 9f92 6d3f 3058 8b3f 1eca 273f
00000180: ebe4 273f c068 3c3f b0a0 5d3f 0d99 6e3f
00000190: ed25 2f3f d2e7 6c3f 7245 5f3f d470 6f3f
000001a0: af6f 733f a439 723f 23a3 473f ecba 883f
000001b0: 7a0e 8f3f ad26 5d3f 7954 863f 35fd 753f
000001c0: ff1e 273f ab83 793f d548 653f bebd 763f
000001d0: ac30 843f 8d7c 2b3f bdf6 2e3f 9f1c 2f3f

classifier.5.bias f4 [120]
-0.23470823 -0.55443186 -0.6009738 -0.37877795 -0.47043088 -0.29789466 -0.19128989 -0.5053518
-0.27886668 -0.70757234 -0.5571986 -0.39541537 -0.58427805 -0.33384812 -0.4521187 -0.34073344
-0.31733814 -0.43140993 -0.70245403 -0.47289088 -0.30041847 -0.14076234 -0.3914216 -0.41847476
-0.33219737 -0.22322783 -0.3975384 -0.7655042 -0.4808662 -0.39793393 -0.24515177 -0.17635746
-0.19279918 -0.42336825 -0.17756703 -0.15181993 -0.5370745 -0.5331684 -0.2880432 -0.09807144
-0.7088077 -0.667149 -0.6174665 -0.3692771 -0.54353076 -0.5127012 -0.5995745 -0.30182853
-0.42355525 -0.4594241 -0.4031058 -0.32883584 -0.5363105 -0.4371601 -0.35350737 -0.6105674
-0.23235577 -0.35049292 -0.41797334 -0.4476692 -0.2771994 -0.39000744 -0.14245336 -0.28671864
-0.11257196 -0.28790268 -0.4626115 -0.60653895 -0.24234453 -0.31563273 -0.36161715 -0.3308652
-0.42427376 -0.2688839 -0.38768205 -0.28084132 -0.2775275 -0.14951143 -0.37402 -0.29767126
-0.24445625 -0.5453592 -0.27706176 -0.44518238 -0.3574184 -0.46504736 -0.39225644 -0.5075538
-0.31873515 -0.29537654 -0.30002296 -0.43213537 -0.31688553 -0.28473645 -0.42002136 -0.408824
-0.47507522 -0.2730034 -0.47573212 -0.5196291 -0.47391203 -0.2276043 -0.24245943 -0.40788907
-0.31417525 -0.47306445 -0.33725202 -0.40232927 -0.6613639 -0.4109891 -0.43382308 -0.34702224
-0.37131837 -0.47291273 -0.40011194 -0.5023075 -0.5505572 -0.44555932 -0.09846463 -0.39703065
00000000: 5b57 70be 3fef 0dbf 6bd9 19bf 2fef c1be
00000010: 51dc f0be a685 98be 7fe1 43be bc5e 01bf
00000020: 9dc7 8ebe 7623 35bf 91a4 0ebf e273 cabe
00000030: 3f93 15bf 24ee aabe 1a7c e7be 9d74 aebe
00000040: 257a a2be c3e1 dcbe 07d4 33bf c11e f2be
00000050: 73d0 99be 0124 10be 6968 c8be 5342 d6be
00000060: c615 aabe d695 64be 278a cbbe 15f8 43bf
00000070: 1834 f6be ffbd cbbe 1109 7bbe 0d97 34be
00000080: 266d 45be b9c3 d8be 22d4 35be af76 1bbe
00000090: b77d 09bf b97d 08bf 667a 93be aed9 c8bd
000000a0: 6c74 35bf 47ca 2abf 4912 1ebf e311 bdbe
000000b0: d524 0bbf 6340 03bf b77d 19bf 4589 9abe
000000c0: 3cdc d8be a339 ebbe e263 cebe 2c5d a8be
000000d0: a54b 09bf 73d3 dfbe ebfe b4be 254e 1cbf
000000e0: acee 6dbe cf73 b3be 9a00 d6be e634 e5be
000000f0: 14ed 8dbe 0eaf c7be 4bdf 11be c9cc 92be
00000100: 218c e6bd fb67 93be 6adb ecbe 2346 1bbf
00000110: 2a29 78be 9d9a a1be e225 b9be 2a67 a9be
00000120: 693a d9be 27ab 89be 437e c6be 6fca 8fbe
00000130: 1618 8ebe 8619 19be 8d7f bfbe 5e68 98be
00000140: bd52 7abe a99c 0bbf 0adb 8dbe f2ee e3be
00000150: 8bff b6be b01a eebe d6d5 c8be 0cef 01bf
00000160: 4131 a3be 983b 97be 9c9c 99be d940 ddbe
00000170: d23e a2be fac8 91be 0a0d d7be 6151 d1be
00000180: 0f3d f3be 1ac7 8bbe 2993 f3be 6a06 05bf
00000190: 99a4 f2be 1a11 69be 4947 78be d6d6 d0be
000001a0: 94db a0be 8135 f2be 4cac acbe 1afe cdbe
000001b0: 254f 29bf 2a6d d2be 0f1e debe e6ac b1be
000001c0: 711d bebe 9e21 f2be 79db ccbe 3997 00bf
000001d0: 51f1 0cbf 5a20 e4be d3a7 c9bd 9a47 cbbe

classifier.5.running_mean f4 [120]
-1.2126868 -1.2269465 -0.6638764 -0.8575295 -0.36647823 -1.5634685 -0.31916195 -0.97150254
-1.3316361 -1.7019624 -1.7684834 -2.0070128 -0.7054897 -1.734653 -0.75565356 -0.8846648
-1.5507759 -1.1916878 -1.033846 -0.8290273 0.08579814 -0.23672743 -0.8035069 -1.017951
-0.5884597 -0.35223323 -0.36014742 -0.9713668 -1.9560094 -1.2293218 -0.1897663 -0.6897499
-0.81627285 -1.2344017 -1.1645356 -0.3218032 -0.92738724 -1.7694377 -1.1797049 -0.6579332
-0.5202836 -1.00214 -0.7844525 -1.8718567 -1.2845665 -0.066850364 -0.9562605 -0.8155527
-0.45676714 -1.0559623 -1.2197481 -0.8270534 -1.6790047 -1.5364436 -0.18984915 -0.7322285
-0.5480253 -1.6682577 -1.5203612 -0.6891923 -0.83574307 -1.1795899 -0.017563486 -0.52251077
-0.9971288 -1.1249748 -1.4989401 -0.9703775 -1.4932561 -0.035083763 -0.00067662913 -0.7847328
0.136846 -1.0346053 -1.3999023 -0.9834596 -0.7750207 -1.5776138 -0.55557126 -0.8972085
-1.5680711 -1.6256676 0.25522435 -1.2012678 -0.981429 -1.7990426 -1.5839453 -1.0240992
-0.8589838 0.013996714 -0.05920844 -0.84877455 -0.9828189 -0.12077935 -0.83204234 -0.8775717
-1.1517481 0.0045583462 -1.6946083 -0.7285149 -1.5147817 -0.63023204 -0.91169196 -1.014567
-0.58472395 -0.9634823 -0.8671663 -1.9118778 -1.2873851 -1.4323432 -0.7927437 -0.9618579
-1.1621561 -1.4411516 -1.6964114 -1.2470863 -0.93790686 -1.2965349 -0.85947245 -1.0434425
00000000: 5239 9bbf 950c 9dbf cef3 29bf 0e87 5bbf
00000010: 09a3 bbbe bc1f c8bf 3269 a3be 64b4 78bf
00000020: 0d73 aabf e7d9 d9bf aa5d e2bf e672 00c0
00000030: f99a 34bf 1c09 debf 8372 41bf 6479 62bf
00000040: d37f c6bf 3a89 98bf 1155 84bf 223b 54bf
00000050: efb6 af3d ad68 72be a1b2 4dbf 384c 82bf
00000060: 4ba5 16bf ea57 b4be 3e65 b8be 7fab 78bf
00000070: 845e fabf 6b5a 9dbf 1952 42be 7393 30bf
00000080: 42f7 50bf e000 9ebf 810f 95bf 64c3 a4be
00000090: 4069 6dbf ef7c e2bf 9200 97bf 4f6e 28bf
000000a0: 4e31 05bf 2046 80bf e1d1 48bf 0099 efbf
000000b0: ad6c a4bf d8e8 88bd 7dcd 74bf 10c8 50bf
000000c0: 62dd e9be c629 87bf b520 9cbf c6b9 53bf
000000d0: a0e9 d6bf 2faa c4bf d167 42be 5473 3bbf
000000e0: 634b 0cbf 7889 d5bf 329b c2bf e86e 30bf
000000f0: 42f3 55bf cdfc 96bf 4de1 8fbc 44c3 05bf
00000100: d543 7fbf 2dff 8fbf 45dd bfbf a96a 78bf
00000110: 0423 bfbf feb3 0fbd d05f 31ba 40e4 48bf
00000120: 5c21 0c3e f26d 84bf 0030 b3bf 02c4 7bbf
00000130: c267 46bf 40ef c9bf eb39 0ebf 75af 65bf
00000140: 8eb6 c8bf e015 d0bf c4ac 823e 25c3 99bf
00000150: ee3e 7bbf 0747 e6bf b8be cabf af15 83bf
00000160: 5de6 5bbf 7952 653c 8d84 72bd 4a49 59bf
00000170: 059a 7bbf 2a5b f7bd ba00 55bf 8aa8 60bf
00000180: 7b6c 93bf 2e5e 953b ede8 d8bf f47f 3abf
00000190: 5ee4 c1bf e356 21bf a564 69bf 55dd 81bf
000001a0: 78b0 15bf c7a6 76bf 9cfe 5dbf 69b8 f4bf
000001b0: 09c9 a4bf 0657 b7bf 40f1 4abf 523c 76bf
000001c0: 88c1 94bf a877 b8bf 0224 d9bf 86a0 9fbf
000001d0: aa1a 70bf dbf4 a5bf 6306 5cbf 868f 85bf

classifier.5.running_var f4 [120]
1.4994925 1.5191523 1.4679261 1.1451404 2.3444977 1.9148326 2.3244762 2.3751547
2.8346038 1.2187245 1.0466912 2.6973107 2.3456326 2.314018 2.3515234 2.9009418
1.9713792 2.8074472 1.8468796 2.692245 1.8847619 1.7878798 1.5853659 2.7158024
1.4777057 1.0284765 2.2928843 0.89711887 3.1995473 1.1281712 1.8840526 2.1104815
1.8764125 2.1300747 1.1983474 1.2388113 1.1721925 1.1491553 1.8315167 2.1748915
1.5080166 1.9983729 1.7590346 2.6464794 2.3623638 1.8872825 1.7279932 1.7435114
2.5022244 2.049679 2.5565033 2.4895015 1.0649103 2.414959 1.530409 1.6034713
1.5822809 1.4170827 1.1454407 2.2171571 1.9960773 2.8622735 1.6508377 1.7639251
2.668289 1.6339837 1.8984998 1.636513 1.8338593 1.7764417 1.734667 2.6073928
1.6412181 1.001101 1.3234515 1.8530388 1.0389212 2.503958 1.8938117 2.4809682
1.8304243 2.5418692 0.9718494 2.752847 3.0673869 3.1600702 2.0679708 1.672449
3.702601 1.9928551 2.3871217 2.6707191 1.9466236 1.9049107 2.3675964 2.2109802
2.2094686 1.6979136 2.3122487 2.653151 1.2705123 3.0971704 2.225573 2.5831752
2.7730265 2.5764124 1.0135844 2.5689993 2.265933 1.5059388 1.3817937 3.1771057
2.2290578 2.5803216 2.7926764 3.2453122 1.763478 2.1021972 1.9361575 1.8701674
00000000: 5fef bf3f 9573 c23f 01e5 bb3f f693 923f
00000010: 400c 1640 3c19 f53f 38c4 1440 8902 1840
00000020: 266a 3540 2aff 9b3f faf9 853f bda0 2c40
00000030: d81e 1640 df18 1440 5c7f 1640 08a9 3940
00000040: 2756 fc3f 37ad 3340 8d66 ec3f be4d 2c40
00000050: e13f f13f 3fd9 e43f 45ed ca3f b5cf 2d40
00000060: 7625 bd3f 1ea5 833f 9ebe 1240 95a9 653f
00000070: 62c5 4c40 ea67 903f a328 f13f 2112 0740
00000080: 492e f03f 2553 0840 7363 993f 5e91 9e3f
00000090: 670a 963f 8517 933f 246f ea3f 6c31 0b40
000000a0: b006 c13f afca ff3f 0c28 e13f eb5f 2940
000000b0: f830 1740 7992 f13f e22e dd3f 622b df3f
000000c0: 7224 2040 f12d 0340 c09d 2340 fe53 1f40
000000d0: fb4e 883f b08e 1a40 71e4 c33f 8c3e cd3f
000000e0: 2e88 ca3f f762 b53f cd9d 923f e7e5 0d40
000000f0: 767f ff3f 7d2f 3740 a64e d33f 4cc8 e13f
00000100: 3fc5 2a40 6126 d13f 0b02 f33f 4279 d13f
00000110: e7bb ea3f 7162 e33f 9109 de3f 86df 2640
00000120: 6f13 d23f 1424 803f dc66 a93f 6030 ed3f
00000130: 5ffb 843f d940 2040 6c68 f23f 2fc8 1e40
00000140: 584b ea3f fcad 2240 1fcb 783f a52e 3040
00000150: 1150 4440 973e 4a40 a259 0440 cf12 d63f
00000160: 6af7 6c40 e015 ff3f 9ac6 1840 10ed 2a40
00000170: f62a f93f 1dd4 f33f b386 1740 b380 0d40
00000180: ef67 0d40 3c55 d93f e2fb 1340 3acd 2940
00000190: 26a0 a23f 0a38 4640 ca6f 0e40 be52 2540
000001a0: 4479 3140 f1e3 2440 22bd 813f 7c6a 2440
000001b0: 0c05 1140 9ac2 c03f 9ede b03f b355 4b40
000001c0: e2a8 0e40 fd23 2540 36bb 3240 32b3 4f40
000001d0: a6b9 e13f 668a 0640 02d4 f73f a561 ef3f
