ckpt/MAP_HF/5/best_loss_BEST5.ckpt (torch, 273504 bytes, 19 tensors)

classifier.0.weight f4 [170, 54]
000000 14 1d 10 bd ea 35 eb be ae f2 29 bc 12 55 0c 3e
       -0.03518398 -0.4593957 -0.010372801 0.13704327
000010 09 09 a6 be 24 94 34 3e 07 6e 86 3e 05 ad c3 3b
       -0.32428768 0.17634636 0.2625582 0.0059715533
000020 20 63 13 3d 91 0c 4c 3d 5b d8 04 3d 16 c7 03 bd
       0.035983205 0.04981667 0.032432895 -0.032172285
000030 05 52 7e bd 90 be 78 ba 30 ce 4f bd be 54 6d 3e
       -0.06208994 -0.0009488845 -0.050733745 0.23176858
000040 be f6 b9 be 78 66 28 be fe 53 75 3d d9 c6 27 be
       -0.36321062 -0.16445339 0.059894554 -0.16384448
000050 d9 ca 50 3d c3 c9 87 3e f9 ef c6 be e7 0f 78 bd
       0.0509747 0.2652112 -0.3885496 -0.06056204
000060 fd 24 20 3f 23 c5 a4 bd a2 40 8d 3c 20 ac d9 bd
       0.6255644 -0.08045413 0.017242733 -0.10628533
000070 d5 77 d6 be ca 21 da 3e c1 f3 bb 3c ff a7 3d 3d
       -0.418883 0.42603904 0.02294338 0.04630279
000080 1d 08 8f be 26 45 ca bd 63 ab df 3e fe 51 5f 3e
       -0.27935877 -0.0987647 0.43685445 0.21808621
000090 e0 76 40 bc 0d 0d a6 bd dc 29 c9 3e 6c b3 cb bd
       -0.011747092 -0.08107958 0.3928975 -0.099463314
0000a0 d0 64 2a 3f c3 3a 72 bf 7f c8 e4 bd ab 50 52 be
       0.6656008 -0.94620913 -0.11171054 -0.20538585
0000b0 6e 1a aa be b9 f6 2e bd 25 ea 42 bf 36 cf 48 3e
       -0.3322329 -0.04271576 -0.76138526 0.19610295
0000c0 32 1c a8 bc ec fd 0f be e9 54 95 be 3c 74 cc bd
       -0.020521257 -0.14061707 -0.29166344 -0.099831074
0000d0 5e 8b ca 3e 52 44 33 3e a7 7e 40 3e e7 c7 1b 3e
       0.39559454 0.17506531 0.18798314 0.15212975
0000e0 d9 d9 1b bd 9b aa 47 3e 3c 46 d7 3d c7 69 a0 bd
       -0.038049553 0.19498675 0.10511443 -0.078326754
0000f0 53 75 d7 3e 39 b1 1d bc f6 2d af 3d ab 0a cd 3d
       0.420817 -0.009624773 0.08553688 0.100118004
000100 1f 4e 2b be 7a 90 4c 3f 8d 05 ca bd 0e 3f 08 bc
       -0.1672902 0.79907954 -0.0986434 -0.008315815
000110 23 81 cf bd 8f d7 f6 bd 97 ba 0f 3f 01 71 83 bd
       -0.10132053 -0.12052833 0.5614409 -0.06418038
000120 6c 55 54 3e a6 51 31 3c 14 bd 14 be 15 b6 4e bd
       0.20735711 0.010822689 -0.14525253 -0.050466616
000130 93 14 47 be 23 15 38 be 10 72 08 3f 94 30 0f 3d
       -0.19441442 -0.17976813 0.53299046 0.034958437
000140 fc ad 93 bd d7 e8 b4 bd 88 8c da be e7 3b a2 be
       -0.07210919 -0.08833473 -0.42685342 -0.31686327
000150 ce 50 3e 3f 93 92 87 3c 93 8e bf 3d 1b 5a 22 3e
       0.7434205 0.016549384 0.09353366 0.15854685
000160 32 77 a6 3e eb 12 d5 3e 97 e3 34 3d 83 d0 f4 3d
       0.32512814 0.41615996 0.04416236 0.11953833
000170 b6 f2 1a bd 06 e4 89 bd 66 77 79 be 5e e1 42 bd
       -0.037829123 -0.06732945 -0.24361953 -0.04757821
000180 b3 31 91 be 81 17 49 3c 1d 07 ae 3e f5 0b 84 3d
       -0.2835823 0.01227367 0.33989802 0.06447593
000190 d3 13 07 3e fe 9a 6a 3f 74 4d fc 3d bb 24 19 3d
       0.13191156 0.9164275 0.123194605 0.037388545
0001a0 f5 25 8c 3b d2 a2 2c 3e 5e 2e 11 3e 8a 68 4e 3f
       0.004276986 0.16858986 0.14177844 0.80628264
0001b0 5e 33 8b bd d3 ff 2b 3d f3 1e 9f bc b3 5a 8f bd
       -0.06796907 0.04199202 -0.019423937 -0.069997214
0001c0 02 6d 8c 3e f9 c3 11 3d 64 c8 74 bd 03 c9 03 3d
       0.27426916 0.035587285 -0.05976142 0.03217412
0001d0 d5 ce 45 be fa c1 95 bd ed 77 28 be b3 cf 81 bd
       -0.19317181 -0.07312389 -0.16451998 -0.063384436
0001e0 0a a4 ef 3d 70 fc 7c bd 9b 9b e4 3a 24 28 22 3c
       0.1170121 -0.06176418 0.0017441394 0.009897266
0001f0 9a 55 4b 3e 5e 85 11 3b c0 58 ef 3c 62 d3 2f 3e
       0.19856873 0.0022204737 0.029217124 0.1717048
000200 e6 27 73 bd 4f fe b1 bc ca 4c ad be 43 39 1e 3e
       -0.059364222 -0.02172771 -0.33847648 0.15451531
000210 d9 c9 99 bf d6 6b 47 bd 2f 1a ea 3d a1 ea 72 be
       -1.2014724 -0.048686825 0.114307754 -0.23722316
000220 e0 3e a5 3e b9 9d 38 be b0 a7 09 bf 57 f9 54 3d
       0.32274532 -0.18028916 -0.53771496 0.0519956
000230 63 b1 65 be 25 6a 3a 3e c7 34 ac bc da 98 e1 3e
       -0.22430949 0.18204553 -0.02102126 0.4406193
000240 2d 9c ec bc 61 67 8a bd b1 ac 9d bd d0 1b e6 3c
       -0.028883064 -0.06757999 -0.07698954 0.028089434
000250 19 3f bd bc 7b b0 a1 bd a4 9f 64 3e 6b bf 35 be
       -0.023101376 -0.07894989 0.22326523 -0.17748801
000260 a2 0f 89 3e 64 88 0e 3e 2a 59 e4 be 9f 3c d1 3c
       0.2676974 0.13919216 -0.44599277 0.025541602
000270 89 85 13 3e 50 b7 a2 3e 79 93 3e bf cf 26 4b be
       0.14406408 0.3178048 -0.74443775 -0.19839023
000280 45 42 5e 3d 57 9d 5f be fe cf ac bb 7b 19 c6 bd
       0.05426242 -0.21837364 -0.005273818 -0.09672829
000290 2b 83 7e 3d 99 7e f9 bd f1 72 c3 be b1 3d 1d 3d
       0.06213681 -0.1218235 -0.3817363 0.03838891
0002a0 e8 6e 3e 3d ca 40 c0 3d dc 1b 0d 3e da d2 e5 bd
       0.046492487 0.093873575 0.13780159 -0.11221857
0002b0 b1 56 13 3e 9b f7 c9 bc ae 7a 89 3d 36 7a c7 bd
       0.14388539 -0.0246542 0.067128524 -0.09740107
0002c0 b4 aa 25 be 5f 4b 40 3d a8 51 69 3e 02 b9 ae 3e
       -0.161784 0.04694688 0.22785056 0.34125525
0002d0 d6 dc e8 bc b2 1b 19 3e f3 25 db bc 30 25 81 3e
       -0.028425615 0.14951971 -0.026751494 0.25223684
0002e0 a2 6d 1d 3d 65 01 1a be 9f 42 16 3f 22 13 e7 3d
       0.038434632 -0.15039594 0.58695406 0.11282946
0002f0 37 1f cd bb 43 f5 b5 3d 58 2c 1d bd 53 ce 48 3e
       -0.0062598246 0.088846706 -0.038372368 0.19609956
000300 25 3f 11 3f 85 86 89 bc 1b b2 5f bd a9 16 d8 bd
       0.56736976 -0.016787777 -0.054613214 -0.10551197
000310 83 15 ab bc f5 67 96 3d f6 80 bd 3c 43 7c bc bc
       -0.020884281 0.07344047 0.023132782 -0.023008471
000320 6a 2f d3 3e 33 39 b3 be 37 42 b9 3e c5 07 36 3e
       0.41247112 -0.35004577 0.3618333 0.17776401
000330 f8 39 06 be 63 30 98 3e 77 f8 e0 3e f0 e0 32 be
       -0.13108051 0.29724416 0.43939564 -0.1746862
000340 3a 09 28 3f 9b 9c 73 bc e4 08 a5 be 74 a7 56 3e
       0.6563908 -0.014868881 -0.32233346 0.20962316
000350 83 e1 8e bd 65 83 3c bc c7 06 63 3c da be de bd
       -0.06976607 -0.011505936 0.013856596 -0.10876246
000360 ac 3b a6 3d 80 c6 6d 3c c2 f2 42 3d a9 f2 09 3d
       0.0811685 0.014512658 0.047594793 0.033678684
000370 d1 12 82 3e 31 6b 0c 3e 40 c4 e7 3b fe 06 27 3a
       0.2540498 0.13712765 0.0070729554 0.00063715864
000380 5a ee fe 3c 39 85 69 3d 93 2c 8f be d4 c5 6b be
       0.031119514 0.057011817 -0.27963695 -0.23024684
000390 fa 23 66 3e e1 4e b9 3d d6 7b 36 bd b1 e3 50 be
       0.22474661 0.09048248 -0.044551693 -0.20399357
0003a0 34 9f 14 bf 3c c7 56 bc 20 6c 81 3d 64 d4 38 3d
       -0.58055425 -0.013109025 0.06319451 0.045124426
0003b0 ae 25 5d 3d 7a f0 3f 3e c4 63 03 bf 21 ef 0e 3c
       0.053991012 0.18744078 -0.51324105 0.008724005
0003c0 85 9a 1a bf 47 e5 6c 3e 04 43 9c 3d b3 ac 7f 3e
       -0.6039203 0.23134337 0.0762997 0.24968223
0003d0 13 38 3a 3d 42 70 08 3f de 26 0b bf 46 9d 23 be
       0.045463633 0.5329629 -0.5435618 -0.15977964
0003e0 91 d1 66 3d 50 99 8a 3c 03 49 54 3e 0a 88 e9 3d
       0.0563522 0.016918808 0.20730977 0.114029005
0003f0 15 9e a5 3c 96 fd 3e bd c1 63 bc 3e fb 9a 3b bd
       0.020216981 -0.046628557 0.36794856 -0.045802098

classifier.0.bias f4 [170]
000000 07 c0 3c 3e 85 7c 96 3d 76 e2 97 3d b8 00 75 3c
       0.18432628 0.07347969 0.07416241 0.014953785
000010 68 33 5e 3e d6 ee 88 3d e4 1d 70 3e 15 6f 0a 3e
       0.21699297 0.06686179 0.23448902 0.13518937
000020 84 96 7f be d3 74 78 3b 43 7f 01 be 7b 2a c5 bd
       -0.24959761 0.003791143 -0.12646203 -0.09627243
000030 0e 8f 91 bd 77 db d8 bd 46 6f c7 bd 7e 63 38 bd
       -0.07107364 -0.105887346 -0.097380206 -0.04501676
000040 d0 37 1b 3c 23 40 37 be 09 19 0a 3e 68 2a 28 be
       0.009473756 -0.1789556 0.13486113 -0.16422427
000050 56 5b 26 3d 71 39 7a be 93 e5 50 3d ed 6a b1 3d
       0.04061445 -0.24435975 0.05100019 0.086629726
000060 ea 51 18 be 1d 96 c2 3d 08 c3 b5 3e 86 f4 15 3e
       -0.14874998 0.09501288 0.3550036 0.1464406
000070 aa 7e d6 bb 70 20 c6 bc 02 fe 02 3d 78 99 02 bd
       -0.0065458613 -0.02418539 0.031980522 -0.03188464
000080 c8 7e 0c be 94 96 90 3d 84 e2 80 bd bf 38 a7 3d
       -0.13720238 0.070599705 -0.062932044 0.0816512
000090 59 8c 76 bc 39 4f 76 3e 03 bc 46 3c ac 7b 2a 3e
       -0.01504811 0.24053659 0.012129786 0.1664874
0000a0 e1 45 12 3e 66 c2 7e 3e 78 e8 28 be 8f 00 c3 3b
       0.14284469 0.24878845 -0.1649493 0.0059509943
0000b0 fa 8d 94 bd 28 38 b3 be e4 ea a7 bd 88 51 0a be
       -0.072536424 -0.3500378 -0.08199099 -0.13507664
0000c0 c5 a0 57 bd be e3 02 3e 64 c0 88 3e 44 0d 10 bc
       -0.052643556 0.12782189 0.26709282 -0.008792225
0000d0 fd b0 af be 62 73 8d bc 8f e1 6d bd de 5b 1a be
       -0.3431472 -0.017266933 -0.058076438 -0.15074107
0000e0 c6 8e 2f 3e 63 cc 61 be 5d 37 6d 3d 29 f4 00 bd
       0.17144307 -0.22050624 0.057914127 -0.03148285
0000f0 1e c8 ce bc 56 7f 65 3d 98 63 2a 3e 01 c9 9d be
       -0.025241908 0.05602964 0.16639555 -0.30817416
000100 dd ff 67 bb 03 db 2b be 92 b9 d4 3c 11 c5 dc bd
       -0.003540031 -0.16782765 0.025967393 -0.10779775
000110 1a 49 ed 3d 2a 64 88 3d 95 49 e7 3d 12 08 17 be
       0.11586209 0.0665973 0.112933315 -0.14749172
000120 a3 6c a2 be c3 1a 21 3d 9e e9 20 3e 39 81 99 bd
       -0.31723508 0.039332163 0.15714118 -0.074953504
000130 6c cf e3 bd 2c e9 94 3e b4 e0 dd bc 4a e9 90 bb
       -0.11123547 0.29084146 -0.027084686 -0.0044223415
000140 36 e6 20 be fb fe 2a be 98 9e c1 3b 87 74 81 bc
       -0.15712819 -0.1669883 0.0059087984 -0.015802635
000150 db 0e 69 be 52 a1 90 bd 54 ac 2c be 44 14 78 3c
       -0.22759573 -0.070620194 -0.16862613 0.01514155
000160 14 15 89 3d 51 91 be bc de 81 d6 3d f7 d5 90 be
       0.066934735 -0.023262652 0.10473989 -0.28288242
000170 d6 d5 07 be 6a c6 eb bc 2d e1 6a 3d 10 d3 0b be
       -0.13265166 -0.028781135 0.05734365 -0.13654733
000180 2f 21 0a be f6 fc 17 3d ed 02 2c be 44 3f 7a 3e
       -0.13489221 0.037106477 -0.16797991 0.24438196
000190 09 6a 9a be c6 c4 03 3e 7c c8 8f bd 89 51 07 be
       -0.30159023 0.12868032 -0.07020661 -0.13214697
0001a0 74 80 e3 3c de cb 5e be 4a b0 e2 bd f0 45 01 3e
       0.027771212 -0.21757457 -0.11068781 0.12624335
0001b0 41 de 41 bd 12 30 23 3d 4b 87 d6 3d b8 be a6 bd
       -0.0473311 0.039840765 0.10475024 -0.081418455
0001c0 37 a0 0d be 06 d3 ad 3d 9d 65 c5 3d e1 f5 b4 bd
       -0.13830648 0.08487515 0.09638522 -0.0883596
0001d0 f0 86 9e bd 04 3d 74 bd 3a 85 c7 3d 99 c5 a4 be
       -0.07740581 -0.0596285 0.09742208 -0.32182005
0001e0 03 cb 55 be fe 87 fd 3c 9e d7 24 bb 0e e9 12 3e
       -0.20878224 0.030948635 -0.0025152932 0.14346716
0001f0 07 f5 ca bd d5 f0 83 be 0c 8a bc bd b5 83 e4 3c
       -0.099100165 -0.25769678 -0.09206018 0.027894834
000200 43 5e 41 3c 3c cc f8 be 3f 64 c2 3d c3 9e 12 be
       0.011802259 -0.48593318 0.09491777 -0.14318375
000210 3b b5 f3 3c 0e 97 94 3c 65 3d d9 bc 6c fa 82 bc
       0.029749503 0.018138435 -0.026518533 -0.015988551
000220 7c 52 7b be e5 9b e4 3d 4f 4d 44 3e 25 04 01 3e
       -0.24543184 0.11162547 0.19170116 0.12599237
000230 f4 3e 17 3e 14 a6 b3 bd f6 f6 01 3e c6 31 19 3e
       0.14770108 -0.08771911 0.12691864 0.14960393
000240 a4 75 71 bc a0 ef ef bd 2f 65 08 be 69 d7 98 3d
       -0.01473752 -0.11715627 -0.13319848 0.07462961
000250 54 21 b5 3c d5 f7 c2 3e f2 20 95 bd c0 8c 2d be
       0.022110619 0.38079706 -0.072816744 -0.16948223
000260 0a 0b 98 bd 17 01 ce 3d 72 77 26 3e ea 7c 4b 3e
       -0.074239805 0.100588016 0.16256502 0.1987187
000270 bb 9e 36 be df 61 51 3d 2d a1 2c 3d b4 24 ba be
       -0.17833988 0.051118728 0.042145897 -0.36356127
000280 b3 6e 61 3e 95 32 3b 3d 54 a0 20 be c8 e6 e1 3c
       0.22014885 0.045702536 -0.1568616 0.027575865
000290 01 f2 eb 3d b5 d8 c5 3c 45 14 9c bd 94 f9 cd bd
       0.11520768 0.024151186 -0.076210536 -0.10057369
0002a0 b7 97 43 be 74 56 86 bd
       -0.19100843 -0.065594584

classifier.1.weight f4 [170]
000000 9b 3e 5b 3f 39 a2 50 3f f4 b6 49 3f e1 c0 3b 3f
       0.85642403 0.8149753 0.7879479 0.73341185
000010 4a 7c 4a 3f 65 ea 5e 3f 76 fc 55 3f 69 4f 6f 3f
       0.790959 0.8707641 0.8358835 0.93480545
000020 32 b8 4c 3f e6 d4 6e 3f 65 15 4b 3f 6b 23 5d 3f
       0.7996856 0.9329361 0.7932952 0.8638217
000030 26 bf 6b 3f 1d bb 80 3f 43 84 49 3f f8 4d 5b 3f
       0.92088544 1.0057102 0.7871744 0.85665846
000040 86 e1 68 3f ec 20 80 3f d9 4b 71 3f 39 5a 46 3f
       0.9096912 1.0010047 0.9425636 0.7748142
000050 1e cd 42 3f c9 4b 66 3f 81 c0 5f 3f 82 1c 77 3f
       0.76094234 0.8995939 0.8740311 0.96527874
000060 ae 4c 53 3f e0 9b 48 3f 8f 67 5f 3f 5a 35 6d 3f
       0.8253888 0.78362846 0.8726739 0.92659533
000070 fa 8d 5a 3f 7b 5a 57 3f 58 0e 57 3f fb d9 6b 3f
       0.8537289 0.8412244 0.8400626 0.92129487
000080 9c 19 65 3f a0 60 56 3f 38 a0 4c 3f 0b 91 5c 3f
       0.894922 0.8374119 0.79931974 0.8615882
000090 6d 28 64 3f e4 83 53 3f d2 97 3e 3f 66 de 5d 3f
       0.89124185 0.82623124 0.7445041 0.8666748
0000a0 5a ef 5f 3f e2 de 7d 3f f6 bc 7b 3f f6 b7 5d 3f
       0.87474597 0.9916822 0.98335207 0.8660883
0000b0 8b a8 76 3f f3 a9 42 3f ae 2d 2e 3f e9 fd 5a 3f
       0.96350926 0.7604057 0.6803845 0.85543686
0000c0 86 b3 43 3f 31 12 6d 3f 20 2c 4e 3f ad 63 79 3f
       0.76445806 0.9260588 0.8053608 0.9741772
0000d0 ec e7 4e 3f e8 ba 5e 3f ea f6 57 3f b1 95 46 3f
       0.80822635 0.87003946 0.84361136 0.7757216
0000e0 00 42 84 3f cf 87 54 3f 52 1c 69 3f 0a b1 76 3f
       1.0332642 0.8301973 0.9105884 0.9636389
0000f0 ff e0 3b 3f 7e cc 85 3f cd 29 49 3f 01 87 61 3f
       0.7339019 1.0453031 0.7857941 0.88096625
000100 61 d5 4b 3f 39 08 55 3f 69 a3 75 3f 25 bb 61 3f
       0.79622465 0.8321567 0.9595247 0.88176185
000110 e2 81 45 3f db 65 30 3f a8 11 4f 3f a2 5e 25 3f
       0.7715131 0.6890542 0.80886316 0.64597523
000120 5a af 60 3f 22 df 52 3f 8d cf 6f 3f a2 47 52 3f
       0.87767565 0.82371724 0.9367607 0.82140553
000130 dc f2 43 3f e3 f5 5f 3f 97 87 61 3f 5d bb 6c 3f
       0.7654245 0.8748457 0.8809752 0.92473394
000140 16 31 74 3f ab 36 71 3f de 88 3a 3f f4 20 6d 3f
       0.953874 0.9422404 0.7286509 0.9262841
000150 25 38 75 3f 4b 92 49 3f cd 08 5c 3f 52 7f 23 3f
       0.95788795 0.7873885 0.8595093 0.6386615
000160 53 ec 73 3f 36 4e 41 3f 98 b9 70 3f bb 38 58 3f
       0.9528248 0.75509965 0.94033194 0.84461564
000170 65 65 4b 3f 94 21 6a 3f be 9b 59 3f cb 2e 81 3f
       0.7945159 0.91457486 0.8500327 1.0092405
000180 7c 3f 64 3f 30 b1 79 3f 6e 90 54 3f 34 53 42 3f
       0.8915937 0.9753599 0.8303288 0.7590821
000190 4a d6 6c 3f dc 9c 6b 3f 7e 8d 48 3f e4 e6 66 3f
       0.9251448 0.92036223 0.783409 0.9019606
0001a0 bc ea 81 3f 4f d3 7d 3f d0 c7 60 3f 2c 0d 41 3f
       1.014976 0.99150556 0.8780489 0.75410724
0001b0 6e a2 81 3f d5 2e 63 3f ae f2 70 3f c7 a4 6c 3f
       1.0127695 0.88743335 0.941203 0.9243893
0001c0 61 78 6f 3f 5f 29 55 3f 3b 7d 76 3f 16 d5 52 3f
       0.9354306 0.8326625 0.96284837 0.82356393
0001d0 cd 9c 47 3f ce 10 41 3f e3 f0 46 3f 66 5e 71 3f
       0.77973634 0.75416267 0.77711314 0.94284666
0001e0 43 b4 43 3f 5a ef 3e 3f 5e 9e 55 3f b4 c3 50 3f
       0.7644693 0.7458397 0.83444774 0.8154862
0001f0 a7 4f 5e 3f 71 b6 42 3f 4d 08 4b 3f 6b a5 51 3f
       0.8684029 0.76059633 0.7930954 0.8189303
000200 ad 18 54 3f 18 a3 67 3f 49 24 39 3f 26 cc 73 3f
       0.8285015 0.90483236 0.7232099 0.9523338
000210 7b ba 3e 3f 18 e5 63 3f e6 43 40 3f cb 96 72 3f
       0.74503297 0.89021444 0.75103605 0.9476134
000220 58 94 5d 3f ce 7b 4c 3f 1e 90 82 3f 27 58 5d 3f
       0.8655448 0.7987641 1.0200231 0.86462635
000230 ea da 56 3f 98 8b 77 3f 53 64 38 3f 24 2a 78 3f
       0.83927786 0.9669738 0.7202808 0.969393
000240 c8 ae 7d 3f 56 68 72 3f c9 e5 5a 3f 44 19 42 3f
       0.9909482 0.94690454 0.85506874 0.758198
000250 6e ac 50 3f 9e 5e 40 3f 6b 75 45 3f 9b df 4e 3f
       0.81513107 0.75144374 0.7713229 0.80809945
000260 aa 88 52 3f 0a 46 5e 3f 50 18 4c 3f 9a 89 64 3f
       0.8223978 0.8682562 0.797246 0.89272463
000270 53 3b 4e 3f 84 70 70 3f e1 44 5c 3f d9 8d 72 3f
       0.8055927 0.93921685 0.860426 0.9474769
000280 99 e8 2d 3f ce b2 7d 3f 61 3d 70 3f e4 6a 80 3f
       0.6793304 0.9910096 0.93843657 1.003262
000290 eb f7 43 3f 76 75 61 3f d7 95 40 3f d8 ca 77 3f
       0.7655017 0.88069856 0.7522864 0.9679389
0002a0 4f 09 4c 3f 0e 14 7b 3f
       0.79701704 0.98077476

classifier.1.bias f4 [170]
000000 de 63 5e be 39 19 05 bf a3 d1 02 bf 9d c3 bc be
       -0.21717784 -0.5199161 -0.5110113 -0.3686799
000010 a7 4a 03 bf 15 ad 25 bf 36 d4 a0 be a5 a9 06 bf
       -0.51285785 -0.6471723 -0.31411904 -0.52602607
000020 0b 2f 6b be 6a 48 db be 58 93 fa be 54 33 0f bf
       -0.22967164 -0.42828685 -0.4894054 -0.55937696
000030 db 87 ea be 29 65 06 bf 92 f0 d5 be 52 22 ee be
       -0.45806774 -0.5249811 -0.41785103 -0.4651056
000040 32 63 0c bf b5 32 00 bf e7 f2 22 bf b0 64 23 bf
       -0.5483886 -0.5007737 -0.6365189 -0.6382551
000050 55 fd f2 be bc fa e1 be 38 74 b3 be de 09 10 bf
       -0.47458902 -0.44136608 -0.35049605 -0.56265056
000060 0b bb c5 be 4e fd e8 be a3 da ce be 14 52 34 bf
       -0.38619265 -0.45505756 -0.40401182 -0.7043774
000070 88 da d8 be 6e 17 3b bf 11 8c c5 be 05 c8 51 bf
       -0.42354226 -0.73082626 -0.38583425 -0.8194583
000080 47 39 08 bf 93 be 0f bf d2 6b 19 bf cb 19 1c bf
       -0.532124 -0.5615017 -0.59930146 -0.60976857
000090 0d 97 b8 be 6b b9 1f bf 37 2c de be 6c e2 ac be
       -0.36052743 -0.623923 -0.43393108 -0.33766496
0000a0 d6 90 e8 be ca fb 43 bf 99 57 c2 be 05 1e 1b bf
       -0.45423 -0.76556075 -0.37957457 -0.6059268
0000b0 53 1e 40 bf b7 f9 39 bf da 76 8b be 62 4a 14 bf
       -0.7504627 -0.7264666 -0.27239114 -0.57926
0000c0 46 29 e2 be da bd 72 bf 99 48 d4 be 9d ba 29 bf
       -0.44172114 -0.9482094 -0.41461638 -0.66300374
0000d0 3b e5 42 bf 38 48 99 be d5 16 c4 be bc d9 95 be
       -0.7613103 -0.2993791 -0.3829867 -0.2926768
0000e0 48 99 11 bf 4d 5d c3 be 7c ea bb be 4a ab 16 bf
       -0.56874514 -0.3815712 -0.36702335 -0.58855116
0000f0 ab f7 26 be be 2a ef be af 64 d9 be 50 f2 17 bf
       -0.16305415 -0.46712297 -0.42459628 -0.59354115
000100 b7 cf ae be 92 5d 12 bf 14 31 cd be ba 39 eb be
       -0.3414285 -0.57174027 -0.40076506 -0.4594248
000110 df 1c b3 be d2 03 ac be df 18 1a bf f2 b5 76 be
       -0.34982964 -0.33596665 -0.601942 -0.24092844
000120 c1 1f 0e bf b1 74 86 be 29 fd 00 bf dc 63 01 bf
       -0.555172 -0.26260903 -0.5038629 -0.50543
000130 9d ea f6 be 44 8c 1d bf c0 81 2d bf 1b e4 e3 be
       -0.4822587 -0.61542153 -0.6777611 -0.44509968
000140 f8 65 1e bf 82 6e 21 bf c7 b8 ec be 4b 8e 01 bf
       -0.6187434 -0.63059247 -0.46234724 -0.50607747
000150 07 3f 00 bf 6d 38 21 bf 1b 19 cb be c5 a1 af be
       -0.5009617 -0.62976724 -0.3966759 -0.34303108
000160 3e 57 18 bf 89 d9 3d bf a4 a9 0d bf 2f b1 b0 be
       -0.5950812 -0.7416006 -0.55336976 -0.3451018
000170 26 26 10 bf a9 8d dc be e4 2c 1e bf fd d4 0c bf
       -0.5630821 -0.43076828 -0.6178725 -0.55012494
000180 48 7f 0f bf dc b3 f7 be c9 ca 05 bf 25 bb f0 be
       -0.5605359 -0.4837941 -0.5226255 -0.4701778
000190 3d 0f da be 17 56 04 bf 13 8f 18 bf 31 f5 28 bf
       -0.4258975 -0.5169386 -0.59593314 -0.6599913
0001a0 17 42 3f bf 0f 07 e7 be 40 d5 41 bf ad ad 06 bf
       -0.7471022 -0.45122573 -0.7571602 -0.5260876
0001b0 a2 b9 02 bf 9b 62 24 bf 2d 47 55 bf 13 48 da be
       -0.51064503 -0.6421296 -0.8331173 -0.42633113
0001c0 03 c3 c5 be 67 8c c2 be 63 0e 22 bf 18 a7 bc be
       -0.38625345 -0.37997743 -0.633032 -0.36846232
0001d0 cb 91 28 bf e8 09 0d bf 41 d4 fb be 29 56 42 bf
       -0.6584746 -0.5509324 -0.49185374 -0.7591272
0001e0 cb 3d 9c be cb b8 f2 be 59 70 00 bf 2a ea 2d bf
       -0.30515894 -0.4740661 -0.5017143 -0.6793543
0001f0 58 01 29 bf 9c de 1c bf ca 1c f4 be eb fc 3b bf
       -0.66017675 -0.61277175 -0.47678214 -0.734328
000200 e3 29 eb be f6 e1 8d be 51 79 03 bf 13 21 14 bf
       -0.45930395 -0.27711457 -0.5135699 -0.5786297
000210 02 1f a8 be a6 3a 1c bf 70 60 d3 be 4c ee cf be
       -0.32836157 -0.6102699 -0.41284513 -0.40611494
000220 a9 17 bc be 6d ff 27 bf d1 6f 55 bf 94 a1 29 bf
       -0.367368 -0.65624124 -0.83373743 -0.66262174
000230 d8 50 e1 be b4 be 28 bf 74 6c 84 be 38 c6 20 bf
       -0.4400699 -0.6591599 -0.25863993 -0.6280246
000240 2e 72 45 bf bd 35 ef be 12 5a f2 be 30 30 d2 be
       -0.7712735 -0.46720687 -0.47334343 -0.4105239
000250 72 91 fe be b6 7e 25 bf 09 53 d0 be 49 bb d6 be
       -0.4972034 -0.6464647 -0.4068835 -0.41939762
000260 33 40 b1 be 7c 0c d8 be 84 1f 27 bf f1 bd 2a bf
       -0.34619293 -0.42197025 -0.65282464 -0.6669608
000270 51 71 44 bf 8c 6d d2 be 49 3b f2 be 0b 3b c7 be
       -0.7673541 -0.41099203 -0.47310856 -0.38912234
000280 ce 4f c6 be b4 07 23 bf 52 dd d1 be d4 3b 16 bf
       -0.3873276 -0.6368363 -0.40989166 -0.5868504
000290 0a f9 3b bf c3 45 27 bf 62 95 29 bf 5e 5d 0a bf
       -0.7342688 -0.6534082 -0.66243565 -0.5404872
0002a0 34 33 eb be 46 6b 16 bf
       -0.45937502 -0.58757436

classifier.1.running_mean f4 [170]
000000 f0 94 cb bb 31 43 68 3e 7f b7 20 3e 6b 31 86 3e
       -0.006212823 0.22681881 0.15694998 0.26209578
000010 e1 37 f5 3e 5b 43 ef 3d 2f 00 a2 3e 3e 0e 86 bd
       0.47894195 0.11682769 0.31640765 -0.06545685
000020 61 c6 88 be b8 26 92 bd bc fe db 3d 71 5a aa bc
       -0.2671385 -0.07136291 0.10741946 -0.020795079
000030 4a 43 40 bc 1f 01 ef bd e8 c6 9d be cf 37 d3 bd
       -0.011734793 -0.11670136 -0.30815816 -0.10313379
000040 59 5f 1a bd ba b0 52 bd b8 d2 04 3e 34 6e f1 be
       -0.037688587 -0.05143807 0.12971008 -0.4715439
000050 f4 94 5d bd 28 cb 7c be 7b 97 10 be cc ff 71 3d
       -0.05409713 -0.24686873 -0.14120285 0.059081838
000060 63 93 69 be 89 58 80 3e 2b f3 01 3f 05 be 77 3e
       -0.2281013 0.25067547 0.5076167 0.2419358
000070 f9 e6 46 be ca c0 9d 3d 3a ba 3c bd d6 1a b0 3d
       -0.19424047 0.07702787 -0.046076037 0.085988685
000080 b2 f6 09 be 0c 03 1b 3e 83 4a 32 be 3a d4 52 bd
       -0.13473013 0.15137881 -0.17411236 -0.051471926
000090 95 84 f2 3d 34 47 d8 3d 7e 33 84 3d ef 21 9e 3e
       0.11841694 0.10560456 0.06455134 0.30885264
0000a0 cf 49 9f 3e d0 b7 82 3e 85 72 52 be 16 a3 96 bc
       0.31111 0.25530863 -0.20551498 -0.018388312
0000b0 7e 21 84 be b2 9e af be 7c 1a da bb 36 e1 f2 bd
       -0.25806803 -0.34300762 -0.006655989 -0.11859362
0000c0 9a 88 6d be ac a4 e2 3d 4b 82 3e 3e ce 4d 3d 3a
       -0.2319664 0.11066565 0.1860439 0.00072213716
0000d0 23 bf 1b bf a3 ef a0 bd b4 fb b4 bd ed 13 78 3e
       -0.60838526 -0.07858207 -0.08837071 0.24226351
0000e0 06 a4 ac 3d be b1 5c be 99 ff f7 bd 30 a8 1a 3e
       0.084297225 -0.21552178 -0.12109298 0.15103221
0000f0 d3 ed 61 3e 44 d4 84 3d eb 2e bc 3d ab 3d 08 bf
       0.22063379 0.06485799 0.091886364 -0.532191
000100 b4 dc 4e be 83 5e a6 be 44 01 d0 bc ee af 15 be
       -0.20201379 -0.32493982 -0.025391228 -0.14617893
000110 29 54 e2 bc f9 8e a6 bd 03 c0 44 3e 84 db 5a be
       -0.027628021 -0.081327386 0.19213872 -0.21372801
000120 2f 02 d5 be b5 70 ae 3d ce 1e 87 3e 1e c5 5c be
       -0.41603228 0.08517591 0.2639069 -0.21559569
000130 ea 71 ac be 0b eb 87 3e de 47 fc bd e4 66 4d 3d
       -0.3368066 0.2654651 -0.12318395 0.050146952
000140 87 10 03 3e be a1 b0 3e d8 b1 b6 bc a4 6c 2a 3e
       0.12799273 0.344984 -0.0223016 0.16643006
000150 3a c7 1c be 62 ab b0 3d b1 43 90 be ef a8 a4 be
       -0.15310374 0.08626439 -0.28176644 -0.32160136
000160 a0 91 74 bd 24 a0 94 bd e3 27 c4 3d a5 a5 a1 be
       -0.05970919 -0.07257107 0.0957792 -0.3157169
000170 a7 2a 79 be f8 89 96 3c 5e b0 fb 3d eb 1f 7b be
       -0.24332677 0.018376336 0.12289499 -0.24523894
000180 45 44 be 3d ab 9c f4 bc 20 8a ad be 66 f5 07 3e
       0.09290365 -0.029859861 -0.33894444 0.13277206
000190 ed 6e d8 be 2c 7c c8 3d 39 d1 96 3d 14 dc a7 3c
       -0.4227213 0.09789309 0.07364125 0.020490684
0001a0 a4 e3 03 3d 9e 99 b8 3c 97 9d 49 bd 62 09 a2 3e
       0.032199517 0.022534188 -0.049222555 0.31647784
0001b0 4c d2 3d be d8 bb 18 be b8 ab 1e 3e e7 5e 21 3e
       -0.18537253 -0.14915407 0.15495193 0.15758859
0001c0 4d 88 93 be fc 97 6a 3d 08 79 78 3d 0a b7 96 be
       -0.28814927 0.05727385 0.0606623 -0.29436523
0001d0 ce 3d c6 bd e7 15 27 bc ff 62 9c bc e3 f0 81 be
       -0.09679757 -0.010198093 -0.019090174 -0.25379094
0001e0 b0 56 db be b1 b2 b0 3d 2e 72 61 be c2 f7 90 3e
       -0.42839575 0.08627833 -0.22016212 0.28314024
0001f0 65 86 1c 3e 0e 49 bc 3d 90 a1 96 3d 62 a5 04 3e
       0.15285642 0.091936216 0.07355034 0.12953714
000200 32 d6 d1 3d 60 2c 23 bf 95 3e 64 3e b2 65 b8 bc
       0.10245933 -0.63739586 0.22289498 -0.02250943
000210 f1 e1 d4 3d 57 ed dc 3c 15 ac 77 be 62 af bd bc
       0.103946574 0.026968641 -0.24186738 -0.023154918
000220 51 bf 88 3d 04 29 26 3d e1 1a e8 3d 5e 9f d0 3e
       0.06677116 0.04056646 0.11333252 0.40746588
000230 21 4a ba 3e 25 51 03 bd e0 79 2c 3e f3 99 e7 3e
       0.3638468 -0.032059807 0.16843367 0.4523464
000240 99 c7 f8 bd 68 3d 46 be 1e cb 15 3e 5a 0d 81 3d
       -0.12147445 -0.19359362 0.14628264 0.06301375
000250 d7 11 ba 3c 66 a3 ea 3e 78 d1 40 bd 04 af 4f 3d
       0.022713585 0.45827788 -0.047074765 0.050704017
000260 96 32 fd bd fd e2 b4 3d e7 d2 c1 3d 7e 21 e8 3b
       -0.12363164 0.08832357 0.094640546 0.0070840707
000270 f4 46 9a 3d 36 4b 40 3e 74 3b 92 3d 58 eb 02 bf
       0.075330645 0.1877869 0.07140246 -0.51140356
000280 04 dd 2a bd 99 44 b3 3d 4d 53 7a 3e e4 ba 97 3d
       -0.041714683 0.08753318 0.24445839 0.074086934
000290 73 5f ce 3e 13 5e 27 3e 3f 5c 22 be 97 ab 09 be
       0.40307197 0.1634448 -0.15855502 -0.13444363
0002a0 a8 f0 1b be c1 3c 7b bc
       -0.15228522 -0.015334309

classifier.1.running_var f4 [170]
000000 13 5e 83 3b 1a e1 47 3b 26 f9 99 3b a6 27 a0 3b
       0.0040090173 0.0030499161 0.0046988903 0.004887539
000010 d5 f8 b9 3b 38 08 8c 3b e8 c0 f0 3b 1c c0 54 3b
       0.005675415 0.0042734407 0.007347215 0.003246314
000020 68 4d aa 3b 3d 85 00 3c 1d 4c 44 3b 0f f0 84 3b
       0.005197216 0.0078442665 0.0029952594 0.0040569375
000030 a4 63 96 3b 14 2e 64 3b e6 9f e0 3b 3f e8 7c 3b
       0.004589515 0.0034817504 0.006854999 0.0038590578
000040 7f 87 db 3b 22 c7 ad 3b 50 9a 15 3b f6 80 63 3b
       0.006699502 0.0053032795 0.0022827573 0.0034714318
000050 5e 96 e6 3a b4 3f a6 3b 92 00 28 3b 29 10 5e 3b
       0.001759242 0.005073512 0.0025635106 0.0033884144
000060 ea dc 46 3b 7e 5c c3 3b 73 76 58 3b bd 4e 96 3b
       0.0030344077 0.0059619537 0.0033029586 0.004587023
000070 82 63 50 3c 2e a3 e5 3a c9 67 85 3b 38 3c 1d 3b
       0.012719037 0.0017519945 0.00407121 0.0023992192
000080 d6 4d 67 3b c6 4f 05 3c bd 95 7b 3b 3e 1e 6b 3b
       0.0035294197 0.008136695 0.0038388812 0.003587618
000090 57 1b ae 3b ee c3 0b 3c 3f 45 91 3b 2b 33 1c 3c
       0.0053133178 0.0085306 0.0044333036 0.009533684
0000a0 5a c4 8b 3b d2 20 47 3b 26 6d 8e 3b 60 16 31 3b
       0.0042653503 0.0030384553 0.0043465076 0.0027021393
0000b0 60 1d 95 3b d2 37 04 3b 8b a1 68 3b 3d 78 01 3b
       0.004550621 0.0020174873 0.0035496678 0.0019755505
0000c0 c7 af 9e 3b 06 38 01 3b 42 54 37 3b 81 4c 0b 3b
       0.0048427316 0.001971723 0.0027973806 0.0021255317
0000d0 04 1a 17 3b b6 65 34 3b 25 a1 53 3b b7 74 bc 3b
       0.0023056278 0.0027526445 0.0032292095 0.005751218
0000e0 29 61 c3 3b 1a 69 d2 3b 9d 37 54 3b 68 3d 36 3b
       0.00596251 0.0064212205 0.003238178 0.0027807597
0000f0 3e 3d 50 3b 4c 9c 6b 3b 18 3f 5c 3b fa fd 75 3b
       0.0031774784 0.0035951314 0.0033606943 0.0037535415
000100 4b 76 6f 3b c9 e0 a8 3b dd 51 4b 3c 00 b3 65 3b
       0.0036539014 0.0051537496 0.012409654 0.003504932
000110 9a 99 6f 3b 4b fb c6 3b 48 c4 09 3b b9 09 bb 3b
       0.003656006 0.006072437 0.0021021534 0.005707946
000120 6a 43 96 3b 46 29 25 3b 78 58 a3 3b b6 b8 14 3b
       0.004585673 0.0025201603 0.0049849115 0.0022693104
000130 a1 fc 19 3b d7 ea ad 3b 84 0e 03 3b 40 3b c0 3b
       0.0023496526 0.005307536 0.0019997666 0.005866438
000140 a4 ae 41 3b 6b cd 5d 3b 1a dd 81 3b 98 e8 2b 3c
       0.0029553557 0.0033844362 0.003963125 0.010492466
000150 f1 99 9e 3b c6 d7 b4 3b 66 a1 16 3c 0f 81 d1 3b
       0.0048401286 0.0055188863 0.009193754 0.006393559
000160 5f 55 99 3b 5c d4 d6 3a 8a 0b 2b 3b 26 72 7e 3b
       0.0046793665 0.0016390192 0.0026099407 0.0038825362
000170 d7 d6 f8 3a d4 8e 27 3c 40 69 23 3b 22 0b 14 3c
       0.0018984926 0.010226924 0.002493456 0.009035857
000180 52 64 14 3b 35 f6 1e 3b a5 f5 6c 3b e3 f9 a6 3b
       0.0022642803 0.0024255638 0.0036157158 0.005095707
000190 96 46 20 3b 8f ca 12 3b 60 9f 61 3b f0 97 62 3b
       0.0024456135 0.0022398566 0.003442727 0.0034575425
0001a0 dd f3 6a 3b c1 ba b5 3b 48 4f 9f 3a 7f ef 0d 3c
       0.003585092 0.0055459444 0.0012154365 0.008663057
0001b0 45 90 94 3b cb 9b f2 3b f4 ad 21 3b 06 46 ef 3a
       0.0045338 0.007403826 0.0024670335 0.0018255122
0001c0 f3 16 63 3b 34 04 4d 3b a4 28 d0 3a f0 b2 1c 3b
       0.003465113 0.0031283023 0.0015881252 0.0023910366
0001d0 3f 89 7d 3b c8 34 45 3b 8c df 12 3c ce 6b 5b 3b
       0.0038686541 0.0030091275 0.008964431 0.0033481005
0001e0 1c 25 be 3b e9 9e bb 3b 16 20 3c 3b 00 ac 1b 3b
       0.0058027636 0.0057257307 0.0028705648 0.0023753643
0001f0 62 69 d1 3b d9 8d e9 3b 9b 73 73 3b d5 13 b7 3b
       0.0063907364 0.0071275053 0.0037147764 0.005587081
000200 8a 4b 15 3b 7c 14 47 3b 15 82 44 3b 04 ae 79 3b
       0.002278062 0.00303772 0.0029984761 0.0038098106
000210 93 c9 9c 3c 50 07 30 3b 67 ff 55 3b 0c 00 a8 3b
       0.019139087 0.0026859827 0.0032653452 0.0051269587
000220 a9 fe a3 3b ce 28 23 3b 4c 86 8c 3b 36 0f 04 3b
       0.005004723 0.0024896148 0.0042884704 0.0020150668
000230 5c fd 2f 3b 11 d1 3f 3b e6 79 94 3b 85 7b 40 3b
       0.0026853895 0.00292689 0.004531133 0.0029370498
000240 1f 34 ba 3b 83 89 96 3b 74 a5 94 3b 09 e0 7c 3b
       0.005682483 0.0045940294 0.004536325 0.0038585684
000250 49 e0 48 3b a2 6d 70 3b 9b 79 2d 3c c3 dc 2d 3b
       0.0030651262 0.003668644 0.010588075 0.002652929
000260 cc 59 b6 3b d3 5d 9d 3b f2 c8 4c 3b 5e 87 4f 3b
       0.005564904 0.0048024445 0.0031247702 0.0031666378
000270 c9 f0 87 3b 0d 9e 13 3c d4 b7 75 3c df fc 35 3b
       0.004148577 0.00900985 0.014997441 0.002776913
000280 66 95 df 3b 31 24 01 3b 4f 5b 30 3c b2 2d cb 3b
       0.0068232296 0.001970541 0.010763957 0.0062005157
000290 9a ff ed 3a 03 60 29 3b e4 0d de 3b fd 38 25 3b
       0.001815784 0.002584458 0.0067765582 0.002521097
0002a0 ea 78 cc 3b 4a 09 73 3b
       0.00624 0.0037084394

classifier.4.weight f4 [160, 170]
000000 70 4a f8 be d4 57 13 3e e5 c6 04 be 94 10 02 3e
       -0.4849429 0.14388973 -0.12966497 0.12701637
000010 aa e3 71 3d b4 73 31 3d 03 bc 88 bd f0 78 36 be
       0.059055008 0.043323234 -0.066764854 -0.17819571
000020 7e fc a4 be f0 55 37 3d 11 f7 b6 3e a7 41 e4 be
       -0.32223886 0.04475969 0.35735372 -0.4458134
000030 49 5a eb 3c 58 d8 94 bd 23 f4 12 be e2 70 9e bd
       0.028729575 -0.07267827 -0.14350943 -0.077363744
000040 51 7a 92 be 8a 6a ab be 01 ef 85 3c 01 fb 33 be
       -0.28608945 -0.3347972 0.016349318 -0.17576219
000050 80 5b 9a 3c 09 c0 2a bd c6 c4 dc be 20 ff c3 bc
       0.018842459 -0.041687045 -0.43118876 -0.023925364
000060 f1 90 58 3e 1c e1 ce be 61 57 a4 3e d1 9f d6 bc
       0.21149041 -0.4040612 0.32097915 -0.026199253
000070 88 9b 2b 3c b5 7d 57 3d 0a 14 c3 ba 69 c1 1b be
       0.010474093 0.052610118 -0.0014883291 -0.15210499
000080 16 d1 cb 3d 21 6a 49 3e cd c3 49 be 98 cc 9c be
       0.09951989 0.19669391 -0.19703598 -0.30624843
000090 77 85 2d bc 2b 8c 8a 3d 62 f7 1f bc 08 95 32 3e
       -0.0105909025 0.06765016 -0.0097635705 0.17439663
0000a0 89 56 23 3d 16 01 aa 3d 8e ab 11 be 2b 67 67 be
       0.03987745 0.083009884 -0.14225599 -0.22597949
0000b0 ad 57 56 be 03 ab ab 3c bd ad 73 bd 50 2d a4 bd
       -0.20931883 0.020955568 -0.05949186 -0.08016455
0000c0 c6 b8 96 bd d0 b1 1e bd fa 00 11 bd 0a 5d 33 be
       -0.073594615 -0.038743794 -0.035401322 -0.1751596
0000d0 ff 08 ae 3d 0d 4f 9f 3c d9 83 da bd c1 d8 9b bd
       0.084978096 0.019446874 -0.10669679 -0.07609702
0000e0 00 3b a2 be ae 89 89 be b2 f7 35 3d bb ec 95 3d
       -0.31685638 -0.26862854 0.044425674 0.073205434
0000f0 94 11 4c ba e0 44 87 bd 3a ef e7 3d 10 9a b3 3c
       -0.0007784602 -0.06604934 0.11324926 0.021924049
000100 e6 cd c8 3c df a9 04 3e b7 c5 ec bd 4b 7d 96 3d
       0.024512243 0.12955426 -0.115611486 0.073481165
000110 5b 08 21 bd 6c 43 2f 3d d3 7d 8c 3b 1a 8b 35 3d
       -0.03931461 0.042788908 0.0042874604 0.04432211
000120 aa 8c ee bb 95 11 f4 be de e1 b7 bd 05 4d ac be
       -0.007279952 -0.47669664 -0.089786276 -0.3365251
000130 09 d6 09 3d 4c 6d 1f bd 80 2a 44 be 5c 9b 41 bd
       0.033651385 -0.038922593 -0.19156837 -0.047267303
000140 16 e9 43 be b2 02 63 bc 52 d4 26 3d 7b 75 68 3c
       -0.19131884 -0.013855623 0.04072983 0.014188166
000150 47 0d c5 3d 88 cd c8 3d 38 e2 8c bd 0a 27 04 be
       0.09621673 0.09804827 -0.06879085 -0.12905517
000160 df 4b 5d bd fe 40 34 3e 30 8d 0f 3a c3 0a 84 bd
       -0.054027434 0.17602918 0.00054760557 -0.06447365
000170 05 78 93 3d b7 a0 7c bd e8 2a 44 be fc 06 ba bd
       0.07200626 -0.061676707 -0.19156992 -0.090833634
000180 2e 94 f0 bd d9 6e 73 3e df 65 19 3e f6 98 58 be
       -0.11747013 0.23772754 0.14980267 -0.211521
000190 1c f4 c8 be 9b 23 80 bd 69 5a 20 3c 77 f1 7c 3c
       -0.3924874 -0.06256791 0.00978718 0.015438429
0001a0 ec 77 b5 3d c5 f5 55 3c 74 7f e3 3d 11 20 88 3d
       0.08860764 0.013059084 0.11108294 0.06646741
0001b0 8e 6d 03 be fb 7d da be b0 eb 37 be 82 28 3b 3b
       -0.1283476 -0.4267424 -0.17961001 0.002855808
0001c0 30 a0 a6 be 95 c0 35 be d1 b1 f8 3d fe b6 fd be
       -0.32544088 -0.17749245 0.12143291 -0.49553674
0001d0 be 42 b6 3d b1 3f 31 bd 57 0f 62 3e 40 ca 29 be
       0.08899449 -0.04327363 0.22076164 -0.16581059
0001e0 36 29 cb be c8 a1 8d 3d f1 38 32 be 3a 7d 76 3d
       -0.3967988 0.06915623 -0.17404534 0.06017802
0001f0 6c 3d 11 be 27 11 98 3d 5d c9 0f bd 73 1c e2 bd
       -0.14183587 0.074251465 -0.035104144 -0.110405825
000200 64 04 82 be e5 93 da 3d 78 0e 4d 3d 62 8c 06 be
       -0.25393975 0.1067274 0.050062627 -0.1313949
000210 22 ac 04 3e 92 1c a0 bd 00 18 ad be 60 98 9e be
       0.12956288 -0.07817949 -0.33807373 -0.30975628
000220 7b ea 1e be 31 c7 d7 3d 6b c2 8f bc 7b e3 61 bc
       -0.15519135 0.105360396 -0.01754876 -0.013787146
000230 9e 4b 0c 3e 48 18 76 be 89 bf 25 bd c3 74 34 3d
       0.1370072 -0.240327 -0.040465865 0.044056665
000240 f6 ab ad bd a4 b1 20 3d bf 1c 86 bd 8d b7 b9 be
       -0.084800646 0.03923191 -0.06548452 -0.3627285
000250 19 29 e9 bc f8 5f 56 3d f0 0f 4d 3d 55 27 1a bd
       -0.02846198 0.052337617 0.050064027 -0.037635166
000260 e6 7c 2f bd 7c 74 df be 6a 7a da bb 55 b1 10 3e
       -0.04284372 -0.43643558 -0.006667425 0.14130147
000270 a0 12 0b 3e d5 1c 85 bd f2 eb 38 bd dc 29 4e be
       0.13581324 -0.0649964 -0.04514689 -0.20133156
000280 8c 7d 77 3d ee d3 71 be 6d 05 be bc 4e 4e 34 3e
       0.060422465 -0.23616001 -0.023195947 0.17607996
000290 7c 44 09 3e ef fc 59 3d b3 a0 d3 bd f8 09 01 3e
       0.13405031 0.053219732 -0.10333385 0.12601459
0002a0 9e 69 aa bc 92 96 f6 b9 52 69 9b be c6 18 96 3c
       -0.020802315 -0.0004703296 -0.3035379 0.01832236
0002b0 63 a4 61 3d 22 4a d5 3d 3b 2f cd 3d 85 bd f4 3d
       0.055088412 0.1041453 0.10018774 0.119502105
0002c0 c8 1e 0e bd 77 46 84 3d 96 58 25 be 10 a6 cd 3d
       -0.034697324 0.064587526 -0.16147074 0.100414395
0002d0 d3 80 25 3e c2 87 df bc ac 4c d7 3d c6 1b 45 3d
       0.16162424 -0.027286414 0.10512671 0.04812219
0002e0 d0 5b 0e 3d 09 4d 53 be c9 33 9b bc a5 50 e3 3c
       0.034755528 -0.20634855 -0.018945592 0.027748415
0002f0 94 db 39 3e 8c da 1c be d3 79 12 3b 28 ce f4 bd
       0.18150169 -0.15317744 0.0022350445 -0.11953384
000300 d4 e5 b0 be d3 03 7c 3d 27 d1 3b 3d 46 90 cc be
       -0.34550345 0.061527085 0.04585376 -0.39953822
000310 49 66 5c 3d d0 87 9f 3c 5b 1e 99 3e 02 11 8d 3d
       0.053808484 0.01947394 0.29905972 0.068880096
000320 83 b0 29 3d 1b 80 fb 3d b1 c7 9e bb 10 e6 fd 3d
       0.0414281 0.122802936 -0.0048455824 0.123973966
000330 49 62 af bd 3c 72 af bd eb 63 be be a2 ae d4 3d
       -0.08563668 -0.0856671 -0.37185606 0.10384871
000340 a4 35 5e 3b 7a 12 1f 3e 78 4c 30 3e 63 50 90 3e
       0.0033906484 0.15534392 0.1721667 0.2818633
000350 6e 55 70 be 6a a3 61 bd d3 bb 25 be 6f 4b 8a 3c
       -0.23470089 -0.055087484 -0.1618493 0.016881673
000360 3d d8 4d bc 9f 0e 10 bd d3 98 c1 be 93 0f 0a 3e
       -0.012563762 -0.035170194 -0.37811908 0.13482504
000370 4e 81 8f bc f5 bb 37 be cb c8 54 3e 41 77 cf 3d
       -0.017517712 -0.17942794 0.20779721 0.10130168
000380 8c 78 38 3d f1 eb 6a 3c dc 78 7c bd 3a 00 2c be
       0.045036837 0.014338479 -0.061638698 -0.16796961
000390 c2 dd a5 3d e0 59 35 bd 65 ab 2d bd 21 98 62 3e
       0.080989376 -0.044275165 -0.042399783 0.22128345
0003a0 97 4a 6e be 52 2c 7e 3d 66 2d 30 bc a5 5a 86 bd
       -0.23270641 0.062053986 -0.010753011 -0.06560258
0003b0 3e 7e 1c 3e aa d2 4f 3e d6 59 98 3c 99 5f cf 3c
       0.15282533 0.20295206 0.018597525 0.02531414
0003c0 e6 3a ae 3e 37 0a 66 be 69 ec 34 3e 95 b2 0f bf
       0.3402931 -0.22464834 0.17668308 -0.5613187
0003d0 36 f8 b1 3d ed 40 69 be af 19 b8 3d 91 93 86 3d
       0.086899206 -0.22778673 0.08989274 0.06571115
0003e0 75 60 e7 be f4 3d b0 bd 46 51 2b be 40 6a 60 bd
       -0.45190778 -0.086055666 -0.16730222 -0.054788828
0003f0 8d c1 f0 bc ab dd a3 3d 2f c8 cf 3e 19 a1 18 3d
       -0.029389167 0.08001264 0.40582415 0.03726301

classifier.4.bias f4 [160]
000000 d7 b9 89 3d 26 c3 96 3d b4 85 dc 3b ff 06 63 bd
       0.06724899 0.0736144 0.006729806 -0.055426594
000010 78 d1 87 bd f3 0b 8f 3d 64 42 53 3d 24 9c e2 3d
       -0.0663175 0.06984701 0.051576987 0.11064938
000020 41 04 c7 ba ea be 22 3d 84 7f c4 3d fe 49 68 3d
       -0.0015183763 0.03973285 0.09594634 0.05671119
000030 dd 89 ac 3d 84 ed 92 bd 84 e9 24 bd ad da dd ba
       0.08424733 -0.07174209 -0.04026176 -0.0016926132
000040 1e c2 99 bd d3 98 21 3d f6 c4 8c 3d 6f 44 80 bd
       -0.07507728 0.039452385 0.06873505 -0.06263053
000050 16 8e 94 3d 1c ad 16 3d 97 c0 7c 3d 2d cb 8a 3d
       0.07253663 0.036786184 0.061707105 0.06777034
000060 20 91 96 bd 8f 6b ca bc ba 39 b6 bd 1d 46 33 bd
       -0.07351899 -0.024709491 -0.08897729 -0.043768037
000070 e0 88 d9 3c 68 d8 46 3d 8e d3 74 3c 00 58 c7 3d
       0.026554525 0.048546225 0.014943017 0.097335815
000080 07 96 bf 3d 4a d2 41 bd f1 20 08 bc 58 57 37 3d
       0.09354787 -0.047319688 -0.008308635 0.044761032
000090 a8 7e 26 3d 2c 97 a0 3d 7a 80 03 3b bc cc f6 bb
       0.040648133 0.07841334 0.0020065592 -0.0075317305
0000a0 4f 6c 7e bd bb 61 30 bd 97 b8 82 3c d0 48 b0 3d
       -0.06211501 -0.043061953 0.01595716 0.08607638
0000b0 86 ca ba 3d 23 aa 7c 3d 4b 8b fa bc da 63 8b bd
       0.091206595 0.061685693 -0.030583998 -0.068061545
0000c0 5b 9a 84 bc 96 63 4f 3d ce 21 04 3d 7b 1c 64 bd
       -0.016186884 0.050632082 0.0322588 -0.055691224
0000d0 b0 d9 bb bc e6 ea a4 bd 53 83 a3 bd 8e 41 91 3d
       -0.02293095 -0.08052616 -0.079840325 0.07092582
0000e0 12 69 0a 3b f9 7e 79 3d 06 55 7c bb 97 bd e1 3d
       0.0021119756 0.060912106 -0.0038502826 0.110224895
0000f0 91 4e a5 bc d1 a6 b9 bb fb 80 6b 3c a7 45 55 bd
       -0.020179065 -0.005665638 0.014374013 -0.05206838
000100 41 ba 53 bc 4d dd 37 3d f7 fd 6d bc 6a 79 81 3d
       -0.012922824 0.044888783 -0.014525882 0.06321986
000110 85 fb 53 3c 56 d9 0e bd 92 8b c0 bd fe c4 db 3d
       0.012938385 -0.034875236 -0.09401621 0.10730933
000120 7a 6a 3e bd 1b ba b6 bb 87 2e 10 3c 05 d3 79 bc
       -0.046488263 -0.0055763847 0.0088001555 -0.015248065
000130 f1 1a 98 bd 31 74 93 3d 92 e4 97 bd 40 a4 1d 3d
       -0.07427014 0.07199896 -0.07416643 0.03848672
000140 9f 64 89 3d 2c b2 58 3d 06 7b 38 bc d7 51 10 3c
       0.06708645 0.052904293 -0.0112598 0.008808575
000150 f6 0b 11 bd 97 94 45 3d ec 83 fc 3c ca 50 d5 bd
       -0.035411797 0.04823741 0.030824624 -0.104158
000160 d4 8b 08 bd c3 07 3a bc 8d 97 2b bd 71 6a 2e bd
       -0.033336475 -0.01135439 -0.041892577 -0.04258198
000170 a0 45 2b 3d cd 0d 98 3d 7b 60 02 3e 3d 18 0d bd
       0.041814446 0.07424507 0.12732117 -0.034446944
000180 5a 8f 6b 3b 86 62 69 bd 27 0b fc 3d 62 7d 42 3c
       0.0035943598 -0.056978725 0.12306815 0.011870714
000190 b5 c9 54 3d 0b f6 4e bd 65 25 3e bd 95 d8 d6 3b
       0.051950175 -0.050527614 -0.04642238 0.0065565803
0001a0 84 82 1c bd dc 1a 93 bd 90 50 14 be f8 dc 9c bd
       -0.038210407 -0.071828574 -0.14483857 -0.07659334
0001b0 34 1f 95 bc c7 14 a4 3c cf 16 4e bc 7b 1c 87 3b
       -0.018203355 0.020029439 -0.01257868 0.004123268
0001c0 1c ca cb 3c 71 62 7c bc 72 b5 ca 3d 2b 54 8f 3d
       0.024876647 -0.01540433 0.09897889 0.06998476
0001d0 64 b3 8f bd 6e 5a dc 3d b3 44 98 bb da c1 e9 3c
       -0.07016638 0.107594356 -0.0046468615 0.028534818
0001e0 d9 3a dd 3c 2a bf a8 3d 13 e0 47 bd d8 c7 1a 3d
       0.0270056 0.08239587 -0.04879768 0.037788242
0001f0 8a 6d 1f 3d c4 7a 06 bd 21 ba a9 3d c0 d5 78 3d
       0.038922824 -0.032831922 0.082874544 0.060750723
000200 7e b0 8b bc 06 30 6d bb c3 b4 ab 3c 03 af 89 bd
       -0.017051931 -0.0036191954 0.020960217 -0.06722834
000210 a4 e9 83 ba 1d 71 cd 3c 87 4c 0f bd ea bc 5d bd
       -0.0010064137 0.02507835 -0.03498509 -0.05413524
000220 fd 20 d1 bb ef 68 32 bd 4d 60 35 bd 01 7a 6a 3d
       -0.0063821063 -0.043557104 -0.044281293 0.05724526
000230 42 23 4c bd b9 5b e4 bb 8f da 8b bc ab 20 52 bd
       -0.049838312 -0.006968942 -0.01707199 -0.051300686
000240 46 ba 18 bd 0b 44 c8 bb c3 3b 10 bd 79 2b 6e 3d
       -0.03728702 -0.006111627 -0.035213243 0.058146928
000250 aa a9 a7 bc d6 5e c4 bd 87 8e 43 3d 35 fd 80 bd
       -0.020466644 -0.09588401 0.047743347 -0.062982954
000260 5f 5d d7 bb 0e 1f 81 bd 06 67 b5 3d 06 27 02 3e
       -0.00657241 -0.06304751 0.08857541 0.12710199
000270 3b c1 35 3d 91 6c 85 bd 5c 71 74 bd a7 f2 fa 3d
       0.044373732 -0.06514848 -0.05967842 0.122533135

classifier.5.weight f4 [160]
000000 2d 2d 8d 3f b3 44 4f 3f c2 1c 69 3f 80 67 3c 3f
       1.1029412 0.809642 0.91059506 0.7359543
000010 52 86 5c 3f 31 30 63 3f 97 ad 3f 3f 44 c4 63 3f
       0.86142457 0.8874541 0.7487425 0.8897135
000020 02 1b 6e 3f 91 6d 8d 3f 41 e0 40 3f 4e 9a 55 3f
       0.9300996 1.1049062 0.75342184 0.83438575
000030 67 32 77 3f 6f a1 80 3f f2 34 33 3f 7c 58 3e 3f
       0.9656128 1.0049266 0.70002663 0.74353766
000040 73 02 2f 3f 36 63 42 3f 08 9c 7e 3f 68 33 4c 3f
       0.6836311 0.75932634 0.99456835 0.7976594
000050 55 af 2c 3f dc 4f 81 3f 12 03 3f 3f d2 a3 5a 3f
       0.67455035 1.0102496 0.7461406 0.8540622
000060 70 00 47 3f ed ab 59 3f b7 46 48 3f 96 51 60 3f
       0.7773504 0.8502796 0.782329 0.8762449
000070 d0 3e 90 3f b1 1b 2d 3f aa 52 67 3f 68 58 42 3f
       1.1269169 0.6762038 0.9036051 0.7591615
000080 a9 e1 42 3f 1a 44 48 3f 10 1f 3c 3f a3 26 66 3f
       0.7612558 0.78228915 0.734849 0.89902705
000090 a0 34 4f 3f 6a 5d 15 3f 66 a0 81 3f a6 85 8a 3f
       0.80939674 0.58345664 1.0127075 1.0822036
0000a0 ac 80 2a 3f 18 a5 8a 3f 56 82 7f 3f 4c 85 47 3f
       0.6660259 1.0831633 0.9980825 0.7793777
0000b0 7a 0f ac 3f 6c bb 34 3f a6 bc 41 3f 24 39 62 3f
       1.3442223 0.70598483 0.7567848 0.8836844
0000c0 29 31 6f 3f 73 d1 5a 3f 67 34 83 3f b4 80 5d 3f
       0.9343439 0.85475844 1.0250367 0.8652451
0000d0 17 c6 36 3f 59 94 5f 3f 18 e7 79 3f e1 f5 1e 3f
       0.7139601 0.87335736 0.97618246 0.6209393
0000e0 6f 3e 65 3f 77 5d 70 3f 89 63 6d 3f 4c cb 40 3f
       0.8954839 0.93892616 0.92730004 0.75310206
0000f0 98 29 58 3f ff 43 68 3f 08 44 7b 3f 90 e6 6d 3f
       0.8443847 0.90728754 0.9815068 0.92929935
000100 ca 37 78 3f a9 23 40 3f 3f dd 85 3f 92 ec 7f 3f
       0.9696013 0.75054413 1.0458144 0.9997035
000110 aa b7 5c 3f f7 ca 50 3f 83 53 72 3f 07 66 8c 3f
       0.8621775 0.815597 0.9465868 1.0968636
000120 77 df 72 3f b7 47 7f 3f 6f fc 31 3f eb 36 45 3f
       0.9487223 0.99718803 0.6952581 0.77036923
000130 93 9c 1d 3f 12 3f 3f 3f d5 47 90 3f 01 d0 37 3f
       0.6156704 0.7470561 1.1271921 0.71801764
000140 54 7a 5c 3f 49 c1 4e 3f 0e dc 75 3f ac 12 5e 3f
       0.8612416 0.8076368 0.960389 0.8674724
000150 53 2e 91 3f ee ae 33 3f 98 62 6d 3f f9 5b 69 3f
       1.1342262 0.70188797 0.9272857 0.91155964
000160 af 37 31 3f d8 c4 8f 3f dc ed a3 3f b5 5b 7c 3f
       0.6922559 1.1231947 1.2806964 0.98577434
000170 c5 45 84 3f 4d 97 8f 3f c1 6a 77 3f 03 0f 52 3f
       1.0333792 1.1218048 0.9664727 0.82054156
000180 62 e4 51 3f c5 d3 57 3f 2c 88 56 3f ef f2 5e 3f
       0.8198911 0.8430751 0.8380153 0.8708944
000190 a0 1a 36 3f 20 c8 30 3f ad 28 6a 3f 84 a4 4d 3f
       0.71134377 0.69055367 0.91468316 0.80329156
0001a0 3c e3 54 3f cf 06 40 3f 90 0b 63 3f dd e9 34 3f
       0.8315923 0.7501039 0.8868952 0.7066935
0001b0 97 01 50 3f f5 94 30 3f 05 e4 82 3f fb 06 76 3f
       0.81252426 0.6897729 1.0225836 0.961044
0001c0 fd 96 78 3f 62 d3 71 3f 1e 24 6a 3f 77 54 56 3f
       0.9710539 0.9446317 0.9146136 0.83722633
0001d0 fa 63 69 3f b0 8e 65 3f 8b 22 37 3f 54 e0 51 3f
       0.9116818 0.8967085 0.71537083 0.8198292
0001e0 62 ae 27 3f 4f 83 82 3f 0f 51 99 3f 14 64 39 3f
       0.6550046 1.0196322 1.1977862 0.7241833
0001f0 d8 5c 37 3f 94 4a 89 3f eb a0 4f 3f a2 fb 1c 3f
       0.71626043 1.0725884 0.81104916 0.6132146
000200 9e f7 32 3f af 3f 2d 3f 7a ac 43 3f 9f ac 88 3f
       0.69909084 0.676753 0.76435053 1.067768
000210 ba ad 4e 3f 68 58 3a 3f 73 9d 88 3f 9c 90 36 3f
       0.80733836 0.7279115 1.067305 0.71314406
000220 99 c8 27 3f b0 eb 91 3f d6 f6 3d 3f d2 82 79 3f
       0.6554046 1.1400051 0.74204767 0.9746524
000230 cc f4 29 3f 4f 97 8d 3f 20 b3 84 3f e9 14 31 3f
       0.66389155 1.1061801 1.0367165 0.6917253
000240 47 55 79 3f 24 b6 80 3f f9 a4 81 3f ed 1d 3f 3f
       0.9739575 1.0055585 1.0128471 0.7465504
000250 00 4e 5e 3f 11 a0 82 3f f3 32 76 3f f7 7d 1f 3f
       0.8683777 1.0205098 0.9617149 0.6230158
000260 e5 db 23 3f 54 be 5d 3f 6e 89 61 3f 35 cc 29 3f
       0.6400741 0.8661854 0.88100326 0.6632722
000270 78 f7 77 3f 06 e7 88 3f ab fc 42 3f cc 8f 5e 3f
       0.9686198 1.0695503 0.7616679 0.86938167

classifier.5.bias f4 [160]
000000 6b 0c 14 bf be 5a a9 be 6f d0 cf be 6c ff 02 bf
       -0.5783145 -0.33077043 -0.4058871 -0.5117099
000010 f4 ef d2 be e4 79 7e be f8 c0 1a bf 71 a4 fb be
       -0.41198695 -0.24851185 -0.60450697 -0.49148896
000020 a3 cb b5 be 16 1e a9 be 3c 97 a3 be d8 42 40 be
       -0.35506925 -0.33030766 -0.3195132 -0.18775499
000030 81 4b fd be 7a 7e e6 be 4a 19 cb be dc 5f a8 be
       -0.49471667 -0.4501837 -0.39667732 -0.32885635
000040 0b a0 04 bf ec df ca be ff 5b 30 bf dc f5 9c be
       -0.51806706 -0.39623964 -0.68890375 -0.30656326
000050 b8 bb d6 be 96 94 e2 be 8e 2a f8 be 57 c3 83 be
       -0.41940093 -0.44253987 -0.48469967 -0.2573497
000060 c5 5d 96 be e3 51 86 be 9c 31 9d be 77 83 9f be
       -0.29368415 -0.2623435 -0.3070191 -0.31154987
000070 53 6d 4b bf 8e cb e4 be 62 2b 08 bf f5 1b 3b be
       -0.7946369 -0.4468655 -0.53191197 -0.18272384
000080 48 1e e1 be f9 ba cd be 5e 4d 0a bf a7 94 cb be
       -0.43968415 -0.4018171 -0.540243 -0.3976185
000090 9d 4c 22 bf 30 93 2d bf ce 45 cf be 1c 51 0c bf
       -0.6339815 -0.67802715 -0.40482944 -0.54811263
0000a0 4a b8 b8 be 22 93 03 bf 4b 32 1e bf 6a 9b ee be
       -0.360781 -0.5139638 -0.6179549 -0.46602947
0000b0 07 62 2a bf ee 3a c5 be df d5 de be 6f b9 34 be
       -0.6655583 -0.38521522 -0.43522546 -0.17648862
0000c0 a8 d0 cc be f8 9b 8b be 62 1b c7 be ee cc 10 bf
       -0.40002942 -0.27267432 -0.3888808 -0.565627
0000d0 38 36 ba be 17 62 aa be ad 08 a0 bd f7 6a dc bd
       -0.3636949 -0.33277962 -0.07814155 -0.107625894
0000e0 c5 86 ec be d2 8b 92 be 07 19 c0 be 52 41 19 bf
       -0.4619657 -0.286223 -0.37519094 -0.59865296
0000f0 eb e1 c0 be c3 e9 37 bf 50 c1 97 be 45 df c9 be
       -0.37672362 -0.7184107 -0.29639673 -0.39428154
000100 97 8d d6 be f3 a2 b6 be 1a 1f 59 bf aa 7f 00 bf
       -0.419049 -0.35671195 -0.8481308 -0.501948
000110 d6 44 d0 be 44 5d 18 bf 95 fd 8a be 1c 8e c8 be
       -0.40677518 -0.5951731 -0.27146593 -0.3917092
000120 83 90 e4 be 73 d5 0b bf ea 0c 99 be b5 34 93 be
       -0.44641504 -0.5462257 -0.29892665 -0.2875115
000130 fb e1 b2 be 79 73 a3 be 5f 71 90 be b4 6f e0 bd
       -0.34938034 -0.31924036 -0.28211495 -0.10958806
000140 a2 75 ac be 00 73 e4 be 2c 93 b8 be 95 07 a7 be
       -0.33683497 -0.44618988 -0.36049783 -0.32622972
000150 d7 0a d3 be 65 fe bb be af 86 b4 be 03 6a 07 bf
       -0.41219208 -0.36717525 -0.35259005 -0.52896136
000160 9b 16 fe be 21 ee 41 be 29 b8 12 bf 43 a4 ee be
       -0.49626622 -0.18938495 -0.57312256 -0.46609697
000170 27 02 14 bf 7d 89 25 bf 71 0a 9f be a8 5f 9f be
       -0.57815784 -0.64662915 -0.31062654 -0.31127667
000180 07 70 26 be 3e 23 36 be 98 1a 37 bf 09 db db be
       -0.16253673 -0.17786881 -0.71524954 -0.42940548
000190 17 5b 36 bf 40 f6 e6 be a3 64 0b bf 72 6d cd be
       -0.7123274 -0.4510975 -0.54450434 -0.40122563
0001a0 42 50 d8 be 01 5c 9d be f7 23 84 be 40 06 a0 be
       -0.42248732 -0.30734256 -0.2580869 -0.31254768
0001b0 06 02 d4 be 01 f6 b7 be 0e 8a 24 bf 00 48 e3 be
       -0.41407794 -0.35929874 -0.64273155 -0.4439087
0001c0 4c d8 0a bf fd d3 01 bf e4 97 c4 be 2a d6 8d be
       -0.5423629 -0.50714093 -0.38397133 -0.27702457
0001d0 ee ea d5 be 86 b3 12 bf bb f6 99 be 84 7e ba be
       -0.417808 -0.5730518 -0.30071053 -0.3642465
0001e0 c9 fb 3e be f6 b3 23 bf 9b 8c b2 be 02 ac e4 be
       -0.18650736 -0.63946474 -0.34872898 -0.44662482
0001f0 ff fb 38 bf 0d 24 2d bf 79 2a ac be 48 4b 8b be
       -0.72259516 -0.67633134 -0.33626154 -0.27205873
000200 e3 6d 28 bf ab d7 07 bf fa 34 be be 04 35 0c bf
       -0.65792674 -0.5306346 -0.37149793 -0.54768395
000210 6b 3b f0 be c0 a0 09 bf ba 9c 1f bf 15 b9 ac be
       -0.46920332 -0.5376091 -0.6234852 -0.33734956
000220 96 a9 eb be 43 45 d0 be e4 d3 c8 be aa a3 f3 be
       -0.4602782 -0.40677842 -0.3922416 -0.47585803
000230 28 ea 08 bf 8f 95 1a bf 6a de ac be da de 05 bf
       -0.53482294 -0.6038446 -0.33763438 -0.5229317
000240 2c 5f 47 bf db 7c 21 bf 1c be 0a bf db 4f 38 be
       -0.77879596 -0.6308114 -0.54196334 -0.17999212
000250 86 62 d9 be e7 e6 b6 be c2 20 4f be e4 58 d5 be
       -0.4245798 -0.3572304 -0.2022734 -0.4166938
000260 f4 2d e1 be c1 cf c7 be c7 a9 98 be 68 2f 43 bf
       -0.43980372 -0.3902569 -0.2981703 -0.7624421
000270 bc d5 1e bf 7c 43 2b bf c4 0a 9e be a8 60 5e bf
       -0.6204488 -0.6689985 -0.3086759 -0.86866236
