ckpt/MAP_HF/5/best_loss_BEST2.ckpt (torch, 271136 bytes, 19 tensors)

classifier.0.weight f4 [160, 54]
0.013204842 0.007876976 0.054729816 -0.18533057 0.025877694 0.22489606 -0.4961497 0.019712338
0.11109177 0.080492176 0.23014186 -0.71167254 -0.025799943 -0.048845414 0.09268442 0.29004472
0.013585164 -0.66492355 -0.37990972 -0.058336627 0.08939792 0.059495598 -0.47380954 0.12291485
0.7820016 -0.07473404 0.0959533 0.029335901 0.3164963 0.5937128 -0.3306532 -0.06560738
-0.00711891 -0.14559467 0.25238606 0.1560879 -0.011747092 -0.08107958 0.13866171 -0.12273651
0.2235246 -0.3069735 -0.03163608 -0.19788769 -0.6276882 -0.46634173 0.4588166 -1.4859589
-0.023379132 -0.09058979 -0.0553354 -0.37446433 0.41180617 0.1716111 0.2547549 0.36354837
-0.10410186 0.09238818 -0.1056829 -0.08279013 0.5663042 -0.043603446 -0.13396923 0.09049679
0.11798941 0.8786011 -0.015013583 0.029823165 -0.24398117 0.21540506 -0.39823142 0.521177
-0.07699275 0.24296327 0.38494736 -0.2095651 -0.086296126 -0.39510942 0.59753007 -0.033979468
-0.12299306 0.20211011 -0.23693652 -0.49608818 -0.295397 -0.012969429 0.010574304 -0.41034028
0.22691534 0.5977511 0.04416236 0.11953833 -0.13273594 0.025485827 -0.84780866 -0.11488301
-0.10491527 0.170874 0.19252568 0.33419862 0.7162741 0.5696539 -0.016213577 0.04303388
0.2927869 -0.16398738 0.107807346 0.09817973 -0.07440673 -0.18235977 -0.031605795 -0.2170404
0.04022761 0.052719485 -0.12644893 -0.014726885 -0.60506517 -0.04091353 -0.5750058 -0.29829517
-0.019015763 -0.16000333 0.039453454 -0.06782656 0.43724337 -0.05631072 0.093876645 0.09487908
-0.038299635 0.23741259 0.12898564 0.040583126 -0.6175979 0.15612647 0.38502482 -0.17639998
0.123394504 -0.40804923 -0.54429525 0.04153833 -0.5106925 -0.40785757 -0.23126611 -0.4685523
-0.028883064 -0.06757999 -0.16242856 -0.23982686 0.32377926 0.6682345 0.023434628 -0.06292673
0.2475301 0.45099685 -0.6475336 -0.31843328 0.009185363 0.16425553 0.12240189 -0.03398397
0.023334652 0.12673642 0.077571936 -0.336075 -0.039779067 -0.0018903401 -0.16076279 -0.7335951
0.20437431 0.14112373 0.19536541 -0.31435516 0.10469225 -0.06426596 0.17605938 -0.03785986
-0.19237189 -0.01178794 0.42228878 0.40655515 0.038234167 -0.110950105 0.024775894 0.018156728
-0.16800039 0.42284814 0.06184219 -0.026434738 -0.005372935 0.11215071 0.40430218 0.31992835
0.93646455 -0.069049194 0.0061593186 0.28585827 -0.033098314 -0.04255748 0.023132782 -0.023008471
0.25895068 -0.16912203 0.46798956 -0.5339214 -0.029542506 0.27626544 0.116277225 -0.8102053
0.55837375 -0.73700786 0.094079204 0.047479063 -0.4600091 0.1670514 0.0020309256 -0.587958
0.2052666 0.13694783 0.030614216 -0.16121165 0.23154135 -0.324744 -0.26681614 0.08542498
0.33415145 -0.2570831 -0.23021401 -0.12703368 0.5156508 0.013196208 0.014223776 -0.12731451
0.10492829 0.25543085 -0.14405178 -0.18087661 -0.16862349 -0.24033502 0.29734936 0.11378052
-0.22174998 0.039141305 -0.20818497 -0.05851888 0.10041162 1.354864 0.37939897 0.089421384
0.27671227 0.14825103 0.15085404 0.025662396 0.020216981 -0.046628557 0.0983598 -0.19462027
00000000: 1f59 583c 6f0e 013c 5f2c 603d 4cc7 3dbe
00000010: 75fd d33c 274b 663e 5507 febe c57b a13c
00000020: 1584 e33d 15d9 a43d 4faa 6b3e 2c30 36bf
00000030: 675a d3bc 2112 48bd 54d1 bd3d be80 943e
00000040: 4f94 5e3c 6e38 2abf 8783 c2be 63f2 6ebd
00000050: 4216 b73d a8b1 733d 2a97 f2be c8ba fb3d
00000060: 4231 483f 290e 99bd 2a83 c43d d851 f03c
00000070: ce0b a23e 90fd 173f 604b a9be 295d 86bd
00000080: bf45 e9bb c516 15be bf38 813e 82d5 1f3e
00000090: e076 40bc 0d0d a6bd 56fd 0d3e 485d fbbd
000000a0: a2e3 643e a12b 9dbe d694 01bd 12a3 4abe
000000b0: 2db0 20bf 58c4 eebe 02ea ea3e e733 bebf
000000c0: 9885 bfbc 2487 b9bd 5fa7 62bd cab9 bfbe
000000d0: 42d8 d23e d2ba 2f3e 3c6f 823e 0323 ba3e
000000e0: 5b33 d5bd 0436 bd3d 4770 d8bd df8d a9bd
000000f0: 50f9 103f 8799 32bd 3b2f 09be 6256 b93d
00000100: 6fa4 f13d 00ec 603f 88fb 75bc b64f f43c
00000110: 33d6 79be 2593 5c3e fde4 cbbe db6b 053f
00000120: 60ae 9dbd 5dcb 783e d217 c53e 3c98 56be
00000130: 06bc b0bd c84b cabe bbf7 183f 0e2e 0bbd
00000140: c9e3 fbbd f4f5 4e3e 7d9f 72be 45ff fdbe
00000150: 473e 97be ba7d 54bc d83f 2d3c 1f18 d2be
00000160: 7f5c 683e 3706 193f 97e3 343d 83d0 f43d
00000170: eeeb 07be a7c7 d03c fd09 59bf c947 ebbd
00000180: d1dd d6bd 98f9 2e3e 7425 453e 151c ab3e
00000190: bd5d 373f d7d4 113f 56d2 84bc 4b44 303d
000001a0: 2ae8 953e 4fec 27be 19ca dc3d 7412 c93d
000001b0: 8e62 98bd 85bc 3abe 1475 01bd d73f 5ebe
000001c0: b5c5 243d 63f0 573d d47b 01be 0849 71bc
000001d0: 8de5 1abf f294 27bd 9533 13bf 25ba 98be
000001e0: f2c6 9bbc ead7 23be f299 213d a7e8 8abd
000001f0: 5dde df3e 12a6 66bd 6642 c03d f74f c23d
00000200: 14e0 1cbd 491c 733e d014 043e 7e3a 263d
00000210: e51a 1ebf 9edf 1f3e f921 c53e 32a2 34be
00000220: 42b6 fc3d d4eb d0be ef56 0bbf 1924 2a3d
00000230: bebc 02bf b5d2 d0be 06d1 6cbe 16e6 efbe
00000240: 2d9c ecbc 6167 8abd ac53 26be 2c95 75be
00000250: 65c6 a53e 6b11 2b3f faf9 bf3c bbdf 80bd
00000260: 8878 7d3e 0fe9 e63e c3c4 25bf b009 a3be
00000270: 347e 163c 9a32 283e d8ad fa3d c632 0bbd
00000280: 5028 bf3c 31c7 013e 09de 9e3d 0612 acbe
00000290: 60ef 22bd 4ac5 f7ba 009f 24be e3cc 3bbf
000002a0: 8047 513e bd82 103e df0d 483e 29f3 a0be
000002b0: e468 d63d df9d 83bd e948 343e f112 1bbd
000002c0: 23fd 44be 3422 41bc 3c36 d83e ff27 d03e
000002d0: 6e9b 1c3d cf39 e3bd d1f6 ca3c 6bbd 943c
000002e0: 4b08 2cbe 8d7f d83e 3c4e 7d3d aa8d d8bc
000002f0: 720f b0bb 45af e53d b200 cf3e a6cd a33e
00000300: 24bc 6f3f aa69 8dbd 1cd4 c93b 045c 923e
00000310: 1992 07bd c150 2ebd f680 bd3c 437c bcbc
00000320: 2f95 843e 532e 2dbe 549c ef3e 13af 08bf
00000330: 2003 f2bc aa72 8d3e c122 ee3d 9d69 4fbf
00000340: 95f1 0e3f 8cac 3cbf 99ac c03d 6879 423d
00000350: 5086 ebbe 860f 2b3e 4719 053b 6a84 16bf
00000360: 6831 523e 0d3c 0c3e aaca fa3c ab14 25be
00000370: 2d19 6d3e d844 a6be 209c 88be 4bf3 ae3d
00000380: e615 ab3e 65a0 83be 39bd 6bbe 1e15 02be
00000390: b101 043f e834 583c d70a 693c bc5e 02be
000003a0: a5e4 d63d d5c7 823e 4f82 13be b837 39be
000003b0: a3ab 2cbe 621a 76be 2d3e 983e c305 e93d
000003c0: 6d12 63be a252 203d 712e 55be 7eb1 6fbd
000003d0: 9ca4 cd3d 2f6c ad3f 9540 c23e 8f22 b73d
000003e0: 3bad 8d3e 1ecf 173e 7b79 1a3e f239 d23c
000003f0: 159e a53c 96fd 3ebd dd70 c93d 894a 47be

classifier.0.bias f4 [160]
0.075037606 0.20630445 -0.12766778 -0.12852225 -0.21880373 -0.36045197 -0.24612588 0.16990492
-0.04041441 0.015961414 -0.19324161 -0.028045103 0.21231373 -0.23085438 -0.26051664 -0.0068799155
0.17914921 -0.3124765 -0.10789583 0.08870601 0.12467071 -0.12529501 0.2012067 -0.21184628
0.028144505 0.2911576 0.23978455 0.11519525 -0.3909971 -0.11052995 0.12104809 -0.1161304
0.12921841 0.25384903 -0.23386033 -0.13984162 -0.27031344 -0.071137995 0.043257285 0.065418504
-0.004301777 0.023844752 -0.34661853 0.002373496 -0.11067754 -0.1461198 -0.07144026 0.2869688
0.035692006 -0.09455305 0.09650021 -0.04859018 0.09006641 0.06444869 -0.17344944 0.20503911
0.06236262 0.110587634 0.40234274 0.009299047 0.09738243 -0.18141656 0.0688256 0.19683425
0.1262987 -0.22320989 -0.1349324 0.08422597 -0.09832251 -0.12523706 0.05488208 -0.15275195
-0.18399161 0.0923949 -0.045212783 -0.11606326 0.09518577 0.11531221 -0.12255275 -0.10888866
-0.18378562 0.23120497 0.2227956 0.16535097 -0.18618819 -0.047187347 -0.07931428 -0.05221082
-0.20521612 -0.03255906 -0.14085582 0.040225238 0.3032555 0.06999424 0.1280523 -0.020036627
0.40770116 -0.12859906 0.21002395 -0.101705536 -0.012679253 -0.059297558 0.29862124 0.146976
-0.22991352 -0.09263436 0.012468494 0.0687579 0.09727692 -0.40051872 0.04886163 0.12695104
0.023145512 0.30178395 0.43716234 -0.07443877 -0.22630647 -0.05889912 0.009998576 -0.052339196
-0.0647919 0.06668643 0.06816053 0.05416952 -0.08646432 0.11727579 -0.11620275 0.07423895
0.10923878 0.13943179 -0.17959943 0.12068005 0.048637494 -0.17422186 0.41681194 -0.12553142
0.09297578 0.02477356 0.2650471 -0.17176677 -0.0038205327 -0.096812844 -0.061057974 -0.16049708
0.34660125 -0.10840598 0.06956868 -0.08569161 0.3372616 0.17024045 0.040856615 -0.18911614
0.092192456 -0.19415863 0.19373672 0.05941844 0.45546836 0.029425535 0.030787244 -0.008484712
00000000: 51ad 993d 7941 533e 58bb 02be 569b 03be
00000010: 160e 60be 298d b8be 6c08 7cbe 8efb 2d3e
00000020: 9589 25bd 83c1 823c 21e1 45be d8be e5bc
00000030: c568 593e 1765 6cbe 7062 85be ea70 e1bb
00000040: e472 373e ebfc 9fbe 7df8 dcbd 7fab b53d
00000050: 5b53 ff3d 564d 00be 2109 4e3e 3bee 58be
00000060: 4e8f e63c 9c12 953e 158a 753e 7deb eb3d
00000070: c630 c8be 875d e2bd 10e8 f73d c6d5 edbd
00000080: d551 043e 80f8 813e 1579 6fbe a432 0fbe
00000090: 8666 8abe ccb0 91bd 8d2e 313d 23fa 853d
000000a0: ecf5 8cbb 1256 c33c fc77 b1be a88c 1b3b
000000b0: e8aa e2bd 6ea0 15be 454f 92bd 93ed 923e
000000c0: c831 123d 08a5 c1bd e7a1 c53d 7f06 47bd
000000d0: bd74 b83d adfd 833d bb9c 31be c6f5 513e
000000e0: f26f 7f3d c57b e23d deff cd3e 085b 183c
000000f0: 7170 c73d 43c5 39be 70f4 8c3d eb8e 493e
00000100: 7254 013e 2291 64be b82b 0abe aa7e ac3d
00000110: 505d c9bd 253e 00be 08cc 603d 026b 1cbe
00000120: 4c68 3cbe 8a39 bd3d 0a31 39bd 93b2 edbd
00000130: c2f0 c23d cf28 ec3d f0fc fabd 0501 dfbd
00000140: 4c32 3cbe ffc0 6c3e 8824 643e c451 293e
00000150: 1ea8 3ebe 8547 41bd 866f a2bd 03db 55bd
00000160: 2d24 52be a65c 05bd 823c 10be 38c3 243d
00000170: 4e44 9b3e 2459 8f3d 2420 033e da23 a4bc
00000180: 35be d03e 79af 03be 8510 573e fe4a d0bd
00000190: a4bc 4fbc ffe1 72bd e2e4 983e e080 163e
000001a0: 736e 6bbe 15b7 bdbd a748 4c3c f1d0 8c3d
000001b0: 1f39 c73d ca10 cdbe 2223 483d 74ff 013e
000001c0: a89b bd3c 6d83 9a3e bed3 df3e 5b73 98bd
000001d0: e2bc 67be 3440 71bd 11d1 233c a061 56bd
000001e0: 9eb1 84bd e592 883d bf97 8b3d dce0 5d3d
000001f0: 3514 b1bd 4a2e f03d b5fb edbd 970a 983d
00000200: 95b8 df3d 35c7 0e3e eae8 37be 1a27 f73d
00000210: 1c38 473d 3767 32be 6068 d53e 4f8b 00be
00000220: 166a be3d ecf1 ca3c 41b4 873e a1e3 2fbe
00000230: e761 7abb d045 c6bd ed17 7abd 5959 24be
00000240: b875 b13e f403 debd 067a 8e3d 157f afbd
00000250: 8dad ac3e 8353 2e3e 4459 273d a9a7 41be
00000260: 66cf bc3d 85d1 46be eb62 463e c060 733d
00000270: 2633 e93e d20d f13c 8835 fc3c 7603 0bbc

classifier.1.weight f4 [160]
0.9070323 0.791731 0.9196583 0.72951293 0.80745184 0.7465662 0.8170931 0.7941786
0.83611447 0.9469936 0.8855907 0.7773444 0.7376274 0.8090264 0.69457436 0.70411044
0.751355 0.73425907 0.9331768 1.0238988 0.7674644 0.8156363 0.7723441 0.89186007
0.8128979 0.80395544 0.8475192 0.8502873 0.8425628 0.6310523 0.9694523 0.88504404
0.90031916 0.78428215 0.83075464 0.85743475 0.8303379 0.82625544 0.589197 0.948431
0.8440257 0.92947066 0.7974046 0.9131215 0.89971566 0.8017299 0.90432584 0.98100245
0.7964069 1.023732 0.8433546 0.81783766 0.7776263 0.95526326 0.8387564 0.91954374
0.7740318 0.90570277 0.82489175 0.9267134 0.7112141 0.9339372 0.85153097 0.7761494
0.78926367 0.76644975 0.95796 0.88131756 0.7894777 0.7863404 0.91643924 0.8542879
0.7977377 0.93096155 0.76922274 0.8208564 0.84208757 0.6778294 0.89178884 0.8666915
0.8380375 0.94822806 0.74109554 0.7613879 1.0029823 0.73422194 0.7907841 0.84612143
0.7964222 0.86874753 0.84088284 0.89943856 0.8232745 0.8328372 0.76237106 0.89670205
0.7798064 0.79054123 0.9187725 0.66689664 0.86953306 0.7314373 0.8749897 0.7738259
0.8940915 0.83001757 0.83037114 0.90333855 0.8141403 0.79236907 0.84419125 0.6961322
0.74036247 0.7719444 0.83454466 1.0022391 0.81956756 0.7081362 0.9179895 0.85716695
0.81513375 0.7572492 0.82023716 0.8538796 0.8770317 0.7724875 0.81364405 0.94189745
0.8799534 0.9420699 0.6288721 0.9974764 0.77325165 0.94259316 0.75096595 0.73111683
0.75161123 0.8189773 0.8051733 0.8395166 0.9597858 0.7508738 0.78565717 0.8887805
0.8862627 0.88688743 0.71129495 0.52174354 0.81208754 0.79505765 0.86364394 0.8938398
0.85631704 0.7466159 0.8554121 0.89191484 0.93516743 0.8512884 0.8561031 0.8170036
00000000: 4533 683f e2ae 4a3f ba6e 6b3f 5cc1 3a3f
00000010: 2ab5 4e3f f61e 3f3f 032d 513f 4a4f 4b3f
00000020: 990b 563f 2c6e 723f 12b6 623f 0b00 473f
00000030: 26d5 3c3f 5b1c 4f3f a0cf 313f 9540 343f
00000040: cd58 403f 67f8 3b3f ade4 6e3f 1e0f 833f
00000050: 8c78 443f 8acd 503f 58b8 453f f150 643f
00000060: 141a 503f 06d0 4d3f 05f7 583f 6eac 593f
00000070: 32b2 573f a58c 213f 072e 783f 3f92 623f
00000080: 517b 663f b7c6 483f 56ac 543f d880 5b3f
00000090: 0691 543f 7a85 533f 9dd5 163f 60cc 723f
000000a0: 1112 583f caf1 6d3f b522 4c3f 55c2 693f
000000b0: c453 663f 2c3e 4d3f e681 673f fa22 7b3f
000000c0: 53e1 4b3f a609 833f 16e6 573f cf5d 513f
000000d0: 8412 473f 228c 743f bdb8 563f 3867 6b3f
000000e0: f326 463f 23dc 673f 1b2c 533f 173d 6d3f
000000f0: 2112 363f 8216 6f3f effd 593f bab1 463f
00000100: 2f0d 4a3f 0d36 443f de3c 753f 079e 613f
00000110: 361b 4a3f 9b4d 493f c39b 6a3f 9db2 5a3f
00000120: 8a38 4c3f 7f53 6e3f c8eb 443f a523 523f
00000130: 0d93 573f 3a86 2d3f 464c 643f 7fdf 5d3f
00000140: a089 563f 13bf 723f 70b8 3d3f 51ea 423f
00000150: b961 803f f8f5 3b3f d470 4a3f 6a9b 583f
00000160: 53e2 4b3f 3d66 5e3f 1944 573f 9b41 663f
00000170: 1ec2 523f d234 553f c02a 433f 448e 653f
00000180: 64a1 473f e960 4a3f ad34 6b3f bdb9 2a3f
00000190: b899 5e3f 7a3f 3b3f 53ff 5f3f 7419 463f
000001a0: 2ee3 643f 087c 543f 3493 543f 3241 673f
000001b0: 806b 503f b3d8 4a3f eb1c 583f b835 323f
000001c0: 6588 3d3f 269e 453f b8a4 553f 5f49 803f
000001d0: 2ecf 513f 6a48 353f 5c01 6b3f 4b6f 5b3f
000001e0: 9bac 503f 15db 413f 10fb 513f da97 5a3f
000001f0: 2685 603f bec1 453f fa4a 503f 3120 713f
00000200: a044 613f 7e2b 713f c3fd 203f 9d5a 7f3f
00000210: d2f3 453f c94d 713f 4e3f 403f 792a 3b3f
00000220: 9869 403f 7fa8 513f d61f 4e3f 8fea 563f
00000230: 86b4 753f 4439 403f d420 493f 1e87 633f
00000240: 1de2 623f 0e0b 633f 6d17 363f fc90 053f
00000250: f8e4 4f3f e688 4b3f c517 5d3f afd2 643f
00000260: 9837 5b3f 3822 3f3f 4afc 5a3f 8854 643f
00000270: 2267 6f3f 09ee 593f 9329 5b3f 2627 513f

classifier.1.bias f4 [160]
-0.727872 -0.6104246 -0.5019347 -0.5040253 -0.55636966 -0.43797803 -0.5175816 -0.36736098
-0.36628744 -0.7698023 -0.51070404 -0.35784182 -0.54295385 -0.6348577 -0.33848685 -0.3630124
-0.5196654 -0.5173301 -0.6613639 -0.89771 -0.7929773 -0.5222829 -0.5561696 -0.68842113
-0.41694632 -0.5543502 -0.66434455 -0.49072284 -0.40620336 -0.527188 -0.5145034 -0.7665315
-0.67589617 -0.51464784 -0.47784916 -0.6898832 -0.44619894 -0.50848085 -0.71622705 -0.41651523
-0.47638473 -0.7002017 -0.44307888 -0.55434567 -0.5568161 -0.360996 -0.49288368 -0.7600511
-0.5172263 -0.9641363 -0.6603352 -0.5752755 -0.6296631 -0.50618696 -0.5373379 -0.41498962
-0.2259057 -0.5501197 -0.46767902 -0.45889154 -0.4063378 -0.53970546 -0.45662326 -0.5518044
-0.88537914 -0.5926405 -0.59282386 -0.4625286 -0.5747911 -0.60131025 -0.8959393 -0.4171505
-0.5048445 -0.4485684 -0.5806472 -0.45508516 -0.6301217 -0.8351954 -0.8176662 -0.95613396
-0.4164802 -0.56764597 -0.76155263 -0.398511 -0.68972576 -0.4819867 -0.40589684 -0.38334566
-0.97126746 -0.54548496 -0.48932338 -0.7026324 -0.69337887 -0.5256095 -0.47308314 -0.6120514
-0.38176373 -0.79652053 -0.54751724 -0.34872672 -0.47776318 -0.36829925 -0.49992895 -0.49808422
-0.78799504 -0.59375477 -0.45324296 -0.52585363 -0.4501731 -0.71465147 -0.80041057 -0.45917976
-0.41667435 -0.41197225 -0.35384196 -0.44365582 -0.7560389 -0.41246015 -0.525217 -0.58801126
-0.41792116 -0.35183245 -0.5670632 -0.63375753 -0.71894693 -0.2841896 -0.59302133 -0.6274987
-0.58657825 -0.60344344 -0.68494725 -0.7910523 -0.39571118 -0.8472759 -0.54767984 -0.61800027
-0.27349266 -0.32819918 -0.54133373 -0.8753679 -0.49855664 -0.52655005 -0.40004215 -0.4489944
-0.9272817 -0.5050071 -0.45701677 -0.4651991 -0.49451083 -0.6559521 -0.5424478 -0.63832504
-0.4941556 -0.3768288 -0.43830875 -0.685833 -0.590655 -0.41767862 -0.41965145 -0.49289262
00000000: d255 3abf c944 1cbf cb7e 00bf cd07 01bf
00000010: 3e6e 0ebf a83e e0be 3a80 04bf bd16 bcbe
00000020: 078a bbbe c311 45bf 80bd 02bf 0b37 b7be
00000030: 06ff 0abf 0986 22bf 264e adbe c3dc b9be
00000040: cb08 05bf bf6f 04bf 254f 29bf 53d0 65bf
00000050: 8f00 4bbf 55b4 05bf 2261 0ebf 5e3c 30bf
00000060: fd79 d5be e5e9 0dbf 7c12 2abf 0640 fbbe
00000070: e3f9 cfbe cbf5 06bf 7fb6 03bf 693b 44bf
00000080: 8807 2dbf f6bf 03bf a5a8 f4be 2f9c 30bf
00000090: 3074 e4be cd2b 02bf a85a 37bf 7c41 d5be
000000a0: b3e8 f3be 6b40 33bf 3cdb e2be 99e9 0dbf
000000b0: 808b 0ebf 78d4 b8be 405b fcbe b592 42bf
000000c0: f168 04bf a3d1 76bf ba0b 29bf 4145 13bf
000000d0: 9a31 21bf 7895 01bf fa8e 09bf 8579 d4be
000000e0: d353 67be a5d4 0cbf a073 efbe d5f3 eabe
000000f0: 820b d0be 232a 0abf 86ca e9be 0e43 0dbf
00000100: 35a8 62bf 4ab7 17bf 4ec3 17bf 8cd0 ecbe
00000110: 8225 13bf 78ef 19bf 475c 65bf c094 d5be
00000120: 7d3d 01bf c2aa e5be 4ba5 14bf ec00 e9be
00000130: a84f 21bf 5ecf 55bf 9252 51bf 32c5 74bf
00000140: e53c d5be 3f51 11bf 1df5 42bf a209 ccbe
00000150: de91 30bf f6c6 f6be b6d1 cfbe e245 c4be
00000160: fca4 78bf e7a4 0bbf 9888 fabe b8df 33bf
00000170: 4781 31bf 588e 06bf f437 f2be 67af 1cbf
00000180: 8976 c3be c5e8 4bbf 172a 0cbf 4f8c b2be
00000190: 609d f4be b891 bcbe b0f6 ffbe e504 ffbe
000001a0: 0bba 49bf 5000 18bf 760f e8be 589e 06bf
000001b0: 177d e6be 66f3 36bf b5e7 4cbf 9c19 ebbe
000001c0: 5756 d5be 07ee d2be c62a b5be db26 e3be
000001d0: c48b 41bf fa2d d3be 9f74 06bf e887 16bf
000001e0: c3f9 d5be 6223 b4be 0e2b 11bf ef3d 22bf
000001f0: e80c 38bf 4d81 91be 3fd0 17bf c1a3 20bf
00000200: fe29 16bf 457b 1abf b458 2fbf 6782 4abf
00000210: a89a cabe 13e7 58bf bf34 0cbf 4435 1ebf
00000220: 3b07 8cbe b909 a8be d994 0abf 1c18 60bf
00000230: d142 ffbe fccb 06bf 53d2 ccbe 98e2 e5be
00000240: 5562 6dbf 2548 01bf 1afe e9be 942e eebe
00000250: 8630 fdbe 7aec 27bf dcdd 0abf 4569 23bf
00000260: f601 fdbe b4ef c0be 016a e0be c092 2fbf
00000270: 2b35 17bf f9d9 d5be 8edc d6be 6c5c fcbe

classifier.1.running_mean f4 [160]
-0.10790572 0.51756245 -0.08910471 0.012561307 -0.16466926 -0.34982938 -0.045248643 -0.045309942
0.23392573 0.02708888 -0.19783568 -0.15684253 0.2372938 -0.4063467 -0.10444142 0.17089804
0.25711963 -0.08112484 -0.21874645 0.09988997 -0.0018384078 -0.11046541 0.013600299 -0.15169586
-0.21471971 0.5749723 0.35777408 0.2597474 -0.48523858 -0.14180264 0.026966201 -0.018588848
0.2410198 0.5242941 -0.18027218 0.21954077 -0.5477791 -0.025443831 -0.03659343 0.20283012
-0.018466722 -0.18992232 -0.44331962 -0.19853434 -0.21370605 -0.42245668 -0.16887242 0.28969252
-0.006318099 -0.037941124 -0.22478274 -0.20644455 0.27070436 0.025555076 0.019260786 0.6162347
0.06903657 -0.06250475 0.53498995 0.12377283 0.20422113 -0.10179974 0.16728848 0.20214993
-0.1639047 -0.23373719 -0.3279277 -0.019189613 -0.30314782 -0.0028214464 -0.05068401 -0.3375304
-0.22587135 0.35013738 0.045682024 -0.23287755 0.19457944 0.16109583 -0.057983387 0.05146062
-0.28851342 0.47638968 0.20713371 0.0134940585 -0.18347684 0.28331643 -0.18324475 -0.10663967
0.07809998 -0.10433547 -0.23510702 -0.032914814 0.011361891 -0.059641358 0.22633623 -0.14898048
0.5940604 -0.13701333 0.2205996 0.050633214 -0.10669564 -0.15791298 0.27273977 0.33535206
-0.08462769 -0.31893787 0.0888655 -0.24782267 -0.075872704 -0.55269825 -0.029476868 0.21174759
-0.28684038 0.13381568 0.13845514 -0.37769693 -0.21436957 -0.1684037 -0.2032244 0.019943852
-0.0859641 0.018029626 -0.06889908 0.017965632 0.017669052 0.38630545 -0.054479007 -0.10488621
0.0052816328 0.097345024 -0.15764423 0.035198454 0.10877393 -0.2078619 0.32879677 0.17124553
0.1691607 0.031327434 0.1001497 -0.070221916 0.14353064 -0.22774899 -0.13439655 0.010371764
0.46624327 -0.08859913 0.4611193 -0.1905643 0.3608395 -0.0790866 -0.018715978 0.048950497
0.22909006 -0.14243445 0.13355371 -0.12674604 0.48171923 0.282948 0.024421208 -0.00032369068
00000000: adfd dcbd f97e 043f 887c b6bd f1cd 4d3c
00000010: 0f9f 28be d61c b3be a456 39bd eb96 39bd
00000020: 3a8a 6f3e 80e9 dd3c 7095 4abe 549b 20be
00000030: 25fd 723e ad0c d0be 62e5 d5bd e5ff 2e3e
00000040: 2fa5 833e c824 a6bd 12ff 5fbe 1d93 cc3d
00000050: bbf6 f0ba b03b e2bd cad3 5e3c 2956 1bbe
00000060: 7cdf 5bbe 6231 133f 2a2e b73e 9cfd 843e
00000070: 3171 f8be b634 11be 39e8 dc3c a447 98bc
00000080: e5cd 763e 2338 063f 4599 38be 4ccf 603e
00000090: 403b 0cbf 956f d0bc fee2 15bd b3b2 4f3e
000000a0: 8647 97bc ff7a 42be cafa e2be 964c 4bbe
000000b0: c2d5 5abe 3e4c d8be e4ec 2cbe 9452 943e
000000c0: 0e08 cfbb 2768 1bbd 722d 66be 3366 53be
000000d0: c399 8a3e e158 d13c ccc8 9d3c 8fc1 1d3f
000000e0: 0c63 8d3d 7e02 80bd 1af5 083f 9c7c fd3d
000000f0: 581f 513e 627c d0bd ac4d 2b3e 6400 4f3e
00000100: a2d6 27be cd58 6fbe 24e6 a7be 8933 9dbc
00000110: 3136 9bbe 04e8 38bb 099a 4fbd c9d0 acbe
00000120: d24a 67be 3545 b33e 131d 3b3d 7477 6ebe
00000130: d53f 473e 4ef6 243e fd7f 6dbd 5fc8 523d
00000140: 08b8 93be 59e9 f33e dc1a 543e 2f16 5d3c
00000150: 5ae1 3bbe da0e 913e 83a4 3bbe e665 dabd
00000160: e2f2 9f3d d6ad d5bd e5bf 70be afd1 06bd
00000170: 3a27 3a3c 7f4a 74bd afc4 673e 578e 18be
00000180: 5814 183f 394d 0cbe dde4 613e c664 4f3d
00000190: 3e83 dabd f1b3 21be 8ca4 8b3e 44b3 ab3e
000001a0: 4851 adbd d34b a3be 1eff b53d 3ac5 7dbe
000001b0: 2663 9bbd a27d 0dbf 7979 f1bc 5cd4 583e
000001c0: bedc 92be fa06 093e 2fc7 0d3e 7e61 c1be
000001d0: b283 5bbe 0572 2cbe 0f1a 50be 4a61 a33c
000001e0: f20d b0bd deb2 933c f61a 8dbd a92c 933c
000001f0: b0be 903c d4c9 c53e 6125 5fbd 95ce d6bd
00000200: 8c11 ad3b d45c c73d 7d6d 21be 412c 103d
00000210: dec4 de3d c0d9 54be 0d58 a83e fd5a 2f3e
00000220: 7638 2d3e 3251 003d 491b cd3d 82d0 8fbd
00000230: b2f9 123e 0837 69be 409f 09be 55ee 293c
00000240: 70b7 ee3e 7673 b5bd d417 ec3e 4a23 43be
00000250: f4bf b83e 28f8 a1bd 4052 99bc 5180 483d
00000260: 9696 6a3e 56da 11be 4ec2 083e b7c9 01be
00000270: e7a3 f63e 8fde 903e fc0e c83c 07b5 a9b9

classifier.1.running_var f4 [160]
0.006083273 0.0029642521 0.006568212 0.0023293174 0.0062287734 0.005446937 0.00615356 0.006146275
0.0047050486 0.0058634356 0.004515793 0.008427123 0.0061270283 0.0026111389 0.0055470117 0.0068989326
0.006881794 0.0047592125 0.0048787477 0.0029594675 0.003299973 0.0057532745 0.0035203416 0.0026364382
0.0075151864 0.0030506332 0.0029801116 0.0038205564 0.009420951 0.006470456 0.0056201583 0.0016307596
0.0032428948 0.0028632497 0.0028779937 0.0052753277 0.008527939 0.004096519 0.0054374216 0.009415637
0.0052077374 0.0077280174 0.0041315095 0.005397518 0.0070843566 0.004931617 0.006681337 0.0017638088
0.002975042 0.0017619983 0.010127158 0.01130399 0.004808998 0.0023990427 0.0061257416 0.004681724
0.003496857 0.007907111 0.0049166502 0.010951295 0.006864207 0.005013924 0.0063461508 0.004616499
0.003398554 0.00491523 0.0054810247 0.0057387804 0.009140001 0.008310528 0.0016239412 0.0085914945
0.0026405046 0.0034814572 0.0082407985 0.0032669653 0.0032991967 0.0045452085 0.0016664226 0.0017945437
0.0057160254 0.003992531 0.0027128437 0.0056044315 0.003750177 0.0054466543 0.006455067 0.003594708
0.0036823058 0.005850793 0.0038317807 0.00457884 0.0024921093 0.0075051435 0.0045399116 0.006312911
0.008132229 0.003326194 0.0038192254 0.00817043 0.004243654 0.0033823457 0.0064785453 0.0068378034
0.0050068107 0.004414783 0.0032902379 0.0052642296 0.009379913 0.010530034 0.0028264942 0.0018711712
0.0061224694 0.008482656 0.010861801 0.0068939454 0.0056626364 0.0037179543 0.0067360373 0.002901824
0.0035495674 0.0029117318 0.004115343 0.0018581443 0.003512482 0.006139258 0.0045669926 0.004783039
0.00435406 0.0017568277 0.0024077755 0.0038660448 0.0042357626 0.007260762 0.004062684 0.0032350384
0.0041477443 0.010420451 0.009908776 0.002615733 0.00335199 0.003700808 0.0048466423 0.0082335975
0.0051491116 0.008527525 0.00619067 0.0076892413 0.0066941227 0.0067185457 0.0030062776 0.006047657
0.008990436 0.005520972 0.0050313096 0.002708402 0.004783485 0.0027428993 0.012551881 0.0043657767
00000000: 3156 c73b e643 423b 283a d73b 76a7 183b
00000010: bd1a cc3b 387c b23b cda3 c93b b166 c93b
00000020: cf2c 9a3b 1022 c03b 38f9 933b ea11 0a3c
00000030: 3dc5 c83b a41f 2b3b b5c3 b53b 7110 e23b
00000040: ac80 e13b 2bf3 9b3b e7dd 9f3b a0f3 413b
00000050: 5c44 583b f785 bc3b 88b5 663b 18c8 2c3b
00000060: f441 f63b 22ed 473b fa4d 433b 4d62 7a3b
00000070: 555a 1a3c 1e06 d43b 4e29 b83b 36bf d53a
00000080: bf86 543b 5ca5 3b3b b99c 3c3b a8dc ac3b
00000090: c5b8 0b3c 183c 863b 662c b23b 0b44 1a3c
000000a0: aba5 aa3b 4f3b fd3b 9d61 873b aadd b03b
000000b0: e423 e83b 6799 a13b 1eef da3b 9a2f e73a
000000c0: ecf8 423b daf2 e63a 61ec 253c 5f34 393c
000000d0: cd94 9d3b 4239 1d3b 72ba c83b 2669 993b
000000e0: 862b 653b d48c 013c da1b a13b 0f6d 333c
000000f0: 24ed e03b d84b a43b 5ff3 cf3b 0046 973b
00000100: 46ba 5e3b f00f a13b 2b9a b33b 610c bc3b
00000110: f1bf 153c e128 083c 6dda d43a 57c3 0c3c
00000120: 510c 2d3b 2929 643b 6a04 073c 951a 563b
00000130: 5637 583b f9ef 943b dd6b da3a e536 eb3a
00000140: 7f4d bb3b c7d3 823b f7c9 313b 61a5 b73b
00000150: 88c5 753b d979 b23b 0785 d33b 3195 6b3b
00000160: d752 713b 02b8 bf3b 9d1e 7b3b 180a 963b
00000170: a852 233b b5ed f53b 8ac3 943b 89dc ce3b
00000180: 0a3d 053c 46fc 593b f84b 7a3b 44dd 053c
00000190: 5a0e 8b3b 58aa 5d3b fa49 d43b a70f e03b
000001a0: 2c10 a43b e2a9 903b 08a1 573b 8f7f ac3b
000001b0: 35ae 193c 2a86 2c3c b43c 393b 1642 f53a
000001c0: ff9e c83b d7fa 0a3c b2f5 313c 9be6 e13b
000001d0: a38d b93b eca8 733b fab9 dc3b 872c 3e3b
000001e0: dc9f 683b c1d2 3e3b 00da 863b fa8c f33a
000001f0: ab31 663b d42b c93b b6a6 953b 0abb 9c3b
00000200: 81ac 8e3b 5b45 e63a c5cb 1d3b 785d 7d3b
00000210: 27cc 8a3b b0eb ed3b 4320 853b f002 543b
00000220: cde9 873b 8aba 2a3c 6b58 223c b86c 2b3b
00000230: 0fad 5b3b 4189 723b 95d0 9e3b 36e6 063c
00000240: e1b9 a83b 08b7 0b3c 1bdb ca3b 08f6 fb3b
00000250: 5f5a db3b 3f27 dc3b f804 453b 6d2b c63b
00000260: 9f4c 133c 45e9 b43b afdd a43b 727f 313b
00000270: c8be 9c3b 37c2 333b 68a6 4d3c ca0e 8f3b

classifier.4.weight f4 [170, 160]
-0.15197748 -0.239299 0.18932003 -0.04262966 -0.14151935 0.3112838 -0.07829199 0.29221362
-0.061123326 0.057207122 -0.08644729 0.0381596 0.1170827 -0.09845193 0.015475517 -0.43163314
-0.068426974 -0.14066017 -0.2084697 -0.72914886 -0.11850221 0.03604987 -0.022533324 0.115394965
0.35949433 -0.18437949 0.21678422 0.16820431 -0.16974548 0.036381245 -0.1338744 0.18101512
-0.17482862 -0.2209266 -0.24642093 0.09855567 -0.15601641 -0.08172273 -0.066599764 0.09118183
-0.11786595 -0.022397436 0.0036641394 -0.14328632 0.06298674 0.1678406 -0.2062342 0.06469867
-0.04235621 -0.21220496 -0.3010301 -0.08061394 0.12532091 -0.10296757 -0.03496778 -0.032239866
0.10878065 -0.15022802 0.1325921 -0.53323853 0.05127754 -0.020987315 0.03512464 -0.029008824
-0.255893 -0.0067210114 0.011110694 -0.16428858 -0.066808976 0.16444454 -0.32780394 -0.39924315
-0.089090586 -0.040222928 0.18106057 -0.15046088 0.25260395 0.24246058 -0.06988141 0.26632607
-0.027712177 -0.28535604 -0.07500001 0.12596719 0.047639627 0.05930667 -0.63788307 -0.055407703
0.30411905 0.31239486 -0.40455592 -0.29095152 0.032898042 0.04135032 -0.062030774 -0.023836538
0.11758028 -0.015310108 -0.10138662 0.073061585 -0.34846035 -0.31349653 0.34757292 0.088711075
-0.05569505 -0.7152433 -0.037755534 -0.14483821 -0.016848588 0.005683395 -0.15950647 0.16831733
-0.052256074 0.052110728 0.17191744 0.03147854 0.10494097 -0.33794743 0.03103595 -0.03742303
-0.16811225 -0.10566451 0.015512631 -0.020762458 0.046032652 0.011221897 0.2671801 -0.058390092
-0.17576705 -0.18642198 0.216851 0.074843876 0.011641389 0.01802669 0.092235886 0.016968412
0.16879521 0.00015118385 -0.13710205 0.43674627 -0.13775994 -0.057580672 -0.13531926 -0.29900712
0.08150845 0.030693084 -0.0708357 -0.115249 0.2813487 -0.1736138 0.21328442 0.009079975
-0.049043447 0.077490136 -0.23696356 -0.014772013 0.12847365 -0.065065354 -0.12978974 -0.17477052
-0.33674973 -0.18678237 -0.19136362 -0.18071458 -0.123484366 -0.30170017 0.039686024 -0.068402305
-0.3958117 0.22892156 0.020019261 -0.030959861 -0.19929281 -0.0059928843 -0.0870027 -0.068915114
0.1321918 0.14241637 -0.13495576 0.4822783 -0.17540762 -0.01890722 -0.03844399 0.15099634
-0.47874248 -0.37170336 -0.43817276 0.14943326 -0.42638302 -0.15639853 0.07643978 -0.03642049
-0.08827291 -0.1253926 -0.268374 0.00097262545 -0.31611264 0.04094202 0.18981513 -0.074781306
0.01017696 0.18758318 -0.23182248 -0.021794781 -0.06962729 -0.27133134 -0.18767768 0.16797774
-0.18545024 0.2600271 -0.11771871 -0.37947303 -0.08561623 0.089817375 0.18383531 -0.018489279
-0.17491661 -0.4877781 0.15452383 0.16688414 -0.19500974 -0.06501759 -0.1862797 0.065035984
-0.065455355 -0.4192281 0.069999434 -0.07033042 0.11064292 -0.04085216 0.12067171 0.04635041
0.044929754 -0.027342752 0.015328623 -0.14673565 -0.06440736 0.26075882 0.2658537 -0.09404155
-0.27626202 0.014353008 -0.053160463 -0.12650765 0.0461011 -0.14327368 -0.12963904 0.023069486
-0.18684724 0.11310131 -0.06632399 -0.1056312 0.08025275 -0.0006993116 -0.24435501 0.06456736
00000000: fc9f 1bbe cc0a 75be 1cdd 413e 709c 2ebd
00000010: 73ea 10be 9760 9f3e 8d57 a0bd 069d 953e
00000020: 745c 7abd 0452 6a3d 470b b1bd 3e4d 1c3d
00000030: 0ec9 ef3d 2aa1 c9bd 068d 7d3c 05ff dcbe
00000040: 7123 8cbd 3809 10be 1579 55be 80a9 3abf
00000050: 49b1 f2bd 07a9 133d ce97 b8bc 3254 ec3d
00000060: a40f b83e facd 3cbe affc 5d3e c03d 2c3e
00000070: c2d1 2dbe 8004 153d 5f16 09be 075c 393e
00000080: 4606 33be 953a 62be c555 7cbe 8ed7 c93d
00000090: c4c2 1fbe 3f5e a7bd 7565 88bd 8abd ba3d
000000a0: b463 f1bd d47a b7bc 0f22 703b a6b9 12be
000000b0: 31ff 803d 68de 2b3e 0f2f 53be bc80 843d
000000c0: b57d 2dbd 424c 59be 9e20 9abe ec18 a5bd
000000d0: 2054 003e a9e0 d2bd 603a 0fbd f30d 04bd
000000e0: 64c8 de3d 60d5 19be 39c6 073e 5282 08bf
000000f0: 6608 523d 97ed abbc dbde 0f3d eaa3 edbc
00000100: 6804 83be ee3b dcbb a109 363c 443b 28be
00000110: 25d3 88bd 2664 283e ebd5 a7be 9969 ccbe
00000120: 2075 b6bd ccc0 24bd f167 393e 6b12 1abe
00000130: 4e55 813e 9647 783e fc1d 8fbd e45b 883e
00000140: a604 e3bc 301a 92be 9b99 99bd 8bfd 003e
00000150: c521 433d 8deb 723d 4e4c 23bf 30f3 62bd
00000160: 7eb5 9b3e 38f2 9f3e f421 cfbe 99f7 94be
00000170: 19c0 063d f45e 293d fb13 7ebd d844 c3bc
00000180: eecd f03d 3fd7 7abc caa3 cfbd 50a1 953d
00000190: 6569 b2be 9e82 a0be 14f5 b13e 27ae b53d
000001a0: 7e20 64bd 2f1a 37bf 8ca5 1abd 7850 14be
000001b0: 0d06 8abc c63b ba3b aa55 23be 615b 2c3e
000001c0: 770a 56bd 0f72 553d 200b 303e a4ef 003d
000001d0: 4beb d63d 7207 adbe 1b3f fe3c e448 19bd
000001e0: 9e25 2cbe a266 d8bd b128 7e3c 0816 aabc
000001f0: bc8c 3c3d 0cdc 373c d4cb 883e 732a 6fbd
00000200: 47fc 33be 67e5 3ebe 300e 5e3e bf47 993d
00000210: 86bb 3e3c b6ac 933c 2be6 bc3d 5701 8b3c
00000220: a7d8 2c3e 1b87 1e39 7b64 0cbe 359d df3e
00000230: f110 0dbe b6d9 6bbd 2291 0abe 7617 99be
00000240: e7ed a63d 1070 fb3c 4f12 91bd ab07 ecbd
00000250: f00c 903e d1c7 31be 3b67 5a3e 2dc4 143c
00000260: c8e1 48bd 26b3 9e3d 93a6 72be 5006 72bc
00000270: 998e 033e fc40 85bd 9ae7 04be 0bf7 32be
00000280: 766a acbe e143 3fbe d3f4 43be 3e0d 39be
00000290: 5fe5 fcbd 7278 9abe d08d 223d 8216 8cbd
000002a0: d5a7 cabe 6a6a 6a3e 6fff a33c 899f fdbc
000002b0: 6a13 4cbe f55f c4bb 792e b2bd 5e23 8dbd
000002c0: 4a5d 073e 99d5 113e d831 0abe 2eed f63e
000002d0: 0e9e 33be 50e3 9abc 7277 1dbd c99e 1a3e
000002e0: bc1d f5be e74f bebe 2e58 e0be 0805 193e
000002f0: e04e dabe f026 20be 768c 9c3d a72d 15bd
00000300: 6dc8 b4bd eb66 00be 5168 89be caf7 7e3a
00000310: 84d9 a1be d2b2 273d e65e 423e f126 99bd
00000320: 44bd 263c ce15 403e df62 6dbe f88a b2bc
00000330: c198 8ebd f1eb 8abe 942e 40be 5b02 2c3e
00000340: abe6 3dbe 4622 853e 8216 f1bd 4a4a c2be
00000350: 9057 afbd 2cf2 b73d 533f 3c3e d476 97bc
00000360: 571d 33be 0dbe f9be 7f3b 1e3e ade3 2a3e
00000370: a2b0 47be f127 85bd 1bc0 3ebe 9631 853d
00000380: 750d 86bd 11a5 d6be dd5b 8f3d 6509 90bd
00000390: c198 e23d 9854 27bd bb22 f73d edd9 3d3d
000003a0: 4308 383d e8fd dfbc e824 7b3c df41 16be
000003b0: 02e8 83bd 2e82 853e fa1d 883e db98 c0bd
000003c0: 3772 8dbe e128 6b3c c9be 59bd 398b 01be
000003d0: 82d4 3c3d 56b6 12be 19c0 04be 38fc bc3c
000003e0: e254 3fbe a9a1 e73d dfd4 87bd 2c55 d8bd
000003f0: 8e5b a43d 0252 37ba 3338 7abe e43b 843d

classifier.4.bias f4 [170]
-0.034430232 0.0017894639 0.0077392343 -0.0063047553 -0.048737437 -0.063830934 -0.08681987 -0.05816286
-0.038404264 -0.059051923 0.073936656 0.035040565 0.04714435 0.012200494 -0.06917523 0.089761
-0.05984519 -0.05551646 0.03368599 -0.057388235 -0.016119426 0.045501836 -0.07852925 0.038061354
0.03876029 -0.0153066125 -0.047452915 0.040448032 -0.0014762188 0.09019726 0.071027674 0.08861637
-0.025867334 -0.0064517967 -0.008781249 -0.0937933 0.10243632 -0.034302 -0.08772149 0.047660347
0.050168693 -0.006360884 -0.034022063 -0.02134119 -0.05216391 -0.091445446 -0.0779894 -0.10850744
-0.04085995 0.0023626334 0.042551905 0.010849665 -0.031346623 0.062384684 -0.010450903 -0.019354094
0.09933439 -0.0039680763 0.04068682 0.050705805 -0.01654932 0.045326833 -0.13736278 0.0064189346
-0.03380247 0.04384141 0.045610268 -0.020053234 0.034697004 0.03511645 0.082659915 0.023561334
-0.060415443 0.11495492 -0.08234609 -0.007771749 -0.0975041 -0.0049070646 -0.06587757 0.02005272
0.1693254 -0.0044698697 -0.033314265 0.04152209 -0.06930347 0.121211454 0.08026635 0.102709554
-0.0010015373 -0.1374948 -0.015495005 0.029030617 -0.036640894 -0.027309192 -0.066980235 -0.0037679991
0.07969587 -0.066340975 -0.048593905 0.06568085 -0.0013735782 -0.041578915 -0.03411928 0.006784487
-0.036023334 0.034782544 -0.04656366 0.07549748 -0.020965101 0.003889481 -0.016630897 -0.06254154
0.0038596368 -0.0713684 0.08578715 -0.062591635 -0.005141058 0.06289204 -0.024867728 -0.12464146
0.0868203 0.10476507 -0.04949661 -0.031866416 0.135297 -0.089277565 0.030749444 -0.10305998
0.028774591 -0.031778973 -0.01588785 0.012130251 0.07386305 -0.032090563 0.06728867 0.08196881
-0.0141971465 -0.067338295 -0.07201274 -0.07307457 -0.053443655 -0.099619776 0.010974596 0.05384896
0.011508938 0.04875889 0.030691454 0.03443292 -0.13213745 0.018635575 -0.07579664 -0.038512714
0.006166945 0.11341549 0.032465436 -0.11206373 0.07835448 0.0028980952 0.022784922 -0.01075131
-0.003354061 0.0927009 -0.040980358 -0.116951585 -0.06284467 0.011575496 0.023334466 -0.046619408
-0.06439157 -0.056685627
00000000: b706 0dbd 728c ea3a 6799 fd3b 1f98 cebb
00000010: e8a0 47bd cbb9 82bd 9ece b1bd 2e3c 6ebd
00000020: ca4d 1dbd 6ee0 71bd 1a6c 973d b286 0f3d
00000030: 6f1a 413d 95e4 473c beab 8dbd 9dd4 b73d
00000040: 3b20 75bd 3a65 63bd 52fa 093d ed0f 6bbd
00000050: e30c 84bc 2260 3a3d f2d3 a0bd 39e6 1b3d
00000060: 1cc3 1e3d 96c8 7abc fd5d 42bd d6ac 253d
00000070: af7d c1ba 57b9 b83d f576 913d 807c b53d
00000080: bbe7 d3bc 9869 d3bb 3adf 0fbc b416 c0bd
00000090: 22ca d13d 4180 0cbd 53a7 b3bd 7f37 433d
000000a0: b07d 4d3d f66e d0bb b85a 0bbd b8d3 aebc
000000b0: d3a9 55bd c047 bbbd e8b8 9fbd 2639 debd
000000c0: c35c 27bd 69d6 1a3b e84a 2e3d cbc2 313c
000000d0: 5165 00bd 1587 7f3d 443a 2bbc 7a8c 9ebc
000000e0: d46f cb3d a306 82bb 39a7 263d e4b0 4f3d
000000f0: 7192 87bc a1a8 393d d4a8 0cbe ed55 d23b
00000100: 7574 0abd 0d93 333d d5d1 3a3d ae46 a4bc
00000110: 721e 0e3d 44d6 0f3d 9a49 a93d b303 c13c
00000120: 2f76 77bd 7c6d eb3d 11a5 a8bd 28aa febb
00000130: 3bb0 c7bd 71cb a0bb d2ea 86bd 9a45 a43c
00000140: a363 2d3e fc77 92bb 8a74 08bd 1113 2a3d
00000150: faee 8dbd b63d f83d af62 a43d 6359 d23d
00000160: 0446 83ba 70cb 0cbe c3de 7dbc 9ed1 ed3c
00000170: c314 16bd 87b7 dfbc ef2c 89bd 89f0 76bb
00000180: 9737 a33d c7dd 87bd 670a 47bd ae83 863d
00000190: a309 b4ba a74e 2abd a8c0 0bbd 6750 de3b
000001a0: 348d 13bd 2478 0e3d 89b9 3ebd 6c9e 9a3d
000001b0: 01bf abbc aae6 7e3b 853d 88bc c715 80bd
000001c0: f6f1 7c3b 9829 92bd 2cb1 af3d 0b30 80bd
000001d0: 5276 a8bb 8bcd 803d 68b7 cbbc 0644 ffbd
000001e0: d7ce b13d 128f d63d f5bc 4abd 5c86 02bd
000001f0: 4c8b 0a3e 28d7 b6bd 42e6 fb3c 1c11 d3bd
00000200: b1b8 eb3c ab2a 02bd 3d27 82bc f6bd 463c
00000210: 8345 973d 6571 03bd a4ce 893d 43df a73d
00000220: 269b 68bc a9e8 89bd 6a7b 93bd 1fa8 95bd
00000230: bce7 5abd 7405 ccbd cbce 333c ba90 5c3d
00000240: fc8f 3c3c 67b7 473d a56c fb3c 8909 0d3d
00000250: 0a4f 07be a2a9 983c 453b 9bbd 82bf 1dbd
00000260: 1614 ca3b 6146 e83d 7afa 043d ab81 e5bd
00000270: 5078 a03d f8ed 3d3b 72a7 ba3c 4326 30bc
00000280: cecf 5bbb f8d9 bd3d 05db 27bd 5084 efbd
00000290: b5b4 80bd 26a7 3d3c ec27 bf3c fef3 3ebd
000002a0: badf 83bd 302f 68bd

classifier.5.weight f4 [170]
0.74000746 0.9928009 1.0147086 1.071819 0.8693165 1.0179269 0.84505373 0.8632423
0.77059317 0.7845809 0.8001628 0.6388833 0.9062073 1.0582718 0.9328879 1.0842159
0.9268498 0.6966379 0.96052015 1.0163243 0.7568569 0.9632589 1.0472045 0.93013626
1.0183051 0.7428422 1.0521177 0.7765376 1.087193 1.0164397 0.8348207 0.7407379
0.7043825 0.88317615 1.0106012 0.75197107 0.7064397 0.91242397 0.5950196 1.051016
0.7720848 1.0374964 0.7644435 0.8495866 0.89413047 0.92958355 0.8235081 0.77430254
0.9790667 0.91809636 0.89227223 0.5489731 0.7716855 0.89271516 0.7371479 0.92592543
0.9279051 0.9419606 0.73960495 0.9782139 1.0881729 0.8547221 0.7907844 0.7703231
1.0376023 0.7911736 0.9336601 0.8645909 0.9221076 0.77156687 1.0800432 0.8672025
0.9004257 0.9840644 0.86343795 1.0337474 0.88233215 1.0781423 0.6132222 1.042018
0.9830936 0.90000916 0.928751 0.8904822 0.7493213 0.75253165 0.7681678 0.77485174
1.0408341 1.0229983 0.9750635 0.6662668 0.87781066 0.79140437 0.7711591 0.9052062
0.9379034 0.72579455 0.8536673 0.6556883 0.8715023 0.9168586 1.0582435 0.73458076
1.0979735 0.9358984 0.74859315 0.8480654 0.9291634 0.997428 0.8727579 0.95623016
0.6852474 1.009862 0.93265504 0.95503026 0.99687594 0.87840164 0.7398477 0.91402006
0.6314896 0.73966265 0.72620875 0.9318467 1.0286272 1.0234317 0.9401438 0.93816316
0.8626768 1.0812321 0.7916569 0.77966946 0.7423119 1.1244478 1.0402324 0.7679221
0.9635781 1.0208828 1.0548656 0.86227 0.7200799 0.8846153 1.0587292 0.9806968
0.7925868 1.1242992 0.7101987 0.85522825 0.89586544 0.8166774 0.89952886 1.0237958
0.75852585 0.93900234 0.85825723 1.0501337 0.9430749 0.8621977 0.6768012 0.9403921
0.60811764 0.85470796 0.90552795 0.8522689 1.0750917 0.77018404 1.1134552 0.98532075
1.4014317 0.95415103
00000000: 2171 3d3f 3328 7e3f f9e1 813f 5d31 893f
00000010: 878b 5e3f 6e4b 823f 7155 583f 73fd 5c3f
00000020: 9845 453f 4bda 483f 78d7 4c3f db8d 233f
00000030: 34fd 673f 7375 873f bed1 6e3f 96c7 8a3f
00000040: 0746 6d3f dd56 323f a6e4 753f ea16 823f
00000050: 60c1 413f 2398 763f cc0a 863f 691d 6e3f
00000060: d257 823f e82a 3e3f cbab 863f 2bcb 463f
00000070: 2429 8b3f b21a 823f cfb6 553f 00a1 3d3f
00000080: 6952 343f d517 623f 615b 813f 2d81 403f
00000090: 3bd9 343f 9e94 693f 3453 183f b187 863f
000000a0: 59a7 453f afcc 843f 92b2 433f 827e 593f
000000b0: bce5 643f 30f9 6d3f 6dd1 523f b138 463f
000000c0: 1ea4 7a3f 5d08 6b3f f46b 643f 8089 0c3f
000000d0: 2e8d 453f fb88 643f bab5 3c3f 7309 6d3f
000000e0: 308b 6d3f 5424 713f c056 3d3f 3a6c 7a3f
000000f0: 4049 8b3f 11cf 5a3f d970 4a3f e533 453f
00000100: 27d0 843f 5a8a 4a3f 5904 6f3f d455 5d3f
00000110: 3e0f 6c3f 6885 453f db3e 8a3f fc00 5e3f
00000120: 4c82 663f a5eb 7b3f 450a 5d3f d651 843f
00000130: 85e0 613f 9100 8a3f 21fc 1c3f d960 853f
00000140: 06ac 7b3f 0067 663f a0c2 6d3f a4f6 633f
00000150: 85d3 3f3f eaa5 403f a5a6 443f af5c 463f
00000160: 0d3a 853f 9cf1 823f c39d 793f 7690 2a3f
00000170: 33b8 603f 7a99 4a3f af6a 453f 98bb 673f
00000180: 701a 703f accd 393f f189 5a3f 30db 273f
00000190: c61a 5f3f 3fb7 6a3f 8674 873f 7c0d 3c3f
000001a0: 658a 8c3f 0a97 6f3f cda3 3f3f d01a 593f
000001b0: a7dd 6d3f 7157 7f3f 106d 5f3f 80cb 743f
000001c0: 606c 2f3f 2843 813f 7bc2 6e3f dd7c 743f
000001d0: 4333 7f3f eede 603f a966 3d3f 38fd 693f
000001e0: 4da9 213f 885a 3d3f d1e8 393f 818d 6e3f
000001f0: 0eaa 833f cfff 823f 44ad 703f 762b 703f
00000200: 63d8 5c3f d065 8a3f 07aa 4a3f 6b98 473f
00000210: 2708 3e3f e8ed 8f3f 5626 853f 8b96 443f
00000220: 0ead 763f 4aac 823f d605 873f babd 5c3f
00000230: 2857 383f 2676 623f 7084 873f f20e 7b3f
00000240: f8e6 4a3f 09e9 8f3f 95cf 353f 3df0 5a3f
00000250: 7057 653f c511 513f 8647 663f be0b 833f
00000260: c02e 423f 7562 703f bfb6 5b3f c86a 863f
00000270: 5b6d 713f fdb8 5c3f d842 2d3f 89bd 703f
00000280: 99ad 1b3f 24ce 5a3f aed0 673f 4b2e 5a3f
00000290: 9b9c 893f c82a 453f b385 8e3f fb3d 7c3f
000002a0: 1d62 b33f 3e43 743f

classifier.5.bias f4 [170]
-0.39966342 -0.5236388 -0.6889627 -0.36546612 -0.6234182 -0.29815167 -0.5090405 -0.32922187
-0.12325054 -0.45533314 -0.6272481 -0.40553626 -0.23925401 -0.2123037 -0.19714874 -0.69947344
-0.2382362 -0.1192037 -0.12425314 -0.20454492 -0.09793454 -0.19220364 -0.4595539 -0.37630132
-0.1395446 -0.035286088 -0.5547986 -0.39861494 -0.7015 -0.5685521 -0.26948652 -0.61633754
-0.38798004 -0.4007421 -0.44947526 -0.37434998 -0.3429353 -0.29149678 -0.39754272 -0.5034385
-0.81856316 -0.38616872 -0.009941494 -0.3587921 -0.77261627 -0.5006412 -0.09896867 -0.42331317
-0.4662107 -0.34151104 -0.3994069 -0.51134276 -0.52075803 -0.38150358 -0.26763326 -0.26468158
-0.47429726 -0.27918768 -0.38577557 -0.49182782 -0.79118425 -0.25791708 -0.43367815 -0.35209513
-0.5270514 -0.086069115 -0.30325258 -0.4359231 -0.31838983 -0.45397687 -0.7207053 -0.12936813
-0.2540658 -0.5557112 -0.48167813 -0.24054234 -0.2320227 -0.39286715 -0.34902164 -0.43446344
-0.40447238 -0.19026113 -0.5456254 -0.59982663 -0.23628809 -0.37384674 -0.4361486 -0.3606273
-0.37820584 -0.5215369 -0.39489126 -0.4873794 -0.25191742 -0.4507599 -0.62595487 -0.37821677
-0.6069806 -0.50869215 -0.5664629 -0.34867957 -0.25353444 -0.25187972 -0.4885589 -0.2910649
-0.6496696 -0.49275574 -0.14773226 -0.3718441 -0.4121122 -0.46781084 -0.36511213 -0.28863516
-0.50550854 -0.33793217 -0.49365702 -0.19455647 -0.44071293 -0.11518499 -0.661735 -0.40592352
-0.36210647 -0.18167663 -0.6412754 -0.32375437 -0.6817338 -0.47101864 -0.35043424 -0.339415
-0.2508847 -0.47562817 -0.4797835 -0.44520304 -0.06392498 -0.4523006 -0.89460075 -0.43092307
-0.20453788 -0.66623586 -0.4445003 -0.23616016 -0.48902437 -0.30617902 -0.79927605 -0.31528822
-0.06760667 -0.7544243 0.0075108004 -0.7171568 -0.42733273 -0.14883539 -0.32864928 -0.6656638
-0.61652255 -0.36920163 -0.38609588 -0.37342978 -0.4076231 -0.23686731 -0.09365919 -0.71609604
-0.32339907 -0.39137378 -0.32187292 -0.17368375 -0.45345002 -0.16109982 -0.4579766 -0.675442
-0.4352697 -0.24590465
00000000: afa0 ccbe 310d 06bf dc5f 30bf 601e bbbe
00000010: 5698 1fbf 56a7 98be 7a50 02bf c58f a8be
00000020: c76a fcbd 6d21 e9be 5593 20bf 73a2 cfbe
00000030: 01ff 74be 2466 59be 5ce1 49be b110 33bf
00000040: 31f4 73be 1221 f4bd 6e78 febd 3974 51be
00000050: e791 c8bd 08d1 44be a64a ebbe 91aa c0be
00000060: c8e4 0ebe 2588 10bd 4807 0ebf 4217 ccbe
00000070: 8195 33bf a18c 11bf 23fa 89be 4cc8 1dbf
00000080: 52a5 c6be 122e cdbe 9f21 e6be cdaa bfbe
00000090: 3795 afbe 113f 95be b88a cbbe 58e1 00bf
000000a0: 5b8d 51bf e8b7 c5be a6e1 22bc 99b3 b7be
000000b0: 2eca 45bf 062a 00bf 16b0 cabd 81bc d8be
000000c0: 2bb3 eebe 89da aebe 107f ccbe 5ce7 02bf
000000d0: 6650 05bf 7054 c3be 3a07 89be 5884 87be
000000e0: 17d7 f2be b0f1 8ebe 6084 c5be dbd0 fbbe
000000f0: 0d8b 4abf b50d 84be 100b debe d045 b4be
00000100: d7ec 06bf 0145 b0bd ec43 9bbe 5031 dfbe
00000110: fe03 a3be a86f e8be 2480 38bf 1479 04be
00000120: ea14 82be 1743 0ebf 849e f6be bb50 76be
00000130: 5c97 6dbe e225 c9be f7b2 b2be fe71 debe
00000140: 0117 cfbe d0d3 42be 1bae 0bbf 3d8e 19bf
00000150: 81f5 71be d768 bfbe df4e dfbe 24a4 b8be
00000160: 32a4 c1be 7183 05bf 302f cabe cb89 f9be
00000170: 52fb 80be 00ca e6be 943e 20bf a1a5 c1be
00000180: 1563 1bbf a639 02bf b603 11bf 2186 b2be
00000190: 44cf 81be 61f6 80be 6424 fabe 7506 95be
000001a0: bf50 26bf 7b4a fcbe 2047 17be 5a62 bebe
000001b0: 5f00 d3be e784 efbe faef babe fdc7 93be
000001c0: 0269 01bf 7205 adbe 9dc0 fcbe d039 47be
000001d0: 20a5 e1be 1ce6 ebbd 7767 29bf 35d5 cfbe
000001e0: 0566 b9be 7009 3abe a02a 24bf 22c3 a5be
000001f0: 1b86 2ebf 5b29 f1be 1e6c b3be cec7 adbe
00000200: f673 80be 8985 f3be 2fa6 f5be a7f1 e3be
00000210: 1aeb 82bd f293 e7be 8e04 65bf f3a1 dcbe
00000220: 6172 51be 6f8e 2abf 8b95 e3be f8d3 71be
00000230: 6761 fabe 7fc3 9cbe 5b9d 4cbf 756d a1be
00000240: 5e75 8abd f321 41bf 291d f63b 9797 37bf
00000250: 5bcb dabe 4e68 18be b844 a8be f168 2abf
00000260: 6cd4 1dbf ff07 bdbe 5cae c5be 3032 bfbe
00000270: fab3 d0be 588d 72be 64d0 bfbd 1252 37bf
00000280: 9094 a5be 2562 c8be 87cc a4be 27da 31be
00000290: 9a2a e8be 5af7 24be e97b eabe c4e9 2cbf
000002a0: acdb debe 6ece 7bbe

classifier.5.running_mean f4 [170]
-0.60863364 -1.1669415 -0.73962367 -1.3436164 -1.0319349 -0.42361516 -0.990103 -1.116982
-0.7905205 -1.3037302 -1.3203276 -0.4268048 -0.7242211 -0.51147145 -0.6885558 -1.3302069
-0.5758177 -0.69063604 -1.2316271 -0.53721285 -0.48448312 -0.6553627 -0.5162524 -0.60281813
-0.24933903 -0.15277898 -1.2610674 -1.2192994 -1.3286648 -0.39410546 -0.18851274 -1.5555617
-1.4973863 -1.2848797 -1.0163655 -1.3150346 -0.77076155 -0.15545098 -0.34703204 -1.1193643
-0.41461813 -0.93387014 -0.14720654 -0.9138998 -1.7200304 -1.093184 -0.2052733 -1.5333205
-1.140276 -0.77929884 -0.8123163 0.22483452 -1.3608968 -0.49500695 -0.775878 -0.46575308
-0.6577573 -0.9685485 -1.2937181 -1.2681195 -1.5723544 -1.0250148 -1.5397519 -0.77945477
-0.53861153 -0.6434327 -0.7876934 -0.60298085 -0.18579784 -1.1480392 -1.3147912 -0.07226392
-0.8101433 -0.45951664 -1.424994 -1.3351922 -1.0626073 -1.3924494 -0.9601462 -0.9237059
-0.82700986 -0.700182 -0.6004158 -1.3336704 -1.2269207 -0.95897675 -1.322718 -1.0141978
-1.4705306 -1.4310014 -0.38921767 -1.0448157 -0.9780586 -1.3539873 -1.5686681 -1.1470697
-0.7195885 -1.4832855 -1.5272305 -1.1186067 -0.87991333 -0.7842484 -1.2756655 -1.1043882
-1.3008249 -0.5427732 -0.68750304 -1.0896549 -1.1418777 -0.50127876 -0.9366553 -1.0324101
-0.34682912 -0.7585966 -0.6707322 -0.6995483 -0.76051027 -0.5355878 -1.8867673 -1.3033684
-0.27215835 -0.74520546 -1.9514549 -0.20838478 -1.2648543 -1.090079 -1.2910167 -1.2097583
-0.654475 -1.500118 -1.4804018 -1.1889119 -0.73780453 -1.1472859 -1.5071667 -1.20966
-0.37651828 -1.4224607 -1.3289784 -1.0163373 -1.2030994 -0.97585315 -0.80248386 -0.28634256
0.12827455 -1.2418605 -0.5680382 -1.4257452 -1.2105908 -0.77139205 -0.38743275 -1.4842703
-1.5568461 -0.5395698 -1.1419121 -1.0101604 -0.32487383 -0.6206914 -0.71926075 -0.6715744
-0.9730133 -0.63718235 -1.1853554 -1.2738528 -0.5707169 -0.6641109 -1.1192681 -1.3907751
-0.855158 -0.7061907
00000000: 6acf 1bbf 575e 95bf fa57 3dbf 9ffb abbf
00000010: 7116 84bf 16e4 d8be 6477 7dbf 44f9 8ebf
00000020: 8d5f 4abf a2e0 a6bf 7f00 a9bf 2986 dabe
00000030: 8e66 39bf cbef 02bf 3145 30bf 3844 aabf
00000040: ca68 13bf 86cd 30bf f5a5 9dbf c886 09bf
00000050: 2c0e f8be dac5 27bf 1e29 04bf 4a52 1abf
00000060: bb52 7fbe 1872 1cbe a86a a1bf 0112 9cbf
00000070: b011 aabf 31c8 c9be 7c09 41be a51c c7bf
00000080: 5baa bfbf f076 a4bf 4418 82bf 0e53 a8bf
00000090: a150 45bf 8b2e 1fbe 2fae b1be 5447 8fbf
000000a0: d448 d4be 1d12 6fbf 50bd 16be 56f5 69bf
000000b0: f529 dcbf 74ed 8bbf 2a33 52be d943 c4bf
000000c0: 90f4 91bf 2180 47bf f6f3 4fbf 053b 663e
000000d0: de31 aebf 8d71 fdbe f19f 46bf 3077 eebe
000000e0: c862 28bf cbf2 77bf 8e98 a5bf bd51 a2bf
000000f0: e942 c9bf af33 83bf 9716 c5bf 598a 47bf
00000100: 72e2 09bf 01b8 24bf 46a6 49bf f45c 1abf
00000110: ca41 3ebe f3f2 92bf 144b a8bf 1bff 93bd
00000120: 8d65 4fbf c445 ebbe 3466 b6bf 94e7 aabf
00000130: 8403 88bf c83b b2bf 24cc 75bf fd77 6cbf
00000140: ebb6 53bf 213f 33bf dab4 19bf b6b5 aabf
00000150: bd0b 9dbf 807f 75bf d34e a9bf 3cd1 81bf
00000160: 593a bcbf 0e2b b7bf 8a47 c7be 85bc 85bf
00000170: 0c62 7abf 754f adbf 1eca c8bf 2ed3 92bf
00000180: f436 38bf 4ddc bdbf 4a7c c3bf 812e 8fbf
00000190: 0042 61bf 81c4 48bf 0249 a3bf 985c 8dbf
000001a0: 6e81 a6bf 2ff3 0abf 3300 30bf d079 8bbf
000001b0: 0c29 92bf ce53 00bf a4c8 6fbf 0426 84bf
000001c0: 9693 b1be 6333 42bf 1bb5 2bbf 9915 33bf
000001d0: cdb0 42bf 481c 09bf 9781 f1bf c7d4 a6bf
000001e0: 5758 8bbe c9c5 3ebf 46c9 f9bf d262 55be
000001f0: bfe6 a1bf b587 8bbf 0940 a5bf 5cd9 9abf
00000200: ac8b 27bf de03 c0bf ce7d bdbf 442e 98bf
00000210: c2e0 3cbf 44da 92bf d7ea c0bf 24d6 9abf
00000220: 01c7 c0be 3113 b6bf f71b aabf 5717 82bf
00000230: 29ff 99bf 83d1 79bf 956f 4dbf 7e9b 92be
00000240: 675a 033e 49f5 9ebf f46a 11bf d27e b6bf
00000250: a4f4 9abf f379 45bf 965d c6be 92fc bdbf
00000260: bc46 c7bf 3f21 0abf 2d2a 92bf f04c 81bf
00000270: dd55 a6be a2e5 1ebf 7921 38bf 4dec 2bbf
00000280: 6617 79bf 621e 23bf bab9 97bf 9c0d a3bf
00000290: 811a 12bf 2c03 2abf 2d44 8fbf eb04 b2bf
000002a0: a2eb 5abf eac8 34bf
