ckpt/IAP/2/best_loss_BEST3.ckpt (torch, 157600 bytes, 19 tensors)

classifier.0.weight f4 [120, 18]
0.068174616 -0.19271548 0.055449568 -0.2424235 0.02284145 -0.3008419 0.06591076 -0.31637663
-0.39435288 -0.23859228 -0.08081755 -0.26374084 -0.28540346 -0.010484193 0.03877164 -0.10107407
0.29555112 0.27218896 0.14858498 -0.20192306 0.103920154 0.23826577 0.07313886 -0.29260308
0.044108734 -0.08024127 -0.0929324 0.05789413 0.36244342 -0.19102147 -0.08758646 0.10212011
0.21185409 0.16242647 -0.026436642 0.0321061 0.052231424 0.06756719 -0.11978766 0.1197597
-0.07643841 -0.38771215 -0.09145998 -0.11498169 -0.113068484 0.07369191 -0.42749074 -0.08243424
-0.0021507328 -0.01429608 0.035941698 -0.011676074 0.11295639 0.18338425 -0.17014472 -0.018571554
0.14754766 0.02679735 -0.083624005 -0.43601814 -0.12943931 0.21502222 -0.061285563 -0.02131312
0.3897058 -0.09591553 -0.117134936 -0.14803435 0.08877904 0.026607446 0.17659669 -0.14437094
-0.19994399 0.0707923 -0.29773864 0.14622474 0.08013809 0.19528332 0.25885338 0.19342472
-0.08015995 -0.2020933 0.44759694 -0.15720175 -0.15711482 -0.2470549 -0.13345625 0.1632507
0.059070617 -0.14329436 0.003419508 -0.09946924 0.1537532 0.18013123 -0.31934598 0.004392787
-0.27098566 -0.36018384 0.13137917 0.31427783 -0.20223035 0.08119066 -0.14718062 0.17806058
-0.14190197 -0.28270966 0.15106656 -0.0008505216 -0.27711415 0.16887015 -0.08719564 -0.41363162
0.059650786 -0.14202088 -0.21135968 0.2543463 -0.053168017 -0.3350061 0.4039954 -0.112738594
-0.25548798 -0.16849189 -0.04311861 -0.20206545 -0.21569422 -0.03853792 -0.15937637 -0.08460169
0.35229632 -0.029356238 -0.13187924 -0.29797035 -0.1492272 0.120116115 -0.17074376 0.1866399
-0.29814014 -0.51701087 -0.24417087 -0.036910433 -0.03683206 0.033701155 0.014465231 0.102669775
-0.29060715 0.073478475 0.40545195 0.062474784 -0.16070768 -0.32247838 -0.26015428 -0.367306
-0.064575836 0.0032381692 -0.24522151 -0.14295936 0.018003093 0.023924943 0.14744376 0.034595493
0.017344622 -0.054250102 -0.16786328 0.06331533 0.12560378 -0.06826694 0.13929375 0.2782695
-0.09034679 -0.0072211716 -0.03543442 -0.10199448 -0.028991863 0.013346461 0.06269504 0.08771673
-0.41479695 -0.19007967 -0.107548386 0.087091856 0.09889478 0.19676489 -0.27774847 0.2060273
0.2655584 0.35105625 0.14237766 -0.14781703 0.15278317 0.17966233 0.06780041 0.3824195
-0.109970346 -0.014990228 0.06161701 0.07841114 -0.08209667 0.09431041 -0.23867276 0.024263665
-0.21087098 -0.18080172 -0.11169493 0.4504642 -0.3097248 0.036634598 -0.08728933 -0.35034057
-0.22435358 0.1663918 -0.1238975 0.031095484 -0.2045286 -0.12913248 -0.19875994 -0.45338377
0.103743404 0.10312462 -0.30400142 0.05612622 -0.032481268 0.12325234 -0.14218874 -0.029675359
-0.17637439 -0.3109495 0.06865817 0.1542687 -0.121806294 0.032266453 -0.33403015 -0.19198939
-0.13982922 -0.51153183 -0.36294204 0.070630215 -0.40226427 -0.1748626 -0.13166502 0.16858071
-0.0593997 0.17012328 0.064438954 -0.26497036 -0.0039323317 -0.3545089 0.022245007 -0.17267625
-0.3381352 0.09952113 -0.021518081 -0.3098199 -0.22771445 -0.0900189 0.0042294427 0.10765735
00000000: 229f 8b3d 3557 45be 161f 633d de3d 78be
00000010: fe1d bb3c f307 9abe 38fc 863d 1efc a1be
00000020: 9fe8 c9be 8951 74be ac83 a5bd 0a09 87be
00000030: 6720 92be e5c5 2bbc 03cf 1e3d ecff cebd
00000040: 7a52 973e 5a5c 8b3e a926 183e ebc4 4ebe
00000050: 17d4 d43d f1fb 733e d4c9 953d 12d0 95be
00000060: 5cab 343d 8955 a4bd 5853 bebd 6522 6d3d
00000070: 2f92 b93e 229b 43be 8860 b3bd 5924 d13d
00000080: 47f0 583e 2053 263e a891 d8bc b081 033d
00000090: 9ef0 553d ab60 8a3d 3c53 f5bd 9344 f53d
000000a0: be8b 9cbd 3582 c6be 5f4f bbbd 857b ebbd
000000b0: 7390 e7bd c9eb 963d 11e0 dabe 48d3 a8bd
000000c0: 4ff3 0cbb 1b3a 6abc 9a37 133d 014d 3fbc
000000d0: ae55 e73d 15c9 3b3e 6b3a 2ebe 5f23 98bc
000000e0: bc16 173e 1e86 db3c 1043 abbd c53d dfbe
000000f0: bd8b 04be c92e 5c3e 9206 7bbd da98 aebc
00000100: 8587 c73e 5d6f c4bd 71e4 efbd 5196 17be
00000110: c9d1 b53d dcf7 d93c c3d5 343e fad5 13be
00000120: 1ebe 4cbe 8efb 903d 3371 98be f0bb 153e
00000130: 701f a43d 5af8 473e 6e88 843e 2111 463e
00000140: e62a a4bd 8cf1 4ebe 6d2b e53e 7ff9 20be
00000150: b5e2 20be f6fb 7cbe c1a8 08be 312b 273e
00000160: 08f4 713d c2bb 12be d319 603b 87b6 cbbd
00000170: 7b71 1d3e 5274 383e 5181 a3be 5ef1 8f3b
00000180: a2be 8abe 046a b8be 4388 063e 06e9 a03e
00000190: 7915 4fbe 4a47 a63d 84b6 16be 8355 363e
000001a0: c04e 11be 52bf 90be 31b1 1a3e 8af5 5eba
000001b0: e8e1 8dbe 4cec 2c3e a193 b2bd 86c7 d3be
000001c0: 6254 743d ec6d 11be ac6e 58be ae39 823e
000001d0: b5c6 59bd eb85 abbe 7cd8 ce3e 7ee3 e6bd
000001e0: 52cf 82be 2389 2cbe 249d 30bd 3fea 4ebe
000001f0: f2de 5cbe f0d9 1dbd 8f33 23be a743 adbd
00000200: 2f60 b43e 7e7c f0bc 5a0b 07be 928f 98be
00000210: 04cf 18be 70ff f53d 74d7 2ebe 881e 3f3e
00000220: d3a5 98be d35a 04bf ee07 7abe 652f 17bd
00000230: 37dd 16bd 390a 0a3d 94ff 6c3c 8844 d23d
00000240: 76ca 94be e27b 963d 6697 cf3e 8fe5 7f3d
00000250: 8e90 24be e31b a5be f132 85be 880f bcbe
00000260: 5640 84bd 7737 543b 591b 7bbe f063 12be
00000270: 397b 933c 3efe c33c 7ffb 163e 01b4 0d3d
00000280: 4f16 8e3c 5b35 5ebd 5ae4 2bbe 78ab 813d
00000290: 479e 003e 8acf 8bbd 05a3 0e3e 5779 8e3e
000002a0: bd07 b9bd 949f ecbb af23 11bd 7be2 d0bd
000002b0: 5880 edbc 1dab 5a3c 4266 803d d4a4 b33d
000002c0: 4460 d4be 3fa4 42be 5442 dcbd 375d b23d
000002d0: 5989 ca3d bc7c 493e 0c35 8ebe d2f8 523e
000002e0: 45f7 873e a5bd b33e 73cb 113e 595d 17be
000002f0: 3173 1c3e 67f9 373e f1da 8a3d 7dcc c33e
00000300: 2238 e1bd 9399 75bc 1e62 7c3d 0596 a03d
00000310: 4d22 a8bd d125 c13d a266 74be 98c4 c63c
00000320: 90ee 57be 1624 39be 50c0 e4bd 3ea3 e63e
00000330: 4094 9ebe 290e 163d c0c4 b2bd d75f b3be
00000340: f2bc 65be 9d62 2a3e f9bd fdbd f5bb fe3c
00000350: f26f 51be 4e3b 04be ba87 4bbe eb21 e8be
00000360: 6c77 d43d 0033 d33d 13a6 9bbe 9be4 653d
00000370: 140b 05bd b96b fc3d ed99 11be bd19 f3bc
00000380: 7d9b 34be c634 9fbe a89c 8c3d 9df8 1d3e
00000390: 9475 f9bd d429 043d 0006 abbe de98 44be
000003a0: 642f 0fbe c0f3 02bf 8ad3 b9be 93a6 903d
000003b0: 95f5 cdbe 2e0f 33be 32d3 06be 6ca0 2c3e
000003c0: 1a4d 73bd cc34 2e3e 92f8 833d 32aa 87be
000003d0: cada 80bb 3182 b5be 293b b63c 0bd2 30be
000003e0: 0f20 adbe bcd1 cb3d b046 b0bc b7a0 9ebe
000003f0: fa2d 69be d45b b8bd 2397 8a3b 757b dc3d

classifier.0.bias f4 [120]
-0.22643979 0.30041444 -0.030991647 -0.11520655 -0.18911932 0.14699405 -0.34764522 0.0805587
-0.279215 0.04773781 0.16760051 -0.2527839 -0.19387147 -0.085310735 -0.3004918 -0.14658485
-0.33656076 0.06771336 0.19878311 -0.10897188 -0.11740821 0.052510306 -0.11657304 -0.024156736
-0.03869742 -0.13451473 0.12675588 -0.14838475 0.040389553 -0.4049395 0.124679945 -0.10017822
-0.1097871 0.07977458 0.27990678 0.0724614 0.09575135 -0.14806373 -0.078882754 -0.19343194
-0.16827469 0.2270625 0.18537936 -0.0063664378 -0.16766936 0.059033506 0.045099683 0.24026515
0.09432198 -0.069403514 0.23110132 -0.043070666 0.14808337 0.1185671 0.22405699 0.28236356
-0.16925123 0.17818496 -0.10198333 -0.0673044 -0.056703545 0.04693945 -0.32886907 0.013023396
0.2059655 -0.18723162 -0.12531804 -0.30978608 -0.24351285 0.19364212 0.32686207 0.056579556
0.35217804 -0.23671031 -0.17588069 0.15641344 0.014665023 0.3091251 -0.10075177 0.099204086
0.068534926 -0.450838 0.13336915 0.15046139 -0.15568808 -0.079657085 -0.09262992 0.092002995
0.17967016 0.33178973 -0.20337564 -0.14370093 -0.06469738 -0.17210968 0.1858688 0.16441876
0.09133078 0.24629536 0.15846618 -0.22823794 -0.08298202 0.08808149 0.10350632 0.33125663
0.029627709 0.13987088 -0.093429364 0.1050893 0.0019675503 -0.18181989 -0.02978846 -0.20306918
-0.14715093 -0.05765018 -0.028533114 -0.32924917 0.17784107 0.04424389 0.36626357 0.11669184
00000000: d5df 67be eccf 993e 32e2 fdbc 69f1 ebbd
00000010: 7fa8 41be 9c85 163e 8efe b1be f6fb a43d
00000020: 45f5 8ebe b988 433d 789f 2b3e e46c 81be
00000030: 3e86 46be 65b7 aebd 10da 99be 571a 16be
00000040: b151 acbe 4dad 8a3d cd8d 4b3e a62c dfbd
00000050: b773 f0bd 0c15 573d d9bd eebd 59e4 c5bc
00000060: 3081 1ebd 3bbe 09be 4bcc 013e 2cf2 17be
00000070: 846f 253d 3b54 cfbe 3358 ff3d 3d2a cdbd
00000080: 0fd8 e0bd db60 a33d f14f 8f3e a466 943d
00000090: 4919 c43d 059e 17be 488d a1bd 0613 46be
000000a0: 3350 2cbe 1283 683e 16d4 3d3e 8d9d d0bb
000000b0: 84b1 2bbe 1ecd 713d 72ba 383d 1108 763e
000000c0: e22b c13d 6e23 8ebd d3a5 6c3e de6a 30bd
000000d0: 2ba3 173e 4fd3 f23d 326f 653e f591 903e
000000e0: 3250 2dbe 1e76 363e a3dc d0bd e4d6 89bd
000000f0: fa41 68bd 9543 403d 8761 a8be 1560 553c
00000100: 9fe8 523e a5b9 3fbe 5f53 00be 489c 9ebe
00000110: 6f5b 79be 1f4a 463e 775a a73e f7bf 673d
00000120: ae50 b43e 3064 72be 111a 34be d82a 203e
00000130: 9145 703c a545 9e3e f256 cebd 832b cb3d
00000140: 0a5c 8c3d 3dd4 e6be ec91 083e 8d12 1a3e
00000150: b26c 1fbe 4123 a3bd c1b4 bdbd 116c bc3d
00000160: 74fb 373e 58e0 a93e b441 50be 5626 13be
00000170: 0f80 84bd 853d 30be 6454 3e3e 645d 283e
00000180: a20b bb3d da34 7c3e f544 223e 35b7 69be
00000190: 7af2 a9bd 1164 b43d 1ffb d33d 789a a93e
000001a0: cfb5 f23c 503a 0f3e e557 bfbd 0f39 d73d
000001b0: 04f2 003b fe2e 3abe ee06 f4bc 5ef1 4fbe
000001c0: bcae 16be 9822 6cbd 47be e9bc 5993 a8be
000001d0: f81b 363e 1539 353d e686 bb3e 22fc ee3d

classifier.1.weight f4 [120]
1.2271608 0.8079226 1.0065072 1.3195053 0.7929354 1.0012767 1.1199439 0.7051761
0.9327957 0.84671706 0.5768637 1.0051292 0.6091511 1.0349346 0.92898184 1.125936
0.9511784 0.93397874 0.8905939 1.0494375 0.8577944 0.5629386 0.8246093 0.5786838
0.95919 0.92215127 0.9739627 0.83904606 0.84148264 0.78690076 0.68477786 0.74245477
0.8053424 0.79738355 0.67306226 1.002835 0.93565905 0.9554967 0.5453779 1.0105029
0.7218773 0.8603758 0.60492676 0.728138 0.6522773 0.8004896 0.8291085 0.9716195
0.8804634 0.6957174 0.8691933 1.0052223 0.7463859 1.1289349 0.88185817 0.89848185
1.0746558 0.93397975 0.8474307 1.0419139 0.8705272 0.56659734 1.1203068 0.6866075
0.87139255 1.276421 0.7579357 0.74724656 0.98160195 0.57360077 0.88575214 0.9240618
0.80343145 0.62232417 1.1671124 0.7357483 0.61199385 0.64047617 1.1052567 0.8710386
0.901146 0.77309054 0.83737266 0.9230158 0.96217626 0.85639626 0.75025576 0.8002796
0.8972863 0.80015785 1.1932514 0.56921357 1.0532547 0.6522508 1.0475383 0.7852802
0.58889335 0.9380172 0.908916 0.8810959 0.6321084 0.77613974 0.9187443 0.57858574
0.7934598 1.0515279 1.0007153 0.7991224 0.8372724 0.87465274 0.89264375 0.60934335
0.664161 0.96981233 0.8096519 0.5951453 1.0483578 1.0271528 0.7399525 0.6526625
00000000: 9b13 9d3f 04d4 4e3f 3ad5 803f 8de5 a83f
00000010: d0fd 4a3f d629 803f 525a 8f3f 6c86 343f
00000020: b3cb 6e3f 73c2 583f 57ad 133f 13a8 803f
00000030: 54f1 1b3f bd78 843f c1d1 6d3f ac1e 903f
00000040: 6d80 733f 3b19 6f3f f6fd 633f f853 863f
00000050: 6a98 5b3f be1c 103f 9819 533f 9f24 143f
00000060: 7a8d 753f 1b12 6c3f 9f55 793f b9cb 563f
00000070: 686b 573f 5472 493f 9a4d 2f3f 8411 3e3f
00000080: eb2a 4e3f 5421 4c3f cf4d 2c3f e65c 803f
00000090: 5a87 6f3f 6f9b 743f e39d 0b3f 2958 813f
000000a0: f3cc 383f 9741 5c3f 7bdc 1a3f 4167 3a3f
000000b0: a5fb 263f e3ec 4c3f 7440 543f 0ebc 783f
000000c0: 0d66 613f 891a 323f 7483 5e3f 20ab 803f
000000d0: 2513 3f3f f080 903f 75c1 613f e802 663f
000000e0: 528e 893f 4c19 6f3f 38f1 583f 6f5d 853f
000000f0: dfda 5e3f 860c 113f 3766 8f3f 82c5 2f3f
00000100: 9513 5f3f c361 a33f 1308 423f 8d4b 3f3f
00000110: 444a 7b3f 80d7 123f a7c0 623f 508f 6c3f
00000120: afad 4d3f a350 1f3f f063 953f 005a 3c3f
00000130: a1ab 1c3f 3ff6 233f 0d79 8d3f 63fc 5e3f
00000140: 81b1 663f 43e9 453f 0e5e 563f c34a 6c3f
00000150: 2f51 763f c93c 5b3f c310 403f 20df 4c3f
00000160: 8eb4 653f 25d7 4c3f 76bc 983f fbb7 113f
00000170: 0dd1 863f e9f9 263f bc15 863f 2008 493f
00000180: b7c1 163f e521 703f b8ae 683f 808f 613f
00000190: dbd1 213f 18b1 463f d432 6b3f 321e 143f
000001a0: 2e20 4b3f 7798 863f 7017 803f 4993 4c3f
000001b0: 7c57 563f 3ee9 5f3f 4d84 643f edfd 1b3f
000001c0: 7506 2a3f 9f45 783f 5945 4f3f 715b 183f
000001d0: 9730 863f be79 833f 876d 3d3f e414 273f

classifier.1.bias f4 [120]
-0.7010005 -0.53646535 -0.46444276 -0.47342595 -0.46019715 -0.5046864 -0.35857612 -0.39362615
-0.3159564 -0.4627337 -0.15338069 -0.31402695 -0.0886274 -0.35836515 -0.69858724 -0.27292383
-0.12771884 -0.16228911 -0.29655716 -0.49129537 0.15109843 -0.10262984 -0.2236216 -0.48025164
-0.19856602 -0.37247637 -0.39363757 -0.2381487 -0.114653446 -0.32440653 -0.5270168 -0.4086536
-0.5781412 -0.42413062 -0.20936437 -0.4951647 -0.3726416 -0.1231325 -0.19665545 -0.46460286
-0.37991714 -0.424774 -0.12949437 -0.34973234 -0.10677754 -0.4323626 0.027243152 -0.54390967
-0.41155633 -0.33396333 -0.54819006 -0.4661892 -0.546699 -0.31376377 -0.35332695 -0.57655996
-0.33064944 -0.45101532 -0.26441687 -0.6834876 -0.47332716 -0.24160227 -0.41552895 -0.2970666
-0.24751711 -0.46980834 -0.2516872 -0.5652838 -0.39520684 -0.48557085 -0.22432761 -0.5740423
-0.28038678 -0.36026928 -0.37036556 -0.2837976 -0.15642257 -0.3246179 -0.26278436 -0.18052733
-0.2159704 0.11926276 -0.44584182 -0.26161605 -0.27249208 -0.5130715 -0.46046463 -0.354161
-0.50252527 0.16071355 -0.4544379 -0.3162602 -0.2900737 -0.39739072 -0.43126783 -0.26879415
-0.21919455 -0.09416823 -0.18775882 -0.59470713 -0.31476632 -0.110626474 -0.49595824 -0.20384617
-0.34993127 -0.26495892 -0.35693562 -0.23709252 -0.6134757 -0.18061794 -0.16352664 -0.46934488
-0.39556682 -0.56177384 -0.28587472 -0.1873519 -0.332202 -0.24723618 -0.25300416 -0.3508452
00000000: c574 33bf cb55 09bf 71cb edbe e364 f2be
00000010: f69e ebbe 2133 01bf 4a97 b7be 5e89 c9be
00000020: 0ac5 a1be 6eeb ecbe d40f 1dbe 24c8 a0be
00000030: 4882 b5bd a37b b7be 9dd6 32bf acbc 8bbe
00000040: bac8 02be 1e2f 26be 57d6 97be 118b fbbe
00000050: 8cb9 1a3e 982f d2bd 10fd 64be 8be3 f5be
00000060: e454 4bbe 39b5 bebe dd8a c9be 41dd 73be
00000070: 6dcf eabd 9d18 a6be 93ea 06bf 0b3b d1be
00000080: 1001 14bf a627 d9be 9d63 56be 3a86 fdbe
00000090: e1ca bebe e42c fcbd 0c60 49be 6de0 edbe
000000a0: 8084 c2be fa7b d9be 2c9a 04be 1e10 b3be
000000b0: 2fae dabd a15e ddbe 082d df3c aa3d 0bbf
000000c0: 83b7 d2be 3efd aabe 2f56 0cbf 5ab0 eebe
000000d0: 77f4 0bbf a5a5 a0be 45e7 b4be 6f99 13bf
000000e0: e24a a9be 7beb e6be a661 87be 0bf9 2ebf
000000f0: f057 f2be 9666 77be 36c0 d4be 1d19 98be
00000100: 2075 7dbe b88a f0be 25dd 80be 70b6 10bf
00000110: 8d58 cabe be9c f8be 23b6 65be 70f4 12bf
00000120: db8e 8fbe 3775 b8be 8ea0 bdbe eb4d 91be
00000130: 3d2d 20be 5134 a6be ac8b 86be 28dc 38be
00000140: 5827 5dbe 0940 f43d 6145 e4be 8af2 85be
00000150: 1584 8bbe a758 03bf 05c2 ebbe 9754 b5be
00000160: 7fa5 00bf 1892 243e 16ac e8be dbec a1be
00000170: 8a84 94be cc76 cbbe 23cf dcbe 639f 89be
00000180: 8974 60be 46db c0bd d943 40be ba3e 18bf
00000190: 0d29 a1be 2290 e2bd 3dee fdbe 0dbd 50be
000001a0: 312a b3be b2a8 87be 44c0 b6be 62c8 72be
000001b0: be0c 1dbf e9f3 38be 8773 27be f94d f0be
000001c0: bc87 cabe 69d0 0fbf 2c5e 92be 2dd9 3fbe
000001d0: 6116 aabe 7b2b 7dbe c389 81be fba1 b3be

classifier.1.running_mean f4 [120]
-1.1133221 0.471453 -0.3556135 -0.09989515 -0.1868077 0.065629885 -0.8815599 -0.35838884
-0.7357787 -0.05457993 0.7744831 -1.1405578 -0.75992817 -0.7848088 -0.5641014 -0.6318172
-0.038138952 -0.4218467 -0.10973531 0.43126845 0.1822278 -0.5431499 0.11527778 -0.35714912
-0.040198907 0.004021405 -0.27450648 -1.024534 -0.35978663 -0.47958148 -0.016517486 0.21259151
0.043983616 0.23326772 0.9283768 0.3259423 -0.11839003 0.17455211 -0.106584355 -0.7263749
0.33064198 0.20202444 0.30427217 0.039323203 -0.24351276 0.5953607 0.09927733 0.115873754
-0.17527345 -0.32497486 0.4018694 -0.20892763 0.0305608 0.16243257 1.0802505 -0.028210081
0.14568284 -0.019417623 -0.6732094 -0.36780778 -0.23087506 0.38363433 -1.2962669 -0.1363331
0.36305073 -0.0559183 -0.41180286 -1.1596012 -0.88519216 0.019716874 0.10266494 0.20109607
-0.36618432 -0.029777821 -0.838886 0.21439783 0.074314564 0.9887303 0.112243086 0.4276702
-0.17131901 -0.8255799 0.05275294 0.015945503 -0.88432133 0.4417533 -0.07159829 0.2607813
0.12018244 0.68621063 -1.1448696 -0.59107685 -0.8764053 -0.48241457 0.4934604 -0.109207444
0.69278777 0.6048092 0.019055845 -0.20885283 0.34788224 0.24198687 0.2269876 1.2332991
-1.4830879 0.1697912 0.023045896 0.017919041 0.28948396 0.12649462 -0.22529137 -0.15669207
-0.029639777 -1.0196804 -0.122277096 -0.7953718 0.18960531 -0.055587426 -0.11175952 0.3063109
00000000: 5781 8ebf 4a62 f13e f912 b6be d495 ccbd
00000010: 854a 3fbe f668 863d e9ad 61bf be7e b7be
00000020: fe5b 3cbf 348f 5fbd 8644 463f ccfd 91bf
00000030: a78a 42bf 3be9 48bf f368 10bf c6be 21bf
00000040: 9737 1cbd 4afc d7be e8bc e0bd 38cf dc3e
00000050: ed99 3a3e df0b 0bbf c216 ec3d 40dc b6be
00000060: 9ca7 24bd fdc5 833b 1d8c 8cbe ee23 83bf
00000070: f435 b8be b48b f5be ae4f 87bc 97b1 593e
00000080: 2a28 343d bcdd 6e3e 1aaa 6d3f e9e1 a63e
00000090: 7976 f2bd cabd 323e e648 dabd b5f3 39bf
000000a0: e849 a93e 7fdf 4e3e 90c9 9b3e 5e11 213d
000000b0: 695b 79be 8f69 183f ea51 cb3d 384f ed3d
000000c0: e27a 33be 1b63 a6be d3c1 cd3e 20f1 55be
000000d0: a55a fa3c b954 263e a645 8a3f d418 e7bc
000000e0: e22d 153e b511 9fbc 7457 2cbf 4d51 bcbe
000000f0: 836a 6cbe b86b c43e 13ec a5bf e79a 0bbe
00000100: c9e1 b93e 960a 65bd d3d7 d2be d06d 94bf
00000110: f49b 62bf 4885 a13c ff41 d23d 21ec 4d3e
00000120: 837c bbbe 9ef0 f3bc 3cc1 56bf 1b8b 5b3e
00000130: 3c32 983d 6e1d 7d3f b4df e53d 97f7 da3e
00000140: 406e 2fbe 3459 53bf 7813 583d 25a0 823c
00000150: e262 62bf 7d2d e23e 20a2 92bd 2085 853e
00000160: 3622 f63d 80ab 2f3f 168b 92bf d050 17bf
00000170: 195c 60bf 0bff f6be d7a6 fc3e 27a8 dfbd
00000180: 8a5a 313f c7d4 1a3f 011b 9c3c 84dd 55be
00000190: 9f1d b23e 68cb 773e 706f 683e bfdc 9d3f
000001a0: d3d5 bdbf bfdd 2d3e bfca bc3c f4ca 923c
000001b0: 3e37 943e ce87 013e c8b2 66be e373 20be
000001c0: 1ecf f2bc e384 82bf 6a6c fabd 7c9d 4bbf
000001d0: e527 423e a4af 63bd 2de2 e4bd c8d4 9c3e

classifier.1.running_var f4 [120]
0.00033702323 0.0012676069 0.00041751162 0.0008275825 0.0017624031 0.0035266026 0.0006388681 0.0006089399
0.0022876475 0.0020127734 0.0015350855 0.0021845775 0.0066930503 0.003565059 0.00022543006 0.002794901
0.0011622169 0.0016307968 0.001707127 0.0014651517 0.0003816671 0.004530967 0.0023062273 0.003304646
0.0019101234 0.0016251103 0.0035880222 0.0036640053 0.0030221154 0.0018482296 0.0012520946 0.0024718503
0.001031666 0.0016992112 0.0015008146 0.00041202226 0.0024357713 0.00066718465 0.0032819945 0.0008333187
0.006433488 0.0012465463 0.0080369 0.0019762488 0.010481524 0.00093742256 0.00046972328 0.00061429985
0.0035678195 0.0017338275 0.00088693865 0.0024603603 0.010441438 0.0034607064 0.000656611 0.00046697736
0.0006668617 0.0003060895 0.0006097011 0.00033758665 0.0013165992 0.001596465 0.0004826344 0.0013865704
0.0032969578 0.00089840137 0.008784739 0.0008646225 0.00253275 0.008077214 0.0048635188 0.0015573119
0.012199866 0.0021887934 0.00042064462 0.0064979093 0.015515256 0.010047577 0.001855514 0.0009633428
0.0039037883 0.0004525002 0.00072960276 0.0021433753 0.0013607848 0.002174013 0.0025428585 0.00048650245
0.0017664854 0.00031532638 0.0029436704 0.013135187 0.004058292 0.016370919 0.00050099764 0.003028918
0.004234052 0.00080749375 0.0020113643 0.0004190414 0.0085206255 0.0018022293 0.0013053191 0.004138802
0.011589844 0.0051498376 0.0011232599 0.0014417241 0.0010881396 0.002764855 0.0013088618 0.009924247
0.010714637 0.0013426358 0.0033358634 0.0038878107 0.0044341222 0.0026074266 0.014816341 0.0015566264
00000000: 7eb2 b039 d425 a63a 76e5 da39 1ff2 583a
00000010: 6f00 e73a 931e 673b b679 273a 44a1 1f3a
00000020: 5bec 153b bce8 033b ec34 c93a 212b 0f3b
00000030: 6051 db3b c4a3 693b 6c61 6c39 a82a 373b
00000040: 8755 983a 76c0 d53a adc1 df3a 550a c03a
00000050: 7e1a c839 8278 943b 1324 173b c292 583b
00000060: 1b5d fa3a a701 d53a 0625 6b3b cf1f 703b
00000070: af0e 463b 4b40 f23a 531d a43a c4fe 213b
00000080: f738 873a 11b8 de3a fbb6 c43a b104 d839
00000090: 76a1 1f3b 01e6 2e3a bb16 573b 1273 5a3a
000000a0: 02d0 d23b 2763 a33a 34ad 033c f483 013b
000000b0: b3ba 2b3c 5dbd 753a 3145 f639 f708 213a
000000c0: 14d2 693b 9941 e33a 7281 683a ff3d 213b
000000d0: 9112 2b3c 05cd 623b 6b20 2c3a a4d4 f439
000000e0: 55d0 2e3a a37a a039 59d4 1f3a 1dfe b039
000000f0: bd91 ac3a 7a40 d13a 180a fd39 95bd b53a
00000100: c611 583b b282 6b3a deed 0f3c d5a7 623a
00000110: 7efc 253b 4a56 043c 275e 9f3b b71e cc3a
00000120: f2e1 473c dc71 0f3b f789 dc39 6aec d43b
00000130: b333 7e3c 989e 243c b834 f33a d788 7c3a
00000140: b3d6 7f3b 8c3d ed39 d042 3f3a df77 0c3b
00000150: 5c5c b23a e379 0e3b 16a6 263b 4111 ff39
00000160: 6a89 e73a 6452 a539 98ea 403b f834 573c
00000170: 6cfb 843b 4e1c 863c 6255 033a d080 463b
00000180: cdbd 8a3b fdad 533a 18d1 033b c9b2 db39
00000190: 189a 0b3c c838 ec3a 3e17 ab3a ca9e 873b
000001a0: 54e3 3d3c f8bf a83b 593a 933a 3cf8 bc3a
000001b0: e89f 8e3a 9232 353b 1d8e ab3a 4f99 223c
000001c0: 728c 2f3c 62fb af3a 809e 5a3b a4ca 7e3b
000001d0: 1d4c 913b 5ce1 2a3b 3dc0 723c b707 cc3a

classifier.4.weight f4 [140, 120]
-0.49919346 0.071999826 -0.040159766 0.12342808 -0.14939946 -0.0297801 -0.063917525 -0.0040311073
-0.08818303 0.01609908 0.025701402 -0.03096792 -0.3470795 0.20839088 0.12571117 -0.036945652
-0.117191404 0.07540283 -0.26335534 -0.047214437 -0.009828985 -0.046053957 -0.006794757 0.08014008
-0.0102434745 -0.04048683 -0.051185675 -0.15312937 -0.26175845 -0.42408538 0.09105697 -0.050035127
0.1633466 -0.23492128 0.02372779 -0.039566986 -0.021846974 -0.07083151 -0.36587158 -0.101581514
0.013498461 -0.1008249 -0.43591595 0.024802838 -0.39023662 0.0065362924 -0.002991081 -0.019000297
-0.042269308 -0.11979196 0.0028179223 0.03147976 0.19198383 0.2056471 0.036486864 -0.07832168
0.0057192487 -0.052791208 -0.14196503 -0.21392807 -0.09100695 -0.29133356 -0.06527832 -0.09796864
-0.13627243 0.13420233 -0.4693825 0.29125008 -0.050496124 0.11376024 -0.26907697 0.0492656
0.030547936 0.03830069 0.079433635 0.19029199 -0.4758229 0.10850242 -0.06848916 0.07908862
-0.23589852 0.07192676 -0.150124 -0.0100579215 0.10509715 0.04790319 0.09363169 0.026170209
-0.04479867 0.038428117 0.18127315 0.0047051213 -0.010471253 0.12908083 0.11052993 -0.047799785
0.055231374 0.059270736 -0.13362469 -0.026190443 0.026023682 -0.3344148 -0.16373372 -0.03472467
0.065898634 -0.03220724 -0.007162531 -0.07827656 -0.18029755 0.05103271 -0.18847896 -0.013193867
0.03406065 -0.09973202 0.0873318 0.012705289 0.05650506 -0.090765364 0.058043156 -0.0372198
0.17059635 0.25980392 0.00018383388 0.13554004 0.14550051 -0.2393777 0.13393189 -0.20972617
0.06805495 0.060735356 -0.018170377 -0.021967892 -0.028986631 -0.059577074 0.0062972885 0.03808731
0.05011937 -0.0020193246 -0.45055178 0.03612331 -0.07737882 0.0461275 0.0016005368 -0.19140404
-0.118156336 0.10255707 0.117963955 -0.09789174 0.049055554 0.10561316 -0.16750716 0.009390382
0.022367017 0.09959158 0.0049714805 0.07025661 -0.15039553 0.022514775 0.13993742 0.15841976
-0.046340384 0.012451908 0.07120344 0.023931075 0.14382705 0.1317433 0.081631005 -0.012758887
-0.030760357 -0.041049704 0.024523465 0.14215596 0.16017897 0.15437545 0.05653756 0.03108733
0.11077802 -0.29726297 -0.28350046 0.23035103 0.029365724 0.13702725 0.07671151 -0.07940992
-0.038911052 0.16416308 0.13564932 -0.2993441 -0.30529568 -0.066730306 0.029798351 -0.043417443
-0.15177426 -0.104517035 0.037854906 -0.18520258 0.0569704 -0.006172018 0.11734749 -0.12773944
0.09396185 -0.09461839 0.09626365 -0.35070923 0.10047025 -0.10166672 -0.09780564 -0.24174757
0.13122603 -0.008016689 -0.19464599 -0.1601455 -0.015582007 -0.14958571 -0.13273253 0.14029181
-0.027225466 -0.10344467 0.08164525 -0.044990256 -0.2915064 0.14473987 -0.35911432 0.08416374
-0.009659471 0.0542025 -0.11157089 0.054285567 -0.009197133 -0.006914293 0.0167795 -0.059481528
-0.066539876 0.034838874 -0.04817007 -0.05032522 0.15313484 -0.17381305 0.041641645 -0.041574962
0.071922004 0.03173378 0.07903967 0.070502825 -0.29494193 -0.19363411 -0.087740876 0.04332461
-0.036154345 -0.15360111 -0.060173117 0.06290397 0.087723754 -0.04836955 -0.24654561 -0.07672335
00000000: 4996 ffbe a574 933d 917e 24bd dcc7 fc3d
00000010: 2cfc 18be 65f5 f3bc 31e7 82bd 6117 84bb
00000020: 4e99 b4bd 38e2 833c bf8b d23c 6fb0 fdbc
00000030: 67b4 b1be 6b64 553e 6eba 003e 5354 17bd
00000040: 0c02 f0bd cd6c 9a3d 83d6 86be ed63 41bd
00000050: c009 21bc 13a3 3cbd 8ea6 debb 7b20 a43d
00000060: 3fd4 27bc 85d5 25bd 12a8 51bd f2cd 1cbe
00000070: 3405 86be b821 d9be 147c ba3d a2f1 4cbd
00000080: 5544 273e 348f 70be c860 c23c fe10 22bd
00000090: 6df8 b2bc 1c10 91bd 8553 bbbe f809 d0bd
000000a0: a628 5d3c 497d cebd 6030 dfbe 522f cb3c
000000b0: 18cd c7be 652e d63b 0306 44bb 83a6 9bbc
000000c0: 9522 2dbd 7d55 f5bd e4ac 383b ecf0 003d
000000d0: 6997 443e 2795 523e 4073 153d 1e67 a0bd
000000e0: 8968 bb3b 983b 58bd 485f 11be f60f 5bbe
000000f0: da61 babd ac29 95be a4b0 85bd c8a3 c8bd
00000100: 008b 0bbe 566c 093e e752 f0be bb1e 953e
00000110: 06d5 4ebd 21fb e83d 75c4 89be baca 493d
00000120: aa3f fa3c 2fe1 1c3d 1aae a23d e7db 423e
00000130: 0f9f f3be 8436 de3d 0b44 8cbd 37f9 a13d
00000140: 628f 71be 564e 933d 1bba 19be fbc9 24bc
00000150: 2d3d d73d 2336 443d f9c1 bf3d e862 d63c
00000160: cf7e 37bd cd66 1d3d ab9f 393e 6b2d 9a3b
00000170: 9e8f 2bbc c42d 043e 845d e23d b5c9 43bd
00000180: 4b3a 623d dfc5 723d e9d4 08be 578d d6bc
00000190: 9e2f d53c 6b38 abbe d0a9 27be 753b 0ebd
000001a0: ddf5 863d bdeb 03bd aab3 eabb 764f a0bd
000001b0: ec9f 38be ad07 513d a100 41be 172b 58bc
000001c0: 2e83 0b3d 4d40 ccbd 04db b23d d829 503c
000001d0: da71 673d 31e3 b9bd a9be 6d3d ca73 18bd
000001e0: cfb0 2e3e 0505 853e 88c3 4039 02cb 0a3e
000001f0: 16fe 143e 6e1f 75be 7125 093e 75c2 56be
00000200: 6560 8b3d a3c5 783d 0bda 94bc 02f6 b3bc
00000210: 5f75 edbc 1707 74bd 7c59 ce3b 7001 1c3d
00000220: f849 4d3d a556 04bb b9ae e6be 09f6 133d
00000230: c978 9ebd 30f0 3c3d 1ac9 d13a 6cff 43be
00000240: f3fb f1bd 7109 d23d 1697 f13d 777b c8bd
00000250: 7aee 483d b64b d83d ff86 2bbe 1eda 193c
00000260: 093b b73c acf6 cb3d cde7 a23b b3e2 8f3d
00000270: 4901 1abe e870 b83c c14b 0f3e ca38 223e
00000280: 6acf 3dbd 1603 4c3c 1cd3 913d 1a0b c43c
00000290: 6647 133e b7e7 063e 282e a73d a70a 51bc
000002a0: 25fd fbbc bc23 28bd 6fe5 c83c 5591 113e
000002b0: f505 243e 9914 1e3e ee93 673d dbaa fe3c
000002c0: 96df e23d da32 98be f926 91be 24e1 6b3e
000002d0: 6390 f03c df50 0c3e ed1a 9d3d aba1 a2bd
000002e0: 3261 1fbd 5e1a 283e a8e7 0a3e a143 99be
000002f0: b74f 9cbe e6a9 88bd ac1b f43c 7dd6 31bd
00000300: b66a 1bbe 070d d6bd bf0d 1b3d bfa5 3dbe
00000310: cb59 693d a43e cabb e153 f03d 21ce 02be
00000320: 126f c03d 49c7 c1bd e025 c53d 2990 b3be
00000330: 59c3 cd3d a436 d0bd 534e c8bd ad8c 77be
00000340: 1e60 063e 6e58 03bc 4751 47be 2ffd 23be
00000350: ad4b 7fbc ff2c 19be 09eb 07be a8a8 0f3e
00000360: f107 dfbc cdda d3bd a035 a73d b447 38bd
00000370: 5440 95be b036 143e d5dd b7be 0a5e ac3d
00000380: c242 1ebc 7103 5e3d 477f e4bd 8b5a 5e3d
00000390: 92af 16bc 4b91 e2bb 2975 893c e7a2 73bd
000003a0: 0f46 88bd 35b3 0e3d fb4d 45bd d121 4ebd
000003b0: 61cf 1c3e 0cfc 31be 6e90 2a3d 824a 2abd
000003c0: d84b 933d 48fb 013d 8ddf a13d c963 903d
000003d0: a102 97be 0548 46be 7db1 b3bd 2575 313d
000003e0: 9416 14bd 9c49 1dbe 1678 76bd ccd3 803d
000003f0: 83a8 b33d 261f 46bd 7476 7cbe 2221 9dbd

classifier.4.bias f4 [140]
-0.07625332 -0.02681268 -0.09718014 0.17030665 -0.048242636 0.057077844 0.013356192 -0.15408507
0.0027723773 0.14074324 0.073029764 0.06102789 0.08743077 -0.021466635 -0.005644724 0.09894042
0.07455606 0.100129284 0.16570203 -0.02022617 -0.049779635 -0.05326726 0.11445942 -0.043145012
-0.060849585 -0.035916463 -0.09164549 -0.018147262 0.035353806 0.046103276 -0.1534115 -0.12470201
-0.10802377 -0.070129186 -0.011837729 -0.043394845 -0.017264968 0.118477345 0.03597966 0.24027267
-0.05992445 0.051970277 0.060395874 0.045329954 0.037629135 0.06483424 0.035492346 -0.09480619
-0.020447757 0.0071110795 -0.005392967 0.04389013 -0.01836467 -2.2063483e-05 -0.058760036 0.09050542
0.058478255 -0.018153274 -0.056548763 0.04675537 0.02789624 0.06848401 -0.09509154 -0.06878912
0.08497956 -0.10587199 0.07532117 0.083462924 -0.057454135 0.0328316 -0.07278773 -0.024203243
-0.14089367 0.0589872 0.08473356 0.044799052 0.091927685 0.031647377 0.10568798 -0.12594615
-0.011475102 -0.13518922 -0.04124556 0.1350453 -0.0045123966 -0.063721545 0.037877213 0.0256012
0.027908176 -0.007582336 -0.04020255 0.0648403 -0.13204257 0.036889758 0.06648148 0.057157207
-0.10120443 -0.1085213 -0.060141407 0.05234557 -0.13101229 0.014576584 -0.025487345 0.119078614
0.01628016 0.02263296 -0.08583339 -0.12872176 -0.012127011 0.0030606943 -0.058547802 -0.06154136
-0.11848955 0.07887474 -0.06184031 0.06659109 -0.042011414 0.07948517 -0.054832365 0.011780373
0.05981146 -0.12851946 -0.0054184627 0.005266197 0.034610163 0.02643012 0.07001686 0.022990914
-0.060450252 0.0014156484 0.10657265 0.05796128 0.024787324 0.042547997 -0.1886469 -0.03320323
0.052268595 -0.0011015243 0.059262827 -0.022141945
00000000: b32a 9cbd 44a6 dbbc 6206 c7bd de64 2e3e
00000010: 129a 45bd 75ca 693d eed3 5a3c 7ac8 1dbe
00000020: c6b0 353b ff1e 103e a190 953d 61f8 793d
00000030: e70e b33d ccda afbc 60f7 b8bb 46a1 ca3d
00000040: d9b0 983d 9510 cd3d cbad 293e 5ab1 a5bc
00000050: bbe5 4bbd c52e 5abd b369 ea3d d3b8 30bd
00000060: 6a3d 79bd 241d 13bd a1b0 bbbd 91a9 94bc
00000070: 27cf 103d cad6 3c3d e717 1dbe c463 ffbd
00000080: 913b ddbd e49f 8fbd 09f3 41bc cbbe 31bd
00000090: 436f 8dbc 40a4 f23d 685f 133d 0a0a 763e
000000a0: 5773 75bd c9de 543d aa61 773d e7ab 393d
000000b0: 0221 1a3d d0c7 843d 6c60 113d bf29 c2bd
000000c0: 0e82 a7bc 0f04 e93b 7cb7 b0bb 23c6 333d
000000d0: 8171 96bc f814 b9b7 5dae 70bd e85a b93d
000000e0: e586 6f3d 2db6 94bc ad9f 67bd 8f82 3f3d
000000f0: a886 e43c 5841 8c3d 5abf c2bd 4fe1 8cbd
00000100: c309 ae3d 6ad3 d8bd fc41 9a3d 9cee aa3d
00000110: 0755 6bbd 6e7a 063d bc11 95bd e145 c6bc
00000120: 6e46 10be 909c 713d ca88 ad3d 367f 373d
00000130: 9544 bc3d aea0 013d f172 d83d 07f8 00be
00000140: 1102 3cbc 0b6f 0abe 1bf1 28bd 5149 0a3e
00000150: badc 93bb 7180 82bd 2325 1b3d 9cb9 d13c
00000160: b09f e43c 3f75 f8bb 6eab 24bd feca 843d
00000170: 2b36 07be b719 173d 7127 883d ad1d 6a3d
00000180: 4544 cfbd 6a40 debd d656 76bd 4f68 563d
00000190: 1628 06be a0d2 6e3c d6ca d0bc 7ddf f33d
000001a0: f85d 853c c268 b93c 6bc9 afbd a3cf 03be
000001b0: 5fb0 46bc ee95 483b d2cf 6fbd cb12 7cbd
000001c0: a6aa f2bd 1489 a13d 444c 7dbd e960 883d
000001d0: 2914 2cbd 1fc9 a23d e797 60bd 7702 413c
000001e0: ddfc 743d 9b9a 03be 5c8d b1bb 1090 ac3b
000001f0: 63c3 0d3d fb83 d83c 0065 8f3d 7157 bc3c
00000200: af9a 77bd 478d b93a c342 da3d cf68 6d3d
00000210: c90e cb3c cf46 2e3d a72c 41be 1c00 08bd
00000220: 9817 563d 0661 90ba 94bd 723d 0663 b5bc

classifier.5.weight f4 [140]
0.7792143 0.64105153 1.0070944 0.98001176 1.0085337 1.0534722 0.7863616 0.9929082
0.84022623 1.1410258 0.76359606 1.0151272 1.0624496 0.76470923 1.0218127 0.9525328
1.2958032 0.8333693 0.77612174 0.72315943 0.9302555 0.8967312 0.7677283 1.0016956
0.7388027 1.07353 0.9643165 0.68704814 1.1045358 0.8423918 0.8557271 1.0056149
1.1908299 0.90682286 0.92110634 1.2378852 0.75470746 0.9696392 0.75980645 0.94328463
1.0919738 0.92972773 0.86829364 0.97467804 0.91699415 0.8851295 0.7002532 1.0397613
0.9367364 0.9159643 0.6549684 0.9074529 0.9824488 0.98156494 0.89444226 0.7061184
0.7928809 0.8010153 0.754699 0.71762115 0.9016679 1.0500609 0.8749104 1.0781485
1.0934049 0.9282924 0.93913364 0.796631 0.8057998 0.83245933 1.1426266 0.85590005
0.9277699 0.7154361 0.9549373 1.1181751 0.8104542 0.908165 0.75624806 0.83231443
0.85629004 0.8293321 0.84801286 1.3117585 0.79827523 1.2031151 0.7490782 0.8349007
1.0406358 0.80842996 0.9486336 0.95055145 1.2476823 0.89523727 0.63618946 1.0262439
1.0878971 0.903117 1.2272098 0.9579113 0.79744667 1.016669 1.0057893 1.0653957
0.7397008 0.9078262 1.080993 1.0198504 0.9476299 0.59527224 0.81906 0.8548311
0.9791656 1.0760479 1.0534946 0.75540495 1.1680893 0.9848718 0.90906215 0.8041733
0.8276259 0.6754352 0.8402476 0.7782779 0.78009635 0.76547164 1.0682751 0.78519386
0.92020065 0.91328394 0.9657461 0.9150921 1.0582998 1.002215 1.0631351 0.68855125
0.9148279 1.004492 0.7984962 1.1459829
00000000: 977a 473f f41b 243f 78e8 803f 0de2 7a3f
00000010: a217 813f 2dd8 863f fe4e 493f 3b2f 7e3f
00000020: 1119 573f 220d 923f 087b 433f b0ef 813f
00000030: 59fe 873f fcc3 433f c2ca 823f 31d9 733f
00000040: e1dc a53f b157 553f eaaf 463f fa20 393f
00000050: 3925 6e3f 2d90 653f d889 443f 9037 803f
00000060: 2c22 3d3f 6e69 893f 72dd 763f 63e2 2f3f
00000070: 6e61 8d3f fda6 573f ee10 5b3f fdb7 803f
00000080: 1d6d 983f 8b25 683f a0cd 6b3f 0673 9e3f
00000090: 8234 413f 463a 783f ad82 423f 1a7b 713f
000000a0: ccc5 8b3f a302 6e3f 7e48 5e3f 8084 793f
000000b0: 21c0 6a3f d997 623f cb43 333f e616 853f
000000c0: f5cd 6f3f a37c 6a3f 02ac 273f d54e 683f
000000d0: c481 7b3f d747 7b3f 2bfa 643f 2dc4 343f
000000e0: 3efa 4a3f 570f 4d3f f433 413f 05b6 373f
000000f0: b5d3 663f 6568 863f 21fa 5f3f c500 8a3f
00000100: b1f4 8b3f 92a4 6d3f 106b 703f 02f0 4b3f
00000110: e548 4e3f 0e1c 553f 9741 923f 441c 5b3f
00000120: 5482 6d3f d226 373f c576 743f 5d20 8f3f
00000130: ed79 4f3f 807d 683f 7999 413f 8f12 553f
00000140: d335 5b3f 1c4f 543f 5f17 593f b4e7 a73f
00000150: c45b 4c3f adff 993f 97c3 3f3f 0dbc 553f
00000160: 8e33 853f 44f5 4e3f a7d9 723f 5757 733f
00000170: 0eb4 9f3f 452e 653f 50dd 223f f65b 833f
00000180: 3640 8b3f ad32 673f 3615 9d3f ad39 753f
00000190: 7725 4c3f 3622 823f b4bd 803f e35e 883f
000001a0: 085d 3d3f 4c67 683f fb5d 8a3f 758a 823f
000001b0: e097 723f c363 183f ebad 513f 36d6 5a3f
000001c0: 99aa 7a3f f0bb 893f e9d8 863f 3862 413f
000001d0: f383 953f 8f20 7c3f 4cb8 683f 4dde 4d3f
000001e0: 4adf 533f 52e9 2c3f 771a 573f 383d 473f
000001f0: 65b4 473f f3f5 433f 3dbd 883f 7702 493f
00000200: 4592 6b3f facc 693f 233b 773f 7a43 6a3f
00000210: 5e76 873f 9548 803f d014 883f e544 303f
00000220: 2932 6a3f 3293 803f 3f6a 4c3f 91af 923f

classifier.5.bias f4 [140]
-0.37255564 -0.369105 -0.27760112 -0.65455174 -0.1273429 -0.48571706 -0.3436568 -0.09571351
-0.32582697 -0.18110006 -0.15370697 -0.21009915 -0.22678258 -0.41735703 -0.38775477 -0.5200596
-0.30709866 -0.39813825 -0.4513107 -0.40601802 -0.51562476 -0.30827767 -0.28243634 -0.34494567
-0.5358952 -0.48376572 -0.30110374 -0.44506925 -0.45791525 -0.357105 -0.3510366 -0.4486018
-0.43843457 -0.29411218 -0.31280196 -0.4139097 -0.29904953 -0.34647903 -0.40265006 -0.40969777
-0.07196079 -0.24147245 -0.26363742 -0.38824818 -0.22795407 -0.2693817 -0.49300265 -0.28398058
-0.3292002 -0.33132413 -0.38023227 -0.30758837 -0.30124152 -0.111707665 -0.41209903 -0.46110445
-0.37133646 -0.4483165 -0.41881877 -0.39126873 -0.36225152 -0.38957307 -0.35365048 -0.19648181
-0.21696593 -0.26813677 -0.29475155 -0.067220576 -0.37150952 -0.33215415 -0.10700842 -0.37622604
-0.41916156 -0.45987782 -0.42400688 -0.2201436 -0.48695102 -0.33476037 -0.26761022 -0.40089038
-0.3525544 -0.3975594 -0.15257432 -0.3936015 -0.34872824 -0.33949867 -0.42167285 -0.45252648
-0.24999847 -0.30674982 -0.27994764 -0.30739245 -0.30111983 -0.36570266 -0.3247414 -0.29607645
-0.27713946 -0.5197886 -0.23919535 -0.51436985 -0.31336933 -0.3146735 -0.019169416 -0.35688087
-0.44554278 -0.3409706 -0.31921095 -0.11430885 -0.25838733 -0.5416444 -0.4788278 -0.24017759
-0.54586 -0.22140048 -0.23996362 -0.43250784 -0.30667758 -0.32652882 -0.5355698 -0.39046943
-0.43686867 -0.21362965 -0.41611692 -0.27023572 -0.4799984 -0.24000764 -0.4712267 -0.25575507
-0.33559743 -0.35462862 -0.1811572 -0.075525105 -0.28313592 -0.15139098 -0.48829857 -0.3958326
-0.5631472 -0.33996633 -0.51137614 -0.2804544
00000000: 9dbf bebe 55fb bcbe bc21 8ebe b490 27bf
00000010: 2d66 02be e8af f8be c9f3 afbe 7205 c4bd
00000020: cbd2 a6be 4b72 39be 5c65 1dbe 3b24 57be
00000030: b139 68be d2af d5be cb87 c6be a022 05bf
00000040: 093c 9dbe c7d8 cbbe 3212 e7be 98e1 cfbe
00000050: fcff 03bf 92d6 9dbe 7f9b 90be b89c b0be
00000060: 6e30 09bf 24b0 f7be 452a 9abe 1ee0 e3be
00000070: de73 eabe 77d6 b6be 12bb b3be 23af e5be
00000080: 7f7a e0be df95 96be 9427 a0be f9eb d3be
00000090: 051d 99be b365 b1be 2628 cebe e8c3 d1be
000000a0: 2e60 93bd 8e44 77be 7cfb 86be 77c8 c6be
000000b0: cb6c 69be 66ec 89be d86a fcbe e765 91be
000000c0: ee8c a8be 51a3 a9be cead c2be 397c 9dbe
000000d0: 543c 9abe fdc6 e4bd a5fe d2be e215 ecbe
000000e0: d01f bebe be89 e5be 6a6f d6be 6054 c8be
000000f0: 0879 b9be 1f76 c7be ad11 b5be 8732 49be
00000100: 512c 5ebe 3949 89be ade9 96be f1aa 89bd
00000110: 7f36 bebe 1c10 aabe 3b27 dbbd b3a0 c0be
00000120: 589c d6be 1b75 ebbe 6e17 d9be 536d 61be
00000130: a551 f9be b665 abbe 3504 89be 8141 cdbe
00000140: 0382 b4be e88c cbbe 713c 1cbe 2386 c9be
00000150: 828c b2be c5d2 adbe 81e5 d7be 8db1 e7be
00000160: 99ff 7fbe 500e 9dbe 4c55 8fbe 8b62 9dbe
00000170: 612c 9abe 613d bbbe 8144 a6be 5597 97be
00000180: 39e5 8dbe de10 05bf a0ef 74be bead 03bf
00000190: f271 a0be e31c a1be 2e09 9dbc 17b9 b6be
000001a0: 2f1e e4be b393 aebe 9e6f a3be c21a eabd
000001b0: 584b 84be 35a9 0abf eb28 f5be 1df1 75be
000001c0: 7bbd 0bbf cfb6 62be 06b9 75be ab71 ddbe
000001d0: d804 9dbe c92e a7be 1a1b 09bf 9ceb c7be
000001e0: 40ad dfbe bbc1 5abe 470d d5be 565c 8abe
000001f0: 5ac2 f5be 90c4 75be a044 f1be 54f2 82be
00000200: 6dd3 abbe e291 b5be 4681 39be e8ac 9abd
00000210: 31f7 90be 3d06 1bbe 4502 fabe 92aa cabe
00000220: 6a2a 10bf 1110 aebe 8ce9 02bf b897 8fbe

classifier.5.running_mean f4 [140]
-0.9227506 -0.119389355 -0.999251 -0.48268804 0.17772262 -0.7960583 -0.39863738 -0.32519692
-0.6774845 -0.54952544 -0.046996456 -0.01495332 -0.6151188 -0.3657875 -0.95806813 -0.45269525
-0.4084328 -0.77746266 -0.4963488 -0.29269692 -0.7961531 -0.9847117 -0.51176065 -0.6011151
-0.76401126 -0.90389 -0.4106388 -0.5384904 -0.693937 -0.71029794 -0.47105193 -0.9390779
-1.039288 -0.92638415 -0.6968582 -0.7237587 -0.69247895 0.027427679 -0.3380681 -0.26810348
-0.5403715 -0.6401099 -0.712872 -0.8683235 -0.5041314 -0.5665819 -0.66875553 -0.7589033
-0.8166958 -0.8401547 0.039642874 -0.8427274 -0.6504118 -0.69460535 -0.39930898 -0.30723602
-0.89087075 -1.0947793 -0.28808853 0.055236682 -0.80893666 -0.88392425 -0.7470783 0.10407922
-0.5836545 -1.133301 -0.4087568 -0.032919828 -0.8301658 -0.7498749 -0.43720514 -0.73671037
-0.80328447 -0.032862406 -0.66905165 -0.6892282 -0.435952 -0.6194772 -0.5133154 -0.75968635
-0.5293499 -0.7782629 -0.06828907 -0.60099643 -0.60368717 -0.9898907 -0.5984352 -0.72089493
-0.40366226 -0.7321539 -0.93196183 -0.92730826 -0.9303537 -0.8109689 0.052176286 -0.7226827
-1.0179144 -0.76670283 -0.5011347 -0.42060465 -0.74748474 -0.83148694 0.049357865 0.26362464
-0.15524411 -0.26497072 0.044530906 -0.4811318 -0.40144083 -0.13015866 0.20310263 -0.64367986
-0.8247748 -0.53195184 0.22966234 -0.5240891 -0.5161286 -0.42632952 -0.49223307 -0.7955559
-0.8538006 -0.2936008 -0.45580405 -0.48590496 -0.6126715 -0.12714908 -0.9395602 -0.5753503
-0.9198356 -0.9324209 -0.68297905 -0.6952171 -0.46833423 -0.10672735 -0.7773211 0.3939689
-0.7086162 -0.7601974 -0.9313581 -0.46185663
00000000: 6239 6cbf 6882 f4bd eace 7fbf e322 f7be
00000010: ebfc 353e 7aca 4bbf 331a ccbe 3680 a6be
00000020: a06f 2dbf b3ad 0cbf 5b7f 40bd c5fe 74bc
00000030: 6d78 1dbf 8048 bbbe f443 75bf acc7 e7be
00000040: 1b1e d1be cb07 47bf 6e21 febe 5fdc 95be
00000050: b1d0 4bbf 1116 7cbf bf02 03bf aee2 19bf
00000060: 3e96 43bf 5665 67bf 403f d2be 82da 09bf
00000070: dba5 31bf 16d6 35bf b82d f1be 6967 70bf
00000080: 6407 85bf 8327 6dbf 4d65 32bf 4048 39bf
00000090: 4d46 31bf 03b0 e03c 4317 adbe dc44 89be
000000a0: c955 0abf 3ede 23bf c87e 36bf 734a 5ebf
000000b0: c10e 01bf 830b 11bf 9033 2bbf 7d47 42bf
000000c0: fa12 51bf 6114 57bf 9160 223d fcbc 57bf
000000d0: 6381 26bf a8d1 31bf 3a72 ccbe 0a4e 9dbe
000000e0: 1b10 64bf ba21 8cbf 5780 93be dc3f 623d
000000f0: 7916 4fbf dc48 62bf 8640 3fbf 7c27 d53d
00000100: 626a 15bf 0210 91bf 9248 d1be f1d6 06bd
00000110: bf85 54bf cdf7 3fbf 5ad9 dfbe 0d99 3cbf
00000120: 0da4 4dbf bb9a 06bd f846 2bbf 4271 30bf
00000130: 1a35 dfbe 0f96 1ebf a368 03bf ce7a 42bf
00000140: 7a83 07bf 3d3c 47bf 24db 8bbd e7da 19bf
00000150: 3e8b 1abf 7a69 7dbf 0d33 19bf 928c 38bf
00000160: d2ac cebe 706e 3bbf 0d95 6ebf 1364 6dbf
00000170: a92b 6ebf a89b 4fbf cdb6 553d bc01 39bf
00000180: 054b 82bf a346 44bf 5d4a 00bf 7e59 d7be
00000190: 295b 3fbf 54dc 54bf 792b 4a3d cff9 863e
000001a0: 50f8 1ebe 3eaa 87be 0a66 363d e856 f6be
000001b0: a789 cdbe 5048 05be 23fa 4f3e 34c8 24bf
000001c0: 7124 53bf ff2d 08bf 9b2c 6b3e b42a 06bf
000001d0: 0121 04bf dd47 dabe f905 fcbe 8da9 4bbf
000001e0: ad92 5abf d852 96be 265f e9be 89c8 f8be
000001f0: 0ad8 1cbf 5e33 02be 0487 70bf 284a 13bf
00000200: 597a 6bbf 23b3 6ebf b7d7 2ebf bff9 31bf
00000210: 81c9 efbe de93 dabd 84fe 46bf 4bb6 c93e
00000220: df67 35bf 4c9c 42bf 7c6d 6ebf 7978 ecbe

classifier.5.running_var f4 [140]
0.87912095 0.62096906 2.2048903 0.89598256 1.1095977 1.113942 0.67862195 1.8043554
1.4205551 2.1189039 0.76657605 1.5172212 1.5609734 0.44797918 1.4297876 0.86026865
2.1970317 1.2728692 0.7001257 0.6512008 0.92035455 2.3665323 1.2227902 1.4012781
0.5419212 1.2958281 0.89806414 0.95265555 1.449152 1.0964422 1.2336606 1.1539521
2.6347756 1.1163604 0.973913 1.9484663 0.5545512 0.42348757 0.52196896 0.8328003
0.7820454 1.8663895 1.2687967 1.6156194 0.90533054 0.578485 0.58655095 1.1661949
1.1960206 1.287728 0.5390699 1.7209619 1.448761 1.3642467 1.1233897 0.905243
1.7019466 1.307066 0.2679985 0.4903643 1.5954185 2.1745317 0.9845677 0.96779716
0.80997455 2.2195067 1.0842128 0.84745795 1.2549392 1.2559912 2.1497693 1.338369
1.7402738 0.68470275 1.1211245 0.9328766 0.6710824 1.0529077 1.4854771 1.2827133
0.6372235 0.87821263 0.78687805 2.221794 0.5353875 3.3971124 0.6728162 0.73100036
1.4014857 1.3401264 1.5804863 1.9686756 3.0615532 1.4032503 0.49032283 1.0508738
1.1080722 0.9431844 1.4763987 0.6515907 1.0730221 1.5819211 1.1072859 0.9457502
0.41277125 1.0718887 0.71516544 2.4193597 0.85914886 0.70737356 0.8867876 0.8085528
0.85568863 0.9669098 0.85777134 0.5946147 2.0404267 0.6576075 0.6619923 0.9296808
0.90144473 0.67547053 0.69777447 1.3752304 0.6259569 0.9249943 1.4275931 1.5681074
1.4446393 1.0753484 1.3453707 1.5539956 1.8154497 1.5068892 0.9560857 0.85444695
0.7599179 1.1076694 0.8051487 2.20179
00000000: 120e 613f d4f7 1e3f ec1c 0d40 1d5f 653f
00000010: 4c07 8e3f a795 8e3f 2bba 2d3f 1ef5 e63f
00000020: c0d4 b53f 1f9c 0740 543e 443f 4e34 c23f
00000030: facd c73f 875d e53e 4803 b73f 913a 5c3f
00000040: 2b9c 0c40 61ed a23f 703b 333f 18b5 263f
00000050: 5b9c 6b3f 4475 1740 6484 9c3f 155d b33f
00000060: 59bb 0a3f b2dd a53f 88e7 653f 3ce1 733f
00000070: d07d b93f 3858 8c3f 97e8 9d3f b4b4 933f
00000080: 2aa0 2840 e6e4 8e3f 5d52 793f 5867 f93f
00000090: 11f7 0d3f 5dd3 d83e c29f 053f 6732 553f
000000a0: 2134 483f dae5 ee3f ee67 a23f 9ecc ce3f
000000b0: bec3 673f 9817 143f 3428 163f e045 953f
000000c0: 3417 993f 45d4 a43f 7c00 0a3f 7b48 dc3f
000000d0: 0071 b93f a39f ae3f 3ccb 8f3f 01be 673f
000000e0: 63d9 d93f f04d a73f 1937 893e 0811 fb3e
000000f0: ac36 cc3f 872b 0b40 a10c 7c3f 8ec1 773f
00000100: 7e5a 4f3f 660c 0e40 7cc7 8a3f 01f3 583f
00000110: d9a1 a03f 52c4 a03f d295 0940 ad4f ab3f
00000120: 4bc1 de3f ae48 2f3f 0281 8f3f 00d1 6e3f
00000130: 0ecc 2b3f aec5 863f 1d24 be3f f32f a43f
00000140: 1421 233f 8bd2 603f d770 493f df31 0e40
00000150: 280f 093f 4a6a 5940 af3d 2c3f d722 3b3f
00000160: e263 b33f 4389 ab3f 604d ca3f 90fd fb3f
00000170: 7df0 4340 b59d b33f 980b fb3e 0883 863f
00000180: 4fd5 8d3f 8874 713f a2fa bc3f a6ce 263f
00000190: ca58 893f 647c ca3f 8bbb 8d3f af1c 723f
000001a0: c156 d33e a633 893f 1515 373f cad6 1a40
000001b0: 2ef1 5b3f 6f16 353f 8304 633f 51fd 4e3f
000001c0: 690e 5b3f 6787 773f e796 5b3f ab38 183f
000001d0: 5a96 0240 f758 283f 5478 293f 90ff 6d3f
000001e0: 15c5 663f a3eb 2c3f 59a1 323f 8d07 b03f
000001f0: b63e 203f 6dcc 6c3f 5fbb b63f beb7 c83f
00000200: f1e9 b83f 04a5 893f 1b35 ac3f 54e9 c63f
00000210: a860 e83f bfe1 c03f 08c2 743f 09bd 5a3f
00000220: fb89 423f 1cc8 8d3f 3a1e 4e3f 21ea 0c40

classifier.8.weight f4 [120, 140]
-0.18737514 -0.051970027 0.078035474 -0.6779714 -0.08949917 0.12382185 0.072955176 0.077181645
-0.059485584 0.20596313 0.0330745 0.024652218 0.16725412 0.14921473 0.076036565 -0.20676234
-0.0017636763 -0.12900896 -0.0983866 0.013624873 -0.18917371 0.023748819 -0.3243197 0.011374766
0.020938626 0.076710954 0.08175931 -0.12963508 -0.042973157 -0.018745512 0.16235429 0.029926658
-0.090193994 0.10050501 0.026091749 -0.08195474 -0.073886946 -0.17308669 0.15208648 -0.3593376
0.2274399 -0.05338751 0.055920307 -0.08795101 0.08215312 0.20032854 0.07511488 -0.20589103
0.07865232 0.08357872 0.09681964 -0.052635677 -0.05475013 0.11548418 -0.015707696 0.090266414
-0.02052096 -0.31816825 0.084922515 -0.0064399983 0.038979847 -0.04395189 -0.23189738 -0.005724525
0.15388878 0.025932515 0.0040509435 -0.10362166 -0.39840844 0.10070409 0.19819628 -0.107329845
-0.039218206 0.05826267 0.008540937 0.009848944 -0.034729443 0.07228628 0.024988078 -0.088400885
0.21779919 -0.41620174 0.05605351 -0.015887493 -0.27317655 0.063590474 0.06778167 -0.1301451
0.02523543 -0.07444103 0.018467326 0.031257257 -0.02518345 -0.098209865 0.10309013 0.2508849
-0.09922903 -0.0723854 -0.00028437638 -0.29576197 -0.090082966 -0.063325465 0.11921845 0.08508183
0.045595907 0.13522986 0.05207385 0.12792371 0.122607164 0.08597964 -0.029040914 0.20378172
-0.034610108 -0.26458108 0.032973073 0.14084688 0.14949608 0.16288787 -0.32996485 -0.17066607
-0.1232745 -0.22907472 -0.17991027 -0.017062133 -0.1721824 0.048485015 0.010263191 -0.0076000034
0.030897202 -0.13037418 0.025641773 0.06024989 0.09668555 -0.0023515564 0.06654638 0.031345736
-0.2839712 -0.17625067 -0.2930968 0.11345445 -0.010800552 -0.08744167 -0.10620675 -0.020700786
0.05884929 -0.119028784 -0.08217519 -0.0517829 0.09365267 0.011834763 0.05440422 -0.066483855
-0.092277944 0.025931593 -0.1459676 0.03821236 -0.4126499 0.06120595 -0.09449638 -0.022609266
0.0015777964 -0.084018454 -0.06910498 -0.024713999 -0.040883213 -0.2564928 -0.045920514 0.036029596
-0.15288517 0.028240828 0.05514002 -0.15564884 -0.75168747 0.0027997743 -0.023527106 -0.80560017
0.008269063 -0.21080123 -0.040333845 0.011103239 -0.11440749 -0.059616096 -0.03793011 0.028734243
0.050050657 0.025181282 -0.017331263 0.007861137 -0.06959981 -0.000286473 -0.020947158 -0.114285804
0.049206857 0.09847254 -0.096914805 0.06313339 0.11253004 0.014535227 -0.0040630195 -0.034775022
-0.011631788 -0.16015811 0.22094014 0.06900407 -0.09853158 -0.06917885 0.05774517 -0.041580968
-0.08227158 0.06396797 -0.071299374 0.00096558675 -0.014893258 -0.013264407 0.024366988 -0.15717648
0.05085438 0.07403278 0.062356144 -0.041478515 -0.0006650548 0.006956492 -0.12378231 -0.8051257
0.070857756 -0.5624149 -0.1368359 -0.036522064 0.017129615 0.0783411 -0.10930332 -0.12484758
-0.32894975 0.04173312 -0.01201643 -0.050401088 0.13513556 -0.08062701 -0.33209944 -0.06115966
0.112871125 0.04301086 0.10192623 0.044236343 -0.056569416 -0.07397252 0.033619076 0.023945482
-0.05008109 -0.032421336 -0.01775889 -0.06754001 0.10623828 0.05326011 -0.038090076 0.029134458
00000000: 45df 3fbe 86de 54bd 10d1 9f3d 898f 2dbf
00000010: 574b b7bd 4f96 fd3d 8669 953d 6911 9e3d
00000020: 28a7 73bd 00e8 523e 2079 073d 73f3 c93c
00000030: aa44 2b3e bfcb 183e 0fb9 9b3d 82b9 53be
00000040: 282b e7ba ed1a 04be ea7e c9bd dc3a 5f3c
00000050: c1b6 41be e28c c23c 3b0d a6be 3a5d 3a3c
00000060: 7b87 ab3c a21a 9d3d 6d71 a73d 0fbf 04be
00000070: 9f04 30bd 3090 99bc 3440 263e c028 f53c
00000080: a1b7 b8bd 92d5 cd3d 5dbe d53c e3d7 a7bd
00000090: 0a52 97bd a33d 31be 8fbc 1b3e 19fb b7be
000000a0: 01e6 683e ddac 5abd b10c 653d a91f b4bd
000000b0: e53f a83d ed22 4d3e d5d5 993d 19d5 52be
000000c0: 7814 a13d 522b ab3d 6049 c63d 8298 57bd
000000d0: ac41 60bd f882 ec3d 6dad 80bc 99dd b83d
000000e0: 931b a8bc f3e6 a2be dbeb ad3d 9f06 d3bb
000000f0: 55a9 1f3d e606 34bd 8276 6dbe cc94 bbbb
00000100: 0595 1d3e 6d70 d43c c7bd 843b 9837 d4bd
00000110: 31fc cbbe f23d ce3d f7f3 4a3e c0cf dbbd
00000120: 45a3 20bd d6a4 6e3d 49ef 0b3c 775d 213c
00000130: 7640 0ebd d40a 943d ccb3 cc3c 860b b5bd
00000140: c006 5f3e 6518 d5be 5e98 653d 7d26 82bc
00000150: ccdd 8bbe b93b 823d 1ed1 8a3d c244 05be
00000160: 88ba ce3c 8a74 98bd ca48 973c 9c07 003d
00000170: 864d cebc 4122 c9bd eb20 d33d fc73 803e
00000180: 9738 cbbd cc3e 94bd 5a18 95b9 1d6e 97be
00000190: 6b7d b8bd c8b0 81bd cd28 f43d 623f ae3d
000001a0: c6c2 3a3d b279 0a3e 644b 553d 6ffe 023e
000001b0: 7719 fb3d 1816 b03d 36e7 edbc 28ac 503e
000001c0: 54c3 0dbd 2c77 87be c60e 073d 2a3a 103e
000001d0: 8015 193e 14cc 263e 27f1 a8be 16c3 2ebe
000001e0: 5777 fcbd 9092 6abe 663a 38be e3c5 8bbc
000001f0: 9550 30be 3998 463d f126 283c 7309 f9bb
00000200: 211c fd3c cf80 05be b20e d23c 97c8 763d
00000210: 1303 c63d 921c 1abb 7849 883d 6364 003d
00000220: ac64 91be 0e7b 34be c910 96be cf5a e83d
00000230: ccf4 30bc 9e14 b3bd ed82 d9bd b294 a9bc
00000240: f40b 713d 5dc5 f3bd 774b a8bd 4e1a 54bd
00000250: f9cc bf3d 98e6 413c f6d6 5e3d b028 88bd
00000260: 38fc bcbd 7e6e d43c 8878 15be 9084 1c3d
00000270: d946 d3be 17b3 7a3d 5187 c1bd 1137 b9bc
00000280: 10ce ce3a de11 acbd e986 8dbd 0375 cabc
00000290: 2875 27bd 0653 83be 2617 3cbd c593 133d
000002a0: ee8d 1cbe 4f59 e73c 80da 613d 6962 1fbe
000002b0: 976e 40bf 6b7c 373b ebbb c0bc d03b 4ebf
000002c0: f77a 073c 47dc 57be 1a35 25bd 5cea 353c
000002d0: 794e eabd 0230 74bd 9a5c 1bbd 1364 eb3c
000002e0: eb01 4d3d fa48 ce3c 4bfa 8dbc 00cc 003c
000002f0: 588a 8ebd c131 96b9 6099 abbc ad0e eabd
00000300: 218d 493d f9ab c93d 457b c6bd 144c 813d
00000310: 2676 e63d 2925 6e3c 1423 85bb 4170 0ebd
00000320: 4193 3ebc 7d00 24be 223e 623e 0152 8d3d
00000330: edca c9bd a4ad 8dbd 3386 6c3d ce50 2abd
00000340: 017e a8bd a401 833d 6805 92bd 6e1f 7d3a
00000350: da02 74bc f552 59bc 479d c73c dff2 20be
00000360: af4c 503d 809e 973d 2869 7f3d 60e5 29bd
00000370: 1257 2eba 49f3 e33b 9481 fdbd b81c 4ebf
00000380: df1d 913d 6cfa 0fbf b61e 0cbe 2998 15bd
00000390: 6853 8c3c 4c71 a03d 6bda dfbd 17b0 ffbd
000003a0: 1a6c a8be 59f0 2a3d 8fe0 44bc 5f71 4ebd
000003b0: fa60 0a3e c61f a5bd f008 aabe 8d82 7abd
000003c0: fa28 e73d 282c 303d b3be d03d 2b31 353d
000003d0: 55b5 67bd e87e 97bd 28b4 093d 5129 c43c
000003e0: d421 4dbd 3ccc 04bd 177b 91bc 6b52 8abd
000003f0: 7593 d93d 4627 5a3d 5704 1cbd 63ab ee3c
