ckpt/IAP/2/best_loss_BEST5.ckpt (torch, 207136 bytes, 19 tensors)

classifier.0.weight f4 [150, 18]
0.25804082 -0.22039981 0.059900183 0.020388966 0.060002707 -0.3096544 0.3001607 -0.2368291
-0.448244 -0.011969585 -0.044902008 -0.3017812 -0.117678225 -0.003617265 0.036315475 0.086180784
0.21767223 0.33413783 0.19158141 -0.24591759 0.07333716 0.3880976 0.21518365 -0.29171214
0.20595846 -0.13314156 -0.06940564 0.21427488 0.39726597 -0.46213588 0.11524823 0.010199539
0.10191034 0.32046235 -0.054209854 0.1040455 0.106065586 0.040049728 -0.095165186 0.035272267
-0.022541268 -0.6641119 -0.06377811 0.11313504 -0.08279208 0.043122455 -0.114275806 -0.04331811
-0.01576926 -0.03564926 0.48022956 -0.03202967 -0.076456845 0.006923036 -0.2514213 0.009919914
-0.19515552 0.034860697 -0.08900394 -0.09260248 -0.046387088 0.21294355 -0.19992098 0.054922625
0.35757697 -0.3450412 -0.006135432 -0.15987003 0.41626847 0.03367262 0.1452424 -0.22046675
0.09193483 -0.055651136 0.30320796 0.1762946 -0.21900666 -0.4588898 0.21140742 -0.23546839
-0.2075232 -0.16923319 0.15720703 0.18265347 0.10834679 -0.12640484 0.16502164 0.18716729
-0.2261498 -0.058618452 -0.013912453 -0.13899161 0.15289055 0.04708918 -0.30100077 -0.081259765
-0.34293568 -0.39809301 0.06659605 0.094925 -0.2672631 -0.00073509617 -0.09787444 0.1650687
-0.17183994 -0.30024892 0.12589566 0.05701771 0.24844497 0.16002335 0.069385976 -0.11221366
0.0706711 -0.2876439 0.07713122 0.27319804 -0.12771969 -0.0694827 0.39303985 -0.17869227
0.07937623 -0.15781496 -0.0012396419 -0.03371637 -0.24791533 0.008242814 -0.21046773 -0.13338803
0.30289763 -0.20710407 -0.13719101 -0.6860551 -0.25934407 0.11103 -0.2717293 0.27908462
-0.27628556 -0.17520833 -0.041596934 0.011919879 -0.009354757 0.06434549 -0.095305584 -0.103820816
-0.07970661 -0.031885948 0.46878636 0.26446384 0.042544458 -0.4389753 0.045097902 -0.3459836
-0.0651899 -0.045140095 -0.12179819 -0.23885389 0.2739611 0.04985401 0.17804533 0.35371152
-0.15539381 -0.13191615 -0.097951904 0.021664824 0.06663503 -0.094475195 0.1767798 0.34738383
-0.073023096 0.011722826 0.016488671 -0.04329197 0.021585649 0.07209681 0.019676898 0.09733066
-0.3863778 -0.213389 -0.14865471 0.042584557 0.27470967 0.17573334 -0.023191879 0.36490643
0.19189095 0.23165455 0.35441986 -0.20951094 0.2613807 0.39903137 -5.097625e-05 0.67083323
0.029963512 0.03460536 0.24958813 0.19656952 -0.12025605 0.16609032 -0.1841139 0.07770694
0.5287844 -0.065966755 -0.266483 -0.07261892 -0.25820076 -0.17426166 -0.21141616 -0.3066874
0.012499223 -0.14095862 0.029751623 -0.07516446 0.17978582 -0.06779767 -0.18429582 -0.16850732
0.11371738 0.023407668 -0.35097417 0.1571198 0.029012294 0.28267676 -0.004938261 -0.0051124147
0.034155913 -0.18981087 -0.19382878 0.29471818 -0.024754675 0.07783182 -0.29130757 -0.09466037
-0.17867087 -0.5404711 -0.2694747 0.15204847 -0.28526527 -0.062007792 -0.044090945 0.15602763
0.02218431 0.36138567 0.13461861 -0.2475669 0.38930076 -0.14184621 0.24143133 -0.2413154
-0.15874813 0.14273795 0.00013524055 -0.17472365 -0.031251654 -0.019259315 0.029366365 0.29394022
00000000: ed1d 843e 7db0 61be e559 753d c306 a73c
00000010: 66c5 753d 068b 9ebe aaae 993e 5483 72be
00000020: 3d80 e5be 141c 44bc 2beb 37bd 1183 9abe
00000030: 4801 f1bd a30f 6dbb 89bf 143d 8d7f b03d
00000040: 78e5 5e3e 1d14 ab3e eb2d 443e d2d1 7bbe
00000050: cb31 963d bbb4 c63e 1a59 5c3e 4b5b 95be
00000060: c6e6 523e 4356 08be 8b24 8ebd e06a 5b3e
00000070: 7266 cb3e 139d ecbe 4407 ec3d f81b 273c
00000080: 5eb6 d03d a413 a43e 270b 5ebd cf15 d53d
00000090: ea38 d93d 2f0b 243d f7e5 c2bd a779 103d
000000a0: 77a8 b8bc 3d03 2abf 199e 82bd 58b3 e73d
000000b0: e58e a9bd 2ca1 303d 6f09 eabd 556e 31bd
000000c0: 892e 81bc f504 12bd a6e0 f53e 8b31 03bd
000000d0: 6895 9cbd a3da e23b 4bba 80be 2387 223c
000000e0: d9d6 47be 17ca 0e3d b347 b6bd 5ea6 bdbd
000000f0: 6300 3ebd e00d 5a3e 16b8 4cbe 8cf6 603d
00000100: 5414 b73e 3da9 b0be bc0b c9bb f8b4 23be
00000110: 2421 d53e 4dec 093d 6cba 143e 09c2 61be
00000120: 5448 bc3d 72f2 63bd 133e 9b3e 9286 343e
00000130: 4843 60be 9bf3 eabe 307b 583e a01e 71be
00000140: f680 54be 774b 2dbe e1fa 203e 8309 3b3e
00000150: ece4 dd3d 4570 01be 6ffb 283e c8a8 3f3e
00000160: d093 67be e719 70bd 0ff1 63bc d153 0ebe
00000170: 578f 1c3e 96e0 403d c61c 9abe 856b a6bd
00000180: 4495 afbe d9d2 cbbe 8363 883d 0a68 c23d
00000190: b6d6 88be 78b3 40ba 6572 c8bd c507 293e
000001a0: cff6 2fbe 3aba 99be cbea 003e 678b 693d
000001b0: 5c68 7e3e 29dd 233e 3c1a 8e3d 46d0 e5bd
000001c0: 02bc 903d 1046 93be f9f6 9d3d 9de0 8b3e
000001d0: f3c8 02be f24c 8ebd 853c c93e 1bfb 36be
000001e0: 0190 a23d 3f9a 21be 7b7b a2ba 2d1a 0abd
000001f0: 84dd 7dbe de0c 073c da84 57be df96 08be
00000200: 6615 9b3e 1713 54be cd7b 0cbe 4fa1 2fbf
00000210: bfc8 84be b263 e33d 1a20 8bbe 2ee4 8e3e
00000220: 4d75 8dbe d069 33be 8c61 2abd 994b 433c
00000230: b244 19bc 91c7 833d 932f c3bd 02a0 d4bd
00000240: 383d a3bd d79a 02bd c404 f03e ce67 873e
00000250: 1943 2e3d 5fc1 e0be 94b8 383d c324 b1be
00000260: 4882 85bd d2e4 38bd 5471 f9bd 1d96 74be
00000270: a144 8c3e b833 4c3d 8451 363e ad19 b53e
00000280: 8e1f 1fbe 0715 07be 029b c8bd 6e7a b13c
00000290: f277 883d 367c c1bd c405 353e 4bdc b13e
000002a0: 228d 95bd 1911 403c 4013 873c ec52 31bd
000002b0: 63d4 b03c 7ea7 933d 7231 a13c 4c55 c73d
000002c0: 50d3 c5be a582 5abe f138 18be 256d 2e3d
000002d0: bfa6 8c3e 71f3 333e e5fc bdbc 04d5 ba3e
000002e0: 107f 443e da36 6d3e 8576 b53e 098a 56be
000002f0: b1d3 853e d74d cc3e 55cf 55b8 babb 2b3f
00000300: 0a76 f53c 5abe 0d3d 0894 7f3e 8549 493e
00000310: ce48 f6bd 9513 2a3e 5b88 3cbe d124 9f3d
00000320: 6a5e 073f 9419 87bd 7670 88be 3ab9 94bd
00000330: e432 84be a671 32be 7a7d 58be 2206 9dbe
00000340: 8bc9 4c3c 7557 10be adb9 f33c d3ef 99bd
00000350: c619 383e 81d9 8abd 0bb8 3cbe 2f8d 2cbe
00000360: a8e4 e83d 70c1 bf3c e3b2 b3be 03e4 203e
00000370: 31ab ed3c 02bb 903e 23d1 a1bb 0b86 a7bb
00000380: 12e7 0b3d c85d 42be 0d7b 46be 4de5 963e
00000390: 51ca cabc 4a66 9f3d 4426 95be 4cdd c1bd
000003a0: 7ff5 36be 505c 0abf 96f8 89be 98b2 1b3e
000003b0: 4a0e 92be e2fb 7dbd b598 34bd b5c5 1f3e
000003c0: dfbb b53c 8b07 b93e 76d9 093e 2d82 7dbe
000003d0: 6e52 c73e 2240 11be c639 773e 621b 77be
000003e0: df8e 22be e629 123e 5ccf 0d39 c2ea 32be
000003f0: bc01 00bd b6c5 9dbc bb91 f03c 557f 963e

classifier.0.bias f4 [150]
0.14265482 0.46674213 0.19465314 0.09443555 0.041892596 -0.26642805 -0.21282168 -0.062721655
0.12327854 0.2015861 -0.0022217324 0.097653925 -0.103507586 0.2558063 0.20641337 -0.18675053
0.10496499 -0.20387544 -0.022446856 0.5315838 0.04538209 -0.21826455 0.0664137 0.06843802
0.3179933 -0.18518825 -0.12379206 0.3346669 -0.3181188 0.1343338 0.06127297 0.23357908
0.034296036 0.094292924 -0.079460785 -0.10857072 -0.1214978 -0.24756946 -0.15736006 0.30827707
-0.23797832 -0.15287648 -0.32578507 -0.17317382 0.0194434 -0.2443058 0.4713811 -0.25000086
0.08772572 -0.15734296 0.24962975 -0.27847907 0.070898846 -0.32894436 0.22351918 -0.10200487
-0.00796887 0.38436252 0.009869868 -0.25051388 -0.097726785 0.2700117 -0.066464014 0.22227943
0.2595758 -0.061170336 0.25404957 0.05179481 0.3241534 -0.21790758 -0.21627566 0.09382124
-0.32781035 0.30926043 0.38608104 -0.018806048 0.17338462 0.21879765 -0.05676768 0.22374207
-0.114213414 0.37542665 0.08536032 -0.05859471 0.1647901 0.24171744 0.2072795 0.086546816
0.063059986 0.07478561 -0.0525275 0.24662375 0.17663375 -0.21289617 -0.08804876 -0.009104334
-0.09885114 -0.24679737 0.059615593 0.13387205 -0.084479116 -0.12282526 -0.47088674 0.1063958
0.34741014 -0.073079795 0.37810534 0.016740985 0.10976523 -0.2031325 0.3930036 0.43360746
0.17433833 -0.03129023 0.11831087 0.19687043 0.0051841736 -0.34261474 -0.13093981 0.15023886
-0.21001305 0.32859588 -0.02064669 -0.28914505 0.05121877 -0.08931014 0.33634758 0.1864799
-0.23466855 0.020071374 0.21309406 0.012361462 0.10739504 -0.1608373 -0.265853 0.027468247
-0.026857298 0.14782147 0.072169825 0.23746791 -0.01043601 0.07953528 -0.068695076 -0.11838541
0.14199378 0.17920956 0.29568774 0.1550094 -0.005336598 0.22845681
00000000: 1b14 123e d3f8 ee3e 2753 473e 6d67 c13d
00000010: 9297 2b3d 4269 88be eded 59be 3674 80bd
00000020: 7679 fc3d 966c 4e3e 7c9a 11bb c8fe c73d
00000030: c9fb d3bd 0bf9 823e 075e 533e 883b 3fbe
00000040: e2f7 d63d b9c4 50be 78e2 b7bc e015 083f
00000050: 92e2 393d be80 5fbe e803 883d 3c29 8c3d
00000060: 05d0 a23e fda1 3dbe b186 fdbd 7659 ab3e
00000070: 78e0 a2be cd8e 093e 5ef9 7a3d 5b2f 6f3e
00000080: 007a 0c3d a61c c13d 56bc a2bd 535a debd
00000090: d7d3 f8bd d982 7dbe ff22 21be 7ed6 9d3e
000000a0: 97b0 73be a78b 1cbe 4dcd a6be 7a54 31be
000000b0: c447 9f3c 4d2b 7abe dd58 f13e 1d00 80be
000000c0: 8ba9 b33d 831e 21be f19e 7f3e cf94 8ebe
000000d0: 6a33 913d 656b a8be 36e2 643e eee7 d0bd
000000e0: dd8f 02bc 2acb c43e 3ab5 213c 5b43 80be
000000f0: fb24 c8bd f93e 8a3e 491e 88bd 389d 633e
00000100: 1fe7 843e bf8d 7abd c912 823e cb26 543d
00000110: 6ff7 a53e 2a23 5fbe 5e77 5dbe 5a25 c03d
00000120: c2d6 a7be 6257 9e3e 6aac c53e 240f 9abc
00000130: bd8b 313e 7e0c 603e 3a85 68bd a41c 653e
00000140: b9e8 e9bd ec37 c03e 64d1 ae3d 0201 70bd
00000150: bcbe 283e c784 773e 1441 543e 753f b13d
00000160: 9825 813d 3329 993d 1327 57bd f08a 7c3e
00000170: 7adf 343e 7401 5abe e952 b4bd 582a 15bc
00000180: 7772 cabd 73b8 7cbe 7b2f 743d c115 093e
00000190: 6303 adbd cf8b fbbd 1118 f1be 0be6 d93d
000001a0: bedf b13e dcaa 95bd 0697 c13e 6424 893c
000001b0: 98cc e03d f701 50be c537 c93e cc01 de3e
000001c0: bf85 323e 2f2a 00bd f84c f23d 6798 493e
000001d0: 00e0 a93b 336b afbe 1615 06be 37d8 193e
000001e0: a90d 57be b83d a83e 3f23 a9bc d20a 94be
000001f0: c6ca 513d 3ce8 b6bd c035 ac3e 96f4 3e3e
00000200: f44c 70be b96c a43c 5435 5a3e bb87 4a3c
00000210: eef1 db3d 88b2 24be e21d 88be 1705 e13c
00000220: d603 dcbc 835e 173e c6cd 933d ca2a 733e
00000230: ccfb 2abc 65e3 a23d 01b0 8cbd 0d74 f2bd
00000240: d166 113e b682 373e 6264 973e c9ba 1e3e
00000250: a1de aebb 95f0 693e

classifier.1.weight f4 [150]
1.2728335 1.1088986 1.063815 1.0389862 0.66080195 0.9230183 1.1094098 0.8642816
0.93376666 0.73000365 0.4887574 0.69365966 0.81277263 0.8321638 0.71186054 0.6414739
0.8779017 0.97463995 0.84333163 0.8797621 0.7523768 0.76913613 0.8352966 0.914269
0.84362906 1.0432435 0.8817085 0.7532624 0.64531803 0.82489675 1.0354635 0.86682874
0.8387007 0.8527784 0.45953396 0.9151472 0.9011285 0.84054524 0.7368004 1.0915854
0.6066611 0.6588721 0.7180711 0.5112415 0.74442846 0.7838757 0.6749684 0.7182286
0.8676394 0.79769635 0.8187055 0.65087885 0.7593237 0.8311364 0.6829058 0.8808017
0.91921717 1.2493627 0.8483286 1.3044223 0.56834036 0.837523 1.1864922 0.5492193
0.8722347 0.78805864 0.7212529 1.1725323 0.99446046 0.58243436 0.962935 1.0313061
0.85967916 0.49235517 1.3487253 0.6310511 0.5912618 0.44233003 0.761951 0.77189106
0.8175577 0.75207734 0.77826077 0.97289056 0.77659744 0.755289 0.8555599 0.7468331
0.8990168 0.69810486 0.9910758 0.58938664 0.5368213 0.74710464 0.91687006 0.79930466
0.586735 0.7939598 0.991032 1.1314603 0.705005 0.9650588 0.7688674 0.71990997
0.96311367 1.2262427 0.7494164 0.9599631 0.9030992 0.8643304 1.1175793 0.54998463
0.68583775 0.97788996 0.93778485 0.7079711 0.51286536 0.70344627 0.93601704 0.7626369
1.0540406 1.0549335 0.64681834 1.0361809 0.6775898 0.74854946 0.68791485 0.54485905
0.990991 0.47904328 0.715407 1.1200029 0.70024943 1.1014132 0.89942807 1.033131
0.5350539 0.777679 1.0130792 0.6400521 0.6130627 0.8224824 0.84954005 0.7192575
0.87836313 0.548905 0.8842219 0.51551306 1.1643027 0.9342275
00000000: 35ec a23f 64f0 8d3f 172b 883f 80fd 843f
00000010: 512a 293f ed4a 6c3f 2401 8e3f 8f41 5d3f
00000020: 550b 6f3f 85e1 3a3f 693e fa3e ae93 313f
00000030: de11 503f b008 553f 7e3c 363f a237 243f
00000040: 2abe 603f 0182 793f 95e4 573f 1738 613f
00000050: c49b 403f 1be6 443f ffd5 553f 880d 6a3f
00000060: 13f8 573f 0189 853f a6b7 613f ced5 403f
00000070: 9033 253f 6f2c 533f 118a 843f 7de8 5d3f
00000080: 17b5 563f af4f 5a3f 0948 eb3e 1647 6a3f
00000090: 5bb0 663f f92d 573f f39e 3c3f 12b9 8b3f
000000a0: 244e 1b3f d8ab 283f 82d3 373f b9e0 023f
000000b0: dd92 3e3f 14ac 483f bbca 2c3f d4dd 373f
000000c0: 9e1d 5e3f d435 4c3f af96 513f ff9f 263f
000000d0: 0a63 423f 5bc5 543f ead2 2e3f 387c 613f
000000e0: d151 6b3f 1eeb 9f3f 102c 593f 4ff7 a63f
000000f0: c17e 113f e867 563f fade 973f a399 0c3f
00000100: c64a 5f3f 36be 493f 08a4 383f 8a15 963f
00000110: f694 7e3f 6b1a 153f e882 763f d701 843f
00000120: ef13 5c3f fa15 fc3e 08a3 ac3f 918c 213f
00000130: ef5c 173f 1579 e23e 390f 433f a79a 453f
00000140: 764b 513f 2488 403f 193c 473f 5b0f 793f
00000150: 17cf 463f 9f5a 413f f905 5b3f 7430 3f3f
00000160: f725 663f 00b7 323f 25b7 7d3f 0be2 163f
00000170: 1f6d 093f 4042 3f3f ffb7 6a3f 3b9f 4c3f
00000180: 4434 163f f340 4b3f 46b4 7d3f b1d3 903f
00000190: 357b 343f 180e 773f 7ed4 443f 054c 383f
000001a0: 9e8e 763f 85f5 9c3f c1d9 3f3f 24c0 753f
000001b0: 8231 673f c244 5d3f d70c 8f3f cbcb 0c3f
000001c0: 1093 2f3f ff56 7a3f ab12 703f 983d 353f
000001d0: 254b 033f 0e15 343f d09e 6f3f 2c3c 433f
000001e0: cdea 863f 1008 873f e395 253f 93a1 843f
000001f0: 8676 2d3f f0a0 3f3f 301b 303f e27b 0b3f
00000200: 96b1 7d3f 2945 f53e ea24 373f 415c 8f3f
00000210: 8c43 333f 1cfb 8c3f eb40 663f a33d 843f
00000220: 4bf9 083f f915 473f 94ac 813f 74da 233f
00000230: adf1 1c3f 358e 523f 757b 593f 4221 383f
00000240: 68dc 603f 0a85 0c3f 5e5c 623f aaf8 033f
00000250: df07 953f 8929 6f3f

classifier.1.bias f4 [150]
-0.67793566 -0.43719116 -0.37161648 -0.29073665 -0.45345053 -0.4281255 -0.42530966 -0.34390345
-0.36316577 -0.5697356 -0.31579307 -0.36838537 -0.20636883 -0.49056444 -0.16630621 -0.3719376
-0.32235938 -0.1916099 -0.41903725 -0.47426257 -0.38244233 -0.52182674 -0.25018823 -0.34022683
-0.41871312 -0.51240736 -0.36976653 -0.122071974 -0.2061094 -0.298879 -0.37195176 -0.4585373
-0.4488164 -0.40938395 -0.52011573 -0.76189876 -0.57138985 -0.33306673 -0.38207 -0.38181654
-0.755576 -0.44223946 -0.50268316 -0.37413123 -0.24232449 -0.36495733 -0.10065585 -0.22640109
-0.46313167 -0.26004967 -0.46944043 -0.33335787 -0.41452736 -0.33232862 -0.33667985 -0.6517866
-0.5372589 -0.46379685 -0.3254578 -0.6337981 -0.37175584 -0.35255724 -0.2755295 -0.4406571
-0.33266887 -0.2583434 -0.5779507 -0.39703137 -0.47582614 -0.57126075 -0.5534562 -0.54021686
-0.28695086 -0.2458 -0.5431368 -0.43818995 -0.2889105 -0.45359057 -0.49040818 -0.24936368
-0.23742189 -0.010554547 -0.51042956 -0.201449 -0.50035775 -0.3952358 -0.36092177 -0.3722095
-0.5416908 0.073265225 -0.37986162 -0.6164756 -0.62518734 -0.37992173 -0.24873224 -0.50666094
-0.29560262 -0.15949415 -0.31538317 -0.6170246 -0.22958392 -0.26625267 -0.5202574 -0.39056838
-0.2873567 -0.32789278 -0.25569868 -0.37966043 -0.67076075 -0.3204044 -0.5732153 -0.45218056
-0.49384698 -0.3180408 -0.40535206 -0.2784908 -0.46419638 -0.40445584 -0.39316672 -0.4642349
-0.2561398 -0.4964314 -0.47802722 -0.3171016 -0.3015633 -0.38649532 -0.44412148 -0.299125
-0.26503637 -0.35193136 -0.57408476 -0.6002905 -0.56061447 -0.54919046 -0.618014 -0.3416899
-0.46300632 -0.34315732 -0.3786883 -0.56138515 -0.54356074 -0.25035128 -0.457625 -0.4679217
-0.15719278 -0.3027556 -0.34220564 -0.6030675 -0.44565204 -0.30705872
00000000: 318d 2dbf 85d7 dfbe 8444 bebe 6fdb 94be
00000010: ab2a e8be 4433 dbbe 30c2 d9be 1d14 b0be
00000020: ddf0 b9be 31da 11bf a1af a1be 029d bcbe
00000030: 5a52 53be 432b fbbe 2d4c 2abe 9b6e bebe
00000040: 4a0c a5be 6335 44be 0d8c d6be 8bd2 f2be
00000050: 7bcf c3be 7096 05bf ac18 80be 3632 aebe
00000060: 9161 d6be 212d 03bf 0a52 bdbe df00 fabd
00000070: 580e 53be ab06 99be 7670 bebe 67c5 eabe
00000080: 43cb e5be c69a d1be 4e26 05bf cc0b 43bf
00000090: 9b46 12bf b987 aabe ae9e c3be 757d c3be
000000a0: 6e6d 41bf 366d e2be d8af 00bf 218e bfbe
000000b0: e923 78be b0db babe a724 cebd b0d5 67be
000000c0: 981f edbe 3b25 85be 7f5a f0be e2ad aabe
000000d0: ee3c d4be fa26 aabe 4d61 acbe 7ddb 26bf
000000e0: cd89 09bf c876 edbe 68a2 a6be 9840 22bf
000000f0: c856 bebe 6282 b4be 3412 8dbe cf9d e1be
00000100: 9353 aabe 9645 84be 94f4 13bf b247 cbbe
00000110: 7c9f f3be 253e 12bf 4eaf 0dbf a74b 0abf
00000120: 39eb 92be ffb2 7bbe 030b 0bbf 6f5a e0be
00000130: 14ec 93be 063d e8be c816 fbbe 3159 7fbe
00000140: b91e 73be fbec 2cbc 83ab 02bf a648 4ebe
00000150: 7217 00bf 595c cabe bdca b8be 3e92 bebe
00000160: 40ac 0abf 140c 963d 397d c2be 58d1 1dbf
00000170: 470c 20bf 1a85 c2be aab3 7ebe 88b4 01bf
00000180: 3a59 97be 6f52 23be e779 a1be 53f5 1dbf
00000190: 0c18 6bbe 4552 88be 972f 05bf 94f8 c7be
000001a0: 6b20 93be 90e1 a7be f0ea 82be da62 c2be
000001b0: fab6 2bbf 0c0c a4be 3dbe 12bf 3684 e7be
000001c0: 83d9 fcbe 3ed6 a2be 4e8a cfbe 5996 8ebe
000001d0: 26ab edbe d614 cfbe 264d c9be 32b0 edbe
000001e0: c224 83be 422c febe fcbf f4be 245b a2be
000001f0: 8166 9abe b7e2 c5be e463 e3be e926 99be
00000200: d9b2 87be 5930 b4be 38f7 12bf a3ac 19bf
00000210: 6e84 0fbf bf97 0cbf 2a36 1ebf fbf1 aebe
00000220: 2a0f edbe 51b2 afbe 6fe3 c1be f0b6 0fbf
00000230: cc26 0bbf 0b2e 80be d34d eabe 6f93 efbe
00000240: 25f7 20be c802 9bbe 9435 afbe a262 1abf
00000250: 812c e4be cd36 9dbe

classifier.1.running_mean f4 [150]
-0.18770958 0.8936155 0.11067223 0.19370933 -0.17758615 -0.78010595 0.024330195 -0.52576125
-0.026315367 0.20232709 1.1953572 -0.5241064 -0.43814275 0.35950238 0.8244591 -0.5452898
0.05143701 -0.97647226 -1.0023721 2.5177085 0.45889324 -0.5214538 -0.0045765415 -0.14962213
0.40447032 -0.08982701 -0.3952897 0.2387939 -0.9750319 0.74870026 0.4984355 0.7540742
0.16373579 0.46450856 -0.5749629 0.009215263 -0.085331306 -0.34859487 -0.14014748 -0.03219987
0.09438895 -0.943227 -0.539569 0.25452423 -0.4037374 -0.07968403 0.95483667 -0.9369454
-0.06890607 -0.33565775 0.56158954 -0.7430514 0.49013844 -0.76486164 1.0706815 -0.4194445
-0.13668972 0.07703966 -0.40611923 -0.48645812 -0.2671789 0.9170623 -0.38370013 0.5239243
0.8853301 0.48775885 -0.18115306 -0.10827317 0.2127652 -0.9271754 -0.6007955 -0.19979356
-1.9171337 1.2090685 0.50921655 0.30457312 0.2641469 0.7042465 0.4900264 0.678892
-0.73188734 0.9082247 0.029815536 0.072522596 -0.259363 0.21657214 0.5413474 0.4311589
-0.06838349 0.045411646 -0.57824266 -0.0034184812 0.21602324 -0.5890031 -0.34519896 -0.4378503
-0.1345178 0.3587345 -0.7033384 0.52066976 -0.36616823 -0.7418845 -1.7091032 0.26718605
-0.21951969 -1.334461 0.9879714 0.017096404 0.75245714 -0.7605114 0.6616966 1.2712994
0.8492898 -0.32365847 0.85088557 -0.03818988 -0.12229919 -1.2902067 -0.58786047 0.8663539
-0.52109003 0.40410268 -0.90667087 -0.17974338 -1.0108699 -0.55488795 0.091129966 1.223304
-1.1776662 0.1981514 0.43238962 -0.4074784 -0.006184236 -0.28230336 -0.030897966 -0.16603453
-0.4181412 -0.037791412 -0.78524476 0.6648982 -0.4132952 0.4646489 -0.21258019 -0.8125003
-0.08748638 0.43751696 0.44832706 -0.051452722 -0.7402666 0.10417836
00000000: f136 40be fcc3 643f 1fa8 e23d bd5b 463e
00000010: 25d9 35be 06b5 47bf 1e50 c73c 4a98 06bf
00000020: 5393 d7bc d52e 4f3e 7701 993f d62b 06bf
00000030: 3f54 e0be b210 b83e c00f 533f 1d98 0bbf
00000040: 9daf 523d 16fa 79bf bb4d 80bf 2322 2140
00000050: 0ef4 ea3e ff7d 05bf d0f6 95bb 8b36 19be
00000060: bc16 cf3e 39f7 b7bd 6963 cabe 6386 743e
00000070: b19b 79bf d2aa 3f3f f032 ff3e 020b 413f
00000080: 5baa 273e 11d4 ed3e c530 13bf 9dfb 163c
00000090: 2ec2 aebd 077b b2be d282 0fbe 03e4 03bd
000000a0: fe4e c13d 5377 71bf 3221 0abf 0051 823e
000000b0: abb6 cebe 6131 a3bd 2d70 743f a7db 6fbf
000000c0: a01e 8dbd 55db abbe 55c4 0f3f 9e38 3ebf
000000d0: 6df3 fa3e f9cd 43bf 170c 893f 6ec1 d6be
000000e0: 64f8 0bbe f8c6 9d3d dcee cfbe 0a11 f9be
000000f0: accb 88be 98c4 6a3f 5874 c4be e71f 063f
00000100: fea4 623f 87bb f93e 3080 39be 53be ddbd
00000110: 1fdf 593e 5e5b 6dbf bccd 19bf af96 4cbe
00000120: a364 f5bf c2c2 9a3f 045c 023f 02f1 9b3e
00000130: 433e 873e 8049 343f bee4 fa3e decb 2d3f
00000140: f85c 3bbf 6a81 683f b63f f43c ba86 943d
00000150: 3acb 84be 16c5 5d3e be95 0a3f dcc0 dc3e
00000160: a50c 8cbd 9001 3a3d b607 14bf 9908 60bb
00000170: 3235 5d3e e8c8 16bf ebbd b0be ea2d e0be
00000180: 09bf 09be 0cac b73e fc0d 34bf 9d4a 053f
00000190: 677a bbbe 25ec 3dbf e5c3 dabf 9ccc 883e
000001a0: c5c9 60be 9ecf aabf b2eb 7c3f c20d 8c3c
000001b0: 08a1 403f e0b0 42bf f364 293f f0b9 a23f
000001c0: 0e6b 593f 90b6 a5be a3d3 593f fe6c 1cbd
000001d0: ff77 fabd 7e25 a5bf 067e 16bf 5fc9 5d3f
000001e0: 2866 05bf 8ce6 ce3e 951b 68bf a60e 38be
000001f0: 2f64 81bf 230d 0ebf 59a2 ba3d 3a95 9c3f
00000200: c4bd 96bf 33e8 4a3e 2c62 dd3e 02a1 d0be
00000210: 22a5 cabb 118a 90be bb1d fdbc f504 2abe
00000220: 9a16 d6be 2bcb 1abd cd05 49bf c536 2a3f
00000230: 6e9b d3be 76e6 ed3e 9fae 59be 0500 50bf
00000240: 0f2c b3bd 3902 e03e 208b e53e 17c0 52bd
00000250: 1d82 3dbf 775b d53d

classifier.1.running_var f4 [150]
0.00029408326 0.00042040268 0.0014907955 0.0028285815 0.012163595 0.004101568 0.00056025793 0.0017623116
0.0017286908 0.0016457416 0.0037293518 0.006670993 0.0027171858 0.0014141428 0.0013123389 0.0010889376
0.0027741974 0.0015988806 0.0021242609 0.0024701138 0.00060167327 0.004966201 0.0076965652 0.005376495
0.0011652831 0.0017380284 0.0033218767 0.0014301905 0.0022555063 0.0020727173 0.0007408834 0.001350323
0.0028937166 0.0008703316 0.006569003 0.00012177666 0.00070138095 0.0009504228 0.009167477 0.0030859604
0.0011492434 0.0015786774 0.002815968 0.003911864 0.00725089 0.0006447041 0.00088602887 0.0011073508
0.002737917 0.002140598 0.0008395373 0.00064894796 0.0043279957 0.0019032634 0.0012583184 0.00054495665
0.0008803309 0.0007558536 0.00042095044 0.0005225066 0.010359356 0.0015623432 0.00076356746 0.005112335
0.0037443945 0.0028494794 0.005107973 0.0021093313 0.0012352184 0.012523893 0.001554543 0.0013951508
0.010880577 0.010938366 0.0003744989 0.016351044 0.025026826 0.012231418 0.0028462433 0.0018692048
0.008226831 0.00066042336 0.0017083744 0.0044973213 0.0011130687 0.0027310043 0.0011154974 0.0010682296
0.0009667802 0.00039427227 0.0016981793 0.010491615 0.011960122 0.0043868143 0.0007840171 0.0011656487
0.0027639866 0.0012909946 0.005138437 0.00082132005 0.016675409 0.013693013 0.002481206 0.0038112088
0.010147548 0.0078116683 0.0007754839 0.001374864 0.0030422062 0.0037972694 0.0007233097 0.004341096
0.0057013184 0.0014308025 0.0052157072 0.0010517096 0.006861924 0.020028995 0.007362872 0.0010132481
0.0025245217 0.00058117724 0.014073761 0.00088447664 0.009524748 0.0037840505 0.020451859 0.010723579
0.008334148 0.00683793 0.001974711 0.0005091527 0.0008546603 0.0019586522 0.0015819565 0.0007020535
0.0028541859 0.0032925706 0.0036654028 0.002100587 0.0035242685 0.0014585389 0.0043238276 0.010708572
0.0011593306 0.0033475386 0.0027662457 0.022491302 0.0016626513 0.004865814
00000000: 302f 9a39 7e69 dc39 cc66 c33a b95f 393b
00000010: d149 473c 7266 863b 46de 123a 5dfd e63a
00000020: 3d95 e23a edb5 d73a 2468 743b 5898 da3b
00000030: d012 323b c25a b93a c902 ac3a afba 8e3a
00000040: 4fcf 353b 8891 d13a 2f37 0b3b a2e1 213b
00000050: 9cb9 1d3a 83bb a23b 7833 fc3b 4f2d b03b
00000060: 6abc 983a 8ece e33a d8b3 593b 3b75 bb3a
00000070: 1ed1 133b 6dd6 073b d837 423a 52fd b03a
00000080: 82a4 3d3b f726 643a cb40 d73b 5962 ff38
00000090: e1dc 373a cb25 793a 2f33 163c d33d 4a3b
000000a0: 36a2 963a a0eb ce3a 1a8c 383b 182f 803b
000000b0: e098 ed3b 5c01 293a 6444 683a 8724 913a
000000c0: a06e 333b 4649 0c3b 6514 5c3a 291e 2a3a
000000d0: dcd1 8d3b ec76 f93a 29ee a43a 6cdb 0e3a
000000e0: 02c6 663a 7a24 463a 03b3 dc39 d3f8 083a
000000f0: 4aba 293c 8ac7 cc3a 252a 483a 6085 a73b
00000100: 8464 753b 55be 3a3b c860 a73b b53c 0a3b
00000110: 0de7 a13a 0431 4d3c cfc1 cb3a 7edd b63a
00000120: 7344 323c d536 333c 6458 c439 a0f2 853c
00000130: 0f05 cd3c 4966 483c 0a88 3a3b 1b00 f53a
00000140: d5c9 063c 4320 2d3a 88eb df3a 445e 933b
00000150: 63e4 913a a6fa 323b e235 923a d603 8c3a
00000160: 856f 7d3a 54b6 ce39 7195 de3a 06e5 2b3c
00000170: 63f4 433c 44bf 8f3b 7f86 4d3a aec8 983a
00000180: 0024 353b 9736 a93a 5560 a83b db4d 573a
00000190: de9a 883c a958 603c bb9b 223b 79c5 793b
000001a0: e741 263c 06f9 ff3b d849 4b3a c834 b43a
000001b0: c05f 473b 9cdb 783b 7e9c 3d3a c13f 8e3b
000001c0: 20d2 ba3b c489 bb3a 86e8 aa3b 85d9 893a
000001d0: fed9 e03b d913 a43c 3f44 f13b f7ce 843a
000001e0: 7272 253b 255a 183a a295 663c 39dc 673a
000001f0: b00d 1c3c d5fd 773b a88a a73c f3b1 2f3c
00000200: f38b 083c b710 e03b 276a 013b a978 053a
00000210: 480b 603a bb5c 003b a759 cf3a 030a 383a
00000220: 4b0d 3b3b 2bc8 573b 4137 703b 00aa 093b
00000230: 6af7 663b 722c bf3a e5ae 8d3b 0273 2f3c
00000240: aef4 973a 6162 5b3b e749 353b ae3f b83c
00000250: 52ed d93a 6871 9f3b

classifier.4.weight f4 [150, 150]
-0.32027614 0.08921258 -0.25011188 0.19360761 -0.1478145 0.020021632 -0.13758412 0.022690346
-0.39643106 -0.25555894 -0.051189132 0.0010695402 -0.1426836 0.013981254 0.041120924 -0.008698829
0.058916025 -0.1064472 -0.07921116 -0.040750626 -0.029348465 -0.08359485 -0.003796914 0.116387874
0.05700159 0.47403184 -0.05458788 -0.1291922 -0.105273016 0.085888475 0.109377146 -0.08106124
-0.13940614 0.06922289 0.041252628 0.13798396 0.07036725 -0.0009981507 0.05232712 -0.10634842
-0.14227897 0.029870134 0.082523376 0.070347644 0.02477794 0.023448365 -0.039685752 -0.11602831
-0.111074544 -0.17971155 0.10913109 0.037912652 0.07338282 -0.061103147 -0.17859927 -0.3468958
0.18009086 0.23562641 0.043641664 -0.23872787 -0.0008597766 0.052395307 -0.14857735 -0.027385822
-0.13369298 0.056968294 0.013321932 0.17645036 -0.064798065 -0.060137536 -0.22284834 -0.0380374
-0.044027682 -0.0311098 -0.0061800657 0.14472687 0.04089942 0.021923047 -0.06954268 0.0036556378
-0.029408406 0.03583124 0.016006805 -0.16225125 0.039529294 -0.15286332 -0.0792543 -0.049226973
-0.16489078 -0.030806446 -0.23665345 0.09449313 0.024458582 -0.048192166 -0.11264157 -0.3735114
-0.23495379 -0.034933705 0.0007410622 0.016724808 0.016542638 0.12749362 -0.08953292 -0.014733636
0.20680995 0.15722014 0.05045891 -0.037612636 0.010329827 0.11440339 0.1350997 0.06598767
0.04022794 -0.20210922 -0.020582115 0.0031891475 0.020291675 -0.075048946 -0.08533561 -0.39137244
0.17577173 -0.0009560343 -0.014950368 -0.13785623 -0.05232228 0.06885698 0.049659304 0.05029494
0.12182137 0.054779775 -0.31793526 0.21832782 0.000118591095 0.5601966 -0.015701182 -0.094100386
-0.026073867 -0.11609745 -0.09145665 -0.0025353415 -0.2157204 -0.01650784 -0.38892195 0.020786548
-0.41930568 0.027423222 -0.11080997 0.14641264 0.08341356 -0.053224217 0.26702192 -0.3099358
0.019227086 -0.03956581 0.015791994 0.30700994 0.099995054 0.131932 0.05467543 0.02408836
-0.063415445 -0.022870028 -0.03564339 -0.11020153 0.09492924 0.10030094 -0.15110609 0.0018893648
0.25061125 -0.05278706 0.024918951 0.067042 -0.119958036 0.057740696 0.12844524 0.036824707
0.20344503 0.11884539 0.078977175 -0.070757814 0.16774543 0.065621614 0.35029167 -0.013802755
0.11667309 0.036769208 0.19416273 -0.12271179 -0.006607239 -0.20303376 -0.18635954 -0.2016431
-0.03936237 -0.033792548 0.003073176 -0.14856474 -0.0022136196 0.10064844 0.2090825 0.02944787
0.05922969 -0.10926674 -0.033319067 -0.018466458 0.0127498135 0.083278924 0.10167414 0.07847652
0.2219065 -0.21258284 0.10469546 -0.014949337 0.39209557 -0.01610974 -0.15635653 0.24177659
0.36136752 0.13825247 0.69471216 -0.0824253 0.27899036 0.029503923 0.010383382 0.10682251
0.6814847 -0.020437982 0.10471591 0.13299868 -0.05386036 0.062542416 -0.10693276 0.10381258
0.057032406 0.1390045 0.06983915 0.1673255 -0.06524159 0.3910043 0.10230385 0.062978975
0.23749383 -0.09172678 -0.12810217 0.038873497 0.06212112 -0.09236108 0.117285095 -0.0031644967
-0.16168527 0.0043083383 -0.11652888 -0.08675365 0.36411247 0.2429912 0.029863438 -0.1607208
00000000: 3cfb a3be 16b5 b63d aa0e 80be 1341 463e
00000010: af5c 17be 6804 a43c dae2 0cbe 1be1 b93c
00000020: 03f9 cabe 9fd8 82be b2ab 51bd d02f 8c3a
00000030: a61b 12be a111 653c 6a6e 283d 8985 0ebc
00000040: ee51 713d fd00 dabd 7639 a2bd 21ea 26bd
00000050: 316c f0bc c733 abbd a5d5 78bb c45c ee3d
00000060: 807a 693d 4db4 f23e 8a97 5fbd f64a 04be
00000070: 6199 d7bd 4ce6 af3d 2001 e03d 6f03 a6bd
00000080: 7cc0 0ebe bbc4 8d3d 84f8 283d ab4b 0d3e
00000090: b41c 903d 61d4 82ba f654 563d 33cd d9bd
000000a0: 94b1 11be 36b2 f43c 0402 a93d 6d12 903d
000000b0: 1bfb ca3c c916 c03c 878d 22bd 40a0 edbd
000000c0: 0d7b e3bd 4e06 38be 1f80 df3d 4c4a 1b3d
000000d0: bb49 963d 4b47 7abd bae2 36be 549c b1be
000000e0: bd69 383e 0d48 713e 9ac1 323d 1475 74be
000000f0: a262 61ba 769c 563d a924 18be 3b58 e0bc
00000100: d0e6 08be 9657 693d 3c44 5a3c 67af 343e
00000110: d9b4 84bd c752 76bd 5b32 64be 1bcd 1bbd
00000120: 5f56 34bd fbd9 febc 2682 cabb 4833 143e
00000130: 2686 273d f697 b33c 656c 8ebd 6d93 6f3b
00000140: e6e9 f0bc c7c3 123d b420 833c 3125 26be
00000150: 78e9 213d 3488 1cbe 1450 a2bd 39a2 49bd
00000160: 21d9 28be cd5d fcbc 4855 72be 9d85 c13d
00000170: 5d5d c83c 2665 45bd a0b0 e6bd e33c bfbe
00000180: ba97 70be a516 0fbd d843 423a 7702 893c
00000190: 6d84 873c b08d 023e 095d b7bd 5965 71bc
000001a0: fdc5 533e 51fe 203e 01ae 4e3d b50f 1abd
000001b0: 6f3e 293c 534c ea3d 9357 0a3e 8b24 873d
000001c0: 0dc6 243d b8f5 4ebe d39b a8bc 0401 513b
000001d0: ba3a a63c 43b3 99bd 70c4 aebd f861 c8be
000001e0: 81fd 333e 609e 7aba 63f2 74bc 2f2a 0dbe
000001f0: e34f 56bd e304 8d3d 8e67 4b3d 1102 4e3d
00000200: 7c7d f93d c260 603d 69c8 a2be 5491 5f3e
00000210: 1cb4 f838 0b69 0f3f c49f 80bc b4b7 c0bd
00000220: dd98 d5bc 80c4 edbd a04d bbbd f927 26bb
00000230: cfe5 5cbe 733b 87bc c720 c7be 8d48 aa3c
00000240: 3caf d6be aaa6 e03c 56f0 e2bd 32ed 153e
00000250: bbd4 aa3d a301 5abd 19b7 883e e8af 9ebe
00000260: 1f82 9d3c c20f 22bd 365e 813c 6830 9d3e
00000270: 35ca cc3d 2f19 073e 58f3 5f3d f454 c53c
00000280: f5df 81bd ed59 bbbc cefe 11bd 57b1 e1bd
00000290: 436a c23d 946a cd3d 8ebb 1abe 90a4 f73a
000002a0: 1e50 803e 3f37 58bd d422 cc3c 514d 893d
000002b0: 8fac f5bd 8281 6c3d 2687 033e 81d5 163d
000002c0: e553 503e 3665 f33d c9be a13d 79e9 90bd
000002d0: 75c5 2b3e a064 863d 6e59 b33e f324 62bc
000002e0: 4df2 ee3d 4f9b 163d 98d2 463e 5250 fbbd
000002f0: 8a81 d8bb 15e8 4fbe 09d5 3ebe 877b 4ebe
00000300: 703a 21bd 0e6a 0abd 5667 493b 5b21 18be
00000310: 6012 11bb c520 ce3d b919 563e a93c f13c
00000320: d59a 723d 3ec7 dfbd 9379 08bd f846 97bc
00000330: 98e4 503c 248e aa3d 883a d03d 4cb8 a03d
00000340: 753b 633e 51af 59be 936a d63d 10ee 74bc
00000350: c0c0 c83e 93f8 83bc ed1b 20be 4894 773e
00000360: 2a05 b93e 0e92 0d3e a8d8 313f 98ce a8bd
00000370: d3d7 8e3e 36b2 f13c 101f 2a3c c3c5 da3d
00000380: c875 2e3f 8e6d a7bc 4c75 d63d ce30 083e
00000390: ae9c 5cbd 3d16 803d 90ff dabd b19b d43d
000003a0: d09a 693d 3257 0e3e d407 8f3d 6057 2b3e
000003b0: 629d 85bd b731 c83e ae84 d13d 1ffb 803d
000003c0: 9531 733e 40db bbbd 372d 03be d139 1f3d
000003d0: b772 7e3d ce27 bdbd 2b33 f03d 7263 4fbb
000003e0: d390 25be f62c 8d3b b2a6 eebd e6ab b1bd
000003f0: f36c ba3e afd2 783e 2ba4 f43c fe93 24be

classifier.4.bias f4 [150]
-0.09701874 -0.05177652 -0.062533624 0.09093238 0.055753555 -0.10600028 0.045537814 0.0949514
0.09838216 -0.04469954 -0.027293578 -0.12503096 0.11018056 -0.047857497 -0.10834609 -0.05038699
0.065812334 -0.03794476 -0.029345337 -0.05500967 -0.016213074 0.028183319 -0.029309925 0.17377998
-0.016110843 -0.007660389 0.0025378796 0.019833323 -0.069825664 0.026857117 0.04070989 0.00235311
-0.25196588 -0.09056811 -0.07585521 -0.10513583 -0.012026692 0.20327015 -0.06338663 0.040858034
0.18114603 0.04430118 -0.074947774 0.0377904 0.0065686246 -0.01334822 -0.06933597 -0.02411458
0.0052848053 0.053214278 0.008158308 0.12204028 -0.021481156 -0.100621454 0.029139895 -0.0034367838
-0.06953227 0.07044163 0.08599458 -0.113955885 0.0522267 -0.04432701 -0.09765682 0.11253854
-0.0007760529 -0.003916975 0.16487503 0.05773944 0.051985934 -0.028600004 -0.036486983 0.07917359
-0.09017494 -0.06838692 0.06225538 -0.021759208 0.02908318 0.080501884 0.03473674 -0.114640445
-0.098780274 0.06320509 -0.12231501 0.08152207 -0.015662393 -0.03945343 0.028366435 -0.18242265
0.050801415 0.032592542 0.015303505 0.01652105 -0.0696155 -0.16568445 0.004313097 0.027277568
-0.035121977 0.104232445 -0.011203439 -0.09460502 0.026450075 -0.11343522 -0.08315875 -0.05443433
-0.11636092 -0.07093504 -0.054959264 -0.09720111 0.05186345 -0.052184746 0.13243888 0.060753062
0.12608398 0.10431788 0.13476206 -0.055370573 -0.0392391 -0.052381862 0.074444205 0.09436336
0.011353296 0.11242014 -0.01207664 0.058091063 0.13241655 0.029036215 -0.009475396 0.13996102
-0.0517634 0.07757383 0.0150756575 -0.09172883 -0.118488505 0.04431258 0.005193107 -0.036964703
0.0053736386 -0.03655497 0.08126144 -0.072003335 0.080241844 -0.086751334 -0.030215118 0.14044484
-0.08791721 0.05656333 -0.03459225 0.07475416 -0.03718687 0.10579795
00000000: c3b1 c6bd 9e13 54bd a111 80bd c13a ba3d
00000010: d75d 643d ad16 d9bd dc85 3a3d e175 c23d
00000020: 967c c93d dd16 37bd c896 dfbc 1e08 00be
00000030: 58a6 e13d 3906 44bd 8ee4 ddbd 9762 4ebd
00000040: 9ec8 863d f76b 1bbd a265 f0bc d251 61bd
00000050: 48d1 84bc b4e0 e63c 5e1b f0bc 61f3 313e
00000060: e3fa 83bc 0004 fbbb 8e52 263b 7e79 a23c
00000070: c200 8fbd 7503 dc3c 6abf 263d a236 1a3b
00000080: ac01 81be c67b b9bd fa59 9bbd 7451 d7bd
00000090: 9a0b 45bc 0d26 503e d9d0 81bd c15a 273d
000000a0: 587e 393e 2775 353d 387e 99bd 1bca 1a3d
000000b0: 9e3d d73b 7eb2 5abc 0400 8ebd f18b c5bc
000000c0: 292c ad3b 37f7 593d 6daa 053c 41f0 f93d
000000d0: 40f9 afbc 9f12 cebd cab6 ee3c aa3b 61bb
000000e0: ef66 8ebd b443 903d ed1d b03d b461 e9bd
000000f0: aaeb 553d 3d90 35bd 4d00 c8bd 9b7a e63d
00000100: 0770 4bba f859 80bb 00d5 283e 3180 6c3d
00000110: 34ef 543d 8e4a eabc 6073 15bd c325 a23d
00000120: a4ad b8bd 710e 8cbd 7fff 7e3d 5e40 b2bc
00000130: d93f ee3c 2cde a43d 1d48 0e3d 9cc8 eabd
00000140: 504d cabd ac71 813d 4b80 fabd 0bf5 a63d
00000150: 6b4e 80bc eb99 21bd ba60 e83c 01cd 3abe
00000160: 2515 503d c27f 053d 8dbb 7a3c 2757 873c
00000170: 9292 8ebd 2fa9 29be e154 8d3b 3575 df3c
00000180: 10dc 0fbd d277 d53d a18e 37bc 47c0 c1bd
00000190: d4ad d83c ba50 e8bd 224f aabd 88f6 5ebd
000001a0: a24e eebd 6446 91bd f71c 61bd 6011 c7bd
000001b0: c56e 543d acbf 55bd 0f9e 073e 34d8 783d
000001c0: 291c 013e 9da4 d53d 11ff 093e 41cc 62bd
000001d0: 2eb9 20bd 5d8e 56bd 3476 983d 9441 c13d
000001e0: 2d03 3a3c 883c e63d 19dd 45bc e5f0 6d3d
000001f0: 3498 073e 5bdd ed3c b13e 1bbc f151 0f3e
00000200: dc05 54bd 07df 9e3d e4ff 763c 53dc bbbd
00000210: 1aaa f2bd 1c81 353d f02a aa3b 4d68 17bd
00000220: 5915 b03b aaba 15bd 666c a63d 7c76 93bd
00000230: d655 a43d afaa b1bd b285 f7bc c6d0 0f3e
00000240: f00d b4bd f3ae 673d 9ab0 0dbd b618 993d
00000250: 4251 18bd 98ac d83d

classifier.5.weight f4 [150]
0.9065548 0.7564022 0.805475 0.7452148 0.76483226 1.1179631 0.88189334 0.7304901
0.90374804 0.98616093 0.8537821 0.8093854 0.79045683 0.75288075 0.87328136 0.8104571
0.76298016 0.7180384 1.2970017 1.0304563 0.7145643 0.8337246 0.9585214 1.01
1.1501117 0.81385374 1.0083356 0.93715596 1.1073614 0.9654742 0.81648874 1.2426871
1.1998975 0.9290366 0.7328578 0.69220734 1.1279335 1.425646 0.9483097 1.0058066
0.99860126 0.7028473 0.70012844 0.75745344 0.84496677 0.92204213 0.8924911 1.2249829
0.8428635 1.2514995 0.79770124 0.70120895 0.8503538 1.036324 0.7441798 0.8667308
1.0414649 0.8626793 0.77648956 0.89419544 1.070135 0.94109 0.9285318 1.0927448
1.0740042 0.6697024 1.4416611 0.8474624 1.1137087 0.5216671 0.6637344 0.8430298
0.94039935 0.8837261 0.81058866 0.8566138 0.90119445 1.2221367 0.8897506 1.1622571
0.982651 0.84471714 0.77745396 0.76812047 0.6274931 0.8993493 0.7952327 1.1285677
0.7706757 1.20007 0.8587953 0.8286822 0.81141216 0.83442414 0.70006585 0.85812175
0.718038 0.9457146 0.816651 0.701136 1.2115501 0.8201848 0.853216 0.9235111
0.86183345 0.8231184 0.9351222 1.1706674 0.90257245 0.7892609 1.3093251 1.3445189
0.8364628 0.95847654 0.753669 0.5029245 0.8711309 0.8926787 1.0236127 0.8547683
0.923156 0.8838077 0.65435386 0.8174986 0.8019953 0.6291182 0.65969086 0.9554919
0.95091635 0.7199717 0.9525872 0.97250074 1.0006022 0.96251345 0.99557275 0.555314
0.9338845 0.91086715 0.8605253 0.8026138 1.0753126 0.971428 1.0148087 1.048244
1.0485924 0.98778486 0.7825639 0.87918496 0.83759665 0.9679774
00000000: fa13 683f 93a3 413f 9c33 4e3f 66c6 3e3f
00000010: 0ccc 433f 6a19 8f3f c3c3 613f 6601 3b3f
00000020: 085c 673f 0b75 7c3f 7791 5a3f e233 4f3f
00000030: 615b 4a3f cbbc 403f 5e8f 5f3f 1e7a 4f3f
00000040: ab52 433f 5dd1 373f 2704 a63f fee5 833f
00000050: b0ed 363f fa6e 553f a961 753f ae47 813f
00000060: dc36 933f b858 503f 2411 813f 74e9 6f3f
00000070: 05be 8d3f 5129 773f 6805 513f 5f10 9f3f
00000080: 3e96 993f 58d5 6d3f 929c 3b3f 8034 313f
00000090: 2060 903f 917b b63f 6dc4 723f 45be 803f
000000a0: 55a4 7f3f cded 333f 9e3b 333f 78e8 413f
000000b0: be4f 583f f40a 6c3f 4c7a 643f 3dcc 9c3f
000000c0: e7c5 573f 2331 a03f 2636 4c3f 6e82 333f
000000d0: c9b0 593f 44a6 843f 9182 3e3f 12e2 5d3f
000000e0: b94e 853f 8dd8 5c3f 05c8 463f fee9 643f
000000f0: 2ffa 883f 46eb 703f 43b4 6d3f 10df 8b3f
00000100: f878 893f 9e71 2b3f 5a88 b83f 4cf3 583f
00000110: 028e 8e3f fa8b 053f 7fea 293f cdd0 573f
00000120: 03be 703f e03b 623f bd82 4f3f 0b4b 5b3f
00000130: aeb4 663f fa6e 9c3f b2c6 633f d7c4 943f
00000140: 048f 7b3f 623f 583f 3907 473f 8ba3 443f
00000150: 63a3 203f c13b 663f 5f94 4b3f e874 903f
00000160: 014b 453f e59b 993f 02da 5b3f 8424 543f
00000170: b5b8 4f3f d29c 553f 8437 333f dead 5b3f
00000180: 57d1 373f 5a1a 723f 0a10 513f a67d 333f
00000190: 1314 9b3f a2f7 513f 5d6c 5a3f 396b 6c3f
000001a0: 1ea1 5c3f e3b7 523f 2b64 6f3f 6ed8 953f
000001b0: fd0e 673f 010d 4a3f f797 a73f 3219 ac3f
000001c0: 6d22 563f b85e 753f 74f0 403f a9bf 003f
000001d0: 6f02 5f3f 9786 643f be05 833f 18d2 5a3f
000001e0: f453 6c3f 3941 623f bc83 273f 9747 513f
000001f0: 904f 4d3f e40d 213f 80e1 283f 1e9b 743f
00000200: 416f 733f 1150 383f c1dc 733f cff5 783f
00000210: bc13 803f 4867 763f dbdd 7e3f 0f29 0e3f
00000220: 0e13 6f3f 972e 693f 634b 5c3f 1978 4d3f
00000230: d8a3 893f 81af 783f 40e5 813f dc2c 863f
00000240: 4738 863f 78df 7c3f 1c56 483f 4412 613f
00000250: bc6c 563f 5ecd 773f

classifier.5.bias f4 [150]
-0.497674 -0.00810409 -0.2614024 -0.4669278 -0.49936652 -0.3993487 -0.28366622 -0.49835768
-0.351924 -0.32231486 -0.30824885 -0.30262482 -0.24244334 -0.37022826 -0.4751845 -0.18697914
-0.36126918 -0.43827376 -0.24134608 -0.26529205 -0.3716782 -0.3080073 -0.44831216 -0.2926962
-0.4221245 -0.305117 -0.15291616 -0.27397206 -0.4721405 -0.31085077 -0.47145554 -0.4915742
-0.30287325 -0.5392215 -0.37491235 -0.0070648664 -0.26101848 -0.3332558 -0.6398213 -0.26127672
-0.5569258 -0.3589807 -0.35537645 -0.42402574 -0.43758464 -0.30019614 -0.33450878 -0.5060211
-0.3998572 -0.41886166 -0.14741994 -0.58438456 -0.42913705 -0.40353066 -0.24685507 -0.30247024
-0.26789162 -0.31100526 -0.53804576 -0.20913842 -0.3457557 -0.23990153 -0.5679108 -0.26471686
-0.4417772 -0.15614219 -0.38658884 -0.10061571 -0.30767247 -0.16608274 -0.23412685 -0.31697473
-0.5422141 -0.46271607 -0.1737477 -0.43147615 -0.45476988 -0.22171202 -0.30882797 -0.21762265
-0.5750676 -0.47813505 -0.21256879 -0.344176 -0.11579142 -0.53288716 -0.47014633 -0.15792054
-0.45794034 -0.5834027 -0.18532814 -0.189925 -0.21196024 -0.5283021 -0.6061597 -0.35434636
-0.345258 -0.48921272 -0.4622562 -0.034744646 -0.4832779 -0.21437906 -0.52339005 -0.6179902
-0.39430442 -0.60194594 -0.3169309 -0.4910582 -0.42170227 -0.34804663 -0.34388956 -0.43616304
-0.52747774 -0.30162704 -0.25633457 -0.35826695 -0.2549936 -0.2616667 -0.41159102 -0.44101122
-0.3509505 -0.35177422 -0.3389716 -0.30801937 -0.4922027 -0.2559827 -0.4155057 -0.2088615
-0.29847246 -0.40749764 -0.4163685 -0.39219186 -0.26559523 -0.26339462 -0.30968454 -0.24885952
-0.4370282 -0.16363129 -0.36125705 -0.45359927 -0.22991446 -0.17703883 -0.3468265 -0.28280893
-0.18803075 -0.17116 -0.3893442 -0.3578965 -0.5797777 -0.54361105
00000000: 20cf febe 04c7 04bc 89d6 85be 2911 efbe
00000010: f8ac ffbe 6f77 ccbe b33c 91be bd28 ffbe
00000020: 622f b4be 7406 a5be cbd2 9dbe a4f1 9abe
00000030: 1143 78be 8f8e bdbe 624b f3be 7677 3fbe
00000040: 46f8 b8be 6b65 e0be 6d23 77be 5cd4 87be
00000050: 9b4c bebe 22b3 9dbe 2c89 e5be 47dc 95be
00000060: b420 d8be 4c38 9cbe 0e96 1cbe 1146 8cbe
00000070: 66bc f1be d527 9fbe 9f62 f1be 9daf fbbe
00000080: 3412 9bbe 6c0a 0abf 83f4 bfbe 6580 e7bb
00000090: 37a4 85be 81a0 aabe 54cb 23bf 10c6 85be
000000a0: b092 0ebf 51cc b7be e7f3 b5be e719 d9be
000000b0: 180b e0be 4fb3 99be bc44 abbe 998a 01bf
000000c0: 15ba ccbe 0975 d6be 41f5 16be 3a9a 15bf
000000d0: dab7 dbbe 929b cebe 93c7 7cbe 61dd 9abe
000000e0: 1729 89be 153c 9fbe 5ebd 09bf 6228 56be
000000f0: e406 b1be bfa8 75be 9a62 11bf f888 87be
00000100: 9f30 e2be bde3 1fbe f9ee c5be 9c0f cebd
00000110: 3f87 9dbe 9811 2abe f3be 6fbe 834a a2be
00000120: 8bce 0abf 1fe9 ecbe ebea 31be 71ea dcbe
00000130: 99d7 e8be 7a08 63be b31e 9ebe 79d8 5ebe
00000140: a137 13bf 1ece f4be a2ab 59be d637 b0be
00000150: 0d24 edbd 4b6b 08bf 05b7 f0be ecb5 21be
00000160: 2877 eabe e159 15bf a9c6 3dbe b37b 42be
00000170: 1b0c 59be ce3e 07bf 482d 1bbf e36c b5be
00000180: a8c5 b0be 177a fabe d8ac ecbe 6750 0ebd
00000190: 3370 f7be 2f86 5bbe e4fc 05bf 9b34 1ebf
000001a0: 45e2 c9be 2119 1abf c444 a2be fb6b fbbe
000001b0: 5ce9 d7be 2b33 b2be 4b12 b0be c350 dfbe
000001c0: c808 07bf dc6e 9abe 493e 83be c46e b7be
000001d0: 858e 82be 2df9 85be 0fbc d2be 39cc e1be
000001e0: c9af b3be c01b b4be b08d adbe b7b4 9dbe
000001f0: fe01 fcbe 2a10 83be 2abd d4be cadf 55be
00000200: 62d1 98be 88a3 d0be 412e d5be 5fcd c8be
00000210: 19fc 87be a9db 86be f98e 9ebe 08d5 7ebe
00000220: 29c2 dfbe f68e 27be aff6 b8be 2a3e e8be
00000230: b26e 6bbe ab49 35be 3e93 b1be 55cc 90be
00000240: 228b 40be 9144 2fbe 1f58 c7be 363e b7be
00000250: 506c 14bf 182a 0bbf

classifier.5.running_mean f4 [150]
-0.49382174 0.38646862 -0.7672705 -0.18698673 -0.6573262 -0.39708444 -0.34154844 -0.39277384
-0.65578866 -0.78062224 -0.8723748 0.11536432 -0.48394856 -0.3136216 -0.93853617 -0.48680806
-0.24286038 0.17680834 -0.53911996 -0.636907 0.22430313 -0.5945985 -0.5479801 -0.6760639
-0.5662367 -0.7721636 -0.6187383 -0.95268553 -0.16450037 -0.33409664 -0.68534267 -0.59261906
-1.1223838 -1.0044032 -0.11011964 0.001910324 -1.2165904 -0.38758573 -0.39018703 -0.2281519
-0.0030879066 -0.2566033 -0.5219675 -0.025328182 -0.5098215 -0.8806912 -0.79511654 -0.55268157
-0.8105311 -0.35151395 -0.18614918 -0.40188378 -0.84297603 -0.5012885 -0.3238878 -0.91627127
-0.3533729 -0.63676125 0.29328188 -0.66255546 -0.4257069 -0.93115133 -0.3962427 -0.11374263
-0.25742716 0.1545288 -0.3345151 0.15678725 -0.034857266 0.08823208 -0.1479351 -0.29022315
-0.39421007 -0.9054741 0.3852924 0.0016829235 -0.6876305 -0.7260033 -0.3368869 -0.21766374
-0.51929855 0.27070194 -0.15506017 -0.1725591 0.39332902 -0.60933065 -0.31585073 -1.3702663
-0.39880294 -0.7299278 -0.6395539 -0.16268927 -0.28404263 -0.57073295 -0.40030444 -0.8164644
0.16411358 -0.22387825 -0.5781131 0.07914454 -0.18872447 -0.8563721 0.008966141 -0.7821279
-0.3706051 -0.69903475 -0.6451531 0.13298407 -0.56773996 -0.37193358 -0.44749904 -0.46787345
-0.11321533 0.2222617 -0.014726263 0.13476528 -0.83008564 -0.76552683 -0.34884092 -0.3229705
-0.5726888 -0.8481293 -0.22097118 -0.6368757 0.07031345 0.10185537 -0.3204796 -0.66059846
-0.64462537 -0.58734053 -0.87212527 -0.7028687 -0.6995911 -0.76362044 -0.50662327 -0.09211657
-0.68284744 -0.06978759 -0.48674136 -0.36572203 0.46137717 -0.51307076 -0.89506805 -0.51378274
-1.049412 -0.66172564 -0.7694899 -0.83033395 -0.9241096 -0.4432012
00000000: 34d6 fcbe 37df c53e d76b 44bf 7379 3fbe
00000010: 8846 28bf a74e cbbe 70df aebe a719 c9be
00000020: c4e1 27bf dcd6 47bf f453 5fbf 2144 ec3d
00000030: 1bc8 f7be 0393 a0be e843 70bf e83e f9be
00000040: 64b0 78be 3f0d 353e c403 0abf 560c 23bf
00000050: b8af 653e 9b37 18bf 6d48 0cbf 8612 2dbf
00000060: e3f4 10bf 84ac 45bf a265 1ebf 33e3 73bf
00000070: c972 28be b70e abbe 9e72 2fbf e2b5 17bf
00000080: 46aa 8fbf 4990 80bf 6886 e1bd d663 fa3a
00000090: 3cb9 9bbf a371 c6be 98c6 c7be a7a0 69be
000000a0: 7a5e 4abb 8261 83be a99f 05bf 0c7d cfbc
000000b0: a983 02bf fa74 61bf c28c 4bbf 8a7c 0dbf
000000c0: f77e 4fbf a3f9 b3be e49d 3ebe b6c3 cdbe
000000d0: 47cd 57bf 7154 00bf 9fd4 a5be c190 6abf
000000e0: 4bed b4be c902 23bf 0b29 963e 3c9d 29bf
000000f0: 41f6 d9be ef5f 6ebf 53e0 cabe e5f1 e8bd
00000100: 7ecd 83be cc3c 1e3e 9045 abbe d68c 203e
00000110: 7ec6 0ebd 05b3 b43d 4d7c 17be 2198 94be
00000120: e7d5 c9be 27cd 67bf 0c45 c53e 8b95 dc3a
00000130: 8d08 30bf 5adb 39bf 717c acbe 3ee3 5ebe
00000140: c0f0 04bf 7299 8a3e 18c8 1ebe 55b3 30be
00000150: 6c62 c93e 18fd 1bbf 30b7 a1be e364 afbf
00000160: e62f ccbe 8cdc 3abf ceb9 23bf 0498 26be
00000170: 096e 91be 8e1b 12bf b4f4 ccbe d003 51bf
00000180: 640d 283e 5740 65be 38ff 13bf 8816 a23d
00000190: fd40 41be 343b 5bbf b9e6 123c 8939 48bf
000001a0: f4bf bdbe f1f3 32bf c128 25bf fa2c 083e
000001b0: 6857 11bf 146e bebe 981e e5be 1c8d efbe
000001c0: 70dd e7bd 9298 633e 6c46 71bc e9ff 093e
000001d0: 7e80 54bf 91f9 43bf 479b b2be 645c a5be
000001e0: bc9b 12bf 001f 59bf 4546 62be 490a 23bf
000001f0: 8000 903d 8c99 d03d e715 a4be fb1c 29bf
00000200: 2b06 25bf f35b 16bf 9a43 5fbf 34ef 33bf
00000210: 6718 33bf a17c 43bf 10b2 01bf 9da7 bcbd
00000220: 17cf 2ebf ccec 8ebd 2a36 f9be eb3f bbbe
00000230: a139 ec3e 9b58 03bf 2e23 65bf 4487 03bf
00000240: 2253 86bf da66 29bf 4afd 44bf c490 54bf
00000250: 7292 6cbf 45eb e2be

classifier.5.running_var f4 [150]
0.8070186 0.6165166 1.7843984 0.55586284 1.2871832 1.1212212 1.0084025 0.8605251
1.3938881 1.0658631 1.6758447 0.81277394 0.8691041 0.4836117 1.0474975 1.457801
0.55265164 0.608459 1.7315257 1.0390296 1.103255 0.8344992 0.6738492 1.2730856
1.6835551 0.9114912 0.77089536 1.8659799 0.86885124 0.54580134 1.0601271 1.1774104
2.4280887 1.0280197 0.5197546 0.6266057 1.6811316 2.3165405 0.51426387 1.2206948
0.64186835 1.0478206 0.62804204 0.7644145 0.35964885 1.9496437 0.9758398 0.50725144
1.7860198 1.1307253 1.2630862 0.68261755 1.0391968 0.6899476 1.1572511 1.8623937
0.82139784 0.9440787 0.43552983 1.8539457 0.85360515 1.7427864 0.6200894 0.4464554
1.019268 0.9967306 1.2934152 1.023983 1.5243614 0.61740404 0.79169387 0.40504077
0.5220694 1.1443176 1.2974243 0.55402774 0.95409656 3.1506186 1.1120604 1.5740074
0.64360446 0.51679116 0.94100106 0.4365704 0.8863679 0.48599347 0.5471069 1.8514826
0.59266484 0.57728493 0.7820913 0.4835437 1.081953 0.5384116 0.5127272 1.1506064
0.82734513 0.35282812 0.6475413 0.95878494 1.6120924 0.7086217 0.70361584 0.8013106
0.57384175 0.7815504 0.81015754 1.6144916 0.5768324 0.67004776 1.459858 1.3807362
0.34186783 1.1101364 0.43736488 0.45767874 1.7145753 0.9066604 0.41017988 0.3603487
1.196653 1.0248619 0.7283367 1.0868535 0.32676226 0.41523263 0.6393201 1.9655801
0.7603999 0.58060104 1.275896 0.8184225 0.86284554 1.2110027 0.65165156 0.59291697
0.75176394 0.8206216 1.1974111 0.5013943 0.86650246 0.6442506 0.89945704 1.5013855
2.3205836 1.3713754 1.0201079 1.5603899 0.79813635 0.79348826
00000000: c598 4e3f 08d4 1d3f 2b67 e43f 074d 0e3f
00000010: 6bc2 a43f 2d84 8f3f 5513 813f 5f4b 5c3f
00000020: ed6a b23f 346e 883f 1482 d63f f411 503f
00000030: 9b7d 5e3f f49b f73e 6614 863f 3999 ba3f
00000040: 947a 0d3f f8c3 1b3f a2a2 dd3f ecfe 843f
00000050: 7637 8d3f bda1 553f 6281 2c3f 78f4 a23f
00000060: bc7e d73f 7d57 693f 6659 453f 6ed8 ee3f
00000070: 096d 5e3f a3b9 0b3f 3fb2 873f 62b5 963f
00000080: ce65 1b40 2696 833f a30e 053f 3b69 203f
00000090: 522f d73f 3342 1440 cca6 033f ba3f 9c3f
000000a0: 7c51 243f fc1e 863f 5dc7 203f abb0 433f
000000b0: e523 b83e ed8d f93f a3d0 793f 3bdb 013f
000000c0: 4c9c e43f 9bbb 903f cfac a13f 06c0 2e3f
000000d0: 6704 853f 68a0 303f ce20 943f eb62 ee3f
000000e0: 2147 523f 24af 713f c4fd de3e 184e ed3f
000000f0: de85 5a3f a013 df3f 2ebe 1e3f cd95 e43e
00000100: 6077 823f bd29 7f3f a18e a53f e011 833f
00000110: 461e c33f 310e 1e3f 73ac 4a3f 8161 cf3e
00000120: 57a6 053f 0079 923f 0012 a63f c3d4 0d3f
00000130: ac3f 743f bca3 4940 ff57 8e3f 1379 c93f
00000140: 43c3 243f 6d4c 043f 72e5 703f 2886 df3e
00000150: 02e9 623f 23d4 f83e 330f 0c3f 62fd ec3f
00000160: e2b8 173f f2c8 133f 2337 483f 0a93 f73e
00000170: 707d 8a3f 58d5 093f 1742 033f 1247 933f
00000180: e4cc 533f e3a5 b43e 44c5 253f ee72 753f
00000190: 0b59 ce3f 3b68 353f 2b20 343f b122 4d3f
000001a0: 4be7 123f b013 483f 7c66 4f3f a9a7 ce3f
000001b0: 4aab 133f 4088 2b3f a0dc ba3f f7bb b03f
000001c0: 4d09 af3e f318 8e3f 4aee df3e de54 ea3e
000001d0: 3477 db3f e51a 683f 1903 d23e a07f b83e
000001e0: ed2b 993f ad2e 833f 4674 3a3f 041e 8b3f
000001f0: 624d a73e 5f99 d43e 7baa 233f 2198 fb3f
00000200: 91a9 423f 45a2 143f 8f50 a33f 2384 513f
00000210: 72e3 5c3f 2302 9b3f a3d2 263f 68c9 173f
00000220: 9a73 403f 4214 523f c444 993f 605b 003f
00000230: 1bd3 5d3f 9bed 243f d142 663f 662d c03f
00000240: 7184 1440 3b89 af3f e592 823f dbba c73f
00000250: aa52 4c3f 0c22 4b3f
