ckpt/IAP/2/best_loss_BEST2.ckpt (torch, 167520 bytes, 19 tensors)

classifier.0.weight f4 [120, 18]
000000 fd 82 83 3e b0 dc 09 be a5 f9 a4 be 0c 19 d6 bd
       0.25685874 -0.13463092 -0.32221714 -0.10453996
000010 c9 a6 b3 3c c2 61 92 be 7a a3 22 3e 81 56 19 bd
       0.021930115 -0.28590208 0.15882674 -0.037436012
000020 4f 6e e3 be 5a 5e 4b bb 3d 09 e4 3e ec ba 29 3e
       -0.44420096 -0.003103158 0.44538298 0.16575211
000030 eb 7c 2f be 25 e6 3a 3d c9 7b bc 3e 34 c0 0a 3c
       -0.17137496 0.04562964 0.3681319 0.008468676
000040 7f 58 20 3e a3 f7 4d be 50 f7 5e 3e 5e 86 43 be
       0.15658759 -0.20113997 0.2177403 -0.19094226
000050 0a fb c0 3d 78 50 6d 3e a7 65 b1 3d d1 c0 ce be
       0.09422882 0.23175228 0.08661967 -0.40381482
000060 86 e1 b5 3d 1e c7 ce be c6 2f 03 be 0e 6c e7 3d
       0.08880906 -0.4038629 -0.12811193 0.11299907
000070 1d 93 d0 bd 4a ac 9d be 99 c8 ff bc f8 af 3a 3d
       -0.1018431 -0.3079551 -0.031223582 0.045577973
000080 f6 3e e7 3c ed a0 7b 3e 6b 75 8f 3e 2f 67 7f 3e
       0.028228264 0.24573107 0.2801927 0.24941705
000090 2b 8e 9a 3c 08 25 7e 3c 62 c8 c2 bd a2 61 83 3e
       0.01886662 0.015511759 -0.09510876 0.25660425
0000a0 ad d4 c4 bd 7e 64 0d bf 39 41 b7 bd 54 71 3f be
       -0.09610877 -0.55231464 -0.08947987 -0.18695575
0000b0 e4 54 17 be 04 70 04 3e 2e 53 e3 be 41 5a fe bd
       -0.14778477 0.12933356 -0.443994 -0.12419558
0000c0 9a c7 25 3e 57 14 88 bb a8 2e 26 3d 1f cb bc bc
       0.16189423 -0.0041528153 0.04057184 -0.023046074
0000d0 10 e5 c2 3c f3 64 46 3e 4e 68 c9 be 6f 93 c0 3c
       0.023790866 0.19374447 -0.3933739 0.023507802
0000e0 b9 0b c3 3d 12 a8 e7 3c 5a 4e 0f be 3e d7 9c be
       0.0952372 0.028278384 -0.13994732 -0.30632967
0000f0 fe 73 cf be 8c 1a 61 3e 40 76 38 3e fe 3d 3d be
       -0.40518183 0.21982783 0.18013859 -0.1848068
000100 ad 76 20 3f c5 c6 bc bc 55 61 29 be 51 2d d6 bd
       0.62681085 -0.023044 -0.16541035 -0.10457862
000110 c7 b0 95 3d 00 a9 e6 bb 05 a6 d8 3d c3 30 be be
       0.07309108 -0.0070391893 0.10578541 -0.37146577
000120 e6 63 63 3d 08 85 7c bd ee 4e c1 be 0c 7f c0 3e
       0.055515192 -0.061650306 -0.3775553 0.3759693
000130 8e e3 7f 3d 4f 1d ac bc 16 46 6b 3e 38 e4 3c 3d
       0.062472872 -0.02101007 0.22975954 0.046116084
000140 ae bf 47 be 81 c2 14 bc d8 ae 8c 3d ed 1f 8d bd
       -0.19506714 -0.0090795765 0.06869286 -0.06890855
000150 1e 15 96 bd e7 6c 8c be e4 3b e6 bc 0a cd 83 3e
       -0.073282465 -0.27426836 -0.02810473 0.2574237
000160 c5 25 be bc de e4 c1 be 4d c5 9e 3e 51 14 1a bd
       -0.02321137 -0.37869924 0.31009904 -0.03761703
000170 94 40 1b 3e 17 0a 13 3f bc d0 ee bd 44 61 53 bd
       0.15161353 0.5743727 -0.11660907 -0.05160643
000180 f3 7b 77 3e 79 bf 80 be 00 f3 4b 3e 3a a3 09 3f
       0.24168377 -0.25146082 0.19916916 0.5376469
000190 4a 9e b5 be c3 7c 40 be 02 69 62 3e de 46 f7 3d
       -0.35472327 -0.18797593 0.2211037 0.12074064
0001a0 fb 6d 8a be 04 2b 92 bb e4 21 bc 3e 2a 3f 68 bd
       -0.27037033 -0.0044606943 0.36744606 -0.056700863
0001b0 a8 2a 06 3c be 1c d1 3d 16 3d 46 be ec 59 26 be
       0.008188881 0.1021056 -0.1935924 -0.1624524
0001c0 d4 64 8d 3d f7 e7 e1 bd c4 46 61 3e 26 52 7f 3e
       0.06903997 -0.11030572 0.21999651 0.24933681
0001d0 db 87 f9 bd a1 8e 13 be be 68 ea 3e 45 14 7a be
       -0.121841155 -0.14409877 0.45783037 -0.24421795
0001e0 a9 f1 33 3e 5b 45 20 be 37 2a a1 3d 34 6a c2 3d
       0.17572655 -0.15651457 0.0786938 0.09492913
0001f0 9e 1b 93 be 62 f3 3a bd 7a d7 cc bc 8f e2 13 be
       -0.28732008 -0.045642264 -0.025005091 -0.14441894
000200 b8 a1 be 3e 7b f8 a7 bd 5d f6 9d be 01 31 03 be
       0.37232757 -0.08201691 -0.30852023 -0.12811662
000210 0e e1 38 bd dd f9 35 bd a4 5b 3c bd a9 aa 9d 3e
       -0.045136504 -0.04442774 -0.045985833 0.30794266
000220 be d2 2e be 6b f4 e9 be 91 d6 3d bd 91 e3 f4 3c
       -0.1707258 -0.4569429 -0.046347205 0.029893668
000230 52 26 02 be d3 67 ce 3d d7 0d 8b be 55 c8 12 3e
       -0.1270993 0.10078397 -0.27158996 0.14334233
000240 85 af 11 be 17 5f f2 bd de 7c 94 3d c7 8b 98 3e
       -0.14227112 -0.11834543 0.07250379 0.29794142
000250 f5 1c 1e be cd 8d 93 3e e2 65 43 bd 5b f3 8d be
       -0.15440734 0.28819123 -0.047704585 -0.27724728
000260 d5 5c c7 3d 75 b5 c0 3d c8 85 18 be 71 40 f5 3c
       0.09734503 0.0940961 -0.14894783 0.029937955
000270 ef eb 7a 3e c2 df 5e 3c ae d7 8a 3e b5 74 6c 3e
       0.24504064 0.013603153 0.27117676 0.23091395
000280 47 59 df be bd b3 96 3d 7b 17 48 be 89 c3 aa 3d
       -0.436228 0.07358501 -0.19540207 0.083380766
000290 f7 37 1c 3e ba 28 ea bd 3d 4c 1a 3e 80 e0 33 be
       0.15255724 -0.11433549 0.15068145 -0.17566109
0002a0 b2 d7 db bd 6b d5 a3 3d 51 10 0f be ee 94 63 be
       -0.107345 0.079996906 -0.13971068 -0.22224781
0002b0 5e db 0c 3f 0b 76 77 3e 2a c2 1b be 5c 6e 23 3b
       0.5502223 0.24166124 -0.15210786 0.0024937605
0002c0 f0 0d 6a be 15 85 38 be 8b 41 54 be 65 02 52 3d
       -0.22856879 -0.18019517 -0.20728128 0.051271815
0002d0 11 6e 8c bd a8 72 19 3e 6c 58 7c be 68 43 d2 3c
       -0.06856931 0.14985144 -0.24643105 0.025666907
0002e0 24 46 f2 3d c6 19 f4 3e c2 64 2d 3d a7 9f 6d be
       0.118297845 0.47675914 0.04233242 -0.23205434
0002f0 55 dd b3 3e 6e 7e 39 bd 06 78 dc 3d 0e 12 db 3e
       0.351298 -0.04528659 0.1076508 0.42787212
000300 97 8f b0 be f4 ca 74 3b e9 ab 11 3e b0 37 80 3d
       -0.3448455 0.0037352415 0.14225735 0.062606215
000310 55 40 35 be d5 cc 87 3d 3f 32 3a 3d e8 bb 0f be
       -0.17700322 0.066308655 0.045458075 -0.14036524
000320 69 b5 1b 3e 4c b8 75 3b ae 94 24 bd e0 6e 5b 3c
       0.15205921 0.0037493883 -0.040180854 0.013393134
000330 38 81 62 3d ed 76 a0 bd df 99 4c be 88 d0 ab 3c
       0.055299014 -0.07835183 -0.19980572 0.020973459
000340 cf fb c1 be 3e 4f 1d 3e b5 fe 24 3e 11 15 c3 bc
       -0.37887427 0.1536226 0.16112788 -0.023813756
000350 1d 47 88 3e 81 cf b8 3d f6 21 a1 be f7 1a 58 be
       0.26616755 0.09023953 -0.31471223 -0.21104036
000360 df 29 72 3e 2c 4d 4c 3e ea 2d 32 be c7 46 7c 3d
       0.23648785 0.19951314 -0.17400327 0.061590936
000370 18 e5 56 bc e4 b7 b1 bc 16 9c 24 bd f8 20 6e 3d
       -0.013116144 -0.021694131 -0.040187918 0.05813691
000380 15 b6 35 be 8d 91 8e bd ce b6 f8 3e c6 f5 cc 3e
       -0.1774524 -0.06961355 0.4857697 0.4003126
000390 b3 b8 3c 3e c3 2c 9f 3d 58 a7 44 3d 44 ff e2 bd
       0.18429832 0.077722095 0.048011154 -0.11083844
0003a0 de 1d f0 bd eb 77 fc be 89 d2 fc bd 92 08 f9 3d
       -0.11724447 -0.4931024 -0.12344844 0.12159838
0003b0 db 91 aa be d3 d0 d3 3d d9 cf a0 bd e2 8f 40 3d
       -0.33314404 0.103425644 -0.07852144 0.047012217
0003c0 85 71 13 bd 5f 43 b2 3e da 99 1b 3e 93 41 5c 3e
       -0.035996933 0.34817025 0.15195408 0.2150939
0003d0 14 87 db 3e fb 26 4e be 28 b2 fd 3d db a0 7d be
       0.42876494 -0.20132057 0.12387496 -0.24768393
0003e0 bc 6e a3 bd 5a de 23 3e f0 ff 7f bc f6 1c a4 be
       -0.07980105 0.16002789 -0.015624985 -0.32053345
0003f0 60 e0 0a be 2d e9 82 3d 43 08 06 3e 96 17 97 3d
       -0.13562155 0.06392131 0.13089089 0.073775455

classifier.0.bias f4 [120]
000000 f5 18 0b be cf 25 b7 3e eb aa 63 3e ba e6 c5 3d
       -0.13583739 0.35771033 0.22233169 0.09663148
000010 3c 38 34 be 6a 01 fd 3e de 12 b4 3d d3 43 40 3d
       -0.17599577 0.4941514 0.08792661 0.046939682
000020 df ca a2 bd 94 fd 72 be 8d fe 07 be 88 68 1e bd
       -0.07948851 -0.23729545 -0.13280697 -0.038673908
000030 16 c9 22 bd c8 68 cb 3e b2 4e 17 be 50 6a b8 bc
       -0.03974255 0.3972838 -0.14776114 -0.022511631
000040 7c 56 e8 bd f4 41 83 3e c9 f2 ae bd 48 b7 39 3e
       -0.113446206 0.25636256 -0.08542401 0.18136322
000050 cf 8f e9 bd 36 13 32 3c 12 8c 42 be 4d 72 a4 bd
       -0.114043824 0.010868838 -0.18998745 -0.08029614
000060 d2 6f e4 bc 66 f3 85 be a6 fd f9 3e fd 08 0b 3c
       -0.027885351 -0.2616226 0.4882633 0.00848603
000070 32 79 40 3e 1c 64 0a be f5 cf 88 3e ee 87 17 be
       0.18796232 -0.13514751 0.2672116 -0.14797947
000080 7a d2 8b 3e b2 b7 e3 3d db 0b 07 3f 69 d4 85 3e
       0.27309018 0.111190215 0.52752465 0.2613862
000090 ca 84 ba 3e 3b c0 35 be 6c 08 ac bd 4d df cd 3d
       0.36429435 -0.17749111 -0.08400044 0.10052357
0000a0 e9 97 3a bc 1d 35 d4 bc 4a 6e 8c 3d ed 55 db bd
       -0.011388757 -0.025904233 0.068569735 -0.107097484
0000b0 85 db 94 be 41 19 33 be c8 5c 19 3c ec 76 53 3e
       -0.2907373 -0.17490102 0.0093605 0.20650834
0000c0 12 a2 70 bd 0b ea 1d bc 2f 18 7a 3e 87 c5 8c be
       -0.058748312 -0.00963832 0.24423288 -0.2749445
0000d0 20 ac 91 bd d3 3f 2a 3e b9 a6 c4 3e a0 45 65 3e
       -0.07112908 0.1662591 0.3840845 0.22389841
0000e0 d6 e8 06 3d c0 00 df 3d 3d d8 ca be c0 96 ea bb
       0.032936893 0.10888815 -0.39618102 -0.007159084
0000f0 99 8f a0 3e d7 5c 88 3e 2a 9a 53 be 2b 72 e7 3d
       0.31359556 0.2663333 -0.20664278 0.11301073
000100 88 dc 12 3e 09 9e 86 3b 3d f5 a7 be fb c0 0d bb
       0.14341938 0.0041081947 -0.3280429 -0.0021629918
000110 72 09 87 bd c6 bf 5b 3d a4 03 69 3d 3b 71 df 3d
       -0.065935984 0.053649686 0.056888238 0.10910269
000120 34 6c db 3d 5f e6 07 bd f2 dc 2a be ef 1c a1 bd
       0.107139975 -0.033178683 -0.16685846 -0.07866847
000130 22 5c 60 be d2 9d 83 3d 6f 22 13 bd 6d 7e a6 be
       -0.21910146 0.06426586 -0.03592151 -0.3251833
000140 b7 58 af bd 76 f1 d5 be 7c 76 b2 3e 99 5a 5b 3d
       -0.08561843 -0.41785783 0.3485602 0.053553198
000150 2c cd 05 bf 78 2c 97 be ed d9 0f bf 0f ca 48 3d
       -0.5226619 -0.29526114 -0.56191903 0.049020823
000160 81 bb fb 3d a3 94 8c 3e d3 0e 9f be c0 c7 17 be
       0.12291623 0.2745715 -0.31065997 -0.14822292
000170 2b ce c0 3e dc 75 66 be 74 04 95 bd e8 5e a5 3e
       0.37657294 -0.22505897 -0.0727624 0.3229897
000180 1f 7d ad 3e fa 5a 43 3e dc 24 f3 3e 4e 5a d5 bd
       0.33884522 0.19077674 0.4748906 -0.10417615
000190 cc 05 20 be 23 ef bc 3e cd 4c 95 bc 61 b4 b4 3d
       -0.15627211 0.36901197 -0.018225098 0.08823467
0001a0 17 82 c6 3e f4 39 84 3e d2 0c 98 bd b7 d8 1e 3e
       0.38771126 0.25825465 -0.0742432 0.15512358
0001b0 33 ab ee 3c 3a 43 60 3e db 03 c6 be 56 04 85 3d
       0.029134369 0.21900645 -0.38674816 0.06494968
0001c0 73 73 ba be 95 7b bb bd 5e 77 46 3e 6e 39 8b be
       -0.36416206 -0.09154431 0.19381472 -0.27192253
0001d0 07 28 85 3e c5 98 8a 3d ea 56 30 3e eb cf 46 3b
       0.260071 0.0676742 0.17220655 0.003033633

classifier.1.weight f4 [120]
000000 65 21 20 3f 24 2e 8a 3f 3d 30 73 3f 95 bb 7e 3f
       0.62550956 1.0795331 0.9499548 0.9950498
000010 68 f9 21 3f 2f 2f 76 3f 48 a6 8a 3f 56 fe 21 3f
       0.6327119 0.96165746 1.0831995 0.6327871
000020 0c 4d 08 3f 98 68 3b 3f f2 dc 04 3f 19 66 15 3f
       0.53242564 0.7320647 0.51899636 0.58358914
000030 60 47 46 3f 3f 9b 6f 3f 65 e6 13 3f dc 9e 43 3f
       0.7745266 0.9359626 0.5777343 0.76414275
000040 94 f5 74 3f 2b d3 2a 3f 17 f1 81 3f 46 12 6f 3f
       0.9568722 0.66728467 1.01517 0.9338726
000050 fc a3 7b 3f b3 1c 55 3f 5e 55 59 3f e9 13 06 3f
       0.98297095 0.83246917 0.84895885 0.5237413
000060 5f 3d 7f 3f db 84 69 3f 6c 6a 58 3f 56 32 66 3f
       0.9970302 0.91218346 0.84537387 0.89920557
000070 33 f8 4d 3f 20 cb 6c 3f 35 06 51 3f 95 94 4a 3f
       0.80456847 0.92497444 0.81650096 0.7913297
000080 21 38 5d 3f 42 30 50 3f 51 40 32 3f 6e 16 8e 3f
       0.8641377 0.81323636 0.6962939 1.1100595
000090 8b 4a 81 3f be cc 6c 3f 2a 77 47 3f f5 ef 8e 3f
       1.0100874 0.9249991 0.77916205 1.1166979
0000a0 76 f7 27 3f b2 d1 62 3f 6c 49 44 3f 8f 26 c9 3e
       0.6561197 0.8860122 0.7667453 0.3928723
0000b0 60 9a 65 3f 62 2c 66 3f ef 9a 8c 3f 22 00 86 3f
       0.8968868 0.8991147 1.0984782 1.046879
0000c0 79 ba 3c 3f 4e c6 0f 3f 74 12 11 3f 23 42 3a 3f
       0.73722035 0.56161964 0.5666878 0.72757167
0000d0 9e 07 44 3f c0 b4 65 3f 26 29 6e 3f d5 7f 5e 3f
       0.7657412 0.8972893 0.9303154 0.86913806
0000e0 23 0e 7f 3f 03 0a 6b 3f 0c f5 a5 3f 6e 5a 83 3f
       0.99630946 0.9181215 1.2965407 1.0261972
0000f0 fd 8d 2b 3f 38 03 48 3f 60 96 a1 3f 26 df 10 3f
       0.6701353 0.7812991 1.2624016 0.565905
000100 2c 32 8f 3f 46 4c a3 3f d1 ab 79 3f e0 6c 20 3f
       1.1187186 1.2757652 0.97527796 0.6266613
000110 5e ad 76 3f 7d 81 0c 3f 77 7c 36 3f fe f1 5b 3f
       0.9635829 0.54885083 0.7128367 0.85916126
000120 86 f4 21 3f 01 96 41 3f f5 01 a8 3f 2d be 1e 3f
       0.6326374 0.7561951 1.3125597 0.62008935
000130 33 8d 18 3f a0 90 ef 3e d2 c6 92 3f 70 75 74 3f
       0.5959045 0.46790028 1.1466925 0.95491695
000140 69 20 33 3f e3 14 3a 3f 40 b2 57 3f 43 4a 7b 3f
       0.6997133 0.7268812 0.8425636 0.9816019
000150 a2 9f 14 3f 16 70 86 3f 2b b6 8b 3f 63 f8 66 3f
       0.5805608 1.0502956 1.0914968 0.9022276
000160 8b 65 3e 3f 14 fc 35 3f 82 af 7f 3f 12 08 fa 3e
       0.7437369 0.71087766 0.9987718 0.48834282
000170 a9 5f 3c 3f 11 27 19 3f 98 6b ae 3f 04 2c 5b 3f
       0.73583466 0.59825236 1.3626585 0.8561404
000180 fa 8e 42 3f 94 8a 35 3f ca 4f 5c 3f 58 c8 6b 3f
       0.75999415 0.7091458 0.8605925 0.92102575
000190 4e 86 0a 3f 70 e4 64 3f db 7b 69 3f 89 b5 77 3f
       0.5411118 0.8941107 0.91204613 0.96761376
0001a0 48 49 80 3f 8b 5e 5e 3f 39 0e 4c 3f 4a 93 80 3f
       1.0022364 0.8686301 0.797092 1.0044949
0001b0 a7 4b 4c 3f 8b 02 6d 3f a5 b6 3e 3f b8 63 ed 3e
       0.79802936 0.92582005 0.74497443 0.46365142
0001c0 b5 de 19 3f 5d 03 74 3f d5 9e 83 3f 26 e3 36 3f
       0.6010545 0.9531763 1.0282847 0.7144035
0001d0 b5 45 f0 3e 67 1b 82 3f f0 17 2d 3f d0 47 3d 3f
       0.46928182 1.0164613 0.6761465 0.739377

classifier.1.bias f4 [120]
000000 a8 af 36 be 01 b1 fe be 46 66 e2 be 0e 8e cb be
       -0.17840445 -0.49744418 -0.44218653 -0.39756817
000010 e7 75 b9 be 40 e3 b4 be 9b 5a 19 bf fd 6f 69 be
       -0.36222765 -0.35329628 -0.5990388 -0.22796626
000020 ac 11 94 be 55 fa 52 be 91 c7 a9 be 8f d2 a9 be
       -0.28919733 -0.20603307 -0.3316007 -0.33168456
000030 c8 39 98 be fe 88 86 be e2 cc d1 be 0c cc c0 be
       -0.29731584 -0.26276392 -0.40976626 -0.37655675
000040 2e e5 7d be 8c 0d 98 be d7 dd bc be 97 54 a6 be
       -0.24794456 -0.29697835 -0.36888 -0.32486412
000050 09 30 d3 bd e8 26 a8 be 3c 47 54 be cb 25 f8 be
       -0.10311896 -0.32842183 -0.20730299 -0.48466334
000060 1f 1f ab be 8f 01 9c be d0 25 f5 be ae e4 09 bf
       -0.3342218 -0.3046994 -0.4788041 -0.5386456
000070 93 3d 13 bf 38 96 e0 be 33 a1 05 bf e6 f3 0e bd
       -0.5751583 -0.43864608 -0.52199095 -0.03490057
000080 50 a0 68 be 22 ea 10 bf 27 15 b3 be c2 f8 df be
       -0.22717404 -0.5660726 -0.34977075 -0.43744475
000090 83 b9 c3 be fa 7d 32 bf 96 bd 9d be 02 f7 07 bf
       -0.38227472 -0.69723475 -0.30808705 -0.5311128
0000a0 74 6b bf be 68 b8 90 be b0 61 2c be ed c4 74 bd
       -0.37386668 -0.2826569 -0.1683414 -0.059758116
0000b0 b3 78 c4 be 45 24 3c bf 1f 45 89 be 08 11 fa be
       -0.38373336 -0.7349284 -0.26810548 -0.4884112
0000c0 ca a9 c2 be 2a 3e 94 be 41 8d da be 2f b0 ae be
       -0.38020164 -0.28953677 -0.42685893 -0.34118792
0000d0 86 2b 1b bf 8b c2 57 be 91 ac 20 bf 7c 04 1f bf
       -0.60613286 -0.21070306 -0.62763315 -0.6211622
0000e0 4c e8 b5 be 6b 54 16 bf b0 35 4d bf 52 79 46 bf
       -0.3552879 -0.5872256 -0.80160046 -0.7752887
0000f0 50 9c 36 3d dc 23 f2 be e2 87 05 bf 1c 53 38 bf
       0.044582665 -0.47292984 -0.52160466 -0.72001815
000100 68 47 98 be a2 17 15 bf 9c af cd be 4f f8 b4 be
       -0.2974198 -0.58239186 -0.40173042 -0.35345694
000110 9a a8 4c be 38 e9 fe be 89 64 37 be 0c 42 ea be
       -0.19986191 -0.49787307 -0.17909445 -0.45753515
000120 9a 1f 30 be 60 3e 2c bf 75 96 26 bf 8e 6c 58 be
       -0.17199555 -0.67282677 -0.6507333 -0.2113516
000130 ae 4a 44 be 9f 8f a5 be 00 69 a0 be 3e ff 14 be
       -0.19169113 -0.32336137 -0.3133011 -0.14550492
000140 78 7f dc be 40 d6 c7 3d ea 06 4a be cf c6 9d be
       -0.43066 0.09757662 -0.197292 -0.3081574
000150 83 a7 1d bf 2b 31 82 be e7 99 d8 be c4 1c 64 be
       -0.6158373 -0.25428137 -0.42304918 -0.22276598
000160 7c 93 08 bf 4a 37 9a 3d 1e 98 11 bf a2 fb 74 be
       -0.53350043 0.07530077 -0.5687274 -0.23924115
000170 2f fa a2 be 9f 51 6d be 2e b7 2e bf 82 74 a6 be
       -0.318315 -0.23175667 -0.6824826 -0.32510763
000180 ab 28 ee be 13 c7 82 3d 31 c6 42 be 8b 0a 25 bf
       -0.46515402 0.06385627 -0.19020917 -0.6446921
000190 19 c1 d2 be 8a de 74 be bb fb d1 be 66 13 1f bf
       -0.41162947 -0.23913017 -0.41012368 -0.62138975
0001a0 9e d5 4b be 64 56 68 be 4f 4b ec 3c 42 b2 6b be
       -0.19905707 -0.22689205 0.028844504 -0.23017219
0001b0 b7 e6 1e bf 7c 4c c8 be 1c 42 8e be 18 e8 4d be
       -0.6207079 -0.39120853 -0.27784812 -0.20108068
0001c0 55 4c fa be f8 b6 cd be 77 be c0 be 6a 55 f1 be
       -0.48886362 -0.40178657 -0.37645313 -0.47135478
0001d0 13 eb 29 bf fd 88 f7 be 4c 98 3c bf dd 56 88 be
       -0.6637432 -0.483467 -0.73669887 -0.2662877

classifier.1.running_mean f4 [120]
000000 b9 42 e8 bd 22 17 50 3e b5 a4 a8 bd 2e 9f 54 bc
       -0.11340851 0.20321324 -0.082345404 -0.0129774045
000010 e9 fa a8 be 82 96 9e 3f 25 26 5b 3e eb 31 3f be
       -0.3300393 1.2389681 0.2140127 -0.18671386
000020 0e 07 99 bd 0a cd 9e be a0 73 c4 ba a0 16 9d be
       -0.07472049 -0.31015807 -0.0014988072 -0.30681324
000030 69 5f dd 3e e8 11 64 3f f9 6e c6 3d 82 9b 30 3c
       0.43236855 0.8908982 0.09689135 0.010779263
000040 88 e3 59 3e 6c 42 1a 3f 50 80 8b bf 84 db c2 3f
       0.21278203 0.602576 -1.0898533 1.5223241
000050 e2 1c 55 be ef c4 b8 bd c4 00 72 bd 66 68 e2 bd
       -0.20811799 -0.09021937 -0.05908276 -0.11055069
000060 89 cf f9 be e0 18 41 bc 79 4d ce 3e 92 05 cc be
       -0.4879115 -0.011785716 0.40293482 -0.39848
000070 70 8b dd 3e 1f da 33 3e f5 03 f8 3e 8e f3 68 3e
       0.43270445 0.17563675 0.4844052 0.22749159
000080 c8 5c 40 3f 12 14 20 3f ff f2 ef 3f ad c4 78 3f
       0.7514157 0.62530625 1.8746032 0.97175103
000090 c0 ac 7a 3f dd 5f bb 3d df 96 6f be 9f d5 5e 3e
       0.97919846 0.09149144 -0.23397397 0.21761177
0000a0 c1 6e d4 3e d8 ef e7 be 20 ac da 3d 69 cf 74 3e
       0.4149075 -0.45300174 0.106773615 0.23907246
0000b0 d4 0a 18 3e 29 ed a2 be 48 74 2a bf e0 2f 00 3e
       0.1484788 -0.31821564 -0.6658368 0.12518263
0000c0 24 00 50 3d 4a 93 c4 be 2b ab 27 3f f5 ad 16 bf
       0.050781384 -0.38393623 0.65495557 -0.5885919
0000d0 c0 21 bc be 7f 25 b0 3e 95 3a e0 3f f7 b9 9a bd
       -0.367445 0.34403607 1.7517878 -0.07555001
0000e0 63 0a 77 3f 60 fb d3 bd 14 f1 eb bf 7a 3b 6d be
       0.96500224 -0.1035068 -1.8432946 -0.2316722
0000f0 e9 69 73 3f 6d 4f f8 3d e0 69 6a bf 0c 95 8f 3e
       0.9508348 0.12124524 -0.915678 0.280434
000100 a6 63 58 be 4e 2f 98 3e d7 93 cc bf 32 d7 69 be
       -0.21131763 0.2972359 -1.5982617 -0.22835997
000110 14 34 d9 be c9 f2 72 be 6e e6 f2 be 4e ab 75 3e
       -0.42422545 -0.23725428 -0.4744143 0.23991129
000120 d6 f7 25 bf 00 b9 6b 3f 9f 90 55 bf 2a 35 d9 be
       -0.6483129 0.9207916 -0.834238 -0.42423373
000130 79 35 25 bf a2 b4 5e 3d 4e 8d 3f 3c 4a 79 51 bf
       -0.6453472 0.054371484 0.0116914045 -0.818257
000140 d5 45 ee be 7e 49 8c be 14 5a ce 3e fe e0 95 be
       -0.46537653 -0.2739982 0.403031 -0.29273218
000150 53 4e 0f c0 d3 9d 01 bf 95 19 b3 bf 9d c5 c8 3e
       -2.2391555 -0.50631446 -1.3992182 0.39213267
000160 25 dd aa 3d 5a 7e bb 3e a6 1e bf bf 8b 48 28 bf
       0.08342961 0.36619836 -1.4931228 -0.6573569
000170 92 2b 79 3f a4 7c 2e bf 46 2a cc be 00 2a 15 bc
       0.9733211 -0.68158937 -0.39876002 -0.009104252
000180 65 ce 36 3f c0 3b 34 3f b7 c6 8b 3f ec d3 51 3c
       0.71408683 0.7040367 1.0920018 0.012806874
000190 34 08 6f be b3 86 cb 3e 9f b1 3c be 4e 11 6b 3e
       -0.23342973 0.39751205 -0.18427132 0.2295582
0001a0 f3 c8 d0 bd 70 fd 51 be b2 be 18 3e 25 17 13 3d
       -0.10194578 -0.20506835 0.14916494 0.035910744
0001b0 f7 47 d5 3e e4 e4 2b 3f aa 39 74 bf e8 ac bc 3e
       0.41656467 0.67146134 -0.9540049 0.36850667
0001c0 0f e2 0d bf 66 97 70 bf f7 ae 4b 3f 66 f0 a2 be
       -0.55423063 -0.93981016 0.7956385 -0.31824034
0001d0 39 4f 1d 3f c2 e2 2f 3e 37 81 9a 3e 1c 0e a3 bb
       0.6144901 0.17176345 0.30176708 -0.004976047

classifier.1.running_var f4 [120]
000000 d0 3e b7 3b 87 f7 05 3a c3 27 a3 3a 07 65 03 3b
       0.0055922046 0.0005110432 0.0012447763 0.002004923
000010 15 84 db 3b 15 94 fe 3a bc c2 ae 3a 06 ca ce 3b
       0.006699095 0.0019422794 0.0013333182 0.006310704
000020 cf 52 66 3c 58 87 a8 3a 84 26 5f 3b cc 43 de 3b
       0.014057829 0.0012857718 0.0034050057 0.0067829844
000030 12 33 f7 3b 92 c2 53 3b cd d5 69 3a 01 28 a0 3a
       0.00754393 0.0032312018 0.00089201034 0.0012218953
000040 ea ee 01 3b 02 6c db 3a 86 04 b1 3b 94 b1 d7 3a
       0.0019826242 0.0016740563 0.0054021506 0.0016456121
000050 1a 8a 92 3b 0b 35 40 3b cd 67 a5 3b 54 16 1d 3c
       0.0044720294 0.002932849 0.0050477744 0.009587843
000060 f0 b1 4d 3b 34 89 2c 3b 9c c2 20 3c 10 85 dc 3a
       0.0031386577 0.0026326897 0.0098120235 0.0016824324
000070 0d 6a 13 3b 81 e0 0d 3b 3e a9 60 3a c1 ec 1c 3b
       0.002249363 0.0021648707 0.0008570141 0.0023944827
000080 02 c4 0e 3c b9 01 7a 3b 8f 32 2e 3b ef 47 18 3a
       0.008713724 0.0038148 0.0026580428 0.0005809059
000090 9f 32 91 3a db 4a 08 3b 0a fe 30 3a fd 3d c9 3a
       0.0011077708 0.002079657 0.0006751722 0.0015353557
0000a0 fa 71 a7 3b a8 15 f0 3a 70 aa e7 3b 55 04 9a 3b
       0.0051100226 0.0018317001 0.0070698783 0.0047002234
0000b0 ca bd d5 3a fc fe 9a 3a c0 dd bc 3b 93 67 64 3a
       0.0016307172 0.0011825259 0.0057637393 0.00087129435
0000c0 43 13 94 3a ba d5 22 3c 88 30 07 3b 26 42 b6 3a
       0.0011297244 0.009938652 0.0020628292 0.0013905212
0000d0 f9 b3 91 3b cf 1f 90 3b 36 b0 2a 3b 14 a1 28 3a
       0.0044465032 0.004398323 0.0026044971 0.0006432694
0000e0 f3 47 5d 3a b6 19 ac 39 bd d5 a1 39 0a 4a 88 39
       0.0008441202 0.00032825553 0.0003086756 0.00025995105
0000f0 fd cb 6f 3a 6a 88 69 3a 57 45 5e 3a b4 49 a4 3a
       0.0009147523 0.0008908572 0.00084789604 0.0012534172
000100 92 5b 9f 3b 8d 43 6f 3a 86 1e 7c 3b c2 90 07 3b
       0.004863211 0.00091271923 0.0038470342 0.0020685648
000110 74 b1 7a 3b 89 4e 29 3c e4 2f d2 3c af c2 34 3b
       0.0038252743 0.010333666 0.025657602 0.002758186
000120 b2 e7 49 3c db db 02 3b 97 60 2c 3a aa 41 a4 3c
       0.012323307 0.001996747 0.00065756723 0.020050842
000130 e6 64 de 3b 0a 62 5f 3c ca 03 4f 3b bc 9e c6 3a
       0.0067869304 0.013634214 0.0031587952 0.0015153508
000140 de c8 aa 3a a5 49 62 3a 26 0b 29 3b ad a3 6a 3b
       0.0013029834 0.000863219 0.0025793999 0.0035803125
000150 02 6e b4 3a 32 ad ed 3a 79 17 01 3b 72 4c 97 3a
       0.0013765695 0.0018133281 0.0019697829 0.0011543168
000160 c2 06 ba 3b 1a ee 15 3a 1b d1 8a 3a d9 1c 4c 3c
       0.005677075 0.0005719379 0.0010590883 0.01245805
000170 d3 7e 24 3b f5 a5 92 3c 0c 8c 46 3a bc e1 82 3a
       0.0025100007 0.0179014 0.0007573969 0.0009985487
000180 25 1d 03 3c 64 f4 72 3a b5 ce 17 3b 59 94 2d 3a
       0.008002554 0.00092679844 0.0023163978 0.0006621532
000190 32 2a e0 3b 5d da 39 3c 88 36 d5 3a 30 2f 20 3b
       0.0068409676 0.011343566 0.0016266862 0.0024442188
0001a0 56 10 2d 3b cb 3e 37 3c 53 41 41 3a bc de e2 3a
       0.0026407442 0.011184405 0.00073721 0.0017308812
0001b0 2e f0 e8 3a 70 19 d1 3b 24 2b 32 3b 2b c0 82 3c
       0.0017771774 0.006381206 0.0027186358 0.015960773
0001c0 d4 ed 11 3c 6b d4 d9 3a 0f 33 9d 3a 55 bf 83 3b
       0.0089068 0.0016619092 0.0011993366 0.0040206113
0001d0 85 f5 58 3b d2 db b0 3a d2 7b e7 3a 07 c2 5a 3a
       0.0033105325 0.0013493246 0.0017660803 0.00083449524

classifier.4.weight f4 [150, 120]
000000 0d 69 ad bc bc c2 54 3d e4 95 21 3e 2d b6 00 3d
       -0.021168256 0.051943526 0.15779835 0.031423736
000010 ae cc c3 bd 9c 2d 14 3e 52 66 5b bd 11 9f 68 3d
       -0.09560524 0.14470524 -0.053564377 0.056792323
000020 85 6f be bd 42 23 bf 3d 26 f2 95 be be 4a ee bd
       -0.092986144 0.09332897 -0.29286307 -0.1163535
000030 6f ca 08 bd bb a2 35 3c 9d c3 9a 3e 62 55 13 3d
       -0.03339618 0.011086161 0.30227366 0.0359701
000040 51 3c 23 be ff ed aa 3d c8 02 32 3d 29 b8 11 bd
       -0.15940978 0.083461754 0.043459684 -0.03557602
000050 99 db 2c be d7 16 8a 3c 4d 72 40 bd c4 57 5d 3d
       -0.16880645 0.016856594 -0.046984006 0.054038778
000060 04 fa 43 3c 5b 7d f1 bd c3 3a 8d 3e ce 01 dd 3e
       0.011961464 -0.11791488 0.27583894 0.4316544
000070 e2 86 9e 3c 81 cc 10 bd ab 32 04 3c 74 6a b6 bd
       0.019351427 -0.03535128 0.008068721 -0.08907023
000080 a8 74 11 be c3 f8 0a be 26 98 19 3e 0f 4e 3e 3d
       -0.14204657 -0.13571458 0.14999446 0.04646116
000090 b9 f5 2b 3e 3d f1 09 bb 43 f7 6c 3c 6a c0 6b bd
       0.16792955 -0.002104833 0.014463249 -0.057556547
0000a0 3b 2b ec 3d c6 b8 0a 3e 3e 17 6d 3c b5 d0 cc 3d
       0.11531683 0.13547048 0.014470873 0.10000745
0000b0 58 05 22 3c 28 63 a0 3d eb 71 58 3e 78 87 c3 bc
       0.009888969 0.078314126 0.21137206 -0.023868307
0000c0 15 fe 51 3d 22 df 05 be 90 21 47 be 0c 28 fc 3c
       0.051267702 -0.130734 -0.19446397 0.030780815
0000d0 8d d0 e9 3e 55 8e e9 3c 5a 1e da 3c 69 a2 04 3d
       0.45666924 0.028510252 0.0266258 0.03238145
0000e0 d9 85 3d 3e 01 ab 11 3e d0 d2 5c 3f 54 47 95 bd
       0.1850809 0.14225389 0.86259174 -0.072889954
0000f0 f6 f4 e1 bc 5a 87 5b 3d ef d0 15 3f 2a 1f 37 be
       -0.027582627 0.05359588 0.5852193 -0.17882982
000100 92 f8 e2 3d 36 49 36 bb ed d1 ce 3d 6c 46 28 3d
       0.11082567 -0.0027814633 0.10098634 0.041082785
000110 db c4 93 3d ec 2f 80 bc c4 89 b3 bd 9a b4 d7 bc
       0.072152816 -0.01564785 -0.08766511 -0.026331235
000120 50 c6 99 bd 4e 07 87 3a 8f 0f 3c 3f ca d9 f1 3c
       -0.07508528 0.001030186 0.7346124 0.029522795
000130 19 c9 19 be be 84 ff bd f6 60 1b 3d a9 f2 38 3d
       -0.15018119 -0.124764904 0.037934266 0.045153294
000140 71 78 04 3e 81 8e e5 3c 49 89 83 bb 4c c7 30 bd
       0.1293657 0.028022053 -0.0040141684 -0.043158814
000150 d7 b2 5e bd b0 cb 96 3d cd 72 fb bc c1 75 99 3e
       -0.054369774 0.07363069 -0.03069439 0.29972652
000160 e4 72 02 be a2 d0 c2 3c 61 80 5e 3e 4d 89 d1 3d
       -0.1273914 0.023781125 0.2172866 0.10231266
000170 6b 4c 48 3d 6f ae 9e bd e4 e3 4a 3f 3c d3 04 3d
       0.048901003 -0.07748114 0.79253983 0.03242801
000180 e3 20 a4 3e a8 fc 1c 3d 33 80 10 be e9 66 58 bd
       0.3205634 0.03832689 -0.14111404 -0.052832518
000190 7c 22 a6 bc d8 54 a4 bd 0c 52 50 bc 1c fd dd 3d
       -0.020280115 -0.08023995 -0.012714874 0.108392924
0001a0 23 9a fb bc 40 88 5f bd e5 14 7e 3d 8d 8f 2f 3d
       -0.030713147 -0.054573298 0.062031645 0.04286151
0001b0 1f 79 83 3c a6 9c 7b bd 82 f7 a0 bd 18 81 18 be
       0.016048966 -0.06142869 -0.07859708 -0.14892995
0001c0 69 27 82 be ec 22 f5 3a 8a 25 24 3e 5e 2a 25 3e
       -0.25420693 0.0018702424 0.16029945 0.16129443
0001d0 9c ec 37 3e 62 a4 12 be 58 61 af bd 9d b8 a1 3d
       0.17961353 -0.1432052 -0.08563489 0.0789654
0001e0 ac ac b0 3d 3d 02 9f be 6d d8 52 be f7 b8 92 3d
       0.086266845 -0.31056395 -0.20590372 0.071641855
0001f0 5d 2b 19 bf 51 f9 fd bc fa 2e 17 be a0 e4 37 be
       -0.5983179 -0.031002672 -0.14764014 -0.17958307
000200 d9 e5 4f be 07 97 0a 3d 55 81 2c be c7 c3 df be
       -0.20302524 0.033835437 -0.16846211 -0.43704054
000210 d7 8c 1c bd e1 54 f1 bd e5 26 8c bc 4b 80 3a be
       -0.038220253 -0.117837675 -0.01710839 -0.18213002
000220 89 5f e5 3d 75 19 88 3b 4f 8c 6e bd 98 d2 c3 bb
       0.111998625 0.0041534253 -0.058239277 -0.0059760325
000230 0f c2 dd bd 66 f0 92 3d b0 ad 7f 3d 82 a6 90 3c
       -0.10828029 0.071747586 0.0624215 0.017657522
000240 6b 12 f4 bd 2f f4 4e 3e 1a 0f 5d 3e e2 a4 31 be
       -0.119175754 0.20210336 0.21587792 -0.17348054
000250 33 45 90 3c 56 e8 1e bd 9f cf 20 be 0f 1b 81 bd
       0.017611122 -0.03879579 -0.15704201 -0.06303989
000260 52 03 8d 3d f6 d3 84 3e 7c 72 06 bd e1 62 3d bd
       0.06885399 0.25942963 -0.032824025 -0.046236876
000270 25 70 26 3e fc 2a 81 3e 49 87 4d bd f8 fc 7e 3e
       0.16253717 0.25228107 -0.050177846 0.24901187
000280 ef ec bb bd b0 e8 8e bd 76 50 11 3e a9 54 19 bd
       -0.09176051 -0.06977975 0.1419085 -0.037434254
000290 77 86 45 3e f0 ea 08 3e 39 98 a8 3d b8 04 74 3d
       0.19289576 0.13370872 0.08232159 0.059574813
0002a0 7c 1a 91 3c 01 85 ad be 72 fe 33 bd 8c b4 95 be
       0.017712824 -0.33890536 -0.04394383 -0.2923931
0002b0 fb 52 2d 3b 83 55 aa bd 0b 5a a3 3e 75 ff 54 be
       0.0026447165 -0.08317091 0.31904635 -0.20800574
0002c0 f6 38 db bd 53 a0 4e 3e 90 fb 6e be 48 a0 51 bd
       -0.10704224 0.20178346 -0.23338151 -0.051178247
0002d0 aa 44 c2 3c 9d 2b 80 3c 12 c5 0a be 64 0f 1d be
       0.023714382 0.015645796 -0.13551739 -0.15337902
0002e0 d3 84 da 3d 64 f9 c7 3c 54 11 eb 3d 45 ee 81 be
       0.106698655 0.02441091 0.114779145 -0.25377098
0002f0 6b 64 0a be d5 ba a2 bb 86 4e 95 3d 49 eb 1e 3d
       -0.13514869 -0.00496612 0.07290368 0.038798604
000300 9b c1 e7 bd 5a 80 b9 bc 00 61 ac be 36 ec 27 be
       -0.11316224 -0.02264421 -0.33667755 -0.16398701
000310 80 0c ba 3d 5c 01 ab be bd 8f a4 bd 7d 65 d7 3d
       0.090844154 -0.33399475 -0.080352284 0.10517404
000320 d2 d6 ea bd 76 84 07 be 78 4a aa bd 4e 5c 28 bd
       -0.11466755 -0.13234124 -0.08314985 -0.041103654
000330 cd 82 08 bf 95 44 d1 bd 95 92 15 3d f9 e7 a5 3c
       -0.53324586 -0.10218159 0.036516745 0.020252215
000340 f1 2e 43 be cd 45 6a bd 31 6c d8 bd aa 2c d1 bd
       -0.19060875 -0.057195473 -0.10567511 -0.10213597
000350 45 28 8b be ae df 69 be ad f1 8b be c6 8a b0 be
       -0.2717916 -0.22839233 -0.2733282 -0.34480876
000360 e1 8c bf bc ad 86 0d bd fa ef c9 3c 26 79 8d bd
       -0.023382606 -0.034552265 0.024650563 -0.06907873
000370 aa 91 80 bc e1 10 2e 3e 65 e5 87 be 9f fa b4 3e
       -0.015694458 0.16998626 -0.26542202 0.3534746
000380 8e 13 cd bd 94 9e b2 bc b8 1a db 3b 94 40 84 3d
       -0.100134954 -0.021804132 0.0066865347 0.0645763
000390 d9 76 bd 3e 1e 73 48 bd d8 19 14 3d 8d 1b df be
       0.37004736 -0.04893791 0.03615746 -0.43575707
0003a0 37 aa a9 be 40 58 f6 be 52 9d 7d bb 36 0c bb bd
       -0.33137676 -0.48114204 -0.0038698507 -0.091331884
0003b0 89 db b5 3d 66 a8 98 3d 0f e3 81 3c c4 16 68 3d
       0.08879764 0.074539945 0.01585534 0.056662336
0003c0 7a d8 96 3d dd b2 13 be 4f 34 35 be 5d a4 63 bd
       0.073655084 -0.144237 -0.17695735 -0.05557667
0003d0 16 95 7e bc e1 ef ab be ef d7 38 3c 12 8f 35 be
       -0.015538475 -0.3358145 0.011281951 -0.17730358
0003e0 41 6f ee bd f2 7d 2a 3e 10 b4 87 bb db 56 61 3d
       -0.11642314 0.16649607 -0.004141338 0.055014472
0003f0 ce 09 27 3c 80 49 95 3d 26 0b 2c be cd 33 b0 bd
       0.010195209 0.0728941 -0.16801128 -0.0860363

classifier.4.bias f4 [150]
000000 4c 31 63 be 16 fc 50 bd 9e 6e 2f bc d7 33 2e be
       -0.22186774 -0.051021658 -0.010707526 -0.17011963
000010 76 96 10 3d 61 8c d4 ba 6f 7c ce 3d 3f a5 07 3b
       0.03529974 -0.0016216153 0.100823276 0.002069786
000020 4b db aa 3c 7d 6b e9 bc 54 f4 9b 3d d3 e8 9b 3c
       0.02085652 -0.028493637 0.07614961 0.019031918
000030 5f 13 5e be f5 02 81 3d c1 ad 80 bd 08 46 52 bc
       -0.21687077 0.06299392 -0.06283141 -0.01283408
000040 75 67 54 3b 41 99 1c bd 50 7c 80 3d 64 c0 1e bd
       0.0032410298 -0.03823209 0.06273711 -0.038757697
000050 5d 81 0a 3d 47 b3 99 bd 66 ce 10 bd c1 a8 fd 3c
       0.033814777 -0.075048976 -0.035353087 0.030964257
000060 41 04 5a 3e dc 10 bb 3c d7 3e c5 3c f2 be 24 be
       0.21290685 0.022835188 0.024077816 -0.16088465
000070 e2 46 9d 3d 54 08 4e bc 03 b0 65 bc 96 89 c9 bd
       0.076795354 -0.012575228 -0.014019015 -0.098406956
000080 49 e7 c5 bd 65 5c 6b bc e1 9d c8 bd 71 ec ca 3d
       -0.09663255 -0.01436529 -0.09795738 0.09908379
000090 50 02 7c bd e1 9a 19 3e 06 9e a0 3d 72 59 b5 bd
       -0.061525643 0.15000488 0.078426406 -0.08854951
0000a0 0e 84 58 bc 55 ef fc bc 92 b1 a3 3d 76 5e 05 be
       -0.013215078 -0.030875841 0.07992853 -0.13024315
0000b0 05 52 0a bd f0 08 06 be f0 09 99 3d 28 ca 8c 3d
       -0.033769626 -0.13089347 0.074725986 0.06874496
0000c0 dd 6e d0 bc 79 95 44 3e 55 2b 6f bd 9d 43 5b 3d
       -0.025443489 0.19197644 -0.058390934 0.053531278
0000d0 ae 85 c5 3d 8d 56 8d bd a5 dc ad bc 02 58 79 3d
       0.09644638 -0.06901274 -0.021223376 0.060874946
0000e0 ff f1 56 bc a9 ce dd 3c 92 df 17 3d 67 75 b5 bd
       -0.01311922 0.027076082 0.037078448 -0.08860283
0000f0 8d a9 c3 bc 73 93 21 3d 4b fc 4c bc 42 6d 98 bd
       -0.023884559 0.03944726 -0.012511323 -0.07442714
000100 ad 5c a4 bc e1 f6 48 3d 35 c3 a9 bd 02 da 4e bd
       -0.020063723 0.049063567 -0.08289186 -0.050500877
000110 6d 13 45 bd 49 3e 51 bd 18 7e d5 bd 9f 82 99 bd
       -0.04811423 -0.05108479 -0.10424441 -0.07495617
000120 e4 57 02 be 4f ae 4a bd ca 13 54 be 62 cf ae bc
       -0.1272884 -0.04948264 -0.20710674 -0.021339122
000130 33 a9 ef bc 43 07 16 3d cf 5e 3f bd 05 18 49 bd
       -0.029255485 0.03662802 -0.046721276 -0.049095172
000140 51 dc 2f bd af 5d 7e 3e 3d f6 c5 bc 19 e8 86 3a
       -0.04293472 0.24840425 -0.024165267 0.0010292559
000150 83 73 5a bd 85 a2 cd 3d 1b 92 ef bd 44 13 12 bc
       -0.053332817 0.10040764 -0.11697789 -0.008915726
000160 92 de a1 3d 72 a3 38 3c 79 0e f5 bd 4b af 93 3d
       0.0790378 0.011269437 -0.11965651 0.07211169
000170 eb d4 59 3d 2c d7 f0 3d a7 fd 11 3c bc 15 22 bd
       0.05318157 0.11759791 0.008910573 -0.03957151
000180 d3 8c 9a bd d4 19 4e 3d aa 68 b0 3d fa 2d 60 3d
       -0.07546391 0.0503176 0.08613713 0.054731347
000190 fb c1 71 3d 9d 28 7f bd ec 3f be 3d f1 f7 e8 3d
       0.059022885 -0.06229459 0.09289536 0.11375416
0001a0 40 e9 bc bd cb db ec 3c f2 db 67 bd 79 b1 53 3d
       -0.092241764 0.0289134 -0.05660624 0.051682923
0001b0 60 04 89 3d fb 56 d3 3b 53 ef 9d 3c 05 fe 31 bd
       0.066902876 0.006449578 0.019279158 -0.043455143
0001c0 ac fb c1 3c 18 b0 29 be 1e ad 97 bd 3d 6a a9 3d
       0.023679577 -0.1657108 -0.07406066 0.082722165
0001d0 6e a0 2d bc 17 62 c5 bd 80 14 9e 39 dd 80 df bc
       -0.010597331 -0.0963785 0.00030151382 -0.027283126
0001e0 74 e7 ba 3d ed d3 8b 3d e7 17 37 3e 20 ea 04 be
       0.091261774 0.06827531 0.17880212 -0.12979937
0001f0 c6 7a ee b8 ca 24 82 ba 55 ce 81 bc 2c a9 f7 bc
       -0.00011371593 -0.0009929177 -0.015845457 -0.030232035
000200 07 bf 20 3d 03 db 37 3d 17 3f 8f 3d e2 80 d3 3c
       0.039244678 0.0448866 0.06994455 0.025818292
000210 6c 5c 80 3b dc 79 30 bd bb cc b6 3d 3d 0f 9f bc
       0.0039172675 -0.043084964 0.08925768 -0.019416446
000220 76 40 00 3e 32 6c 25 3c c9 ab ba bd ee 30 81 bd
       0.1252459 0.010096597 -0.09114797 -0.06308161
000230 0f 87 3d 3e 60 11 4a 3d 69 8e 7f 3d 0a 53 2a 3e
       0.18508552 0.049332976 0.062391672 0.1663324
000240 a4 67 ab bd 89 86 97 bb 15 ef c0 bd b2 8a 06 3e
       -0.08369377 -0.004624192 -0.09420601 0.13138846
000250 00 b1 b5 3a f0 7a 81 3d
       0.0013861954 0.063222766

classifier.5.weight f4 [150]
000000 55 bc 56 3f be 2e 33 3f b8 5e 54 3f f2 f9 81 3f
       0.8388112 0.699932 0.8295703 1.0154402
000010 06 80 5b 3f 8b f1 89 3f 76 57 3c 3f 3a 46 93 3f
       0.85742223 1.0776838 0.73570955 1.1505806
000020 8d e1 46 3f 37 52 94 3f e1 08 27 3f cb 3e 89 3f
       0.77687913 1.158759 0.65247923 1.0722288
000030 ea cf 54 3f 0f 3b 41 3f 90 58 64 3f 45 a1 52 3f
       0.8312975 0.7548074 0.89197636 0.8227733
000040 f6 1a 92 3f 6a 66 58 3f 2c eb 46 3f ce 4a 7b 3f
       1.1414478 0.8453127 0.77702594 0.9816102
000050 03 2f 2e 3f 82 1e 8c 3f 77 1b 7b 3f 5b 5a 89 3f
       0.68040484 1.094681 0.98088783 1.0730699
000060 4a 9e 90 3f 25 71 46 3f 36 84 49 3f bb 7b 62 3f
       1.1298306 0.77516395 0.7871736 0.8847005
000070 d8 85 41 3f d4 6e 4e 3f 0c 24 5d 3f 48 5c 4a 3f
       0.75594854 0.8063786 0.8638313 0.7904706
000080 0c ed 3f 3f c0 77 73 3f 37 ba 66 3f eb 38 57 3f
       0.7497108 0.951046 0.9012789 0.84071225
000090 93 81 62 3f 4f b2 8d 3f 92 cf 75 3f 67 a0 10 3f
       0.88478965 1.107004 0.9601985 0.56494755
0000a0 95 ca 6e 3f de a1 53 3f 1e fe 53 3f 25 07 84 3f
       0.93277866 0.82668865 0.8280963 1.031468
0000b0 13 7f 93 3f 96 dd 68 3f d1 85 57 3f 85 c1 29 3f
       1.1523155 0.90963113 0.8418856 0.6631091
0000c0 2e 13 45 3f 9f ad 98 3f c6 dd 7d 3f 47 6e 86 3f
       0.7698239 1.1927985 0.99166524 1.0502404
0000d0 e4 df 65 3f 2b 22 54 3f f4 77 7a 3f 6c 49 83 3f
       0.89794755 0.82864636 0.97839284 1.0256782
0000e0 7a 1a 5f 3f d7 ba 56 3f 74 fa 74 3f 90 b7 78 3f
       0.87149775 0.83878845 0.9569466 0.97155094
0000f0 5f a6 7f 3f 71 de 6c 3f 52 69 7b 3f 3f 67 39 3f
       0.9986324 0.9252692 0.9820758 0.72423166
000100 c1 f8 83 3f 25 5a 6a 3f d7 db 6a 3f 70 84 18 3f
       1.0310289 0.915438 0.917417 0.59577084
000110 5b 45 48 3f 71 60 62 3f e0 56 6c 3f 92 96 95 3f
       0.7823083 0.8842841 0.9232006 1.1686575
000120 d1 2d 41 3f d4 c1 24 3f 5e 43 62 3f 0d f0 67 3f
       0.75460535 0.6435826 0.88384044 0.90600663
000130 29 18 4e 3f 6f 05 55 3f bf d7 55 3f 75 b7 61 3f
       0.80505615 0.83211416 0.8353233 0.8817056
000140 a4 cb 70 3f 89 f6 5e 3f 3f 7e 40 3f d4 e5 7a 3f
       0.9406073 0.8709493 0.75192636 0.9800694
000150 fd a3 30 3f fb 40 79 3f a1 10 53 3f 19 d5 4d 3f
       0.69000226 0.9736478 0.8244725 0.80403286
000160 9d 72 75 3f 8d 73 53 3f c3 d1 77 3f 38 0b 6b 3f
       0.9587801 0.8259819 0.96804446 0.91813993
000170 9a 0c 25 3f 30 b4 6d 3f b6 b1 51 3f e3 5a 1c 3f
       0.64472353 0.9285307 0.8191179 0.6107618
000180 9c 21 64 3f af 73 38 3f 05 d7 63 3f 43 1a 81 3f
       0.89113784 0.7205152 0.8899997 1.008614
000190 4f 03 7e 3f c8 e1 5d 3f 46 0e 84 3f f1 d9 4d 3f
       0.992238 0.8667264 1.0316856 0.8041068
0001a0 8f bf 4c 3f 81 3e 10 3f ae 15 53 3f 7e 9a 9b 3f
       0.79979795 0.56345373 0.82454956 1.2156522
0001b0 00 fa 8b 3f 1c 6a 59 3f 15 1f 2e 3f fb db 7b 3f
       1.0935669 0.84927535 0.6801618 0.9838254
0001c0 81 c7 39 3f ae 74 76 3f 01 a5 59 3f b8 9d 64 3f
       0.72570044 0.9627179 0.850174 0.8930316
0001d0 a3 b6 99 3f 1c db 7f 3f be d3 47 3f 6e d0 85 3f
       1.2008861 0.9994371 0.7805747 1.0454233
0001e0 df 49 77 3f d1 67 28 3f 9c 48 4d 3f b2 09 4b 3f
       0.96597093 0.6578341 0.8018892 0.7931167
0001f0 e6 2f 5c 3f 1a 24 6d 3f b2 87 8e 3f 2f c6 4a 3f
       0.8601059 0.9263321 1.1135161 0.79208654
000200 51 ef 7f 3f 9c 97 64 3f a8 04 70 3f 51 b2 62 3f
       0.9997454 0.8929384 0.93757105 0.8855334
000210 93 87 8a 3f 78 7a 38 3f 20 3d 39 3f 9d 99 2f 3f
       1.0822624 0.7206187 0.72358894 0.6859377
000220 a5 79 4f 3f f3 4b 2b 3f 49 25 61 3f 31 37 a2 3f
       0.8104499 0.66912764 0.8794752 1.2673093
000230 3a 96 a0 3f b4 a5 52 3f 7e 6f 74 3f ce 17 97 3f
       1.2545846 0.8228409 0.95482624 1.180414
000240 fc 6f 49 3f 6a a2 0d 3f 66 36 1b 3f 28 cf 12 3f
       0.786865 0.5532595 0.6062988 0.57347345
000250 66 16 6b 3f 52 9c 2e 3f
       0.9183105 0.68207276

classifier.5.bias f4 [150]
000000 19 f8 29 be 08 cf e1 be 43 dd b9 be 9c 7d 46 bf
       -0.16598548 -0.44103265 -0.36301622 -0.77535415
000010 e1 b5 c6 be 48 5d 08 bf df ae 66 3d 56 69 65 be
       -0.38810638 -0.53267336 0.056319114 -0.22403464
000020 f9 2a e5 be 1d 3c 28 bf fc 6e 12 bf 37 92 8a be
       -0.44759348 -0.65716726 -0.572006 -0.27064678
000030 71 77 a4 be 57 22 fa be 9c 91 df be 44 60 f2 be
       -0.32122377 -0.48854324 -0.4366578 -0.4733907
000040 3c 05 e8 be c2 16 81 be 82 18 00 bf 9d a0 8d be
       -0.45316494 -0.25212675 -0.50037396 -0.276616
000050 1a 9f 31 bf 5a c1 05 bf 56 ae c9 be 2d 6f a8 be
       -0.69383395 -0.52248156 -0.3939082 -0.3289732
000060 f5 54 d6 be c1 ba 03 bf 5a 63 e9 be 35 fa 00 bf
       -0.41861692 -0.5145684 -0.45583612 -0.50381786
000070 b3 da de be 20 ca 0a bf 4b 6f ce be f8 07 c7 be
       -0.4352623 -0.5421467 -0.40319285 -0.38873267
000080 db 57 12 bf 88 3b ab be 16 bf b1 be e3 33 c7 be
       -0.57165307 -0.33443856 -0.347161 -0.38906774
000090 65 94 cf be 3a 4e 93 be be 32 5e be 10 cb bd be
       -0.40542904 -0.2877062 -0.21699044 -0.37068987
0000a0 4f d4 ce be 16 26 b2 be 33 0e 40 be e2 a4 ce be
       -0.40396354 -0.34794682 -0.18755417 -0.4036017
0000b0 96 90 8e be b7 02 c4 be 0b b4 ad be 71 d8 8c be
       -0.27844685 -0.3828332 -0.33926424 -0.27508882
0000c0 58 56 ae be 7b d3 c1 be 57 b0 1e bf 17 5f e0 be
       -0.3405025 -0.3785666 -0.61987823 -0.43822548
0000d0 95 b3 ca be b1 92 c4 be c7 28 e0 be 18 a8 f9 be
       -0.39590135 -0.38393167 -0.4378111 -0.48761058
0000e0 01 e0 d8 be 25 2d 01 bf c1 d0 bb be f5 14 b8 be
       -0.423584 -0.5045951 -0.36682704 -0.3595349
0000f0 1d 52 f9 be a2 86 fb be 1b 55 6a be a8 20 ea be
       -0.4869546 -0.49126154 -0.22884028 -0.4572804
000100 80 c3 b8 be f5 6f 8b be a1 f0 0a bf 44 e7 c0 be
       -0.36086655 -0.27233854 -0.5427342 -0.37676442
000110 3a 57 f4 be c0 2b 91 be a3 6e e8 be d0 65 f3 be
       -0.477228 -0.2835369 -0.4539691 -0.47538614
000120 27 dc 26 bf 7c 58 22 bf 83 e8 d4 be d2 d7 c3 be
       -0.65179676 -0.63416266 -0.41583642 -0.38250595
000130 ea ac 9d be f8 5d 7d be 28 ba e1 be 9f 9f a1 be
       -0.30795985 -0.24742877 -0.44087338 -0.31567094
000140 f1 13 08 bf ab 08 dc be be 4c df be 99 d1 8d be
       -0.5315543 -0.42975363 -0.43613237 -0.27698973
000150 89 48 06 bf 0c 8e 84 be b9 97 b4 be aa c8 f3 be
       -0.5245443 -0.25889623 -0.35272005 -0.47614032
000160 87 a8 bd be cf 84 10 bf 06 b8 09 bf 10 cc 22 bf
       -0.3704264 -0.5645265 -0.5379642 -0.63592625
000170 5a 95 ec be 79 85 d3 be b9 53 bb be a0 08 00 bf
       -0.46207696 -0.4131277 -0.36587313 -0.5001316
000180 aa f0 c7 be 64 03 f4 be fa 8d ce be fb d0 21 bf
       -0.390508 -0.47658837 -0.40342695 -0.63209504
000190 83 00 e2 be 1e 84 83 be 5a 35 5c be e7 7a d4 be
       -0.44141015 -0.25686735 -0.21504727 -0.41500017
0001a0 b4 bd aa be 6b 3b 93 be 7a ea 09 bf ad b0 86 be
       -0.33347857 -0.2875627 -0.5387341 -0.26306668
0001b0 5f 58 be be 2e b4 d5 be 0b ec e2 bd a4 98 92 be
       -0.37176797 -0.4173903 -0.11080178 -0.2863208
0001c0 37 d1 22 bf 21 d7 af be 06 95 cd be 40 44 f7 be
       -0.63600487 -0.34343818 -0.40152758 -0.48294258
0001d0 bf 26 b8 be 93 f2 96 be 36 cd 14 bf 1f ed 51 bf
       -0.3596706 -0.29481944 -0.5812563 -0.82002443
0001e0 42 a7 05 be 88 aa fe be f2 b2 17 be d6 76 d7 be
       -0.13052085 -0.4973948 -0.14814356 -0.42082852
0001f0 70 1d ce be cf c5 b1 be 7e 14 b9 be 18 e0 2d bf
       -0.40256834 -0.34721228 -0.36148447 -0.67920065
000200 c1 09 8f be 4a 01 c4 be 87 a1 29 be 83 32 aa be
       -0.2793713 -0.38282233 -0.16565524 -0.33241662
000210 e1 1a ed be 43 cf 3f be 6e a5 6d be 56 56 a0 be
       -0.4630957 -0.18731408 -0.23207638 -0.3131587
000220 7f 40 ec be 2e 3f ce be 00 87 d8 be 58 25 c2 be
       -0.46142957 -0.40282577 -0.42290497 -0.37919116
000230 3f 2d e0 be 8c 3d db bd 19 da be be c1 95 b0 be
       -0.4378452 -0.107050985 -0.3727577 -0.34489253
000240 43 87 85 be df 97 fd be af b9 83 be ae aa 19 bf
       -0.2607976 -0.4952993 -0.25727603 -0.6002606
000250 4e 70 10 bf b3 b7 e4 be
       -0.56421363 -0.446714

classifier.5.running_mean f4 [150]
000000 0c 80 63 3a 84 a2 21 bf fb d4 66 bf d5 d9 93 bf
       0.0008678443 -0.63138604 -0.9016873 -1.1550852
000010 e3 43 b7 bd ae 4a 52 bf 8a 68 1d 3f 98 bd 33 bf
       -0.08948495 -0.821452 0.6148764 -0.7021117
000020 c2 94 3e bf 1e 80 5d bf 04 1f 1c bf 11 48 2e bf
       -0.74445736 -0.86523616 -0.60984826 -0.68078715
000030 90 8a 8e bf da 87 24 bf 03 e8 53 bf 9c db 88 bf
       -1.1136036 -0.64269793 -0.82775897 -1.069202
000040 f7 76 90 bf 3f f5 1b bf 88 27 81 bf 99 27 27 bf
       -1.1286305 -0.6092109 -1.0090189 -0.65294796
000050 de 6a 62 bf e6 eb fb be 88 32 9b bf a3 59 6f bf
       -0.88444316 -0.49203414 -1.2124796 -0.9349615
000060 37 2d 79 bf c9 96 99 bf 72 49 83 bf a3 af 96 bf
       -0.9733462 -1.1999141 -1.0256789 -1.177235
000070 8f 6e dd be 29 14 7b bf 44 3e 7d bf f8 e8 8f bf
       -0.43248412 -0.98077637 -0.98923135 -1.1242971
000080 91 1f 8e bf 13 6b 73 bf 60 70 88 bf de ea 46 bf
       -1.1103383 -0.9508526 -1.0659294 -0.7770213
000090 9f c1 dc be b0 1f fe be be 0d 67 bf 48 32 d8 bc
       -0.4311647 -0.4963355 -0.90255344 -0.026391163
0000a0 3a 58 80 bf ec 93 64 bf 43 7a 20 be 6a 32 9d bf
       -1.0026925 -0.8928821 -0.15671639 -1.228101
0000b0 bd a6 4c bf d8 1d 82 bf 17 03 61 bf 70 8a 30 bf
       -0.7994192 -1.0165358 -0.8789534 -0.6896124
0000c0 eb 0c 68 be 24 f3 36 bf e1 62 0d bf 61 56 87 bf
       -0.22661178 -0.71464753 -0.55229 -1.0573236
0000d0 f3 bf 1f bf 82 71 6d bf 24 39 54 bf 8c 9f 82 bf
       -0.62402266 -0.92751324 -0.8289969 -1.020494
0000e0 54 82 51 bf ee f4 36 bf e3 a0 92 bf a5 ed 6e bf
       -0.8183949 -0.71467483 -1.1455349 -0.93331367
0000f0 02 c8 98 bf 6e d8 3f bf 8c 15 6d bf df 23 7b bf
       -1.1936038 -0.7493962 -0.92611 -0.9810161
000100 ce 01 8b bf fa 15 63 bf 28 e1 3e bf 0f 11 06 3e
       -1.0859926 -0.8870541 -0.7456231 0.13092445
000110 ee 94 58 bf db 4b ba bd b2 9e 8a bf 71 4d 94 bf
       -0.8460225 -0.090964995 -1.082968 -1.1586133
000120 7f f4 86 bf 06 f1 1f bf 60 48 8b bf 10 c0 67 bf
       -1.0543364 -0.6247715 -1.0881462 -0.9052744
000130 7d 33 19 bf 03 96 56 bf 66 8c 75 bf 74 ff 56 bf
       -0.5984419 -0.8382265 -0.95917356 -0.8398354
000140 bf 59 77 bf 34 ed 2a bf 4d a0 82 bf a6 aa 31 bf
       -0.96621317 -0.66768193 -1.020517 -0.69401014
000150 8b 70 3f bf ec 34 4f bf 26 42 86 bf 67 46 6e bf
       -0.747811 -0.8094013 -1.0488937 -0.93076175
000160 a6 da 5f bf cb 20 67 bf 44 27 96 bf ad e5 5e bf
       -0.87443006 -0.90284413 -1.1730733 -0.8706921
000170 8e a9 0b be ab ff 66 bf 97 3f 77 bf ee 48 52 be
       -0.13638899 -0.9023387 -0.96581405 -0.20535633
000180 b4 93 89 bf 41 f0 07 bf e6 67 2f bf c9 63 88 bf
       -1.07482 -0.53100973 -0.6851791 -1.0655452
000190 6a bb 5b bf 3a ae 2b bf 24 d2 3a bf 3e 53 da bd
       -0.85832846 -0.67062724 -0.729769 -0.106604084
0001a0 16 67 87 bf e0 72 a2 be 07 b0 a7 bf dd 2f ee be
       -1.0578334 -0.31728268 -1.3100594 -0.46520892
0001b0 b1 f6 6b bf 0b 55 47 bf 20 13 82 be c1 f4 26 bf
       -0.92173296 -0.7786414 -0.25405216 -0.65217215
0001c0 c3 9b a6 bf 65 4e ab bf 20 21 ec be bb d5 44 bf
       -1.3016285 -1.3383299 -0.46119022 -0.76888627
0001d0 29 61 38 bf 2f 2a 11 bf c8 1b 99 bf 1f 7d 6a bf
       -0.72023255 -0.5670499 -1.1961603 -0.9159717
0001e0 95 08 fe be 7b 70 36 bf 78 fa 76 be d2 1e 92 bf
       -0.49615923 -0.7126538 -0.24118984 -1.1415656
0001f0 e5 4a 74 bf 89 c7 4d bf b0 ee 83 bf 72 78 84 bf
       -0.9542678 -0.8038259 -1.0307217 -1.0349257
000200 c1 05 94 bf 1d 14 9e bf 72 ca 8a bf 0b 4a 67 bf
       -1.1564256 -1.2349888 -1.0843031 -0.90347356
000210 43 90 93 bf 02 ca 3f be 9d 1f 50 be 56 e4 90 be
       -1.15284 -0.18729404 -0.2032456 -0.28299206
000220 cf c6 58 bf b1 74 3f bf 2c 7d 48 bf 20 a7 63 bf
       -0.8467836 -0.7478743 -0.78316 -0.8892689
000230 d6 86 4b bf d5 d3 17 3e c5 f2 6b bf 24 7f 3f bf
       -0.7950262 0.14826901 -0.9216731 -0.74803376
000240 1c 27 36 bf 69 48 10 3d a5 d6 c2 be 85 d5 73 be
       -0.71153426 0.035225306 -0.38054386 -0.2381192
000250 05 29 54 bf 0c fe 9c 3d
       -0.8287509 0.07665643
