ckpt/MAP_CAM/7/best_loss_BEST1.ckpt (torch, 288160 bytes, 19 tensors)

classifier.0.weight f4 [150, 72]
0	0x3d14a818	0.03629312
1	0xbd25bb87	-0.040462043
2	0xbd55eea7	-0.05222955
3	0x3d12976d	0.035788942
4	0x3d08f02b	0.033432167
5	0x3d674f8d	0.05647235
6	0x3f01cbb4	0.5070145
7	0xbda9b787	-0.08286958
8	0xbe5402ce	-0.20704195
9	0x3d97026c	0.07373509
10	0xbd0c98aa	-0.03432528
11	0xbdf7663c	-0.120800465
12	0xbda53703	-0.08067133
13	0xbd4a9c3f	-0.049465414
14	0x3df013cb	0.11722525
15	0x3e8f43db	0.27981457
16	0x3b046902	0.002020419
17	0x3d6983e1	0.057010535
18	0xbc816d28	-0.01579912
19	0xbe0fea6e	-0.14054272
20	0xbcfd2994	-0.030903615
21	0x3c81a233	0.015824413
22	0x3cc3b45d	0.023889715
23	0xbe0bd797	-0.1365646
24	0xbcc0739c	-0.023492627
25	0xbe361182	-0.17780116
26	0xbd97b0a2	-0.07406737
27	0x3d47f3ea	0.0488166
28	0x3e833366	0.2562515
29	0x3e42719f	0.18988656
30	0x3de34112	0.110963956
31	0x3d6f5372	0.05842919
32	0xbe48b924	-0.19601876
33	0xbd0a08dc	-0.033699855
34	0xbce2f2cc	-0.027703665
35	0xbbd74481	-0.0065694456
36	0x3dab0c9c	0.083520144
37	0xbeb1b8b1	-0.3471122
38	0x3ea0bf17	0.3139579
39	0x3d9b4305	0.07581142
40	0xbe4087a3	-0.18801741
41	0x3d5f7d2c	0.054562733
42	0x3dd4e0b8	0.10394424
43	0xbe078759	-0.13235225
44	0x3e385d13	0.18004255
45	0xbe5fdc8f	-0.2186148
46	0x3df0b078	0.11752409
47	0x3e80dbf1	0.25167802
48	0xbbd42fb5	-0.0064754137
49	0x3e36198e	0.17783186
50	0x3d48bef6	0.04901024
51	0xbb089ba5	-0.0020844724
52	0x3d496afd	0.049174298
53	0x3e15a152	0.1461232
54	0xbeb6dc49	-0.3571494
55	0xbe1ba954	-0.15201312
56	0xbd13dfab	-0.03610198
57	0xbe1ab0f6	-0.15106568
58	0xbcea4cac	-0.028601013
59	0x3e0b0610	0.13576531
60	0xbe812315	-0.25222078
61	0x3c1c171c	0.009526994
62	0x3c9ad0a7	0.018898321
63	0xbd568564	-0.052373305
64	0xbdc23d15	-0.09484307
65	0x3ddbe927	0.1073783
66	0xbe0e381b	-0.1388859
67	0xbe7b61ba	-0.24548998
68	0x3de4954d	0.11161289
69	0xbe015ec5	-0.12633808
70	0xbc8aa0d3	-0.01692239
71	0x3ec768ae	0.38947052
72	0xbdaa11fb	-0.08304211
73	0xbde0f4b1	-0.10984171
74	0x3debf1d9	0.11520738
75	0xbbb6ee87	-0.005582634
76	0x3e11a5bb	0.14223377
77	0x3d5362c1	0.05160785
78	0xbd9a1ee3	-0.075254224
79	0xbd125d00	-0.035733223
80	0x3e1bbcb8	0.15208709
81	0x3da8f7e1	0.08250404
82	0x3d7a6de8	0.06113997
83	0x3d01f7fa	0.03173063
84	0x3d86a70a	0.06574829
85	0xbd28e4f2	-0.041233964
86	0x3de68b1c	0.11257002
87	0x3e1cffc6	0.15331945
88	0x3e342acf	0.17594455
89	0xbd972016	-0.07379167
90	0x3e420f11	0.1895106
91	0x3d0e2b40	0.034709215
92	0x3bfb54a2	0.007670001
93	0x3bb01b8b	0.005374377
94	0xbe804bb4	-0.25057757
95	0xbe082c60	-0.13298178
96	0x3d5e0551	0.05420429
97	0x3d843f62	0.06457402
98	0xbd7d5032	-0.06184406
99	0xbdd715c9	-0.10502202
100	0xbe0fc09e	-0.14038321
101	0x3cec3cfe	0.028837677
102	0x3e5248c0	0.20535564
103	0xbe3fe659	-0.18740214
104	0x3e1f7324	0.15571266
105	0xbd83c368	-0.06433755
106	0xbd366e8a	-0.044539012
107	0xbdb5f2c3	-0.08884194
108	0xbe22ef59	-0.15911616
109	0xbd26f202	-0.04075814
110	0x3e3b3794	0.1828292
111	0xbee14e41	-0.44005015
112	0xbcd8e6f3	-0.026477313
113	0xbda58e40	-0.08083773
114	0xbe5005f7	-0.20314775
115	0xbee74736	-0.45171517
116	0xbcc23bb9	-0.023710119
117	0xbc46016c	-0.0120853
118	0x3e56e5b3	0.20986061
119	0xbcb05419	-0.021524476
120	0xbdc19204	-0.094516784
121	0x3c95a858	0.01826875
122	0xbc8e76c5	-0.017390618
123	0x3cf76d21	0.030203404
124	0xbd8185a5	-0.06324319
125	0xbe3c19b1	-0.18369175
126	0x3d03ad59	0.03214774
127	0xbd8eeb7e	-0.0697851
128	0x3d3a3af4	0.04546638
129	0x3db50fef	0.0884093
130	0x3bb98ee9	0.005662788
131	0x3dd08b59	0.101828285
132	0x3f204ed3	0.62620276
133	0x3f2d968f	0.6780786
134	0x3e021c4e	0.1270611
135	0x3dde825b	0.10864707
136	0xbd2b7a2e	-0.041864567
137	0x3de64e83	0.11245444
138	0xbd6a153c	-0.057149157
139	0x3d528c8e	0.051403575
140	0x3cf6474b	0.030063292
141	0x3e6e7c1b	0.2328953
142	0x3ea20c13	0.31649837
143	0x3da6ac94	0.081383854
144	0xbd16b334	-0.036791995
145	0x3c1440a5	0.009048616
146	0xbd43676f	-0.047706064
147	0x3da2e514	0.079538494
148	0xbe2624ea	-0.16225019
149	0xbd9ad6aa	-0.07560475
150	0x3e52f32e	0.20600578
151	0x3e30a3b2	0.17249945
152	0xbdcfc004	-0.10144046
153	0x3dd48e26	0.10378675
154	0xbde9e95b	-0.11421462
155	0xbd55b20d	-0.052171756
156	0x3d85b957	0.065294914
157	0x3dfa1fa8	0.12213069
158	0x3da28820	0.0793612
159	0xbd50ce3a	-0.050977923
160	0x3cf331af	0.029686777
161	0xbcd356bd	-0.025798196
162	0x3e1ea00f	0.15490745
163	0x3df064cd	0.11737976
164	0xbd8b2b6a	-0.0679539
165	0x3d214399	0.039371107
166	0x3dfb62e7	0.122747235
167	0xbe8e64f0	-0.27811384
168	0x3da6e39b	0.08148881
169	0xbd10a8f7	-0.035317387
170	0xbe2995bd	-0.16561027
171	0xbb9e07e7	-0.0048227194
172	0x3da3ffe7	0.08007794
173	0x3e1b21db	0.15149634
174	0x3c1c4d62	0.009539934
175	0xbe689858	-0.22714365
176	0xbe29fa1b	-0.16599314
177	0xbda7f264	-0.08200529
178	0x3d7e6857	0.062111225
179	0x3decaf39	0.115568586
180	0x3e2dccba	0.16972628
181	0xbd575e30	-0.05258006
182	0xbe0be6e7	-0.13662301
183	0x3e4d679f	0.2005906
184	0x3f132b2e	0.5748776
185	0x3dffa44e	0.124825105
186	0x3b9028c3	0.0043993904
187	0xbe99fb14	-0.3007437
188	0xbd85c9a3	-0.065326
189	0xbd9368c1	-0.071977146
190	0x3e4cbc93	0.1999381
191	0x3db1ddc8	0.086848795
192	0x3d998a34	0.07497063
193	0x3d972ff6	0.07382195
194	0x3d5bea34	0.05369015
195	0xbd5f0b69	-0.05445424
196	0xbe20a456	-0.15687689
197	0xbc86343d	-0.016382331
198	0xbeff81de	-0.49903768
199	0x3cdd7358	0.02703254
200	0x3dc4c04a	0.09606989
201	0x3e215d32	0.15758207
202	0xbe33f7eb	-0.17575042
203	0xba4a9302	-0.00077275943
204	0x3d79874e	0.060920052
205	0x3e99c967	0.3003647
206	0x3e5789d9	0.21048678
207	0x3eff1ae4	0.49825203
208	0x3d9864de	0.07441114
209	0x3d5859bd	0.052819956
210	0xbd8dacc7	-0.0691772
211	0x3e026170	0.12732482
212	0x3e563ca4	0.2092157
213	0xbdcca102	-0.09991647
214	0x3e26416e	0.16235897
215	0x3d5b2eae	0.053511314
216	0xbda304af	-0.07959878
217	0x3cdf8628	0.02728565
218	0xbc5a0923	-0.013307842
219	0x3db871fc	0.09006116
220	0xb6f933cc	-7.426808e-06
221	0x3d13df58	0.03610167
222	0x3d63df7d	0.055633057
223	0xbeb7cc6a	-0.35898143
224	0xbdd96f1d	-0.10616896
225	0x3cd9ab0c	0.02657082
226	0x3b50adce	0.0031841877
227	0x3d2566fe	0.040381424
228	0x3dc94456	0.09827487
229	0xbce24073	-0.027618622
230	0xbe414680	-0.1887455
231	0xbe9f5362	-0.31118304
232	0xbc93d1cd	-0.018044377
233	0x3dce6a52	0.10078873
234	0xbd2ceaf1	-0.042216245
235	0xbd8b1d37	-0.06792682
236	0xbe0b603f	-0.13610934
237	0x3e35d806	0.17758188
238	0x3e3b4504	0.18288046
239	0xbdb1c26a	-0.0867966
240	0x3dde13d7	0.10843628
241	0x3db951e4	0.090488225
242	0x3bd656a4	0.00654109
243	0x3c43b044	0.0119438805
244	0xbe582f94	-0.211119
245	0x3e8c13e9	0.2735894
246	0xbea1e24a	-0.31617957
247	0xbf41e6e8	-0.7574296
248	0xbd4584fb	-0.048222523
249	0xbe0a1bd1	-0.13487174
250	0x3c85f250	0.016350895
251	0x3e61471a	0.2199978
252	0xbdcd2a52	-0.100178376
253	0x3e0340b6	0.12817654
254	0xbed3cb68	-0.41366124
255	0xbf168850	-0.58801746

classifier.0.bias f4 [150]
0	0x3dc4be21	0.09606577
1	0x3d7b4f7f	0.06135511
2	0xbc81a3be	-0.015825149
3	0x3da563a9	0.08075649
4	0x3dec2c0d	0.115318395
5	0x3d2b7466	0.041859053
6	0x3d7a30f6	0.06108185
7	0x3d9711b5	0.07376424
8	0x3d87c62f	0.066295974
9	0x3d355bd2	0.04427702
10	0xbd2c0f95	-0.042007048
11	0xbdfdb578	-0.12388128
12	0x3d7a71cb	0.061143678
13	0xbb76ad15	-0.0037639786
14	0xbd8077bd	-0.06272838
15	0x3e0b1386	0.13581666
16	0xbdc8b0c4	-0.0979934
17	0x3d65d25f	0.05610883
18	0x3e2e0656	0.16994604
19	0x3a1385a4	0.0005627519
20	0xbceb3a8c	-0.02871444
21	0x3e03a54c	0.12856025
22	0xbdf15a42	-0.117847934
23	0x3e1f031a	0.15528527
24	0xbd2bf9eb	-0.041986387
25	0x3e522f2a	0.20525804
26	0x3e01b5c2	0.12666991
27	0x3d4dccda	0.05024419
28	0x3d2032bf	0.039110895
29	0xbe4dce77	-0.20098291
30	0xbe1ebc16	-0.15501437
31	0x3e2bcdee	0.16777775
32	0x3cd225a8	0.025652722
33	0x3d439e19	0.047758196
34	0x3ca68ffd	0.02033233
35	0xbdc0daf3	-0.09416761
36	0xbe32215a	-0.17395535
37	0x3de1a184	0.11017135
38	0x3d621d0a	0.055203475
39	0x3e012bca	0.1261436
40	0xbdb2f8ef	-0.087388866
41	0x3d8528d7	0.0650193
42	0x3e112338	0.14173591
43	0x3e33c667	0.17556153
44	0xbd77a004	-0.060455337
45	0xbe085951	-0.13315322
46	0x3e1f0460	0.15529013
47	0x3d2e5177	0.04255816
48	0xbd3a834b	-0.045535367
49	0x3ca5cfea	0.020240743
50	0xbe448619	-0.19191779
51	0xbba4b01f	-0.005025878
52	0x3dd3016a	0.10303004
53	0x3dc90bd7	0.098167114
54	0xbd923e1f	-0.07140755
55	0xbded8330	-0.11597288
56	0xbbedbecd	-0.0072554112
57	0x3d47a6d6	0.04874309
58	0x3dd8a980	0.105792046
59	0xbd2c4230	-0.04205531
60	0x3dff6a5b	0.124714576
61	0x3d518194	0.051148966
62	0x3c86e410	0.01646617
63	0x3da42f5c	0.080168456
64	0xbadaef59	-0.0016703411
65	0xbcb41125	-0.021980831
66	0x3d43263a	0.047643878
67	0xbcb8c556	-0.022555035
68	0xbdb981ce	-0.090579614
69	0x3e82f45a	0.2557705
70	0x3d04bd6a	0.0324072
71	0x3cfd3d14	0.030912913
72	0xbce77f60	-0.02825898
73	0x3df1c3ae	0.11804901
74	0xbdaea096	-0.08526723
75	0x3dc52dd0	0.09627879
76	0x3bf2cd2c	0.0074097123
77	0xbd0d84ce	-0.03455048
78	0xbcc4fbe9	-0.024045901
79	0x3dc67d8a	0.096919134
80	0x3df5b15c	0.11996719
81	0x3d027c40	0.031856775
82	0x3e1040da	0.14087239
83	0xbd831283	-0.06400015
84	0xbd590f8d	-0.052993346
85	0x3cd99793	0.026561534
86	0xbe5a4a78	-0.2131747
87	0xbc33ba3f	-0.0109696975
88	0xbd60d0ef	-0.054886755
89	0x3c432358	0.011910282
90	0x3dc0d9a9	0.094165154
91	0xbe7edf51	-0.24889876
92	0xbe2b1de3	-0.1671062
93	0xbe82856f	-0.25492427
94	0xbdc79033	-0.09744301
95	0xbc8142e0	-0.015778959
96	0xbd4685f8	-0.048467606
97	0xbda0eba5	-0.078574456
98	0x3dc405c4	0.09571412
99	0x3ec296e8	0.38005757
100	0x3e2c37e5	0.16818197
101	0xbe323135	-0.17401583
102	0x3d94d75b	0.07267638
103	0xbe0599bc	-0.13046926
104	0x3e666aaf	0.22501634
105	0xbb23af1c	-0.00249762
106	0xbbf35ca9	-0.0074268174
107	0xbd74cfe7	-0.059768584
108	0xbc8e740e	-0.017389324
109	0xbe0b70c6	-0.13617238
110	0x3dddf7c3	0.108382724
111	0xbe03de14	-0.12877685
112	0xbe43fbc7	-0.19139014
113	0xbe35d48c	-0.17756861
114	0xbda283cd	-0.07935295
115	0xbdff55b1	-0.12467516
116	0x3e1fd3df	0.15608166
117	0xbbe3e576	-0.006954844
118	0x3e249bf6	0.1607512
119	0xbd8ff881	-0.0702982
120	0x3deca4bd	0.11554859
121	0xbdbe95f4	-0.09305945
122	0xbde23a30	-0.11046255
123	0xbcbe1854	-0.02320496
124	0x3ca5751f	0.02019745
125	0x3c214424	0.009842906
126	0xbce449da	-0.027867246
127	0x3e1077e3	0.14108233
128	0xbe4eb16c	-0.20184869
129	0xbbf15759	-0.007365149
130	0x3cb0224c	0.021500729
131	0x3d1dcba0	0.03852427
132	0x3d3ed876	0.046593152
133	0xbc6c0b87	-0.014407045
134	0xbc5a05ac	-0.013307016
135	0x3d7710c6	0.06031873
136	0xbe15942c	-0.14607304
137	0xbcaf12cd	-0.02137127
138	0x3c2fa4d2	0.010720449
139	0x3da4c43c	0.08045241
140	0xbb8f0e1f	-0.004365697
141	0x3e07e493	0.13270788
142	0x3b06a0d6	0.0020542643
143	0x3e3afb9f	0.18260048
144	0x3c22e9cf	0.00994344
145	0x3d9dd8d4	0.07707372
146	0x3d935503	0.07193949
147	0x3d3eedc0	0.046613455
148	0x3d5a2733	0.05326004
149	0xbe17c60d	-0.14821644

classifier.1.weight f4 [150]
0	0x3f658395	0.89653903
1	0x3f863282	1.0484164
2	0x3f6a43c4	0.9150965
3	0x3f5ca7ff	0.8619384
4	0x3f8822eb	1.0635656
5	0x3f81bda5	1.0136
6	0x3f7378e9	0.9510637
7	0x3f7c0f17	0.98460525
8	0x3f5ecd2a	0.87031806
9	0x3f84db82	1.0379488
10	0x3f814de2	1.0101893
11	0x3f7a67fe	0.9781493
12	0x3f749f27	0.9555535
13	0x3f7be368	0.9839387
14	0x3f4b754e	0.7947587
15	0x3f630698	0.88681936
16	0x3f629b32	0.8851806
17	0x3f4de17a	0.80422175
18	0x3f6250a8	0.8840432
19	0x3f67015d	0.90236455
20	0x3f6a4e49	0.91525704
21	0x3f759c3d	0.95941526
22	0x3f650da4	0.8947394
23	0x3f6768c4	0.90394235
24	0x3f57de7e	0.8432387
25	0x3f7db09d	0.99097615
26	0x3f6966b3	0.9117233
27	0x3f770c77	0.96503395
28	0x3f76922d	0.96316797
29	0x3f73e0ea	0.95265067
30	0x3f56811f	0.83790773
31	0x3f765e90	0.9623804
32	0x3f89a57f	1.075363
33	0x3f6f92a5	0.93583137
34	0x3f84ec2d	1.0384575
35	0x3f77d942	0.96815884
36	0x3f856206	1.0420539
37	0x3f7a2d12	0.9772502
38	0x3f5f0c45	0.87128097
39	0x3f643dad	0.8915661
40	0x3f6fff4e	0.9374894
41	0x3f6acaac	0.917155
42	0x3f82c947	1.0217675
43	0x3f6f397a	0.9344708
44	0x3f7ea79f	0.9947452
45	0x3f6b53bb	0.9192464
46	0x3f83d5d8	1.0299635
47	0x3f6b1823	0.91833705
48	0x3f702096	0.9379972
49	0x3f77576f	0.9661779
50	0x3f82495e	1.017864
51	0x3f6ed3cf	0.93291944
52	0x3f811f1a	1.0087616
53	0x3f580237	0.8437838
54	0x3f83db27	1.0301255
55	0x3f7c73cc	0.9861419
56	0x3f65c974	0.8976052
57	0x3f5a0d4d	0.85176545
58	0x3f5cb769	0.8621736
59	0x3f773edf	0.9658031
60	0x3f619f0c	0.8813331
61	0x3f79e0d7	0.97608703
62	0x3f7137c9	0.94225746
63	0x3f42c327	0.7607903
64	0x3f664f1e	0.89964473
65	0x3f7609fd	0.9610899
66	0x3f86f7ba	1.054435
67	0x3f6f8993	0.93569297
68	0x3f7744fc	0.96589637
69	0x3f76a126	0.96339643
70	0x3f8f93ca	1.1216977
71	0x3f593ed0	0.8486147
72	0x3f5cfdb1	0.863246
73	0x3f82f054	1.0229592
74	0x3f75d76f	0.9603185
75	0x3f845ae3	1.0340236
76	0x3f721095	0.9455655
77	0x3f62d192	0.8860103
78	0x3f51d67b	0.81967896
79	0x3f81f62b	1.015325
80	0x3f71eccf	0.94501966
81	0x3f64b3a4	0.8933661
82	0x3f7f6d75	0.99776393
83	0x3f7c211b	0.98488015
84	0x3f63f0d0	0.89039326
85	0x3f609d33	0.87739867
86	0x3f728155	0.94728595
87	0x3f6c8c79	0.92401844
88	0x3f7abc0c	0.97943187
89	0x3f5b29d1	0.8561068
90	0x3f643e4c	0.8915756
91	0x3f867aa7	1.050618
92	0x3f7d96c0	0.9905815
93	0x3f59b41a	0.8504044
94	0x3f8508b7	1.0393285
95	0x3f878aa8	1.058919
96	0x3f72a68c	0.9478538
97	0x3f7abb4d	0.9794205
98	0x3f5f1897	0.87146896
99	0x3f815875	1.010512
100	0x3f74a7e8	0.95568705
101	0x3f6b565a	0.9192864
102	0x3f7e95e8	0.9944749
103	0x3f76d1dd	0.96413976
104	0x3f716ec8	0.94309664
105	0x3f81945a	1.0123398
106	0x3f767bed	0.96282846
107	0x3f80b163	1.0054134
108	0x3f734fbc	0.9504354
109	0x3f5da795	0.86583835
110	0x3f7aff67	0.98045963
111	0x3f88da8e	1.0691698
112	0x3f7eacfd	0.9948271
113	0x3f643bfd	0.89154035
114	0x3f7d0def	0.98849386
115	0x3f6b37e7	0.91882175
116	0x3f8010f4	1.0005174
117	0x3f785003	0.9699709
118	0x3f6b4fbf	0.9191856
119	0x3f6a483e	0.9151648
120	0x3f769f8b	0.96337193
121	0x3f521222	0.8205892
122	0x3f7c9bbc	0.9867513
123	0x3f802f2b	1.0014395
124	0x3f5c4d8a	0.86055815
125	0x3f395dfe	0.72409046
126	0x3f7e5321	0.99345595
127	0x3f85ad7a	1.0443566
128	0x3f7be4b4	0.9839585
129	0x3f7a9236	0.9787935
130	0x3f7f44d1	0.9971438
131	0x3f7c2eb8	0.9850879
132	0x3f6f3b4c	0.93449855
133	0x3f7f69f3	0.9977104
134	0x3f604b5b	0.87614983
135	0x3f8056dc	1.0026507
136	0x3f8e08b5	1.1096407
137	0x3f673c06	0.90325963
138	0x3f4e3d24	0.80562043
139	0x3f6e8cc9	0.9318357
140	0x3f769cdd	0.96333104
141	0x3f5a2e31	0.8522673
142	0x3f66c7b8	0.90148497
143	0x3f6a6f50	0.915761
144	0x3f86c02f	1.05274
145	0x3f84efec	1.0385718
146	0x3f665225	0.8996909
147	0x3f7045ea	0.9385668
148	0x3f724d1a	0.946489
149	0x3f584a5f	0.8448848

classifier.1.bias f4 [150]
0	0xbcc0c0a4	-0.023529358
1	0xbe4dab4f	-0.2008488
2	0xbea2ae07	-0.31773397
3	0xbe9c8910	-0.3057332
4	0xbe55094f	-0.20804332
5	0xbec82e14	-0.39097655
6	0xbe8e8ad9	-0.27840307
7	0xbf0a8827	-0.54114
8	0xbe8e80eb	-0.27832732
9	0xbe71a393	-0.23597555
10	0xbe6cebbb	-0.23136799
11	0xbec6d720	-0.38836002
12	0xbeb7e2ce	-0.35915226
13	0xbea098b2	-0.31366497
14	0xbe720658	-0.23635232
15	0xbe47408b	-0.19458215
16	0xbe373b18	-0.17893636
17	0xbe6c75e3	-0.23091845
18	0xbe96daa7	-0.29463693
19	0xbef2fc91	-0.47458318
20	0xbeaaee6c	-0.33385026
21	0xbea1795f	-0.3153791
22	0xbe848cac	-0.25888574
23	0xbe628556	-0.22121176
24	0xbe84c6cc	-0.2593292
25	0xbea14112	-0.31494957
26	0xbec45ce4	-0.3835212
27	0xbe66a10a	-0.22522369
28	0xbe977ab6	-0.2958581
29	0xbe3b0db8	-0.18266952
30	0xbf2a2feb	-0.66479367
31	0xbe642453	-0.22279482
32	0xbebb1510	-0.36539507
33	0xbec22828	-0.37921262
34	0xbea827e2	-0.32842928
35	0xbe9b8385	-0.3037378
36	0xbec25229	-0.37953308
37	0xbe9fe84c	-0.31231916
38	0xbe5f0ae5	-0.217815
39	0xbe9725e9	-0.2952111
40	0xbe373efa	-0.17895117
41	0xbe9cd3f9	-0.30630472
42	0xbe8a7a76	-0.27046555
43	0xbed8370f	-0.42229506
44	0xbf398c7f	-0.72480005
45	0xbe69b712	-0.22823742
46	0xbea4a264	-0.32155144
47	0xbe9f41e6	-0.31104964
48	0xbeb79596	-0.35856313
49	0xbece8755	-0.40337625
50	0xbea7d94d	-0.32782975
51	0xbe6f1969	-0.23349537
52	0xbe70d4ba	-0.23518649
53	0xbea9b5a7	-0.33146402
54	0xbe96cb0c	-0.29451787
55	0xbef27fb3	-0.47363052
56	0xbe44747d	-0.19185062
57	0xbe913f9f	-0.28368852
58	0xbe5bcc78	-0.21464717
59	0xbe2d5f4a	-0.16930881
60	0xbec168c5	-0.37775245
61	0xbeb6e157	-0.35718796
62	0xbee0458b	-0.43803057
63	0xbe46a04a	-0.19397083
64	0xbe847c90	-0.25876284
65	0xbe809e62	-0.25120836
66	0xbf02c342	-0.5107919
67	0xbed7b765	-0.42132106
68	0xbe7909da	-0.24320164
69	0xbeb825a2	-0.35966212
70	0xbeb05a66	-0.3444397
71	0xbece261b	-0.40263447
72	0xbe9d8011	-0.3076177
73	0xbe67d169	-0.22638477
74	0xbe4f59b0	-0.20249057
75	0xbed3649d	-0.412877
76	0xbea86f3c	-0.32897365
77	0xbe921edb	-0.28539166
78	0xbe9d0588	-0.30668283
79	0xbec1d2d2	-0.37856156
80	0xbebe9993	-0.37226543
81	0xbe7ab68b	-0.24483697
82	0xbe97c599	-0.29642943
83	0xbe232ce2	-0.1593509
84	0xbde109fd	-0.10988233
85	0xbee2d592	-0.44303566
86	0xbe32944f	-0.17439388
87	0xbe08a8b0	-0.13345599
88	0xbec7f72f	-0.39055774
89	0xbe1688be	-0.147006
90	0xbeb4de12	-0.35325676
91	0xbe4d67d1	-0.20059134
92	0xbea3af86	-0.3196985
93	0xbe9037d5	-0.28167596
94	0xbe9ca6f9	-0.3059614
95	0xbe1cf37c	-0.15327257
96	0xbed9f27a	-0.42567807
97	0xbeaf2f41	-0.3421574
98	0xbe78f57b	-0.24312393
99	0xbeb4eeb1	-0.35338357
100	0xbe601110	-0.21881509
101	0xbeab2613	-0.33427486
102	0xbea78b7f	-0.32723615
103	0xbe812863	-0.25226125
104	0xbe50a510	-0.20375466
105	0xbe665e1b	-0.22496836
106	0xbe974177	-0.29542133
107	0xbe87bde8	-0.26512074
108	0xbeb95c5d	-0.3620328
109	0xbed148ef	-0.40875956
110	0xbe7104e1	-0.23537017
111	0xbef4a2f8	-0.47780585
112	0xbe73cbc2	-0.23808196
113	0xbe78a48b	-0.24281518
114	0xbe8c4a17	-0.27400276
115	0xbe6233e0	-0.22090101
116	0xbf01f9cf	-0.507718
117	0xbec24dd4	-0.37950003
118	0xbeb38d7d	-0.35068884
119	0xbeeeba94	-0.46626723
120	0xbea3ad56	-0.31968182
121	0xbefa5e2e	-0.48899978
122	0xbe53a0f5	-0.20666869
123	0xbe872dbe	-0.26402086
124	0xbebe1d49	-0.37131718
125	0xbec56132	-0.38550717
126	0xbea7d12f	-0.32776782
127	0xbec86945	-0.39142814
128	0xbe323d22	-0.17406133
129	0xbe11fd74	-0.14256841
130	0xbe58cae9	-0.21171154
131	0xbf0a08ef	-0.5391988
132	0xbe96b080	-0.29431534
133	0xbe88df3e	-0.2673282
134	0xbe9241d0	-0.28565836
135	0xbe815c42	-0.252657
136	0xbe4331f9	-0.19062032
137	0xbebb709a	-0.36609346
138	0xbe8b98fb	-0.27265152
139	0xbedbab8d	-0.4290432
140	0xbeca23e6	-0.39480513
141	0xbe6b1d6c	-0.22960442
142	0xbe6c663a	-0.23085871
143	0xbe9947a2	-0.29937464
144	0xbec14e31	-0.37754968
145	0xbe514b63	-0.20438914
146	0xbe42dc3c	-0.19029325
147	0xbeaf3127	-0.34217188
148	0xbe7bd88b	-0.24594323
149	0xbe063e60	-0.13109732

classifier.1.running_mean f4 [150]
0	0x3c10d1b3	0.008839059
1	0x3db974fa	0.09055515
2	0x3d944dd9	0.07241411
3	0x3ca59194	0.020211019
4	0x3e2d867a	0.1694583
5	0x3e0c71bd	0.13715263
6	0x3e4eb0eb	0.20184676
7	0x3caf938d	0.021432662
8	0x3cf9da36	0.030499559
9	0x3db4306c	0.08798298
10	0xbdf9154b	-0.121622644
11	0xbdaeafd8	-0.08529633
12	0x3e19bf59	0.150144
13	0x3e1ff2d6	0.15619978
14	0xbd9d3dfe	-0.0767784
15	0x3e1eff26	0.15527019
16	0x3d0e2dab	0.03471152
17	0x3d3ebae7	0.046564963
18	0x3e321548	0.1739093
19	0xbdb04f2e	-0.08608852
20	0x3d2cb73f	0.042166945
21	0x3e11fab6	0.14255795
22	0xbe4510a7	-0.19244634
23	0x3e619f3b	0.22033398
24	0xbe13fc8b	-0.14451806
25	0x3e48a02c	0.1959235
26	0x3dae136e	0.084998
27	0x3d832985	0.064044036
28	0x3e2ddb3f	0.16978167
29	0x3d4f3c6b	0.05059473
30	0xbe2b0061	-0.16699363
31	0x3e2e4b7e	0.17020985
32	0x3d97cedd	0.07412503
33	0x3e49bba4	0.19700485
34	0x3dc5337b	0.0962896
35	0xbd664201	-0.05621529
36	0xbe8a5a7b	-0.27022156
37	0x3d989bce	0.074515924
38	0x3c7d24f8	0.015450709
39	0xbbb729a9	-0.005589683
40	0xbea97cde	-0.3310308
41	0x3dbdb90c	0.092638105
42	0x3e4aef36	0.19817814
43	0x3e05aa9f	0.13053368
44	0xbdec1522	-0.11527468
45	0xbe1e4666	-0.15456542
46	0x3deb9dd8	0.11504716
47	0x3c9c591f	0.019085465
48	0xbcd83166	-0.026390743
49	0x3d5d7997	0.054071035
50	0xbd8d791a	-0.06907864
51	0xbdb19236	-0.08670466
52	0x3d836145	0.06415037
53	0x3dd132fe	0.10214804
54	0x3d28ed8a	0.04124216
55	0xbe3508de	-0.17679164
56	0xbdf27fe6	-0.11840801
57	0xbc19f5b6	-0.009396961
58	0x3dde09b1	0.10841692
59	0xbe0248db	-0.12723105
60	0x3d8deda1	0.0693009
61	0x3e4086c1	0.18801405
62	0x3ccce70b	0.025012514
63	0x3b71dce7	0.003690535
64	0x3c921ed2	0.017836962
65	0x3bf68a74	0.007523829
66	0x3cbbda00	0.022931099
67	0x3e0be530	0.13661647
68	0x3c3130fa	0.0108149
69	0x3ed8709e	0.4227342
70	0x3e13bb23	0.14426856
71	0x3bfc801e	0.0077057024
72	0x3df2529c	0.11832163
73	0x3cc15659	0.023600744
74	0xbdcb614d	-0.09930668
75	0x3d78a920	0.060708165
76	0xbd90bd8a	-0.07067402
77	0xbd9d581b	-0.076828204
78	0x3e010d67	0.12602769
79	0x3dc60143	0.096682094
80	0x3e2ba296	0.1676124
81	0xbd6be67a	-0.057592846
82	0x3dead3ba	0.11466165
83	0xbdee8d9d	-0.11648104
84	0xbe0b60f4	-0.13611203
85	0xbdbc53ad	-0.091956474
86	0xbe85a528	-0.26102567
87	0xbbf9a19e	-0.007618143
88	0x3dc8f218	0.09811801
89	0x3d956970	0.07295501
90	0x3d1d6ef9	0.03843591
91	0xbe196d66	-0.14983138
92	0xbdfda47b	-0.12384888
93	0xbe34fcac	-0.17674512
94	0xbc261a43	-0.010138097
95	0xbdcd9791	-0.100386746
96	0x3d1b0342	0.037844904
97	0x3da4ebd8	0.08052796
98	0x3e1fd053	0.15606813
99	0x3f1d0608	0.6133733
100	0x3e8c6155	0.27418008
101	0xbdaa0401	-0.08301545
102	0x3cd7729c	0.026299767
103	0x3ca175a7	0.019709421
104	0x3ee02f46	0.43786067
105	0x3dbb829a	0.0915577
106	0x3dbe50fe	0.09292792
107	0x3dc18472	0.0944909
108	0x3d10bd11	0.035336558
109	0xbe2d28fc	-0.16910166
110	0x3d961c4e	0.073296174
111	0xbe2189f6	-0.15775284
112	0xbdf7feef	-0.121091716
113	0x3e17c0a5	0.14819582
114	0xbdda92d4	-0.106725365
115	0x3d9a8a81	0.07545949
116	0x3deab209	0.11459739
117	0xbd47e038	-0.048797816
118	0x3e4a44ac	0.19752759
119	0x3d3f74ec	0.046742365
120	0xbc98c0b4	-0.018646576
121	0xbdda21e4	-0.106509954
122	0xbd14daec	-0.036341593
123	0x3d6eea8f	0.05832916
124	0xbdb3158d	-0.08744345
125	0xbe0cd4fe	-0.13753125
126	0xbda697a0	-0.08134389
127	0x3e41ff69	0.18945087
128	0xbe242e23	-0.16033225
129	0x3ce93745	0.028468737
130	0x3e33d975	0.17563422
131	0xbc8df84c	-0.017330311
132	0x3e2b9f04	0.16759878
133	0x3dffe598	0.124949634
134	0xbd7e2f4e	-0.062056832
135	0x3e03cc0e	0.1287081
136	0xbd79a028	-0.060943753
137	0xbe42555c	-0.18977875
138	0xbdc90067	-0.0981453
139	0x3e1466e1	0.1449237
140	0x3e16b45c	0.14717239
141	0x3d778c97	0.06043681
142	0x3b84b1ab	0.0040495
143	0x3e779493	0.2417777
144	0x3e37de2d	0.17955847
145	0x3db67dc7	0.08910709
146	0xbda1da5f	-0.07902979
147	0xbb6f9cbc	-0.0036561927
148	0x3decf920	0.11570954
149	0xbeb8b727	-0.36077234

classifier.1.running_var f4 [150]
0	0x3ba2f6db	0.004973275
1	0x3b2264ca	0.0024779313
2	0x3b04e13c	0.0020275852
3	0x3b0ab63a	0.0021165744
4	0x3be33372	0.006933623
5	0x3aa6eaa4	0.0012734723
6	0x3b0c007d	0.0021362596
7	0x3a7130c6	0.0009200688
8	0x3afb1b21	0.0019157865
9	0x3b25b262	0.0025283326
10	0x3a525f9d	0.0008025112
11	0x3a986ca3	0.0011629056
12	0x3a850f7f	0.0010151713
13	0x3aa4834d	0.0012551338
14	0x3bcea7f1	0.0063066413
15	0x3b4f7648	0.0031656194
16	0x3b36e485	0.0027907204
17	0x3b234978	0.0024915617
18	0x3b363be6	0.0027806698
19	0x3a57d845	0.0008233826
20	0x3b17ba93	0.0023151978
21	0x3aaac68c	0.0013029142
22	0x3b380b25	0.0028082815
23	0x3b210d89	0.0024574718
24	0x3acf804b	0.0015831081
25	0x3ab46912	0.0013764224
26	0x3ab641d6	0.0013905119
27	0x3ad6853b	0.001636661
28	0x3aae6616	0.001330557
29	0x3b1e1f10	0.0024127401
30	0x3ac0e748	0.0014717365
31	0x3b142585	0.0022605371
32	0x3ab96816	0.00141454
33	0x3a64e3f6	0.00087314786
34	0x3ab57ace	0.0013845803
35	0x3b2efafe	0.0026699896
36	0x3b4802fc	0.0030519357
37	0x3b0ba1b3	0.0021306097
38	0x3add94d8	0.0016905321
39	0x3b539193	0.0032282814
40	0x3bb0620c	0.005382782
41	0x3b0ca0f7	0.0021458247
42	0x3aa2efb6	0.0012431059
43	0x3a58658a	0.00082548766
44	0x3a1cf179	0.000598691
45	0x3b0ff650	0.0021966882
46	0x3aa8eef1	0.0012888593
47	0x3a8ad404	0.001059175
48	0x3ae647ba	0.0017568984
49	0x3a7ee68e	0.00097236864
50	0x3b0da628	0.002161393
51	0x3aabbd23	0.0013102632
52	0x3acada6c	0.0015476472
53	0x3a97af31	0.0011572597
54	0x3ab4a15b	0.0013780998
55	0x3ab8136e	0.0014043876
56	0x3b5e7572	0.0033944515
57	0x3b97ee0d	0.004636532
58	0x3b5476be	0.0032419409
59	0x3aaf7ab1	0.0013388005
60	0x3aadac6b	0.0013250237
61	0x3ad5fcfb	0.0016326004
62	0x3ad887b8	0.001651994
63	0x3b36aed1	0.0027875195
64	0x3b36d6ef	0.0027899106
65	0x3a713a25	0.00092020846
66	0x3a9003f7	0.001098751
67	0x3b77d891	0.0037818293
68	0x3b05d2a6	0.0020419746
69	0x3b056e60	0.0020359978
70	0x3abfe200	0.0014639497
71	0x3b0673cd	0.00205158
72	0x3ad1082d	0.0015947871
73	0x3af0454f	0.0018331202
74	0x3b4df5f4	0.0031427117
75	0x3ab84c6a	0.0014060859
76	0x3a65b520	0.00087626465
77	0x3bcf53d3	0.0063271313
78	0x3b03bccd	0.0020101548
79	0x3aea82f4	0.001789181
80	0x3a9c83b9	0.0011941112
81	0x3b94f6b3	0.0045460104
82	0x3aaabfc2	0.0013027119
83	0x3ad37e8e	0.0016135739
84	0x3b1e8ef5	0.0024194096
85	0x3ae7aa36	0.0017674628
86	0x3b3c0ff7	0.002869604
87	0x3b2a22ab	0.0025960605
88	0x3b4e8b11	0.0031515996
89	0x3aecc48d	0.0018063948
90	0x3a81e133	0.0009909034
91	0x3aa4c28b	0.0012570185
92	0x3b60f07c	0.0034323027
93	0x3b79e038	0.003812803
94	0x3acee226	0.001578395
95	0x3b09822e	0.0020982134
96	0x3aff4e70	0.0019478332
97	0x3aa11ca1	0.0012291857
98	0x3b4f6719	0.0031647144
99	0x3ae7f254	0.0017696121
100	0x3b79742c	0.0038063629
101	0x3acd95c7	0.0015684896
102	0x3a930b54	0.0011218586
103	0x3ad840dd	0.0016498823
104	0x3b8f707a	0.004377422
105	0x3bb3a80c	0.0054826792
106	0x3ad80eaa	0.0016483862
107	0x3ac427d1	0.001496548
108	0x3a2f8b17	0.0006696446
109	0x3b05503c	0.0020342013
110	0x3ba2ecfa	0.0049720975
111	0x39dba885	0.00041896492
112	0x3bbf8125	0.0058442526
113	0x3bf611a2	0.007509426
114	0x3aa1344e	0.0012298913
115	0x3b121d2f	0.0022295227
116	0x3a44e704	0.00075112307
117	0x3b12b171	0.0022383595
118	0x3ab2b923	0.0013635497
119	0x3b42dfae	0.0029735374
120	0x3ad0ed85	0.0015939927
121	0x3a9c5f1f	0.0011930204
122	0x3b4cf2e9	0.0031272715
123	0x3b0b5db0	0.002126556
124	0x3b43cb25	0.0029875722
125	0x3b31e9e6	0.002714747
126	0x3aa4c2ab	0.0012570223
127	0x3ac2fddc	0.0014876681
128	0x3b812863	0.003941582
129	0x3b2ab32d	0.0026046738
130	0x3b82441a	0.0039754035
131	0x3a40778e	0.0007342034
132	0x3b19fef1	0.0023497904
133	0x3b8132fc	0.0039428454
134	0x3aa0153e	0.0012213362
135	0x3bd532fc	0.006506322
136	0x3bb90656	0.0056465073
137	0x3b3bebe8	0.0028674547
138	0x3ad10912	0.0015948138
139	0x3b32f9b2	0.0027309475
140	0x3a393446	0.0007064979
141	0x3b2dab50	0.0026499815
142	0x3b60180c	0.003419402
143	0x3b05d784	0.0020422647
144	0x3acc50ac	0.0015588007
145	0x3b020322	0.0019838293
146	0x3b4b9591	0.003106449
147	0x3b07db74	0.002073017
148	0x3b016bad	0.0019748018
149	0x3b83a302	0.004017235

classifier.4.weight f4 [190, 150]
0	0xbde51364	-0.11185339
1	0x3d8dcd93	0.06923976
2	0x3d253141	0.040330175
3	0xbe646d27	-0.22307263
4	0xbb2aeb85	-0.0026080322
5	0xbd350021	-0.044189576
6	0xbc862d9e	-0.016379174
7	0xbc4e5916	-0.012594482
8	0xbd8dde2d	-0.06927142
9	0xbd2cb641	-0.042166
10	0xbd4725ea	-0.048620142
11	0x3b9f5e45	0.0048635327
12	0xbd0fdfbc	-0.03512548
13	0xbd40053c	-0.046879992
14	0xbd86e6cb	-0.06586989
15	0xbd12de03	-0.035856258
16	0x3b232860	0.0024895892
17	0xbd86ae7c	-0.06576249
18	0x3c3b3e16	0.011428377
19	0xbd3a7d57	-0.04552969
20	0xbd660eae	-0.056166343
21	0xbe867681	-0.26262286
22	0x3d6c471d	0.057685006
23	0xbba8768d	-0.0051410855
24	0xbd93f7de	-0.07225011
25	0xbca59e25	-0.02021701
26	0x3d0894fb	0.033345204
27	0x3d650857	0.055916157
28	0xbe03b554	-0.1286214
29	0x3ce61e95	0.028090755
30	0xbe1f0b0e	-0.15531561
31	0xbb8188c5	-0.003953072
32	0xbd0528b6	-0.032509528
33	0x3e07b57f	0.13252829
34	0x3e0a22c2	0.13489822
35	0x3e16fd6b	0.14745109
36	0x3d21646b	0.039402407
37	0x3ca85a2a	0.020550806
38	0x3c6cff27	0.01446513
39	0x3ba441f9	0.0050127474
40	0xbd2c01b3	-0.041993808
41	0x3c54994f	0.012976005
42	0xbde1f088	-0.11032206
43	0x3d8a9e41	0.06768466
44	0xbd5e27f6	-0.05423733
45	0xbdd52373	-0.10407152
46	0x3dbba39a	0.09162064
47	0xbc77e87b	-0.015131111
48	0xbd145fca	-0.036224164
49	0x3d28fc3e	0.041256182
50	0xbe1b989a	-0.15194932
51	0x3cba3638	0.022730932
52	0x3dfab579	0.122416444
53	0x3d9de9ce	0.0771061
54	0xbe059a5f	-0.13047169
55	0x3c8e8fa0	0.01740247
56	0xbcd774cd	-0.026300812
57	0x3c1fe7d1	0.009759859
58	0xbd17ba68	-0.037043005
59	0x3befee1b	0.0073220856
60	0xbdb64057	-0.088989906
61	0xbae2d93a	-0.001730717
62	0x3dd08fba	0.10183664
63	0xbdab6246	-0.083683535
64	0xbe8d5776	-0.2760579
65	0x3e182c4c	0.14860648
66	0x3dda2abc	0.10652682
67	0x3db6e026	0.08929472
68	0x3cd44cd6	0.025915544
69	0xbe64ea8c	-0.22355098
70	0xbd7d5152	-0.06184513
71	0x3d382ab3	0.044962596
72	0x3d2e46e9	0.042548094
73	0xbd675a50	-0.056482613
74	0x3ccb2e09	0.024802225
75	0x3d5d9592	0.05409772
76	0xbdb1af9f	-0.08676075
77	0xbd86fd49	-0.06591279
78	0xbd2992b4	-0.041399673
79	0x3e08c330	0.13355708
80	0xbe69afdd	-0.22820993
81	0x3c926108	0.017868534
82	0xbdc1a71b	-0.09455701
83	0xbe65339e	-0.22382972
84	0xbd5a3abe	-0.053278677
85	0xbc8525dd	-0.016253406
86	0xbc637270	-0.0138822645
87	0x3bc4354a	0.005987798
88	0x3cbda62f	0.023150532
89	0xbcbc3b4c	-0.022977494
90	0x3d84e559	0.06489057
91	0x3da5e0b5	0.080995
92	0xbd9b12ca	-0.07571943
93	0x3b833c4f	0.004004992
94	0xbdcb22de	-0.0991876
95	0xbd8a9c45	-0.06768087
96	0x3d0b265e	0.033972137
97	0xbe47182d	-0.19442816
98	0x3d1f161d	0.03883945
99	0x3bbea0ff	0.005817532
100	0x3d8d9671	0.0691346
101	0x3dfd85f4	0.12379065
102	0xbe59fe5e	-0.2128844
103	0xbdcee867	-0.10102921
104	0xbd464cff	-0.048413273
105	0xbcdc1f6a	-0.026870448
106	0xbe233f75	-0.15942176
107	0x3c83f728	0.016109064
108	0xbcbe8473	-0.023256516
109	0xbbc8a3ff	-0.0061230655
110	0xbc9a5577	-0.018839581
111	0xbda2540b	-0.07926186
112	0x3ae9b5c0	0.0017830655
113	0xbdf58ddd	-0.11989949
114	0x3e0a7dca	0.13524547
115	0xbe5881d1	-0.21143271
116	0x3d383977	0.044976678
117	0xbb9e01ea	-0.0048220055
118	0xbcc519d1	-0.024060162
119	0x3d0b52e6	0.034014605
120	0xbd83f1ab	-0.06442579
121	0xbe1fe3b6	-0.15614209
122	0x3d21778d	0.039420653
123	0xbc27660a	-0.010217199
124	0xbdcc89d6	-0.099872276
125	0xbcb79fd6	-0.022415083
126	0xbdcd5492	-0.10025896
127	0xbda21832	-0.07914771
128	0xbc8e12be	-0.017342921
129	0x3c9a9c56	0.018873375
130	0xbd6a2223	-0.05716146
131	0x3e084259	0.1330656
132	0xbd465c21	-0.048427705
133	0x3c2abac6	0.010420507
134	0xbd3b2623	-0.045690667
135	0xbc643012	-0.0139274765
136	0x3c99ae9e	0.018760022
137	0xbc1192db	-0.008885111
138	0x3d754077	0.05987593
139	0xbd9c5a0a	-0.07634361
140	0xbdc77b71	-0.097403415
141	0xbb09e957	-0.0021043622
142	0xbd4b77e8	-0.0496749
143	0xbdbc8005	-0.09204105
144	0x3d73587f	0.05941057
145	0xbce996c5	-0.028514275
146	0xbda11dca	-0.0786701
147	0xbd02fd96	-0.03198012
148	0xbd067889	-0.032829795
149	0x3d4d4edb	0.05012403
150	0xbdb8ac92	-0.0901729
151	0x3bb72ad6	0.0055898232
152	0xbd464ddc	-0.048414096
153	0x3d4b2b0c	0.0496016
154	0xbe3596eb	-0.17733352
155	0x3c65c768	0.014024593
156	0xbe0489ac	-0.12943143
157	0xbdc2def1	-0.09515179
158	0x3e0ef010	0.13958764
159	0x3d182431	0.03714389
160	0xbb3d46f9	-0.0028881414
161	0x3cc78872	0.024357054
162	0xbdfcd85b	-0.12345954
163	0x3ca1be05	0.019743929
164	0x3d8df8f6	0.06932251
165	0xbccb13c9	-0.024789708
166	0xbcd0a48a	-0.025469083
167	0x3d8b6180	0.06805706
168	0x3d1626ae	0.03665798
169	0x3d690654	0.0568908
170	0x3c19dae2	0.009390565
171	0x3d55031f	0.05200493
172	0xbdacff31	-0.084471114
173	0xbd41642e	-0.04721468
174	0xbde1fda0	-0.11034703
175	0xbdedbbc4	-0.11608079
176	0xbd2bd2e9	-0.041949186
177	0x3d895fb7	0.06707709
178	0xbcacc56f	-0.021090237
179	0xbe6745ec	-0.22585267
180	0xbcbef61a	-0.02331071
181	0xbd47e84a	-0.048805512
182	0xbbe8c6e0	-0.007103786
183	0x3e003d75	0.12523444
184	0xbd50ea0e	-0.051004462
185	0xbe0d363e	-0.13790223
186	0xbd137d81	-0.03600836
187	0xbcb48f29	-0.02204092
188	0x3d30ac00	0.043132782
189	0x3a0b8bc8	0.0005323258
190	0xbd87e931	-0.066362746
191	0x3d984dd1	0.07436717
192	0xbe06c4a0	-0.13160944
193	0xbaa94f08	-0.001291723
194	0xbd108339	-0.035281394
195	0xbcdecd19	-0.027197408
196	0xbdc08383	-0.09400084
197	0xbdb84a66	-0.089985654
198	0x3d38f0bf	0.04515147
199	0xbd672ec4	-0.056441084
200	0xbcea04bf	-0.028566716
201	0x3dbdb48e	0.09262954
202	0x3e045cdd	0.1292605
203	0x3e0449c5	0.12918766
204	0xbd7f6160	-0.062348723
205	0xbd8b9ee6	-0.06817417
206	0xbd25c5e8	-0.04047194
207	0x3d914cbd	0.07094715
208	0x3cf05628	0.029337958
209	0xbcdd6aaf	-0.02702841
210	0x3c85bc13	0.016325032
211	0xbe402b40	-0.18766499
212	0xbc08881a	-0.00833323
213	0x3d190572	0.03735871
214	0x3c81c871	0.015842648
215	0xbaee9452	-0.0018202162
216	0xbd9ecb6c	-0.077536434
217	0xbe51f4c5	-0.20503528
218	0x3bd706fc	0.006562112
219	0xbe422e83	-0.18963055
220	0xbb452cbc	-0.0030086478
221	0xbb00e9d0	-0.0019670613
222	0xbd524762	-0.051337607
223	0xbcf0a6ec	-0.02937647
224	0x3c7cd7f7	0.015432349
225	0x3da2628b	0.07928952
226	0xbd1066c7	-0.035254266
227	0xbd92ce84	-0.07168296
228	0x3d729bfa	0.059230782
229	0x3cf79967	0.030224515
230	0xbd7eae5f	-0.062178012
231	0x3c097a54	0.008390982
232	0x3cef1aad	0.029187525
233	0xbcce8e06	-0.025214206
234	0xbcaceacd	-0.021108055
235	0xbd5b864a	-0.053594865
236	0x3c889a23	0.01667506
237	0x3cdc444a	0.026888032
238	0xbdfda432	-0.123848334
239	0xbd1eb765	-0.038749117
240	0xbca935e8	-0.020655587
241	0xbdbe003f	-0.09277391
242	0x3c501829	0.012701073
243	0xbd77a53a	-0.060460307
244	0xbc4aef61	-0.012386174
245	0xbe040187	-0.12891208
246	0x3d00ec6c	0.03147547
247	0x3d4a24f0	0.049351633
248	0x3caa4821	0.020786347
249	0xbda95dde	-0.08269857
250	0xbe1d72f4	-0.15375882
251	0xbd817142	-0.0632043
252	0xbc0dfabe	-0.008665739
253	0xbdb52842	-0.08845569
254	0xbcc4f124	-0.024040766
255	0xbea56380	-0.32302475

classifier.4.bias f4 [190]
0	0x3c69a9a0	0.014261633
1	0x3d474a35	0.048654754
2	0xbd875fde	-0.06610082
3	0xbc36b96f	-0.011152609
4	0xbcebe493	-0.028795516
5	0x3d7258b6	0.059166633
6	0x3c286585	0.01027811
7	0x3d88b36f	0.06674849
8	0xbcf18be1	-0.029485645
9	0x3b83d63d	0.004023342
10	0x3d49d76c	0.049277708
11	0xbc06ca5b	-0.008226956
12	0xbd400c54	-0.046886757
13	0x3d904816	0.07044999
14	0x3da61056	0.081085846
15	0xbdb69bdc	-0.089164466
16	0xbd8ec453	-0.069710396
17	0x3ce82465	0.028337667
18	0x3d4e5aa8	0.050379425
19	0xbc0f19b0	-0.008734152
20	0x3c413aca	0.011793802
21	0xbda8a194	-0.082339436
22	0xbd2cd8e0	-0.042199016
23	0xbda810d3	-0.08206334
24	0xbce2a4c5	-0.027666459
25	0x3da51214	0.08060089
26	0xbd03ff6e	-0.03222602
27	0x3dbeb459	0.09311742
28	0xbd42b707	-0.04753783
29	0xbd9f55b0	-0.077800155
30	0xbd0fab6b	-0.035075586
31	0xbcb8fcea	-0.022581536
32	0x3d5250c2	0.051346548
33	0x3d9dd8a1	0.07707334
34	0xbca848c0	-0.020542502
35	0xbd79a792	-0.060950823
36	0x3c8b6e24	0.017020293
37	0xbb125ea4	-0.0022334242
38	0x3d13ccf7	0.03608414
39	0xbd76e946	-0.06028106
40	0xbd0e16a0	-0.034689546
41	0xbd01e56f	-0.031712946
42	0x3d1aa113	0.03775127
43	0x3c3397dd	0.0109615
44	0xbe007c1d	-0.12547345
45	0xbc068035	-0.008209278
46	0x3d846414	0.06464401
47	0xbd7841c4	-0.060609594
48	0x3b03fb8f	0.0020138954
49	0xbdd40835	-0.10353128
50	0x3d5c3ba6	0.053767823
51	0x3d127dbc	0.03576444
52	0xbd8b8f56	-0.068144485
53	0xbcd18c06	-0.025579464
54	0x3de46c0f	0.11153423
55	0xbd8be644	-0.06831029
56	0x3cd84dac	0.026404224
57	0x3d7d34ff	0.06181812
58	0x3d958717	0.07301157
59	0xbd5f70e8	-0.054551035
60	0xbd0d16d8	-0.034445614
61	0xbcf29841	-0.029613616
62	0xbd0e3f74	-0.034728482
63	0x3d5edf99	0.054412458
64	0xbd0d2e15	-0.034467775
65	0xbbc3ac28	-0.0059714504
66	0xbd9ab6d6	-0.075544044
67	0xbcfe9680	-0.031077623
68	0xbd8eda18	-0.06975192
69	0xbd2a2d73	-0.04154725
70	0x3bb6b505	0.0055757784
71	0xbdbcc65a	-0.0921752
72	0xbdb69394	-0.08914867
73	0xbd357504	-0.044301048
74	0x3ddf9786	0.10917573
75	0x3cb7f1e4	0.02245421
76	0xbd6b3867	-0.057426836
77	0xbb50f818	-0.0031886157
78	0x3d901e86	0.07037072
79	0x3ca65e51	0.020308645
80	0x3dabd974	0.08391085
81	0xbd685803	-0.05672456
82	0xbd4685a7	-0.048467305
83	0x3d051bc6	0.03249719
84	0x3d308e27	0.043104317
85	0xbc609ee4	-0.0137097575
86	0xbdc51aa7	-0.09624224
87	0x3cfaf15d	0.03063267
88	0x3dda4a2a	0.10658677
89	0x3d912209	0.0708657
90	0x3bdb8024	0.006698625
91	0xbcb7480c	-0.022373222
92	0x3d2e7729	0.04259411
93	0xbd9d6fb0	-0.07687318
94	0xbd9780bf	-0.07397603
95	0xbd173b48	-0.03692177
96	0x3d4544e0	0.048161387
97	0x3d88d251	0.0668074
98	0xbd8c1b0c	-0.06841096
99	0xbc815676	-0.015788298
100	0xbb84f86b	-0.004057934
101	0x3d815d48	0.0631662
102	0x3dde97f3	0.10868826
103	0xbba07846	-0.00489715
104	0x3d4f47ba	0.050605513
105	0xbd3415f7	-0.04396626
106	0x3dac6ead	0.08419547
107	0x3c90a05a	0.017654587
108	0xbd0895ea	-0.033346094
109	0x3cf559f5	0.029950121
110	0xbcfbe6f6	-0.03074978
111	0xbc5f198c	-0.013616931
112	0xbc18c2cc	-0.009323787
113	0xbd57d302	-0.052691467
114	0xbdecb048	-0.115570605
115	0xbda70a7c	-0.081562966
116	0xbd657ccf	-0.05602723
117	0x3d429cb2	0.047512718
118	0xbba885fd	-0.005142926
119	0x3bd6e06f	0.0065575163
120	0x3d643fd0	0.05572492
121	0x3d034f72	0.032058187
122	0x3d9c69b7	0.07637351
123	0x3cd616e0	0.026133955
124	0x3913e9e8	0.0001410615
125	0xbd1cb63d	-0.038259733
126	0xbcf7b963	-0.030239766
127	0xbd4a4073	-0.04937787
128	0xbddb2987	-0.1070128
129	0xbd2210f0	-0.039566934
130	0xbd05637e	-0.032565586
131	0xbd429a0c	-0.04751019
132	0xbda0a65d	-0.07844231
133	0x3dd140cd	0.10217438
134	0xbd762e1b	-0.060102563
135	0x3d236f60	0.039901137
136	0xbd210497	-0.039311018
137	0xbc02b514	-0.007977743
138	0xbd4b0653	-0.049566578
139	0x3d7a99df	0.0611819
140	0x3d0b2409	0.033969913
141	0xbd56f963	-0.052483927
142	0x3d4b6322	0.049655087
143	0xbc841b70	-0.016126364
144	0x3d83f663	0.06443479
145	0x3daa4526	0.0831397
146	0xbc8f3f41	-0.017486217
147	0xbcac7954	-0.021053948
148	0xbd622d64	-0.05521907
149	0xbc04d36d	-0.008107048
150	0x3d07df41	0.033171896
151	0x3d36b46d	0.04460566
152	0x3da6257a	0.08112617
153	0xbccd8fee	-0.025093045
154	0x3da12f0d	0.07870302
155	0xbd445c93	-0.04793985
156	0xbdb47e33	-0.08813133
157	0xbc0bd912	-0.00853564
158	0x3c439756	0.011937937
159	0x3cc9ff95	0.024658004
160	0x3c2fee41	0.0107379565
161	0xbd7c7b94	-0.06164129
162	0xbc390978	-0.011293761
163	0x3d7666b1	0.060156528
164	0x3d8ce4c4	0.06879571
165	0x3d4b651e	0.04965698
166	0x3cffe45a	0.031236816
167	0xbd9ed105	-0.07754711
168	0xbd6e5077	-0.058182206
169	0x3c8c7810	0.017147094
170	0xbd19b814	-0.037529066
171	0xbd09daf9	-0.033656094
172	0xbce7cfc5	-0.028297314
173	0x3d6f72e1	0.058459166
174	0xbd331474	-0.043720677
175	0x3bb169af	0.00541421
176	0xbcf2fb7f	-0.029660938
177	0x3da7be6a	0.081906155
178	0x3d99834e	0.074957475
179	0x3da53593	0.08066859
180	0xbcb9f13e	-0.022698041
181	0x3c8cfc2a	0.017210085
182	0x3bb8cb88	0.005639497
183	0xbcd83ba3	-0.026395625
184	0x3d272d88	0.040814906
185	0x3d277963	0.040887248
186	0x3d9bbd80	0.07604504
187	0x3cd67011	0.026176484
188	0xbd965909	-0.07341201
189	0xbd54f066	-0.051987074

classifier.5.weight f4 [190]
0	0x3f5a1ecf	0.8520326
1	0x3f6c10f0	0.92213345
2	0x3f606095	0.8764737
3	0x3f8563b1	1.0421048
4	0x3f80bf20	1.0058327
5	0x3f63851c	0.88874984
6	0x3fa855e4	1.3151212
7	0x3f4dcfb7	0.8039507
8	0x3f669544	0.9007151
9	0x3f788106	0.97071874
10	0x3f9609dc	1.1721759
11	0x3f91e20d	1.139711
12	0x3f4468a7	0.76722187
13	0x3f8438bb	1.0329813
14	0x3f83473b	1.0256113
15	0x3f5e91c1	0.8694115
16	0x3f69b829	0.9129663
17	0x3f5c6f00	0.8610687
18	0x3f8b1a6e	1.0867441
19	0x3f8b5424	1.0885053
20	0x3f683237	0.9070162
21	0x3f5eec0d	0.87078935
22	0x3f7098d4	0.939832
23	0x3f858b47	1.0433129
24	0x3f841c03	1.0321048
25	0x3f56f0e4	0.8396132
26	0x3f58ffb7	0.8476519
27	0x3f7830a1	0.969492
28	0x3f6015c7	0.8753323
29	0x3f71c04a	0.94434035
30	0x3f5e3b58	0.868093
31	0x3f557831	0.8338652
32	0x3f7b4b9f	0.98162264
33	0x3f682db2	0.90694726
34	0x3f6da39d	0.9282778
35	0x3f9654e9	1.1744663
36	0x3f8b6f84	1.0893407
37	0x3f565eec	0.8373859
38	0x3f4785db	0.7793862
39	0x3f81c5b2	1.0138457
40	0x3f78cec7	0.9719052
41	0x3f800f6e	1.0004709
42	0x3f7e6fe3	0.99389476
43	0x3f56d022	0.83911335
44	0x3f571d07	0.8402867
45	0x3f89a196	1.0752437
46	0x3f64b05b	0.893316
47	0x3f7e4966	0.9933075
48	0x3f835545	1.0260397
49	0x3f416629	0.7554651
50	0x3f8309d1	1.0237371
51	0x3f95fbc6	1.171746
52	0x3f93d48b	1.1549238
53	0x3f6f818d	0.93557054
54	0x3f6dfd09	0.92964226
55	0x3f6a069b	0.9141633
56	0x3f6df612	0.929536
57	0x3f7d2268	0.98880625
58	0x3f69e3a5	0.91362983
59	0x3f5bec0d	0.8590706
60	0x3f761713	0.9612896
61	0x3f56b95d	0.8387659
62	0x3f726a77	0.946937
63	0x3f5d11b8	0.8635516
64	0x3f77ca08	0.9679265
65	0x3f854fd4	1.0414987
66	0x3f7556e5	0.95835716
67	0x3f89eef6	1.077605
68	0x3f62b6be	0.8856009
69	0x3f801def	1.0009135
70	0x3f8b3b02	1.0877383
71	0x3f7728f1	0.96546847
72	0x3f89e683	1.0773472
73	0x3f8da934	1.1067262
74	0x3f866d90	1.0502186
75	0x3f8c3cd3	1.0956062
76	0x3f78eb23	0.9723379
77	0x3f36aa6d	0.713538
78	0x3f7e5099	0.9934173
79	0x3f8fe318	1.1241179
80	0x3f691e0b	0.91061467
81	0x3f5b619b	0.8569581
82	0x3f520dae	0.82052124
83	0x3f7a3013	0.97729605
84	0x3f5995bc	0.849941
85	0x3f682461	0.9068051
86	0x3f6eafba	0.9323689
87	0x3f6c32c1	0.92264944
88	0x3f500b06	0.8126682
89	0x3f8a54ca	1.0807126
90	0x3f54b9db	0.8309609
91	0x3f89df1c	1.0771213
92	0x3f51df9b	0.8198182
93	0x3f849097	1.0356625
94	0x3f688476	0.9082712
95	0x3f8cdae6	1.1004303
96	0x3f9151e6	1.1353118
97	0x3f7abdbe	0.97945774
98	0x3f828b6a	1.0198796
99	0x3f6a2049	0.91455513
100	0x3f83d073	1.0297989
101	0x3f8fc033	1.123053
102	0x3f89fa03	1.0779423
103	0x3f85b0a1	1.0444528
104	0x3f8cd0dc	1.1001239
105	0x3f8d0534	1.1017213
106	0x3f8c1560	1.0944023
107	0x3f8b0c51	1.0863134
108	0x3f71899d	0.94350606
109	0x3f6c3b2b	0.92277783
110	0x3f83ae48	1.0287561
111	0x3f692ab2	0.9108077
112	0x3f8399e7	1.0281342
113	0x3f6f4c09	0.93475395
114	0x3f7fea0a	0.9996649
115	0x3f81d46b	1.014295
116	0x3f7d0699	0.9883819
117	0x3f6e7727	0.9315056
118	0x3f6215fa	0.88314784
119	0x3f636e7b	0.88840455
120	0x3f608a04	0.87710595
121	0x3f55638f	0.8335504
122	0x3f759856	0.9593557
123	0x3f7d1b65	0.98869926
124	0x3f8105af	1.007986
125	0x3fa510f7	1.2895802
126	0x3f476600	0.77890015
127	0x3f68e414	0.9097302
128	0x3f63926b	0.8889529
129	0x3f890b7e	1.0706632
130	0x3f70eab4	0.9410813
131	0x3f8b2485	1.087052
132	0x3f6d3a2c	0.9266689
133	0x3f8b5a02	1.0886843
134	0x3f6f22b9	0.9341236
135	0x3f845f00	1.0341492
136	0x3f8aa2c0	1.0830917
137	0x3f7791e7	0.96707004
138	0x3f8690d8	1.0512953
139	0x3f89cda5	1.0765883
140	0x3f85f9ae	1.0466821
141	0x3f7dcbf7	0.9913935
142	0x3f880a98	1.0628233
143	0x3f9a229f	1.2041816
144	0x3f84c337	1.0372075
145	0x3f94a9d6	1.161433
146	0x3f7ecb98	0.9952941
147	0x3f81cfee	1.014158
148	0x3f89a7a2	1.0754282
149	0x3f8c1179	1.0942832
150	0x3f67df37	0.90574974
151	0x3f8db0e1	1.1069604
152	0x3f88cf54	1.0688272
153	0x3f577572	0.8416358
154	0x3f7decb9	0.99189335
155	0x3f607102	0.87672436
156	0x3f85e800	1.0461426
157	0x3f49692d	0.7867611
158	0x3f4c17fa	0.79724085
159	0x3f812a71	1.0091077
160	0x3f895fb8	1.0732336
161	0x3f56c98d	0.8390129
162	0x3f67f84a	0.90613234
163	0x3f735cd6	0.9506353
164	0x3f987fc7	1.1913995
165	0x3f5d9e72	0.86569893
166	0x3f8b8224	1.0899091
167	0x3f81dcd5	1.0145518
168	0x3f434ce7	0.7628922
169	0x3f78bf13	0.97166556
170	0x3f8ef050	1.1167088
171	0x3f80251f	1.0011328
172	0x3f4b9978	0.7953105
173	0x3f74e393	0.9565975
174	0x3f82b35d	1.0210987
175	0x3f949443	1.1607746
176	0x3f4b5f84	0.7944262
177	0x3f4eb08c	0.8073814
178	0x3f8792ae	1.0591638
179	0x3f7f4a90	0.9972315
180	0x3f6ea7c2	0.9322473
181	0x3f4c226b	0.7974002
182	0x3f8b4789	1.0881206
183	0x3f7a05a6	0.9766487
184	0x3f6c04e2	0.9219495
185	0x3f81e3b5	1.0147616
186	0x3f5cc190	0.8623285
187	0x3f852320	1.0401344
188	0x3f36f69c	0.71470046
189	0x3f81b7c2	1.0134203

classifier.5.bias f4 [190]
0	0xbeabeed4	-0.3358065
1	0xbde79d9a	-0.11309357
2	0xbe2ba5cb	-0.16762464
3	0xbe31b649	-0.17354693
4	0xbe888ed3	-0.26671466
5	0xbe7a2140	-0.24426746
6	0xbebadafc	-0.36495197
7	0xbe043f8a	-0.12914863
8	0xbe4641dd	-0.19361062
9	0xbdd7c278	-0.10535139
10	0xbe39bbd0	-0.18138051
11	0xbec35267	-0.38148805
12	0xbcae688f	-0.021290092
13	0xbded29cf	-0.1158024
14	0xbe20245b	-0.15638869
15	0xbe8b9072	-0.2725864
16	0xbd466e53	-0.048445057
17	0xbe69eb27	-0.2284361
18	0xbdd20d6b	-0.102564655
19	0xbdffb62a	-0.12485917
20	0xbe0ac1a9	-0.13550438
21	0xbe19d56b	-0.15022819
22	0xbe306280	-0.17225075
23	0xbde9c3ff	-0.114143364
24	0xbe5a8183	-0.21338467
25	0xbd40cba4	-0.047069207
26	0xbedcbbb8	-0.43111968
27	0xbdba4e17	-0.09096926
28	0xbe69f5dc	-0.22847694
29	0xbe0f4d97	-0.13994442
30	0xbd1e2b8e	-0.038615756
31	0xbe30bf08	-0.17260373
32	0xbdfff944	-0.124987155
33	0xbda3381f	-0.079696886
34	0xbe2d3ad0	-0.16916966
35	0xbe95d183	-0.29261407
36	0xbe4f39e5	-0.20236929
37	0xbe9ef2a4	-0.31044495
38	0xbe8636df	-0.26213738
39	0xbe0e86b3	-0.13918571
40	0xbdf19d1c	-0.11797544
41	0xbe18b065	-0.14911039
42	0xbe18e734	-0.14931947
43	0xbe8acab5	-0.27107778
44	0xbe887c97	-0.26657555
45	0xbd14d268	-0.03633347
46	0xbe7acb1e	-0.24491546
47	0xbe36d9e8	-0.17856562
48	0xbd183223	-0.03715719
49	0xbe8e810f	-0.2783284
50	0xbe2c92eb	-0.1685292
51	0xbe4ee78a	-0.20205513
52	0xbe334194	-0.17505485
53	0xbd9c6cba	-0.076379254
54	0xbe3e81c7	-0.18604194
55	0xbe910f0b	-0.2833179
56	0xbe049ce8	-0.1295048
57	0xbdc62dce	-0.09676705
58	0xbe88e643	-0.26738176
59	0xbe8f4187	-0.2797968
60	0xbe80f648	-0.25187898
61	0xbe86d727	-0.26336023
62	0xbe53a5ca	-0.20668712
63	0xbea190b6	-0.31555718
64	0xbe73c271	-0.23804642
65	0xbde0c436	-0.10974924
66	0xbea54ead	-0.32286587
67	0xbe891cd2	-0.267798
68	0xbe32f460	-0.17476034
69	0xbdd49be1	-0.10381294
70	0xbdd99e62	-0.10625912
71	0xbe28f9dc	-0.16501564
72	0xbde454fb	-0.11149021
73	0xbe1a2539	-0.15053262
74	0xbe225c0a	-0.15855423
75	0xbdc328df	-0.0952928
76	0xbde9e0d5	-0.114198364
77	0xbed01c11	-0.40646413
78	0xbe76f028	-0.2411505
79	0xbee512d7	-0.44740936
80	0xbe95acd4	-0.2923342
81	0xbec42838	-0.38311934
82	0xbe23334e	-0.1593754
83	0xbde6c0e5	-0.112672605
84	0xbe867a27	-0.2626507
85	0xbe01a8fc	-0.12662119
86	0xbe1459ab	-0.1448733
87	0xbdf1bcb7	-0.118035726
88	0xbea31873	-0.3185459
89	0xbd30d34c	-0.04317026
90	0xbed75d53	-0.42063388
91	0xbdd3d0af	-0.103425376
92	0xbea69580	-0.32535934
93	0xbd2e0791	-0.042487685
94	0xbdf2ec80	-0.11861515
95	0xbdc28679	-0.09498305
96	0xbe005ffb	-0.12536614
97	0xbe165f5c	-0.14684814
98	0xbe17183e	-0.14755341
99	0xbe162c85	-0.1466542
100	0xbe477c8d	-0.19481106
101	0xbe05871f	-0.13039826
102	0xbe2c15e8	-0.16805232
103	0xbd8a0cb4	-0.06740704
104	0xbe21ecdb	-0.1581301
105	0xbe24dee6	-0.16100654
106	0xbdae15f2	-0.085002795
107	0xbe3ca4eb	-0.18422286
108	0xbe85c25f	-0.26124856
109	0xbe3fd4e8	-0.18733561
110	0xbe897fd8	-0.2685535
111	0xbe114c9a	-0.14189377
112	0xbda05b39	-0.07829899
113	0xbe1ad871	-0.15121628
114	0xbe009529	-0.125569
115	0xbe1ccc82	-0.15312389
116	0xbe1641ac	-0.1467349
117	0xbdf38b73	-0.11891832
118	0xbe5092f2	-0.20368555
119	0xbe661bbe	-0.2247152
120	0xbd6e8c60	-0.05823934
121	0xbea30e36	-0.3184678
122	0xbdf75dba	-0.12078424
123	0xbe498034	-0.19677812
124	0xbe5e82f1	-0.21729638
125	0xbe981d1b	-0.29709706
126	0xbeb5d0ca	-0.35510856
127	0xbe532696	-0.20620188
128	0xbe15c949	-0.14627565
129	0xbe5ee3ac	-0.21766537
130	0xbe4ad09f	-0.19806145
131	0xbdba8c7e	-0.09108828
132	0xbe495f97	-0.19665371
133	0xbd8b4911	-0.06801046
134	0xbe190213	-0.14942198
135	0xbe0b97d2	-0.13632134
136	0xbd91ada9	-0.07113201
137	0xbe6cacd9	-0.23112811
138	0xbdc51556	-0.0962321
139	0xbdb37d50	-0.08764136
140	0xbde0abb8	-0.10970253
141	0xbe58c0b9	-0.21167268
142	0xbe5a028e	-0.21290037
143	0xbec33e87	-0.38133642
144	0xbde96efe	-0.11398123
145	0xbea41306	-0.32045764
146	0xbea09e04	-0.31370556
147	0xbddf2c23	-0.1089709
148	0xbe134ca2	-0.14384702
149	0xbe326ffb	-0.1742553
150	0xbe9d3579	-0.3070486
151	0xbe164191	-0.14673449
152	0xbd05e32c	-0.03268735
153	0xbeba1317	-0.3634269
154	0xbdaec35e	-0.08533357
155	0xbe4d6d66	-0.20061263
156	0xbdd73092	-0.10507311
157	0xbe95c7f7	-0.29254124
158	0xbeb4af16	-0.3528983
159	0xbe8ab79e	-0.27093214
160	0xbe79f6d5	-0.24410565
161	0xbe14bb32	-0.14524534
162	0xbe877735	-0.26458135
163	0xbe169a7b	-0.14707367
164	0xbe0844c8	-0.13307488
165	0xbe9bbcd6	-0.30417508
166	0xbe3f582b	-0.18685977
167	0xbddbf1dd	-0.10739491
168	0xbe13ea24	-0.14444786
169	0xbe6255d1	-0.22103049
170	0xbda6a9b1	-0.08137835
171	0xbe2a4130	-0.1662643
172	0xbd88b83c	-0.06675765
173	0xbe308904	-0.17239767
174	0xbe517af2	-0.20457056
175	0xbe7a5745	-0.24447353
176	0xbdf0fd64	-0.117670804
177	0xbea42bd9	-0.32064703
178	0xbe37cfad	-0.17950316
179	0xbe83b02d	-0.2572035
180	0xbe4d5905	-0.2005349
181	0xbebc4d16	-0.36777562
182	0xbddb61b8	-0.10711998
183	0xbe505ef4	-0.20348722
184	0xbd012cb3	-0.03153677
185	0xbe07e9ec	-0.13272828
186	0xbe433a61	-0.19065239
187	0xbdd558da	-0.10417338
188	0xbe934782	-0.28765494
189	0xbe2a5c38	-0.16636741
