ckpt/MAP_CAM/7/best_loss_BEST5.ckpt (torch, 288160 bytes, 19 tensors)

classifier.0.weight f4 [150, 72]
0.106301524 0.061123636 -0.1279402 -0.008160185 0.21494278 -0.08808261 0.537017 -0.31425586
-0.11764269 0.045002066 0.033840545 -0.09876437 -0.15515628 -0.21250868 -0.05620589 0.2501895
0.05755543 0.01236727 0.053616215 -0.027884727 -0.014134122 0.2809578 -0.09955563 -0.04018719
-0.0125868255 -0.13044316 -0.30445662 -0.16085303 0.10581013 0.24406575 -0.092274874 -0.04412815
0.0860187 0.016376592 0.14205818 0.13201104 0.35185343 -0.35632545 0.007762933 0.032082114
-0.04346002 0.14266783 0.16580461 -0.28586656 -0.016726052 -0.44892463 0.07653716 0.13730505
-0.0064754137 0.1455629 0.07783401 -0.07890472 0.076963976 0.24587718 -0.5164615 0.14676261
-0.047002614 -0.014939199 -0.11936016 0.18590169 0.2881358 0.39307898 -0.10238616 -0.23586003
-0.010443719 0.11889353 -0.048455708 -0.12842263 0.11548297 -0.41880667 -0.26595196 0.71735865
-0.019796753 -0.1434931 0.092409536 0.15333715 0.20752147 0.09098741 0.29747775 -0.29537764
0.026086949 -0.01510361 0.061977535 0.20163135 0.20533131 0.13783126 0.0063030594 0.27215767
-0.007837036 -0.025373753 0.11991508 -0.10918152 -0.021276899 -0.04573246 -0.41293877 0.33744892
-0.11268148 -0.052572906 0.20715344 0.029196192 0.10126125 0.20936179 0.27597213 0.45215186
0.011162709 0.07301477 -0.06518648 0.122002155 -0.061449036 -0.14778939 0.71462363 -0.336737
0.17237848 0.01464097 -0.18377204 -0.30814728 0.20828126 0.13613431 0.30439758 0.52507365
-0.094516784 -0.011612974 -0.03179768 -0.017503355 -0.0657719 -0.37074888 0.07915733 -0.002081834
-0.0005112118 0.089799255 0.11792459 -0.048362166 1.0335324 0.25119498 0.31630486 0.05377244
0.036722776 0.13059755 -0.075785786 0.21139175 -0.08526953 0.40518665 0.25818855 0.5283162
-0.07304101 0.01406189 -0.024350919 0.08069496 -0.13238458 -0.07725974 0.38955954 -0.028813476
-0.12473751 0.13108937 -0.07689257 -0.081950404 0.037679497 0.009185266 -0.01267142 -0.057898834
0.0041326885 -0.044092868 0.21975979 0.10246038 -0.14777365 -0.06789046 0.27235064 -0.17697245
0.06316415 -0.14830019 -0.25904304 0.012195335 0.1032413 0.23738348 -0.030141765 -0.3110244
-0.052646704 -0.05260159 0.073457286 0.014318225 0.16171733 -0.13593657 -0.41657737 0.23281406
0.77100724 0.17851293 0.058878567 -0.16649626 -0.017440014 -0.13885495 0.3971562 0.43139592
0.07497063 0.28989506 0.14599545 -0.0984925 -0.21019997 -0.032703713 -0.48196882 0.005478161
0.078206584 0.27414337 -0.09974058 -0.022111857 0.4399841 0.33852735 0.28074256 1.0088973
0.05751074 0.08067053 -0.130625 0.124530375 0.20210998 -0.10755454 0.21524177 -0.13080832
-0.06625694 0.0045332266 -0.05911453 0.19347867 -0.13732676 0.10124466 0.34933597 -0.34858352
-0.11222376 -0.04438322 -0.030744579 0.0111906165 0.24854423 -0.106196076 -0.32507345 -0.17670083
0.10678389 -0.05690905 -0.033587895 -0.022077123 0.090278596 0.048161257 0.17426905 -0.026582383
0.0022723414 0.19076017 0.03576035 0.014674027 -0.123315625 0.2723074 -0.47954255 -0.79599434
-0.124840796 -0.15790564 0.06959852 0.19488351 -0.13690156 0.33754668 -0.46085873 -0.636253
00000000: 9db4 d93d c75c 7a3d c102 03be 4cb2 05bc
00000010: f619 5c3e a864 b4bd f279 093f 25e6 a0be
00000020: a7ee f0bd 1654 383d 629c 0a3d f944 cabd
00000030: 4ae1 1ebe e09b 59be 2638 66bd d718 803e
00000040: 3ebf 6b3d 17a0 4a3c ad9c 5b3d 836e e4bc
00000050: ce92 67bc b3d9 8f3e d2e3 cbbd 539b 24bd
00000060: f938 4ebc e492 05be bde1 9bbe a8b6 24be
00000070: fbb2 d83d 5fec 793e 9cfa bcbd b8bf 34bd
00000080: 922a b03d 3428 863c b377 113e e72d 073e
00000090: 2226 b43e 4a70 b6be 3460 fe3b 8968 033d
000000a0: 2203 32bd 8417 123e afc8 293e 1a5d 92be
000000b0: 1305 89bc 73d9 e5be 84bf 9c3d b299 0c3e
000000c0: b52f d4bb 710e 153e 7067 9f3d cc98 a1bd
000000d0: 4a9f 9d3d 3ac7 7b3e d236 04bf f048 163e
000000e0: d085 40bd 8bc3 74bc 1973 f4bd 035d 3e3e
000000f0: 8986 933e a641 c93e d6af d1bd 4b85 71be
00000100: 221c 2bbc 737e f33d 7e79 46bd 3981 03be
00000110: 5682 ec3d d46d d6be db2a 88be d1a4 373f
00000120: cd2c a2bc dbef 12be 3641 bd3d 6a04 1d3e
00000130: 8280 543e 9b57 ba3d 014f 983e bd3b 97be
00000140: 4cb4 d53c 2275 77bc 28dc 7d3d 7378 4e3e
00000150: 5f42 523e a323 0d3e e589 ce3b 4058 8b3e
00000160: e966 00bc 9edc cfbc 0a96 f53d 909a dfbd
00000170: e44c aebc f651 3bbd b66c d3be 1bc6 ac3e
00000180: 8cc5 e6bd b056 57bd 0820 543e da2c ef3c
00000190: 0f62 cf3d f062 563e 384c 8d3e 7380 e73e
000001a0: cce3 363c c588 953d 7d80 85bd 44dc f93d
000001b0: fcb1 7bbd 1a56 17be 93f1 363f cb68 acbe
000001c0: fc83 303e aee0 6f3c bd2e 3cbe 7bc5 9dbe
000001d0: af47 553e cb66 0b3e 00da 9b3e 3a6b 063f
000001e0: 0492 c1bd 5844 3ebc 493e 02bd 3263 8fbc
000001f0: 6bb3 86bd ccd2 bdbe 3d1d a23d 616f 08bb
00000200: d802 06ba ace8 b73d 7382 f13d 6817 46bd
00000210: ca4a 843f a19c 803e b6f2 a13e 7d40 5c3d
00000220: 9f6a 163d 5dbb 053e 9435 9bbd 1477 583e
00000230: cba1 aebd a074 cf3e 4a31 843e bb3f 073f
00000240: 8696 95bd d763 663c 947b c7bc 6643 a53d
00000250: d38f 07be 5b3a 9ebd 5974 c73e 3d0a ecbc
00000260: 6176 ffbd 4b3c 063e da79 9dbd 9dd5 a7bd
00000270: d155 1a3d cc7d 163c ca9b 4fbc 5427 6dbd
00000280: 816b 873b b99a 34bd b608 613e bfd6 d13d
00000290: fa51 17be 270a 8bbd 8b71 8b3e 4438 35be
000002a0: 355c 813d 01dc 17be 4aa1 84be f1ce 473c
000002b0: 2d70 d33d a814 733e ddeb f6bc 973e 9fbe
000002c0: 12a4 57bd c474 57bd c670 963d fd96 6a3c
000002d0: 3a99 253e f532 0bbe a149 d5be cf66 6e3e
000002e0: bb60 453f 18cc 363e a72a 713d ff7d 2abe
000002f0: 5cde 8ebc fe2f 0ebe 0f58 cb3e eddf dc3e
00000300: 348a 993d 206d 943e d57f 153e 70b6 c9bd
00000310: a93e 57be 54f4 05bd 9ec4 f6be 2582 b33b
00000320: c62a a03d 855c 8c3e ca44 ccbd ed23 b5bc
00000330: 9945 e13e 7553 ad3e 7dbd 8f3e 8c23 813f
00000340: 6290 6b3d 9736 a53d 8fc2 05be c809 ff3d
00000350: ebf5 4e3e 8e45 dcbd 5768 5c3e 9ef2 05be
00000360: b8b1 87bd 768b 943b 1422 72bd 461f 463e
00000370: 639f 0cbe 5c59 cf3d 2adc b23e 8a79 b2be
00000380: 92d5 e5bd 2ecb 35bd 0edc fbbc d958 373c
00000390: 6182 7e3e 547d d9bd 0770 a6be 10f1 34be
000003a0: 83b1 da3d 7719 69bd 7693 09bd 15db b4bc
000003b0: fce3 b83d bd44 453d 9673 323e 4cc3 d9bc
000003c0: 90eb 143b a256 433e 7279 123d 556b 703c
000003d0: e78c fcbd e06b 8b3e 9a86 f5be 49c6 4bbf
000003e0: 88ac ffbd 04b2 21be ab89 8e3d 8b8f 473e
000003f0: ec2f 0cbe ebd2 ac3e adf5 ebbe 7ae1 22bf

classifier.0.bias f4 [150]
0.15403049 0.36376527 0.02895888 0.029042296 0.05728721 0.1716528 -0.034494814 0.070638545
0.08535291 0.00084194634 -0.15224344 0.1616757 0.04343111 -0.0015403002 -0.02652565 0.06769183
-0.25803003 -0.057780374 0.14913443 -0.2745816 0.10883405 0.12746607 -0.14749934 -0.032721672
0.010244067 0.080199696 0.13887808 -0.021954587 0.16242124 -0.12361279 -0.047496345 0.051611885
-0.026791716 0.0044028712 0.052294422 -0.053712554 -0.061575614 -0.029103715 0.02871409 0.09591258
-0.0075886054 0.0062351986 0.11336037 0.31945327 -0.11608995 -0.18281211 0.09190364 -0.0784575
-0.23915707 0.04740364 -0.11804125 0.10339388 0.00870074 0.05580612 -0.030068215 0.11081754
0.11596752 -0.031715516 -0.016347578 0.038508266 0.16502474 -0.10404603 0.10934573 -0.14230195
0.22061747 0.14854805 -0.15947759 0.27549776 -0.05816472 -0.03501342 -0.026469704 -0.08280418
0.078266986 0.16569933 -0.07869783 -0.08879135 0.05044361 0.048293583 0.030621324 0.22652869
0.0231063 -0.13296027 0.20491369 0.031035556 -0.03580808 0.121687725 -0.103370234 0.03098698
-0.017809588 -0.058337387 0.08548185 -0.06039188 -0.11575209 -0.0247769 0.0028870997 -0.087827206
0.06527587 -0.23815714 0.28963682 -0.121439405 0.05734895 -0.08219879 0.0061821463 -0.10391167
0.0472453 0.001570623 -0.14076135 -0.114559546 -0.11778809 0.016122716 -0.05158725 -0.02306875
-0.105425835 -0.16525218 -0.0031722789 0.0423249 0.09693426 -0.16373266 0.19731903 -0.10862245
0.09543833 -0.063034505 -0.10491284 -0.24373336 0.27993357 0.07983877 -0.09645414 0.08235793
-0.15743734 -0.21822514 -0.07296276 0.08006554 -0.12283827 0.118280865 0.06793332 0.2219712
-0.037051138 0.11749302 -0.020949427 -0.0877554 0.11057591 0.0823693 -0.09776192 0.06300428
-0.015038283 0.025283592 0.11821681 -0.03553122 0.1480121 -0.036332253
00000000: 2bba 1d3e 713f ba3e 2c3b ed3c 1cea ed3c
00000010: fea5 6a3d c0c5 2f3e 6f4a 0dbd f1aa 903d
00000020: 82cd ae3d 10b6 5c3a b4e5 1bbe 518e 253e
00000030: d2e4 313d e6e3 c9ba 524c d9bc 04a2 8a3d
00000040: 831c 84be 1dab 6cbd b2b6 183e f695 8cbe
00000050: 63e4 de3d 7786 023e 110a 17be 2907 06bd
00000060: bbd6 273c bd3f a43d 0e36 0e3e 1bda b3bc
00000070: c151 263e b428 fdbd 878b 42bd fc66 533d
00000080: 4d7a dbbc f645 903b ad32 563d b201 5cbd
00000090: b636 7cbd ea6a eebc d039 eb3c d16d c43d
000000a0: d6a9 f8bb a350 cc3b 7b29 e83d 618f a33e
000000b0: 91c0 edbd 1933 3bbe fa37 bc3d 53ae a0bd
000000c0: 97e5 74be 522a 423d 9cbf f1bd 2cc0 d33d
000000d0: 8c8d 0e3c f594 643d 9e51 f6bc 4ef4 e23d
000000e0: 6180 ed3d 21e8 01bd 5beb 85bc d8ba 1d3d
000000f0: 3ffc 283e 1616 d5bd a7f0 df3d 9ab7 11be
00000100: 8ce9 613e fb1c 183e 184e 23be 0b0e 8d3e
00000110: 213e 6ebd 3b6a 0fbd fed6 d8bc 3d95 a9bd
00000120: 714a a03d 16ad 293e 542c a1bd 3dd8 b5bd
00000130: f59d 4e3d 7ecf 453d 92d9 fa3c 23f7 673e
00000140: 6c49 bd3c bd26 08be e5d4 513e 473e fe3c
00000150: 7eab 12bd 6a37 f93d c6b3 d3bd 68d8 fd3c
00000160: 6ae5 91bc 2ff3 6ebd 1c11 af3d 7a5d 77bd
00000170: 6f0f edbd edf8 cabc 7f35 3d3b c0de b3bd
00000180: 5baf 853d 77df 73be 474b 943e 39b5 f8bd
00000190: bce6 6a3d d757 a8bd 9a93 ca3b a4cf d4bd
000001a0: 4a84 413d 5ddd cd3a be23 10be 329e eabd
000001b0: e23a f1bd c913 843c 274d 53bd adfa bcbc
000001c0: 80e9 d7bd de37 29be 02e6 4fbb e05c 2d3d
000001d0: 7885 c63d 89a9 27be 000e 4a3e 7275 debd
000001e0: 2c75 c33d 3c18 81bd 8bdc d6bd 3d95 79be
000001f0: 7453 8f3e 8282 a33d c089 c5bd 46ab a83d
00000200: 4137 21be 6976 5fbe 806d 95bd 67f9 a33d
00000210: a292 fbbd 3d3d f23d a020 8b3d 6b4c 633e
00000220: efc2 17bd 2ea0 f03d 229e abbc 1ab9 b3bd
00000230: 9f75 e23d 3cb1 a83d 6737 c8bd 6308 813d
00000240: 2163 76bc 891f cf3c a81b f23d 2f89 11bd
00000250: 7c90 173e 21d1 14bd

classifier.1.weight f4 [150]
0.969634 0.94376993 0.8885817 0.8254791 1.0533277 0.86765593 1.0689294 0.90000725
0.8188783 1.000762 0.9702206 0.95325387 0.9752984 0.94969034 0.7934395 0.93369657
0.9534366 0.7110014 0.81492996 0.9890539 1.0517719 0.92746425 0.8914772 0.9525751
0.87327564 1.0839419 1.0509839 0.82044244 0.7306692 0.9755333 0.77021617 1.1198148
1.0996069 0.96572125 1.033516 0.97553205 0.96904534 0.84973633 0.9379773 0.9665836
0.802123 1.0136946 1.0795835 1.0259104 1.0411445 0.95041597 1.031534 0.8733568
0.71170145 0.894744 1.0200485 0.9414201 0.9001978 0.8027269 0.91334516 0.92180675
0.9289327 0.76574004 0.9410725 1.0065911 0.88247174 1.0312053 1.0118582 1.0352594
0.881401 0.91064996 1.0851017 0.9851731 0.91756654 0.93167174 1.0475329 0.891723
0.88097477 0.8450408 0.89942586 0.9556189 0.84819674 0.8489103 0.8592629 0.8949728
0.9913625 0.84819597 1.0440047 0.8099522 0.8623418 0.97022915 0.8497148 0.8463961
0.92821664 0.82590294 0.8780719 0.92388844 1.0696088 0.8540121 1.1185775 0.99286616
0.93149096 0.96848905 0.884433 1.1256434 0.9112462 0.7249883 0.93848383 0.9369495
1.0044181 0.9635139 0.94816667 0.950158 0.9261011 1.1158646 0.9933929 0.99353707
0.94751674 0.79906094 0.7825318 0.80969906 0.8740348 0.9374693 0.9537209 0.9221856
1.0124165 0.9312171 0.89328146 0.9839862 0.781076 0.9321008 0.96817034 1.0057306
0.9978502 0.9644673 1.0068544 0.97686714 0.93300736 0.9842209 0.9434611 1.068444
1.1779964 0.7508503 0.8891138 0.94078755 0.90671855 0.8000458 0.9725576 0.833659
1.0525424 1.0658177 0.95815325 0.8796744 0.9438504 0.79865956
00000000: ef39 783f e89a 713f 177a 633f 9952 533f
00000010: 71d3 863f b31e 5e3f aed2 883f e066 663f
00000020: 02a2 513f f818 803f 6160 783f 7208 743f
00000030: 28ad 793f e81e 733f da1e 4b3f bd06 6f3f
00000040: 6c14 743f 3004 363f 409f 503f a332 7d3f
00000050: 76a0 863f 4c6e 6d3f da37 643f f6db 733f
00000060: fe8e 5f3f 9cbe 8a3f a486 863f 8408 523f
00000070: 230d 3b3f 8dbc 793f e32c 453f 1756 8f3f
00000080: ebbf 8c3f 8239 773f 414a 843f 78bc 793f
00000090: 5b13 783f 5288 593f 481f 703f 0672 773f
000000a0: ef57 4d3f bfc0 813f cb2f 8a3f 0851 833f
000000b0: 3944 853f 764e 733f 4e09 843f 5094 5f3f
000000c0: 1132 363f f10d 653f f390 823f e800 713f
000000d0: 5d73 663f 837f 4d3f fdd0 693f 87fb 6b3f
000000e0: 89ce 6d3f 8a07 443f 21ea 703f fad7 803f
000000f0: abe9 613f 89fe 833f 9284 813f 6183 843f
00000100: 7fa3 613f 5b20 693f 9de4 8a3f 4e34 7c3f
00000110: a4e5 6a3f 0a82 6e3f 8f15 863f f547 643f
00000120: 9087 613f 9854 583f c640 663f 71a3 743f
00000130: 6c23 593f 2f52 593f a7f8 5b3f f01c 653f
00000140: efc9 7d3f 5f23 593f f2a1 853f 0759 4f3f
00000150: 6fc2 5c3f f060 783f e986 593f 6aad 583f
00000160: 9b9f 6d3f 606e 533f 52c9 603f f483 6c3f
00000170: f1e8 883f 89a0 5a3f 8c2d 8f3f 7a2c 7e3f
00000180: 3176 6e3f e6ee 773f 336a 623f 1515 903f
00000190: 6e47 693f d598 393f 7a40 703f ecdb 6f3f
000001a0: c690 803f d9a8 763f 0dbb 723f 8e3d 733f
000001b0: f614 6d3f a7d4 8e3f ff4e 7e3f 7258 7e3f
000001c0: 7590 723f 428f 4c3f 0154 483f 7048 4f3f
000001d0: bfc0 5f3f fdfd 6f3f 0e27 743f 5b14 6c3f
000001e0: dd96 813f 3e64 6e3f 18ae 643f 85e6 7b3f
000001f0: 99f4 473f 289e 6e3f 03da 773f c8bb 803f
00000200: 1c73 7f3f 54e7 763f 9be0 803f f713 7a3f
00000210: 92d9 6e3f e7f5 7b3f ab86 713f c6c2 883f
00000220: 96c8 963f ba37 403f f69c 633f 74d7 703f
00000230: b51e 683f cdcf 4c3f 89f9 783f ad6a 553f
00000240: b6b9 863f b76c 883f 8849 753f 5732 613f
00000250: 2ea0 713f f474 4c3f

classifier.1.bias f4 [150]
-0.3223902 -0.25827587 -0.38691726 -0.3895386 -0.17438309 -0.3309686 -0.27667296 -0.38631997
-0.32037014 -0.50180185 -0.28991938 -0.48775363 -0.43862158 -0.31607422 -0.24523547 -0.41373867
-0.26303604 -0.06054359 -0.23959193 -0.4917944 -0.42611286 -0.28826636 -0.3737422 -0.2586065
-0.4889266 -0.41623944 -0.40595606 -0.24441838 -0.31180623 -0.16429502 -0.26873317 -0.2244413
-0.6681343 -0.41855174 -0.28560376 -0.37122807 -0.22426632 -0.26797 -0.3391901 -0.27441067
-0.31354246 -0.2500423 -0.34451416 -0.5822676 -0.45743573 -0.41050676 -0.43574852 -0.30686513
-0.2918575 -0.2959272 -0.38252702 -0.42175633 -0.35047197 -0.31165424 -0.10698281 -0.49480626
-0.32687587 -0.24603534 -0.22847505 -0.4182544 -0.4068009 -0.4208794 -0.49920946 -0.4175166
-0.07280365 -0.4675856 -0.5179591 -0.31674555 -0.29600298 -0.35408574 -0.23657918 -0.4068857
-0.2803637 -0.32194644 -0.31245217 -0.42294145 -0.24168605 -0.27692944 -0.15620312 -0.41984603
-0.5978367 -0.27772698 -0.47695255 -0.35439062 -0.41449735 -0.4086593 -0.14430496 -0.29702356
-0.4068075 -0.25081593 -0.26763153 -0.23289026 -0.4417347 -0.39267185 -0.29929006 -0.2228722
-0.4294244 -0.43937218 -0.23467045 -0.3150329 -0.47321168 -0.34214416 -0.28375667 -0.16579491
-0.23731278 -0.42339244 -0.37186527 -0.32811633 -0.42286766 -0.2768075 -0.33444482 -0.3608068
-0.343159 -0.22728297 -0.07780771 -0.2580441 -0.47779703 -0.3635496 -0.52689004 -0.4522604
-0.54921454 -0.44613895 -0.4212461 -0.34799412 -0.383782 -0.29211277 -0.32932973 -0.2713487
-0.4521041 -0.30667856 -0.31225684 -0.5279078 -0.27274662 -0.27112246 -0.5067862 -0.144872
-0.23029193 -0.3287147 -0.30678865 -0.3795146 -0.36925396 -0.4548056 -0.2842175 -0.3935006
-0.2820855 -0.30206704 -0.46895427 -0.35316235 -0.33268553 -0.28713712
00000000: 5410 a5be bc3c 84be 051a c6be 9a71 c7be
00000010: 7b91 32be b774 a9be 14a8 8dbe bbcb c5be
00000020: 8e07 a4be 1676 00bf 5070 94be d8ba f9be
00000030: 0293 e0be 7bd4 a1be 021f 7bbe 8ed5 d3be
00000040: a9ac 86be 8efc 77bd 9657 75be 7acc fbbe
00000050: 772b dabe a697 93be 235b bfbe 1268 84be
00000060: 9654 fabe 561d d5be 79d9 cfbe d048 7abe
00000070: 11a5 9fbe f43c 28be 6597 89be f1d3 65be
00000080: d90a 2bbf 6a4c d6be a83a 92be 9b11 bebe
00000090: 12a6 65be 5d33 89be 53aa adbe 8e7f 8cbe
000000a0: a388 a0be 8b05 80be 2964 b0be 7d0f 15bf
000000b0: 0435 eabe f12d d2be 6e1a dfbe 6d1d 9dbe
000000c0: 596e 95be c583 97be 95da c3be 72f0 d7be
000000d0: 1071 b3be 2591 9fbe ce19 dbbd 3f57 fdbe
000000e0: 465c a7be b0f0 7bbe 5df5 69be 7125 d6be
000000f0: 3548 d0be 817d d7be 6298 ffbe bcc4 d5be
00000100: 141a 95bd 6167 efbe f898 04bf 792c a2be
00000110: b48d 97be ba4a b5be d041 72be 5353 d0be
00000120: d58b 8fbe 2ad6 a4be bbf9 9fbe c88b d8be
00000130: 8c7c 77be b2c9 8dbe b6f3 1fbe 0ff6 d6be
00000140: d30b 19bf 3b32 8ebe 2033 f4be b072 b5be
00000150: ff38 d4be cb3b d1be aec4 13be 7913 98be
00000160: 1349 d0be f26a 80be 0007 89be c97a 6ebe
00000170: 0d2b e2be 490c c9be 8c3c 99be 9c38 64be
00000180: 84dd dbbe 64f5 e0be 734d 70be fe4b a1be
00000190: cd48 f2be 852d afbe 8e48 91be 24c6 29be
000001a0: 1f02 73be e5c6 d8be 2065 bebe ddfe a7be
000001b0: 1c82 d8be b6b9 8dbe 5a3c abbe abbb b8be
000001c0: 89b2 afbe debc 68be a659 9fbd 5b1e 84be
000001d0: d0a1 f4be 2c23 babe 44e2 06bf ad8e e7be
000001e0: 5399 0cbf 536c e4be 92ad d7be 492c b2be
000001f0: 137f c4be ce8f 95be e89d a8be 38ee 8abe
00000200: 307a e7be f904 9dbe 21e0 9fbe f724 07bf
00000210: 72a5 8bbe 90d0 8abe bebc 01bf 5359 14be
00000220: a6d1 6bbe 4b4d a8be 6713 9dbe bd4f c2be
00000230: db0e bdbe 48dc e8be f584 91be e978 c9be
00000240: 836d 90be 88a8 9abe c61a f0be b2d1 b4be
00000250: c255 aabe a303 93be

classifier.1.running_mean f4 [150]
0.09624843 0.5113362 0.05142553 -0.044980086 0.1303148 0.090975836 -0.019672766 -0.014366318
0.07456306 0.0898758 -0.2213335 0.26851782 0.24202928 0.17294969 0.060021803 -0.02191186
-0.28929707 -0.1152215 0.07791666 -0.41307765 0.12601697 0.074065 -0.21854757 0.062121954
0.13787037 0.11196434 0.13877203 0.0035832908 0.21452972 -0.019398399 -0.08343822 0.12341882
-0.021936858 0.24192207 0.021059008 0.0022437733 -0.0306246 -0.14479232 -0.0010545984 0.015408034
-0.22225255 -0.027961196 0.11000325 0.23825547 -0.12211942 -0.092768155 0.03468928 -0.13746688
-0.40695393 -0.00638553 0.15665585 -0.08561828 -0.10265312 0.09379685 0.019054398 0.04459204
0.052858748 -0.11829712 -0.036941677 -0.15366597 0.14176135 0.047908805 0.11712811 -0.32999957
0.040277876 0.20052083 -0.25396046 0.39443514 0.0030900643 0.11170661 0.1579461 -0.059155468
0.19181828 0.048687104 -0.23950598 -0.18249069 -0.009967973 0.07461909 0.08993514 0.24102832
-0.07251248 -0.3291307 0.24455288 -0.0063315923 -0.057372943 -0.02442242 -0.15429302 0.124468155
0.040766593 -0.013446936 0.1072861 -0.01517126 0.10172467 0.13230713 0.07307915 -0.18135162
0.33562565 -0.08962553 0.27172902 0.116071895 0.155094 -0.11650627 -0.042842057 -0.017082581
0.19189718 0.032613248 -0.040712003 -0.08956399 -0.17182286 -0.059920494 -0.2423119 -0.02043252
0.0017580963 -0.18811187 0.110066764 0.20465419 -0.011267653 0.0212995 0.114107974 -0.12670498
-0.045992732 -0.24314915 0.051557217 -0.04951269 0.28236854 -0.095135175 -0.10185415 0.09664577
-0.16219704 -0.19670936 -0.04028132 -0.009867067 0.03871689 0.12645748 -0.044935826 0.23377173
-0.024089757 -0.091044754 -0.09222966 -0.029309316 0.24733149 -0.002471049 -0.11269154 0.1333333
0.2176633 -0.04188879 0.06595857 -0.07414372 0.15346651 -0.18774445
00000000: e61d c53d eee6 023f 94a3 523d 0a3d 38bd
00000010: 3e71 053e 8a51 ba3d c828 a1bc b460 6bbc
00000020: 85b4 983d ce10 b83d 40a5 62be 2b7b 893e
00000030: 86d6 773e b919 313e 6cd9 753d 8080 b3bc
00000040: bf1e 94be 40f9 ebbd c592 9f3d ea7e d3be
00000050: 980a 013e 64af 973d efca 5fbe 9773 7e3d
00000060: e42d 0d3e 8f4d e53d 411a 0e3e a5d5 6a3b
00000070: aead 5b3e 64e9 9ebc a8e1 aabd 02c3 fc3d
00000080: edb4 b3bc 6bba 773e f183 ac3c 450c 133b
00000090: 71e0 fabc 7044 14be 733a 8aba fb71 7c3c
000000a0: 2c96 63be e10e e5bc 6249 e13d 3ef9 733e
000000b0: bf19 fabd 3bfd bdbd 5916 0e3d 1ec4 0cbe
000000c0: 445c d0be b53d d1bb 646a 203e a358 afbd
000000d0: cd3b d2bd 9018 c03d f817 9c3c 25a6 363d
000000e0: 6a82 583d c345 f2bd 2850 17bd 9d5a 1dbe
000000f0: e329 113e 063c 443d dde0 ef3d b4f5 a8be
00000100: 6afa 243d 5555 4d3e 1b07 82be 67f3 c93e
00000110: ad82 4a3b 6fc6 e43d 9fbc 213e 014d 72bd
00000120: 036c 443e 216c 473d 0e41 75be d7de 3abe
00000130: b650 23bc e5d1 983d ea2f b83d 21d0 763e
00000140: 6c81 94bd d283 a8be 126c 7a3e 3f79 cfbb
00000150: e4ff 6abd 8711 c8bc fdfe 1dbe 29e9 fe3d
00000160: dffa 263d 8a50 5cbc d1b8 db3d e090 78bc
00000170: 0655 d03d 857b 073e 85aa 953d 3db4 39be
00000180: 20d7 ab3e 978d b7bd 1120 8b3e 1ab7 ed3d
00000190: f6d0 1e3e d79a eebd 277b 2fbd c5f0 8bbc
000001a0: b280 443e 7895 053d a1c1 26bd 536d b7bd
000001b0: 55f2 2fbe 316f 75bd 9c20 78be 1a62 a7bc
000001c0: ec6f e63a 66a0 40be af6a e13d de90 513e
000001d0: f69b 38bc 4a7c ae3c 71b1 e93d f3be 01be
000001e0: e062 3cbd 17fc 78be a92d 533d d2cd 4abd
000001f0: 9c92 903e 3bd6 c2bd e998 d0bd 38ee c53d
00000200: fb16 26be 2e6e 49be 07fe 24bd 7ba9 21bc
00000210: 9a95 1e3d 127e 013e a10e 38bd db61 6f3e
00000220: e257 c5bc ac75 babd e7e2 bcbd 171a f0bc
00000230: 7744 7d3e 53f1 21bb d2ca e6bd 8688 083e
00000240: 21e3 5e3e 9493 2bbd 4915 873d aad8 97bd
00000250: 5326 1d3e 1540 40be

classifier.1.running_var f4 [150]
0.003600227 0.0018035151 0.002068303 0.0076113627 0.010130561 0.0023039936 0.0031200706 0.0024267603
0.0027868338 0.004957834 0.0009741541 0.0011405858 0.0020505195 0.0022682953 0.0023947416 0.001721153
0.0032829405 0.0054055816 0.004085355 0.0011017518 0.0026612612 0.0017284314 0.0027021866 0.0040455014
0.0024735734 0.0017307817 0.0024552036 0.0016742279 0.0024116791 0.0049047195 0.0041830973 0.006406913
0.0014777683 0.0012360553 0.002241436 0.001114592 0.010792192 0.0032611855 0.0023700595 0.0030565134
0.0036896146 0.001988746 0.001269251 0.00090567465 0.002267374 0.0011939573 0.0017796421 0.0020819067
0.004120813 0.0016551622 0.0041345875 0.0016269488 0.0021758915 0.0019742069 0.0037928033 0.0023105904
0.0022804635 0.009654524 0.005088568 0.0018173108 0.0017001606 0.0021081471 0.0024526697 0.0019839176
0.0053812168 0.0015852741 0.0020481884 0.0039094053 0.0033100138 0.0012299486 0.0019391172 0.004221302
0.003626993 0.003934483 0.0033137132 0.0013117213 0.0032297303 0.0056766146 0.004742404 0.0017309993
0.0007181209 0.0048426194 0.0022830258 0.0027102695 0.0023306597 0.0020453578 0.012335058 0.0054968987
0.0020500699 0.004847396 0.0025300188 0.0024182457 0.0035011338 0.0028600555 0.002830087 0.0029773808
0.0024804315 0.0014976326 0.0021993283 0.0031277905 0.0011972679 0.0050894544 0.0029462262 0.002950497
0.0042813285 0.0039477386 0.0020394574 0.002780068 0.0017737783 0.0054318095 0.0040242756 0.0007247463
0.0027926217 0.012252174 0.0026394438 0.003829376 0.0042136726 0.0019013562 0.00104808 0.0033634915
0.0032641666 0.0029743882 0.0057145166 0.002933744 0.0051069357 0.0033469393 0.0013508977 0.0019403195
0.0021270798 0.0035049813 0.0046329647 0.0024421245 0.002293608 0.0013669791 0.0024351685 0.007990212
0.0074811983 0.0037298996 0.002933686 0.0018965341 0.0011141916 0.0030238642 0.002223226 0.0029123796
0.0033772164 0.005017557 0.0009872492 0.0034257607 0.0018832104 0.0047122003
00000000: c9f1 6b3b ed63 ec3a 5e8c 073b bd68 f93b
00000010: a7fa 253c 99fe 163b 197a 4c3b 480a 1f3b
00000020: 50a3 363b 5375 a23b 605e 7f3a b57f 953a
00000030: 0262 063b aea7 143b 19f1 1c3b 5098 e13a
00000040: 9a26 573b 4e21 b13b 71de 853b a868 903a
00000050: 8e68 2e3b 898c e23a 2b17 313b 2090 843b
00000060: ad1b 223b 66db e23a 7be7 203b c471 db3a
00000070: 430d 1e3b c5b7 a03b 5d12 893b 15f1 d13b
00000080: adb1 c13a 2203 a23a 0ee5 123b 8017 923a
00000090: bcd1 303c 9db9 553b 0053 1b3b c94f 483b
000000a0: 76cd 713b 9f55 023b ff5c a63a cc6a 6d3a
000000b0: 3998 143b 8f7e 9c3a e142 e93a 9970 083b
000000c0: e307 873b 07f2 d83a 6f7b 873b 583f d53a
000000d0: 6799 0e3b b261 013b ae90 783b 466d 173b
000000e0: d473 153b 022e 1e3c 01be a63b d532 ee3a
000000f0: ecd7 de3a d728 0a3b f8bc 203b 9d04 023b
00000100: eb54 b03b f9c8 cf3a e63a 063b 781a 803b
00000110: d1ec 583b 3a36 a13a fa29 fe3a d952 8a3b
00000120: d8b2 6d3b d6ec 803b e22a 593b 10ee ab3a
00000130: e2a9 533b e502 ba3b 2b66 9b3b b3e2 e23a
00000140: 4740 3c3a d6ae 9e3b d19e 153b c79e 313b
00000150: fbbd 183b 690b 063b fc18 4a3c 541f b43b
00000160: 775a 063b e8d6 9e3b acce 253b 6e7b 1e3b
00000170: 4773 653b c56f 3b3b fb78 393b 2920 433b
00000180: bc8e 223b 364c c43a 9b22 103b 9efb 4c3b
00000190: a5ed 9c3a 70c5 a63b 7915 413b 205d 413b
000001a0: 634a 8c3b 085c 813b 6ba8 053b cd31 363b
000001b0: 207e e83a 52fd b13b 12de 833b e7fc 3d3a
000001c0: 6b04 373b 58bd 483c 85fa 2c3b 45f6 7a3b
000001d0: d912 8a3b ed36 f93a bb5f 893a 066e 5c3b
000001e0: a1eb 553b f4ed 423b d740 bb3b 0f44 403b
000001f0: 1558 a73b 5358 5b3b 9b10 b13a 5252 fe3a
00000200: 7a66 0b3b d4b3 653b 20d0 973b 0d0c 203b
00000210: 5b50 163b 352c b33a 5997 1f3b 61e9 023c
00000220: d724 f53b 5571 743b 1543 403b 2095 f83a
00000230: 110a 923a 062c 463b 8bb3 113b 9fdd 3e3b
00000240: 4a54 5d3b 526a a43b 9666 813a ba82 603b
00000250: 0ed6 f63a cd68 9a3b

classifier.4.weight f4 [190, 150]
0.12172434 -0.039317526 0.1258078 -0.24520142 -0.05461105 0.13234495 0.060136303 -0.009578196
-0.11253827 0.03373898 -0.04331404 0.07419811 0.07375676 0.019423902 -0.101464264 0.016521368
-0.11149461 -0.07547699 -0.009619751 -0.11366734 -0.33297202 -0.20802878 0.008734095 0.10242087
0.06554609 -0.051024772 0.040903646 0.116961524 -0.08503984 -0.058030967 -0.30092168 0.042095263
-0.09953877 -0.005682463 -0.10162368 0.24974237 -0.24978538 -0.081377305 -0.00917007 -0.083756216
-0.091367856 0.032629978 0.06597617 0.035466347 -0.08172488 0.04677272 0.040239897 0.025607506
-0.05917258 0.062362965 -0.053240415 0.03218554 0.23430683 0.20191471 -0.17683715 0.115626514
-0.0055566197 0.0644001 -0.24473107 0.0065777237 0.0050263642 -0.12940958 0.15609336 0.02963062
-0.12073215 0.15642338 0.26568726 0.099430524 0.06547378 -0.34580883 -0.070455134 0.053613696
-0.038391184 -0.1359814 -0.06666215 0.034005564 0.08671867 0.02712254 -0.12233792 0.1084299
-0.058043 -0.26815706 -0.106080666 0.034861743 -0.20451076 -0.033063143 -0.0086488435 -0.009449996
-0.13301055 -0.06127295 0.04523251 0.089228265 -0.06760435 0.2424107 -0.15465629 0.02052669
0.03287445 -0.003808485 0.19875179 -0.37816274 -0.051250074 -0.08693181 -0.116067775 -0.26048225
-0.05332764 0.0049411487 -0.18967812 -0.055216976 -0.025993759 -0.32142523 0.05185475 0.04520428
0.10938258 -0.0644589 0.06351236 -0.01719003 0.050037958 0.024035554 -0.06894667 -0.01550098
-0.11872938 -0.0823458 0.07707673 0.010576922 -0.115881115 -0.2537096 -0.13189834 0.006969221
0.057662144 -0.0036034826 0.08588152 -0.060675524 0.027503533 -0.07544836 -0.043822125 0.027651107
0.03732343 0.11675452 0.061632853 -0.1733894 -0.22972322 -0.13352446 -0.11846338 0.014222794
-0.14134583 -0.032369453 -0.18573865 0.03292951 -0.004741085 0.062941894 -0.04426147 0.016926078
-0.055254746 -0.1493433 -0.11616501 0.16541058 -0.18400346 0.04025112 0.09981385 -0.04373404
-0.06778536 -0.114798374 -0.18013902 -0.14806235 0.06742273 -0.31504357 0.18411821 0.008598705
0.023858923 -0.026495444 -0.20370369 -0.013997159 -0.098809175 0.0037453054 -0.07434931 -0.5182672
0.12321407 -0.15549506 -0.04448595 -0.086675204 -0.109872706 -0.12536931 0.040082585 -0.14725837
-0.122911856 -0.12956338 -0.11112415 -0.027509546 -0.09525755 0.0021375406 -0.19256379 0.0396039
-0.31561172 -0.032949597 0.14648667 -0.09408354 -0.037073508 0.017678134 -0.04389676 -0.05766676
0.01554791 -0.020328334 0.0864776 0.12853782 0.05354275 -0.11781744 0.11531527 -0.031248773
-0.004433502 -0.14588018 0.100736365 -0.08579729 -0.16679893 0.02873946 -0.024673251 -0.019376015
0.023451924 -0.046634786 -0.016542654 -0.031111723 -0.046606477 -0.017508881 -0.13419299 -0.0937962
-0.05008215 -0.06100265 0.04800407 -0.08200078 -0.01116479 0.1219872 -0.28394058 -0.10760575
0.06168994 0.16604306 0.025970398 0.035740968 -0.058547087 -0.09904073 -0.05197392 -0.04003084
0.11148606 0.03578982 -0.011601094 0.016098846 0.0069713085 -0.08927745 -0.05221572 -0.11159571
-0.072400935 -0.5046574 0.22126986 -0.1877196 -0.004289777 -0.1238002 -0.050563384 -0.06259865
00000000: 9c4a f93d 6a0b 21bd c3d3 003e 1516 7bbe
00000010: d6af 5fbd 6f85 073e 7c51 763d deed 1cbc
00000020: 777a e6bd e231 0a3d 106a 31bd 2ef5 973d
00000030: c90d 973d e01e 9f3c 7fcc cfbd d257 873c
00000040: 4957 e4bd ae93 9abd 299c 1dbc 6cca e8bd
00000050: 4f7b aabe 7f05 55be 7319 0f3c 08c2 d13d
00000060: 073d 863d 5aff 50bd 958a 273d 8689 ef3d
00000070: 5e29 aebd e1b1 6dbd 6812 9abe 156c 2c3d
00000080: fcda cbbd f433 babb 1320 d0bd 77bc 7f3e
00000090: bdc7 7fbe 25a9 a6bd 103e 16bc 6188 abbd
000000a0: 121f bbbd 03a7 053d 841e 873d 2945 113d
000000b0: 605f a7bd c094 3f3d 97d2 243d d5c6 d13c
000000c0: f25e 72bd 4f70 7f3d 9f12 5abd fcd4 033d
000000d0: 21ee 6f3e bbc2 4e3e cc14 35be 98cd ec3d
000000e0: 4e14 b6bb 33e4 833d c89a 7abe f289 d73b
000000f0: 33b4 a43b f283 04be f0d6 1f3e eabb f23c
00000100: 6b42 f7bd 732d 203e 2908 883e 3ba2 cb3d
00000110: 1e17 863d db0d b1be c84a 90bd 099a 5b3d
00000120: 1340 1dbd b53e 0bbe 2a86 88bd 6b49 0b3d
00000130: 8f99 b13d 1730 de3c 4e8c fabd 7f10 de3d
00000140: 7fbe 6dbd e24b 89be d240 d9bd 30cb 0e3d
00000150: 456b 51be 386d 07bd e1b3 0dbc 28d4 1abc
00000160: eb33 08be 58f9 7abd b945 393d 4fbd b63d
00000170: 2674 8abd 833a 783e 385e 1ebe 9727 a83c
00000180: 5ca7 063d c797 79bb 9785 4b3e 8c9e c1be
00000190: 99eb 51bd 4e09 b2bd f1b4 edbd ee5d 85be
000001a0: 156e 5abd 5ce9 a13b fb3a 42be 322b 62bd
000001b0: ddf0 d4bc d991 a4be a565 543d 2028 393d
000001c0: f903 e03d 0703 84bd c512 823d 1bd2 8cbc
000001d0: 9af4 4c3d 36e6 c43c e933 8dbd d3f7 7dbc
000001e0: 6428 f3bd eaa4 a8bd 68da 9d3d d44a 2d3c
000001f0: 1453 edbd 3ae6 81be 5c10 07be 105e e43b
00000200: 242f 6c3d 6828 6cbb a6e2 af3d e686 78bd
00000210: 174f e13c ab84 9abd d47e 33bd 9384 e23c
00000220: 74e0 183d fe1c ef3d bb72 7c3d fe8c 31be
00000230: 903c 6bbe a3ba 08be ee9c f2bd b906 693c
00000240: f6bc 10be d595 04bd 4632 3ebe 18e1 063d
00000250: 1b5b 9bbb aee7 803d 844b 35bd 8fa8 8a3c
00000260: cd52 62bd 73ed 18be ece7 edbd 6461 293e
00000270: 676b 3cbe 5cde 243d 346b cc3d 7722 33bd
00000280: 0dd3 8abd 691b ebbd 5d76 38be a89d 17be
00000290: ee14 8a3d 644d a1be 7c89 3c3e 95e1 0c3c
000002a0: ca73 c33c f90c d9bc b397 50be 5754 65bc
000002b0: 775c cabd cc73 753b 7344 98bd 29ad 04bf
000002c0: a957 fc3d 193a 1fbe e636 36bd c582 b1bd
000002d0: f104 e1bd d060 00be a32d 243d e6ca 16be
000002e0: 36b9 fbbd 43ac 04be 0f95 e3bd b35b e1bc
000002f0: 6416 c3bd fb15 0c3b 712f 45be b337 223d
00000300: dc97 a1be 28f6 06bd 9a00 163e dfae c0bd
00000310: 64da 17bd bcd1 903c 17cd 33bd fb33 6cbd
00000320: a9bc 7e3c 9b87 a6bc 2b1b b13d 6b9f 033e
00000330: a54f 5b3d 454a f1bd 6a2a ec3d 6dfd ffbc
00000340: e946 91bb 9d61 15be de4e ce3d 7db6 afbd
00000350: 57cd 2abe 046f eb3c 8f1f cabc 73ba 9ebc
00000360: 401e c03c 1e04 3fbd 7684 87bc 03de febc
00000370: 6fe6 3ebd c96e 8fbc e369 09be 3918 c0bd
00000380: f122 4dbd eadd 79bd ea9f 443d 06f0 a7bd
00000390: 86ec 36bc 6dd4 f93d a960 91be 6760 dcbd
000003a0: 97ae 7c3d 3107 2a3e dfbf d43c 1f65 123d
000003b0: 12cf 6fbd ded5 cabd 9be2 54bd 61f7 23bd
000003c0: ce52 e43d 5998 123d 8412 3ebc bae1 833c
000003d0: 936f e43b 19d7 b6bd 27e0 55bd 4b8c e4bd
000003e0: f146 94bd 3a31 01bf 9194 623e 9139 40be
000003f0: 4291 8cbb f68a fdbd 8d1b 4fbd b933 80bd

classifier.4.bias f4 [190]
0.05685894 0.041826792 -0.034561533 -0.027015371 -0.032097258 0.059434023 0.0579201 0.08936993
-0.040902596 -0.0069221877 0.051967293 -0.05837774 -0.0037494055 0.049815454 0.08152031 -0.06232581
-0.060438614 0.043127935 0.008893648 0.04900379 0.033325862 -0.049846336 -0.04526283 -0.074303284
-0.017248258 0.10740811 -0.020929035 0.1112467 -0.07271936 -0.07811758 -0.016132675 -0.018547282
0.07433152 0.10519457 -0.080430366 0.000843732 -0.01718082 -0.060540393 0.040625222 -0.051446136
-0.06350911 -0.03376381 0.039526887 -0.01192226 -0.09220683 -0.018766467 0.06453062 -0.08252929
0.053135984 -0.07623626 0.008903907 0.017648326 -0.048581526 -0.023867154 0.071988784 -0.07226122
0.016582102 0.055991054 0.09386687 -0.11230968 -0.04221019 -0.032686364 -0.026169127 0.07158359
-0.054101124 -0.0038011181 -0.060827002 0.002941504 -0.08634798 -0.040065844 0.037881546 -0.07850978
-0.058783658 -0.072930284 0.049728103 0.026921157 -0.022453632 -0.031644706 0.07596898 0.05138674
0.060488857 -0.05226544 0.012053913 0.030330058 0.017330483 0.03001369 -0.06147131 0.087854825
0.045249052 0.033138126 0.028346637 -0.04126497 0.023587704 -0.11373258 -0.09427508 0.0008773631
0.045605574 0.051114958 -0.036485534 -0.046071287 0.021913396 0.061995186 0.07360222 -0.0023188672
0.08070143 -0.039088286 0.042201687 0.07058808 -0.03793726 0.0032138396 -0.04235569 -0.012316757
-0.039145883 -0.0554531 -0.085343555 -0.05041791 -0.028711671 0.03488969 -0.009350522 -0.0084426375
0.07879378 0.03910918 0.08503738 0.055540904 -0.0031588676 -0.0016676945 0.0019717612 -0.054737516
-0.13910015 -0.019659458 -0.039483003 -0.0006948629 -0.05786751 0.08785166 -0.018536763 0.066501714
-0.009632341 -0.014347467 -0.07704286 0.04110044 0.040927585 -0.044723786 0.06891145 0.0032576171
0.054331053 0.062072247 0.009033099 -0.06782106 -0.05398974 0.031494316 0.04187332 0.07262276
0.070958905 -0.032325283 0.10074389 -0.0757179 -0.061550606 0.002001172 0.03075917 0.037640955
-0.012052584 -0.06588237 -0.0062755095 0.027158424 0.10794742 0.081268854 0.002711195 -0.09169866
-0.0788528 0.013992743 0.005124435 -0.049102265 -0.07427644 0.02893686 -0.069148466 0.00014068573
-0.009290794 0.08362389 0.024142995 0.0901742 -0.066022076 -0.01731905 0.0034917202 -0.013869826
0.038413472 0.025839185 0.010881136 0.02852619 -0.0511408 -0.022739336
00000000: ebe4 683d 9252 2b3d 6590 0dbd 574f ddbc
00000010: 6a78 03bd 1771 733d a03d 6d3d 9507 b73d
00000020: 7b89 27bd 85d3 e2bb a8db 543d 7f1d 6fbd
00000030: 96b8 75bb 4a0b 4c3d 1ff4 a63d 5949 7fbd
00000040: 7b8e 77bd eba6 303d aab6 113c 33b8 483d
00000050: b380 083d ac2b 4cbd 8465 39bd 522c 98bd
00000060: 384c 8dbc c8f8 db3d 5e73 abbc 4fd5 e33d
00000070: e3ed 94bd 1cfc 9fbd ac28 84bc 78f0 97bc
00000080: 203b 983d 4070 d73d adb8 a4bd e52d 5d3a
00000090: cbbe 8cbc 34f9 77bd a266 263d 2fb9 52bd
000000a0: 1011 82bd ec4b 0abd f2e6 213d 9555 43bc
000000b0: efd6 bcbd 22bc 99bc a128 843d 1e05 a9bd
000000c0: 1ea5 593d c221 9cbd b1e1 113c 3993 903c
000000d0: 6cfd 46bd 0d85 c3bc db6e 933d b1fd 93bd
000000e0: 30d7 873c e056 653d 463d c03d 9e02 e6bd
000000f0: 98e4 2cbd 23e2 05bd a360 d6bc 6b9a 923d
00000100: 2499 5dbd 2e1c 79bb bc25 79bd 3fc6 403b
00000110: 36d7 b0bd 151c 24bd ae29 1b3d bcc9 a0bd
00000120: 22c7 70bd 795c 95bd b2af 4b3d c289 dc3c
00000130: aef0 b7bc e19d 01bd a095 9b3d e77a 523d
00000140: 2ac3 773d 4914 56bd c77d 453c be76 f83c
00000150: a8f8 8d3c 45df f53c 57c9 7bbd 3bed b33d
00000160: 1257 393d d8bb 073d 3537 e83c 7505 29bd
00000170: 003b c13c a0ec e8bd 4b13 c1bd d7fe 653a
00000180: e9cc 3a3d eb5d 513d db71 15bd 3fb5 3cbd
00000190: b983 b33c aaee 7d3d c3bc 963d 23f8 17bb
000001a0: cb46 a53d 0a1b 20bd addb 2c3d 7c90 903d
000001b0: 1a64 1bbd 489f 523b 297d 2dbd 39cc 49bc
000001c0: 6f57 20bd ca22 63bd 9ac8 aebd 0383 4ebd
000001d0: bd34 ebbc 7ee8 0e3d ef32 19bc fd52 0abc
000001e0: a25e a13d f330 203d 1428 ae3d dc7e 633d
000001f0: 0105 4fbb 8b96 daba aa38 013b 7234 60bd
00000200: 4570 0ebe df0c a1bc eeb8 21bd 7627 36ba
00000210: 7b06 6dbd 92eb b33d 69da 97bc 0d32 883d
00000220: f7d0 1dbc a311 6bbc a6c8 9dbd ef58 283d
00000230: afa3 273d 4a30 37bd 7221 8d3d bf7d 553b
00000240: 3d8a 5e3d 783f 7e3d 90ff 133c c5e5 8abd
00000250: 5824 5dbd 2f00 013d 5c83 2b3d 3ebb 943d
00000260: e752 913d 8467 04bd d052 ce3d fd11 9bbd
00000270: 7d1c 7cbd 1826 033b a8fa fb3c 672d 1a3d
00000280: 3478 45bc 56ed 86bd caa2 cdbb 587b de3c
00000290: 8913 dd3d 4970 a63d 4eae 313b 82cc bbbd
000002a0: 947d a1bd d141 653c e0ea a73b 751f 49bd
000002b0: 3f1e 98bd fe0c ed3c b69d 8dbd 0a85 1339
000002c0: 6a38 18bc 0143 ab3d 88c7 c53c 40ad b83d
000002d0: 9536 87bd aee0 8dbc 58d5 643b 443e 63bc
000002e0: 7257 1d3d b3ac d33c cb46 323c c2af e93c
000002f0: 0479 51bd d847 babc

classifier.5.weight f4 [190]
0.75542223 0.89490926 0.79510075 0.975445 0.9407012 0.82590395 1.0542758 1.0512527
1.0158706 0.9518726 1.1060584 1.1082572 0.9838569 1.0061239 1.0890454 0.87653565
0.73734844 0.7400067 1.0029645 1.0123209 1.007839 0.8797335 0.9024518 1.0094827
0.8193038 0.9458633 1.0395758 1.1459885 0.90240896 0.94879955 1.0366875 0.91502655
1.0908743 1.0729333 0.8366734 1.2115318 0.8661394 0.8810861 0.9610946 0.9264679
1.0948007 1.0357299 1.0437667 0.90512776 0.90774286 0.95773965 0.68793637 0.75818545
0.8651309 0.87825704 1.1057599 1.0106308 1.120544 0.9054038 0.7519 0.8012192
0.85149974 1.0987695 1.1009666 0.9960448 1.0978643 0.95928055 0.9809509 1.0644003
0.92813885 0.9064883 0.9720043 0.9486581 0.78927094 1.1249409 1.0128798 1.0518504
1.009413 1.0006312 0.944171 1.1708884 0.9895723 0.8750072 0.8361484 1.1820694
0.82308334 1.0071114 0.84562904 1.0137722 0.81869066 1.0489359 0.98101944 1.1310685
0.8602056 0.93633646 1.0552851 1.1449789 0.82979697 1.0512048 1.0030934 1.1086426
1.0419234 0.79670507 1.1423259 0.74989307 1.1077683 1.177769 0.8874478 0.9682067
0.8568934 0.9342937 0.9185097 1.11989 0.7938688 1.055036 1.077895 0.8024648
1.0117348 0.8670487 1.057143 0.98462766 1.0887076 0.92520213 1.0275774 0.7506785
0.916439 0.7533636 0.9254371 1.025383 0.8331202 1.1125872 0.99665177 0.9847045
0.99482423 0.823501 1.066414 1.0602361 0.8904455 0.8817684 0.9268779 1.1761678
1.0787323 0.96665514 0.7258521 1.0763032 1.1014489 0.77554005 1.0665436 1.1478115
0.8156494 1.147631 1.2153147 0.96187615 0.98179346 1.0400945 1.0239779 0.91393805
0.9502127 0.729771 0.9677369 0.9950831 1.0160491 0.8632007 1.0197444 1.0928007
1.086098 0.87279344 0.8960004 0.9901796 0.98189366 0.76894087 0.9800626 0.7629664
0.7671443 1.014623 0.9071986 0.88998646 0.84049386 0.8440264 1.0912961 0.9334476
0.9797978 0.8760078 0.9686348 0.74977565 1.0064148 0.80271935 1.1233724 0.93046016
0.97214675 1.1321517 0.7837855 1.1549824 0.6899456 0.87083274
00000000: 5a63 413f c618 653f b98b 4b3f c3b6 793f
00000010: cbd1 703f 716e 533f 82f2 863f 738f 863f
00000020: 0c08 823f ecad 733f 5293 8d3f 5fdb 8d3f
00000030: 0cde 7b3f abc8 803f d765 8b3f a464 603f
00000040: dec2 3c3f 1471 3d3f 2461 803f bb93 813f
00000050: de00 813f 3736 613f 1507 673f bb36 813f
00000060: e5bd 513f 1924 723f d210 853f c0af 923f
00000070: 4604 673f 87e4 723f 2db2 843f 2e3f 6a3f
00000080: c5a1 8b3f e155 893f 3a30 563f 7913 9b3f
00000090: 50bb 5d3f dc8e 613f 4c0a 763f 002d 6d3f
000000a0: 6e22 8c3f cc92 843f 269a 853f 74b6 673f
000000b0: d661 683f 6d2e 753f 991c 303f 7118 423f
000000c0: 3879 5d3f 74d5 603f 8a89 8d3f 5a5c 813f
000000d0: fc6d 8f3f 8bc8 673f 857c 403f b41c 4d3f
000000e0: e3fb 593f 7ba4 8c3f 79ec 8c3f cbfc 7e3f
000000f0: d186 8c3f 6993 753f 991f 7b3f 453e 883f
00000100: 829a 6d3f 9e0f 683f 46d5 783f 42db 723f
00000110: a90d 4a3f 10fe 8f3f 0ca6 813f 09a3 863f
00000120: 7234 813f af14 803f 31b5 713f acdf 953f
00000130: 9c54 7d3f 7900 603f d20d 563f 0d4e 973f
00000140: 97b5 523f 07e9 803f 257b 583f 4ac3 813f
00000150: b695 513f 8843 863f 1724 7b3f dac6 903f
00000160: 6f36 5c3f bfb3 6f3f 9513 873f ab8e 923f
00000170: 936d 543f e18d 863f 5d65 803f 00e8 8d3f
00000180: bf5d 853f ddf4 4b3f bc37 923f fef8 3f3f
00000190: 5acb 8d3f 22c1 963f c72f 633f 65dc 773f
000001a0: 5e5d 5b3f df2d 6f3f 7423 6b3f 8e58 8f3f
000001b0: fc3a 4b3f 6b0b 873f 77f8 893f 556e 4d3f
000001c0: 8780 813f e7f6 5d3f 7650 873f 8f10 7c3f
000001d0: c55a 8b3f 0cda 6c3f a887 833f 772c 403f
000001e0: bf9b 6a3f 70dc 403f 72e9 6c3f c03f 833f
000001f0: 5e47 553f 4269 8e3f 9224 7f3f 9815 7c3f
00000200: cdac 7e3f f6d0 523f 4180 883f d1b5 873f
00000210: 3cf4 633f 93bb 613f df47 6d3f ab8c 963f
00000220: e613 8a3f b676 773f 71d1 393f 4ec4 893f
00000230: 47fc 8c3f cb89 463f 8084 883f 7deb 923f
00000240: 66ce 503f 93e5 923f 6f8f 9b3f 843d 763f
00000250: d156 7b3f d121 853f b511 833f d8f7 693f
00000260: 2441 733f 46d2 3a3f 9bbd 773f c4bd 7e3f
00000270: e60d 823f b9fa 5c3f fc86 823f e5e0 8b3f
00000280: 4205 8b3f 646f 5f3f 4860 653f 697c 7d3f
00000290: 625d 7b3f 4fd9 443f 62e5 7a3f c451 433f
000002a0: 9263 443f 2bdf 813f 2b3e 683f 27d6 633f
000002b0: 9b2a 573f 1d12 583f 97af 8b3f 6cf6 6e3f
000002c0: 07d4 7a3f 0c42 603f 73f8 773f 4cf1 3f3f
000002d0: 33d2 803f 047f 4d3f abca 8f3f a332 6e3f
000002e0: 9cde 783f 59ea 903f 2ba6 483f 77d6 933f
000002f0: 46a0 303f e5ee 5e3f

classifier.5.bias f4 [190]
-0.48645565 -0.34480265 -0.123352006 -0.2857054 -0.21860717 -0.24366066 -0.18328616 -0.04664214
-0.15287594 -0.16708407 -0.27067003 -0.3324331 -0.40138012 -0.21131817 -0.39908534 -0.2145981
-0.25593027 -0.30411345 -0.028664691 -0.06658784 -0.1151623 -0.18887015 -0.17479293 -0.1435418
-0.4427033 -0.2536898 -0.21634656 -0.0104757 -0.13274197 -0.31075063 -0.08543083 -0.089926116
-0.2109949 -0.18187156 -0.48870972 -0.46936804 -0.016764792 -0.43467203 -0.31506684 -0.12815538
-0.15275936 -0.14924647 -0.33449635 -0.22405188 0.04577305 -0.16656783 -0.40360007 -0.36192763
-0.13489416 -0.2417476 -0.1568687 -0.17540897 -0.07499008 -0.27797148 -0.23605083 -0.25310457
-0.28402528 -0.06600219 -0.12643021 -0.09010458 -0.10737528 -0.24056104 -0.12027865 -0.1900533
-0.36505467 -0.19168088 -0.15605673 -0.24335618 -0.19424313 -0.10859519 -0.16506708 -0.36470658
-0.35023245 -0.19748846 -0.15610108 -0.032129366 -0.14178598 -0.42023924 -0.148151 -0.2008285
-0.49886236 -0.21176104 -0.22128712 -0.14064413 -0.30167186 -0.42240062 -0.23143286 -0.17026144
-0.2313645 -0.21323366 -0.18204768 -0.333924 -0.32733488 -0.13722812 -0.15899102 -0.15970673
-0.038578246 -0.12329695 -0.13840295 -0.5290172 -0.112118445 -0.023681829 -0.16730453 -0.1587213
-0.30034968 -0.2071493 -0.15583058 -0.047868736 -0.39027196 -0.36767974 -0.07199143 -0.3462221
-0.24429229 -0.15117459 -0.25857309 -0.12527752 -0.11973647 -0.23445049 -0.18213935 -0.43540013
-0.26164395 -0.43234268 -0.19342299 -0.3281023 -0.46639118 -0.27416533 -0.28124422 -0.15834719
-0.10110263 -0.31722045 -0.26035 -0.19458508 -0.2651771 -0.12463588 -0.19957645 -0.14384842
-0.12759116 -0.097191945 -0.2677104 -0.3702206 -0.036614362 -0.1353601 -0.023806643 -0.20081002
-0.42970034 -0.55515426 -0.11133591 -0.17271715 -0.10568655 -0.18568905 -0.17624943 -0.1453866
-0.2156776 -0.3228575 -0.11831271 -0.09498748 -0.011533405 -0.2732234 -0.30040866 -0.24448302
-0.12750071 -0.31631058 -0.26651207 -0.15209505 -0.09205947 -0.39419487 -0.30447456 -0.3373142
-0.19940826 -0.25596106 -0.062571466 -0.36228967 -0.30835626 -0.1960474 -0.20272477 -0.18452749
-0.18955907 -0.3545173 -0.25070694 -0.1550761 -0.13092776 -0.40467975 -0.0773242 -0.212497
0.029934146 -0.024149789 -0.4132892 -0.08912637 -0.56210375 -0.21597178
00000000: b710 f9be f989 b0be fa9f fcbd fa47 92be
00000010: 8fda 5fbe 2e82 79be 5eaf 3bbe d40b 3fbd
00000020: 838b 1cbe 1618 2bbe 4395 8abe ac34 aabe
00000030: b281 cdbe ca63 58be ea54 ccbe 9bbf 5bbe
00000040: 4b09 83be c2b4 9bbe 37d2 eabc 355f 88bd
00000050: 36da ebbd 2d67 41be ebfc 32be 9ffc 12be
00000060: 02aa e2be a1e3 81be f489 5dbe 45a2 2bbc
00000070: 83ed 07be b51a 9fbe 5cf6 aebd 2f2b b8bd
00000080: 0c0f 58be 8a3c 3abe 2938 fabe 0251 f0be
00000090: 5156 89bc 558d debe 7150 a1be 2a3b 03be
000000a0: f36c 1cbe 11d4 18be 1b43 abbe db6d 65be
000000b0: 867c 3b3d c290 2abe aba4 cebe 944e b9be
000000c0: b221 0abe af8c 77be 30a2 20be 699e 33be
000000d0: 6694 99bd 4752 8ebe 4fb7 71be ec96 81be
000000e0: c36b 91be 282c 87bd ec76 01be c088 b8bd
000000f0: 92e7 dbbd a255 76be a754 f6bd 559d 42be
00000100: 72e8 babe fe47 44be 56cd 1fbe 5d32 79be
00000110: ace7 46be 2867 debd 5807 29be d2ba babe
00000120: ab51 b3be 6a3a 4abe f6d8 1fbe 159a 03bd
00000130: 5830 11be 9929 d7be e5b4 17be fca5 4dbe
00000140: e36a ffbe e3d7 58be 1799 62be 0405 10be
00000150: bc74 9abe e544 d8be bcfc 6cbe 0459 2ebe
00000160: d1ea 6cbe ed59 5abe b56a 3abe 16f8 aabe
00000170: 7098 a7be 8785 0cbe 8bce 22be 298a 23be
00000180: 3904 1ebd 1c83 fcbd 81b9 0dbe ac6d 07bf
00000190: 5b9e e5bd 6500 c2bc e151 2bbe d687 22be
000001a0: 6fc7 99be f21e 54be 0d92 1fbe 0212 44bd
000001b0: bad1 c7be 8540 bcbe 3e70 93bd 0644 b1be
000001c0: c227 7abe 83cd 1abe b163 84be c048 00be
000001d0: 6538 f5bd ca13 70be bd82 3abe c4ec debe
000001e0: 32f6 85be 055c ddbe ad10 46be 06fd a7be
000001f0: d3ca eebe 665f 8cbe 3eff 8fbe c425 22be
00000200: e50e cfbd b86a a2be 984c 85be 5041 47be
00000210: 4bc5 87be 1941 ffbd c55d 4cbe 004d 13be
00000220: 42a7 02be 920c c7bd 5611 89be 8e8d bdbe
00000230: f1f8 15bd d79b 0abe 2606 c3bc 24a1 4dbe
00000240: af01 dcbe 971e 0ebf 1504 e4bd c4dc 30be
00000250: 3172 d8bd 4525 3ebe bb7a 34be 3ae0 14be
00000260: 97da 5cbe 944d a5be ef4d f2bd cc88 c2bd
00000270: 9bf6 3cbc f0e3 8bbe 2acf 99be c259 7abe
00000280: 8c8f 02be 76f3 a1be 4574 88be cebe 1bbe
00000290: ad89 bcbd e9d3 c9be 17e4 9bbe 72b4 acbe
000002a0: ae31 4cbe 540d 83be 7825 80bd 087e b9be
000002b0: dfe0 9dbe a6c0 48be 1597 4fbe c6f4 3cbe
000002c0: c61b 42be 4b83 b5be a95c 80be 45cc 1ebe
000002d0: ed11 06be 2f32 cfbe 265c 9ebd d098 59be
000002e0: 7438 f53c c7d5 c5bc a49a d3be e387 b6bd
000002f0: 08e6 0fbf b527 5dbe

classifier.5.running_mean f4 [190]
-0.8537835 -1.438341 0.12547639 0.027308183 -0.5433735 -0.65672916 -0.63341564 -1.7511666
-1.3751109 -0.17159656 0.4152481 -0.599288 0.6498341 -1.0984008 -0.85973257 -0.96636
0.32239932 -0.92056483 -0.7522189 0.19242118 -1.2296593 -0.15378402 -0.8990408 -0.08250372
-1.0896144 -0.6391157 -0.56542397 -1.6930349 0.0492626 -0.5180083 0.07268177 -1.1299345
-0.90600914 0.033337973 -1.5405641 -0.023764368 -0.2706914 -1.142166 -0.85297364 -0.4345008
-0.79292494 -1.0889798 -0.5535519 -1.00994 -1.0424814 -0.3225279 -0.9551034 -0.41026914
-0.44591677 -1.0943437 -0.9293184 -1.4573066 -0.11878934 0.2399981 -1.0258589 -1.5233507
-0.6613105 -1.1454421 -1.4701349 -1.6649443 -1.3912858 -1.1468759 -0.79833734 -1.7547235
-1.1564248 -1.5077251 -0.94563425 -0.82534033 0.2649709 -1.3543403 -0.22077522 -0.589959
-0.84446985 -0.7096275 -0.5192857 -1.284079 -1.4985677 -1.220859 0.013601647 -0.7034376
-1.2147015 -1.1596236 0.025404701 -0.8537664 -1.0656805 0.35512382 -0.9030504 0.47605225
-1.1370983 -0.49492434 -0.79464346 -1.0253251 -1.1367838 -0.29453805 -1.4270713 -1.8147849
-0.4077724 -0.13729584 -0.96721333 -0.55172986 -1.3891476 -1.3581921 -0.2859668 -0.23072557
-1.5303516 -0.21102105 -1.760479 -0.1635343 -1.4239076 0.07923878 -1.1759148 -1.0406346
0.039020654 -0.10510569 -1.7809864 -1.4790523 -1.3570272 -0.63480175 -1.4703265 -0.88464373
-1.0358206 -0.8604785 -0.9916401 -1.0394826 -1.2960308 -0.41029003 -1.4502038 -1.4713311
-1.3265427 0.44041628 -0.9708243 -1.0862978 -0.21030387 -0.75309956 -1.1409135 0.8093679
-0.21366183 -1.1730889 0.42591563 -0.38438207 -0.89376014 0.42701602 -0.843591 -0.036261052
-0.6929236 -0.2564299 -0.80099255 -1.1483797 -0.9136124 -1.2163336 -0.7000446 0.074322484
0.61440825 -0.36083564 -0.20635347 -1.6811438 -0.41910422 -0.5280115 -0.45905915 -0.095686965
-1.1862563 -0.8443449 0.20521063 -1.5877784 -0.2727446 0.41951495 -0.7191822 -1.502249
-0.67003983 -0.9091144 0.41672754 -0.62608933 -0.31516257 -0.287911 -0.009923817 -0.5237992
-1.4250168 -0.6421627 -0.8214582 0.20980574 -2.0049336 -1.2076538 -0.9448452 -1.173623
0.45927075 -1.2787528 -1.1064843 0.4595553 -0.13211592 0.4452608
00000000: 8e91 5abf 8f1b b8bf e27c 003e 69b5 df3c
00000010: 871a 0bbf 671f 28bf 8727 22bf 3a26 e0bf
00000020: a203 b0bf 02b7 2fbe 669b d43e f06a 19bf
00000030: 875b 263f 6698 8cbf 6f17 5cbf 5e63 77bf
00000040: 8611 a53e 23aa 6bbf 6b91 40bf 0f0a 453e
00000050: 7a65 9dbf 8f79 1dbe 8a27 66bf b6f7 a8bd
00000060: 7c78 8bbf 169d 23bf a0bf 10bf 5eb5 d8bf
00000070: 94c7 493d 319c 04bf 2eda 943d b2a1 90bf
00000080: 37f0 67bf 668d 083d 3431 c5bf 7ead c2bc
00000090: 1098 8abe 7f32 92bf 7b5c 5abf e476 debe
000000a0: 21fd 4abf b163 8bbf 94b5 0dbf b745 81bf
000000b0: 0870 85bf 6022 a5be a881 74bf cc0e d2be
000000c0: 344f e4be 7413 8cbf d0e7 6dbf 0689 babf
000000d0: d347 f3bd 10c2 753e 584f 83bf 28fd c2bf
000000e0: a54b 29bf d99d 92bf 612d bcbf e51c d5bf
000000f0: a715 b2bf d4cc 92bf d65f 4cbf c89a e0bf
00000100: ba05 94bf 23fd c0bf 1615 72bf 8149 53bf
00000110: 44aa 873e 065b adbf e612 62be 8e07 17bf
00000120: 2d2f 58bf 26aa 35bf e8ef 04bf b35c a4bf
00000130: 11d1 bfbf 1c45 9cbf 71d9 5e3c 7d14 34bf
00000140: 577b 9bbf 8c6e 94bf 851d d03c 6f90 5abf
00000150: 3868 88bf cad2 b53e 502e 67bf 1fbd f33e
00000160: 708c 91bf b966 fdbe c16d 4bbf da3d 83bf
00000170: 2282 91bf b1cd 96be 46aa b6bf df4a e8bf
00000180: 8bc7 d0be 4897 0cbe 4b9b 77bf 2b3e 0dbf
00000190: 97cf b1bf 3dd9 adbf 3e6a 92be 5343 6cbe
000001a0: 90e2 c3bf e715 58be 6057 e1bf 8975 27be
000001b0: 9b42 b6bf f147 a23d 6084 96bf 8433 85bf
000001c0: 1fd4 1f3d a741 d7bd 5df7 e3bf 9651 bdbf
000001d0: 11b3 adbf 5e82 22bf a933 bcbf 0378 62bf
000001e0: c595 84bf 5248 5cbf 20dc 7dbf c40d 85bf
000001f0: 56e4 a5bf 8911 d2be 47a0 b9bf 9454 bcbf
00000200: 27cc a9bf 3e7e e13e f187 78bf ce0b 8bbf
00000210: e659 57be 22cb 40bf 7409 92bf bc32 4f3f
00000220: 2bca 5abe c727 96bf 9d11 da3e bacd c4be
00000230: 77cd 64bf d8a1 da3e 94f5 57bf 7886 14bd
00000240: 7163 31bf c84a 83be d90d 4dbf 1bfe 92bf
00000250: 81e2 69bf d2b0 9bbf 1f36 33bf 6336 983d
00000260: dc49 1d3f 73bf b8be 534e 53be b82f d7bf
00000270: d494 d6be c32b 07bf cd09 ebbe 87f7 c3bd
00000280: 3fd7 97bf fd26 58bf bc22 523e 533c cbbf
00000290: 2ea5 8bbe aaca d63e 531c 38bf b249 c0bf
000002a0: bb87 2bbf b9bb 68bf 505d d53e 6447 20bf
000002b0: fd5c a1be 1269 93be 8197 22bc b417 06bf
000002c0: f366 b6bf c664 24bf 164b 52bf 51d7 563e
000002d0: d550 00c0 6694 9abf 60e1 71bf 4739 96bf
000002e0: 8925 eb3e 2cae a3bf 47a1 8dbf d54a eb3e
000002f0: 6549 07be 39f9 e33e
