ckpt/IAP/1/best_loss_BEST4.ckpt (torch, 139296 bytes, 19 tensors)

classifier.0.weight f4 [80, 12]
00000000: 9e6d 68bc dac3 50be 34c4 f63d fcbf 123f
00000010: 6c7b 523e 803a 0fbd 3941 9b3e 2e68 bb3e
00000020: 2cc3 8f3e ede0 d2bd 5c50 14be f9b1 8c3d
00000030: 1398 24be 444e c63d fac8 9ebe d7d5 27bd
00000040: b25e bbbe 7943 dc3d 6440 11bf 19f9 50bd
00000050: 4ef2 d9bd c26a b03e 604c 8d3d aef3 a6be
00000060: 415f 88be 938a 5f3e a48d e5bd 77c6 03be
00000070: cc65 bebe ad48 a33e 2ebe 31be 84a0 263f
00000080: 4919 96be 2e2f 00be ecd3 fa3c c79e 9c3e
00000090: 0c33 463d c646 59be a25d 4dbe 592d 8a3d
000000a0: 7d76 15be 1cc3 8abe b7db 503d d2eb e53e
000000b0: d563 0a3e c42b 5b3d 0e5c 5fbe a1c5 7fbd
000000c0: fb04 c0be 8597 6ebe 519f a13d 371e 5f3e
000000d0: 95d3 a1bc cea6 a13e 449a c9be d038 3cbe
000000e0: 2c32 ddbd a8b9 d1bd 1df7 d0bd e659 9f3e
000000f0: 93b0 1cbe dfa0 1f3d 5e15 f6bd 8add 2cbe
00000100: cbc6 1ebe f376 70be 75f6 83be c044 953e
00000110: 1498 e6be 0879 f43e aea2 6cbe ae4c 063e
00000120: fd27 1f3e 29c6 64be a8a4 503e 169a b63e
00000130: 18ac 0d3d 512a c03e 3e42 20bd a55e 0e3f
00000140: ff1f 8c3e 90dc 78bd f513 b8be f862 86be
00000150: d7bb a4be a75c 363e 340d a5bc acbd 91be
00000160: f518 bbbe 3123 43be 0571 853c 5caa 11bf
00000170: c46d 57be 438e 733c 0d33 b9bd 56fa da3d
00000180: 2306 443e 23c4 bcbd 8bbc a33e 8ee8 e33a
00000190: 1f8f 433c 5679 cd3e 26b4 113e 7d2a f33e
000001a0: 3769 003e b6cf 20be 9fad c73e 0f88 64bd
000001b0: 7e7c 6c3e 1c69 55be bf54 8e3e 60c4 f8be
000001c0: ee12 0a3f 4eae 0cbf 2e42 debd b150 a3be
000001d0: 33d2 7d3e 2f78 1e3e 25f2 513d c158 ee3d
000001e0: b69e 7c3d c948 ab3e 1412 86bd 28d6 b7be
000001f0: 263b c63e 7bcd f1be 418e 7a3d 3af5 f23e
00000200: 2ef2 51bc 1ba9 25be 2cb6 7f3d 8d10 9ebd
00000210: 5c8f 7b3e 154f ab3d ccfd 4ebe a68d 16bd
00000220: 594d 15be 1241 763d cf46 5bbe 6c60 023f
00000230: 5bb9 d83d 5e77 3cbe 9887 b9bc 16e4 813e
00000240: 3612 733e 1e78 643e bb98 973d 22eb c8be
00000250: c1ef 99bd 1ad1 87be c85e 7abe 45e6 e13e
00000260: 1eff a6be 9aa2 fabd afbe 313e d115 56be
00000270: 432e aabd fde2 cd3e 99ba 873e a6e2 99be
00000280: 2151 03be febf 7e3d 4ead febe 63bb d6be
00000290: 0d81 a5bd 4dfd dfbd 0913 90be c9ba 0a3e
000002a0: 20c9 a53e 6d21 15be 4be0 f23c 4226 c1be
000002b0: 58fe 133e b36b 13bf 1321 ee3d 2187 84be
000002c0: 6701 5a3e a6c5 3e3d cf04 b6be f00c e3be
000002d0: 72da 703e 1c09 dbbd ba8c 9d3e d4af 6e3e
000002e0: 06df 10be 1534 9f3e 7f96 803e 73fb 0ebe
000002f0: 196b 0d3e 0be7 60be dd6c 1dbe d294 e9be
00000300: 63a0 643d be2c c6bd e42d b73e cd51 bbba
00000310: ec5f b53d 8439 f9be dae5 1a3c d29c ebbd
00000320: fb14 dd3d 8670 2a3e 4f4c c7bc 41b3 913e
00000330: bd4f 843e 8d37 703e 935c c3bd fd0b b1be
00000340: 6cdc f63e d7d7 83be 6639 613c c25d 0cbf
00000350: 01c7 bebd 79d2 2c3d 7f72 b03e 42a1 a5bd
00000360: 790d 97be 89a1 01be 781f debe ff11 73be
00000370: 0c6c 80bd 6e4d 20bf 5b2a 89bd e1f1 8a3d
00000380: 38cc c6be aee4 f73d 56f0 34be db30 6fbe
00000390: 5d22 03be 3687 863e d873 23bc bd5e b93b
000003a0: 77e5 793e 1639 6e3e 6a65 bcbc 2ab2 5d3f
000003b0: 1962 843e 81f7 ddbd 3c80 0c3e fa94 90bd
000003c0: e2e1 773e 5572 2c3a 70f4 b03e 42a9 81be
000003d0: ad15 433e 267b 38bf b8af a33e 19e5 c3be
000003e0: e11c 123b 9da3 953d ad7e 483e a416 073e
000003f0: 7436 fc3e 144f 37be 2d47 febc aaa5 65be
-0.014186291 -0.20387211 0.120491415 0.57324195 0.20554894 -0.0349679 0.30323198 0.3660292
0.28078592 -0.102968074 -0.1448378 0.06869883 -0.16073637 0.09682897 -0.31012708 -0.040975418
-0.36595684 0.10755057 -0.5673888 -0.051018808 -0.10641919 0.3445645 0.06899333 -0.32607788
-0.26635173 0.21830206 -0.112086564 -0.12868677 -0.3718704 0.31891385 -0.17357704 0.6508868
-0.29316166 -0.12517998 0.03061863 0.30589887 0.048388526 -0.21218404 -0.2005525 0.06746931
-0.14595981 -0.27101982 0.050990786 0.4490648 0.13514645 0.053508535 -0.2181246 -0.062444333
-0.375038 -0.23299988 0.07891715 0.2178887 -0.01975421 0.31572574 -0.39375508 -0.18381047
-0.10800585 -0.10240489 -0.10203383 0.31123275 -0.15301733 0.038971778 -0.12015794 -0.16881385
-0.15505521 -0.23482876 -0.2577397 0.29154015 -0.450379 0.4774859 -0.23108932 0.13115188
0.15542598 -0.22341217 0.20375311 0.35664433 0.03458795 0.37532285 -0.039125673 0.55613166
0.2736816 -0.06075722 -0.35952726 -0.26247382 -0.3217456 0.17808782 -0.020147897 -0.2846502
-0.36542478 -0.19056393 0.016289243 -0.5690057 -0.21037966 0.014865461 -0.0904294 0.10692279
0.19142966 -0.092170976 0.31979784 0.0017388032 0.011935978 0.40131634 0.14228877 0.47493353
0.12540136 -0.15704235 0.3899965 -0.055793818 0.23094365 -0.20840877 0.2779903 -0.48587322
0.53935134 -0.5495347 -0.108524665 -0.318975 0.24787216 0.15475534 0.051256318 0.11638022
0.061674796 0.33453968 -0.06546417 -0.35905576 0.38717002 -0.47227082 0.06117082 0.47452718
-0.012814088 -0.1617779 0.062429592 -0.077180006 0.24566406 0.08364693 -0.20214003 -0.03675618
-0.14580287 0.06012065 -0.2141373 0.5092838 0.10582229 -0.1840491 -0.022647664 0.25369328
0.23737416 0.22311446 0.07402178 -0.39241892 -0.075164326 -0.2652672 -0.24450219 0.44120994
-0.32616514 -0.12238045 0.17357896 -0.2090676 -0.08309605 0.4021224 0.2650955 -0.30055732
-0.12823917 0.062194817 -0.49741596 -0.4193984 -0.08081255 -0.10936985 -0.28139523 0.13547815
0.3238001 -0.14563532 0.029647967 -0.377245 0.14452493 -0.5758621 0.11627402 -0.25884345
0.21289597 0.04657521 -0.35550544 -0.44345808 0.2352083 -0.10695097 0.30771428 0.2330926
-0.14147577 0.31094423 0.2511482 -0.13963108 0.13810386 -0.21963136 -0.1537356 -0.45621353
0.05581702 -0.09676503 0.357772 -0.0014291346 0.08856186 -0.48676693 0.009454215 -0.115045205
0.10795017 0.16644487 -0.024328379 0.28457072 0.25842085 0.23458691 -0.095391415 -0.3457946
0.48215044 -0.2575061 0.013746595 -0.54830563 -0.09315301 0.04219291 0.34462354 -0.08087398
-0.29502466 -0.12659277 -0.43383384 -0.23737334 -0.06270608 -0.6261815 -0.06697532 0.06784416
-0.38827682 0.12104164 -0.17669806 -0.2335848 -0.12806077 0.26275033 -0.00997635 0.0056570456
0.2440394 0.23263964 -0.022997577 0.8659998 0.25856093 -0.10838223 0.13720793 -0.07059665
0.24207261 0.0006578316 0.3456149 -0.25324446 0.19051237 -0.7206291 0.3197 -0.38260725
0.0022295045 0.073065974 0.19579573 0.1319223 0.49260294 -0.1790126 -0.031039799 -0.22426477

classifier.0.bias f4 [80]
00000000: a2b9 1f3d a983 4abe 500b 8c3d 399a 293e
00000010: 2b60 d7be c4b5 3bbe cac1 12be 8f87 debe
00000020: bec2 583e e358 063e bbc6 013f 3c39 0dbe
00000030: de58 b23b b4fa 94be 6fed 403e d615 0c3d
00000040: 468f 583e 468c a13e 83ed 11be 7a02 4f3d
00000050: fda4 9d3e f752 023f 69d4 103e 1621 043f
00000060: 4c0b 1cbf 8d3a d2bd 9c0d 393e 73c3 8ebe
00000070: ff68 023e cbcc 583d c3d5 9fbe 70a1 cabe
00000080: ab58 abbe 221f 3ebe 7e1c 993c 52b0 cebd
00000090: d5d0 da3c 27d6 e4bd 5d22 a6be 8c76 4f3d
000000a0: 3954 0bbf 6177 44be 994c 80be 289b 9fbd
000000b0: bb48 f83c 1fed 833e ef29 41be 86fa 0dbe
000000c0: ce0c f33d c25d 3f3d 4b81 5dbe 9d4a cf3e
000000d0: fa97 2f3e fcc9 c3be 354d 023e 0af5 aa3e
000000e0: 27c7 12be dbd2 ca3d 9444 ec3c a1c5 f03e
000000f0: 9cc3 2ebd 75d4 dfbe e7d5 163e 8c3f e83c
00000100: 788c 573e 1571 813e df29 acbd 7934 7d3e
00000110: 4ff7 393e be87 e2bd 0026 bc3d 8d61 d5bd
00000120: 272a eb3d 8cce fbbd bfb6 163e 79eb 0f3d
00000130: f8b0 bdbe b111 253e c1d3 08be 2508 163e
0.038995393 -0.19776787 0.06838095 0.16562738 -0.42065558 -0.18331057 -0.14331737 -0.43462798
0.21168038 0.13119845 0.50693864 -0.13791364 0.0054427227 -0.2909752 0.18840574 0.034200512
0.21148404 0.31552333 -0.1425076 0.05053947 0.3078994 0.50907844 0.14143528 0.51612985
-0.6095474 -0.10265074 0.18071598 -0.2788349 0.12735365 0.05292968 -0.31217775 -0.39576292
-0.33466086 -0.18566564 0.018690344 -0.10092224 0.026710907 -0.11173659 -0.32448092 0.050650164
-0.5442539 -0.19186164 -0.2505844 -0.077932656 0.030308118 0.25766847 -0.18863653 -0.13865098
0.11867677 0.046720274 -0.21631353 0.40486613 0.17147818 -0.3824004 0.12724765 0.33390075
-0.14333783 0.09903499 0.028841294 0.4702578 -0.042667016 -0.4371678 0.14730035 0.028350614
0.21049678 0.25281587 -0.08406424 0.24727048 0.18160747 -0.11061047 0.091869354 -0.10418997
0.11482649 -0.12295255 0.1471815 0.035136674 -0.3704908 0.1612003 -0.13362028 0.14651544

classifier.1.weight f4 [80]
00000000: 46b6 e53e f1f7 443f ec1d f63e 1430 983f
00000010: fa3c cc3e 8d20 3d3f c7eb de3e 3dab 8a3f
00000020: ef93 083f 7b2b 903f 594a 813f 244e 403f
00000030: ff6b 833f fa4b 6e3f 7086 403f b9f1 073f
00000040: e994 4b3f eecb 993f c7d0 5c3f 2c25 513f
00000050: 8cef 6f3f 1a7f 823f 1d66 5c3f b2b8 463f
00000060: 650d 7c3f f7dc 993f fa82 4a3f 68c0 4f3f
00000070: 40ad a23e 0d56 453f 9e1f 5b3f b293 833f
00000080: 0e64 463f f1e7 253f f108 8a3f 899a 3d3f
00000090: 27d1 e93e 15ce 893f 0a87 8b3f 51cf 243f
000000a0: fac9 693f 1e7d 483f 5236 973f 849e 013f
000000b0: 1709 413f f1bc 953f a935 353f 32c9 f93e
000000c0: 8313 3b3f 94be 3f3f f8d7 413f 7591 323f
000000d0: f5fb 2d3f c3ff 803f 6316 073f 29f7 993f
000000e0: 99f2 103f 47a9 4f3f dbbb 403f b893 3e3f
000000f0: 16ce 6a3f 26a5 5b3e 1c2b 253f 65dd 4c3f
00000100: e5f1 803f 5f16 193f d92c 4e3f 9ff3 453f
00000110: 7491 333f 570c ab3f f669 253f 54ef a63f
00000120: 1cb8 173f 1272 713f 0ada 653f e0c7 123f
00000130: d356 183f c88f 373f c539 793f 4cd4 e23e
0.44865626 0.7694083 0.48069704 1.1889672 0.3989027 0.73877794 0.4353926 1.0833508
0.5335073 1.1263269 1.0100814 0.75119233 1.0267333 0.9308468 0.75205135 0.53103215
0.79524094 1.2015359 0.8625607 0.81697345 0.93724895 1.0195038 0.8609331 0.7762557
0.9845794 1.2020558 0.79106104 0.81152964 0.31772804 0.7708443 0.8559512 1.0279448
0.7749642 0.6480704 1.0783979 0.74063927 0.45667383 1.0766016 1.0900586 0.6437884
0.91323817 0.78315914 1.1813452 0.506325 0.75404495 1.1698285 0.70785004 0.48786312
0.7307665 0.74900174 0.7572017 0.697532 0.6796258 1.0078052 0.52768534 1.2028552
0.56620175 0.8111767 0.75286645 0.7444415 0.9172071 0.21449718 0.64518905 0.8002532
1.007382 0.5979976 0.8053718 0.7732486 0.7014382 1.3363141 0.6461481 1.3041787
0.59265304 0.9431468 0.89785826 0.57336235 0.59507483 0.7170377 0.97353774 0.44302595

classifier.1.bias f4 [80]
00000000: fc89 4bbe 8dcf 01bf df75 05bf b522 97be
00000010: 5f69 d6be af72 f3be f063 f9bd a30c 11bf
00000020: 82a2 9cbe 9216 ccbe 8f43 bebe 7251 02bf
00000030: 1090 c3be 5df3 e4be 271d dcbe 9c92 1fbf
00000040: cfca 10bf efeb f5be bedb 5dbe 3a4e efbe
00000050: 9551 9bbe 8788 f6be 0bfc 67be 30a4 fdbe
00000060: cc7b efbe 67ac 88be 96b4 04bf 26b9 17bf
00000070: 0157 93bd 069e 5cbe f01b 87be 041c 95be
00000080: 8f51 0ebf 6d66 debe 261b 02bf 812b f0be
00000090: 0b2a d3be f5a9 06bf 55ca e4be d8d3 3dbe
000000a0: 6180 98be 2b1b 0cbf e27a ebbe 5a8e f3be
000000b0: deff 07bf 53f0 63be fcbe cdbe 588c e4be
000000c0: 5aa8 1abf 927f 09bf 3c41 0ebf dee4 89be
000000d0: dbe0 e4be 6c8d 03bf 1aaf 0abe b056 0ebf
000000e0: 0560 c2be 14b1 debe e4e8 03bf 476c 0abf
000000f0: 74ef 7bbe 7e29 543c 807f 5abe 1303 85be
00000100: 48b6 b6be d728 7dbe e72e 9dbe 51d8 f9be
00000110: 378e f7be 6e5c 72be 6dd3 01be 531c 75be
00000120: 5bf1 28bf 4274 02bf ec04 02bf 9397 cabe
00000130: 90ad 20be 873e e0be ea67 d4be cd1b cfbe
-0.19876856 -0.5070732 -0.5213298 -0.29518667 -0.41877267 -0.47548434 -0.12177265 -0.5665991
-0.30592734 -0.3986097 -0.37160918 -0.50905526 -0.38195848 -0.4471692 -0.4299099 -0.62333083
-0.5655946 -0.48031566 -0.21665856 -0.4673937 -0.3033568 -0.48151037 -0.2265474 -0.49539328
-0.46774137 -0.26694033 -0.5183805 -0.5926689 -0.07194329 -0.21544656 -0.26388502 -0.29122937
-0.555932 -0.4343752 -0.50822675 -0.4690819 -0.41243014 -0.52603084 -0.44685617 -0.18537843
-0.29785445 -0.54728955 -0.4599219 -0.47569543 -0.531248 -0.22259645 -0.40184772 -0.44638324
-0.60413134 -0.5371028 -0.5556829 -0.26932424 -0.447028 -0.5138767 -0.13543358 -0.55601025
-0.37963882 -0.43494475 -0.5152724 -0.5407147 -0.24603063 0.012949346 -0.213377 -0.25978908
-0.35685945 -0.2472261 -0.30699846 -0.4879785 -0.4835069 -0.23668072 -0.12678309 -0.23936586
-0.6599328 -0.50958645 -0.5078876 -0.39568767 -0.15691209 -0.43797705 -0.4148553 -0.40450898

classifier.1.running_mean f4 [80]
00000000: bab6 4e3f d609 81bf ad16 633e dd74 263e
00000010: 9893 63bf cb5f 0ebf de1e d13e 2eb9 8cbf
00000020: 7190 703f 9ca3 0cbe eaa5 3b3f 2c80 583d
00000030: aa67 adbe d387 59bf 46a5 91be d4e0 893e
00000040: 878b 833e 3066 a93d 34e2 93bf 20a8 723f
00000050: e44b 943e 79be 3f3f e60f 13be c3c7 1e3f
00000060: 7d68 99bf 4e8b 803d c780 1c3e da8e ebbe
00000070: 4b9a d9be 92eb 8d3e bb59 b8bf 68ff fdbf
00000080: eaee 49bf b97d 9dbd 1db5 d0be b799 983a
00000090: 4315 523e d524 7cbe f265 b2be 42e1 a2be
000000a0: 24ed bcbf c0f8 abbe 6846 25bd 06f0 6d3e
000000b0: 3d00 ebbe 5fb3 863f a859 28bf 0a11 81be
000000c0: 0c93 603c 0f6d 413e 2fed 19bf 86d0 a73f
000000d0: 9c10 2dbe 8497 68bf b4e4 8e3f 5e7b 78be
000000e0: a14c deba 7150 fe3e a2af ffbe d403 933e
000000f0: e939 13bf 8e94 f3bf 1d9d 033e 43e6 203f
00000100: 802c 25bd e482 783f 63e7 a9bf 10e3 103f
00000110: 363c 723f be4a 893d 89b1 8d3e 6654 623d
00000120: c0c5 75bf e928 2cbd 6ff4 6f3e 44b9 d93d
00000130: 8ab8 efbe 458a 78bd 7e51 e8be af25 823e
0.8074757 -1.0081127 0.22176619 0.16255517 -0.88897085 -0.5561492 0.40843862 -1.0994012
0.939704 -0.13734287 0.7330004 0.05285661 -0.33868152 -0.84972876 -0.28446406 0.26929343
0.25692388 0.08271444 -1.1553407 0.9478779 0.2896415 0.74900013 -0.14361534 0.6202356
-1.1985012 0.0627657 0.152835 -0.46007425 -0.4250053 0.27718788 -1.4402384 -1.9843569
-0.7888018 -0.07689995 -0.40763178 0.001164249 0.20515923 -0.24623425 -0.34843403 -0.31812483
-1.475987 -0.3358822 -0.040350348 0.23236093 -0.4589862 1.052349 -0.65761805 -0.25208312
0.013706934 0.18889259 -0.6012754 1.3110511 -0.16900867 -0.90856194 1.1163545 -0.24265811
-0.0016960093 0.49670747 -0.49938685 0.28713858 -0.5751024 -1.902971 0.12852903 0.6285135
-0.04032564 0.97074723 -1.3273739 0.5659647 0.94623125 0.06703709 0.2767451 0.05525627
-0.9600487 -0.042031202 0.23433088 0.1063104 -0.4682048 -0.06067874 -0.45374674 0.25419375

classifier.1.running_var f4 [80]
00000000: 9622 993b fb6d 183c a1fc aa3b d49a a43a
00000010: 6078 c63b 4429 d83c 7690 c63a f260 293a
00000020: e409 973a 33cd 153c 7756 413c ad17 933a
00000030: d179 453c 99a9 b039 9c92 d73c c333 3d3c
00000040: 2637 bc3a 838d 393b 3b5d 443c fe82 493b
00000050: 80d2 a73b 332e 903a 1ec5 6b3c 8320 d83b
00000060: 0143 1b3a b34d 7d3a 2811 263c 082d 073a
00000070: b0f1 453a 9046 e53a d386 ad3b 069f 8a3c
00000080: 5549 063c 23be 553a 8e53 aa39 3594 ac3c
00000090: 4919 1b3b e261 403a 49db be3a dd27 ae3a
000000a0: 2644 993c cc3f 8c3c 097c 3a39 11d0 fa3a
000000b0: 0898 193b a4b5 a23a d185 373a 0526 703a
000000c0: 4d01 3f3a d1fe e63b dd2b df39 4fa5 5c3a
000000d0: 9194 bd3c 1394 8e38 85d7 1439 9963 c43a
000000e0: c189 193a d93a 9b3a d029 9c3b 22e9 303c
000000f0: 2975 363c 570d f63a 34aa 9a3a 1d0f a13a
00000100: ca9c ba3b 3f5f 1139 9f0c 903c 5a42 0c3c
00000110: 6e0d a93c be63 b93a 6448 d53a 362b b739
00000120: 04c9 773c 784f 193a cdad 2839 a27c d639
00000130: 8b71 d038 0e3b 4c3a b20d 223b 9c88 b83b
0.0046733124 0.009303565 0.005218104 0.0012558349 0.0060568303 0.026386864 0.0015149254 0.00064612844
0.0011523333 0.009143162 0.0118004 0.0011222266 0.012052969 0.00033695696 0.026315026 0.0115479855
0.0014359697 0.0028313107 0.0119851185 0.0030748243 0.005121529 0.0011000097 0.014390258 0.0065956726
0.0005922765 0.0009662762 0.010135926 0.00051565515 0.0007550968 0.0017492343 0.0052956133 0.016921531
0.008196195 0.0008153638 0.0003248718 0.021066764 0.0023666194 0.00073388044 0.0014561202 0.0013287027
0.018709254 0.017120264 0.00017784549 0.0019135495 0.0023436565 0.0012413752 0.0007000836 0.0009160939
0.00072862656 0.0070494195 0.00042566555 0.0008416967 0.023142131 6.7986686e-05 0.00014194667 0.0014983296
0.0005857014 0.00118431 0.0047657266 0.010797771 0.011136332 0.0018772286 0.0011799992 0.0012287829
0.0056949602 0.0001386376 0.017584143 0.008560741 0.020636287 0.0014144105 0.0016272184 0.00034936675
0.015123609 0.00058483286 0.00016086474 0.0004091012 9.939362e-05 0.0007790782 0.0024727401 0.0056315195

classifier.4.weight f4 [190, 80]
00000000: b709 013d 756d 0b3e 5769 ac3a b972 b5be
00000010: c44a bb3d a6aa e03d ea7d 583d 5d19 aabe
00000020: 0b68 4b3d 0595 c93d 316d bfbe e8e3 0abe
00000030: 949e 10bf f62c 363d 2611 eabd e2a7 c43d
00000040: e31f 1c3e 16b3 893c 1690 883d 7d73 a2be
00000050: 7854 303e c571 5cbe a7da 2ebc 718a 263d
00000060: a870 c33c ab05 c2be 86be ac3d 8b99 df3e
00000070: 03b3 ba3d 7d9e c8be 137c 1b3e 5385 b9bd
00000080: 70d1 903e 1a40 493e 2e82 9cbc 3157 51bc
00000090: f2be 823d adec adbb 56f5 81bd 01e1 aebe
000000a0: b305 b4be 15e5 f03e 0a27 bdbc 7066 c63d
000000b0: 4f57 b9ba 2386 cbbe 4a75 773d 4e87 0dbe
000000c0: b643 e9bd 1e65 553e 837c 1abc 9454 f6bc
000000d0: c7fb a9bd 3743 9b3e a902 d3be 29b8 37be
000000e0: 8f21 9cbc c213 143e 96ae 653e 790b 0b3f
000000f0: e588 5fbd 3ebf bdbd 1010 823c e284 b4be
00000100: 30f2 59be ae5c 9abe 51c2 babd e1f0 573e
00000110: f844 073e 8407 abbe d674 0fbf c0fb a9bc
00000120: ce35 4cbc acec 0cbb 1dfc 573e 0a13 bbbe
00000130: d683 a5be 3c35 98be 331b 903c 1605 d63d
00000140: a9dc 15bf 1add 3ebe b82d debe 8b6b ad3d
00000150: 9412 c4be 5b66 babe ebdb 10be 1aab a33d
00000160: a54c 65bc 6b1c 3f3e 8cb8 473e 11de ddbd
00000170: 644a 313e 00cb dcbc 74e0 173d d806 ecbc
00000180: 4560 38bc 22e5 953e 134f 97bc 1397 efbe
00000190: 7f55 283d bab2 1c3d 7a50 673e d9ad a6bd
000001a0: 3759 8bbe d977 223e 1e1f e5bc 672d 8e3e
000001b0: 2876 db3c c57a c3bd f35d 453e 831e 4a3e
000001c0: 57fa 093d 1983 2ebd f211 edbd 01ee 40be
000001d0: cb43 9fbe fdb5 aebe c101 483d b779 1bbe
000001e0: 1ba5 233e 6326 6fbe 3321 253d e769 34bf
000001f0: 0263 d7bd 83ad b23d 7c8e 75be 90fa 203e
00000200: 695d 66be 3570 2cbe d81d 8bbd 297e 3ebd
00000210: 2582 6d3c 9c63 9b3e b4f4 a7bd cf2e 5b3e
00000220: a0a4 5a3d 6e90 79bd 153a 00be 9099 3fbd
00000230: ee38 00be 22ec 643d 5b8d dcbd 4f3a debd
00000240: 6da5 173f 8e32 52bd 4d43 983d d6d1 86be
00000250: f3d7 6abe 9f5d 993d 11f2 0ebc a3b1 4e3d
00000260: 5227 9d3c 28ef 1cbd c217 343d f7fd 9fbe
00000270: 5fd8 fabd 989f 6e3e d339 303b 7a38 aabe
00000280: 48b0 0bbd fc62 823e 034b 0ebe 6fea 10be
00000290: a0bd b1bd 5401 ad3e a01e 2dbe b551 53be
000002a0: 0fb0 c7bd 1c72 56be 1161 8fbe cde4 09be
000002b0: b147 59be 6e3b b93d e0de ff3d 92d8 13be
000002c0: c842 9a3e 7a75 49be 664d c3be a17d bfba
000002d0: 1ba0 eebe 23d2 bcbe b142 16bf 169f d73e
000002e0: 895d a6bd a948 ef3b d1fe a43e c410 a13d
000002f0: f6a0 e4bc 9f27 75bd 698c 2cbf f519 89be
00000300: 4f3b ba3e b28f 173e f633 013d 113b a73e
00000310: ba93 bbbd 2f97 363d 3b36 a03b d67e 01bd
00000320: 0717 48bd 6d10 b33e be63 d6bd 2411 47be
00000330: 9190 bd3e 76dc 2fbe 0104 c7bd 55ae dcbc
00000340: de14 30be 4713 683e 7b37 83be 0e26 edbd
00000350: a121 3cbe c29f 033e 9bae a3bd c87a 1abe
00000360: fcc3 bfbd 38f0 ab3d 8f1d b33e 5749 183f
00000370: 016c 0bbf 9885 cf3c 8866 8ebd 244e 9b3d
00000380: 66a9 aebd c445 debd 804b 4f3e 0b5f 5a3e
00000390: ec96 0c3e ea0c 02be 4e1e 1dbd 93c7 48be
000003a0: 9407 dabd 26c3 343d a641 1abd 3c46 2abe
000003b0: a06c 7fbd 30e5 2abc 68b0 a63d 6355 bbbd
000003c0: cf87 27be 0a54 83bd 635e 38be 32d4 da3d
000003d0: 3444 afbe 15f1 b73d 1b83 e1bd 698f be3d
000003e0: e0b5 82bd 0ffe 5f3d 8f2b 843d 2ee2 ffbd
000003f0: e87d b73e 5e90 e63e 40cd ecbe 525f 97be
0.031503405 0.13615973 0.0013153952 -0.3543909 0.0914512 0.109700486 0.052854456 -0.33222476
0.04965977 0.09842876 -0.37387994 -0.13563502 -0.5649197 0.04447647 -0.11429052 0.096023336
0.15246539 0.016809028 0.06668107 -0.31728736 0.17219722 -0.21527775 -0.010672248 0.04065937
0.02385743 -0.3789495 0.08434777 0.4367183 0.09116175 -0.39183417 0.1518405 -0.09058633
0.28284788 0.19653359 -0.019105043 -0.012777136 0.06384076 -0.005307755 -0.06345622 -0.3415604
-0.35160598 0.47049776 -0.023089904 0.09687507 -0.00141404 -0.39750776 0.06041459 -0.13821146
-0.11389868 0.20839354 -0.0094291 -0.030069627 -0.08299976 0.30324718 -0.41212967 -0.17941345
-0.01905897 0.14460662 0.2242988 0.5431438 -0.054573912 -0.09264992 0.0158768 -0.35257632
-0.21283793 -0.30148834 -0.09119094 0.21087982 0.13209903 -0.3340417 -0.5603765 -0.020749927
-0.012464 -0.0021503372 0.21092267 -0.36537963 -0.32327145 -0.29728115 0.017591095 0.10450189
-0.58539826 -0.18639031 -0.43394256 0.08467778 -0.38295424 -0.36406216 -0.14146392 0.079916194
-0.013995324 0.18663184 0.19503993 -0.108333714 0.17313534 -0.026952267 0.03707929 -0.028811857
-0.011253421 0.29276377 -0.018470323 -0.46794948 0.04109716 0.038256384 0.22589293 -0.081386276
-0.27216503 0.15866031 -0.02796894 0.27769014 0.02678974 -0.09544901 0.1927412 0.19738202
0.03368601 -0.042605493 -0.115756884 -0.18840791 -0.3110641 -0.3412322 0.048829798 -0.1518315
0.15980951 -0.23354487 0.040314864 -0.70474094 -0.10516931 0.08724501 -0.23980135 0.15720582
-0.2249657 -0.16839679 -0.067928016 -0.046507034 0.014496361 0.30349433 -0.0820097 0.21404575
0.053379655 -0.060928755 -0.12522157 -0.046777308 -0.12521717 0.055889256 -0.10769149 -0.10850965
0.59236795 -0.051317744 0.074347116 -0.26331967 -0.2293394 0.0748856 -0.008724705 0.050462376
0.019183788 -0.038314015 0.04396797 -0.31248447 -0.12248301 0.23303068 0.0026889935 -0.33246213
-0.03410366 0.25466144 -0.13895802 -0.1415193 -0.08678746 0.33790076 -0.16906214 -0.20636638
-0.097503774 -0.20941967 -0.28003743 -0.13466187 -0.21218754 0.090445384 0.12493682 -0.14438084
0.30129075 -0.1967372 -0.38144988 -0.0014609584 -0.46606526 -0.36879072 -0.58695513 0.4211356
-0.08123309 0.007302363 0.3222566 0.07864526 -0.027908783 -0.05985224 -0.6740175 -0.26777616
0.36373374 0.14800909 0.031543694 0.32662252 -0.09159036 0.044577774 0.0048892773 -0.0316151
-0.048850086 0.3497347 -0.10468243 -0.19440132 0.37024358 -0.17173943 -0.097175606 -0.026938597
-0.1719546 0.22663604 -0.25628266 -0.11579524 -0.18372203 0.12853912 -0.07992288 -0.150859
-0.09363553 0.083954275 0.3498349 0.5948691 -0.54461676 0.025332257 -0.0695315 0.075832635
-0.08528404 -0.108531505 0.20243645 0.21325319 0.13729447 -0.12700239 -0.03835898 -0.19607382
-0.10645977 0.04413142 -0.037660263 -0.16628355 -0.062359452 -0.010430619 0.081391156 -0.091471456
-0.163604 -0.064125136 -0.18004756 0.10685004 -0.34231722 0.089815296 -0.110113345 0.09304697
-0.06382346 0.05468565 0.06453621 -0.12494312 0.35838246 0.45032018 -0.46250343 -0.2956491

classifier.4.bias f4 [190]
00000000: 114e 3a3e 6d88 d83d 8d9b 98ba 8753 f33c
00000010: c784 1dbe 36a1 013e 4fff 12be 4327 e4bd
00000020: 0b81 01be 5421 263e 2958 b13d 23c8 dcbd
00000030: 563c b7bd 14ae ac3c 031d 173d 0b44 8ebd
00000040: b85c aabc 0c6c c03d 6db2 cbbd fe89 93bd
00000050: d84e 383d 34df 5f3d 0587 cbbd 9948 0e3c
00000060: 7452 d4bc bc2f dbbd 328f 4d3b 11d0 12be
00000070: dc8d c5bd d4bc 553c 3090 e73c 4aec bf3d
00000080: f010 1c3e b10a 30bd 25f0 4cbc ef98 833d
00000090: c343 ad3d 5fff 52bd 62d1 9ebd b545 3e3d
000000a0: f42c 043c 905c 4bbd e46e f7bd a6f2 a83d
000000b0: 98fa dcbc 2639 413e d486 ef3c 44d8 613e
000000c0: 705f acbd 7dc4 3abe 5e87 fd3c d1e4 3abe
000000d0: c3c9 793d 217e 4abd 697d 143d e164 413d
000000e0: 3c9d e3bc b004 ed3c 8d75 193d e8e3 2abd
000000f0: 7c17 9fbb 3aa0 23bd 1108 713e 5c16 97be
00000100: 87ed 9ebc 1bd7 81bd 13a2 01be 9e1a b53c
00000110: 7c19 0a3e 30c3 bc3c c6d2 fabd 9f11 56be
00000120: 4339 9b3e a1a4 91be 6525 dbbc 38cc e03d
00000130: 1e3b 813d 0074 393d cfe0 313a e8f1 073e
00000140: 936f a6bd 31ae c9bc 12d2 aabc 6d49 2bbc
00000150: fc00 a73d dc03 133e 3ce2 5c3d 8d75 c93c
00000160: 4ca3 19be 7cdc bdbd a44f f13d 2cf9 0d3d
00000170: 4f97 3dbd 3a90 cc3d eff8 90bc f3c8 243b
00000180: e62e e03d 4515 f9bd 81a9 033c 6d08 ef3d
00000190: 23d9 11be 78d8 00bd 3df9 9abd d5da 543d
000001a0: f923 753e 907e bcbd 85c6 0e3e e9ed 023e
000001b0: 5b16 14bd b24e 37be 3d3b 483e 99f4 3f3e
000001c0: 37a6 023e 4d4e 54bd 7329 ac3b 8598 403c
000001d0: d0a2 00bd ba19 6d3e fe0f 543e 8710 d03d
000001e0: fb91 d4bb c7fc aebd ed64 923e a464 4fbd
000001f0: 19a4 90bd 171c 21bc 67f3 0c3e afad 4c3e
00000200: 2dab d1bd 14ec 0b3e 67a6 d23c 90e1 743d
00000210: c55b 2a3d c7c0 2d3e 22b6 57bd c8b1 40be
00000220: 6663 ab3a 55bc 513e 7582 86bc 41b8 ad3d
00000230: ab4f 2b3c be7e 3f3e 868d 48bd d0d9 22be
00000240: 5743 97bd cb0f fabd 7234 413d 2f48 7a3d
00000250: c1c4 67be a64c 1e3e 7ea0 94bd c446 89bc
00000260: d1e7 e2bb 268d 793c 704d 783d 421c b5bc
00000270: e7ff e9bd 068b bc3d 2163 163e 9e52 40be
00000280: 95f1 e2b7 1f84 d1bd 0ac4 83bd 3786 26be
00000290: 9e89 1b3e e0f7 49bc be01 42bc a83d 30bd
000002a0: e313 b9bd 6949 a0bd 2272 a0bc 1432 883d
000002b0: 9d55 afbc 16ee ccbd ad85 37be efb3 683b
000002c0: 3681 05bd f103 1e3c 86a2 953d 6348 6a3c
000002d0: 28ad 2b3c c4b8 94bd 6144 f83c 2dc9 18bd
000002e0: d24b 1d3e 5b3c 90bc 1285 8ebb 7905 cfbd
000002f0: 76fe 56bd e7ba c93c
0.18193842 0.10572896 -0.0011643037 0.029702915 -0.15382682 0.12659153 -0.14355205 -0.11140301
-0.12646882 0.16223651 0.08659393 -0.107803605 -0.08947055 0.0210791 0.036892902 -0.06946572
-0.020796165 0.09395608 -0.099461414 -0.07204054 0.044997066 0.054656222 -0.09937862 0.008684301
-0.025918223 -0.10702464 0.0031365869 -0.14337184 -0.09646198 0.013045508 0.028266996 0.093712404
0.15240836 -0.042978946 -0.012508427 0.06425654 0.0846019 -0.051513072 -0.0775478 0.046453197
0.008067358 -0.04964882 -0.120816976 0.082494065 -0.026974961 0.18869457 0.029239096 0.22055155
-0.08416641 -0.18239017 0.030948337 -0.18251349 0.06098343 -0.049436692 0.036252413 0.047215346
-0.027784936 0.0289329 0.03746562 -0.041721255 -0.0048550945 -0.039947726 0.23538233 -0.29509246
-0.019400371 -0.06339856 -0.12659483 0.022107419 0.13486284 0.023042291 -0.12247233 -0.2090516
0.30317125 -0.28445914 -0.02675123 0.10976452 0.06310104 0.04527664 0.0006785513 0.13275874
-0.0812675 -0.024619194 -0.020852122 -0.010454518 0.08154485 0.14356941 0.05392669 0.024592185
-0.15003699 -0.0927057 0.11782768 0.034661457 -0.046286877 0.099884465 -0.017696826 0.002514419
0.10946445 -0.1216226 0.008036018 0.11671529 -0.14242987 -0.03145644 -0.0756707 0.051966507
0.23939504 -0.092038274 0.13942917 0.12786068 -0.036154132 -0.17901114 0.19553848 0.1874565
0.12758718 -0.051832486 0.0052539646 0.0117551135 -0.03140527 0.23154345 0.20709226 0.10159402
-0.006487129 -0.08544307 0.28592625 -0.050633088 -0.07062549 -0.009833357 0.13764726 0.1998813
-0.10237727 0.13664275 0.025714112 0.059785426 0.041591424 0.1696807 -0.05266393 -0.18817818
0.0013075888 0.20481999 -0.016419629 0.08482409 0.010456006 0.18700692 -0.048963092 -0.15903401
-0.07385891 -0.122100435 0.047169156 0.061103996 -0.2263365 0.15458927 -0.07257174 -0.016757376
-0.0069246073 0.015231406 0.060620725 -0.022108201 -0.114257626 0.09206204 0.14686252 -0.18781516
-2.7053795e-05 -0.10230278 -0.06433876 -0.16262136 0.15189216 -0.012327164 -0.011841236 -0.04302755
-0.09036996 -0.07826502 -0.019585673 0.06650177 -0.021403128 -0.10006349 -0.17922087 0.003550764
-0.03259393 0.009644494 0.073063895 0.014299485 0.010478295 -0.07261804 0.030306043 -0.03730123
0.15360954 -0.017606905 -0.0043493593 -0.10108466 -0.052488767 0.024625255

classifier.5.weight f4 [190]
00000000: 0561 913f 9e68 4a3f f994 823f e364 6b3f
00000010: 24d5 603f addb 823f 7888 483f 5c7d 733f
00000020: ec59 593f 6601 5e3f 81cc 613f 3baa 3e3f
00000030: 004c 843f 6f5a 643f f667 3e3f 2e3b 2f3f
00000040: daac 653f 6a03 6e3f e88e 4d3f 07d0 4a3f
00000050: 23e8 1c3f 9c14 753f 212f 763f b2a3 8b3f
00000060: aa09 483f 85b9 943f 3223 643f e6f4 893f
00000070: 9441 743f 9a78 6e3f 2ab5 8a3f f4c0 5e3f
00000080: b6a0 803f 37ec 053f 324f 283f 6965 6c3f
00000090: ab66 8b3f ae64 973f a85d 6f3f e8b2 873f
000000a0: 8ead 823f e109 473f 5048 643f b8e7 113f
000000b0: d35f 833f d317 193f ee10 873f 00ea 643f
000000c0: 47ad 883f ed90 873f ddf7 3e3f b760 5e3f
000000d0: cb3a 5a3f 7162 5d3f a4b6 573f cfb6 8a3f
000000e0: a0d1 223f 8ed5 753f 0595 113f 759f 553f
000000f0: bfc7 5c3f d123 7c3f a4b1 4c3f 86fe 8f3f
00000100: c223 6f3f ed24 6d3f be71 203f aaca 243f
00000110: 908f 823f f222 753f bd7d 893f 9c5f 773f
00000120: 5958 713f 479f 823f 54b9 893f 78e1 da3e
00000130: 259b 7a3f b022 903f 1e36 673f 3edb 3f3f
00000140: 6cf5 7f3f 7810 503f d725 3d3f 6609 6b3f
00000150: f619 783f e39f 903f f5cd 4e3f 22dd 973f
00000160: 71e5 793f 01d9 5a3f 685a 733f b479 3e3f
00000170: 102a 383f 3457 873f c5e5 6a3f 4e86 833f
00000180: 7fd2 6b3f 3c99 7a3f 634e 7f3f ef3c 843f
00000190: 18a2 773f 5e2d 033f 3b6e 133f bc00 5a3f
000001a0: ab68 353f 3500 383f 3467 5b3f f429 5f3f
000001b0: 5c52 683f 5972 413f cb92 6f3f 6469 683f
000001c0: f798 7c3f a4d9 833f e7fb 853f 08c2 6f3f
000001d0: e951 7b3f d201 673f cc08 7a3f 915d 813f
000001e0: 5b01 8e3f 1ca0 753f e01c 693f 9a39 473f
000001f0: f6cc 2a3f 104a 7b3f 3f29 7a3f 2d4b 913f
00000200: 97d5 873f 8e77 7b3f c55f 3d3f beed 6f3f
00000210: 5eb6 5a3f 1bd3 253f 7ea8 3a3f 051c 623f
00000220: 4b66 763f 886c 553f 4ed2 903f bcf5 5e3f
00000230: a934 803f 99d7 6f3f 3ecd 703f c85f 653f
00000240: 5bf2 413f b3fa 823f fb2c 203f 1d6a 453f
00000250: c983 993f dbff 5d3f 7634 403f ebb5 953f
00000260: 80d7 7a3f fa56 673f 2fdc 2a3f be4a 823f
00000270: 0d16 893f e0d8 2d3f 73d8 663f 9627 1d3f
00000280: b2f0 583f 19ad 4b3f c501 293f 5944 883f
00000290: 0dfd 783f 1b18 053f a269 803f 3913 133f
000002a0: dc50 793f 2ba4 533f 2e85 713f 59ec 4e3f
000002b0: 2405 853f 584b 443f d117 873f 87d1 403f
000002c0: d854 823f 5ce6 6a3f 0416 373f ebac 823f
000002d0: 1934 733f 9d43 453f a5b4 863f fcf3 2d3f
000002e0: acb4 823f b6e5 183f 2a84 813f 4b13 603f
000002f0: 7676 5b3f 8dba 2a3f
1.1357733 0.79065883 1.0201713 0.91950816 0.87825227 1.022329 0.78333235 0.9511316
0.84902835 0.86720884 0.88202673 0.744785 1.0335693 0.8920049 0.7437738 0.68449676
0.89716876 0.9297396 0.8029618 0.79223675 0.6129171 0.9573457 0.96165663 1.0909331
0.78139746 1.1619116 0.89116204 1.0777862 0.95412564 0.93152773 1.0836537 0.87013173
1.0049045 0.5231356 0.6574584 0.9234224 1.0890707 1.18276 0.93502283 1.0601473
1.0209215 0.7774945 0.8917284 0.569942 1.0263618 0.5980198 1.0552042 0.89419556
1.067788 1.0591103 0.7459696 0.86866325 0.8524596 0.86478335 0.8426306 1.0837039
0.6360111 0.96028984 0.5686801 0.8344644 0.8624229 0.9849215 0.7995856 1.1249549
0.9341394 0.9263447 0.62673557 0.6437174 1.0200062 0.9575645 1.0741497 0.96630263
0.9427543 1.0204858 1.0759683 0.42750144 0.9789298 1.1260586 0.9031695 0.7494391
0.9998386 0.8127513 0.73885864 0.91811216 0.96914613 1.1298794 0.80783015 1.1864359
0.97615725 0.8548737 0.95059824 0.74404454 0.7193918 1.0573487 0.9175685 1.0275362
0.92118067 0.9789007 0.99728984 1.0331095 0.9673171 0.512411 0.57590073 0.8515737
0.70862836 0.71875316 0.8570435 0.8717339 0.9075067 0.75565106 0.93583363 0.90785813
0.98670906 1.0300794 1.04675 0.93655443 0.9817186 0.9023715 0.9766967 1.0106679
1.1094164 0.9594743 0.91059685 0.7782227 0.66718996 0.98159885 0.97719187 1.1351067
1.0612057 0.982293 0.7397426 0.9372214 0.8543452 0.64775246 0.7291335 0.88324004
0.96249837 0.8336873 1.131418 0.8709371 1.0016071 0.9368835 0.94063175 0.89599276
0.7576043 1.0232757 0.62568635 0.7711504 1.1993343 0.8671853 0.7508005 1.1696142
0.97985077 0.9036709 0.66742224 1.017906 1.0709854 0.6790905 0.90174025 0.6138853
0.8474227 0.79561 0.66018325 1.0645858 0.97261125 0.5198991 1.0032237 0.57451206
0.97389007 0.82672375 0.9434384 0.8082939 1.0392194 0.76677465 1.0554143 0.75319713
1.0182142 0.9175775 0.7151797 1.020902 0.9500137 0.77056295 1.0523878 0.67950416
1.0211387 0.5972551 1.0118458 0.8752944 0.8572763 0.66690904

classifier.5.bias f4 [190]
00000000: 7738 08bf 25de d63c 6013 d1be 655e 4abe
00000010: e553 d2be 15db 96be efe9 11bf fd6d 7abe
00000020: f631 dabe b6a4 6bbe eb25 25bf 8edb b4be
00000030: 3d72 1abf 6088 71be 9778 00bf cf22 d9be
00000040: f6bd 31be c841 40be 6553 14bf dd86 e4be
00000050: 1559 37bf a3ab f8be 6cda 1abe 4cae a9be
00000060: 9a60 e1be c091 1cbf 04b8 9abd 68a6 13bf
00000070: 793b 8ebe e477 92be 5037 abbe e38c 18bf
00000080: 2d8f 98be 1131 89be 2815 92be 4963 2abe
00000090: 7d48 a1be 9688 24bf 0df2 c8be 6000 a1be
000000a0: 0fad 58be 4b16 45be 9904 e3be c0b0 31be
000000b0: dae2 05bf 98b5 a8bd 3c8b e4be e053 43be
000000c0: 06d7 14bf 34b4 3dbf 8cf2 e5be 7521 0fbf
000000d0: c2f6 33be 1f60 04bf 2b3a 0cbf 26a1 04bf
000000e0: 9a5b c9bc 88e6 7abe c461 57be 4549 c9be
000000f0: ba02 6abe 5f12 a8be ff9a b0be a3af d2be
00000100: b370 e7be fde9 dcbe 254b 9dbe b531 2bbe
00000110: 041d a5be 5a42 9abe 113d c7bd 962a d9be
00000120: bc26 6fbe 3959 0fbf f4c4 f5be 9338 f2be
00000130: df7f 13bf 06f6 c6be 45f4 bebe a5a2 20bf
00000140: 7747 08bf be2c dbbe e6fd f0be 33cf 0abf
00000150: ae3e 00bf 3173 b7be 661e 0bbe c34a e4be
00000160: f49a d5be 4bed 00be 5b3b 00be be6d fcbe
00000170: 123b 24bd 416a 0dbf db06 cfbe b94b e5be
00000180: 4ec9 90be d509 7fbe 6af0 81be cda8 03bf
00000190: 8e27 34be 896f 88be f9de 87bd 18f2 1bbf
000001a0: 4983 babc 24d0 c7be 3ed5 2abe 7e9d dcbe
000001b0: d8ec e4be 5b66 9cbe c4fc c9be d59c 4ebe
000001c0: 8818 17bf 8e48 d1be faf4 00bf effd fbbe
000001d0: 8afa 0bbf f8e1 07bf 8f27 68be f2b5 abbe
000001e0: 6c37 04bf dbad c6be 3a16 efbe b34f 0abf
000001f0: 3a2b d0be 3a86 d2be 738d e7be a081 08bf
00000200: e6ff c4be 5b17 cabe 51d0 633c 624b a9be
00000210: 9913 24be 42a5 9bbe 4eb1 31bf 673e b2be
00000220: 106c adbe 2f8b 77be 883c a5be 79d9 64be
00000230: dc3f 97be df71 cfbe 3b5b cebe 7427 e4be
00000240: 37f6 22bd d71d f8be 7aa8 63be 0783 10bd
00000250: 7a62 d3be 3fce f3be 500d 263b f008 93be
00000260: 0091 d7be 435f 6abe f52e 6cbe b134 61be
00000270: b142 1dbf d384 01bf 54aa 72be d5a2 7abe
00000280: e63b 86be 446f 0abf 2f12 23bf 0c56 00bf
00000290: cfde 8ebe 92d7 d9be 058d 07bf 02eb 39be
000002a0: e225 11be d62a 6cbe 7eae 87be d5a2 b7be
000002b0: 5155 a2be 0b19 7bbd 359c aebe 7b0d ffbe
000002c0: 149c 91be 54d2 bebe 4b6b 03bf 3dcf bebe
000002d0: 6189 eebe 73b0 ebbe e262 c1be d22b cbbe
000002e0: 769f 2bbf 1161 8abe 4275 b7be e37e 71be
000002f0: 6ec7 9ebe 839e babe
-0.5321116 0.026228974 -0.40835094 -0.19762571 -0.4107963 -0.2946402 -0.5699758 -0.2445602
-0.42616242 -0.23012051 -0.64510983 -0.35323757 -0.60330564 -0.23587179 -0.50184005 -0.4240937
-0.1735762 -0.18775094 -0.5793975 -0.44634143 -0.71620303 -0.48568448 -0.15122384 -0.3314079
-0.44019014 -0.61159897 -0.075546294 -0.5767579 -0.2777975 -0.28607094 -0.33440638 -0.59589976
-0.29796734 -0.26795247 -0.28531766 -0.16639437 -0.31500617 -0.64270914 -0.3924717 -0.314456
-0.21159767 -0.19246785 -0.44339445 -0.17352581 -0.52299273 -0.08237761 -0.44637477 -0.19074965
-0.581406 -0.74103093 -0.4491161 -0.55910426 -0.175746 -0.5170917 -0.5477626 -0.51808393
-0.024579812 -0.24502003 -0.21033388 -0.39313713 -0.22852603 -0.32826516 -0.34493253 -0.41149625
-0.4520317 -0.4314727 -0.30721393 -0.1671818 -0.322487 -0.30128747 -0.09728444 -0.42415303
-0.2335462 -0.5599552 -0.48001826 -0.47308788 -0.5761699 -0.38859576 -0.37295738 -0.62748176
-0.53234047 -0.42807573 -0.4706871 -0.5422241 -0.5009564 -0.35830072 -0.13585815 -0.4458829
-0.41719782 -0.1259052 -0.12522642 -0.49302477 -0.040095396 -0.55240256 -0.40434918 -0.44784334
-0.28278583 -0.24906094 -0.25378734 -0.51429445 -0.17593214 -0.26647595 -0.066343255 -0.6091628
-0.02276768 -0.39025986 -0.16682908 -0.43088907 -0.44711947 -0.3054684 -0.39450657 -0.20177014
-0.59021807 -0.40875667 -0.50373805 -0.49217173 -0.5467917 -0.53079176 -0.2267134 -0.3353725
-0.5164707 -0.38804516 -0.46696645 -0.5402786 -0.4065798 -0.41118032 -0.45225105 -0.5332279
-0.38476485 -0.39470944 0.013904647 -0.33065325 -0.16023101 -0.3039952 -0.6941117 -0.34813234
-0.33871508 -0.24174188 -0.32272744 -0.22348584 -0.29540908 -0.40516564 -0.40303978 -0.4456135
-0.03978559 -0.48460266 -0.22232237 -0.035281207 -0.4128607 -0.4761829 0.0025337525 -0.28717756
-0.42102814 -0.22887902 -0.23064788 -0.21992756 -0.6142989 -0.505933 -0.23697788 -0.24476178
-0.26217574 -0.5407603 -0.6369962 -0.501313 -0.27904364 -0.4254728 -0.52949554 -0.18156055
-0.14174607 -0.23063216 -0.26500314 -0.35866418 -0.31705716 -0.06130318 -0.34103552 -0.49814972
-0.2843939 -0.37269843 -0.5133559 -0.37267485 -0.46589187 -0.46033058 -0.37770754 -0.3968187
-0.67040193 -0.2702718 -0.35831648 -0.2358356 -0.31011528 -0.3644906

classifier.5.running_mean f4 [190]
00000000: 1d0d 0bbe 0c2e 8bbe 42bb f1bd 215f 2cbe
00000010: 9ebf 8dbe c930 f8be 7b65 24bf fbb3 99be
00000020: 5376 b5be 06a1 05be 3634 f8be c0a5 fc39
00000030: 48d4 82be 3c7d 32bf 9dce bebe 9a2d 9abe
00000040: 2ba0 dfbd 823c 4dbe bd8a 3bbf dabf c4be
00000050: 0c65 703d b859 85be e4ef 2abe 94e7 5ebb
00000060: 0272 61be 911c eebe e2ae a7be a887 cdbe
00000070: 7e0b bfbc 525d 17be c888 29bf 9616 98be
00000080: 40a9 4ebe 5bb4 cdbc 62c3 a0be f554 c7bd
00000090: c3fb ebbe 2ae3 9fbe c0c3 c3be 0699 1bbf
000000a0: 7b9e fbbd 3a6f cfbe 8b4f c9be f1bb 0b3f
000000b0: 840b c4be e8a8 ab3e 50cf 99be 3aab 243e
000000c0: 7c37 70be a9cf 1fbf 5ff4 c5be 6e16 3bbf
000000d0: 5ddb bd3e 60bf 0dbf 1020 9dbe 1e19 12be
000000e0: c929 363e 6781 55bd 2c85 f63e 82e3 15be
000000f0: ffa8 d5be eb9b 24bf 7978 0cbe 373f e4be
00000100: 3642 bfbe f56c 73be 28f1 21be 9a4f 133e
00000110: 3eea b1be e3bd 12bf b7bf a9be e9a6 dfbe
00000120: 94a9 bcbe da64 e8be 04f6 77be 4ab7 b43e
00000130: b2b6 94be 5dc8 debe 2434 10be a388 dd3c
00000140: ec84 47be 3e40 55ba a3c9 e8bd 330b 1bbf
00000150: b871 c7be abad c6be dee5 e7be 6084 fcbe
00000160: ce63 1bbf 4574 61be 2625 58be bb7a 70be
00000170: 1c4c 6c3e 70cb 70bd 9722 93be e2eb 72be
00000180: 3329 12bf 7912 a9be 8646 94bd 8796 b13c
00000190: 00d0 95be 7911 debd eb2e 593e 0013 d5be
000001a0: 39b8 153f e34b b13e 2d91 94be 9c9b 3fbe
000001b0: b7be 8fbe 4274 8bbe 1142 54be 5e27 fc3d
000001c0: 6b48 8a3d f3c8 2dbe 94d8 6dbe 145b d2be
000001d0: cae4 19be 0606 30be ddf3 793c 2c05 aa3c
000001e0: b8b0 8dbe 1bdc a3be f976 223e 5778 2dbe
000001f0: 3b08 88be 1fb5 dfbd 622e d2be 84a1 01be
00000200: 89ef 85be 4a94 fbbd dcea dfbe 0fc8 2bbe
00000210: 2c46 c8bd 5805 433e ce06 6bbe 35e2 c2be
00000220: ea61 a5bd fb7f 6dbe 9f32 c3be 54ee 62bd
00000230: c94e a9be c974 4fbe 773e c0be 87b8 a0be
00000240: 638f 853e a032 7ebe 6afb d23c eeba c73e
00000250: c704 06bf 7b57 7bbe b7c6 16bf 516a 1fbf
00000260: 8a66 20be 1ab3 3ebd a7b7 263e 2f44 1cbe
00000270: 8161 c6be 042d c7bc c785 11bf 1e21 7bbe
00000280: 6161 51be e2af 5fbe 44ce 0ebe c598 d4be
00000290: 1d64 fcbe 6d9f ac3d d3fa 0bbe a1c3 483d
000002a0: 59a3 d5bd e8b5 3cbf a1e9 2e3d 0945 16be
000002b0: 4188 2abf fe5d f6be 0220 75be de91 05bf
000002c0: 2544 d7be 783b dbbe 2852 54bd 077e d5bd
000002d0: 7a2c 91be 3173 bfbe c30d a9be f4ef 28bf
000002e0: a3bf bd3d 7997 6f3c 2045 d6be e2d5 5cbe
000002f0: 0e73 91be 69da 93be
-0.13579221 -0.27183568 -0.11803295 -0.16833164 -0.27685255 -0.4847472 -0.64217347 -0.30020127
-0.35441837 -0.13049707 -0.48477334 0.0004818868 -0.25552583 -0.6972234 -0.37267008 -0.30112916
-0.109192215 -0.20042613 -0.7325857 -0.3842762 0.058690116 -0.26045012 -0.16693074 -0.0034012543
-0.22016147 -0.4650617 -0.32750612 -0.4014256 -0.02332091 -0.14781693 -0.66224337 -0.29704732
-0.20181751 -0.025110414 -0.31399065 -0.09733001 -0.46090516 -0.31228 -0.38235283 -0.6078037
-0.12286087 -0.40514547 -0.393185 0.5458365 -0.38290036 0.33527303 -0.3004098 0.16080943
-0.23458666 -0.6242624 -0.38663003 -0.730811 0.37081423 -0.5537014 -0.30688524 -0.14267394
0.17789377 -0.05212536 0.48148477 -0.14637569 -0.41730496 -0.6430041 -0.13717832 -0.4457948
-0.37355202 -0.23772033 -0.1581465 0.14385834 -0.34749025 -0.57320994 -0.3315408 -0.4368203
-0.36848128 -0.45389444 -0.24214941 0.35296088 -0.29045635 -0.4351224 -0.1408239 0.027042693
-0.194843 -0.0008134878 -0.11366584 -0.60563964 -0.38953948 -0.38804373 -0.45292562 -0.49319744
-0.60699165 -0.2201701 -0.21107921 -0.23484318 0.23075908 -0.058787763 -0.28737327 -0.23722795
-0.57094115 -0.33021906 -0.07240014 0.021678222 -0.29260254 -0.108431764 0.21209304 -0.41616058
0.58484226 0.3462821 -0.2901701 -0.18711704 -0.2807519 -0.27237135 -0.20728327 0.12312196
0.06752094 -0.16971187 -0.23227149 -0.41085112 -0.15028682 -0.17189798 0.015255895 0.02075442
-0.27673888 -0.32003865 0.15865697 -0.16940437 -0.2656878 -0.10923218 -0.41051012 -0.1265927
-0.26159313 -0.12284143 -0.4373387 -0.16775535 -0.09779009 0.19045007 -0.22951815 -0.38063207
-0.08075316 -0.23193352 -0.38124558 -0.05540307 -0.3306792 -0.20259394 -0.37547657 -0.31390783
0.26085958 -0.24824 0.02575465 0.39009804 -0.5235104 -0.2454509 -0.58896965 -0.622716
-0.15664116 -0.046557523 0.16280995 -0.15260385 -0.38746265 -0.024313457 -0.56844753 -0.24524352
-0.20447303 -0.21844438 -0.13945872 -0.41522804 -0.4929513 0.084288456 -0.136699 0.04901469
-0.10431547 -0.73715067 0.042703275 -0.14674772 -0.66614157 -0.48118585 -0.23937991 -0.521757
-0.42044178 -0.4281881 -0.051836163 -0.104244284 -0.28354245 -0.37392572 -0.33018312 -0.6599114
0.092650674 0.014623516 -0.41849613 -0.21565965 -0.28408092 -0.2887757

classifier.5.running_var f4 [190]
00000000: a3df 0f3f c665 3f3f 17ea 7c3e a80e b03e
00000010: 9d68 983e 0307 be3f d6bf 493e 9863 a53e
00000020: 3839 4b3e 9f26 803f 18d8 f63e cee1 be3e
00000030: f607 553e 5588 523f 32cb 603e 50b7 9a3e
00000040: 74c4 d33e 19bc 9c3e 37d9 293f 0c73 703e
00000050: 595c 093e 34c4 093f 5744 ab3e a4ef 853e
00000060: af8b 0b3e 9f12 333f 8da9 223f 4306 f73e
00000070: 9535 ae3e dd3e c23e 2e6b c63f dfd5 393e
00000080: 3796 373f c37d 643d 5f5e 213e eb2f 9b3e
00000090: 0edb 9e3f ebf3 e63e 83c8 9d3e 3cea af3f
000000a0: 4dcf a93e b5e2 703e 1602 d33e bb15 4b3f
000000b0: 4bc6 233f 2163 353f 08ba 293f ba53 c63e
000000c0: 51c1 583e 57b1 913e 0570 4b3e aba4 0e3f
000000d0: 476f 393f ec00 f13e 5032 423e e3da 8b3e
000000e0: 732c 273f c322 a53e 7594 503f 97a9 a83e
000000f0: 805e f33e 4481 7e3f 04c7 853e 1b0f fa3e
00000100: 0bd0 c63e 5123 673e d11e 5c3e 8c36 e83e
00000110: 88cf 913f af7c b53f 8445 da3e 426c e73e
00000120: 9f27 973f e718 a33e 5116 fa3e 7031 a43d
00000130: be83 5f3e f638 6a3f 94bd 9c3e 497e 253e
00000140: e2aa 303e c56b cd3e 6bfb 8d3e 17f4 2c3f
00000150: 3ade 1e3f 90f9 993f 1c7f a13e 0090 6f3f
00000160: 5ef0 3e3f 4772 183f 97ae 6f3e 985d 383e
00000170: 6386 273f 4d13 493e c30e 963e 3351 423f
00000180: 1978 893f b62d 183f 4f7c 973e 365b 393e
00000190: e994 0a3f 5bb7 ed3d 9084 133f be8e 7f3e
000001a0: ccfb 793f 0df9 1f3f 906f 313f b632 e03e
000001b0: ce2b c43d 84c4 bd3e f164 073f baf0 fa3e
000001c0: 3c8a b23e 39fc b33e 6581 bb3e 8f57 ca3e
000001d0: a2c6 543e 9592 d93e efe3 1a3f e717 893e
000001e0: 1513 153f 20b8 023f ead2 833e f46d 553e
000001f0: 3670 ac3e d60c a83e 2e05 5e3f 7e4d 203f
00000200: 68de 813e 070f 053f 4090 133f d092 7a3e
00000210: d999 913e 8bc8 de3e cd68 283e b58d 103f
00000220: 3973 893e b29d 5f3f 8990 143f 1593 c83e
00000230: 094d ad3e dad1 d33e fde9 ea3e 4fc6 9c3e
00000240: 4511 773f 82cc 9c3e ab75 8c3e 0890 873f
00000250: 41e1 223f 84e2 0d3f cca1 3b3f 41ae d03f
00000260: 85fd 703e f046 1a3f cb1b 0a3f b5dc d73e
00000270: 1850 373e 38e4 ed3d 6e63 913f a3e7 ad3e
00000280: 09f8 bc3e 8250 7c3e 8e0a 063e fa89 e03e
00000290: 905c 963f 0e67 3b3e c262 603e 9331 eb3e
000002a0: 7758 a33e c8f5 af3f 006c c33e a943 773e
000002b0: 577b 9e3f 7d61 3c3f 5a9d 4a3e 5190 0d3f
000002c0: 7fff 5a3f 4958 1f3f b64c 4d3e beff a23e
000002d0: e6f1 bf3e 98d8 a33e bc58 003f 0a4f 5b3f
000002e0: acad a33e 89ab cc3d 4dc7 fe3e ad03 c53e
000002f0: dded 8f3e 6296 0a3e
0.5620062 0.7476467 0.24698673 0.34386182 0.29767314 1.484589 0.19702086 0.32302547
0.19846046 1.0011786 0.4821174 0.3728165 0.20803818 0.82239276 0.21952513 0.3021798
0.4136082 0.30612257 0.6634707 0.23481387 0.13414134 0.5381501 0.33450577 0.26159394
0.13627504 0.6995029 0.63539964 0.48246965 0.34025255 0.37938586 1.5501459 0.18147992
0.71713585 0.055784 0.15758656 0.30309996 1.24106 0.4510797 0.3081704 1.3743358
0.3316597 0.23523982 0.4121253 0.79330033 0.63974446 0.70854384 0.66299486 0.38735753
0.21167494 0.28455612 0.19866951 0.55720013 0.7243542 0.47071016 0.18964505 0.27315435
0.653022 0.32253084 0.8147653 0.32941887 0.47533035 0.99415994 0.261284 0.4883965
0.388306 0.22572066 0.2149613 0.45354116 1.1391459 1.4178675 0.4263116 0.45199782
1.1808966 0.31854936 0.4884515 0.08017242 0.218276 0.91493165 0.30613387 0.16161455
0.17252687 0.40121284 0.2773088 0.6755995 0.6205784 1.2029285 0.3154229 0.935791
0.7458552 0.59549373 0.23406444 0.18004453 0.6543943 0.19636269 0.29308137 0.7590515
1.0739776 0.5944475 0.29587027 0.181012 0.5413347 0.11607238 0.5762415 0.24956796
0.97649837 0.62489396 0.69310856 0.4378869 0.095786676 0.37063992 0.528884 0.49011785
0.3487109 0.35153368 0.36622158 0.39519927 0.20778897 0.42494646 0.6050405 0.2677605
0.5823224 0.510622 0.25746852 0.20842725 0.3367936 0.32822293 0.86726654 0.62618244
0.25364995 0.51976055 0.57641983 0.24470067 0.2843769 0.43512377 0.16446228 0.5646623
0.2684572 0.8735 0.58033043 0.39174715 0.33847836 0.41371042 0.45881644 0.30620047
0.96510726 0.30624777 0.27433524 1.059083 0.6362496 0.5542376 0.7329376 1.6303178
0.2353421 0.6026449 0.5394866 0.42160574 0.17901647 0.11615795 1.1358469 0.33965787
0.36907986 0.24640086 0.13089964 0.43855268 1.1746998 0.18301031 0.21912673 0.4593626
0.3190343 1.3746881 0.38168335 0.24146904 1.238139 0.73586255 0.19786587 0.55298334
0.85546106 0.6224409 0.20048794 0.3183574 0.3748924 0.32001185 0.501354 0.8566748
0.3196844 0.09993655 0.4976143 0.38479367 0.28111163 0.13533929
