ckpt/IAP/1/best_loss_BEST1.ckpt (torch, 148064 bytes, 19 tensors)

classifier.0.weight f4 [90, 12]
0	0xbd7564cb	-0.059910577
1	0xbe826be7	-0.25472948
2	0x3d368dcf	0.044568833
3	0x3f00ad99	0.5026489
4	0xbdbbf817	-0.09178179
5	0xbd6cd8b6	-0.05782386
6	0x3e82ebbd	0.2557048
7	0x3d9c7c80	0.07640934
8	0x3e19dc31	0.15025403
9	0xbd8b025e	-0.06787561
10	0xbddcd32e	-0.10782467
11	0x3d8fee72	0.07027902
12	0x3e9c1268	0.30482793
13	0xbe1b8ab7	-0.15189634
14	0x3e0ea3cc	0.13929671
15	0xbca14440	-0.019685864
16	0xbcb10d7e	-0.021612879
17	0x3c53d624	0.012929473
18	0x3b7c1483	0.0038464374
19	0x3eb57417	0.35440132
20	0x3e8c322d	0.2738203
21	0x3dd6b849	0.10484368
22	0x3ebeaa91	0.37239507
23	0xbebbeb09	-0.36702755
24	0xbe9dc1d4	-0.30811942
25	0xbeada8ea	-0.33917934
26	0x3d90e2d2	0.070745125
27	0x3ecbf89e	0.39838117
28	0x3dd8e9d6	0.10591476
29	0x3e783c55	0.24241765
30	0x3c5b4b09	0.013384589
31	0xbe465e20	-0.19371843
32	0xbe37d987	-0.17954074
33	0xbe646517	-0.22304188
34	0x3db8f2bf	0.09030675
35	0x3e3fe7c3	0.18740754
36	0x3ea2d214	0.31800902
37	0xbe74ec25	-0.23918207
38	0xbe964719	-0.29351118
39	0x3e91bccc	0.28464353
40	0xbe129188	-0.14313328
41	0xbe598470	-0.21241927
42	0x3e8043b4	0.25051653
43	0x3eb31ebb	0.34984383
44	0x3e85d37d	0.26137915
45	0x3db62938	0.088945806
46	0xbdd4bc25	-0.10387448
47	0xbdd66972	-0.10469331
48	0xbe6b6ebd	-0.22991462
49	0xbea8cde1	-0.32969573
50	0x3e941019	0.28918532
51	0xbc9a7924	-0.018856592
52	0xbd48d3b0	-0.049030006
53	0x3e2b1c33	0.16709976
54	0xbe28113c	-0.16412824
55	0xbf163ddd	-0.58688146
56	0x3db306cd	0.087415315
57	0xbe14127f	-0.1446018
58	0xbded1b81	-0.115775116
59	0x3dd6f860	0.104965925
60	0x3dae8c47	0.085228495
61	0xbe828577	-0.2549245
62	0xbdbf7bc1	-0.09349776
63	0x3d43b257	0.0477775
64	0xbd1cfbec	-0.03832619
65	0xbf0eed48	-0.5583081
66	0xbe1f9bbc	-0.15586752
67	0x3e60b7ad	0.21945067
68	0xbd8094aa	-0.062783554
69	0x3d813723	0.063093446
70	0xbe4309c7	-0.19046699
71	0x3e9b65fe	0.3035125
72	0x3e6483e5	0.22315939
73	0xbea097d1	-0.31365827
74	0x3d3387e2	0.04383076
75	0x3eda4928	0.4263394
76	0x3e57fd39	0.2109269
77	0x3eab48c8	0.33453965
78	0xbd3d1d26	-0.046170376
79	0x3e86e43c	0.26346004
80	0x3ee428b6	0.4456231
81	0xbdc2234c	-0.094793886
82	0xbe9f2800	-0.31085205
83	0xbe573f40	-0.21020222
84	0xbe1105c1	-0.14162351
85	0x3e32afd9	0.17449893
86	0x3e09615d	0.13416047
87	0xbe9cd906	-0.30634326
88	0xbda16d17	-0.07882135
89	0xbe5090cd	-0.20367737
90	0x3e9fbbc0	0.3119793
91	0xbf06ec92	-0.5270473
92	0x3e291186	0.16510591
93	0x3caaac5d	0.020834142
94	0x3e1aaf21	0.15105869
95	0x3d2edafa	0.0426893
96	0x3c24fef4	0.010070551
97	0xbe73a414	-0.2379306
98	0x3e3b1591	0.18269946
99	0xbe2769b3	-0.16348915
100	0xbd63f829	-0.055656586
101	0x3e810b67	0.25204012
102	0xbca80c34	-0.020513631
103	0x3edbf68d	0.4296154
104	0x3a298fc3	0.00064682605
105	0xbb9416e1	-0.004519329
106	0x3ebda659	0.37040976
107	0xbe9cfc35	-0.3066117
108	0x3e04802b	0.12939517
109	0xbe69956f	-0.2281091
110	0x3e380e00	0.1797409
111	0xbefec356	-0.49758404
112	0x3ebdbdda	0.37058908
113	0xbf19d775	-0.60094386
114	0x3e43a602	0.19106296
115	0xbea2ac25	-0.3177196
116	0xbceeed7f	-0.029165981
117	0x3e31a580	0.1734829
118	0x3e14ecb1	0.14543416
119	0x3e381b25	0.17979105
120	0xbe5ce95d	-0.21573396
121	0x3e95368f	0.29143187
122	0xbe3b1dc1	-0.18273069
123	0xbeb90d28	-0.3614285
124	0x3e746f52	0.2387059
125	0xbeffbb24	-0.49947464
126	0xbe3c910d	-0.18414707
127	0x3f0044d9	0.50105053
128	0xbe804c15	-0.25058046
129	0xbe1eb979	-0.1550044
130	0x3d576c2e	0.052593403
131	0xbe17395f	-0.14767979
132	0x3db0cb8a	0.08632572
133	0xbc931403	-0.017953878
134	0xbe82b34d	-0.2552742
135	0xbc7bf874	-0.01537906
136	0xbe79f488	-0.24409688
137	0xbd9f82ee	-0.07788645
138	0xbe9de12a	-0.3083585
139	0x3f02cb33	0.5109131
140	0xbe12c9a5	-0.14334734
141	0xbe04c360	-0.12965155
142	0xbe71d1d7	-0.23615204
143	0x3ea5a441	0.32351878
144	0x3ea444e1	0.320838
145	0x3e32a8c7	0.17447196
146	0x3e7fe276	0.24988732
147	0xbebfa8da	-0.3743351
148	0x3dd11408	0.10208899
149	0xbe619515	-0.22029527
150	0x3d696a6f	0.05698627
151	0x3eef351b	0.46720204
152	0xbe2f55cb	-0.17122571
153	0xbdaf0c4e	-0.08547269
154	0x3e2f016e	0.17090389
155	0xbea06e66	-0.31334227
156	0xbce05f4d	-0.027389193
157	0x3ebe7c4a	0.372042
158	0xbc06ff5f	-0.008239596
159	0xbe4c1ce9	-0.19932903
160	0xbed1145a	-0.4083584
161	0x3e4fbec1	0.2028761
162	0xbd96dacd	-0.07365952
163	0xbecb4044	-0.39697468
164	0xbe167afe	-0.14695355
165	0xbd4e6fb3	-0.050399493
166	0xbe41a9a3	-0.18912368
167	0xbe0dbb9d	-0.138411
168	0xbcd905a1	-0.026491942
169	0xbd94e2b7	-0.07269805
170	0xbcbc7ff1	-0.023010226
171	0xbf013a13	-0.5047924
172	0x3dc083b2	0.09400119
173	0xbefaf773	-0.49016914
174	0xbe494c43	-0.19657998
175	0xbe4e872d	-0.20168753
176	0x3e402cf2	0.18767145
177	0x3dc6cb6b	0.09706768
178	0xbeceb070	-0.40368986
179	0xbe5944f8	-0.21217716
180	0x3d9fc6a0	0.078015566
181	0xbdbf603d	-0.09344528
182	0x3d8f4a00	0.06996536
183	0x3ea4cfed	0.32189885
184	0x3e945cac	0.28976953
185	0x3eb00750	0.3438058
186	0x3d6740e2	0.05645836
187	0xbdd5dcfa	-0.104425386
188	0x3daa4c50	0.08315337
189	0xbe1195fa	-0.14217368
190	0xbe367f5d	-0.17822023
191	0xbe96461a	-0.29350358
192	0x3ce33be9	0.027738528
193	0xbdbcc6aa	-0.0921758
194	0x3e5c775c	0.21529907
195	0xbd61c797	-0.055121984
196	0xbe212c31	-0.15739514
197	0xbf137591	-0.5760127
198	0xbe9afa0f	-0.30268905
199	0xbceefa5f	-0.02917212
200	0xbe1b50bc	-0.15167516
201	0x3e4a6f24	0.1976896
202	0x3d14e084	0.036346927
203	0x3d673747	0.0564492
204	0x3e5b8daf	0.21440767
205	0x3e6254c2	0.22102645
206	0xbe790cdd	-0.24321313
207	0xbea366ab	-0.31914267
208	0x3e7c9ede	0.24669978
209	0xbe8ad439	-0.27115038
210	0xbe1e7f9f	-0.15478371
211	0xbf070b4a	-0.527516
212	0xbe7351c0	-0.23761654
213	0x3d52847c	0.05139588
214	0x3ddd72f7	0.108129434
215	0xbdee96c7	-0.11649852
216	0xbeaf1ba7	-0.34200785
217	0xbe3218d0	-0.17392278
218	0xbebd8084	-0.37012112
219	0xbe0ef3a9	-0.13960136
220	0x3ea2cf22	0.31798655
221	0xbeb05e02	-0.34446722
222	0x3e3b5e89	0.18297781
223	0x3ea213df	0.31655785
224	0xbe21027d	-0.15723605
225	0x3dd30fb7	0.10305732
226	0xbe3eaa60	-0.1861968
227	0xbea1b6d9	-0.31584814
228	0xbe0a06a5	-0.13479097
229	0x3ec0a6f7	0.37627384
230	0x3d29e3e8	0.041477114
231	0xbd34b17c	-0.044114575
232	0x3eb4ffb1	0.35351327
233	0x3e81a203	0.25318918
234	0x3b1c795a	0.0023876042
235	0x3f0b2434	0.54352117
236	0x3e4b9060	0.19879293
237	0xbdd217ad	-0.10258422
238	0x3d9cc426	0.076546
239	0xbdeff786	-0.11717133
240	0x3d387f59	0.045043323
241	0xbd00ea3d	-0.031473387
242	0x3e46085b	0.19339125
243	0xbe5b0582	-0.2138882
244	0x3dd3ec7c	0.1034784
245	0xbf4355c6	-0.76302755
246	0x3e9d07ed	0.3067011
247	0xbeb04e19	-0.34434584
248	0xbd8076ed	-0.06272683
249	0x3d7c1da7	0.061551716
250	0x3cce7677	0.025202973
251	0x3e642933	0.22281341
252	0x3ef94d4c	0.48691785
253	0xbe37e51e	-0.17958495
254	0xbb165191	-0.00229368
255	0xbe37e98b	-0.17960183

classifier.0.bias f4 [90]
0	0xbe18bbbb	-0.14915363
1	0x3dd512c2	0.104039684
2	0x3dc72199	0.09723205
3	0x3d19e187	0.037568595
4	0x3e67beea	0.22631422
5	0x3eb882e7	0.3603737
6	0x3d0e9b13	0.03481586
7	0x3e2ba5c5	0.16762455
8	0xbe65fbda	-0.22459355
9	0x3eefcff8	0.46838355
10	0xbda58094	-0.08081165
11	0xbec5ae9c	-0.3860978
12	0xbdbbae31	-0.09164084
13	0xbe125180	-0.14288902
14	0x3c99619c	0.018723302
15	0x3e787004	0.2426148
16	0x3e8a22c9	0.26979664
17	0xbe889705	-0.2667772
18	0xbf031ba3	-0.51214045
19	0x3d7f2317	0.062289324
20	0x3c419bbb	0.011816914
21	0x3f19481a	0.59875643
22	0xbe02fb35	-0.1279114
23	0xbd3d2cda	-0.046185352
24	0x3ce45f02	0.027877335
25	0xbda430b1	-0.080171
26	0x3e02f6b6	0.12789425
27	0xbe1b49d7	-0.15164886
28	0x3e4e3c38	0.20140159
29	0x3e616968	0.22012866
30	0xbe794655	-0.24343236
31	0xbe3961d3	-0.18103723
32	0x3e14d824	0.14535576
33	0x3dc94155	0.09826914
34	0x3caca90d	0.021076703
35	0x3ed362a2	0.41286188
36	0x3e260724	0.16213661
37	0x3e98ecf0	0.2986827
38	0xbe1e8b44	-0.15482813
39	0x3e514581	0.2043667
40	0xbcdda3f7	-0.027055724
41	0xbeb4f7af	-0.35345218
42	0x3eb32424	0.3498851
43	0x3e045532	0.12923124
44	0xbeef95d6	-0.46794003
45	0xbd44dd7c	-0.048062786
46	0xbeade717	-0.3396537
47	0x3ecc7eed	0.39940587
48	0x3ea66544	0.32499135
49	0x3eee3b29	0.4652951
50	0xbeb79c57	-0.35861465
51	0xbec1718e	-0.37781948
52	0x3da37582	0.07981397
53	0x3e2f9ad2	0.17148903
54	0xbaa3d4f9	-0.0012499384
55	0xbe730b0f	-0.23734687
56	0x3ccc6fcd	0.024955655
57	0x3e9234b5	0.28555837
58	0xbed68e0a	-0.41905242
59	0xbdb6df0b	-0.08929261
60	0xbe001878	-0.12509334
61	0xbee5a89b	-0.44855198
62	0x3ed5f179	0.41785792
63	0xbe40b36a	-0.18818441
64	0xbd370642	-0.044683702
65	0x3d92b3f9	0.07163233
66	0xbe098dcf	-0.13433002
67	0x3d87b468	0.06626207
68	0x3e885532	0.266275
69	0xbec68740	-0.38775063
70	0x3e371df2	0.17882517
71	0x3ce9ab7a	0.02852415
72	0xbc1a71e6	-0.00942657
73	0xbd4c8f91	-0.049941603
74	0x3cc9455a	0.024569202
75	0xbe6fc3d0	-0.2341454
76	0xbe404010	-0.18774438
77	0xbebd7cc0	-0.3700924
78	0x3e881d90	0.26585054
79	0x3e84ad7e	0.25913614
80	0x3e5e750a	0.21724334
81	0xbe4184c8	-0.18898308
82	0xbe3be3ce	-0.1834862
83	0x3d3d597f	0.04622793
84	0x3da5a5fd	0.080883004
85	0x3d31661c	0.04331027
86	0xbe2c61d7	-0.16834198
87	0xbdca2999	-0.098712154
88	0xbd2be594	-0.04196699
89	0x3df47318	0.11936015

classifier.1.weight f4 [90]
0	0x3ec411fb	0.38294968
1	0x3f5ee5d8	0.87069464
2	0x3ee668a6	0.45001715
3	0x3f4fec65	0.81220084
4	0x3ed0c05c	0.4077176
5	0x3f923acc	1.1424193
6	0x3f02a8a9	0.51038605
7	0x3f8de333	1.1084961
8	0x3f4e2a85	0.8053363
9	0x3f8b9d99	1.090747
10	0x3f7102b1	0.9414473
11	0x3f54a523	0.8306448
12	0x3f78b088	0.97144365
13	0x3f5650d5	0.8371709
14	0x3f552d79	0.8327251
15	0x3eedf170	0.46473265
16	0x3f552079	0.83252674
17	0x3f8040e1	1.00198
18	0x3f334333	0.7002441
19	0x3f331d72	0.69966805
20	0x3f64fdc0	0.8944969
21	0x3f60b487	0.8777546
22	0x3f38ffa5	0.7226508
23	0x3f5d0188	0.8633046
24	0x3f6a1077	0.91431373
25	0x3f97f72a	1.1872303
26	0x3f579948	0.84218264
27	0x3f80432f	1.0020503
28	0x3eea5819	0.45770338
29	0x3f1cf2a5	0.61307746
30	0x3f6d7f2a	0.9277216
31	0x3f8df125	1.1089216
32	0x3f549dd4	0.83053327
33	0x3ef8cf5c	0.48595703
34	0x3f313968	0.6922822
35	0x3f51d6d6	0.8196844
36	0x3f33af7a	0.7018963
37	0x3f88898b	1.0666975
38	0x3f822fc3	1.0170826
39	0x3f11dc36	0.5697664
40	0x3f4b89dd	0.7950724
41	0x3f507cf0	0.8144064
42	0x3f60c008	0.87793016
43	0x3edf68e2	0.43634707
44	0x3f485930	0.7826109
45	0x3f8ee4a6	1.1163528
46	0x3eb96223	0.36207685
47	0x3ee303c5	0.44338813
48	0x3f729d6a	0.94771445
49	0x3f38052f	0.7188291
50	0x3f92456b	1.1427435
51	0x3f4bc07f	0.795906
52	0x3f3cb9e5	0.7372115
53	0x3f8133d1	1.0093938
54	0x3eef3c8b	0.46725878
55	0x3fa16fdf	1.2612265
56	0x3f199c59	0.6000419
57	0x3f901662	1.1256831
58	0x3f432403	0.76226825
59	0x3f8b7605	1.0895392
60	0x3f8693a8	1.0513811
61	0x3edf25c2	0.43583494
62	0x3f15e6d1	0.5855532
63	0x3f8437ab	1.0329489
64	0x3f800d92	1.0004141
65	0x3f6e9101	0.9319001
66	0x3f558485	0.83405334
67	0x3f3dd1f6	0.741485
68	0x3f327389	0.6970754
69	0x3f8ebb40	1.1150894
70	0x3f689752	0.90855896
71	0x3f46c768	0.7764802
72	0x3ef0f68a	0.47063094
73	0x3f2c4c77	0.67304176
74	0x3f47b89a	0.78016055
75	0x3f4b409d	0.7939547
76	0x3f01a166	0.506369
77	0x3f209e34	0.627414
78	0x3f4700c4	0.77735543
79	0x3ee98bff	0.4561462
80	0x3ee3602e	0.44409317
81	0x3f4e9ddb	0.8070962
82	0x3f3f6dc0	0.7477684
83	0x3f03932c	0.5139644
84	0x3ec7f91e	0.3905725
85	0x3f0256c6	0.50913656
86	0x3f1b77ce	0.6072968
87	0x3f850a6a	1.0393803
88	0x3efa017e	0.48829263
89	0x3fa0dba6	1.2567031

classifier.1.bias f4 [90]
0	0xbe90cfda	-0.28283578
1	0xbe6ef19a	-0.23334351
2	0xbec9409a	-0.393071
3	0x3e517d42	0.20457938
4	0xbeb9f2eb	-0.36318144
5	0xbeea04bb	-0.45706734
6	0xbee2666b	-0.44218764
7	0xbefeabc7	-0.4974043
8	0xbec0ab9f	-0.37630937
9	0xbeb96dc6	-0.36216563
10	0xbeb90311	-0.36135152
11	0xbef77208	-0.48329186
12	0xbe9955ed	-0.2994837
13	0xbf149df3	-0.5805351
14	0xbe602d75	-0.2189234
15	0xbf04a1b3	-0.51809233
16	0xbf0965ae	-0.53670776
17	0xbec02383	-0.37527093
18	0xbe1d85e1	-0.15383102
19	0xbed354be	-0.4127559
20	0xbe965a0d	-0.29365578
21	0xbe8f1009	-0.2794192
22	0xbe6cf384	-0.23139769
23	0xbf13e6f4	-0.5777428
24	0xbf069afc	-0.5258024
25	0xbe6600d4	-0.22461253
26	0xbf142117	-0.5786299
27	0xbf320e7e	-0.69553363
28	0xbd1b3e8d	-0.03790145
29	0xbdc439e8	-0.09581357
30	0xbe8ae583	-0.2712823
31	0xbea6cb0d	-0.3257679
32	0xbf11e2be	-0.56986606
33	0xbd9c6955	-0.07637278
34	0xbe730209	-0.23731245
35	0xbf0f4d33	-0.5597717
36	0xbed8f33a	-0.42373067
37	0xbf04d994	-0.518945
38	0xbec9f0c2	-0.39441496
39	0xbe6e3c25	-0.23265131
40	0xbec617ce	-0.38690037
41	0xbf0c0ac9	-0.54703957
42	0xbee515d7	-0.44743225
43	0xbec461f2	-0.38355976
44	0xbf099b1d	-0.5375231
45	0xbe57711e	-0.21039245
46	0xbeaf3347	-0.3421881
47	0xbedf3304	-0.4359361
48	0xbe8fd395	-0.28091112
49	0xbee6b364	-0.4505874
50	0xbef3bf66	-0.47606963
51	0xbf233fe9	-0.63769394
52	0xbeb7684e	-0.35821766
53	0xbede31ae	-0.43397278
54	0xbda21640	-0.079144
55	0xbf18e401	-0.59722906
56	0xbed9cc95	-0.42538896
57	0xbe529c23	-0.20567374
58	0xbf034e31	-0.51291186
59	0xbea66867	-0.32501528
60	0xbe936982	-0.28791434
61	0xbd90f269	-0.07077486
62	0xbe272885	-0.1632405
63	0xbeedc1b4	-0.46436846
64	0xbebd1132	-0.3692718
65	0xbe7a8e97	-0.24468456
66	0xbe5219ed	-0.20517702
67	0xbf0514af	-0.51984686
68	0xbee08b19	-0.43856123
69	0xbdd1a018	-0.102356136
70	0xbf06fe42	-0.52731717
71	0xbe5d6542	-0.21620658
72	0xbf0ff2d5	-0.5622991
73	0xbe57b23f	-0.21064089
74	0xbf15d717	-0.58531326
75	0xbf061017	-0.523683
76	0xbded90b9	-0.11599869
77	0xbec0f48f	-0.37686583
78	0x3e313cbc	0.17308325
79	0xbee2534b	-0.44204172
80	0xbecabb3d	-0.39595976
81	0xbf086406	-0.53277624
82	0xbe3585ff	-0.17726897
83	0xbefb8bb0	-0.4913001
84	0xbe932284	-0.2873727
85	0xbed8a1b8	-0.42310882
86	0xbeeaa125	-0.4582607
87	0xbe7eedf0	-0.24895453
88	0xbf0c1d22	-0.54731953
89	0xbedcbeab	-0.43114218

classifier.1.running_mean f4 [90]
0	0x3e1848c2	0.14871505
1	0x3ec2edc9	0.3807204
2	0xbdd218c5	-0.10258631
3	0x3ebc71c7	0.36805555
4	0xbebc251a	-0.36747056
5	0xbcf00164	-0.029297538
6	0x3ef5bef6	0.47997254
7	0x3e41f4b6	0.18941006
8	0xbe0f958e	-0.14021894
9	0x3e5e1fee	0.21691868
10	0xbee70dad	-0.4512762
11	0xbf1f4141	-0.62208945
12	0x3da34dd4	0.07973829
13	0xbef2c566	-0.47416228
14	0xbf34527f	-0.7043838
15	0x3eeb05d2	0.45902878
16	0xbec1bd00	-0.37839508
17	0xbf695f8d	-0.91161424
18	0xbf451618	-0.7698684
19	0x3f603a06	0.87588537
20	0xbe26dbdf	-0.16294812
21	0x3f19f4bc	0.6013906
22	0xbf4ffc0c	-0.8124397
23	0xbdb1bf1b	-0.086790286
24	0x3f030ac4	0.511883
25	0xbf330a61	-0.6993771
26	0xbc962ec2	-0.018332843
27	0x3c77dfdc	0.015129056
28	0xbc9a96ce	-0.018870737
29	0x3f88c466	1.0684936
30	0xbf082dd2	-0.53194916
31	0xbf7098c2	-0.9398309
32	0xbe1ce72c	-0.1532256
33	0xbdd00377	-0.10156911
34	0x3d4b5215	0.049638826
35	0x3fb9f59e	1.4528081
36	0xbe16c95a	-0.14725247
37	0x3ea09970	0.31367064
38	0xbe11efc3	-0.14251618
39	0x3f4b4885	0.7940753
40	0xbe29651a	-0.16542473
41	0xbf56d327	-0.8391594
42	0x3f87843e	1.0587232
43	0x3e06c8b2	0.13162497
44	0xbfa6fa68	-1.3045168
45	0xbf46a310	-0.77592564
46	0xbf73d375	-0.9524453
47	0x3f437944	0.7635691
48	0x3eb53891	0.3539472
49	0x3fb94f94	1.447741
50	0xbfded69f	-1.7409247
51	0x3d7ae91f	0.061257478
52	0x3cccfcfd	0.025022978
53	0x3e18fafd	0.14939494
54	0x3f3fd474	0.7493355
55	0xbf50e48f	-0.8159875
56	0x3e383510	0.17988992
57	0x3f0a6715	0.5406354
58	0xbf47ee2e	-0.7809781
59	0xbf4e0871	-0.8048163
60	0xbc91bfdf	-0.017791687
61	0xbffc5f3c	-1.9716563
62	0x3f892f53	1.0717567
63	0xbe33578c	-0.17513865
64	0xbf38d62c	-0.722018
65	0xbe49c88b	-0.19705407
66	0xbecfc162	-0.40577227
67	0x3e6a76f2	0.22896937
68	0x3fae3c70	1.3612194
69	0xbe43a68b	-0.191065
70	0xbd48d25b	-0.049028736
71	0x3e4614e4	0.19343907
72	0xbf6f8a8b	-0.93570775
73	0x3ecd27f2	0.40069538
74	0xbf1a766c	-0.6033695
75	0xbf959654	-1.1686502
76	0x3b85da12	0.004084834
77	0xbf64d086	-0.8938068
78	0xbd897076	-0.06710903
79	0x3f021175	0.5080789
80	0xbe3842d9	-0.1799425
81	0x3e0d3809	0.13790907
82	0xbf2604fc	-0.64851356
83	0x3db91594	0.09037319
84	0xbe200ba3	-0.15629439
85	0x3f36ac0e	0.71356285
86	0x3d0fcd0e	0.035107665
87	0xbe6396c2	-0.22225478
88	0xbefa0715	-0.48833528
89	0x3dd5e1cf	0.1044346

classifier.1.running_var f4 [90]
0	0x3ba25d5d	0.0049549774
1	0x3b17a11f	0.0023136807
2	0x3c4d795f	0.012541144
3	0x38e014d3	0.00010685031
4	0x3c0d88a6	0.008638537
5	0x3a049658	0.00050578034
6	0x3b9a2c0d	0.0047049583
7	0x3ab4ae8b	0.0013784928
8	0x3b6cae11	0.0036114494
9	0x3c1ecd00	0.0096924305
10	0x3c7bb88b	0.015363823
11	0x3a3edc35	0.0007280738
12	0x3c5e2cdc	0.0135605
13	0x38ec0b5f	0.00011255475
14	0x3c8eea99	0.01744585
15	0x3bafb94f	0.0053626667
16	0x3b2cfa71	0.0026394392
17	0x3b5220ea	0.0032063075
18	0x3c0a7a34	0.008451987
19	0x3b265c4c	0.0025384603
20	0x3b901641	0.004397184
21	0x3b373b1d	0.0027958818
22	0x3c871eb9	0.016494142
23	0x3a03c7d3	0.00050270295
24	0x3a0c5cd2	0.00053544075
25	0x3a92055d	0.0011140514
26	0x3b983ce7	0.004645932
27	0x3887a3dd	6.4678236e-05
28	0x3aa7ac47	0.0012792432
29	0x3aad47a2	0.0013220201
30	0x3bcc5c7c	0.006236611
31	0x3bfebee4	0.007774221
32	0x3bcfa8e7	0.0063372734
33	0x3a125504	0.00055821263
34	0x3a7a8fc5	0.00095581665
35	0x3b99f7bf	0.004698723
36	0x3b0d9b09	0.00216073
37	0x3a397b95	0.0007075605
38	0x3a5d761e	0.0008448082
39	0x3a68b08b	0.00088764046
40	0x3c8212f2	0.015878174
41	0x3b91f418	0.004454147
42	0x39dff638	0.00042717322
43	0x3b173def	0.0023077687
44	0x3bb6bee4	0.005576955
45	0x3a866440	0.0010253266
46	0x3b531f5c	0.0032214737
47	0x3b8e8dee	0.0043504154
48	0x3a087cd7	0.0005206591
49	0x3cda9c42	0.026685838
50	0x39837947	0.00025076626
51	0x3a3fa805	0.00073111086
52	0x3c8e5c79	0.017378079
53	0x3936f5ce	0.00017448442
54	0x39071c22	0.00012885084
55	0x3ac273fc	0.0014835591
56	0x3aafb3dd	0.0013405044
57	0x3aa5e7b0	0.0012657549
58	0x37a9722f	2.019954e-05
59	0x3bea3dce	0.007148481
60	0x3b924aa9	0.0044644666
61	0x3b09c0a2	0.002101936
62	0x3a8f8d50	0.0010952149
63	0x39a88b95	0.00032147454
64	0x3af56d34	0.0018724562
65	0x3c483490	0.012219563
66	0x3c8841ca	0.016632933
67	0x3b14f857	0.002273103
68	0x3c686242	0.014183583
69	0x3a185c23	0.0005812069
70	0x398bd7b6	0.00026672863
71	0x3add5cda	0.0016888634
72	0x3cbee449	0.023302214
73	0x3a8c27a0	0.0010692962
74	0x3acc5ebf	0.0015592201
75	0x3be51b05	0.0069917464
76	0x38c6bc7c	9.476484e-05
77	0x3a5d6663	0.0008445738
78	0x3980c0db	0.0002455775
79	0x3bf66aae	0.0075200414
80	0x3b34f51a	0.0027611912
81	0x3c4de5a6	0.0125669595
82	0x3c8a19f2	0.016858075
83	0x3ab5cd78	0.0013870439
84	0x3aefac60	0.0018285625
85	0x39e4552e	0.00043551013
86	0x3a999309	0.0011716794
87	0x3c451729	0.012029448
88	0x3b2f32be	0.0026733126
89	0x3a22c709	0.0006209468

classifier.4.weight f4 [180, 90]
0	0xbe21d4e6	-0.1580387
1	0x3df47ebf	0.119382374
2	0xbea90ba5	-0.33016697
3	0x3d22090a	0.0395594
4	0xbc797d12	-0.015227573
5	0x3f3e4795	0.74327976
6	0xbec4463b	-0.38334832
7	0x3e7985b4	0.2436741
8	0xbdce8b69	-0.10085184
9	0x3f0f6ae8	0.560225
10	0xbe11c078	-0.14233577
11	0x3d28f906	0.041253112
12	0xbd97dfb2	-0.07415713
13	0x3d4c33ef	0.049854215
14	0x3de1684e	0.11006223
15	0xbe07f36a	-0.13276449
16	0x3e9b9ff2	0.30395466
17	0x3f097870	0.536994
18	0x3e0cda65	0.13755186
19	0xbea7a72d	-0.32744732
20	0x3e4e68d6	0.20157179
21	0x3e5d62c0	0.21619701
22	0x3d8a8f04	0.06765559
23	0x3e2e4073	0.17016773
24	0x3df4e597	0.11957853
25	0x3e00e741	0.12588216
26	0x3e9662db	0.29372296
27	0xbe67d600	-0.22640228
28	0x3d973193	0.073825024
29	0xbe53a61c	-0.20668834
30	0x3e5080ae	0.20361587
31	0x3e9c2fd5	0.30505243
32	0x3e99bcab	0.30026755
33	0x3dfede89	0.12444789
34	0xbe3ed04e	-0.1863415
35	0x3db00343	0.08594372
36	0x3e3d68b4	0.18496972
37	0x3d879071	0.06619347
38	0x3dc43620	0.09580636
39	0xbd9e63b2	-0.07733859
40	0x3ddd07e5	0.107925214
41	0x3ebb01f3	0.36524925
42	0xbdb6c4ca	-0.08924253
43	0xbe7008e9	-0.23440899
44	0x3d8d4221	0.06897379
45	0x3e276357	0.16346489
46	0xbdd756ef	-0.10514628
47	0xbd97ea33	-0.07417717
48	0xbdd9d199	-0.10635681
49	0x3e57fce9	0.21092571
50	0x3d03ac87	0.032146957
51	0x3ded8874	0.11598292
52	0x3df6a7f9	0.12043757
53	0xbd7de9ab	-0.06199042
54	0xbd56235b	-0.05227981
55	0x3f0c3656	0.5477041
56	0xbdb46bfb	-0.08809658
57	0x3db9fb22	0.09081103
58	0x3e6f94a8	0.23396552
59	0x3eb16c86	0.3465311
60	0x3ea3fdaf	0.32029483
61	0x3dc74e56	0.09731738
62	0xbe184921	-0.14871646
63	0x3dc6f9ce	0.09715615
64	0x3e4eea79	0.20206632
65	0x3e7543d5	0.23951657
66	0x3e48ec0f	0.19621299
67	0x3e3de374	0.18543798
68	0x3e7c42e5	0.24634893
69	0x3ce61985	0.02808834
70	0xbda3c8ac	-0.079972595
71	0xbe7549e1	-0.23953964
72	0xbc07b824	-0.008283649
73	0xbe40f852	-0.18844727
74	0x3e885455	0.2662684
75	0x3cfd7598	0.030939862
76	0xbd725aa9	-0.05916849
77	0xbdb85b79	-0.09001822
78	0x3d54d690	0.051962435
79	0xbda8e12c	-0.08246073
80	0xbd3a1592	-0.045430727
81	0x3eb3002d	0.34961072
82	0x3dc92300	0.09821129
83	0xbc85de61	-0.01634139
84	0xbe2d5a25	-0.16928919
85	0xbcdf1bbf	-0.02723491
86	0x3db8164e	0.08988629
87	0x3e7b7535	0.2455643
88	0xbdc84dc8	-0.097804606
89	0x3d12607f	0.035736557
90	0xbe2e46a9	-0.17019142
91	0xbdac6012	-0.084167615
92	0xbe017ca1	-0.12645198
93	0xbea33a8d	-0.31880608
94	0xbceb16a0	-0.028697312
95	0xbe4582f4	-0.19288236
96	0xbcec6802	-0.028858189
97	0x3cfca6af	0.0308412
98	0xbdeab76c	-0.11460766
99	0xbda33181	-0.079684265
100	0x3ca5557b	0.020182362
101	0xbda502d5	-0.08057181
102	0xbe7b36f2	-0.24532679
103	0x3e48d184	0.19611174
104	0xbe836254	-0.25660956
105	0xbbd9a323	-0.006641762
106	0xbdd922d5	-0.10602347
107	0x3c840924	0.01611764
108	0xbeb4ee20	-0.35337925
109	0xbda5988d	-0.080857374
110	0xbe35db2c	-0.17759389
111	0xbd7516af	-0.059836086
112	0xbf3646eb	-0.7120196
113	0x3ea7132a	0.3263181
114	0xbeb79e29	-0.35862854
115	0xbec4bec4	-0.38426793
116	0x3df2a3ad	0.11847625
117	0x3e9bbcd4	0.30417502
118	0x3c25e981	0.010126472
119	0x3e0873e7	0.13325463
120	0xbe8de493	-0.2771345
121	0xbdaa4666	-0.08314209
122	0x3ed712a1	0.420064
123	0xbb3f72f1	-0.0029212798
124	0xbd98abec	-0.074546665
125	0x3e4cc9b7	0.19998823
126	0xbe322b3e	-0.17399308
127	0x3adf1808	0.0017020712
128	0xbdfc7ea1	-0.1232884
129	0xbb53f6fd	-0.0032343261
130	0xbe1c6abf	-0.15275095
131	0x3d9bfa0a	0.076160505
132	0x3e7b9ac0	0.24570751
133	0xbca1c17a	-0.019745577
134	0x3cdf24f7	0.027239306
135	0xbeddcb36	-0.433191
136	0xbde579d7	-0.1120488
137	0xbe88d5c1	-0.2672558
138	0xbd0a3700	-0.03374386
139	0x3cd180c5	0.025574097
140	0xbd45130c	-0.048113868
141	0x3e1a7bb1	0.15086247
142	0xbef38798	-0.47564387
143	0x3dcad07b	0.09903046
144	0xbe087859	-0.13327159
145	0x3d37a2ca	0.044832982
146	0xbd02c26a	-0.03192369
147	0xbe5fbd4a	-0.21849552
148	0x3e9b4ce8	0.30332112
149	0x3bda088b	0.0066538504
150	0x3d97211c	0.07379362
151	0xbe212af6	-0.15739045
152	0x3d10b2d7	0.035326805
153	0xbe9b8297	-0.3037307
154	0x3d206c81	0.039165977
155	0xbef0e078	-0.47046256
156	0xbee2e7d1	-0.44317487
157	0xbca7ef21	-0.020499768
158	0x3e358289	0.17725576
159	0xbeb90a43	-0.36140642
160	0x3cb8baf6	0.022550087
161	0x3d744d6d	0.05964415
162	0xbd8b84c5	-0.06812433
163	0xbda97b07	-0.08275419
164	0x3d3fbf8e	0.04681354
165	0x3da83477	0.08213132
166	0xbc590901	-0.013246776
167	0xbd0071ce	-0.031358533
168	0xbeba7d2a	-0.36423618
169	0xbdcb6765	-0.0993183
170	0xbd4d8865	-0.050178904
171	0xbcf9a313	-0.030473268
172	0xbeb09c5e	-0.344943
173	0xbd7838d1	-0.06060106
174	0xbe98e052	-0.29858643
175	0x3d863a66	0.06554107
176	0x3d9c0050	0.07617247
177	0xbdde89c1	-0.10866118
178	0xbe04391c	-0.1291241
179	0xbe08c7bd	-0.13357444
180	0xbaeca505	-0.0018054551
181	0x3bee2100	0.0072671175
182	0x3e49225e	0.19642016
183	0xbc3c7438	-0.011502318
184	0x3e1fa1aa	0.15589014
185	0x3e78e9ed	0.24307986
186	0x3e0eb634	0.13936692
187	0x3de67666	0.112530515
188	0x3dbca0ba	0.09210344
189	0xbd44c32b	-0.04803769
190	0xbe2b4972	-0.16727236
191	0xbe51bfc5	-0.2048331
192	0xbd3ba07c	-0.045807347
193	0xbdc00cc3	-0.09377434
194	0x3e9508fd	0.2910842
195	0x3dc81e19	0.09771366
196	0xbee45926	-0.44599265
197	0xbc9da9fc	-0.019246094
198	0x3e495df8	0.19664752
199	0xbd9ba595	-0.07599942
200	0x3e963af7	0.29341862
201	0x3e1b334d	0.15156288
202	0x3ea09736	0.31365365
203	0xbf1db3ab	-0.61602277
204	0xbd848d10	-0.06472218
205	0xbb6e68dd	-0.0036378421
206	0xbeed12fa	-0.4630354
207	0xbeac7d9a	-0.33689576
208	0xbd087e2c	-0.033323452
209	0xbdc165e6	-0.09443264
210	0x3d0e4b42	0.03473974
211	0xbcee288a	-0.029072065
212	0xbf693ef3	-0.9111168
213	0x3b94a529	0.00453629
214	0xbdc32237	-0.0952801
215	0xbf1af29a	-0.6052643
216	0xbed5d59c	-0.41764534
217	0xbe3c8d5c	-0.184133
218	0xbcecb05f	-0.028892694
219	0xbde40df4	-0.11135474
220	0xbbfb1b3b	-0.0076631582
221	0xbf0a118d	-0.5393303
222	0xbeac62a3	-0.33669004
223	0x3dd4a4d7	0.10383003
224	0xbf438781	-0.7637864
225	0xbc982510	-0.01857236
226	0xbccc4889	-0.024936931
227	0xbde05187	-0.1095305
228	0xbca85661	-0.020549001
229	0xbed6649d	-0.41873637
230	0xbf011982	-0.50429547
231	0xbe671629	-0.22567047
232	0x3e5f5948	0.21811402
233	0xbf5c5c5e	-0.8607844
234	0x3c7b16d6	0.015325269
235	0x3e24d216	0.16095766
236	0x3e049199	0.12946166
237	0x3cd7d49e	0.026346501
238	0xbe55ad18	-0.20866811
239	0xbd2e0b54	-0.042491272
240	0x3cda343a	0.026636232
241	0xbbbca97f	-0.00575751
242	0xbd9ce588	-0.07660967
243	0xbe03b806	-0.12863168
244	0xbe8aa102	-0.27075964
245	0x3d279c46	0.04092052
246	0x3e3bd7c2	0.18344024
247	0xbf038ba5	-0.51384956
248	0xbe3de3b4	-0.18543893
249	0xbb1b3edc	-0.002368859
250	0x3e61cc3e	0.22050568
251	0xbd982f9e	-0.07430957
252	0x3eec081a	0.4609993
253	0xbcd1637b	-0.025560131
254	0xbeee6dce	-0.4656815
255	0xbf185010	-0.59497166

classifier.4.bias f4 [180]
0	0x3ccdd1d0	0.02512446
1	0x3d5ace4e	0.053419404
2	0x3e01e196	0.1268371
3	0xbe553271	-0.20820023
4	0x3e3544d9	0.17702045
5	0xbccb7f0d	-0.024840856
6	0x3d64aac6	0.055826925
7	0xbd49568f	-0.049154814
8	0x3d062af6	0.032755814
9	0xbd17aabe	-0.037028067
10	0x3d1e84dd	0.038700927
11	0x3de160aa	0.11004765
12	0xbdd2562b	-0.102703415
13	0x3e02e71c	0.12783474
14	0xbdd29864	-0.102829725
15	0xbd0ef292	-0.0348993
16	0xbd6bde11	-0.057584826
17	0x3d1426f4	0.03616996
18	0xbe0a3bbd	-0.13499351
19	0x3bd3e55d	0.006466551
20	0x3e42a198	0.19006956
21	0xbd00f56e	-0.03148406
22	0xbe5ca878	-0.2154864
23	0xbe05a729	-0.13052048
24	0x3dfc4f77	0.12319844
25	0xbd61c696	-0.055121027
26	0xbccb0669	-0.02478333
27	0xbe16ce32	-0.14727095
28	0xbe106d97	-0.14104305
29	0x3d9b688a	0.075882986
30	0xbd3bf751	-0.045890156
31	0xbe396f96	-0.18108973
32	0x3da4672d	0.08027492
33	0x3da473b9	0.08029885
34	0xbe58b141	-0.21161367
35	0x3e0497cb	0.1294853
36	0x3cb7a41a	0.022417117
37	0xbc155119	-0.0091135735
38	0x3d45349e	0.048145883
39	0xbd9da4bc	-0.07697436
40	0x3e4ab25b	0.197946
41	0x3e738ea2	0.23784879
42	0x3ca5ba6f	0.0202305
43	0xbdbe026b	-0.09277805
44	0x3d63c6fc	0.05560969
45	0xbd72d07d	-0.05928086
46	0xbe45ad64	-0.19304425
47	0xbd2e6db2	-0.042585082
48	0x3d78ef5d	0.06077515
49	0x3d86ac54	0.06575838
50	0x3d1db837	0.03850576
51	0x3e1de685	0.15419967
52	0x3e4b6f96	0.19866785
53	0xbd58929e	-0.0528742
54	0xbe05a284	-0.13050276
55	0x3e25301f	0.16131638
56	0x3d9d7dee	0.07690035
57	0xbca79fd8	-0.020461962
58	0x3b888029	0.0041656685
59	0xbde96c82	-0.11397649
60	0xbca1e5b5	-0.019762853
61	0xbc9d5497	-0.019205375
62	0xbd923335	-0.07138673
63	0xbc056f0b	-0.0081441505
64	0xbda1ef49	-0.07906968
65	0xbdbc4af3	-0.09193983
66	0xbe009cfe	-0.12559888
67	0xbd696394	-0.05697973
68	0xbe10c708	-0.14138424
69	0x3d1b8b34	0.03797455
70	0x3db53991	0.088488705
71	0x3e018ced	0.12651415
72	0x3dc37477	0.09543698
73	0xbcd54fca	-0.026039023
74	0xbe0500f0	-0.12988639
75	0xbe5108c6	-0.20413503
76	0x3de85c6b	0.11345752
77	0x3db04d1e	0.08608459
78	0x3d338904	0.04383184
79	0xbd91242a	-0.07086976
80	0x3bb11ba5	0.005404907
81	0x3a9d0153	0.0011978544
82	0x3e4f4c77	0.20244013
83	0x3e89caac	0.2691244
84	0x3c900e73	0.017585015
85	0x3dc3f505	0.09568218
86	0xbc841b0a	-0.016126174
87	0x3e5b3871	0.2140825
88	0xbd72d3de	-0.059284084
89	0xbc43cfab	-0.011951367
90	0xbd39e751	-0.045386616
91	0x3e3d59fa	0.18491355
92	0x3db37605	0.08762745
93	0xbdbe00ed	-0.0927752
94	0xbdf5fc0e	-0.12010966
95	0xbcb93152	-0.022606526
96	0x3ce96cef	0.028494326
97	0x3e03761f	0.12838028
98	0xbdb2d39c	-0.087317675
99	0x3bac4ce0	0.0052581877
100	0x3d045c09	0.032314334
101	0xbd871e42	-0.06597568
102	0xbe0b4d8e	-0.13603804
103	0xbde31125	-0.110872544
104	0xbcb2464d	-0.021762038
105	0xbdb614f2	-0.08890714
106	0xbe6697aa	-0.22518793
107	0x3d6f50d7	0.058426704
108	0x3e52f479	0.20601071
109	0xbd14df3b	-0.0363457
110	0x3e0c3e73	0.13695697
111	0x3cfbfa83	0.030759102
112	0x3e4ce466	0.20009002
113	0x3b574795	0.0032849063
114	0xbdb36a6e	-0.08760534
115	0xbe025723	-0.12728553
116	0xbc3e1d3e	-0.011603652
117	0xbbde64a2	-0.0067868987
118	0xbcb2e86c	-0.021839343
119	0xbde4537d	-0.111487366
120	0xbd5714c8	-0.052510053
121	0x3d19848e	0.03747993
122	0x3dea7a1a	0.1144907
123	0x3e24555d	0.16048189
124	0x3db3a6c7	0.08772045
125	0x3d3fdba3	0.04684032
126	0x3cdf3c46	0.02725042
127	0xbde54ec3	-0.11196663
128	0x3da78264	0.08179167
129	0x3e5628ff	0.20914076
130	0x3d6580e7	0.056031134
131	0x3d05757c	0.032582745
132	0xbdafae0f	-0.08578121
133	0xbd31491a	-0.043282606
134	0x3ccbef72	0.02489445
135	0x3d84f140	0.06491327
136	0xbbffb6a1	-0.0078037535
137	0xbdafbd86	-0.085810706
138	0xbde844c8	-0.11341244
139	0xbe317233	-0.1732872
140	0x3ca728d3	0.020405209
141	0xbd31ef09	-0.043440852
142	0x3d17eebb	0.037092905
143	0x3e00fd82	0.12596706
144	0xbe20e658	-0.15712869
145	0xbe24cc1b	-0.16093485
146	0x3c93adc3	0.018027192
147	0xbbda9187	-0.0066701802
148	0xbdff5509	-0.12467391
149	0x3c3a4b36	0.011370471
150	0xbdc79152	-0.097445145
151	0x3dc6cab3	0.097066306
152	0xbe4ea186	-0.20178804
153	0xbe4fd41f	-0.20295762
154	0x3ce4bc33	0.027921772
155	0x3d45760a	0.048208274
156	0xbc8baf40	-0.01705134
157	0xbdc97e20	-0.098385096
158	0x3d75db51	0.06002361
159	0xbd206002	-0.03915406
160	0xbd9ba906	-0.07600598
161	0xbe215f5e	-0.15759036
162	0x3dbf0eb2	0.09328975
163	0xbe2d29ee	-0.16910526
164	0xbe8211bf	-0.25404164
165	0x3da66d58	0.081263244
166	0xbe279753	-0.1636632
167	0xbe1e9da2	-0.1548982
168	0xbd211f28	-0.039336354
169	0xbd8ccbc7	-0.06874805
170	0x3e7e87b5	0.24856456
171	0x3c99fb92	0.018796716
172	0xbdc0aab9	-0.09407563
173	0xbc25dc9a	-0.010123396
174	0x3e2ff6d6	0.17184004
175	0x3d0dc8d2	0.034615345
176	0xbd5026e7	-0.05081835
177	0xbd3256a4	-0.04353966
178	0x3ddbd2b1	0.107335456
179	0x3c7a214c	0.015266728

classifier.5.weight f4 [180]
0	0x3f79cddc	0.9757974
1	0x3f8f5e5a	1.1200669
2	0x3f3ac4f4	0.72956777
3	0x3f85150a	1.0397046
4	0x3f5851e7	0.84499973
5	0x3f6b2478	0.9185252
6	0x3f6830e9	0.9069963
7	0x3f60e01e	0.87841976
8	0x3f949332	1.160742
9	0x3f8638a8	1.048604
10	0x3f8f881a	1.121341
11	0x3edd6170	0.432384
12	0x3f23b50d	0.63948137
13	0x3f762d15	0.9616254
14	0x3f29a154	0.6626179
15	0x3f7a2ee9	0.9772783
16	0x3f87c397	1.0606564
17	0x3f712d9e	0.9421023
18	0x3f832ac6	1.0247428
19	0x3efc038e	0.49221462
20	0x3f4b6df4	0.7946465
21	0x3f90ba10	1.1306782
22	0x3f8be9ce	1.0930727
23	0x3f3ebb7b	0.7450482
24	0x3f85b1f3	1.0444931
25	0x3f680bd6	0.9064306
26	0x3f313427	0.69220203
27	0x3f4247b7	0.7589068
28	0x3f669a17	0.9007887
29	0x3f6bb5a0	0.9207401
30	0x3f78efb8	0.9724078
31	0x3f86cda6	1.0531509
32	0x3f543787	0.8289723
33	0x3f2d43d2	0.6768161
34	0x3f87b57e	1.0602262
35	0x3f80c53a	1.0060189
36	0x3f272be4	0.65301347
37	0x3f5f6f5c	0.87279296
38	0x3f83c71d	1.029514
39	0x3f2d9968	0.67812204
40	0x3f6cfb9f	0.92571443
41	0x3f8dab71	1.1067945
42	0x3f91d1ed	1.1392189
43	0x3f780d76	0.9689554
44	0x3f5be7f1	0.8590079
45	0x3f7ffb22	0.99992573
46	0x3f958f2c	1.1684318
47	0x3f83bdb2	1.0292265
48	0x3f58bc15	0.8466199
49	0x3f8c985b	1.0983995
50	0x3ed71d7c	0.42014682
51	0x3f840eb0	1.0316982
52	0x3f41818f	0.75588316
53	0x3f778fa3	0.9670355
54	0x3f821d9f	1.016529
55	0x3f8f2b9d	1.1185185
56	0x3f5ef43d	0.8709143
57	0x3f4cb029	0.799563
58	0x3f410079	0.75391346
59	0x3f5782c6	0.8418392
60	0x3f8a6d0a	1.0814526
61	0x3f65b6bb	0.8973195
62	0x3f8dfdf8	1.109313
63	0x3f496271	0.78665835
64	0x3f827f52	1.0195105
65	0x3f8c6b20	1.0970192
66	0x3f9228fa	1.1418755
67	0x3f580821	0.84387404
68	0x3f6b1399	0.9182678
69	0x3f841561	1.0319024
70	0x3f628874	0.8848946
71	0x3f71050a	0.94148314
72	0x3f80c3c1	1.0059739
73	0x3f708467	0.9395203
74	0x3e9efc69	0.3105195
75	0x3f807b66	1.0037658
76	0x3f998ce1	1.1996118
77	0x3f33ddde	0.7026042
78	0x3f3e5f49	0.74364144
79	0x3f5257bb	0.82165116
80	0x3f6734cc	0.90314937
81	0x3f6163ea	0.8804308
82	0x3f90a63a	1.1300728
83	0x3f63e86c	0.8902652
84	0x3f88c854	1.0686135
85	0x3f83ddb8	1.0302038
86	0x3f473fee	0.77831924
87	0x3f82bf15	1.0214564
88	0x3f69c0a9	0.913096
89	0x3f749b2b	0.9554927
90	0x3ef750fc	0.48303974
91	0x3ee998be	0.45624346
92	0x3f8a75d8	1.0817213
93	0x3f0f57b1	0.5599318
94	0x3f41d2d6	0.75712335
95	0x3ed243e3	0.41067418
96	0x3f74e89f	0.9566745
97	0x3f5514c3	0.83234805
98	0x3f378ff0	0.71704006
99	0x3f706f77	0.9392008
100	0x3f4f269a	0.80918276
101	0x3f8d0e98	1.1020079
102	0x3f818725	1.0119368
103	0x3f8b9894	1.0905938
104	0x3f23e5f0	0.6402273
105	0x3f738220	0.9512043
106	0x3f844e1a	1.0336335
107	0x3f48ffb0	0.7851515
108	0x3f7dec30	0.9918852
109	0x3f81a8a1	1.0129586
110	0x3f67595a	0.90370715
111	0x3f527273	0.82205886
112	0x3f6e6241	0.93118674
113	0x3f4c2ff1	0.7976065
114	0x3f8a7634	1.0817323
115	0x3f870747	1.0549096
116	0x3f897b19	1.0740691
117	0x3ec01125	0.3751308
118	0x3f01db62	0.50725377
119	0x3f69b37d	0.912895
120	0x3fa31ec6	1.2743766
121	0x3f85d892	1.0456717
122	0x3f8f2278	1.1182394
123	0x3f7666f3	0.9625084
124	0x3f52d50c	0.82356334
125	0x3f482a94	0.7818997
126	0x3f634c0a	0.887879
127	0x3f8c7db6	1.0975864
128	0x3f8b2ade	1.0872457
129	0x3f63c225	0.88968116
130	0x3f5ef34f	0.8709001
131	0x3f94c488	1.1622477
132	0x3f946708	1.1593943
133	0x3f881694	1.063189
134	0x3f6765be	0.9038962
135	0x3f62f6c9	0.88657814
136	0x3f81849a	1.0118592
137	0x3f660ce9	0.8986345
138	0x3f318389	0.6934133
139	0x3ef38a05	0.47566238
140	0x3f5dc595	0.8662961
141	0x3f5cd68d	0.8626488
142	0x3f4bba45	0.795811
143	0x3f8d4f4f	1.1039828
144	0x3f86ec76	1.0540912
145	0x3f4cfa61	0.8006955
146	0x3f83ae11	1.0287496
147	0x3f7207fc	0.94543433
148	0x3eff8719	0.4990776
149	0x3f1f2bf6	0.62176454
150	0x3f4bb3cc	0.79571223
151	0x3f657890	0.8963709
152	0x3f595465	0.848944
153	0x3f5f6df2	0.8727714
154	0x3f7b8f3c	0.98265433
155	0x3f757de5	0.95895225
156	0x3f668ddb	0.90060204
157	0x3f82231f	1.0166968
158	0x3f1fa2b8	0.62357664
159	0x3f3c947f	0.7366409
160	0x3f7ce1b1	0.9878188
161	0x3f0ea44d	0.55719453
162	0x3f8aad04	1.083405
163	0x3f24ebc7	0.6442227
164	0x3f7198bc	0.9437368
165	0x3f480594	0.7813351
166	0x3f5a06cc	0.8516662
167	0x3f5bdaa0	0.8588047
168	0x3f3f311a	0.746843
169	0x3f7e5afb	0.99357575
170	0x3f8d5844	1.1042562
171	0x3f105c04	0.56390405
172	0x3f6d295d	0.9264124
173	0x3f8395d3	1.0280098
174	0x3f72d5fc	0.94857764
175	0x3f8605d4	1.0470529
176	0x3f88f6a3	1.0700268
177	0x3f80ea57	1.0071515
178	0x3f48886f	0.7833318
179	0x3f289ec4	0.6586726

classifier.5.bias f4 [180]
0	0xbe785936	-0.24252781
1	0xbe29d12d	-0.165837
2	0xbeb4d739	-0.35320452
3	0xbe39d262	-0.18146661
4	0xbea9a869	-0.331363
5	0xbe8bcd38	-0.27305007
6	0xbe6f3e76	-0.2336367
7	0xbec184c4	-0.37796605
8	0xbee671f6	-0.4500882
9	0xbeb6e868	-0.35724187
10	0x3d114cf7	0.03547379
11	0xbe446ffc	-0.19183344
12	0xbee3a311	-0.44460347
13	0xbe94dc49	-0.29074314
14	0xbefa7197	-0.48914787
15	0xbe9ad99b	-0.30244145
16	0xbee2c8a6	-0.44293708
17	0xbeaabe3d	-0.33348265
18	0xbe804db0	-0.2505927
19	0xbe153804	-0.1457215
20	0xbef2615b	-0.473399
21	0xbeaae3e7	-0.33377
22	0xbea723fb	-0.32644638
23	0xbf026092	-0.50928605
24	0xbf053a48	-0.52042055
25	0xbe69d8dc	-0.22836632
26	0xbedd69a6	-0.43244666
27	0xbea6676e	-0.32500786
28	0xbea54d8f	-0.32285735
29	0xbeeec6f2	-0.46636158
30	0xbe0ef1bf	-0.13959406
31	0xbed424fd	-0.4143447
32	0xbe9f59ba	-0.31123143
33	0x3de92af7	0.11385148
34	0xbeada5ca	-0.3391555
35	0xbed6fae6	-0.41988295
36	0xbed81153	-0.42200717
37	0xbecbfb4d	-0.39840165
38	0xbeaa1454	-0.33218634
39	0xbe3df6d3	-0.18551187
40	0xbed11041	-0.40832713
41	0xbf0ee767	-0.5582184
42	0xbea2964a	-0.31755286
43	0xbe98a0a3	-0.29810056
44	0xbe9cc840	-0.3062153
45	0xbef54e1c	-0.47911155
46	0xbf1b524c	-0.6067245
47	0xbee1a54c	-0.44071424
48	0xbef97e9f	-0.48729417
49	0xbebe0bc9	-0.37118366
50	0xbe4edfa3	-0.20202498
51	0xbeb4b24d	-0.35292283
52	0xbecffe8f	-0.406239
53	0xbeaac2db	-0.33351788
54	0xbe8dd321	-0.2770014
55	0xbe02a634	-0.12758714
56	0xbe9b40e3	-0.30322942
57	0xbea36912	-0.319161
58	0xbecc72c7	-0.39931318
59	0xbe2e0227	-0.16993009
60	0xbeebe20e	-0.46070904
61	0xbeb58107	-0.35450003
62	0xbeb82491	-0.35965398
63	0xbedbda66	-0.42940062
64	0xbeb1271b	-0.34600148
65	0xbe86db47	-0.2633917
66	0xbeaa0bc7	-0.3321211
67	0xbebebea5	-0.37254825
68	0xbeb88bb9	-0.360441
69	0xbe7c0cb9	-0.24614228
70	0xbed5534c	-0.41665113
71	0xbe3712cc	-0.17878264
72	0xbea12e16	-0.31480473
73	0xbf1966a6	-0.59922254
74	0xbdf1ab92	-0.118003026
75	0xbf187ba5	-0.59563667
76	0xbeeba3b5	-0.46023336
77	0xbec3ac57	-0.38217422
78	0xbed4e363	-0.41579732
79	0xbf13e562	-0.57771885
80	0xbeab4487	-0.3345072
81	0xbebc0349	-0.36721256
82	0xbedb4ab0	-0.4283042
83	0xbedc537a	-0.43032438
84	0xbe00d780	-0.12582207
85	0xbec90b24	-0.39266312
86	0xbec51382	-0.38491446
87	0xbee6e3d8	-0.45095706
88	0xbea1444b	-0.31497416
89	0xbea43a88	-0.32075906
90	0xbde33fb0	-0.11096132
91	0xbdc8622f	-0.09784352
92	0xbecb7a3b	-0.39741692
93	0xbea02dd9	-0.3128498
94	0xbebb325b	-0.36561856
95	0xbe951953	-0.29120883
96	0xbebefe62	-0.37303454
97	0xbebacd46	-0.36484736
98	0xbe37f5da	-0.17964879
99	0xbf04ebc7	-0.5192227
100	0xbeaae0aa	-0.3337453
101	0xbef30352	-0.4746347
102	0xbe922d00	-0.28549957
103	0xbe8aa3e4	-0.27078164
104	0xbf079e13	-0.5297558
105	0xbe44902d	-0.19195624
106	0xbec6e5e0	-0.38847256
107	0xbea0cce9	-0.31406334
108	0xbe054b7a	-0.13017073
109	0xbeb30e3f	-0.34971806
110	0xbed697d6	-0.41912717
111	0xbd7a9fd2	-0.061187573
112	0xbe8f70c8	-0.28015733
113	0xbec44adf	-0.38338372
114	0xbe5eebc1	-0.2176962
115	0xbf12db4b	-0.57365865
116	0xbe3e9e8b	-0.18615167
117	0xbd3c17fc	-0.04592131
118	0xbe0985b4	-0.1342991
119	0xbeeccf22	-0.4625178
120	0xbe6a3ce1	-0.22874786
121	0xbf0602bf	-0.5234794
122	0xbe8ba6a1	-0.27275565
123	0xbee8b6ef	-0.45452067
124	0xbe91a3d3	-0.284453
125	0xbf162470	-0.5864935
126	0xbee5f4d8	-0.44913363
127	0xbf0b5e2b	-0.54440564
128	0xbed8aa04	-0.42317212
129	0xbea0962c	-0.31364572
130	0xbf19b6b6	-0.6004442
131	0xbf02f1c9	-0.51150185
132	0xbea09224	-0.31361496
133	0xbea47735	-0.32122198
134	0xbe9a7f6e	-0.30175346
135	0xbe7d470d	-0.24734135
136	0xbe8123d6	-0.25222653
137	0xbe9594a7	-0.29214975
138	0xbdfdb564	-0.12388113
139	0xbe715c79	-0.23570432
140	0xbe5de940	-0.21671009
141	0xbe69e9dc	-0.22843117
142	0xbec9c8e1	-0.3941107
143	0xbf133455	-0.5750173
144	0xbea0c4f1	-0.31400254
145	0xbe4f5155	-0.2024587
146	0xbe9fbbe6	-0.31198043
147	0xbe8d131b	-0.2755364
148	0xbe211589	-0.15730871
149	0xbe2e75dd	-0.17037149
150	0xbebd64fc	-0.36991107
151	0xbecd4a35	-0.40095678
152	0xbe9c4212	-0.30519158
153	0xbebb63d5	-0.36599603
154	0xbe87aaf4	-0.26497614
155	0xbe4cd607	-0.2000352
156	0xbefa82a6	-0.48927802
157	0xbea28fde	-0.31750387
158	0xbe7bced9	-0.24590625
159	0xbee9a8fb	-0.45636734
160	0xbeb07e47	-0.34471342
161	0xbeb81aa2	-0.3595782
162	0xbeed391c	-0.46332633
163	0xbecb9bac	-0.39767206
164	0xbe21003a	-0.15722743
165	0xbe6fa978	-0.23404491
166	0xbe9f2e9c	-0.31090248
167	0xbf0b37d3	-0.54382056
168	0xbf092192	-0.5356685
169	0xbeb9ea10	-0.36311388
170	0xbe89e685	-0.26933685
171	0xbe5c5cbc	-0.2151975
172	0xbe9a94a0	-0.30191517
173	0xbe26c0e4	-0.1628452
174	0xbe50f996	-0.2040771
175	0xbe6957ed	-0.22787447
176	0xbf08b43f	-0.53400034
177	0xbeb91541	-0.36149028
178	0xbee6db71	-0.45089296
179	0xbebaf956	-0.36518353

classifier.5.running_mean f4 [180]
0	0x3e46c37c	0.19410509
1	0xbecd9177	-0.40150043
2	0xbe6d1aac	-0.23154706
3	0xbef237c8	-0.47308183
4	0xbd8d38b8	-0.06895584
5	0xbf221fe2	-0.633299
6	0xbeef287a	-0.4671057
7	0xbeb155fb	-0.3463591
8	0xbedaba5d	-0.4272031
9	0xbdd8fc75	-0.10595027
10	0xbee3015b	-0.44336972
11	0x3f10be52	0.56540406
12	0xbe6f37f6	-0.23361191
13	0xbd5ace2e	-0.053419285
14	0xbe9c20fa	-0.3049391
15	0xbe1b8183	-0.15186124
16	0xbe9222bf	-0.28542134
17	0xbea79f17	-0.32738563
18	0xbf0ced9e	-0.55050075
19	0x3e678d1a	0.2261242
20	0xbe3f3056	-0.18670782
21	0xbefb466e	-0.4907717
22	0xbf324ec5	-0.6965144
23	0xbf18b863	-0.5965635
24	0xbc900816	-0.01758198
25	0xbf0ae8ef	-0.5426168
26	0xbf17e28e	-0.5933007
27	0xbf09f383	-0.53887194
28	0xbf0162b0	-0.5054121
29	0xbe098d0b	-0.1343271
30	0xbeced916	-0.40399998
31	0xbea1739e	-0.3153352
32	0xbe3ba086	-0.18322954
33	0x3e82f634	0.25578463
34	0xbf2e9507	-0.6819615
35	0xbdc97c5c	-0.09838173
36	0xbecdacb3	-0.40170822
37	0xbea59789	-0.32342175
38	0xbc95729f	-0.018243132
39	0x3e3159ed	0.1731946
40	0x3dd606d1	0.10450519
41	0xbe425d2f	-0.18980859
42	0xbe74d359	-0.23908748
43	0xbdb9af90	-0.09066689
44	0xbe9e5b4a	-0.30929023
45	0xbea5171d	-0.32244197
46	0xbf2c794e	-0.67372596
47	0xbefecad9	-0.49764135
48	0xbed5c39b	-0.41750798
49	0xbdeca09b	-0.115540706
50	0x3ebf23ce	0.37332004
51	0xbe27e4d0	-0.16395879
52	0xbe8bd4f4	-0.27310908
53	0xbe84c4ab	-0.25931296
54	0xbe871d77	-0.26389667
55	0xbe6c5294	-0.23078376
56	0xbe90dc93	-0.28293285
57	0xbeecaaf1	-0.46224168
58	0xbeb9b4ff	-0.36270902
59	0xbeaf080a	-0.3418582
60	0xbe292645	-0.16518505
61	0xbf26424f	-0.6494493
62	0xbef1bb7e	-0.47213358
63	0xbe9499a0	-0.29023457
64	0xbe508091	-0.20361544
65	0xbebdab22	-0.37044626
66	0xbf36656d	-0.71248513
67	0xbef91b8b	-0.48653826
68	0xbeb5f64b	-0.3553947
69	0xbe9e47a3	-0.3091403
70	0xbea9a164	-0.33130944
71	0xbdf1edc3	-0.118129276
72	0xbe8900e0	-0.2675848
73	0xbe77df8a	-0.24206367
74	0x3e362ef1	0.17791344
75	0xbf27b152	-0.65504944
76	0xbea06800	-0.31329346
77	0x3e80edfa	0.25181562
78	0xbe8926c8	-0.267874
79	0xbf1b97f3	-0.6077873
80	0xbe8b4123	-0.27198133
81	0xbf1280c2	-0.5722772
82	0xbe3ff5d9	-0.18746127
83	0xbe04b4b9	-0.12959565
84	0xbec15fbe	-0.37768358
85	0xbeb2894a	-0.34870368
86	0xbe964704	-0.29351056
87	0x3e2bc10b	0.16772859
88	0xbf26fa89	-0.65226036
89	0xbeb285de	-0.34867758
90	0xbe043dea	-0.12914243
91	0x3ead1559	0.3380535
92	0x3e7a3dd8	0.24437654
93	0x3e7d9f56	0.24767813
94	0xbf1c3bb8	-0.61028624
95	0x3dbfb7e0	0.09361243
96	0xbec867a6	-0.39141577
97	0xbe7ebf9b	-0.24877779
98	0xbefec146	-0.4975683
99	0xbe958c5b	-0.29208645
100	0xbebc0f98	-0.36730647
101	0xbea0ec3c	-0.31430233
102	0xbf14e7a5	-0.5816596
103	0xbec06d54	-0.3758341
104	0x3d800337	0.06250613
105	0xbf3e15a5	-0.74251777
106	0xbf29115f	-0.6604213
107	0xbea2d891	-0.31805852
108	0xbe726af6	-0.23673615
109	0xbe9e0c43	-0.3086873
110	0xbeb633a6	-0.3558628
111	0xbe9efbd6	-0.3105151
112	0xbe1171ca	-0.14203563
113	0xbf0612e0	-0.5237255
114	0xbeb2febb	-0.3495997
115	0xbf083042	-0.53198636
116	0xbea16ff1	-0.31530717
117	0x3dfd5a2e	0.12370716
118	0xbdcef996	-0.101061985
119	0xbe418ffb	-0.1890258
120	0xbf1b596a	-0.6068331
121	0xbd694e0c	-0.056959197
122	0x3cb87564	0.022516914
123	0xbe50d4a6	-0.20393619
124	0xbe1bbb12	-0.1520808
125	0xbeb27cff	-0.3486099
126	0xbed59534	-0.41715395
127	0xbea24e16	-0.317002
128	0xbe0a40c5	-0.1350127
129	0xbde67127	-0.11252051
130	0xbedbfe56	-0.4296748
131	0xbe8c34b2	-0.27383953
132	0x3dddaecb	0.10824355
133	0x3c83c7cb	0.01608648
134	0xbe5021dc	-0.20325416
135	0xbf0a362e	-0.5398892
136	0xbe115e4d	-0.14196129
137	0xbefa208d	-0.4885296
138	0xbeb2fbff	-0.34957883
139	0x3bdf866d	0.0068214447
140	0xbe4834b3	-0.19551353
141	0xbdff108c	-0.12454328
142	0xbe85bb55	-0.26119485
143	0x3be62177	0.0070230323
144	0xbf213611	-0.62973124
145	0xbec48dfc	-0.38389575
146	0xbe5cbd3b	-0.2155656
147	0xbe552688	-0.2081548
148	0x3e184c95	0.14872964
149	0xbe41cad0	-0.18925023
150	0xbf1c1a4d	-0.6097763
151	0xbeb396c9	-0.35075977
152	0xbf13eebe	-0.57786167
153	0xbf0e5a85	-0.5560687
154	0xbdb51c24	-0.08843258
155	0xbe5a7cac	-0.21336621
156	0xbefa5517	-0.48893043
157	0xbeb27f41	-0.34862712
158	0xbd69df98	-0.057098
159	0xbf1e0550	-0.61726856
160	0xbeebc263	-0.46046743
161	0xbeaca6cf	-0.33721015
162	0xbcc9284f	-0.024555353
163	0xbe92c8a6	-0.28668708
164	0xbf5015ee	-0.8128346
165	0xbe6657fc	-0.22494501
166	0xbf140014	-0.5781262
167	0xbf2ab84e	-0.66687477
168	0xbee1a304	-0.44069684
169	0xbe7dfabb	-0.24802677
170	0xbcc1e228	-0.02366741
171	0x3db8fb6c	0.0903233
172	0xbe891dc4	-0.26780522
173	0xbea7d7b9	-0.3278177
174	0xbe3b1489	-0.18269552
175	0xbeb5d5bf	-0.35514638
176	0xbe9ff014	-0.31237853
177	0xbeda30b4	-0.42615283
178	0xbea0f299	-0.31435087
179	0xbeb7471d	-0.35796443

classifier.5.running_var f4 [180]
0	0x3ecbcae6	0.39803237
1	0x3f82f16d	1.0229927
2	0x3e8d1048	0.27551484
3	0x3ec20260	0.37892437
4	0x3f2ef53c	0.6834295
5	0x3f32ac5c	0.6979425
6	0x3f5351e5	0.82546836
7	0x3ea46faf	0.32116458
8	0x3f1ca1ae	0.61184204
9	0x3f24d20c	0.64383006
10	0x3f4b651d	0.7945116
11	0x3f0bccce	0.5460938
12	0x3dcbce15	0.099514164
13	0x3ecf10c4	0.4044248
14	0x3e1f3e82	0.15551189
15	0x3e49be56	0.19701514
16	0x3ea680a1	0.3252001
17	0x3e7e457a	0.2483119
18	0x3f200a8e	0.62516105
19	0x3e8daf7b	0.27672943
20	0x3e132e3c	0.14373106
21	0x3f487830	0.7830839
22	0x3f57d58f	0.8431024
23	0x3edb581a	0.42840654
24	0x3e3e7302	0.1859856
25	0x3f3f9d1c	0.74849105
26	0x3f0d4e0d	0.5519722
27	0x3e529eab	0.2056834
28	0x3f2fdbdf	0.6869487
29	0x3edc7d02	0.43064123
30	0x3fad7806	1.3552253
31	0x3e840c52	0.2579065
32	0x3ed1f867	0.41009828
33	0x3f09d7a1	0.5384465
34	0x3f27ae4c	0.6550033
35	0x3f1d712a	0.615008
36	0x3f86117d	1.0474087
37	0x3ee45ecb	0.4460357
38	0x3f88ff76	1.070296
39	0x3f174fa9	0.59105927
40	0x3eecce0a	0.46250945
41	0x3f5fe534	0.8745911
42	0x3f097aeb	0.5370318
43	0x3ef53f86	0.47900027
44	0x3f0194bf	0.50617594
45	0x3f10d8ff	0.5658111
46	0x3f82d451	1.0221044
47	0x3f568a4c	0.83804774
48	0x3e8b84a0	0.27249622
49	0x3ee9a30f	0.45632216
50	0x3ed8656c	0.4226488
51	0x3f4a9abc	0.79142356
52	0x3eaf723c	0.3426684
53	0x3ea2a037	0.3176286
54	0x3ee43a89	0.4457591
55	0x3fd1fcce	1.6405275
56	0x3e2f1fc0	0.17101955
57	0x3f9e1958	1.2351484
58	0x3eb17a30	0.34663534
59	0x3fca0b10	1.5784626
60	0x3e4f42c0	0.20240307
61	0x3f57b533	0.84260863
62	0x3f2cf244	0.6755717
63	0x3e920246	0.2851736
64	0x3e533ee8	0.20629466
65	0x3f7f0521	0.996172
66	0x3f8e201f	1.1103553
67	0x3f23cd3e	0.6398505
68	0x3eb3d2d3	0.35121784
69	0x3f100f22	0.5627309
70	0x3f0356bd	0.5130423
71	0x3fbac6d6	1.459193
72	0x3ecbb9f9	0.39790323
73	0x3e890019	0.26757887
74	0x3eaf7862	0.34271532
75	0x3e8ba9e3	0.2727805
76	0x3eaaa67f	0.3333015
77	0x3e994fe8	0.29943776
78	0x3e580ad5	0.21097882
79	0x3ed94ad3	0.424399
80	0x3e6fb5b3	0.23409157
81	0x3f04f6e5	0.5193923
82	0x3f2a4206	0.66506994
83	0x3e8e7bd2	0.27828842
84	0x3ff57933	1.9177612
85	0x3eef90f8	0.4679029
86	0x3e95fcbd	0.29294387
87	0x3e5836e2	0.21114686
88	0x3f234d9d	0.63790303
89	0x3eda7290	0.4266553
90	0x3f61e357	0.8823752
91	0x3e8c5f66	0.27416533
92	0x3e997287	0.2997019
93	0x3f1f63a6	0.62261426
94	0x3f0a3d6b	0.53999966
95	0x3e2dbec4	0.16967303
96	0x3ec2c8b7	0.38043758
97	0x3e80e2a1	0.25172904
98	0x3f2a765a	0.6658684
99	0x3e0ec385	0.13941772
100	0x3ed16611	0.40898183
101	0x3ebadbf6	0.36495942
102	0x3eed7757	0.46380112
103	0x3f520fda	0.8205544
104	0x3e5eec83	0.2176991
105	0x3fa03cfc	1.2518611
106	0x3f80ef0a	1.0072949
107	0x3ef2070c	0.47271
108	0x3fa611d3	1.297419
109	0x3f568ac1	0.8380547
110	0x3f787c57	0.9706473
111	0x3f0ba569	0.5454927
112	0x3f3ba094	0.732919
113	0x3f3787e4	0.7169173
114	0x3f90cd1e	1.1312597
115	0x3f408aac	0.75211596
116	0x3fb74f90	1.4321156
117	0x3ecfccc6	0.40585917
118	0x3ea5b743	0.3236638
119	0x3e63688f	0.22207855
120	0x3f60705f	0.87671465
121	0x3d9dd8d6	0.07707374
122	0x3ec5a10b	0.3859943
123	0x3dde1b2d	0.10845027
124	0x3f36bb3b	0.7137944
125	0x3e4195c3	0.18904786
126	0x3f24c4b5	0.6436265
127	0x3ec89b7f	0.39181134
128	0x3f1d8121	0.6152516
129	0x3ecaf7d7	0.39642212
130	0x3ea50afe	0.3223495
131	0x3f024a30	0.5089445
132	0x3e90bb27	0.28267786
133	0x3ed996fe	0.4249801
134	0x3f8b121a	1.0864899
135	0x3f91a89f	1.1379584
136	0x3ea53190	0.32264376
137	0x3edfe4dc	0.43729293
138	0x3ea898c4	0.3292905
139	0x3ead24ff	0.33817288
140	0x3faf09a3	1.3674816
141	0x3ef0b730	0.4701476
142	0x3ea10834	0.3145157
143	0x3e7f237a	0.24915877
144	0x3f66f843	0.9022257
145	0x3f85ca4b	1.045236
146	0x3f14a3c0	0.5806236
147	0x3eca93f5	0.39566007
148	0x3ec2890a	0.37995178
149	0x3f56b5b1	0.8387099
150	0x3ef812c5	0.4845182
151	0x3eaf36db	0.3422154
152	0x3e89614a	0.26832038
153	0x3ea83cd2	0.32858902
154	0x3f01d78a	0.5071951
155	0x3f55b05f	0.83472246
156	0x3ea54899	0.3228195
157	0x3fa67b9a	1.300647
158	0x3dfb5eec	0.12273964
159	0x3f366c52	0.71259034
160	0x3e30e222	0.17273763
161	0x3e5492e7	0.20759164
162	0x3ea295a0	0.3175478
163	0x3f1082b4	0.5644944
164	0x3f8f95fa	1.1217644
165	0x3eeec331	0.46633294
166	0x3f189c4f	0.5961351
167	0x3e9ee2e1	0.3103247
168	0x3e7cab5c	0.24674743
169	0x3ec057a4	0.37566864
170	0x3f68903a	0.9084507
171	0x3e8a04a4	0.26956666
172	0x3e882f90	0.26598787
173	0x3fe8357e	1.8141325
174	0x3eb74e26	0.3580181
175	0x3fd189f7	1.6370229
176	0x3f06a7fe	0.52600086
177	0x3eb01fbd	0.34399214
178	0x3e8ff60a	0.281174
179	0x3e8d6002	0.2761231
