ckpt/IAP/3/best_loss_BEST5.ckpt (torch, 231264 bytes, 19 tensors)

classifier.0.weight f4 [140, 24]
00000000: aa68 a33b 8c54 2dbe 863c 3dbe 118a 913d
00000010: 0521 1ebe c1bb c6bc d900 28be 03e7 a63d
00000020: 7bcd 96bc 3893 c83e 2048 5b3d ff55 f33d
00000030: 7f4e fcbd 57c9 163f 0e16 eabd a1c6 e6bc
00000040: e734 f7bc 457b babd adf0 853d ecc9 0b3c
00000050: eeee 74bd 9c72 19bd 873f 2f3d 54db 60bd
00000060: 433b 5c3d fd14 23be 128a 0f3d 444a 9bbd
00000070: 7889 d43d 80e7 9d3e bf7c 1f3e 240e 6d3e
00000080: 563b 05be aacb 2c3d 7537 39bd 5da2 613e
00000090: 999a 09be 04fa f7bb dd8f 8a3c 4c2a 3dbd
000000a0: 88fe 43be 2d79 0cbe 89a7 543d ab97 183f
000000b0: a08e 3bbe dab5 c43d b8d3 753e bc7c debd
000000c0: aa40 96be 52db a03d 8486 08be c206 a8bd
000000d0: e2fb c53d 13e8 28be 235b 073e 015a 0a3f
000000e0: 0aa0 4ebc a445 fa3d 3283 783d 6935 2f3e
000000f0: 9ef8 dabd 5922 083e 3b83 8c3d bf56 51be
00000100: 9532 b33d 6b78 953c bdd6 86bd e371 ecbe
00000110: be1c aa3d 87a4 31be f282 96be 8c53 73be
00000120: 5ca5 8abe 9729 793d a870 95be 3ec8 0e3e
00000130: a4b7 8d3e eb49 ab3c a949 3abe 59f0 883e
00000140: 2353 383e 84a2 a0b8 3f54 e1be ceef 523d
00000150: f620 603e d3e3 8f3e c96d c13e 0875 5d3d
00000160: 01bb c8bd 3a3f e93d 8406 f13e b047 653e
00000170: 2f05 14be 5268 3abe afe5 4bbe 117f 653e
00000180: 59c4 2cbe a37d 733e d38f 60bd 2cde 57bd
00000190: 7a58 ddbd a9d7 c6bd d69c bbbd b4d9 893e
000001a0: d315 ce3d 88b9 323e e874 c0bd 529e 103f
000001b0: cf07 593e 169d 073f f152 873d 7e68 0d3e
000001c0: 6aec 9abb 091a 31be 577d 68bd d22e 9cbe
000001d0: 3c1b 08be fa44 b5bd b6d5 213d 4e16 e8bd
000001e0: 4fde 59be 4cd5 1f3e 27c4 003e 872f cfbe
000001f0: 3e0d cbbd 757c 883d 49d7 183e 5870 95be
00000200: d3ef c2be c91b 27be 5b4f 353e d014 71bf
00000210: 2824 b7be b4ca c9ba 5c84 b1be 676f b33a
00000220: 5b6d 3ebe a566 23bd e2fd 163c c103 9cbd
00000230: 2dfc 69be 8b19 d4bd f4a6 84be f022 8abe
00000240: 815c f23e ff17 8a3d 7a95 26bd 793c 1e3d
00000250: 3964 e23d 164e 333e 4cf4 d6bc b847 86be
00000260: 2d4f 823e 7e30 703e 69e4 a1be c4ce 043e
00000270: 14cd bf3e 2f24 4d3f b8de 08be 9267 d6bb
00000280: 98ae bc3e 1646 37bd 391c c83d 60a2 5f3e
00000290: da18 b93d 9a50 c9be a4ec acbd b358 b7bc
000002a0: 50d1 423d 966d c4bd 6971 263e 6984 f0be
000002b0: 5ce3 95bd 3dce 8fbd 3d09 a5be a3b9 f2bd
000002c0: a504 173e d6b0 243e 70eb 6cbe 5f5e 65be
000002d0: e966 96bd 865f 0bbe 0fb8 00bf b04a 44bc
000002e0: 0509 8bbd f64c 27bd 8ae5 143e 3a8c 44bd
000002f0: 3519 8dba cdc7 43be 02c9 023c 2f67 08bf
00000300: f902 efbc 0a17 54be c0c7 5b3e 484d 193d
00000310: 3144 57bd 7db9 07be ed37 45be cc16 96bc
00000320: 1dfc 51be 62d9 89be 0ef6 93bd 30b4 573e
00000330: 2ee4 f1bd 0082 02be 431a bebe e0dc f9bd
00000340: 2d7c 17be 4790 b73d 94a8 f73d f661 2bbe
00000350: 5000 96be 3290 d53e b4c2 1ebd e5e8 4a3d
00000360: 3eb4 8bbe d79e 1abd 5935 233c 2aca 48be
00000370: 9610 17be 15f5 99bc 6d4f 9ebe 1544 3abe
00000380: d749 11be af9f c93d 8629 b53d 2f37 c9be
00000390: 1c63 4fbe 6574 3cbe 1163 00bf 3508 36be
000003a0: ab90 13be 50e1 69bd 1d3a 993d d895 5f3d
000003b0: 21ee 88be 1c59 23be 6e9b 193c a6f5 f3be
000003c0: e006 ebbe aeaf 9cbe 73c9 e63c 0d32 073e
000003d0: bdb3 16bd f074 503e 648c 13be d04f 3e3c
000003e0: 3217 e13b a020 a33e 2a9f 44be cd0a 61be
000003f0: 6f88 f2be c0cc 203f d5e2 04be b9ea d1bd
0.004986842 -0.16926783 -0.18480119 0.07106412 -0.15442283 -0.02425945 -0.16406573 0.08149531
-0.018408528 0.3917482 0.05353558 0.11881637 -0.123196594 0.5890097 -0.11429988 -0.028170886
-0.030176593 -0.09105543 0.06540046 0.008532029 -0.059798174 -0.037462816 0.042785194 -0.054896668
0.053767454 -0.15925975 0.035043783 -0.075825244 0.103777826 0.30840683 0.1557493 0.23149925
-0.13010916 0.042186417 -0.045218904 0.22034593 -0.1343788 -0.007567646 0.016914302 -0.046182916
-0.19140065 -0.137181 0.051917586 0.59606427 -0.18316126 0.09604998 0.24006546 -0.10863635
-0.2934621 0.07854332 -0.13332564 -0.08204414 0.096671835 -0.1649478 0.1321836 0.54043585
-0.0126113985 0.12220314 0.060671993 0.17110218 -0.10691951 0.13294353 0.06860968 -0.20443247
0.08749882 0.018245896 -0.06583927 -0.4618064 0.083062634 -0.17347918 -0.29396778 -0.2376234
-0.27079284 0.06083068 -0.29187512 0.13943574 0.2767917 0.02090927 -0.18192162 0.2674587
0.18000464 -7.6596654e-05 -0.44009587 0.051498227 0.21887574 0.28103504 0.37779072 0.054066688
-0.09801293 0.11389013 0.47075284 0.22390628 -0.14455102 -0.18203858 -0.19911836 0.22411753
-0.16871776 0.23778395 -0.05482466 -0.052702114 -0.10807891 -0.09709103 -0.091607735 0.26923907
0.100627564 0.17453587 -0.09397298 0.5649158 0.21194385 0.5297407 0.06607617 0.13809392
-0.00472789 -0.17295088 -0.05676016 -0.3050447 -0.13291639 -0.08851047 0.03951045 -0.11332379
-0.2127621 0.1560871 0.12574826 -0.40465948 -0.09914635 0.06664363 0.14925875 -0.29187274
-0.38073596 -0.16319193 0.17706053 -0.9417238 -0.35769773 -0.0015395493 -0.34671295 0.0013689817
-0.18596403 -0.03989281 0.009215804 -0.076179035 -0.22850104 -0.103564344 -0.25908625 -0.2697978
0.473362 0.06742858 -0.040669896 0.03863189 0.11054272 0.17510256 -0.026239537 -0.26226592
0.2545103 0.23455998 -0.31619576 0.129695 0.3746115 0.80133337 -0.1336621 -0.0065431083
0.36851954 -0.044744574 0.09771008 0.21839285 0.09037943 -0.39319307 -0.08443573 -0.022381162
0.047562897 -0.09591214 0.162542 -0.4697602 -0.07318756 -0.07021759 -0.3223361 -0.11851814
0.14747865 0.16083083 -0.23136687 -0.22399281 -0.07343847 -0.13610658 -0.5028085 -0.0119806975
-0.0678883 -0.04084488 0.14540687 -0.047985293 -0.0010764959 -0.19119187 0.007982494 -0.53282446
-0.029176222 -0.20711914 0.21462917 0.037427217 -0.052555267 -0.13254352 -0.19259615 -0.018321417
-0.2050633 -0.26923662 -0.072246656 0.2106483 -0.118111 -0.12744904 -0.3712941 -0.12200332
-0.14793463 0.089630656 0.120927006 -0.16736588 -0.29297113 0.41711575 -0.038759902 0.04953851
-0.2728595 -0.037749138 0.00996145 -0.1960837 -0.14752421 -0.018793622 -0.30919972 -0.18190034
-0.14188324 0.0984491 0.088458106 -0.39299914 -0.20252651 -0.18403776 -0.50151163 -0.17776568
-0.14410655 -0.05709964 0.07481787 0.05458626 -0.26744178 -0.15951961 0.009375436 -0.47648352
-0.45903683 -0.30602783 0.02817223 0.13202687 -0.036792506 0.20357108 -0.14409024 0.0116157085
0.00686922 0.31860828 -0.19201341 -0.21976776 -0.47369716 0.62812424 -0.12977155 -0.10249848

classifier.0.bias f4 [140]
00000000: 656b a8be 740b 87bd 0ce2 093e 8893 fd3d
00000010: a648 b53d 0e3f 4bbe 61fb 383e f6c0 59be
00000020: 4558 6ebe 2064 4dbe 2524 afbd 0d3a 3d3e
00000030: d85e 46be 78fc 62be 1117 7d3d 0aee 89bd
00000040: ccc9 ab3e 645e 1dbe 4ed7 bb3d 0d59 7cbd
00000050: f422 bfbc 29b1 81bd feec 5b3e 1c07 063d
00000060: 4103 83be b200 2d3e 70e2 4a3d ff33 693c
00000070: 2864 023e 0a80 333e 24c1 64ba aaea 353e
00000080: 6ccb 183e 67c9 1abe e036 7bbe bc4b 113e
00000090: ccd5 5b3e ddc7 a63d 84f2 543e d883 983c
000000a0: ff5d 123d cfe5 bdbd 02ae 38bc 88de 3c3e
000000b0: 7c9c a5bd 8cee e43d 3b84 f03d 8ede c4bd
000000c0: 9327 22be f9c8 873d c2c0 c2bd ad81 88bd
000000d0: f5c3 563d bee1 97be e284 0c3d f99b ba3e
000000e0: 73fa a5bc d7dc 3f3e 5a35 103e 0749 003d
000000f0: e183 28be 224e 29be c96b 5d3d 57c3 32be
00000100: 9dc0 f2bd 50b6 033e 0967 d0bd dabb 98be
00000110: 4a81 74bd 7bf9 96be 443e d8bd c2e1 fd3d
00000120: bf7f bcbd ec8e cabd 0178 de3e 3347 eabd
00000130: 9699 69be 2256 a2be 51d1 713e ee87 003e
00000140: f5d9 54be 899c ee3c 2743 98be 3237 71be
00000150: b4ba 4e3d 68eb 1b3e 6bd8 d93d b6a3 1cbd
00000160: cb5e 08be eade 103e 4b4f 91bc d00c 94be
00000170: 1244 2cbe 0ab3 9cbd f1c7 b63c 2e87 27be
00000180: 1605 123e 3780 923e 651d 5d3c fb55 8b3e
00000190: 8b8b 41be 9045 863c 3ec6 dabb 1ef6 08be
000001a0: f932 733d d91b 6d3d f8ec 84bd 9e9a 223e
000001b0: 2514 df3e 6955 603e 34ea f8be 1cf6 1a3e
000001c0: 4f59 b9bd 945b 2e3d ce11 b73e 814c 5ebe
000001d0: 0b18 b73d 876f b43d 40a8 ee3d 685f 1a3e
000001e0: ed26 b2bd 3bde 9cbe fdee f3bd ab33 62be
000001f0: 9ae4 7bbe 7351 803e 96c3 013e 050f a83e
00000200: ebb4 c53e dc2d 39bd d6f7 86be e407 e0bd
00000210: 9d8f b3be 250f 993d cac9 523e 8889 2b3e
00000220: 4d22 9d3a 16a5 b63d 1b71 c9bd 6147 b33d
-0.32894436 -0.065939814 0.13465136 0.12381655 0.08851747 -0.19848272 0.18064643 -0.21265015
-0.2327586 -0.20057726 -0.08551816 0.18479176 -0.19372118 -0.22166622 0.061789576 -0.067348555
0.33552396 -0.15368038 0.091719255 -0.061608363 -0.023332097 -0.06332619 0.21477124 0.032721624
-0.2558842 0.16894796 0.049532354 0.014233588 0.12733519 0.17529312 -0.000872629 0.17765298
0.1492135 -0.15115891 -0.24532652 0.14189047 0.21468276 0.0814359 0.20795637 0.018617555
0.035734173 -0.09272348 -0.011271955 0.18444264 -0.08086488 0.11178312 0.11743971 -0.096127614
-0.15835409 0.06630129 -0.09509422 -0.06665359 0.052432973 -0.29664415 0.034306414 0.36447123
-0.020261025 0.18736587 0.14082852 0.031319644 -0.16456558 -0.16533712 0.05405787 -0.17457329
-0.11853144 0.12862515 -0.101759024 -0.2983082 -0.059693612 -0.29487213 -0.10558751 0.123965755
-0.09204053 -0.098905414 0.4345093 -0.114393614 -0.22812495 -0.3170634 0.23615004 0.12551853
-0.20786269 0.029127376 -0.29738733 -0.23556212 0.050471023 0.15226519 0.106369816 -0.038242064
-0.1331741 0.14147535 -0.017738005 -0.28916025 -0.16822842 -0.076513365 0.022312136 -0.1636016
0.14259753 0.28613445 0.013495778 0.27214035 -0.18900888 0.016390592 -0.0066764643 -0.13375136
0.059374783 0.057887886 -0.06490511 0.15879294 0.43570057 0.21907581 -0.48616183 0.15132946
-0.090502374 0.042567804 0.3575577 -0.21708871 0.08940133 0.08810335 0.11653185 0.15075457
-0.08698831 -0.30638298 -0.11910818 -0.22090022 -0.24598923 0.2506214 0.12672266 0.3282396
0.38614592 -0.04520975 -0.2636096 -0.10939005 -0.35070506 0.07473592 0.20584789 0.16751683
0.0011988372 0.089182064 -0.09836026 0.08753849

classifier.1.weight f4 [140]
00000000: 2315 873f a74c cb3e 7076 593f a4ff 4b3f
00000010: 0dd1 713f 5af7 6a3f 9743 603f 3dd8 803f
00000020: 9b74 4d3f 8941 873f efce 573f b062 d73e
00000030: 64ed 823f f3ac 633f ff45 563f 3019 2b3f
00000040: afe4 253f 5e6a 7b3f 28f3 5d3f 29a1 263f
00000050: 0456 5c3f 6afa 953f d74e 3f3f 279f f23e
00000060: 98a2 533f 0bec 3e3f bd02 693f a745 453f
00000070: a511 2f3f 5b9c 333f 663a 4e3f ddc3 893f
00000080: b307 893f 146c 8b3f 98b0 4d3f fe94 5c3f
00000090: c103 383f 0212 173f a2f2 8e3f fa69 2c3f
000000a0: bf2d 793f 83d9 5d3f a32c 303f f4e1 763f
000000b0: 3ef2 093f ad97 853f d814 0e3f 113b 383f
000000c0: ec3b 673f 0f10 4e3f b99d 473f 5e6e 543f
000000d0: 215d 823f be5a 0f3f 6f73 613f 2f17 633f
000000e0: 3478 633f d260 543f 97bc 413f 6bc6 693f
000000f0: 5e88 333f a992 523f d97c 4e3f faf2 823f
00000100: 333a 5a3f 474e 5a3f 1f36 613f d9de 3a3f
00000110: bb41 1f3f f63c 5f3f 4458 683f 5251 393f
00000120: 5606 943f 129a 393f 6765 573f 53fe 393f
00000130: ec54 5c3f 6fb7 8f3f a4f0 273f 95ff 0c3f
00000140: 8ac4 893f 18e8 6d3f 3856 693f 4a22 433f
00000150: 0fd5 703f 5814 ea3e 8f29 5e3f 85ed 4d3f
00000160: cf6a 883f 4e8f 563f 1472 713f c8f8 df3e
00000170: 8f04 263f a751 803f 1c19 663f cdea 573f
00000180: a233 4a3f b2bd 413f 96b0 523f aaab 6a3f
00000190: 47ba f93e 2072 583f 1286 5b3f a751 573f
000001a0: fb6a 5d3f 2d25 083f a330 443f 8ac2 613f
000001b0: 3a5f 5a3f ee9a 6d3f 7534 6d3f 55a9 453f
000001c0: 6070 7a3f 7b41 673f 8457 7a3f c067 333f
000001d0: eb77 543f f7c5 4c3f e444 823f d86d 593f
000001e0: fdba 713f dd2d 423f fe5a 3f3f de72 183f
000001f0: 8ef3 783f bacf 593f 52f8 1d3f 22ca 7a3f
00000200: 3339 433f 9a7d 3c3f 5abc 463f 9910 513f
00000210: ba44 523f 3f7c 713f 7780 733f 997e cf3e
00000220: afaa 533f a6b4 553f 15a8 1a3f 38e1 443f
1.0553325 0.3970692 0.84946346 0.7968695 0.9445961 0.9178368 0.87603134 1.0065991
0.8025605 1.0566875 0.8430013 0.4206748 1.0228696 0.88935775 0.83700556 0.6683531
0.6480207 0.9820918 0.8669915 0.6508966 0.8606875 1.1717045 0.74729675 0.4738705
0.82669973 0.74578923 0.91019803 0.77059406 0.683863 0.70160455 0.8055786 1.0762898
1.0705475 1.0892358 0.80347586 0.86164844 0.7188073 0.5901185 1.1167796 0.6734921
0.9733543 0.8666002 0.6881811 0.9643853 0.5388526 1.0436913 0.55500555 0.7196513
0.9032581 0.80493253 0.7797504 0.82980907 1.0184671 0.55997837 0.8806676 0.8870725
0.8885529 0.82960236 0.7567839 0.91318387 0.70129955 0.82255036 0.8065925 1.02304
0.85245055 0.8527569 0.8797321 0.7299629 0.6220967 0.87202394 0.9075968 0.7238971
1.1564434 0.7250072 0.841391 0.7265369 0.8606708 1.1227854 0.65601563 0.5507749
1.0763104 0.9293227 0.91147184 0.76224196 0.940751 0.45718646 0.86782163 0.8044055
1.0657595 0.83812416 0.94314694 0.43744493 0.64850706 1.0024918 0.89882064 0.8434265
0.78985035 0.7568008 0.823007 0.9166819 0.4877493 0.8454914 0.8575145 0.84108967
0.86491364 0.53181726 0.76636714 0.8818747 0.85301554 0.9281453 0.9265817 0.77211505
0.9782772 0.9033429 0.9778979 0.70080185 0.8299548 0.7998957 1.0177274 0.84933233
0.94425946 0.7585123 0.7474822 0.59550273 0.97246635 0.8508259 0.6170703 0.9796468
0.76259154 0.7362915 0.7763115 0.8166595 0.8213612 0.9433021 0.95117897 0.40526274
0.8268232 0.8347877 0.6041272 0.76906157

classifier.1.bias f4 [140]
00000000: 9581 fcbe fcdc 36be c35a 8fbe e785 d0be
00000010: 4021 07bf d4f7 23bf a994 00bf 2ab5 c8be
00000020: 83e4 19bf f2d4 13bf 91ba 0bbf a26b 84be
00000030: 7bb4 04bf 85e5 0cbf 1b45 c0be b701 0dbf
00000040: 847b c3be 44fa bebe ff93 4ebf 3f16 2fbe
00000050: b006 d8be 39eb 0cbf 52b3 0ebf f12b 9cbe
00000060: 59ad 02bf 829a adbe d6d8 acbe 8be1 cebe
00000070: 4693 c0be c305 cebe 2fb0 83be b948 10bf
00000080: 0c07 54bf 6258 51bf 7983 f1be 8037 94be
00000090: be0d cabe b48f dbbe 9099 2cbf 5897 2fbe
000000a0: c5a1 34bf f6e6 a8be 357a d6be 08d7 82be
000000b0: 09e7 4abe 889f 03bf ddea cabe 343d e0be
000000c0: 1bb7 28bf 4a9c fabe 60d1 74be c1e8 92be
000000d0: a4d5 a5be 4756 8abe 53be cdbe bef8 01bf
000000e0: 1757 97be c879 eabe 93b4 9dbd 48c6 16bf
000000f0: a1f3 8fbe 6bfe f4be 1a83 afbe 0519 08bf
00000100: f445 82be 0905 dabe 09ae 5ebf 2e10 bebe
00000110: 408b c0be 2944 9ebe dab1 e0be 61bc bdbe
00000120: 53e2 fbbe 3b3f c6be 4962 2ebf 4db8 b6be
00000130: 6fb9 53bf c083 0ebf 5706 76be 5093 69be
00000140: 0b9c 87be 4a72 08be ac05 39be 73c1 8bbe
00000150: 12c5 cebe 390d 92be 90e2 09bf 9fdd 94be
00000160: e419 48bf bba5 a5be e08a 80be a9d4 8ebe
00000170: aee1 d4be 7a9f aabe 075a bcbe cda4 0fbf
00000180: 1a7d 88be 4e11 92be 61d3 0dbf 3e42 d7be
00000190: 9fc0 a9be c1e6 08bf 3107 e1be c474 c1be
000001a0: d7ea 2cbf 4b2c b4be b514 b5be eddc f2be
000001b0: 00f8 1abf 7dc9 d5be 296d ddbe 9f4a 3cbe
000001c0: 1c4e 42be 7dc0 9fbe 04a2 0ebf ce70 01bf
000001d0: 6b40 ccbe 2613 e9be 575d efbe 9ca0 03bf
000001e0: 2cee 16bf 3c97 87be 67f5 5abe 51cc 84be
000001f0: a2b9 99be 250b ddbe 9355 63be 01e2 a8be
00000200: eb4e 20bf 3c82 14bf 780e c0be 6072 d5be
00000210: b711 1dbf 5ce7 f3be 647d 02bf 70f9 5fbe
00000220: 9380 1fbf 64dc 08bf 2bea 84be 8e78 19bf
-0.49317613 -0.17857736 -0.27998933 -0.4072716 -0.5278511 -0.6405003 -0.5022684 -0.39200717
-0.60114306 -0.57746804 -0.5458155 -0.25863367 -0.5183789 -0.5503772 -0.37552723 -0.5508074
-0.38180172 -0.37300313 -0.80694574 -0.1709833 -0.42192602 -0.5504642 -0.5574237 -0.30502275
-0.5104576 -0.33906943 -0.33759183 -0.4040645 -0.3761236 -0.4023877 -0.25720355 -0.56360966
-0.8282325 -0.81775486 -0.47170618 -0.28948593 -0.3946361 -0.42883074 -0.6742182 -0.17147577
-0.7055934 -0.3298871 -0.41890112 -0.2555468 -0.19814695 -0.514153 -0.3963231 -0.43796694
-0.65904397 -0.48947364 -0.23907995 -0.28693202 -0.32389557 -0.2701895 -0.40184268 -0.50770175
-0.29558632 -0.45796037 -0.077004574 -0.58896303 -0.28115562 -0.47850356 -0.3427971 -0.53163177
-0.25443995 -0.42581967 -0.86984307 -0.3712172 -0.3760624 -0.30911377 -0.4388569 -0.37057784
-0.4919611 -0.38720116 -0.6811872 -0.35687485 -0.82704824 -0.55669785 -0.24025856 -0.22810102
-0.2648624 -0.13324848 -0.1806857 -0.27296028 -0.40384728 -0.28525713 -0.5386133 -0.29075333
-0.78164506 -0.32353005 -0.25105953 -0.27896622 -0.4157843 -0.33324796 -0.36787435 -0.5611084
-0.26657945 -0.28528827 -0.55400664 -0.42042726 -0.3315477 -0.534771 -0.439508 -0.37784398
-0.6754584 -0.35190043 -0.3536736 -0.47434178 -0.6053467 -0.41755286 -0.43247345 -0.1838784
-0.18975109 -0.31201544 -0.55715966 -0.5056275 -0.39892897 -0.45522422 -0.467509 -0.51416945
-0.5895717 -0.2648257 -0.21382676 -0.2593713 -0.3002444 -0.43172565 -0.22200613 -0.32984927
-0.6262042 -0.5801122 -0.3751104 -0.41688824 -0.61355156 -0.4763745 -0.5097258 -0.21872497
-0.62305564 -0.5346129 -0.25959906 -0.59949577

classifier.1.running_mean f4 [140]
00000000: 8877 40be 46db 99bd 166c 2a3d 7726 2b3f
00000010: fcdc 393f 72d9 a4bf c956 b73f 908b 5ebf
00000020: 1793 58bf 0b62 9cbf 0406 4cbf 67c9 14bd
00000030: 8629 91be 9e98 9a3d 287d 543f 0afa f03e
00000040: 63fa c43f 4af6 46bb 24d7 313e fe69 55be
00000050: 9709 35bf 3e5f 9bbf a49b 2c3f 1402 2fbe
00000060: 32d0 d6be 1b2f 8abd 46c1 823f 1cfc 7dbc
00000070: f6b4 f4be 68f4 633f 3199 073f be0f d5bd
00000080: 6784 41bb 1cea 42bf a0da 9cbf f557 13be
00000090: f4df d43e bfcf d7bc 2cf3 13bf 59e1 b6bd
000000a0: 306e 4cbf a36d 18bf f0ed 1abd 4fd4 f13e
000000b0: bc18 7bbe d2c2 8b3e 65b7 04bf 33e5 9b3d
000000c0: fe0e dfbe 4156 87bd 9a84 66be a5ab cb3c
000000d0: e7a7 d93e 3ca1 00bf 1d46 41be e498 c53f
000000e0: 9be4 94bf 7e83 3d3e 9e34 63be 4495 e33e
000000f0: 6ecb 9ebf 617f 40bf 68ca 623f e2bd 20bf
00000100: b0c7 453e be9a c1bd aaae 733e bb43 c73c
00000110: 9281 22bf 2d70 7b3e c27b 3f3f 00d3 b5bc
00000120: 34ba e4be c271 73bf 6615 733f e9e8 1ebf
00000130: 0993 e83d bad8 bcbf 0077 36be eff3 0c3f
00000140: afdd 34be 0565 c6be 0c94 abbe 3ab8 48bf
00000150: d2de e2bd 4bb1 713d 54a0 38bf 9cc7 673e
00000160: aba7 0ebd f2c1 833c 4aba d03e b514 6bbf
00000170: 4521 ccbf 2043 523e 949f e7be 1423 8b3e
00000180: a0cb f4be 9fd6 eb3e 5b61 dfbe 1060 e73e
00000190: 16c5 59be 1dcf 133f 00bc 073f e7e7 17bc
000001a0: 1d9b 07bf c120 713f 040b 94bd 27b1 3b3f
000001b0: bb0d cb3f 94be 923f 8d55 87bf e83b 0cbe
000001c0: 9ede e5be c850 7e3e d62c e23d f14b 7ebe
000001d0: 6a81 44be eb26 2d3e ba65 4c3e 5560 6d3f
000001e0: f587 57bf 1323 b5bf 240f 87be 92ef a93d
000001f0: f68e ddbe 3587 b83e ea5d a23e 8258 4bbe
00000200: a4c9 6b3f bd85 33bd 6c50 b8bf fd7c 3dbe
00000210: a7e7 86bd 55db 20be 08c3 f43d 0fb6 663e
00000220: b3f8 adbe 9079 923c 82bb 42be ac09 923d
-0.18795598 -0.07512526 0.041606985 0.6685557 0.7260282 -1.2878859 1.432336 -0.86931705
-0.8459944 -1.221742 -0.7969668 -0.036324885 -0.28351992 0.07548641 0.83003473 0.47065765
1.5388912 -0.0030359202 0.17367226 -0.20841214 -0.7071776 -1.2138441 0.6742499 -0.17090636
-0.41955715 -0.06747266 1.0215232 -0.015502002 -0.47794312 0.8904481 0.52968127 -0.10403393
-0.002952838 -0.7613847 -1.2254219 -0.14389022 0.41577113 -0.026344178 -0.57792926 -0.089297004
-0.7985563 -0.5954229 -0.03782457 0.4723229 -0.24521154 0.27297074 -0.5184234 0.07612076
-0.43566126 -0.066082485 -0.22511521 0.02486212 0.42510912 -0.50246024 -0.18874402 1.5437284
-1.1632265 0.18507192 -0.2218804 0.44449818 -1.2405832 -0.75194365 0.885901 -0.6278974
0.19314456 -0.09453343 0.23797098 0.024324289 -0.6347896 0.2455451 0.74798214 -0.02219534
-0.44673312 -0.95095456 0.94954526 -0.6207414 0.1135617 -1.475364 -0.17818832 0.55059713
-0.1766269 -0.38748947 -0.33511388 -0.7840611 -0.11077656 0.05900697 -0.7211964 0.22634739
-0.03482787 0.016083691 0.40767127 -0.9182847 -1.5947653 0.20533419 -0.45238936 0.271752
-0.47811604 0.4606218 -0.43628964 0.45190477 -0.21266589 0.57737905 0.5302124 -0.009271598
-0.5297106 0.94190603 -0.072286636 0.7331719 1.5863565 1.146441 -1.0572983 -0.13694727
-0.44896406 0.24835503 0.11043708 -0.24833657 -0.19189993 0.16909377 0.1996068 0.92725116
-0.8419183 -1.4151329 -0.2637874 0.082976475 -0.43273133 0.36040655 0.31712276 -0.19857982
0.92104554 -0.043828715 -1.4399543 -0.1850471 -0.06587153 -0.15708669 0.11951262 0.22530387
-0.33978805 0.017880231 -0.19016841 0.07130751

classifier.1.running_var f4 [140]
00000000: a8ac 403a 5e03 fd3b 6f79 3e3b 64b5 a83b
00000010: bff5 e13a 3cc3 733b 76bf 313b 37c4 173b
00000020: 1770 853a 54c6 ad3a 1487 183a cb0e 383b
00000030: b6c0 963b eba8 a83a 9e60 6a3a 2f09 953a
00000040: b853 ee3a bdb1 643a 30ec 7a3a d99b 1b3b
00000050: a18e d33a f635 263a 67c1 d73a e482 c43b
00000060: 25ba 983b 159b 9d3b 6eb2 693b 5710 823b
00000070: 18d2 403b 7d3a af3b 137f 8f3a 2979 2a3a
00000080: 0e0e 083a 8fad 1d3a db3d 3e3b 43b6 333b
00000090: e5fa 113c 07fb a13b 61fc 3b3a 8d18 a93b
000000a0: a7ac 4a3b 85fe 053c d11a ac3a 3ea6 9c3b
000000b0: 4de2 363b ae66 063b 8b5d c93a 099b ac3b
000000c0: 6c19 3b3b a390 a53a a7a3 af3b ff41 f83b
000000d0: 0028 903a 15bf a63b ad3f 313b 1575 f43a
000000e0: 6453 8e3b 2cff 843b 6ea8 a33b 5849 013b
000000f0: 0fe8 4b3c 98d4 063b e782 953b 906b 433b
00000100: 666e 4e3a 5a0b 133b 4e4c e73a e599 2d3a
00000110: a9e8 fd3a 1806 d03b c7ba 4a3b 7963 7c3b
00000120: 7c0b b53a fc1e 213b cd56 293b d9eb 1a3b
00000130: 7e64 123b 3552 ca3a 8074 bf3b 6e1a 3a3b
00000140: f081 a73a 4645 743b 04db 963b 3008 d23a
00000150: b076 f13a b707 fa3a af1a 223b 01e4 523b
00000160: 38a8 c33a a36e 823b 451a c93a 1eaa c83a
00000170: 40c4 8e3b 25a5 d03a d53b 423b ba28 913b
00000180: e5ca 883b f485 8c3b 3a6a 263b ffb7 c53a
00000190: 643a ce3b 0b2f 2b3b 347f 253b 57cc ea3a
000001a0: 2dba 1a3a b8ea d13b 0994 093b 0ed8 163b
000001b0: e1af b13a f06b 383b f8b4 733a d7e7 913b
000001c0: 4d48 8f3b 9ba6 e23b 32fb 9c3b e3f7 313b
000001d0: 80de 613b bfe0 573b 41b7 ea3a 6841 7d3b
000001e0: 0232 ed3a 7508 9a3c f72c 083c db18 553b
000001f0: 14fd c83a fa8c 9d3a 4222 cc3a 0a89 863a
00000200: 5345 203b f561 dd3a a567 ac3b 9182 7a3b
00000210: aca6 8d3b e879 7c3a 4903 863a caae b63b
00000220: 79a1 483a 0ee2 1b3b e9fe 8a3b 7b8d 173b
0.00073499465 0.0077213487 0.002906408 0.0051485766 0.0017239376 0.0037195226 0.0027122176 0.0023157725
0.00101805 0.0013257959 0.0005818468 0.002808499 0.0046006097 0.0012867724 0.00089407887 0.0011370535
0.0018182909 0.0008723995 0.0009571938 0.0023744015 0.0016140529 0.0006340438 0.0016460837 0.0059970487
0.004660862 0.004809747 0.003565933 0.003969233 0.00294221 0.0053475485 0.0010947905 0.00065030396
0.00051900826 0.0006014937 0.0029028568 0.002742187 0.008909916 0.004943255 0.0007171091 0.0051603974
0.0030925663 0.008178358 0.001313055 0.00478056 0.0027905882 0.002050798 0.0015362961 0.005267505
0.0028549088 0.0012631606 0.005360085 0.0075762267 0.0010998249 0.0050886967 0.002704601 0.0018650616
0.004343437 0.004058739 0.0049944436 0.0019727554 0.012445464 0.0020573493 0.004562724 0.002981875
0.0007874727 0.0022437186 0.0017646642 0.00066223583 0.0019371706 0.0063483827 0.0030934082 0.0038511439
0.0013812627 0.0024585119 0.002583909 0.0023639111 0.002233773 0.0015435877 0.0058427453 0.00283971
0.0012779813 0.0037272735 0.0046037454 0.0016024169 0.0018422212 0.0019075786 0.0024735143 0.0032179358
0.0014927452 0.003980474 0.0015342912 0.0015309488 0.004356891 0.0015918358 0.0029637713 0.004429904
0.0041745775 0.0042884294 0.0025392906 0.0015084742 0.006293582 0.002612057 0.002525282 0.0017913681
0.0005902376 0.0064061545 0.0020992777 0.0023016962 0.0013556444 0.0028140508 0.0009296681 0.0044526863
0.0043726326 0.0069168336 0.004790687 0.0027155809 0.0034464896 0.0032940356 0.0017907397 0.0038643721
0.0018096569 0.01880286 0.008311502 0.0032516036 0.0015334212 0.0012020164 0.0015574174 0.001026423
0.0024455383 0.0016890155 0.005261379 0.0038224796 0.0043228474 0.00096312026 0.0010224368 0.0055750357
0.0007653456 0.0023785862 0.0042418134 0.00231251

classifier.4.weight f4 [180, 140]
00000000: e864 05bc 882a 073d d818 e8be 3ae0 8dbd
00000010: 833a 82bc 394f 48be 871e bc3b dd59 17bf
00000020: ab99 a73d 6972 f9be 8841 a6bd 75ae 823d
00000030: 9678 35be 150d 293d b301 86bd dbb3 d33d
00000040: 12ff 853d 45e2 0dbd 4351 77be 903c e03c
00000050: cb1b cdbc 696d 753e 8155 5abd eabd cd3d
00000060: c554 94bc 4415 98be e00f 51be 89a4 59bb
00000070: 7f9a 2dbd f8c1 973e 1776 463d c3df 4cbb
00000080: 5e74 de3d 503b 4c3e 224d 91be 307e a5be
00000090: 3734 db3b 963a 3dbd 8bbf 6cbe c5fc cabb
000000a0: 1f2e e2bd 30e6 a73c 233f b73c d7b5 48bf
000000b0: a80f 66bd 026c 9a3d ca3f 1abe 6af0 263c
000000c0: 44ed 1fbe f60a 7abd 52ac 01bf e644 d5be
000000d0: 8177 8abe 16df d73c 9711 da3d cf60 1dbe
000000e0: 3550 64be 3897 f1ba 487d abbc 4909 5fbe
000000f0: 8cb2 c13a e5cf 8a3d 7fe1 3f3d 6f30 f2be
00000100: f15a 58bf 148d 09be 93c6 00bc 32ab 193e
00000110: eb43 01bd 94d1 a3be 040f ec3d 9fe3 71bd
00000120: 39c8 cebb 10ca f2bc ee1b c63c ca4a 483d
00000130: 097c 29be 75b2 7b3d 2a05 9abd 3715 be3c
00000140: 8bc1 d1bc 66d3 05be f250 a2be f120 81bd
00000150: d425 283d b565 79bd eaa5 91ba fe17 12be
00000160: bc9e 38bf 264b 80be 1186 fb3a a4f1 dbbd
00000170: d947 0abe 0b01 543e 7d97 5dbb 12ac 093d
00000180: c87d 693d 24ba 223e d02a c9bd 9cc1 ba3c
00000190: ad60 94bc cf40 8ebd 54d2 10bd 1ae6 cb3d
000001a0: f760 863e cfab 843b 40e6 af3d 6be1 9e3e
000001b0: 519d 7b3d 2e51 d5be f72e a43c 4e01 293d
000001c0: 3804 a7bd 3325 2dbf 1c7c 9c3d c506 9dbd
000001d0: d5c2 0dbd 8d34 513d adcf 2bbe 162c 83be
000001e0: 6722 fb3d 0549 bf3d cab2 6e3c 746b 3bbd
000001f0: 8937 82bd 73f7 06bd f7d9 bebd 8e3e 0ebe
00000200: abfd 513e 83e2 70bc 73cc c1bd f234 a83c
00000210: d466 7b3d 414f d6b9 e2b9 0d3e 8eb8 063d
00000220: 62aa 103d 23c0 343d df38 b0bd bee7 5bbe
00000230: 2e37 f03d 1671 a53d 2a3c 8e3c c761 fc3d
00000240: 38ba 713c 98b5 3f3c d831 753c 2c32 883b
00000250: 27c5 0fbf 9a9a 613d 4081 933d 3b43 df3c
00000260: 2109 f9bc 64d5 7abe 9bec 143d 218c a63d
00000270: abf8 ce3d da63 aebd fd06 14be 7556 d8bd
00000280: 0f1a 52bb f7a0 55bf 064b 3b3e 90ef 6c3d
00000290: cf5c 3b3d 4740 03bd 2dfb c3ba 6abe 0bbb
000002a0: ba2a dcbd 642f eb3d bf05 3d3c 10b4 febe
000002b0: 4e8b f3be 779a 2ebf 9d41 093d 0c5e 4d3d
000002c0: 53ba f5bd 8be5 bc3d bb6a b33d 82cc c4bd
000002d0: 1cae 153d d641 adbe 56ea 1b3e 314b 443d
000002e0: 43fc 3dbe 5dbd 203e ff92 973e 6359 4ebc
000002f0: c1ed 30be 4ca5 cfbd 9f92 e93c 589e 433d
00000300: 8346 843e 0faa b03d 52ef 573d 7d8e 5d3e
00000310: 3bbd 5c3e e65c 703d fef7 ac3d 77ef cdbd
00000320: 7c2b 563c ee49 2e3a c915 aabd b7af ff3d
00000330: f2c5 5a3c 9062 40bd 0290 223d 5f6b 57bd
00000340: fc76 5bbe 7d70 6dbd 5eeb 31be 49d1 0dbf
00000350: 1725 5fbf 44ad 6fbe d3be e83d b5d0 80bd
00000360: 73c8 963e 9784 d83c 2209 5ebd 33ae 29be
00000370: e931 02bd cd98 243c 7a53 073d 0775 b7be
00000380: 6db8 9dbe e464 eb3d 1184 34bd 75a2 bdbe
00000390: 1a0a 9c3e 68e6 87be ab57 2a3d 96e6 053c
000003a0: a50d 1f3d 7d0c 3a3d 067e 5e3d 7dd3 9e3e
000003b0: acef 19be 8d13 ae3d 3b7d a13d 023c 4e3e
000003c0: b363 79bd 7ce3 87be 7ffe 94bd 7dad 3a3d
000003d0: 5a3f e3bd 0ae1 80bd 94fa fcbc fa99 16bd
000003e0: 9612 bb3c 0cec b8bc 0e3a 4f3d 63ad 8c3d
000003f0: 7daf 49bc c1af 38bc 7c8e b6bb 05c0 443d
-0.008141734 0.032999545 -0.45331454 -0.069275334 -0.015897041 -0.19561471 0.005740944 -0.59121495
0.08183607 -0.487201 -0.08117968 0.06380931 -0.17721781 0.04127224 -0.06543293 0.10337039
0.065427914 -0.034639616 -0.24152093 0.027372628 -0.025037667 0.23967518 -0.0533042 0.10045989
-0.018106828 -0.29703724 -0.20416212 -0.0033209643 -0.042383667 0.29640174 0.048452463 -0.0031261302
0.10862039 0.19944501 -0.2837916 -0.32322836 0.006689574 -0.04619845 -0.23119943 -0.0061946833
-0.11043953 0.020495504 0.022368973 -0.78402466 -0.056167275 0.07540132 -0.15063396 0.010189155
-0.15617853 -0.06104561 -0.50653565 -0.41654128 -0.270443 0.026351493 0.10647886 -0.15368961
-0.22296222 -0.0018431908 -0.020933762 -0.21780886 0.0014777943 0.06777934 0.04684591 -0.47302577
-0.84513766 -0.13432723 -0.007859844 0.15006712 -0.031558912 -0.31995833 0.115263015 -0.059054967
-0.0063104895 -0.029637367 0.02418324 0.04889945 -0.16551222 0.061449487 -0.07520516 0.023203475
-0.025604984 -0.13068923 -0.3170238 -0.06305111 0.0410517 -0.06088801 -0.0011112068 -0.14266965
-0.7211721 -0.25057334 0.0019189735 -0.10739449 -0.1350397 0.20703523 -0.0033812218 0.033611365
0.05700472 0.1589132 -0.09822619 0.022797398 -0.018112505 -0.06945955 -0.035356835 0.09955998
0.26245853 0.0040488015 0.085888386 0.31031355 0.061429325 -0.41663498 0.020041926 0.04126101
-0.081551015 -0.67634887 0.076408595 -0.07667307 -0.034609634 0.051075507 -0.16778441 -0.25619572
0.12262421 0.09340099 0.014568994 -0.045756772 -0.06358249 -0.03295083 -0.09318917 -0.1389105
0.20506923 -0.014702442 -0.09462824 0.020533059 0.06137736 -0.0004087631 0.1384044 0.03289085
0.03531874 0.04412855 -0.08604597 -0.21475121 0.11729275 0.0807821 0.017362673 0.12323337
0.014753871 0.01170101 0.014965497 0.0041563716 -0.56160206 0.05507908 0.07202387 0.027253738
-0.03039986 -0.24495465 0.036358457 0.08132196 0.101060234 -0.08515139 -0.14455791 -0.10563365
-0.003205899 -0.8344874 0.18290338 0.057845652 0.045742806 -0.03204372 -0.0014952176 -0.0021323212
-0.10750337 0.114836484 0.0115370145 -0.49746752 -0.4756722 -0.68204445 0.03350984 0.05013852
-0.11998429 0.09223469 0.087605916 -0.09609319 0.036542997 -0.3383929 0.15226111 0.04792327
-0.18553261 0.15697236 0.29604337 -0.012594554 -0.17278196 -0.1013895 0.028512297 0.04775843
0.25835046 0.08626186 0.052718468 0.21636386 0.2155656 0.058682345 0.08445738 -0.1005544
0.013071891 0.00066485896 -0.083049364 0.12484687 0.013352858 -0.046968997 0.039688118 -0.05259263
-0.21432108 -0.057968605 -0.17374942 -0.5539747 -0.8716597 -0.2340594 0.11364522 -0.06289808
0.29449806 0.026430411 -0.05420793 -0.16570358 -0.03178588 0.010046196 0.033038594 -0.35831472
-0.30804768 0.11493853 -0.04407126 -0.37038007 0.30476457 -0.26542974 0.041587513 0.008172652
0.03883137 0.045422066 0.054319404 0.31020728 -0.15032834 0.08499823 0.07885214 0.20140079
-0.060886096 -0.26540744 -0.07275104 0.045575608 -0.11096068 -0.06292923 -0.030881204 -0.036767937
0.02283601 -0.022573493 0.050592475 0.068690084 -0.012309906 -0.011272372 -0.0055711847 0.048034687

classifier.4.bias f4 [180]
00000000: fb15 e33b 26e9 54be cc68 703d 0aa8 ee3d
00000010: 3872 aebd 96fe 083e 48d9 f1bc fb08 143e
00000020: 8029 003e d4fd 90bc 0fad 203d 5b7d 39be
00000030: b8b0 b4bd bac3 213d f893 dd3b a92c 16be
00000040: 6e44 8abd 361a 62bd 94f8 ffbc 9b0e 73bd
00000050: 25c1 9bbc 14bb 90bd c3c8 863d bc2a 3cbd
00000060: 46fb bfbd 0ecd 573d d68e 8b3d 2c12 53bd
00000070: eef3 183d 03ac 3e3d a605 e83d d28a a43c
00000080: 9c9c 4abc c5da 6dbd 5515 55bd 234e b0bd
00000090: 499b 23bd d352 e53c f9cc 293e 99a6 f0bd
000000a0: bb5c fdbb b8aa 863d 50cc 0ebb 157f c6bd
000000b0: e2ae 43bd ec8d 22bd 0bc3 81bc 7fc8 11bd
000000c0: a77d 3c3d b7fd 80bc c550 a83d e7e7 4b3d
000000d0: b72a dd3b 8856 fcbc 1174 75bc 07ba 1d3d
000000e0: e419 cfbc cc05 68bc 7221 093d c4e3 fe3b
000000f0: dfb5 203d 39fc 533d 5e45 15bd 19db 34bd
00000100: d3ca c33d a033 463d 38d3 21bd f7a2 4e3d
00000110: 3ed1 243d a47d 16be 1b98 073d 42f9 8b3d
00000120: 843b 85bd f693 7d3c cf9a df3d 5bcd 623d
00000130: bbbe c63d a865 f73d fd7c 1fbe fb2a 77bd
00000140: 0fbc a43d c085 1abb be2f aebc 011a b8bd
00000150: 0e37 a2bd 48d7 183a 18d5 acbc 0262 08be
00000160: f10c 1ebc 5bdf 113d 12b0 123d 5393 193d
00000170: 6563 27bd 2a3a 07bd bb3e af3d 13c8 ffbd
00000180: dc3b 033e 37e5 843d 3f6c 8bbd 20a8 7f3c
00000190: 69dd d03c ef8e 213e 908d 1ebd 4e54 24bb
000001a0: 3155 a03d f8d1 cb3d 51c7 303c eb2a bdbb
000001b0: 1bc8 a5bd 8015 093d ff9a 253d 2904 51bd
000001c0: e876 a5bd dd9a 11be 0435 aebd b1b0 f33c
000001d0: d111 c23d 7a25 143d 4a1f 283e 2498 0dbe
000001e0: 1ff2 14bd 8317 523d 5bf8 b03c a3fb d53c
000001f0: 8fce ee3b 45c9 da3c 78ea f83c 11ca e6bd
00000200: c5a9 113e 5e92 25bc 6ca1 44bd 86c5 473c
00000210: 214a 643d 34d3 9b3d fb37 0bbc 43e0 b2bd
00000220: dde8 d03b c07a c2bd d734 b4bd 3255 ab3d
00000230: a6a8 f93c 5987 053d ccfe f2bd c8b7 21bd
00000240: 0ed1 aebc b6ff 1cbd 3326 a4bd b919 a7bc
00000250: f8fe 3ebd 15e8 443c 09f0 9fbd 3fb5 d7bc
00000260: e947 c93a b3c2 993c b54d c03b c8aa d53c
00000270: 2809 c1bc a0c9 03be 931a 98bd 65f9 613e
00000280: 9ed2 e13b 5fd0 72bd 591a 0abe afa5 a83c
00000290: 08a6 913c b13f 27bd cf8b 85bd 3681 aebd
000002a0: c49f 94bd 8fc8 b5bc 3c5e 99ba dd4e 903d
000002b0: eb12 b5bd dc70 c33d c1f2 21bd 0204 85be
000002c0: 6fdc 03bd a8ea 95bd 7cac 803b a989 97bd
0.0069301105 -0.20792064 0.058693692 0.11653145 -0.08517879 0.13378367 -0.029522553 0.14456551
0.12515831 -0.01769916 0.03922754 -0.18114226 -0.08822769 0.0394933 0.006762024 -0.14665474
-0.06751333 -0.055200778 -0.031246461 -0.0593401 -0.019012997 -0.07066932 0.06581261 -0.045939192
-0.093740985 0.05268579 0.06814353 -0.051531002 0.037342004 0.046550762 0.11329202 0.020085726
-0.01236644 -0.058069963 -0.052022297 -0.086086534 -0.039943013 0.027993595 0.16582097 -0.11750526
-0.0077320016 0.06575531 -0.002178926 -0.09692208 -0.047774203 -0.03968613 -0.015840074 -0.0355916
0.04601827 -0.01574598 0.082185306 0.049781706 0.006749477 -0.03080298 -0.014981286 0.038507488
-0.0252809 -0.014161538 0.03347916 0.0077786166 0.039235946 0.05175421 -0.036443107 -0.04415426
0.0956017 0.048389077 -0.039508075 0.050448384 0.04023861 -0.14696366 0.033104043 0.068346515
-0.06505492 0.015477171 0.10918199 0.055371623 0.09704348 0.12079936 -0.15575023 -0.060343724
0.08043682 -0.0023578256 -0.021263 -0.08989335 -0.07920657 0.0005830419 -0.021097705 -0.13318637
-0.00964664 0.0356134 0.035812445 0.037494015 -0.040866274 -0.033014454 0.08556887 -0.12489333
0.12815803 0.06489032 -0.06807756 0.015604049 0.025496202 0.15777181 -0.038709223 -0.0025074664
0.07828749 0.09952158 0.010789708 -0.0057729385 -0.08094808 0.03346777 0.04043102 -0.051029358
-0.0807932 -0.14219232 -0.08506206 0.029747339 0.094760545 0.036168553 0.16418186 -0.13827568
-0.036363717 0.051291954 0.0216028 0.026120966 0.0072878073 0.0267073 0.03038524 -0.1126901
0.14224918 -0.010105697 -0.048005506 0.012193089 0.055734757 0.07608643 -0.0084972335 -0.08734181
0.0063754157 -0.09496069 -0.08799141 0.08365859 0.030475926 0.03259978 -0.11865005 -0.039481908
-0.02133992 -0.038329802 -0.080150984 -0.020398008 -0.046629876 0.012018223 -0.07809455 -0.026331542
0.0015356514 0.018769598 0.0058686384 0.026082411 -0.023563936 -0.12869883 -0.07426944 0.22067793
0.0068915626 -0.05928075 -0.13486613 0.020586817 0.017779365 -0.040832225 -0.06520807 -0.08520739
-0.072570354 -0.02219036 -0.0011701058 0.07046292 -0.08841499 0.095430106 -0.03953815 -0.2597962
-0.032192644 -0.07320148 0.0039268117 -0.073993035

classifier.5.weight f4 [180]
00000000: ef1f 4b3f c938 543f ecf4 6a3f 4879 333f
00000010: a53d 873f 2a13 7c3f 2765 5a3f d189 7e3f
00000020: 3bb7 833f 691e 753f d635 6a3f 67a6 883f
00000030: 20bb 4e3f ff1b 623f 4a93 753f e644 853f
00000040: 7443 653f 45cf 573f b1c2 3b3f b3a8 593f
00000050: af2c 783f 04cb 833f 690d 673f ae5d 463f
00000060: e22a 6f3f 3c45 533f 21f0 303f 20d9 8e3f
00000070: c46d 853f a78f 703f dd3e 473f ba54 513f
00000080: eff1 263f 100b 4a3f 0e93 473f f343 643f
00000090: 794c 5a3f ccd2 463f 68bc 643f 0a52 6a3f
000000a0: 74df 643f 31d3 743f a7b8 983f 5bfb 6c3f
000000b0: 8c10 2d3f 6445 513f bf7b 913f 5281 1a3f
000000c0: 7b21 393f 4125 253f ca96 493f c10e 3c3f
000000d0: fee4 393f deaf 673f 5629 643f 531c 3f3f
000000e0: a5cc 8d3f be10 643f ef20 6f3f 447b 323f
000000f0: e6da 653f 05fa 7e3f ab2e 873f c5e5 883f
00000100: 8262 833f 9847 1f3f d205 353f 82ca 703f
00000110: 9a8c 483f 91e2 893f a506 843f d144 483f
00000120: a41b 493f 12f0 353f a1e6 3e3f 5096 3f3f
00000130: dc41 443f 1856 693f a51f 5d3f 0dd4 7a3f
00000140: d2aa 893f 5857 4c3f 634c 703f b4b1 703f
00000150: 3fc6 813f 1ac7 533f 3e2f 233f 885b 613f
00000160: c72d 593f e6d6 653f a1c2 513f 917d 473f
00000170: 3bf7 503f 0ff8 243f 2bfc 433f e6f9 533f
00000180: f8d2 623f e30b 723f de5a 973f 323a 193f
00000190: e0da 323f dd64 7b3f 40b7 203f 39c6 4a3f
000001a0: f8c5 7e3f a8f2 0d3f 002a 7d3f c50c 753f
000001b0: b9ec 803f a071 1e3f 828f 603f 6ba4 413f
000001c0: 003c 503f 6111 393f 18dc 853f 8b9a 8e3f
000001d0: 92b2 3b3f 52f0 3b3f 512a 683f 596b 633f
000001e0: 96e0 3b3f 905e 8a3f 29a2 393f 6679 653f
000001f0: 44fd 483f 9ccb 5d3f 47a6 563f bfe5 2c3f
00000200: 21d0 953f 9657 313f 0115 0e3f 0853 4f3f
00000210: d4a5 4e3f d6e7 6c3f 4723 2e3f 43af 8a3f
00000220: 88d5 623f a99d 4b3f 2ca6 6b3f 8f70 4f3f
00000230: 9f24 8d3f e62a 8e3f 7167 693f f5b8 2c3f
00000240: a55c 323f 2a03 413f 035a 543f de71 803f
00000250: a2b0 793f 8b05 853f 78bd 783f 9324 743f
00000260: bdc3 683f c3e2 823f a33b 593f 4115 473f
00000270: d716 6f3f 0ada 273f e00a 303f f28b 453f
00000280: 52ac 613f 541e 773f 88f8 983f 7823 5f3f
00000290: f286 6c3f d84c 6c3f 34fe 523f 6c5f 273f
000002a0: e288 4d3f 758c 663f 6be4 863f f366 653f
000002b0: 3c01 213f 0822 693f f8da 4d3f 3330 933f
000002c0: 4cf1 433f e1ce 503f 4662 423f f2f7 483f
0.793456 0.8289915 0.9177997 0.70106936 1.0565687 0.9846674 0.85310596 0.9942904
1.0290293 0.9574953 0.914884 1.0675782 0.8075428 0.8832397 0.9592787 1.0411651
0.8955605 0.84300643 0.7334395 0.8502304 0.9694318 1.029633 0.9025484 0.77486694
0.9342481 0.8252752 0.6911641 1.1160011 1.0424123 0.93969196 0.77830297 0.8176991
0.6521291 0.7892313 0.7795876 0.8916618 0.8527294 0.776654 0.89349985 0.9153143
0.8940346 0.9563475 1.1931351 0.9257104 0.67603374 0.81746507 1.1365889 0.6035358
0.7231671 0.6450997 0.7874571 0.7346001 0.7261504 0.9050273 0.89125574 0.74652594
1.1078078 0.89088047 0.9340963 0.6971934 0.8978714 0.9960025 1.0561117 1.069512
1.0264437 0.6221862 0.70712006 0.94059 0.7833954 1.0772268 1.0314528 0.78230006
0.785578 0.71069443 0.7457066 0.74838734 0.76662993 0.91146994 0.8637641 0.97979814
1.0755255 0.79820776 0.93866557 0.94021153 1.0138625 0.8272568 0.6374396 0.8803029
0.84835476 0.89781034 0.81937605 0.77925974 0.81627244 0.6444101 0.7655665 0.8280319
0.8860316 0.9454939 1.1824605 0.59854424 0.69865227 0.9820078 0.6277962 0.79208714
0.99520826 0.5544839 0.9889221 0.9572261 1.0072242 0.6189213 0.87718976 0.75641507
0.8134155 0.72292143 1.0457792 1.1140913 0.7331935 0.73413575 0.9068957 0.88835675
0.73389566 1.0810108 0.7251306 0.89638364 0.7851145 0.8663881 0.8384747 0.67538065
1.1704141 0.6927427 0.555008 0.8098607 0.80721784 0.92541254 0.6802258 1.0834736
0.8860707 0.79537445 0.92050433 0.81031126 1.1026801 1.1106842 0.91173464 0.6746972
0.69672614 0.7539545 0.82949847 1.003475 0.97535145 1.0392317 0.97164106 0.9536831
0.9092367 1.0225452 0.84856623 0.77766806 0.93394226 0.65567076 0.68766594 0.77166665
0.88153565 0.9653065 1.1950846 0.87163496 0.9239341 0.92304754 0.82419133 0.6537998
0.8028699 0.9005807 1.0538458 0.89610213 0.6289251 0.9106755 0.80412245 1.1499084
0.76540065 0.8156567 0.75931203 0.78503335

classifier.5.bias f4 [180]
00000000: 5613 cdbe 1240 bbbe 6634 bebe bcc8 2cbe
00000010: 05ba 00bf f52c 93be 08ca 0abf 42d0 b9be
00000020: 762e 37bf adcf d8be 7881 cdbe 6e71 b0be
00000030: b46e a5be 9678 b3be cb6f a6be 19ab 00bf
00000040: c9eb 96bd a99c d4be a137 9abe 495b e8be
00000050: 9279 83be 7555 0abf a8af 17bf 7aed 54be
00000060: 7ce6 0dbf 98b2 d5be a0c0 23be 66c4 a2be
00000070: 9a39 c7be 5ca3 fcbe cabf 88be c4dd a2be
00000080: 469d bfbe 6d9f b6be 4372 dabe f496 6ebe
00000090: 10de 0abf 7e9f 82be 63c0 1abf 5099 2cbf
000000a0: db8a b0be eb0d 10bf d34b 56bf 66c1 78be
000000b0: d551 a3be df50 c5be 83dc 81be eef3 d5be
000000c0: 34de dfbe c361 30be bc79 d0be 49c4 74be
000000d0: 56e7 8dbe e982 2ebe c42f 65be aef0 adbe
000000e0: 8e3e 0fbf 9910 86be 909a 06bf 4f96 00bf
000000f0: bef0 5cbe de46 e9be a991 a2be 438c 8ebe
00000100: d17b 53be be41 ffbe ec90 efbe 7025 73be
00000110: 6a24 bebe e3de e2be 02b0 97be a3a7 92be
00000120: 6d1b 21bf 9f97 acbe 3af9 05bf 158d bcbe
00000130: cc9d 09bf 9873 e7be c8a0 09bf b618 d3be
00000140: 86bc 24bf af3d 17bf 2b72 85be 6e0c 0dbf
00000150: 4e58 12bf 0623 bcbe f5d7 dabe ae26 afbe
00000160: ace9 05bf cb98 90be 7857 b8be d3da adbe
00000170: a677 00bf d196 0bbe 32f5 71be a000 98be
00000180: 9d6f b5be 4e9c d9be dedf 2dbf 49ff debe
00000190: a5c9 c8be fe35 bcbe 75bf 7fbe 0170 c1be
000001a0: c544 aabe 5582 153c 8e6a 12bf f8f0 b1be
000001b0: 6e5c bdbe 79ed 0dbf f08d 5ebe 87fc d6be
000001c0: 61c6 5ebe 5520 b8be 4a1e 1ebf ec8c 0dbf
000001d0: 660b 20bf a7c8 f7be 0573 bfbe 3119 a8be
000001e0: 28e7 f1be 3748 30bf cc7b 8ebe 7d6b bcbe
000001f0: 5c7d 11be 2e10 2ebf 947a afbe b940 94be
00000200: a8b1 d2be 37c6 fcbd 0706 20bb 36a7 9dbe
00000210: 8f43 c9be d185 0dbf f70e 91bd 9726 23bf
00000220: 9558 8ebe b27c 99be 70db 22bf 917d a1be
00000230: 084a 40bf 2aca 4ebf e679 babe 8fda 0ebf
00000240: fb59 62be 686c dabe fa02 68be 2888 d8be
00000250: bbc6 8bbe 9a50 87be 923f 2ebe c589 92be
00000260: 4867 e9be 24f4 6abe d788 97be 5ada ffbe
00000270: d4c7 89be b583 15bf d0fb 5fbe 9dce e7be
00000280: c8eb 43bf 6c99 d9be 88ef d1be 4398 d6be
00000290: d830 a1be 37e2 87be 0daa 8dbe 07de 5bbe
000002a0: 97eb 00bf 8b61 a0be d575 95be 2824 a4be
000002b0: 6df1 70be 5eea afbe 7bc0 c8be 2e43 03bf
000002c0: 6d94 18bf ea95 16bf e33a 1abf a2a7 05bf
-0.40053815 -0.3657232 -0.37149352 -0.16873449 -0.50283843 -0.28745237 -0.54214525 -0.362917
-0.7155527 -0.42345944 -0.4013784 -0.3446154 -0.32311022 -0.35052937 -0.32507166 -0.50261074
-0.07369191 -0.41525772 -0.30120566 -0.45382145 -0.25678688 -0.5403665 -0.59252405 -0.20793715
-0.55429816 -0.4173782 -0.1599145 -0.31790465 -0.38911134 -0.49343383 -0.26708823 -0.3180982
-0.37424678 -0.35668507 -0.426653 -0.23299772 -0.5424509 -0.25512308 -0.6044981 -0.67421436
-0.34480938 -0.5627124 -0.8370945 -0.24292526 -0.3189837 -0.38538262 -0.2536355 -0.41787666
-0.43724215 -0.17224793 -0.40717876 -0.23903002 -0.27715558 -0.17042126 -0.22381502 -0.33972687
-0.55954826 -0.26184538 -0.52579594 -0.5022935 -0.21576211 -0.4556188 -0.31751755 -0.27841386
-0.20652701 -0.49854845 -0.46790254 -0.2374475 -0.37137157 -0.44310674 -0.2962647 -0.28643522
-0.62932473 -0.33709428 -0.52333415 -0.36826387 -0.53756404 -0.4520538 -0.5376096 -0.4122979
-0.64350164 -0.59078497 -0.26063666 -0.5509709 -0.5716599 -0.3674547 -0.42742887 -0.34209198
-0.5230968 -0.28241572 -0.36004233 -0.33956012 -0.5018257 -0.1363175 -0.23628691 -0.29687977
-0.35436717 -0.42502064 -0.6791972 -0.43554142 -0.39216343 -0.36759943 -0.24975379 -0.37780765
-0.33255592 0.009125312 -0.5719384 -0.34754157 -0.3698458 -0.5544048 -0.21733832 -0.41989538
-0.21755363 -0.35962167 -0.6176497 -0.55293155 -0.6251739 -0.48395273 -0.3739244 -0.3283172
-0.4724667 -0.6886019 -0.27828825 -0.36800757 -0.14207977 -0.6799344 -0.34273207 -0.2895563
-0.41151166 -0.12342494 -0.0024417655 -0.30791634 -0.39309356 -0.5528231 -0.070829324 -0.6373076
-0.27801958 -0.29977947 -0.63616085 -0.31541112 -0.7511296 -0.8077723 -0.36421126 -0.55802244
-0.22104637 -0.42660832 -0.22657385 -0.4229138 -0.27300057 -0.26428682 -0.17016438 -0.28620735
-0.4558661 -0.22944695 -0.29596588 -0.49971277 -0.2691027 -0.58404094 -0.21873403 -0.4527482
-0.7653165 -0.42499864 -0.4100306 -0.4191304 -0.31482577 -0.26539776 -0.276688 -0.21471415
-0.5035948 -0.3132442 -0.2919146 -0.32058835 -0.23529597 -0.34358495 -0.3920935 -0.51274383
-0.5960148 -0.588225 -0.60246104 -0.5220891

classifier.5.running_mean f4 [180]
00000000: 740b a9bf 90d9 24bf 3005 e7be 67fb e1bd
00000010: a24c 97bf 32c3 69bd ac19 acbf 1487 bcbe
00000020: b07e 85bf ae7c 98bf 8f9a 4dbf 1f2a 37bf
00000030: 1134 43bf 3018 c8be 15d6 98bf eff4 40bf
00000040: 73c9 80bf 0e21 54bf 692b 3bbf e1a8 67bf
00000050: 4e7f 94bf 3a65 95bf 2c8d 87bf a2b1 6fbf
00000060: fb55 59bf 1ed5 1ebf d008 583e 7abc 82bf
00000070: 2f66 7cbf d672 adbf 65cf 40bc 1ab3 26be
00000080: e91d 26bd a46a 81bf b7d2 89bf d0f8 b1bf
00000090: 304b 76bf 6030 47bf a89e 69bf e1c3 80bf
000000a0: 8f37 28bf 800f 21bf 347a a3bf c05c 87bf
000000b0: c6f6 25bf e1b9 3cbf fb09 13bf dc8a 92bf
000000c0: 38c4 1ebf 559f 7cbe 376c 31bf c55d 06be
000000d0: fd80 efbe 97bb 69bf f80b 02bf 13e5 49bf
000000e0: 5c0c 11bd cb1c 38bf a888 7bbf 0fed 1a3f
000000f0: 32cd 45bf 8cda 24bf 7d34 2fbe af08 70bc
00000100: 3ac6 a7bf 38fa 8cbe b318 0cbf baff 54bf
00000110: 0194 5cbf 94c3 84bf 0322 4c3d cedc 86be
00000120: 71d9 1bbf 8067 6abf de86 1ebd c920 ebbe
00000130: c051 36bf f315 54bf 0adf a8bf 596f b6bf
00000140: eeeb 97bf 4d89 3fbf c48b 18bf 056d 6abf
00000150: 62ed 33be 9d36 c6be 8625 12bf 1190 36bf
00000160: d92d 8cbf 001c 12bf 4ddb 98bf ab27 8fbf
00000170: 3c73 7fbf dce6 11bf d3dd 173e 52e4 93bf
00000180: a704 debe ec91 5dbf 4fea 8cbf aa84 19bf
00000190: 690e 45bf a568 38bf af09 0dbf 221d babf
000001a0: 4eee 93be e739 c33d 1202 acbf d2cb 24bf
000001b0: dd5a bdbf 8faa 5b3e bcce 72bf 9209 88bf
000001c0: 6289 bfbf 1584 8abf 6d3f b6bf 4eaf 60bf
000001d0: 3ab1 4abf 329e 86be 743a 573d e5e9 75bf
000001e0: b2f2 d3be c43c 14bf 0dd5 04bf 4266 a4bf
000001f0: 4027 94be bc34 61bf 6278 943d f222 3ebf
00000200: 254a f5be 869f 4abf 3397 153f 114b 71bf
00000210: 1265 5bbf 7ae1 54bf 0cdb f33e a218 b5bf
00000220: c715 a9bf 2f12 0dbf f941 09be 8156 e2be
00000230: 03b2 9bbf 5738 9cbf a53b 7dbf eecb 3cbf
00000240: 269e 86bc b90c 7cbf 31b4 953c fbc5 34bf
00000250: c092 93bf 7f64 83bf ebcb 45be 1e6d 3fbf
00000260: 7fba edbe 85bb c0be dee6 77bf e018 9cbf
00000270: 3c68 5dbf 8add 70bf 0ba2 c7bd 03c0 1ebf
00000280: a92f 7ebf fdfa 78bf a6b7 19bf 26c6 4bbf
00000290: 09f0 c3bf 9d4e 99bf b3da 91bf 81e5 58be
000002a0: 2cf6 f9be 092b 40bf edb6 8abe b75b a4bf
000002b0: 130c 04bf 7e04 3ebf 99e5 41be 9824 afbf
000002c0: 9087 73bf bbac 90bf 6ae7 40bf 6b7c 79bf
-1.320662 -0.64394474 -0.45121145 -0.11034279 -1.1820261 -0.05707092 -1.3445334 -0.36821806
-1.0429287 -1.1913049 -0.8031396 -0.71548647 -0.7625132 -0.39080954 -1.1940333 -0.7537374
-1.0061477 -0.8286294 -0.73113114 -0.90492064 -1.160135 -1.1671517 -1.0589957 -0.9363042
-0.8489682 -0.6204394 0.21097112 -1.0213768 -0.9859342 -1.355067 -0.011768197 -0.1627926
-0.04055587 -1.0110669 -1.076743 -1.3904057 -0.9620848 -0.7780819 -0.91257715 -1.0059777
-0.65709776 -0.62914276 -1.2771668 -1.057518 -0.6482967 -0.7372113 -0.57437104 -1.1448627
-0.62018156 -0.24670155 -0.6930575 -0.13121708 -0.46778098 -0.91301864 -0.5079951 -0.78865165
-0.035412177 -0.71918935 -0.98255396 0.6051797 -0.7726623 -0.64395976 -0.17109866 -0.014650508
-1.3107369 -0.27534652 -0.5472519 -0.8320271 -0.86163336 -1.0372186 0.049837124 -0.26340336
-0.60878664 -0.9156418 -0.038702838 -0.4592345 -0.7121849 -0.8284599 -1.3193066 -1.4252731
-1.1868875 -0.7481888 -0.59588265 -0.915726 -0.17571023 -0.38713542 -0.57088506 -0.7131358
-1.0951492 -0.57073975 -1.1941925 -1.1183981 -0.9978521 -0.5699289 0.14830713 -1.1554053
-0.43362924 -0.86550784 -1.1009005 -0.59968054 -0.76975113 -0.72034675 -0.550929 -1.4540141
-0.2889275 0.09532528 -1.3438132 -0.64373505 -1.4793354 0.21451782 -0.948467 -1.0627921
-1.4963801 -1.0821558 -1.4238106 -0.87767494 -0.79176676 -0.26292568 0.05254598 -0.9606002
-0.413961 -0.5790522 -0.5188759 -1.2843707 -0.28936195 -0.8797109 0.07249524 -0.7427207
-0.4790813 -0.79149663 0.58433837 -0.9425517 -0.85701096 -0.8315655 0.47628057 -1.4148142
-1.3209771 -0.5510587 -0.13404073 -0.44206622 -1.21637 -1.2204694 -0.98919135 -0.7374867
-0.016432833 -0.98456913 0.018274399 -0.70614594 -1.152916 -1.0265044 -0.1931607 -0.74775875
-0.46431348 -0.37643066 -0.9683665 -1.2195091 -0.86487174 -0.9408804 -0.09747704 -0.62011737
-0.99291474 -0.9725798 -0.6004585 -0.79599226 -1.5307628 -1.1977116 -1.1394867 -0.21181299
-0.48820627 -0.75065666 -0.27092686 -1.2840489 -0.51580924 -0.74225605 -0.18935241 -1.3683043
-0.95128727 -1.1302713 -0.7535311 -0.9745547
