ckpt/MAP_HF/7/best_loss_BEST5.ckpt (torch, 164896 bytes, 19 tensors)

classifier.0.weight f4 [100, 72]
000000 d3 a0 95 3c c2 07 8d bd 02 e8 4b 3c b0 7c 8d 3d
       0.018265164 -0.06886245 0.012445452 0.06908548
000010 90 e3 92 3c a4 f4 1f 3e be 5b 2f 3e 33 0c d4 3c
       0.017930776 0.15620667 0.1712484 0.025884723
000020 45 a5 5b be cf 8c 57 3d a7 89 1f 3b e8 79 bb bd
       -0.21449764 0.05262452 0.0024343522 -0.09154111
000030 5b 9a 47 be 83 ab 69 bd 20 6e 82 3d 33 bc 40 bc
       -0.19492476 -0.057048332 0.06368661 -0.01176362
000040 50 70 7d 3d ad 85 42 bb 10 94 fc 3d 5e 54 d4 3c
       0.061874688 -0.0029681728 0.12332928 0.025919136
000050 a4 2a 53 be 9f 12 70 3d ee 38 8a 3d 74 62 94 3e
       -0.20621735 0.05861151 0.0674914 0.28981364
000060 70 cf d4 3c 32 b7 67 be fc e3 97 bd ae 0a e2 bd
       0.02597782 -0.22628477 -0.074165314 -0.11037193
000070 06 93 8b 3c 40 12 0b 3e 85 d7 61 3c cf 7a 81 3d
       0.01703788 0.1358118 0.013784294 0.06322252
000080 53 c4 c2 3d 4e f4 79 bd c8 a5 ea 3c bb e1 3a 3e
       0.09510102 -0.061024003 0.028643504 0.18250172
000090 f0 34 83 3d 6e 95 23 3e 99 17 f3 3d b9 39 8b 3e
       0.064065814 0.15974972 0.11869735 0.27192476
0000a0 bd 8d 85 3d ee b8 da 3d b8 5d 3b 3d 60 ad 84 bc
       0.06521175 0.10679804 0.045743674 -0.016195953
0000b0 1d 25 b8 3c d2 60 50 bd 55 5b 5e bd 75 e4 5a 3e
       0.022478634 -0.050873585 -0.05428632 0.21376212
0000c0 b5 2f d4 bb 77 4c e3 3d 70 92 45 3d 08 32 91 bd
       -0.0064754137 0.11098569 0.048235357 -0.07089621
0000d0 ff 35 d1 3d 04 f9 ab bd 7e ea 58 3d fa 0e 43 be
       0.10215377 -0.08397105 0.052958004 -0.19048682
0000e0 bd 1d 08 be 09 96 11 be 26 da a3 be e3 00 06 be
       -0.13292594 -0.1421739 -0.32002372 -0.13086276
0000f0 b0 73 26 bd 3f 44 43 3d 10 22 82 3c 14 6d 60 3e
       -0.040637672 0.047672506 0.015885383 0.2191661
000100 e0 94 03 bc 58 e1 ab 3d ca 5e 8c 3d 08 3f f3 bd
       -0.0080311 0.0839259 0.06854017 -0.11877257
000110 48 37 3c bd 0f 63 87 be 13 3f 29 be 9a 4f bc bd
       -0.045951158 -0.26442763 -0.16527967 -0.0919487
000120 68 a2 82 bd f1 29 67 3d 7c 63 b2 3d 12 27 1c be
       -0.06378633 0.056436483 0.087103814 -0.15249279
000130 ed 95 79 3e 3e 5e 53 bc 7b 57 61 bd 63 62 53 3e
       0.24373598 -0.012900887 -0.05501507 0.20643
000140 af e3 00 be 70 bb 95 bd 82 e8 0f bd 2d b1 2a bd
       -0.12586854 -0.073111415 -0.035133846 -0.041672874
000150 69 aa 36 3e 03 79 31 3e 91 3b 44 3d 27 96 db 3e
       0.17838444 0.17331319 0.04790837 0.42887995
000160 b8 24 f1 3b 23 bc 8d 3c b7 2f 0d 3d 38 fb 9a bd
       0.0073591135 0.017301625 0.034469333 -0.075674474
000170 a9 8c 95 3e d4 08 59 3e 07 f8 a3 3d 9b ee 06 bf
       0.29208878 0.21194774 0.08006292 -0.52707833
000180 c2 0f bb bd 57 87 19 bd 54 0c cb bc cd 30 05 be
       -0.09133865 -0.037482586 -0.024786152 -0.13006897
000190 57 c3 6d 3e 00 0c 56 bc 97 f3 f1 3d ca 9a b5 be
       0.23219047 -0.013064384 0.11814039 -0.35469657
0001a0 09 db dd be b5 e4 ce bc e8 49 67 bd 2f 01 78 be
       -0.43331173 -0.02525554 -0.056466967 -0.24219202
0001b0 2a 8c 42 3d 40 8b 7d bd 62 8f b4 3d c7 49 9c be
       0.047496952 -0.061900377 0.088164106 -0.30525038
0001c0 e8 1b 11 be ff 99 d4 bc f2 12 16 be 33 9e a3 be
       -0.14170802 -0.025952337 -0.14655665 -0.31956634
0001d0 ea 1d ab 3d 13 1e 31 3e 90 b8 75 3d 34 9e 85 be
       0.08355315 0.17296629 0.059990466 -0.26097262
0001e0 04 92 c1 bd 1a f0 ab bc 2b 9f ab bd 76 e4 0e be
       -0.094516784 -0.020988513 -0.08379968 -0.13954338
0001f0 b4 1b 9f be 7b 7a 36 3c ea ec 6b bd f6 19 25 be
       -0.31075823 0.0111376 -0.057598986 -0.16123185
000200 79 2b a7 3c fc 79 8a bd 97 a8 03 3e ca 89 5b 3c
       0.020406472 -0.06761548 0.1285728 0.013399551
000210 29 9f a0 3e 38 c9 6c 3f c4 6a 0a be 38 c2 ff 3d
       0.3137143 0.92494535 -0.1351729 0.12488216
000220 32 e3 15 3d a2 8b 54 3d fc 9e 5a be 11 d4 ff 3d
       0.036593623 0.051890977 -0.2134971 0.1249162
000230 a0 5e 0f 3e 5a e1 82 bd d8 e6 52 be 75 bd 34 be
       0.1400094 -0.06390639 -0.20595872 -0.17650397
000240 c3 0f 43 3b 47 79 8c bd 3f 51 2f bc 6c 9f 0b 3e
       0.0029764033 -0.06859069 -0.010700523 0.13635033
000250 d8 cf 67 be b7 6e e0 bd c6 fb 94 3d 09 ec 1d be
       -0.2263788 -0.10958617 0.072745845 -0.15422072
000260 1c 3a 81 3d 09 14 d4 3c 90 e6 e9 bd cc 1a 70 3d
       0.063099116 0.02588846 -0.114209294 0.058619305
000270 8d 16 59 be 89 12 36 bd 42 a0 9b bd 62 c5 66 be
       -0.21200009 -0.04445127 -0.07598926 -0.22536233
000280 90 5f de 3d 1b 66 8e bd a6 b7 bf bb e9 41 95 bc
       0.10858071 -0.06953069 -0.00585075 -0.018219905
000290 de 87 a2 be 7f a3 76 be 41 dd a8 3a 16 97 f6 bd
       -0.31744283 -0.24085806 0.0012883322 -0.12040536
0002a0 0a 8a 8d bc 97 bb 93 3c e4 f9 4a bd e0 bc 38 3e
       -0.017277736 0.018033786 -0.04955472 0.180408
0002b0 33 27 80 3d 18 11 b1 3b fd 2f 56 3e ce a4 38 be
       0.06257477 0.005403649 0.20916744 -0.18031618
0002c0 aa 88 b8 be af 30 8a 3d 0f ee e1 3d b9 84 3a 3d
       -0.36041766 0.06747567 0.11031734 0.04553673
0002d0 38 08 79 3d a9 27 38 be 7f 20 84 be d7 4e 11 be
       0.060798854 -0.17983879 -0.25806043 -0.14190231
0002e0 17 55 0f be 59 ba 9e bd e0 b2 5b bd 67 4c 45 be
       -0.13997303 -0.07750387 -0.053637385 -0.19267426
0002f0 54 e9 fc 3c f4 07 8e be 63 3d 25 3e e7 58 e9 3e
       0.030872978 -0.27740443 0.16136698 0.4557564
000300 34 8a 99 3d eb ec c6 bc 30 25 e7 3d 6b c7 a6 bd
       0.07497063 -0.024282893 0.1128639 -0.08143505
000310 d6 41 09 be 18 64 aa bc 8c 7d 60 bd c8 d7 05 bf
       -0.1340402 -0.020799682 -0.05480723 -0.5228238
000320 b8 39 19 3e 16 a6 96 3d 74 83 88 bd 4e 74 1b bd
       0.14963424 0.07355897 -0.06665698 -0.037952714
000330 f8 c9 c1 bd 55 5e 7b be d7 06 33 bd f2 c0 04 3e
       -0.094623506 -0.24547704 -0.043707695 0.12964228
000340 a6 60 aa 3d 51 48 e4 3c 56 7a 28 3e 1f 1d 40 3e
       0.083192155 0.027866514 0.16452917 0.18761109
000350 53 ef bc 3d d5 78 80 bd 50 c4 d9 3e b8 4b 8b be
       0.09225335 -0.06273047 0.42532587 -0.27206206
000360 75 98 c3 bd 0b 5e 14 be 6a a0 11 3d 10 f6 9f 3d
       -0.09550563 -0.14489 0.035553373 0.078106046
000370 6d b5 ed bd cf a7 23 3e 19 48 56 3e ff ea 96 3e
       -0.1160687 0.15981983 0.2092594 0.29476163
000380 06 4c 03 3d b4 ec 13 3b 9b 5d f6 bc 08 dd 0a 3e
       0.032054923 0.0022571506 -0.030073931 0.13560879
000390 37 d2 02 3e 41 2a 09 be de ca 3c 3b 4a a4 8f be
       0.12775503 -0.13395025 0.0028807442 -0.2805503
0003a0 fc 45 c0 3b 64 95 38 bc 29 54 94 bd 4f cf e4 bd
       0.005867718 -0.011266086 -0.07242615 -0.111723535
0003b0 b4 27 22 be c1 ec cd be 34 dc 93 be 59 8e b8 3d
       -0.15835458 -0.4021969 -0.2887894 0.09011526
0003c0 95 04 4c 3c 9e be d7 3b 38 31 c3 3d b8 80 59 3e
       0.012452264 0.0065840026 0.09530872 0.21240509
0003d0 9f 02 a1 be 62 02 56 3e d2 ca ca 3d eb 51 08 be
       -0.31447312 0.20899346 0.09901966 -0.13312499
0003e0 ff 48 bd bd 0f 63 84 bc e5 c3 b0 3d 30 98 82 bc
       -0.092424385 -0.016160516 0.08631114 -0.01594171
0003f0 99 de 02 be a6 c6 c2 bd b8 0c ad bd cc 89 c7 3e
       -0.12780227 -0.095105454 -0.084496915 0.38972318

classifier.0.bias f4 [100]
000000 4f 6a 41 3d 6e ce 54 be 8e 86 34 3d e1 ec 86 bc
       0.047220524 -0.20781872 0.044073634 -0.016470375
000010 3d bc 10 be de 0a fc 3d 1c db 1f be d1 4e 0c be
       -0.14134307 0.1230676 -0.15610927 -0.13701941
000020 d3 b9 ab bd 1b 01 ec bd aa bb a6 3d de 09 c0 3c
       -0.083850525 -0.11523648 0.08141263 0.023442205
000030 af b0 3b 3d c8 a4 d0 bd 7c 92 1c 3d 74 10 07 3d
       0.045822795 -0.101876795 0.038225636 0.032974675
000040 92 29 69 b9 1a b8 3b 3c 13 6b 1a bd ff 55 1f 3d
       -0.00022236098 0.011457467 -0.03769977 0.03890037
000050 c2 90 64 3c 9c bf 4f bd 05 a6 d5 bd bb 80 0e 3c
       0.013950529 -0.050719842 -0.10432056 0.008697684
000060 be 8a e0 3d aa b2 ce 3d 9e fa 45 bd 69 d5 88 bb
       0.10963963 0.10092671 -0.04833471 -0.004175831
000070 88 8d a0 3d b2 92 04 3e b9 73 46 bd ea a7 37 3d
       0.07839495 0.12946585 -0.048450205 0.04483787
000080 f7 1b b0 bb 5d 81 0b be 69 af f4 bd 82 0b e2 3d
       -0.0053744274 -0.13623567 -0.11947519 0.11037351
000090 11 36 5b 3d 7c ed fd 3d 72 06 f0 3d 1e 66 22 3e
       0.05351836 0.12398812 0.11719979 0.15859267
0000a0 d0 47 88 bb a8 67 fc bd 14 28 f0 3d 9c 98 65 3d
       -0.0041589513 -0.12324458 0.11726394 0.056053743
0000b0 d6 47 37 bd a4 fb 0e 3e 37 2a 45 bd f1 15 39 bd
       -0.044746242 0.13963181 -0.048135962 -0.04518694
0000c0 87 34 93 bd 07 43 0c 3e c5 db ea bd d0 e8 29 bc
       -0.07187753 0.13697444 -0.11467699 -0.010370448
0000d0 3b 1d 11 3d c2 9b 13 3d cc 10 63 bd 7b b1 d4 3d
       0.035428267 0.036037214 -0.05543594 0.10385414
0000e0 e5 b8 70 3d d8 49 d9 3c fb 0a d8 bc 61 2b 48 be
       0.05877008 0.02652447 -0.026372423 -0.19547798
0000f0 3b e9 4f bd 37 e0 4c bc 2e 7b 73 bd e5 9a 0b 3d
       -0.050759535 -0.012504629 -0.059443645 0.034083266
000100 25 40 34 bd c3 37 99 bd 00 71 a4 bd b1 bb 00 be
       -0.044006485 -0.07481339 -0.080293655 -0.12571599
000110 bb f0 1a be 34 2e 20 be 40 3c d7 3d 5a 0b de bd
       -0.15130894 -0.15642625 0.10509539 -0.10842009
000120 78 b5 0a 3e 97 4d c8 bd 29 f8 d5 bd 53 f5 1f bb
       0.13545787 -0.09780424 -0.104477234 -0.00244077
000130 90 90 8d 3e 1e bc e6 3d 9d f5 de 3d ad 13 06 bd
       0.27649355 0.11266349 0.10886691 -0.032733608
000140 7b 9b 0d bd c4 b6 76 3c 11 a1 33 3d 8f 5a 38 3e
       -0.034572106 0.015058223 0.043854777 0.18003295
000150 2c 35 0b 3e b5 5d fb bc 8f 31 e4 3d 97 94 2c bc
       0.13594502 -0.030684331 0.11142265 -0.010533473
000160 9f 17 ed bd e5 28 16 bd 1c 08 5f 3e 44 5b 1a 3e
       -0.11576771 -0.036660094 0.21780437 0.15073878
000170 f9 a4 33 be ed b2 ff 3c 11 43 2c 3e 21 0c 90 3d
       -0.17543401 0.031213248 0.16822459 0.070335634
000180 31 85 c2 bd 92 56 f1 bc 46 a6 30 be e2 8e cb 3d
       -0.094980605 -0.029460225 -0.17250928 0.09939362

classifier.1.weight f4 [100]
000000 6e ae 87 3f af bb 81 3f cb 00 78 3f 77 18 6f 3f
       1.0600107 1.0135401 0.9687621 0.93396705
000010 d0 76 92 3f df 58 75 3f cd 10 78 3f 0a c6 70 3f
       1.1442509 0.9583873 0.96900636 0.94052184
000020 93 5c 70 3f 47 c6 6e 3f d2 90 6a 3f cb 67 63 3f
       0.9389126 0.932713 0.9162723 0.8883025
000030 c6 9f 78 3f c1 49 7d 3f 00 1b 80 3f f0 c4 5b 3f
       0.97118795 0.98940665 1.000824 0.8584738
000040 b4 d5 75 3f 33 31 74 3f a6 4e 58 3f 3a b6 78 3f
       0.9602921 0.9538757 0.8449501 0.97153056
000050 a9 1d 58 3f 6f 06 68 3f a9 97 6e 3f eb 8c 64 3f
       0.8442026 0.90634817 0.93200165 0.89277524
000060 3e 06 5a 3f 51 7b 69 3f ec 27 5a 3f ea 2e 53 3f
       0.85165775 0.9120379 0.85217166 0.8249346
000070 cc 6d 6f 3f 77 38 83 3f 4d 99 60 3f eb 82 8f 3f
       0.9352691 1.0251607 0.8773392 1.1211828
000080 b8 aa 72 3f 01 76 70 3f 81 34 7c 3f 01 66 68 3f
       0.94791746 0.9393006 0.98517615 0.90780646
000090 79 cc 81 3f 07 ab 85 3f a6 7a 89 3f 29 4c 5b 3f
       1.0140525 1.0442818 1.0740554 0.85663086
0000a0 38 8c 4e 3f df 29 63 3f e3 6e 6b 3f 9b b8 6d 3f
       0.80682707 0.88735765 0.91966075 0.9285981
0000b0 47 57 87 3f 3b f1 89 3f f3 ce 79 3f 47 0e 87 3f
       1.057351 1.0776743 0.97581404 1.0551232
0000c0 ad 07 49 3f 4d 04 82 3f 90 c4 84 3f 05 87 57 3f
       0.7852734 1.0157562 1.0372486 0.841904
0000d0 89 96 75 3f 9b 20 55 3f 83 8a 6f 3f 77 c5 66 3f
       0.95932823 0.83252877 0.9357073 0.9014506
0000e0 ee 5d 7b 3f e8 26 88 3f 5a 92 53 3f b3 c6 76 3f
       0.981902 1.0636873 0.8264519 0.9639694
0000f0 4b 29 42 3f 64 c7 75 3f f9 02 7c 3f e0 cf 78 3f
       0.7584426 0.9600737 0.98442036 0.9719219
000100 16 1c 61 3f 57 0b 4d 3f 50 62 80 3f 48 0d 74 3f
       0.8793348 0.8009543 1.0030003 0.95332766
000110 fc 16 6d 3f 04 57 69 3f cf f3 6e 3f 25 73 6a 3f
       0.92613196 0.911484 0.9334077 0.91581947
000120 e6 5b 63 3f 86 28 6f 3f 01 d4 6d 3f bf 1c 70 3f
       0.888121 0.9342121 0.9290162 0.93793863
000130 26 5f 87 3f 7a f0 79 3f c7 b0 72 3f ed 2d 77 3f
       1.0575912 0.97632563 0.9480099 0.9655445
000140 7a 8d 6d 3f ad 5b 4a 3f 67 08 79 3f ee 01 5f 3f
       0.92794 0.79046136 0.97278446 0.8711232
000150 88 56 80 3f af ff 5a 3f ff 34 87 3f b8 28 66 3f
       1.0026407 0.8554639 1.0563048 0.8990588
000160 93 b8 75 3f 08 b6 81 3f 88 b2 4d 3f f9 88 88 3f
       0.9598476 1.0133677 0.8035054 1.0666801
000170 c9 99 70 3f 82 99 6d 3f aa fd 85 3f c2 8f 8b 3f
       0.9398466 0.9281236 1.0468037 1.0903246
000180 a2 f2 5c 3f 20 46 76 3f fa e2 6d 3f 8d ca 65 3f
       0.8630773 0.9620075 0.92924464 0.8976219

classifier.1.bias f4 [100]
000000 6c 43 84 be fd db a9 be ac bb 59 be fe 78 80 be
       -0.2583269 -0.3317565 -0.21262997 -0.2509231
000010 02 81 70 be ed 7b 2d be 8a 44 75 be 90 95 98 be
       -0.23486713 -0.16941805 -0.23951927 -0.29801607
000020 e9 9f 57 be 20 b0 3c bf 8e fd 4e be 87 e4 5e be
       -0.21057095 -0.73706245 -0.20213911 -0.21766864
000030 22 90 73 be e5 e9 9d be d7 06 6a be 10 31 31 be
       -0.23785451 -0.3084251 -0.22854172 -0.17303872
000040 89 7d b8 be c3 18 a3 be da e2 63 be df 73 bd be
       -0.36033276 -0.3185483 -0.22254506 -0.37002465
000050 9a d3 60 be eb 62 c5 be 59 82 c0 be 89 79 b7 be
       -0.2195572 -0.3855203 -0.37599447 -0.3583491
000060 de 86 ab be 1a 14 65 be cb b8 9e be 5a 9d b3 be
       -0.33501333 -0.2237095 -0.3100036 -0.35080987
000070 20 07 58 be 21 fe 94 be 4f cb b9 be 4d 2c 89 be
       -0.21096468 -0.29100135 -0.36287925 -0.2679161
000080 04 96 1e bd e2 27 c6 be b7 9f 9c be 50 f0 e8 be
       -0.038717285 -0.38702303 -0.30590603 -0.45495844
000090 7b ba 75 be a7 a3 d6 be 06 d9 8f be 39 d3 7a be
       -0.23996918 -0.41921732 -0.28095263 -0.24494638
0000a0 89 71 5e be 81 75 d0 be ca 2e c3 be 8c f4 8c be
       -0.21722998 -0.40714648 -0.38121635 -0.27530324
0000b0 28 24 bd be 4e 84 ae be b1 fe be be 5d ab 83 be
       -0.36941648 -0.34085315 -0.3730369 -0.25716677
0000c0 24 e4 cb be 50 21 a9 be 84 3a 7a be e8 66 d6 be
       -0.39822495 -0.33033228 -0.24436384 -0.41875386
0000d0 49 f8 be be 6e 31 be be 92 1f b5 be d6 78 f4 be
       -0.37298802 -0.37147087 -0.3537565 -0.4774844
0000e0 39 2b 9e be 16 6d 79 be fa 35 d2 be 31 89 90 be
       -0.3089235 -0.24358019 -0.41056806 -0.2822967
0000f0 61 ab 29 be c8 74 57 be f5 dc c4 be db 06 cc be
       -0.16569282 -0.21040642 -0.38449827 -0.3984898
000100 00 e9 a1 be fc e0 48 be 91 a0 1d bf a1 72 8c be
       -0.31623077 -0.19617075 -0.6157313 -0.27431205
000110 2b 39 24 be 1e e4 cc be 65 2e d3 be 6d f7 d9 be
       -0.16037433 -0.4001779 -0.41246334 -0.42571583
000120 db e1 bc be 92 c5 c2 be d9 87 ae be 04 38 63 be
       -0.36891064 -0.3804136 -0.3408802 -0.22189337
000130 3f 25 dd be cd 13 da be b8 83 6a be bb a5 86 be
       -0.4319248 -0.42593232 -0.22901809 -0.26298317
000140 79 ac ee be 89 ee 82 be 6c 88 78 be cc 8a cd be
       -0.4661596 -0.25572613 -0.24270791 -0.40144956
000150 f5 32 a0 be ce 46 8e be f7 98 8d be e0 5b 7d be
       -0.31288877 -0.27788395 -0.27655765 -0.24742079
000160 6c ef db be ac 37 68 be 63 d3 43 be 56 72 a2 be
       -0.42956102 -0.22677487 -0.19123606 -0.31727856
000170 1b d2 dd be cd 1e bd be 39 71 8e be 33 fe 88 be
       -0.4332436 -0.36937562 -0.27820757 -0.2675644
000180 a6 7d ca be c0 6c 5e be 05 26 89 be fb 0e 94 be
       -0.39548987 -0.21721172 -0.2678682 -0.2891768

classifier.1.running_mean f4 [100]
000000 94 be f8 bd 29 e6 a8 be 36 0e 02 3e 0c 3d a3 bd
       -0.12145725 -0.32988098 0.12700734 -0.07970628
000010 98 4d aa bd 84 10 da 3d 77 79 92 bd 41 0d 12 bd
       -0.08315581 0.10647681 -0.07152074 -0.03565717
000020 3f a8 33 be a7 7e 49 bd 30 d1 b8 3c 7b 42 ac 3d
       -0.1754465 -0.04919305 0.022560686 0.08411118
000030 4d d2 01 3e 6b 20 a3 3d f5 2c 95 3d e2 93 3d 3d
       0.1267788 0.079651676 0.072839655 0.04628361
000040 3e 7e aa 3d 4a 38 e3 bd e5 c8 2f bd 74 87 57 3e
       0.0832486 -0.11094721 -0.042916197 0.21047765
000050 d2 e9 a0 3c 15 e1 01 be f2 4b 20 be 50 f6 8c ba
       0.019642744 -0.12683518 -0.15653971 -0.0010754559
000060 e8 30 cd bc 78 ed 19 bc 3a 94 b6 3b 18 11 73 bc
       -0.025047734 -0.009394996 0.005571869 -0.014835618
000070 7e 3e 67 3e 66 73 5b 3e 0b 63 22 be 3c f2 22 bd
       0.22582433 0.2143074 -0.15858094 -0.039781794
000080 7f 53 cf 3d 24 2a 69 3d c4 c8 89 be 4c ee 1b 3e
       0.101233475 0.056924954 -0.26910985 0.15227622
000090 af 24 9b 3c e6 8e 4a 3e 38 05 5f 3d ab ad a1 3d
       0.01893839 0.19781074 0.054448336 0.07894453
0000a0 1d 35 74 be dc 0c 40 be 31 85 76 3e 40 9f 0d 3d
       -0.23848386 -0.18754905 0.24074246 0.0345757
0000b0 80 a6 ae bd ea d1 be 3e 1d b3 0b be 6c 96 2c be
       -0.08527851 0.37269527 -0.13642545 -0.16854256
0000c0 e5 48 52 be cc b4 83 3e 6c a7 5d ba 62 7f 09 be
       -0.2053562 0.25723875 -0.0008455429 -0.13427499
0000d0 bb b0 0d 3d ce 98 6a 3d 2f 85 0e 3b 48 2f f3 3b
       0.03459237 0.057274632 0.0021746864 0.007421408
0000e0 24 0d e7 bd 6e dc de 3d 49 3b 10 be de 39 8e be
       -0.11281803 0.108818874 -0.14085115 -0.27778524
0000f0 73 1f 03 be 9a 85 19 3e ad 88 55 be 0c bb ea bd
       -0.12804966 0.14992371 -0.20852919 -0.114614576
000100 74 39 d4 3d 44 b6 c1 bd e7 8b e0 bd c9 49 64 bd
       0.10362521 -0.094585925 -0.10964184 -0.05573443
000110 ee cd ca bd 7c 40 64 bd ca fb 6a 3e a6 a0 f5 bc
       -0.09902559 -0.05572556 0.22947612 -0.02998383
000120 75 e9 86 3e de 05 76 be 84 7e 46 be c9 b9 02 be
       0.2634999 -0.24025676 -0.193842 -0.12766184
000130 bb 99 9b 3e dc 85 d2 3d 95 ae 80 3e af 6c d3 bc
       0.30390725 0.10279438 0.25133196 -0.02580866
000140 ed fe 98 bd 99 3f c4 bc 94 03 0d 3d d4 d4 a3 3d
       -0.07470498 -0.023956107 0.03442724 0.07999578
000150 d4 93 6a 3d 3d cf 20 bc 26 af f9 3c b0 1f eb 3c
       0.057269886 -0.009815034 0.030479025 0.028701633
000160 e7 7a 75 3d aa af 90 3d da b3 ce 3d 71 3f 57 3e
       0.059931662 0.07064755 0.10092898 0.21020295
000170 27 93 f0 bd 5c 95 cc 3d d0 be 79 3e a5 2b 73 bd
       -0.11746817 0.099894255 0.24389195 -0.059367795
000180 de 17 ad 3c 32 57 63 3e 96 bd a6 be 2f 60 8c 3e
       0.021129545 0.22201231 -0.32566518 0.27417132

classifier.1.running_var f4 [100]
000000 d5 95 8d 3b fe d3 5e 3a 4c 07 62 3a f9 42 ae 3a
       0.00432084 0.0008500217 0.0008622303 0.0013295106
000010 d7 47 85 3b c3 21 ac 3a 48 d2 f0 3a 4f 5b 75 3b
       0.004067402 0.001313262 0.0018373216 0.0037438457
000020 c4 71 c5 3a 9e 4c d3 39 57 6e c2 3a 56 50 bb 3a
       0.0015063812 0.0004030214 0.0014833909 0.001429091
000030 66 8c c6 3a 50 f9 ca 3a e8 5d ec 3a 97 2c b4 3a
       0.0015148043 0.0015485678 0.0018033357 0.0013746199
000040 fd 22 85 3a fe 6c 9c 3a ed 3d 1a 3b f6 e9 de 3a
       0.0010157522 0.0011934338 0.0023535446 0.0017006982
000050 28 ad e0 3a 63 ac 40 3a e8 29 9a 3a ef 3d 36 3b
       0.0017141448 0.00073499064 0.0011761757 0.0027807911
000060 5b 86 18 3b 20 83 01 3b 87 bd 34 3b 9c 42 e5 3a
       0.0023273441 0.0019761994 0.0027578787 0.0017491165
000070 d7 57 7e 3b fb 75 7c 3a ef f1 04 3b 24 3e 63 3b
       0.003880968 0.00096306176 0.0020285805 0.003467449
000080 5d bb d2 3a e6 a4 7f 3a 05 93 5a 3b 37 66 82 3a
       0.0016077567 0.000975205 0.003335179 0.0009948675
000090 89 89 a6 3a 13 fa 47 3a 34 8c df 3a e3 87 e3 3a
       0.0012705784 0.00076285115 0.0017055334 0.0017359223
0000a0 e9 e3 31 3b 59 2c 16 3b 0f 35 ba 3a 51 c2 92 3a
       0.0027143902 0.0022914617 0.0014206487 0.0011196827
0000b0 4a f6 d6 3a da 3e 34 3b c2 db 84 3a 5e a7 86 3b
       0.0016400304 0.0027503283 0.0010136294 0.004109307
0000c0 f7 43 b2 3a 27 66 d8 3a bf c5 f2 3a ba fb 41 3b
       0.0013600577 0.0016509936 0.0018522068 0.0029599504
0000d0 1f b8 31 3a 60 4b 63 3b ea be 79 3a ac 49 78 3a
       0.00067794503 0.0034682378 0.00095270446 0.0009471427
0000e0 5e e6 de 3a 8d 9b f9 3a c0 13 25 3b 0a 3d 6d 3a
       0.0017005911 0.001904355 0.0025188774 0.0009049928
0000f0 04 90 95 3a 10 e8 1e 3b 17 77 25 3b ac a6 86 3a
       0.0011410718 0.0024247207 0.0025247985 0.0010273061
000100 d2 ca ab 3b 19 52 4d 3a 5a 79 02 3b bb 54 20 3b
       0.005242684 0.0007832363 0.0019908757 0.0024464566
000110 02 a9 22 3b 63 4b fa 3a 53 ab 14 3b b0 35 f2 3a
       0.0024819975 0.0019095953 0.0022685125 0.0018479135
000120 72 9d 29 3b 95 43 57 3a c2 be bb 3b e4 dd 86 3a
       0.0025881198 0.00082116696 0.005729527 0.0010289517
000130 c0 9c b3 3a 3b aa 06 3b 6a 0e 80 3b f2 e8 ba 3a
       0.0013703331 0.0020548243 0.0039079683 0.0014260097
000140 c4 f1 31 3a da f8 eb 3a f0 a7 ec 3a b1 5f 0c 3b
       0.000678804 0.0018003241 0.001805542 0.0021419341
000150 af fa 93 3a 3d 1d 26 3b a6 1b 58 3b b6 63 32 3b
       0.001128992 0.0025347017 0.0032975464 0.0027220077
000160 05 14 cf 3a 31 6a 45 3b d3 67 a5 3a e5 73 91 3a
       0.0015798813 0.003012311 0.0012619443 0.0011097161
000170 89 cd 66 3b 3a e2 61 3b 20 4a 18 3b 47 70 ff 3a
       0.0035217723 0.0034467117 0.0023237541 0.0019488417
000180 ec 50 b8 3a f9 05 42 3b 4b 2e 84 3a 26 04 67 3b
       0.0014062203 0.002960561 0.0010084597 0.0035250275

classifier.4.weight f4 [150, 100]
000000 52 e9 43 3c 3b a5 1f bd 40 8c fa bd 70 28 f1 bd
       0.011957483 -0.038975935 -0.12233782 -0.11775291
000010 42 da f1 3d d8 c8 00 bd 91 13 2d 3d df 84 5e bd
       0.118092075 -0.03144154 0.042254988 -0.054325934
000020 8e 90 8d bc ad 5e 24 bd 88 78 f0 3c a0 2d 15 3e
       -0.017280843 -0.040129352 0.029354349 0.14568186
000030 76 f1 2f bd 8c d7 44 be f4 87 b0 3c f4 5c b0 bc
       -0.042954884 -0.1922285 0.021549203 -0.021528699
000040 8c 5c 03 be 53 46 0e bd e6 22 57 3d 39 bf 7c be
       -0.12828273 -0.034735035 0.052523516 -0.2468232
000050 96 d6 c2 3b 59 46 2b bd 73 bf 51 be 9c e4 3b bc
       0.005945991 -0.041815136 -0.20483188 -0.011468079
000060 4f d1 7f 3c ac 68 06 3e 5c f1 68 3a 67 73 d1 3c
       0.015613868 0.13125867 0.0008886063 0.025567723
000070 d1 49 a9 bd c4 29 d9 3d 69 7f 2e 3d 50 3a 18 3e
       -0.082660325 0.10603669 0.042601977 0.14865994
000080 58 49 ed bd d5 91 23 be 9c 05 49 3e 82 1d 9d 3b
       -0.11586255 -0.159736 0.19631046 0.0047947774
000090 a2 8f 1a bc 7d 7b fe bd c5 59 3d 3b 85 af 58 bd
       -0.009433659 -0.12425897 0.0028892618 -0.052901763
0000a0 48 00 d8 3c 12 05 cf 3b 54 f3 49 bd 53 9e 13 3e
       0.026367322 0.006317743 -0.04930432 0.14415865
0000b0 86 ca 92 3c 54 f8 2c be 04 9a 2e be 60 79 51 3e
       0.017918836 -0.16891605 -0.1705094 0.20456457
0000c0 1a e0 f8 bc 28 75 d6 3d 31 47 21 be e1 6b e8 3d
       -0.030380297 0.104715645 -0.15749814 0.11348701
0000d0 94 a8 8f bc 25 95 5c 3d 29 7c 3f be fe 2d b5 bc
       -0.017536439 0.053853173 -0.18699707 -0.022116657
0000e0 ea 33 82 be 35 ce 2a be 87 47 bc 3c f3 78 64 bc
       -0.25430232 -0.16680224 0.022983326 -0.013944852
0000f0 47 96 59 3c a2 77 04 be e3 74 97 bc be 4a bb 3d
       0.013280458 -0.12936261 -0.018488353 0.09145115
000100 c7 db 59 3c 92 1c df 3b a5 af ca bd 8f 6d c5 3c
       0.013297028 0.006808826 -0.09896783 0.024100093
000110 87 91 e3 bc a7 60 9f bd c5 51 ef bc c7 33 ad 3d
       -0.027779354 -0.07782107 -0.029213795 0.08457141
000120 0a 71 e4 3d 8d 18 93 3c 5f c5 82 bc 74 f7 de 3d
       0.11154373 0.017956043 -0.015963254 0.10887042
000130 34 ba d5 bd 1f 21 8b bd 81 ac 15 bd b0 37 b1 3b
       -0.10435906 -0.06793427 -0.036541466 0.00540825
000140 33 6c b0 3d 1f 9e a6 bc a9 7f 66 3d ae 10 63 3c
       0.08614387 -0.02033907 0.05627409 0.013858957
000150 30 1c 42 be 51 3b 5d 3d 28 1f bf 3d 18 47 1a be
       -0.18956065 0.054011647 0.093321145 -0.15066183
000160 96 77 9e 3d ad 70 8f bc 7a c8 c6 3d c5 36 21 be
       0.07737653 -0.017509783 0.097062066 -0.15743549
000170 38 cb 75 bd 35 50 83 bd 5c 1f 27 3d 80 ad 93 3c
       -0.060008258 -0.06411783 0.04080139 0.018027067
000180 ce 34 e3 3c 33 05 cc bd b8 c5 e4 bd 2c 0f 1d be
       0.02773514 -0.09961929 -0.11170524 -0.15337819
000190 fe 3f 39 bd f6 82 3a 3d 56 80 97 bd 34 f1 c8 bc
       -0.045227043 0.04553505 -0.07397525 -0.024529077
0001a0 a5 f1 c6 bc d6 d8 30 bd 03 c5 06 bc be 2a 20 be
       -0.024285147 -0.04317554 -0.008225682 -0.15641305
0001b0 b4 ed 27 be 02 42 18 bd cd 5c 31 bc 0b e4 14 bc
       -0.1639927 -0.037172325 -0.010825348 -0.009087573
0001c0 39 9b 5e be 22 1a ee bd 58 1e 1a bd 37 6f 0a 3e
       -0.217389 -0.11626078 -0.037626594 0.13518988
0001d0 e2 2e 58 3e b7 59 88 be 23 d4 9c bd 14 45 2f 3d
       0.21111634 -0.26630947 -0.07657649 0.042790487
0001e0 77 ab 06 3d dc 70 40 3d be ce a6 3d b7 1b f9 3c
       0.032878365 0.04698263 0.08144902 0.030408723
0001f0 f9 3b fb 3d 27 d9 5d 3b c4 1c 28 3e 74 97 e8 3c
       0.12267298 0.0033851357 0.16417223 0.028392531
000200 23 95 03 3e fe a1 27 bd 77 d3 a8 3c f5 0c 1b 3c
       0.1284986 -0.040925972 0.020608647 0.009463538
000210 09 7e c0 bd c3 06 6c bd 44 d9 18 bd 8c cd 1e 3d
       -0.09399039 -0.057623636 -0.037316576 0.038770244
000220 90 1f 7d be a0 bc 3f 3c a1 bb 93 3d 92 59 11 bd
       -0.24719071 0.011702687 0.07213522 -0.03548581
000230 08 49 9c bc 1b e6 33 bd e5 f4 3a 3c a4 2a 3a bc
       -0.019077793 -0.043920618 0.0114109265 -0.011362705
000240 c8 04 3f be 72 9b 55 3d d3 cc 73 be c8 b3 b7 bd
       -0.18654168 0.052150197 -0.23808603 -0.089698374
000250 7c 9f b0 3c 93 8a 0d 3e 50 46 98 bd 8c 13 eb bd
       0.021560423 0.13822393 -0.07435286 -0.11478338
000260 4c f4 a7 3d 9e 08 5f 3c 38 2b ec bd 43 8c 82 3c
       0.08200893 0.013612894 -0.11531681 0.015936023
000270 eb 47 5a be 6b e2 bc 3d 86 24 8c 3d 5f 13 94 3c
       -0.21316497 0.09222873 0.06842904 0.018075643
000280 9a e3 c0 bb 0e 87 06 be 7f f3 61 3e a1 f0 d5 3d
       -0.005886507 -0.13137457 0.22065543 0.10446287
000290 94 a7 48 bd 0e ef 76 3c a8 e1 24 3d 35 c2 17 3e
       -0.04898794 0.0150716435 0.040254265 0.14820178
0002a0 e4 95 49 3b fc 1e 9c bd 12 5a 2f be cf f0 a2 be
       0.0030759508 -0.07623097 -0.17124203 -0.31824347
0002b0 55 1d 2c bc 02 ed 07 3d b2 cb 22 3d 4f 02 fb bc
       -0.01050504 0.033185013 0.03974504 -0.03064075
0002c0 d4 6d 50 bd 60 17 c9 bc ce 1c a4 3d bf b3 17 bc
       -0.05088599 -0.024547279 0.080133066 -0.009259163
0002d0 d4 9e c5 3d 0b d8 ce 3c 4a 91 d9 bd 0b e0 34 bd
       0.09649435 0.025249502 -0.10623415 -0.044158977
0002e0 ff 11 e6 bd 65 e5 9d 3d 37 c1 1d 3a 9d bb 00 bd
       -0.11233901 0.07709769 0.0006017866 -0.031428922
0002f0 7b 5f d2 3d 51 1f ee bd 4c 3b 2a bd 5e a3 38 bd
       0.10272118 -0.11627067 -0.041560456 -0.045077674
000300 58 ab 2c be e4 cb ef 3d 39 53 f0 bb b9 66 82 bd
       -0.16862237 0.11708811 -0.0073341397 -0.06367249
000310 85 59 76 3d ef 81 09 3c 4a 0c 58 be 6f bb 60 bd
       0.060143966 0.008392795 -0.21098438 -0.05486625
000320 c6 79 a9 bc da 17 81 bc 36 1a fc 3d c8 81 0a bb
       -0.020687949 -0.015758444 0.12309687 -0.0021134485
000330 13 8e 8f bd b1 cc bc bc c0 51 b4 3c ba 21 52 3e
       -0.070095204 -0.023046823 0.022011638 0.20520678
000340 4e 52 9c 3c cd a3 38 3e de 72 c6 bd 1f 40 af bd
       0.019082215 0.18031235 -0.09689878 -0.08557152
000350 a2 ba 09 3e 55 17 f4 bc 4c 5d 4f be 8d 5e 0b 3d
       0.13450101 -0.029796282 -0.20250434 0.034025718
000360 49 0f 0c 3e 6a 7a 8f bd 0c 64 96 bd 12 ae 91 bc
       0.13677706 -0.070057705 -0.07343301 -0.017783199
000370 d4 26 01 bd 3c 91 69 be 63 7d 16 3e 63 9e 02 be
       -0.03153117 -0.22809309 0.14696269 -0.12755732
000380 62 d8 a3 bd f5 db a5 bd 6c b1 07 be e8 e7 44 bd
       -0.08000256 -0.08098594 -0.13251275 -0.048072726
000390 e9 81 eb 3c ee 03 9c 3d 9e fd c2 be 3d 9f e2 bc
       0.02874847 0.07617937 -0.3808412 -0.027663821
0003a0 4a ef 4c bd 42 74 81 bd 3e b3 da bd fe 60 34 3d
       -0.05003289 -0.063210025 -0.10678719 0.04403781
0003b0 69 03 06 3e 8c cc 6a bd b3 28 30 be 7d 64 ee 3c
       0.13087238 -0.057323977 -0.17203026 0.02910065
0003c0 ea 8f 16 be 14 4b f6 bd 13 0c ac bc 8f 9c a4 bd
       -0.14703336 -0.12026039 -0.021001851 -0.08037674
0003d0 44 96 57 bd 0a b9 05 3d 4c fc 61 3e 6d 7d cb 3c
       -0.05263354 0.03264717 0.220689 0.024840081
0003e0 5b 0e c1 bc 6b 93 a2 bd e5 83 9a bc bd 86 14 be
       -0.023566416 -0.07938274 -0.01886172 -0.14504524
0003f0 35 eb 08 3c 4c 2c ad bd db 7c 24 bc ef 5a 35 bd
       0.008356859 -0.084557146 -0.0100395335 -0.044276174

classifier.4.bias f4 [150]
000000 8e 7b da bc 9d 00 58 3d b0 c3 e1 3c ff e0 be bd
       -0.026670244 0.05273496 0.027559131 -0.09320258
000010 b9 05 50 bb c3 e5 20 3c a5 7f 79 3d d3 78 91 3d
       -0.0031741692 0.009820404 0.060912747 0.071031235
000020 25 50 8d bd 6d c0 1e bd f0 98 a2 3c 7c 0f fe 3b
       -0.06900052 -0.03875773 0.019848317 0.0077533107
000030 1b a6 2e bd 1c d7 a3 bd 71 bf f2 bd 72 87 72 3d
       -0.04263888 -0.08000013 -0.11852921 0.059211202
000040 7d d0 1e bb c8 a9 16 bd b0 f5 9d 3d 21 88 14 3c
       -0.0024233155 -0.03678301 0.07712877 0.009065659
000050 d8 28 2b bd cb e7 92 bd a5 96 08 bc 9c 10 93 3d
       -0.041787 -0.07173117 -0.008336698 0.07180902
000060 86 36 8e bd 44 c7 0d bd 24 5d e0 bd 95 34 fa 3c
       -0.06943993 -0.034613863 -0.10955265 0.030542651
000070 88 a5 01 3d cf b6 2f bd a7 9b 24 bd 82 fc 6b bd
       0.031652004 -0.04289895 -0.040187504 -0.057613857
000080 30 79 cc 3d 71 2f e1 3c 2c c0 ea 3d b5 88 d7 bb
       0.09984052 0.027488442 0.11462435 -0.006577576
000090 e4 e4 41 bd 45 49 ac bd 96 e3 43 bc 5a 98 ca 3d
       -0.047337428 -0.084124126 -0.011956116 0.0989234
0000a0 8a 9d 4a bd 8a a0 05 3d dd 1a 45 3c 7b 82 2f bd
       -0.049466647 0.032623805 0.0120303305 -0.042849045
0000b0 83 4c 02 bd 96 7a 9e 3d 4f 24 67 3d ef 69 24 bd
       -0.03181125 0.07738225 0.05643111 -0.04014009
0000c0 c9 5e b6 bd d9 58 3c bd 66 9f a0 bd b2 74 68 bd
       -0.089047976 -0.04598317 -0.07842903 -0.056751914
0000d0 ae b1 b9 bd 1a 03 a3 3d 2d 64 7c bd 9f 9e c6 3d
       -0.09067093 0.07959576 -0.061618973 0.09698223
0000e0 24 14 5c bc 4b 14 95 bd 3c 8e 02 3d 3b a9 4c bd
       -0.013432536 -0.07279261 0.031873927 -0.04996608
0000f0 bd ca c9 bc 42 ed 8c 3d 11 96 0f be d9 db d0 3d
       -0.024632806 0.06881191 -0.1402209 0.101981826
000100 d7 da c5 3c 70 80 bd bd 84 b3 07 3e 19 2d 33 bd
       0.024152203 -0.09253013 0.13252074 -0.04374418
000110 17 ac cb 3b 6a 2a da 3d 73 9e 91 bd 12 13 78 bc
       0.006215583 0.10652621 -0.071103 -0.0151412655
000120 10 9b a5 3d c8 44 c1 3b b8 d3 22 bd 72 ce 45 3d
       0.080862164 0.005898092 -0.039752692 0.048292585
000130 00 39 70 3d 9c 96 a3 3d 8b 08 f5 3c fd 9d 3d 3d
       0.05864811 0.07987711 0.0299113 0.046293247
000140 9d 26 13 bd 4a a4 5e bd 5d b7 b4 3d a3 f8 50 bd
       -0.035925496 -0.054355897 0.08824036 -0.05101837
000150 40 3e 56 bd d7 3b 75 3c 01 4c bb 3d 3f 84 7c bd
       -0.05230546 0.01496788 0.09145356 -0.061649557
000160 72 f6 42 3d 15 cb e6 3d 46 6d 87 bd ba 11 ed bc
       0.04759831 0.112692036 -0.06612639 -0.028939117
000170 7f 72 01 be 9f c4 8e bd 2d 00 5d 3d 68 36 72 3d
       -0.12641333 -0.06971096 0.053955246 0.059133917
000180 70 15 52 bd 86 56 bf bd b6 65 26 bd 83 ef b4 3d
       -0.051289976 -0.09342675 -0.040624343 0.08834746
000190 27 3e 99 3c 43 3d 86 bd e0 6c 9d 3d 89 be 40 bd
       0.018706394 -0.065546535 0.07686782 -0.04705671
0001a0 d3 73 84 bd 1d 42 29 bd f4 92 e0 bd e8 da 7a 3d
       -0.06467404 -0.041322816 -0.10965529 0.06124392
0001b0 8e 44 2f bd 82 c3 cf 3d a6 92 e6 bd bc 5e d9 3c
       -0.04278999 0.10144712 -0.1125844 0.02653443
0001c0 51 e4 03 3d 82 a2 36 3d da 51 6a 3d 70 27 7b 3b
       0.03220016 0.044588573 0.057206966 0.0038323067
0001d0 eb 6b 93 bd e5 f1 c5 3d 45 1e b2 3d 94 a4 8a bd
       -0.07198318 0.09665278 0.0869718 -0.06769672
0001e0 c6 d3 e3 bc e5 ec 8e 3c d4 28 76 3c 61 c9 e8 bd
       -0.027810942 0.017446944 0.015024383 -0.11366535
0001f0 e1 4b b9 3d fe e9 7f 3d cc e8 d0 3d 4a 40 8f 3d
       0.09047676 0.06247901 0.102006525 0.06994684
000200 b3 3b 86 3d 00 e8 87 bd 02 ef aa 3d 8f 94 17 bb
       0.065543555 -0.06636047 0.08346368 -0.002312932
000210 d3 1a fe 3d c5 c2 ab bc 96 b4 bb bd 73 68 3f 3d
       0.1240746 -0.020966897 -0.091653034 0.04673047
000220 17 07 96 3c a9 7a 8f 3d 95 75 9f bd 6f 3d 2d bd
       0.018313928 0.070058174 -0.07786099 -0.042294916
000230 1f fe 25 3d 37 2a ae 3c d0 fa ab bd 43 c7 e4 bd
       0.040525552 0.021260364 -0.08397448 -0.11170819
000240 7c 3c 7b bc b8 3b ca bd 0c 4c 5e 3d 92 ed 99 bc
       -0.015334245 -0.09874672 0.054271743 -0.01879004
000250 06 7d 92 bd 0d 38 39 bd
       -0.071527526 -0.04521947

classifier.5.weight f4 [150]
000000 b9 f9 69 3f a7 b7 47 3f ee 3c 81 3f 4e b8 57 3f
       0.9139667 0.78014606 1.0096719 0.842656
000010 a6 5f 7b 3f af f5 72 3f 38 2b 60 3f 94 0e 75 3f
       0.9819282 0.94906133 0.87565947 0.9572537
000020 ad e7 86 3f 0c 4a 66 3f 84 49 67 3f d9 59 6f 3f
       1.0539452 0.89956737 0.9034655 0.9349647
000030 0b 94 56 3f e2 94 8f 3f 6b bd 82 3f 95 07 7d 3f
       0.83819646 1.121731 1.0214056 0.98839694
000040 36 60 9d 3f 07 29 80 3f bc 99 81 3f 24 0e 3a 3f
       1.2294986 1.001252 1.0125041 0.72677827
000050 09 53 7a 3f 4b c9 6c 3f ef 1c 75 3f 05 7c 4a 3f
       0.9778295 0.9249465 0.95747274 0.7909549
000060 91 98 80 3f 6a 13 83 3f a0 83 81 3f 28 53 86 3f
       1.004656 1.02403 1.0118294 1.0494127
000070 fe 19 88 3f 47 1c 5b 3f 39 31 59 3f 28 c9 80 3f
       1.0632932 0.8559002 0.8484073 1.0061388
000080 3d c2 87 3f 2a 71 63 3f 60 fa 54 3f 91 d6 54 3f
       1.0606152 0.8884455 0.8319454 0.831399
000090 28 db 6e 3f 42 1c 9a 3f 69 72 81 3f 11 cd 85 3f
       0.93303156 1.2039874 1.011304 1.0453206
0000a0 19 88 5b 3f f3 c1 5a 3f 1c 85 86 3f e9 6a 70 3f
       0.85754544 0.85452193 1.0509372 0.9391313
0000b0 87 a7 7d 3f ce 17 6a 3f 7f 8d 7d 3f b6 7a 4f 3f
       0.9908375 0.91442573 0.9904403 0.8104662
0000c0 a0 34 5c 3f 6c ca 74 3f 8f 24 82 3f 19 fc 72 3f
       0.860178 0.9562137 1.0167407 0.9491592
0000d0 6e 6c 80 3f a2 49 8a 3f b4 3f 88 3f 9d 2d 82 3f
       1.003309 1.0803721 1.0644441 1.017017
0000e0 21 60 83 3f 7a b1 8a 3f 42 eb 7a 3f 1b 97 65 3f
       1.0263711 1.0835412 0.98015225 0.89683694
0000f0 ff 4e 7b 3f 6e 63 67 3f 8d c3 5e 3f 84 1e 52 3f
       0.98167413 0.9038609 0.87017137 0.82077813
000100 7a 4c 84 3f c1 4d 5f 3f 71 dd 71 3f cc b9 87 3f
       1.0335839 0.8722802 0.9447852 1.0603576
000110 f0 6d 93 3f 4c 5f 6a 3f 2d 6a 76 3f d1 9b 65 3f
       1.1517925 0.9155166 0.9625576 0.8969088
000120 25 0d 72 3f 22 cc 76 3f 52 61 6e 3f 39 e5 54 3f
       0.94551307 0.9640523 0.9311725 0.83162266
000130 d6 a6 46 3f 99 1b 96 3f 9b 51 65 3f f3 f0 6a 3f
       0.7759832 1.1727172 0.89577645 0.9177391
000140 51 a7 65 3f 22 e0 7b 3f 7e 76 93 3f cf 40 5d 3f
       0.8970843 0.98388875 1.1520536 0.86427015
000150 24 44 77 3f 57 57 87 3f 24 f1 50 3f d2 1e 5d 3f
       0.9658835 1.0573529 0.8161795 0.86375153
000160 68 cb 81 3f bc 10 8d 3f a7 3c 83 3f 32 40 a7 3f
       1.01402 1.1020732 1.0252885 1.3066466
000170 ff 37 94 3f 3d ec 87 3f bf 2a 87 3f 2e ff 86 3f
       1.1579589 1.0618969 1.055992 1.0546625
000180 38 2b 61 3f 09 d9 60 3f 5c 4c 7d 3f 07 d5 87 3f
       0.8795657 0.8783117 0.9894464 1.0611886
000190 35 61 87 3f f0 dd 52 3f 34 ea 63 3f 8a 4b 60 3f
       1.057654 0.823699 0.8902924 0.87615263
0001a0 eb 06 92 3f 10 6a 79 3f f8 08 8d 3f 16 db 66 3f
       1.1408361 0.97427464 1.1018362 0.9017805
0001b0 5f 4f 66 3f c2 e5 8e 3f 26 0d 84 3f 8b c3 60 3f
       0.8996486 1.1163867 1.0316513 0.87798375
0001c0 43 c1 69 3f 80 35 80 3f d1 e4 80 3f 73 49 4f 3f
       0.9131052 1.0016327 1.0069829 0.8097145
0001d0 9c ef 95 3f 93 56 82 3f 27 63 4a 3f 0f ca 8f 3f
       1.1713748 1.018267 0.79057544 1.1233538
0001e0 fe 5d 7c 3f 67 da 68 3f 72 5c 89 3f c5 d7 80 3f
       0.9858092 0.90958256 1.0731337 1.0065848
0001f0 f3 cb 86 3f ad 4f 4f 3f a4 84 75 3f 08 a9 81 3f
       1.053099 0.8098095 0.9590552 1.0129709
000200 0a ea 5f 3f 86 1a 67 3f 28 67 69 3f 5f 0d 97 3f
       0.8746649 0.90274847 0.9117303 1.1800956
000210 17 c3 7d 3f 1f 28 48 3f 58 2f 8a 3f 45 82 8c 3f
       0.9912581 0.7818622 1.0795698 1.0977255
000220 33 9b 84 3f cd 46 88 3f 5b e4 7f 3f da c8 65 3f
       1.0359863 1.0646607 0.9995782 0.897596
000230 d7 06 65 3f e9 56 94 3f 27 86 53 3f 00 34 8d 3f
       0.8946356 1.1589023 0.82626575 1.1031494
000240 96 6d 57 3f 5c 8a 80 3f 94 29 8d 3f 68 d6 6e 3f
       0.8415159 1.0042224 1.1028314 0.9329591
000250 1d c5 77 3f da a8 63 3f
       0.96785146 0.8892952

classifier.5.bias f4 [150]
000000 e5 42 6d be 71 47 99 be d8 c7 c0 bd d9 de 97 be
       -0.2317005 -0.29937318 -0.09413117 -0.29662207
000010 55 46 99 bd c0 67 59 be 74 46 af be 9c a1 5a be
       -0.07484118 -0.21230984 -0.3423344 -0.21350712
000020 66 1a 9d bd 71 34 02 be 08 97 ac be b9 e8 6f bd
       -0.07671051 -0.12715317 -0.33708978 -0.05857155
000030 e8 d3 91 be 09 e5 de bd c7 04 f2 bd 6c 24 91 bd
       -0.28481984 -0.10883529 -0.118173175 -0.07087025
000040 81 2d ab be 94 ac cd bd 80 52 1d be dd a1 e6 be
       -0.33433154 -0.10042682 -0.15363503 -0.45045367
000050 be 57 88 be 99 1f 67 be ac 0d 5c be 86 94 f1 be
       -0.26629442 -0.22570647 -0.2148959 -0.47183627
000060 aa b2 a2 be 58 28 7a be e1 2e 91 be 6f a4 a5 be
       -0.31776935 -0.24429452 -0.28356078 -0.32352015
000070 94 91 1c be ab 91 7b be 7b 8b aa be aa 36 37 be
       -0.15289909 -0.24567287 -0.3330954 -0.17891946
000080 06 de 81 be 7d c9 80 bd 4b f9 70 be ec 4d 98 be
       -0.25364703 -0.06288431 -0.23532598 -0.2974695
000090 87 f2 2e be be bb 97 be 8d 1a 88 bd f4 d8 56 be
       -0.17084704 -0.29635423 -0.06645689 -0.20981199
0000a0 b7 7e 88 be 55 56 17 be 91 3d d7 be 75 e6 0c be
       -0.26659176 -0.14779027 -0.4203916 -0.13759787
0000b0 73 8a 86 be 20 06 45 be 98 d8 e3 be 5c c7 59 be
       -0.26277503 -0.19240618 -0.44501185 -0.21267456
0000c0 25 f8 39 bd 8d f2 34 be 4b d8 78 bd 0d a6 07 be
       -0.045402665 -0.17670651 -0.060753148 -0.13246937
0000d0 9d c3 07 be 16 19 e2 bd fc 60 90 be 86 16 57 bd
       -0.13258214 -0.11039941 -0.28198993 -0.052511714
0000e0 dc de cc bd e3 30 16 be 5c 98 8f be cc 18 2d be
       -0.100034446 -0.14667086 -0.28045928 -0.1690399
0000f0 6e 23 83 be 7d 80 ce bd 38 2d 8a be c5 48 aa be
       -0.25612968 -0.10083101 -0.26987624 -0.33258644
000100 2a df 3b be ba fe c4 bd 43 5b ff bd bf 24 fc bd
       -0.18346849 -0.09618898 -0.12468579 -0.12311696
000110 48 e9 ac be c7 bc ba be de 73 19 be 9c ae 61 be
       -0.3377173 -0.3647215 -0.14985606 -0.22039264
000120 41 ba 29 be c2 fa 23 be 22 a5 36 be 5a 42 f8 be
       -0.16574956 -0.16013625 -0.1783643 -0.48488122
000130 e7 d3 d3 be 7f 45 18 be 0e ce b0 bd 22 83 15 be
       -0.41372606 -0.1487026 -0.08633052 -0.14600804
000140 3b f8 99 be 60 81 9f be 91 17 ac bd 30 c8 0d be
       -0.30072197 -0.31153393 -0.084029324 -0.13845897
000150 cd 0c 84 be 66 5f ff bd 3f 57 2f be 16 39 a3 be
       -0.25791016 -0.12469368 -0.17123125 -0.3187949
000160 5c b4 d4 bd a5 37 11 be 8c da a1 bd 62 87 59 be
       -0.10385963 -0.14181383 -0.07903013 -0.2124305
000170 9e 6a 08 be ae e6 62 be f2 6f f5 bd d0 34 8d be
       -0.13321921 -0.2215831 -0.119842425 -0.27579355
000180 51 28 0a be 19 88 90 bd a1 e7 26 be f9 45 40 be
       -0.13491942 -0.070572086 -0.16299297 -0.18776692
000190 55 c7 b7 bd d3 38 b3 bd ce 58 81 be 55 d3 35 be
       -0.089735664 -0.08751073 -0.25263065 -0.17756398
0001a0 b5 00 8c be a5 15 a0 be a8 16 5e bd 2b 25 67 bd
       -0.2734429 -0.31266513 -0.054220825 -0.05643193
0001b0 6a 8b 12 be 67 23 9b be 84 15 46 bd 6c 2a a3 be
       -0.14310995 -0.30300447 -0.048360363 -0.31868303
0001c0 9c 6b 96 be 05 56 f3 bd 8f 1a 82 be 9a 62 00 bf
       -0.29378974 -0.11881641 -0.25410888 -0.50150454
0001d0 d7 96 9b be 4d 04 cc bd 26 73 ff be f0 d4 14 bd
       -0.3038852 -0.09961758 -0.4989254 -0.036335886
0001e0 b9 8a b2 be 72 2d a5 bd 78 73 6c bd 62 72 12 be
       -0.34871462 -0.08065309 -0.057727307 -0.14301446
0001f0 e1 26 45 be 29 bd ce be be 8a dc be a6 63 3d be
       -0.19253112 -0.40378693 -0.43074602 -0.18495044
000200 82 52 6e be 9a 28 45 be 5b 64 91 bd 23 33 81 be
       -0.23273662 -0.1925377 -0.070992194 -0.25234327
000210 6c f3 3e be 9e 73 b6 be 0d f0 01 be e6 e4 52 be
       -0.18647546 -0.35635084 -0.12689228 -0.2059513
000220 2f 63 1c 3d 5d 7a 93 bd 1c 2e 00 be 66 db 6d be
       0.038180526 -0.07201073 -0.1251759 -0.23228225
000230 01 3a 46 be a6 88 03 bc 4e d5 d3 be e8 61 87 be
       -0.19358064 -0.008028185 -0.41373676 -0.26441884
000240 4a f6 0b be 02 f7 b8 be bc 7b 86 be e7 95 50 be
       -0.1366817 -0.36125952 -0.26266277 -0.20369683
000250 d8 47 b3 be ef c8 d5 bd
       -0.3501575 -0.10438716

classifier.5.running_mean f4 [150]
000000 eb 75 f5 be bd f4 d4 be 04 90 eb be b8 0a 1f bf
       -0.47941527 -0.4159297 -0.46008313 -0.6212573
000010 4b ae 3a bf f6 72 f6 be 1a ae 5f bf 83 70 fd bd
       -0.729222 -0.48134583 -0.8737503 -0.123749755
000020 34 2e 38 bf ce dd 5b be 1b 30 0e bf 0b e7 51 be
       -0.719455 -0.2147133 -0.55542153 -0.20498292
000030 a9 80 78 be 91 66 8d bf 57 85 3f bf 14 50 69 bf
       -0.2426783 -1.1046926 -0.74812835 -0.91137815
000040 21 ef cf be e6 74 0d bf b7 42 0b 3e fc 3b cc be
       -0.40612128 -0.552565 0.13599668 -0.39889514
000050 74 d3 ce be 82 9c a9 be 1e 0e a7 be 55 8a 34 bf
       -0.403957 -0.33127218 -0.32627958 -0.7052358
000060 b5 06 4e bf 6a 5e e0 be 76 30 c6 be a8 63 8b be
       -0.80478984 -0.43822032 -0.38708848 -0.2722447
000070 93 52 b1 bd ec e5 77 bf 47 38 3f bf 89 b8 05 bf
       -0.08658328 -0.9683521 -0.7469525 -0.52234703
000080 b1 b3 2d bf 72 41 c3 be c8 17 0c bf 12 2b d6 be
       -0.6785231 -0.38135868 -0.5472379 -0.41829735
000090 af de 34 bf 50 95 7b be a5 c7 75 bf 43 4e d5 be
       -0.7065229 -0.24568677 -0.9600776 -0.4166127
0000a0 f0 52 fb be ac 13 fa be 45 18 ce 3d 4c 26 32 bf
       -0.49086714 -0.48843133 0.10063223 -0.69589686
0000b0 e8 4b 47 bf 21 6a 5b be 45 db a1 bc ac 28 c1 be
       -0.778502 -0.21427204 -0.019757876 -0.37726343
0000c0 46 29 4f bf 5e 33 a1 3e 75 1c 82 bf 44 db 84 bf
       -0.80922353 0.31484503 -1.0164934 -1.0379415
0000d0 69 5a af 3e df 07 a3 3d 67 fb 66 3e d7 10 11 bf
       0.34248665 0.07960486 0.2255684 -0.5666632
0000e0 84 9c 19 3e a0 3b 59 be 45 fb f8 be 86 c8 69 bd
       0.15001112 -0.21214151 -0.48629203 -0.057076
0000f0 3c 09 2f be 6d 4e f4 be 88 98 91 bf 01 a6 f0 be
       -0.17093366 -0.47716084 -1.1374674 -0.4700165
000100 05 10 f8 be 89 76 2e bf d1 ac c3 3d b6 de 8d bf
       -0.48449722 -0.6814962 0.095544465 -1.1083591
000110 a4 af 18 bf e1 74 7c be a7 a0 90 be fc 37 67 be
       -0.59643006 -0.24653961 -0.28247568 -0.2257995
000120 e2 09 34 be 2f 8b e8 be 47 a4 00 bf a3 5d 3d bf
       -0.17581895 -0.4541869 -0.5025067 -0.73971003
000130 24 4f 5a bf 72 e7 95 be 53 ed 41 be 32 06 bb be
       -0.8527701 -0.2927814 -0.18938188 -0.36528164
000140 7c 4b 82 bd de b5 86 3e 1b f8 86 bf eb d5 9e be
       -0.06362054 0.2631063 -1.0544466 -0.3102258
000150 15 c6 1e bf 39 c7 ea be 43 b3 6d be 95 1f 6e be
       -0.62021 -0.4585512 -0.23212914 -0.23254235
000160 c5 d1 86 3d 4d 0d 61 be 6d 6e 31 be 82 c6 28 3d
       0.06582979 -0.2197773 -0.1732728 0.041204937
000170 ca fb 87 bf 01 f2 9e 3c b1 2b 2c be 23 bb d8 be
       -1.0623715 0.019402506 -0.16813542 -0.42330274
000180 bf 45 e8 be ce 61 70 bf 00 72 05 bf 0e 6f 39 bf
       -0.45365712 -0.9389924 -0.52127075 -0.7243508
000190 7e cc 88 bf 6c fa ef be 41 dd 18 3f 06 96 e9 be
       -1.0687406 -0.46870744 0.59712607 -0.4562227
0001a0 00 c2 d3 3e da b7 9c be c9 9c 80 bf 7d d2 82 be
       0.41358948 -0.30609018 -1.0047847 -0.25551215
0001b0 48 5f a2 3c f9 94 78 3d 04 ac ad bd c6 0a 1c bf
       0.019820824 0.060688946 -0.08480075 -0.6095394
0001c0 c7 54 18 bf 60 fe 41 bf d2 d3 0f bf 37 4f 7c be
       -0.5950436 -0.7577877 -0.5618259 -0.24639593
0001d0 72 32 24 bf 08 d3 57 bf 8a 04 6f bf c9 27 8d bf
       -0.64139473 -0.84306383 -0.933663 -1.1027766
0001e0 e0 cf d6 be d9 47 91 bd f5 00 26 bf 84 f2 f2 be
       -0.4195547 -0.07093782 -0.6484521 -0.4745065
0001f0 3c 81 dc be 64 05 97 be 33 ae 1c 3f 4a 4e 3a bf
       -0.43067348 -0.294963 0.61203307 -0.7277571
000200 68 d4 34 bf 87 ca 29 bd 2c ce 6a bf 3c c6 9c be
       -0.70636606 -0.04145291 -0.91720843 -0.3061999
000210 bb c0 22 bf ea 3b 56 bf c9 d1 a3 be 31 82 a2 be
       -0.63575333 -0.8368517 -0.3199599 -0.31739953
000220 6f 01 28 3e 1a 2f 2e bf d3 77 20 be 70 e0 77 be
       0.16406797 -0.6804062 -0.1567071 -0.2420671
000230 89 ee b6 be 98 1f 3d bf 02 f0 29 bf 49 e4 52 bf
       -0.35728863 -0.73876333 -0.6638185 -0.82379586
000240 48 50 72 3c 2d e8 4c bf 6c 51 61 bf 61 7e e0 be
       0.014789648 -0.8004177 -0.88014865 -0.4384642
000250 a1 63 43 bf 80 57 3e bf
       -0.76323897 -0.74352264

classifier.5.running_var f4 [150]
000000 6d 88 95 3f 69 44 e1 3e d8 eb 60 3f 79 81 7f 3f
       1.1682259 0.43997505 0.8785987 0.99806935
000010 e9 d0 3a 3f 4d cf 94 3f 44 31 ca 3e 4b 2b 04 3f
       0.7297502 1.1625763 0.39490712 0.5162856
000020 29 19 65 3f 65 6a 65 3f 85 05 47 3f 5a fa 60 3f
       0.89491516 0.8961547 0.777428 0.87882006
000030 09 87 82 3f d3 fb 82 3f 20 52 4d 3f 4b cb 4d 3f
       1.019746 1.0233101 0.8020344 0.80388325
000040 26 93 8c 3f 6c a7 d0 3f 14 8c 4c 3f 50 c6 2d 3f
       1.0982406 1.6301093 0.7990124 0.67880726
000050 2a 95 86 3f 04 3e 1e 3f 8f bd f9 3e 2f 78 90 3e
       1.0514271 0.6181338 0.48777434 0.28216693
000060 f2 cd fb 3e 8b 00 66 3f a7 87 7b 3f 64 6e 61 3f
       0.4918056 0.8984458 0.98253864 0.8805907
000070 60 2d 97 3f 89 76 43 3f f1 07 00 3f 76 10 5e 3f
       1.1810722 0.76352745 0.5001212 0.8674387
000080 0a a5 32 3f 2b f4 4f 3f 46 04 56 3f 22 ea 81 3f
       0.6978308 0.81231946 0.8360027 1.0149577
000090 0a 58 3e 3f e7 c3 78 3f c1 61 9c 3f cd 3f 3c 3f
       0.74353087 0.97173923 1.2217332 0.7353485
0000a0 a9 22 65 3e c7 d4 86 3f 56 a4 32 3f a0 c7 1d 3f
       0.22376503 1.0533684 0.69782007 0.6163273
0000b0 a3 89 ac 3f 27 34 44 3f b5 4d 30 3f 93 80 b8 3e
       1.3479503 0.7664208 0.6886857 0.36035594
0000c0 aa 6a e7 3e e4 59 3f 3f 03 5d e7 3f b8 b6 b8 3f
       0.45198566 0.7474654 1.807526 1.4430761
0000d0 aa 0c 57 3f 03 c9 aa 3f e8 d6 42 3f 1e d8 bc 3f
       0.840037 1.3342594 0.7610917 1.4753454
0000e0 85 1a 97 3f 16 99 55 3f 64 bf 85 3f df 4d 17 3f
       1.1804968 0.83436716 1.0449033 0.59103197
0000f0 3a 94 74 3f 50 f5 f4 3e 9f 63 6e 3f 17 d8 25 3f
       0.95538676 0.4784341 0.9312076 0.6478285
000100 84 ea 99 3f 75 26 cc 3e 51 3a 45 3f ba b4 9b 3f
       1.2024693 0.3987309 0.7704211 1.2164528
000110 9c 05 6e 3f 89 6d b8 3e 67 1b bd 3f 92 be b8 3e
       0.9297731 0.3602107 1.4773988 0.36082894
000120 26 86 b7 3f 50 9b 82 3f 66 08 6b 3f 5f 22 b7 3e
       1.4337814 1.0203648 0.9180969 0.3576841
000130 ae ee de 3e 96 d5 44 3f 82 11 91 3f 6b e6 09 3f
       0.43541473 0.76888406 1.1333468 0.53867215
000140 33 d2 2d 3f 26 d2 0c 3f 08 49 c7 3f 36 7e 80 3f
       0.67898864 0.5500816 1.5569162 1.0038517
000150 70 9e 78 3f 77 7c a0 3f dc 3e e6 3e dd c1 6c 3f
       0.97116756 1.2537984 0.44969833 0.9248331
000160 d5 74 2a 3f 89 e9 83 3f 6c 9c 85 3f 82 01 93 3f
       0.6658452 1.0305644 1.0438361 1.1484835
000170 58 e2 5c 3f 1d a5 5b 3f 26 3a 46 3f 28 e6 79 3f
       0.86282873 0.8579882 0.7743248 0.97616816
000180 90 c0 0f 3f 48 1e e9 3e de 2b 5d 3f 16 84 87 3f
       0.561532 0.45530915 0.8639506 1.0587184
000190 5a a3 96 3f 59 35 1c 3f ce 5a 3c 3f 3c 64 b2 3f
       1.1768601 0.610189 0.73576057 1.3936839
0001a0 dd 64 16 3f 7a d0 24 3f 0e cc 87 3f e9 aa 18 3f
       0.58747655 0.6438061 1.0609148 0.5963579
0001b0 af 1b 26 3f 8f b9 3b 3f 8c 9b 4b 3f a5 a5 84 3e
       0.6488599 0.73330015 0.7953422 0.25907627
0001c0 94 4a 59 3f e3 f4 a3 3f 6e 67 1d 3f a0 0f d0 3e
       0.8487942 1.2809108 0.61485946 0.4063692
0001d0 06 ba 82 3f a1 f1 d6 3f d6 88 ca 3e 2c 52 cb 3f
       1.021302 1.6792489 0.39557523 1.5884452
0001e0 12 e4 86 3f 76 b5 a0 3f ba a8 4c 3f e4 b3 69 3f
       1.0538352 1.2555377 0.79944956 0.91290116
0001f0 fd d0 5f 3f 94 18 fd 3e 8b db 42 3f c4 e3 a4 3f
       0.87428266 0.49432814 0.76116246 1.2882009
000200 c0 1b fb 3e c2 fa 80 3f e3 f0 81 3f 09 2c 95 3f
       0.4904461 1.0076525 1.0151638 1.1654063
000210 21 44 5b 3f de 2c 0f 3f ac 95 91 3f 24 e9 45 3f
       0.8565083 0.55927837 1.1373801 0.7730887
000220 0d f7 41 3f f4 10 2b 3f 59 95 5b 3f c5 5a 0d 3f
       0.75767595 0.66822743 0.8577476 0.5521663
000230 c3 5d a2 3f c1 41 56 3f 1d 1f 05 3f 82 08 87 3f
       1.2684864 0.8369408 0.520006 1.0549471
000240 06 4f 3f 3f d9 cf 4d 3f 7f 89 0a 3f 24 69 7c 3f
       0.74729955 0.80395275 0.5411605 0.9859793
000250 52 ab 84 3f 88 35 2c 3f
       1.0364783 0.6726918
