ckpt/IAP/7/best_loss_BEST1.ckpt (torch, 225120 bytes, 19 tensors)

classifier.0.weight f4 [150, 48]
00000000: 62d4 d0bb d2cb 1f3e 8aca 0f3e 6d6a febd
00000010: 4646 e7bd c667 873d d91c 063e ace5 4e3f
00000020: c964 dbbd 9e9e 86bd cbda edbc b03a 9dbd
00000030: 638c b73e 60df a6be 2a28 f0bd cccf 69be
00000040: 7a5f a23d 416c 4abe c207 9cbc c237 1ebe
00000050: 4370 043f 9b90 16be 32e7 843c eda7 f93e
00000060: 965e d1bd 1939 b6be c109 4dbe d9a6 c43d
00000070: b75a f2bd fd3f 06be 0e4b 45bc 91fc e7bd
00000080: 8223 88bd 96d0 57bc de01 8f3d 8893 163e
00000090: 0164 843b cd10 dc3c 43b5 b6be 07a9 77be
000000a0: 94cc 31be cca7 403d 75f6 aebd 8dc5 b13d
000000b0: bcfb c5be 9bc9 49bd e33f 353e f7c2 2c3f
000000c0: 2439 7d3d 3c31 a63d f2db 41be 90b1 983e
000000d0: f41d 8bbe 78ff 85ba 4e5f ef3a cc6a aabe
000000e0: 9b69 0dbe c3c8 b0bc c6d1 09be ab25 82bc
000000f0: 5aa1 893e 842a 2f3e b819 453d 0c1c fe3e
00000100: 0dd6 913c 4fe7 403e a8e0 ecbd 3ab2 8abd
00000110: b786 dc3c cc36 943d ba1b 4dbe f2ee 853d
00000120: ad97 65be 98c7 ce3e 6800 783e 4936 373e
00000130: 2220 953e a4a7 743e 183c 6abe 14a6 f4bc
00000140: 91ab f9bc e9b4 2fbd fa86 c7bc d4e0 a13e
00000150: fe6f c1bd 0cf5 b5be ede7 0b3e 1967 1a3e
00000160: ed41 9a3a 7834 90bd 67de 91bd d15c 3e3e
00000170: 8b95 dbbc 9028 b03d 5452 603e 936e bcbd
00000180: 2326 2a3d 16f7 433c d692 283e 9211 f73d
00000190: fb87 cc3d 2eb0 f03e 3691 aebc 5932 373f
000001a0: 3c55 7a3d 551c 9ebc 8e46 473d de03 43be
000001b0: 027e edbd b46c 27bf 38c5 8cbe 1bc0 4fbe
000001c0: 070b fcbd 5cdf 4fbe 9ed3 02bb 634b 633e
000001d0: a61e 73bd 9c42 3dbc ed90 8abe b0bd b13e
000001e0: 5d16 9ebd ab00 c0bd 5bda 91be b18d 0fbe
000001f0: e771 083d da2a 7b3d 162f a23e b6c2 123e
00000200: dd57 133e 313e eb3d 6b41 253e 5a76 863c
00000210: 2a0a 2e3d c293 58bd 337e b4be 0962 6bbf
00000220: 3582 93bd 27df 013d 9000 4dbe 309f 063e
00000230: 2f44 d0bd 03e4 a8bd 335a 01bd bfce f03e
00000240: a5e4 4e3e 59ab 95bd 6354 44be a3d4 6ebe
00000250: 8dc0 16be b422 acbd 5e49 0fbe ee58 9f3e
00000260: fd47 36bd 2f27 45bd 855d 90be 1803 db3d
00000270: b74a 9b3e cac7 053e d645 2dbe 7baf 5a3e
00000280: 85e1 1d3e e534 e93d 2d42 86bd 2432 a53d
00000290: b9f1 b63d 0f61 c53d cdbb 65be 6daa 9f3e
000002a0: 5ba4 bcbc 7b2e edbc baad 103c cfbd 8c3e
000002b0: fed0 833c b5b5 a93e 1ee0 223e bdb6 853e
000002c0: 1d22 49bd fb9f a1bd e00d 2abe 790d fb3e
000002d0: 5083 163e 50e1 9cbd 47be 01bf 2335 b3bd
000002e0: 058e 2c3d 96e8 e63d ac33 00bd 227e 90be
000002f0: 4f7b f73b 5687 28be 8e32 bfbe 51d9 823e
00000300: c989 3abe 6306 7f3d aceb cd3d 5199 233e
00000310: 0e6b 1b3d ab62 003f 7f65 363e 80da a33e
00000320: e2ba 25be f409 d3bd b3a6 c83d 70c6 fabd
00000330: de53 7cbe eed0 41bf b56c 9cbe 3a85 3f3e
00000340: 9c0c babd 87cc 96bd 5ff9 72bd 9e88 263e
00000350: 6cd3 41bd 485c b93d 54d3 4b3d 5e4f ad3e
00000360: 9693 10be d68d 23be c3cb a2bd bc4a b7bd
00000370: 6a9c 173e f64d c83d 3858 953e 524f 953e
00000380: 20e2 45bd 180f 413d 38d8 413e 7d96 523e
00000390: a5cd 1a3d 02a5 a83d 4349 36be 79ef 3bbf
000003a0: 366c a4bd 8361 d53d 3c69 2dbe e618 14be
000003b0: 8bf7 c83c 5613 54be 3948 563e 8ffd ec3e
000003c0: 16e6 3b3d b4a7 fa3d 7845 ca3d a5b1 693e
000003d0: f981 123d b89c 763d 31db 203d 071c 203f
000003e0: e7e3 443d cb23 7bbd ece8 2a3d 9747 c33c
000003f0: 079e 863e 89aa 63bd 73ea 8cbd 691a f23d
-0.0063729743 0.15605095 0.14042106 -0.12422643 -0.112927005 0.0661159 0.13096942 0.808192
-0.107125826 -0.065732226 -0.029034993 -0.076772094 0.35849294 -0.32592297 -0.11726411 -0.22833174
0.07928367 -0.19767858 -0.019046668 -0.15450957 0.517338 -0.147036 0.016223524 0.4876093
-0.10223119 -0.35590437 -0.20023252 0.09602136 -0.11833709 -0.13110347 -0.01204182 -0.1132747
-0.066473976 -0.013172289 0.06982778 0.14704716 0.0040402417 0.02686348 -0.35685167 -0.24185573
-0.17363197 0.047035024 -0.08543102 0.08680258 -0.3866862 -0.04926453 0.17700152 0.6748499
0.06182207 0.081148595 -0.18931559 0.2982297 -0.2717129 -0.001022323 0.0018262656 -0.33284605
-0.13809817 -0.021580106 -0.13458928 -0.015887102 0.26880914 0.17106062 0.04812023 0.49630773
0.017802263 0.18838237 -0.11566287 -0.06772275 0.026919706 0.07237014 -0.20030108 0.06539716
-0.22421141 0.40386653 0.24218905 0.17891802 0.29126078 0.23892075 -0.22874486 -0.029864348
-0.030477317 -0.04289714 -0.024356354 0.31616843 -0.09445189 -0.35538518 0.13662691 0.15078391
0.0011768915 -0.070412576 -0.07122498 0.18590094 -0.026804706 0.08601487 0.21906406 -0.09200778
0.041540276 0.011960765 0.16462263 0.12063898 0.09986874 0.47009414 -0.021309476 0.715612
0.061116442 -0.01930062 0.04865127 -0.19044444 -0.115963 -0.6540024 -0.27494216 -0.20288126
-0.12306791 -0.20300049 -0.001996256 0.22196727 -0.0593554 -0.011551525 -0.27063695 0.34715033
-0.07719109 -0.093751274 -0.28486905 -0.14018895 0.03331175 0.061320163 0.3167655 0.14332089
0.14388986 0.114864714 0.16138236 0.016413856 0.042490162 -0.052875288 -0.35252532 -0.91946465
-0.072025694 0.031706955 -0.20019746 0.13146663 -0.10169255 -0.08246615 -0.03158016 0.47032735
0.20204408 -0.073080726 -0.19172816 -0.23323302 -0.1472189 -0.084050566 -0.13992831 0.31122535
-0.044502247 -0.04813307 -0.2819635 0.106939495 0.3033044 0.13064495 -0.16921172 0.21356003
0.1541806 0.11387042 -0.06555591 0.08066204 0.08932824 0.09637653 -0.22434922 0.31184712
-0.02302759 -0.028952828 0.008830482 0.27488562 0.016090866 0.33146444 0.15905806 0.2611598
-0.0491048 -0.07891842 -0.16606855 0.49033716 0.14698529 -0.076601624 -0.50680965 -0.087503694
0.042127628 0.11274831 -0.03129928 -0.28221232 0.0075525413 -0.16457877 -0.37343258 0.25556424
-0.18216623 0.06226195 0.100547165 0.15976454 0.037943892 0.50150555 0.17812155 0.3200264
-0.16184571 -0.10304633 0.0979742 -0.1224488 -0.24641368 -0.75709426 -0.30551687 0.18703166
-0.09084436 -0.07363229 -0.05931985 0.16263053 -0.04732077 0.090508044 0.049762085 0.33849615
-0.141188 -0.15972075 -0.07949021 -0.08949801 0.14805761 0.09780495 0.29168868 0.2916208
-0.048311353 0.047133535 0.18930137 0.20565219 0.037793774 0.08234598 -0.17801385 -0.7341228
-0.08028452 0.104189895 -0.16934675 -0.14462623 0.0245321 -0.20710501 0.20925988 0.462872
0.045873724 0.12239018 0.09876531 0.22821672 0.035768483 0.060208052 0.039271537 0.62542766
0.048068907 -0.06131343 0.041726038 0.023837848 0.2629244 -0.055582557 -0.06880655 0.118214436

classifier.0.bias f4 [150]
00000000: 3fdf 22be 6491 94bd 3cc6 6e3d a523 233e
00000010: 1874 21be 1dbf 233e 8209 943d 062a 8b3c
00000020: 6eb2 9bbe 9cdd adbd 9115 adba 3c37 feb8
00000030: 1d8b 993d 1f45 98be 54c6 383e ba77 1f3e
00000040: 65a3 303c 79ee 3f3e 57e6 843d 3fe6 5dbd
00000050: f3cc 9c3e 3b35 1fbe 559a c63c 717d de3b
00000060: 4e75 9ebd d687 82be 4163 57be 90b4 e8bc
00000070: 7970 6c3c 9a38 533e 508f 3f3e 7217 3bbd
00000080: 836d 9a3d 7ab3 183e c054 8d3d f84b 57bd
00000090: 1206 a33d e115 093d 8a07 e8bd 53b4 33bc
000000a0: 55a6 c6bd 418c 4e3e ecba 213d 3127 1abe
000000b0: e030 25be 37ec 36bd 9ae1 00be 194f 7bbe
000000c0: 3809 243d a428 33bd 840d 81bd 65cd 23be
000000d0: eff7 0dbd 76ca 353d a2bd 10be 4ea9 353e
000000e0: 7510 123e a798 c1bd ed04 e03d 4b53 80be
000000f0: 9cbb 0dbe d258 e23d ecbf 07be fcb9 f6bc
00000100: 3f54 a13e 5b67 55be 42df 20bd fca3 503e
00000110: 8e0a 1dbe ef89 eb3c 398b 9c3e 49a7 bebd
00000120: 5b5d 203e 16d7 9fbe 627a ef3d 2e1f 293e
00000130: 7fa2 2a3e 2ec2 60be 5e40 833d 4e0b 3f3e
00000140: 3f69 bfbd f758 32be 750e a7bc 1b14 ba3c
00000150: 987d 253e 10d1 efbd 7498 08be c425 a53d
00000160: 7c6d 8ebd d925 a7be 3ea9 63bd 558f 693e
00000170: 33d9 e33d 2b3e 09bd 2a58 b4bd f5c3 03bf
00000180: af69 a1bc fa11 d13d a44f 86bd 8977 ed3d
00000190: 4c09 aebe 5373 3d3e 6cad d1bd 9afb 063e
000001a0: 39fd aabe 67ab 733e 01ea 473e 544f 22bd
000001b0: 4bee 0e3e 90e7 cfba 8d1b 40be 9080 99bb
000001c0: dcfb 8c3e 9540 acbc 8424 4fbd 1fca 413d
000001d0: 09df c6bc c78f e9bd 0a64 933c 0e08 aabd
000001e0: 0a3d f63d 171e f23d c086 3ebe bc69 eebc
000001f0: 04ea af3d 1fbb fe3d b651 983e 926b 443c
00000200: a851 743d 4f27 5bbe e3e2 28be 4989 383e
00000210: 122a 903e 14ca 4dbe f41d 4c3e 1b31 87bd
00000220: 8330 86be f72d 78bd fb51 b43e fc23 aa3d
00000230: 7c7b 88bd ffc2 90be 814a 3e3d 0b40 c8bc
00000240: 7b24 0bbe 50f1 d6bd b385 32be 366d 133d
00000250: 4bad 7bbd f0f1 b63d
-0.15905474 -0.072542936 0.05829452 0.15931566 -0.15766943 0.15990873 0.07228376 0.016987812
-0.3040957 -0.08489534 -0.001320528 -0.00012121952 0.07497237 -0.29740235 0.18044406 0.15573016
0.010781144 0.18743314 0.06489246 -0.054174658 0.30625114 -0.1554765 0.024243513 0.006789856
-0.07737218 -0.2549426 -0.21033956 -0.028406411 0.014431112 0.2062706 0.18707013 -0.045676656
0.07540419 0.14912215 0.069009304 -0.052562684 0.07960142 0.03346813 -0.11329563 -0.010968286
-0.09699694 0.2017069 0.039484903 -0.15054013 -0.16131926 -0.044658866 -0.1258606 -0.24541892
0.040047854 -0.04373993 -0.06301406 -0.1599632 -0.034660276 0.044382535 -0.14134839 0.17740366
0.1426409 -0.09452944 0.109384395 -0.25063547 -0.13841099 0.110520974 -0.13256806 -0.030117981
0.31509587 -0.20840208 -0.039275415 0.20375055 -0.15336058 0.028752295 0.30574968 -0.09309251
0.15660612 -0.31218785 0.116932645 0.165158 0.1666355 -0.21949074 0.064087614 0.18656656
-0.09346246 -0.1741675 -0.020392636 0.022714665 0.16161191 -0.117097974 -0.13339406 0.08063844
-0.06954476 -0.32646063 -0.055581324 0.22808583 0.11125412 -0.033506554 -0.088058785 -0.5147088
-0.019703714 0.10208507 -0.06558159 0.11595065 -0.33991468 0.18501024 -0.10238156 0.13181916
-0.3339632 0.23795854 0.19522859 -0.039626434 0.13958089 -0.0015861858 -0.1876051 -0.0046845153
0.27535903 -0.021026889 -0.050571933 0.0473119 -0.024276273 -0.114043765 0.017992038 -0.083023176
0.12023361 0.118221454 -0.1860609 -0.029103152 0.08589557 0.12438034 0.2974984 0.011988537
0.059648186 -0.21401714 -0.164928 0.1802112 0.28157097 -0.20096618 0.19933301 -0.06601163
-0.26208887 -0.06059071 0.35218796 0.08307645 -0.06664178 -0.2827377 0.04645777 -0.0244446
-0.13588135 -0.104952455 -0.17433815 0.035992824 -0.061444562 0.08932865

classifier.1.weight f4 [150]
00000000: bf4f 5b3f f28a 833f c1d0 663f 3455 1d3f
00000010: 957f 663f 869d 3b3f 452e 5a3f 9071 403f
00000020: 8218 363f 95f7 383f 2115 2d3f cefc 5b3f
00000030: 5f89 4d3f 4f4b 3a3f b1ec 753f 0e2a 293f
00000040: f6bb 503f 3c3f 393f c67a 3f3f 45a9 573f
00000050: 66b7 6b3f 7fb7 343f 121f 283f a5e5 4b3f
00000060: ad89 573f b57e 6b3f 3e74 5f3f b0e6 513f
00000070: b604 493f b6be 5d3f 32c9 4d3f d1ca 073f
00000080: bf5d 703f e466 713f a4d7 723f d493 603f
00000090: bb98 5e3f eabe 463f 19e1 423f 845a 363f
000000a0: eed5 623f ffa0 543f 6cb9 763f fdea 513f
000000b0: ead2 543f 7af8 583f 0d85 5c3f 9e90 813f
000000c0: 1ecf 2a3f bdf0 333f d4d5 493f 6624 8a3f
000000d0: 034a 3d3f 3a07 793f 1a78 8e3f 0cff 143f
000000e0: 4f7d 703f 66fd 833f c588 453f 23bc 683f
000000f0: 9853 4e3f fd82 643f fa91 283f 4cfc 5a3f
00000100: 1eb4 653f 0cec 893f b150 513f c0b3 563f
00000110: f123 453f 5100 6e3f db7e 253f dcdd 523f
00000120: 407d 773f f5f4 4c3f a095 5d3f 02fb 4c3f
00000130: 93c3 5d3f 6e49 3c3f 4bcc 6e3f 26de 683f
00000140: 7d15 453f 3365 543f 7f1a 053f aca4 483f
00000150: 7805 5c3f d667 693f 9875 5d3f c907 583f
00000160: 025d 4c3f 4f30 813f 8a4f 463f a1c2 3d3f
00000170: 495c 923f 1a3a 6f3f 7773 583f f22d 383f
00000180: cea2 3d3f 2080 803f c6e7 583f c0c5 243f
00000190: 6046 7c3f e3b8 4e3f 215d 663f 5a80 603f
000001a0: a2b6 303f 2b66 2b3f 1242 7e3f 7679 433f
000001b0: cc59 613f a8c4 283f 90e4 703f 3ee4 853f
000001c0: 262a 623f e2d3 6f3f 9eac 8a3f a100 5d3f
000001d0: db48 693f ac14 683f 940f 513f 3e51 6a3f
000001e0: 892d 363f 1759 2e3f a56c 6f3f 85bd 243f
000001f0: 410e 283f a4ba 533f 8466 563f 05c2 273f
00000200: 0b76 673f a9c6 2c3f 63af 4b3f b512 523f
00000210: fccf 4c3f 1c2b 553f 890d 383f c097 223f
00000220: 6ace 2a3f dd9f 703f a545 613f d2c7 433f
00000230: 3d85 793f f059 653f 15fd 6c3f 2189 623f
00000240: 1201 243f 13e6 683f 8fb3 203f 2155 873f
00000250: 6954 633f 3bd8 613f
0.8566856 1.0276778 0.90162283 0.61458135 0.90038425 0.73287237 0.8522685 0.7517328
0.71131146 0.7225278 0.67610365 0.85932624 0.80287737 0.7277116 0.9606429 0.66079795
0.81536806 0.72362113 0.7479671 0.8424266 0.9207672 0.7059249 0.6567241 0.79647285
0.8419445 0.91990215 0.87286747 0.81992626 0.78522813 0.86619127 0.80385125 0.5304385
0.93893045 0.94297624 0.9486029 0.8772557 0.869518 0.7763506 0.7612472 0.71231866
0.8860768 0.8305816 0.9637668 0.8199919 0.8313433 0.84754145 0.8614052 1.0122259
0.66722286 0.7028921 0.788419 1.0792358 0.7394106 0.9727665 1.1130402 0.5820167
0.93941206 1.0311706 0.7716182 0.90912074 0.80596304 0.8926237 0.6584774 0.85541224
0.8972796 1.0775161 0.8176375 0.83868027 0.7700797 0.9296923 0.6464669 0.8236978
0.9667549 0.80061275 0.86556435 0.8007051 0.8662655 0.73549545 0.93280476 0.9096397
0.76985914 0.8296692 0.51993555 0.7837627 0.85945845 0.91174066 0.8650756 0.8438688
0.7982942 1.0092868 0.77465117 0.74125105 1.1434413 0.9344803 0.84551185 0.71945107
0.74076545 1.0039101 0.8472866 0.6436424 0.98544884 0.80750865 0.89985853 0.8769585
0.69028676 0.6695277 0.99319565 0.7635721 0.88027644 0.65925074 0.9409876 1.0460279
0.88345563 0.9368268 1.0833929 0.86329085 0.91126794 0.9065654 0.81664395 0.91530216
0.7116323 0.6810469 0.93525153 0.64351684 0.6564675 0.82706666 0.83750176 0.65530425
0.90414494 0.6749063 0.79564494 0.82059795 0.8000486 0.83268905 0.71895653 0.635128
0.6672121 0.9399393 0.87996894 0.76476777 0.9746893 0.8959036 0.9257367 0.8849049
0.64064133 0.90976065 0.62773985 1.0572854 0.88800675 0.88220567

classifier.1.bias f4 [150]
00000000: da0d 30bf b353 b3be 1ead 1cbf c994 9cbe
00000010: 8365 00bf 5cf5 19bf 4bf9 a0be 7743 17bf
00000020: f228 50bf f73a 25bf 633d d1be 8fa1 9fbe
00000030: dfe1 f3be 3a7f fbbe d705 0dbf 4f98 b7be
00000040: 7121 27bf a929 9fbe 7429 00bf ffae b1be
00000050: ad49 80bf 15ae 28bf 536c 19bf 6872 a7be
00000060: 1c73 10bf 93ab 06bf 6cbd 1abf 743f 2bbf
00000070: 6c93 82be ebf9 c4be 7b74 e3be dcbb 06bf
00000080: ed9b edbe 52b8 1ebf 9189 dcbe f6f7 20bf
00000090: 5903 1cbf a367 acbe b95a bdbe f466 c4be
000000a0: 769a 0bbf a4d7 f3be d1d2 fdbe 8b80 3dbf
000000b0: 0314 1abf 67d7 36bf c993 c3be 1eda babe
000000c0: 6172 37be ac42 79be a097 e9be 0441 18bf
000000d0: 9315 a1be 7d19 05bf 25c4 e2be 00c4 b0be
000000e0: 6df7 16bf 85b2 16bf 3646 04bf fbb9 b7be
000000f0: bb20 c5be 3c6d 57bf 7591 bfbe 4445 d5be
00000100: 2d98 02bf 780b ffbe 0ac0 bcbe 4453 a4be
00000110: 930d 37bf 9c38 debe de8d 88be fd71 debe
00000120: 13ce 35bf a455 05bf 1b07 03bf e543 abbe
00000130: 2cad 0ebf 117d b4be 6c3b 14bf 9be5 35bf
00000140: df1b d9be 70f1 17bf 9fd2 9ebe 1504 f0be
00000150: 5641 f1be 4783 b4be c8b0 1fbf 2442 b2be
00000160: a861 aebe 4788 0cbf 495b 07bf 4487 5dbf
00000170: 45d6 25bf e476 27bf 8a86 30bf 05c4 c2be
00000180: 8ed4 6dbe da63 25bf 3553 07bf f107 90be
00000190: cd2c 91be cdf0 e1be c293 1abf 54f2 4bbf
000001a0: 8d0f 91be ea68 43bf 448b d5be de3b 0ebf
000001b0: ba46 0cbf 7c6d bcbe c5da 1abf 9f3b d8be
000001c0: 26b1 01bf 4adf f7be a2c8 f5be d56f 2ebf
000001d0: b137 1ebf c861 72be 5d82 ddbe 51f3 a0be
000001e0: ab8a 23bf 2ab4 d1be 70c9 c1be d98f a1be
000001f0: cd37 80be dd5e d9be ee4f 24bf 56ca 19bf
00000200: 21bc 7ebe 2d85 edbe 7d3c 17bf 8c9a cbbe
00000210: c2fc 8bbe 65e9 a3be 6df0 2fbe e345 a8be
00000220: 420b c2be cd79 e0be 92de 41bf 2c43 ecbe
00000230: 5063 d5be 7d20 88be f361 fabe 66ef 31bf
00000240: 0cb9 c0be ccfe f5be 1789 67be fbbb e8be
00000250: 1078 01bf 24f5 fabe
-0.68771136 -0.35024795 -0.61201656 -0.30582264 -0.50154895 -0.60140014 -0.31440195 -0.5908732
-0.8131248 -0.645431 -0.40867147 -0.31177947 -0.47633263 -0.49120504 -0.55087036 -0.3585839
-0.652854 -0.31086472 -0.5006325 -0.34703824 -1.0022484 -0.6589063 -0.59930915 -0.32704473
-0.5642564 -0.5260555 -0.60445285 -0.66893697 -0.255031 -0.38471922 -0.44424805 -0.526304
-0.46408024 -0.62 -0.43073705 -0.6287836 -0.6094261 -0.3367282 -0.36983278 -0.38359797
-0.54532564 -0.47625458 -0.49574903 -0.74024266 -0.60186785 -0.7142243 -0.3819869 -0.36494535
-0.17914726 -0.2434184 -0.45623493 -0.59474206 -0.31461772 -0.5199202 -0.4429027 -0.34524536
-0.5897129 -0.5886615 -0.51669633 -0.3588408 -0.38501534 -0.84151053 -0.37415662 -0.41654408
-0.5101345 -0.49813437 -0.36865264 -0.32094777 -0.7150509 -0.43402565 -0.26670736 -0.4344634
-0.7101757 -0.520838 -0.5118272 -0.33450237 -0.5573299 -0.35251668 -0.5790317 -0.71053475
-0.42404076 -0.5935278 -0.31020066 -0.46878114 -0.4712016 -0.35256407 -0.6237912 -0.34816086
-0.3405888 -0.5489544 -0.52873665 -0.86534524 -0.64780074 -0.6541579 -0.6895529 -0.38040176
-0.23225614 -0.64605486 -0.5286134 -0.2813106 -0.28354493 -0.4412903 -0.6038171 -0.7966664
-0.28332177 -0.7633196 -0.41707814 -0.555601 -0.5479542 -0.3680228 -0.60490066 -0.42232987
-0.5066093 -0.48412544 -0.48004633 -0.6813939 -0.6180373 -0.23670113 -0.43263522 -0.31435636
-0.63883466 -0.40957767 -0.37848997 -0.3155506 -0.25042573 -0.42455187 -0.64184463 -0.60074365
-0.24876453 -0.46390668 -0.5907667 -0.39766347 -0.27341276 -0.32014003 -0.17181559 -0.3286582
-0.37899214 -0.43842927 -0.7573024 -0.46144998 -0.41677332 -0.26587287 -0.48902854 -0.6950592
-0.3764118 -0.48045957 -0.2261089 -0.45455918 -0.50573826 -0.49015152

classifier.1.running_mean f4 [150]
00000000: 9b19 0fbf 915c ed3d 67fc 6ebd 33c6 123e
00000010: e1e7 dfbe 84ba 783f 406b 723e e356 203e
00000020: b85f 85bf 0abc ab3c 1f6d fbbe 036c 2a3d
00000030: 64fc d73b 6394 29bf 867b c83e 85e1 9bbd
00000040: a85e e03e 9469 5abe 8360 5a3e c294 d63e
00000050: ae86 6d3f ed66 7c3d ae78 c2be a076 8b3e
00000060: bef8 1e3e f966 acbe 7969 243d 6599 b8bd
00000070: 2aa0 dabc e238 1b3f 584c 693f d716 0abf
00000080: 9358 1fbe d079 763f 3178 0a3d a463 e8bc
00000090: d98f 3dbe 1d86 263f f73c 93be 7e69 313d
000000a0: 25c0 34bc 9700 ed3e d8a9 c8bd d93a bbbd
000000b0: fafe f9bd 3bc2 d53e 332a adbe a8af e8be
000000c0: 9d90 b83d 0ebe 83be f4aa bc3d c047 91bd
000000d0: 1555 d2bb 7882 a3bd e6d1 f3be d67a 803f
000000e0: f538 4a3e c859 b3bd f929 963d 363e 2ebf
000000f0: 2778 07bf 817a 373f 284d 1ebe 49df c43e
00000100: bcb9 e13c a2fa e2be 7737 01bf 91f1 a83d
00000110: 96af 4fbf 1695 243e b13c b53f 89c4 4cbe
00000120: c4d0 7bbd 995e 81be 605d ca3d 587b dcbe
00000130: 2fe1 e53d 3e52 40bf cadb 423c 7811 2b3f
00000140: 12c6 89bf 54ca 18bf 023b 85be 0274 01be
00000150: 204b 873e d3a4 85bd 2d04 c6bd 6066 f23c
00000160: cade 2c3d 9b11 abbf be70 713d 6084 413e
00000170: 44ff 793d 26a0 a63b b68a c53d 667e b0bf
00000180: ba5c fdbe fe66 ad3e a328 053d a661 2bbe
00000190: 86a5 9fbe eab4 bf3e 3e33 0e3f e575 143e
000001a0: 9b5e 61bf bd36 c23a 768f 20bd 3842 aabd
000001b0: fcdb e7bd ef9f d5be f3d6 2ebf 596f fdbe
000001c0: 2d32 653f 2030 25bd 57d5 bcbe 3994 5f3e
000001d0: 5349 8bbe aba5 aa3e 8463 ad3a 0a33 753b
000001e0: 1f9a e53d 93c0 58be 37df ddbe 04fb 39be
000001f0: b8f3 3a3d c885 8c3e c42f 743f 5242 87bd
00000200: 80f4 8f3e 5f46 98bf 2592 f6be 2f1d 82bd
00000210: ca64 753f 150f 5dbf fcdf 223e 1981 783e
00000220: e206 4abf ca32 14bf c80e 283f 9cc4 c13e
00000230: 8430 a4be 49c5 2ebf f1b4 423d 5e39 d53e
00000240: 49b0 6bbf f9b2 c63d 3e2d 46bf 711e 5bbd
00000250: e70f 7bbe 8be9 bbbd
-0.55898446 0.11589921 -0.05834618 0.1433342 -0.43731597 0.971596 0.23673725 0.15658145
-1.0419836 0.020963687 -0.4910669 0.041606914 0.0065913666 -0.66242045 0.3915674 -0.07611374
0.43822217 -0.21329337 0.21325879 0.41910368 0.9278363 0.061621595 -0.37982696 0.2723894
0.15524575 -0.33672312 0.04013965 -0.09013633 -0.0266877 0.6063367 0.91132116 -0.539411
-0.15561132 0.9627962 0.03380603 -0.028367825 -0.18511905 0.6504839 -0.2875745 0.043313496
-0.011032139 0.46289513 -0.0979802 -0.09142084 -0.12206836 0.4174975 -0.33821258 -0.45446515
0.09011958 -0.25730938 0.09212294 -0.07093763 -0.006418834 -0.07983869 -0.47621077 1.0037487
0.1974829 -0.08757359 0.073322244 -0.68063676 -0.5291771 0.716713 -0.1545912 0.38451603
0.027554385 -0.44331843 -0.5047526 0.082492 -0.811273 0.16072497 1.4159147 -0.19996847
-0.06147839 -0.25267485 0.09881091 -0.43062854 0.11224591 -0.7512549 0.011893222 0.6682353
-1.0763571 -0.5968373 -0.26021582 -0.1264191 0.26424503 -0.06525578 -0.09668765 0.029589832
0.042204656 -1.3364748 0.05894541 0.18898153 0.061034456 0.005085009 0.09645598 -1.3788574
-0.49484807 0.3386764 0.032509457 -0.16736469 -0.31180972 0.37442714 0.5554694 0.14498098
-0.8803498 0.0014817339 -0.039199315 -0.083134115 -0.113212556 -0.41723582 -0.68296736 -0.49499014
0.8952969 -0.0403291 -0.36881515 0.21833886 -0.2720438 0.3332952 0.001322851 0.0037414455
0.11211037 -0.21167211 -0.43334362 -0.18162161 0.045642585 0.27445817 0.95385385 -0.066044465
0.28116226 -1.1896476 -0.48158374 -0.063532226 0.95856917 -0.8635114 0.15905756 0.24267997
-0.7891675 -0.5789 0.65647554 0.37845314 -0.32068264 -0.68269783 0.04753584 0.4164533
-0.92065865 0.09702105 -0.77412784 -0.053495828 -0.24517785 -0.09175404

classifier.1.running_var f4 [150]
00000000: f8c6 8b39 c227 d23a c8e9 ba3a bd36 183b
00000010: d55b 793a c136 ae3a f794 553a 7a13 fa39
00000020: dc32 f339 871e e339 42de 2a3c f0f4 0b3a
00000030: 6edb 753a 6794 823a 2d11 ff39 e26b 033c
00000040: fa47 013b 8fb3 8a3c ce3d 843a cd1d 733a
00000050: b237 b639 c2e2 593a c85d 903a 2eed d03a
00000060: c6e1 053b fe76 363a 1f5b 2f3a 8274 793a
00000070: 73a1 d33b 6a7f d039 8172 863a 9858 c13b
00000080: 27d7 823b 9633 333a 14b2 1b3a 354d 8a3a
00000090: 812e 473a 741d 5f3a cac7 4c3a 84d4 df3a
000000a0: 10dc 7d3a 6a70 7a3a 2d48 563a 948f 843a
000000b0: 2fb5 413a 4d56 d33a e53e 203b cca4 a63a
000000c0: dd5e de3b f861 523b ec90 833a 28a9 3d3a
000000d0: d612 9d3b 010f 7c3a e696 4e3a ba2f 803a
000000e0: 74dc f139 35be 023a 986f 853a 3908 093a
000000f0: 2a21 f13b d7e9 ed3a 5ad3 283b dc34 8c3a
00000100: 12a7 103b 9a82 7d3a a7ee b13b e880 853a
00000110: 6299 a03a e42d 243a d412 2d3b 36de 9b3a
00000120: 8c80 3e3a 78e4 763a 0ee1 cf3a fadb bb3b
00000130: 17d2 5b3b 7a9b c43b 4cd9 a839 23a6 f939
00000140: 8bfa da3a d704 9b3a 3f3d 753c 8c29 063b
00000150: 72fe cb3a 8d0a 7a3a 98df 333a dda8 083b
00000160: e8dd dc3a cada 163a ac94 533a 2a2e e139
00000170: 17b3 443a e49d 053a 4820 713a 46b0 943a
00000180: b991 c13a 55f1 a53a 4313 c63a eba7 8d3b
00000190: a58c e23a d9a9 073b 1cee 683a bcf7 a93a
000001a0: dd44 123b 6a70 313a 8c1b 113b 2541 9d3a
000001b0: 9d85 b63a 1d5a 7c3b b975 773a e29e 3c3a
000001c0: 5b89 613a 420c 0e3a bf43 433a ecb6 b03a
000001d0: 70d7 1f3a 084d 0c3b 7e83 1c3b c87d 513a
000001e0: 4c46 843a eeef 053c d4f6 8e3a 0a02 b13b
000001f0: 321b cb3b 4ed8 eb3a 104c 493a 69e9 1d3b
00000200: 3292 3e3a 919b 123b 1315 383a 10d2 753a
00000210: 0934 843a 5f7b 523a e8ca 313b 0686 cb3a
00000220: 58ac ea3a e1fb 6d3b feda 673a aa2e 403a
00000230: 3df2 cf3a fcb6 fe3a 6804 973a c092 673b
00000240: cdfb 363c 48c9 843a 8354 583b 2921 4e3a
00000250: 8c7c 9b3a 252c 2d3a
0.0002666039 0.0016033577 0.0014260346 0.0023225986 0.000951228 0.0013291464 0.00081475027 0.00047698227
0.00046386465 0.0004331956 0.010428967 0.0005338928 0.0009378706 0.000996244 0.00048650187 0.008021327
0.001972674 0.016931323 0.001008922 0.0009274155 0.0003475524 0.00083116826 0.0011014277 0.0015939826
0.002042876 0.000696048 0.00066892983 0.0009515957 0.006458455 0.00039767782 0.0010257513 0.005900454
0.0039929333 0.0006835995 0.00059393165 0.0010551574 0.0007598177 0.0008511164 0.00078117533 0.0017076884
0.0009683976 0.0009553494 0.0008174207 0.001011359 0.0007389364 0.0016123742 0.002445155 0.0012713908
0.006786211 0.003210185 0.0010037697 0.0007234984 0.004793505 0.0009615273 0.0007880762 0.0009779849
0.00046131352 0.00049874495 0.0010180352 0.00052273605 0.00735869 0.0018151355 0.002576074 0.0010696906
0.0022072238 0.0009670645 0.005430061 0.0010185512 0.0012252743 0.0006262942 0.0026408928 0.0011891786
0.000726708 0.00094182 0.0015859918 0.0057330104 0.0033541971 0.0059999796 0.00032205356 0.00047616762
0.0016706748 0.0011827004 0.0149682155 0.0020471541 0.0015563502 0.00095383154 0.0006861626 0.0020852603
0.0016850801 0.0005754648 0.0008071165 0.0004294974 0.0007503493 0.0005097075 0.00091982307 0.0011344037
0.001476816 0.0012660424 0.0015111942 0.004322996 0.0017284347 0.0020700602 0.0008885579 0.0012967507
0.0022318878 0.0006768765 0.0022141663 0.0011997564 0.0013925318 0.003850586 0.0009439844 0.0007195306
0.00086035364 0.00054186967 0.00074487546 0.0013482249 0.00060974713 0.002140822 0.0023882086 0.000799146
0.0010091751 0.0081748795 0.0010907301 0.0054018544 0.0061983103 0.0017993541 0.00076788757 0.0024095422
0.00072697096 0.0022370557 0.0007022183 0.000937731 0.0010086308 0.0008029248 0.0027128998 0.0015527613
0.0017904146 0.0036313462 0.0008844583 0.0007331172 0.0015865039 0.0019433196 0.0011521699 0.0035335273
0.011168432 0.0010130787 0.0033009357 0.00078632176 0.0011862679 0.00066060043

classifier.4.weight f4 [150, 150]
00000000: d47a 8c3c 0c95 b4ba c50e b73d c21b 06be
00000010: 3c22 593e 09fd d8bc 2c99 50be 0a33 243d
00000020: cf77 f2be 9999 963d 2623 98bc ba75 c0be
00000030: 4ac6 05be a56c da3c 8a19 1dbe 1fc3 d23d
00000040: 3d95 493e 2c4a a4bd 5cd2 e83d be49 43bd
00000050: 31c1 dd3d e2c5 5dbe 2703 1fbd 7f15 40bd
00000060: 726e ac3d 514a 3f3c 7a73 a2bd bb75 dabd
00000070: 4906 8c3c 63e3 e9bd d889 423d 8d0f d7bc
00000080: 7164 b13d ea6e e9bb 89d9 80be 6f19 e8bc
00000090: f68f bebc 9142 bf3c 417c a4bd e523 333d
000000a0: dad8 0d3c 0bd9 fa3d 824a d33e ec02 a93e
000000b0: 41e7 e83d 225f 963e 397c 683d e4c5 933d
000000c0: 2801 98bb 981d 6cbd 9782 04be f36e 73be
000000d0: 63e6 6d3c 4f28 a9bd d880 803d d3c3 643d
000000e0: 6a10 b4bd 63cf 7ebe edc7 1dbe ea6a 793d
000000f0: 1e59 40bd bbb4 c13e 1d70 f03c 19d1 0e3d
00000100: 9534 a33d 7cd0 e63b 419d 423d 1c0f 81be
00000110: 8397 bcbd c3b9 e1bc 1e1f 20bd 692c 42bd
00000120: 1d9d c6bd f23b 9cbd 7fc5 453e 4b5d 17be
00000130: a9c8 663c bbbe 51be 48ec e8bc bd4f 6ebd
00000140: f769 c3bd 0043 cebd d717 99bd da50 f93b
00000150: f7e0 083e ab79 f93c a619 6cbe 3cb9 a43d
00000160: c469 513d 6ed1 4abd f7cf f23c 85b7 13be
00000170: fc45 3f3d ba83 03be fa23 9d3d b2c5 3bbe
00000180: a912 e0bc 2b30 213e 448a 6c3b 4574 c53d
00000190: cd66 2ebd 475b 4e3c 56a1 b4bd a3b9 413d
000001a0: 1f79 abbc e14a 05be f26a 143d 2bb1 92bd
000001b0: b297 3a3d f637 a93d e948 953b 0f7d 1d3e
000001c0: ffba 093d 55a9 6cbe e77e 3c3d f0c2 c2be
000001d0: cc3d afbc 93dd 883d 35ea 643d c0b3 933d
000001e0: 71ac b7be baa8 c33c d5ec 093c 4dd6 13be
000001f0: c984 15bc e3d3 163e 0982 26bd 6be3 b9be
00000200: f18b 55be ac90 d83d 307f babb 2e22 01bf
00000210: 6ad5 703d 665a e93c e649 a0bd 90c1 1d3c
00000220: 02bd e13d fe16 4f3e 56ce a93a dc67 bb3d
00000230: f7af 71bc a78d 3b3c b46e 40bd de12 143f
00000240: 3306 703c ed44 883e eeae f1be e1a1 9ebe
00000250: 6e16 1e3d 6f55 29be f42c ab3e 8731 d9bd
00000260: 621c a13d 9ca2 0abe 1036 1bbd 359d 0f3d
00000270: f029 033e c30f 99bd d130 583d d9a1 793d
00000280: ae04 99bd afe6 a03d 6066 863d 5b24 4c3d
00000290: 32ff d8bc d735 28be d077 0fbd 6844 4dbd
000002a0: a992 25be a464 753c 127d c93d 90de 1abe
000002b0: 4fb0 1ebd 6e9d adbd db4b 093d e35d 75bd
000002c0: 6e57 36bd 45fc b33b d656 a8bd ea4a 9dbd
000002d0: 8e38 a4bc 528d ddba 802c 023c ef3b 16bc
000002e0: 30ab 2fbe 4682 d3be 3e0d c7be 95b4 87be
000002f0: 06fc 1fbe 6df9 dabc 8abf 133e 9604 03be
00000300: a7ef 2a3e ac71 c6bd b9e8 b3bd 47eb 9abd
00000310: 81b3 00be 5727 a4be f0b8 853d 2261 003c
00000320: a96c 0ebe 00d3 fdbd be2f 953d 930a 33be
00000330: 95a8 2cbd 4894 30bd b860 ddbe 65bb 68be
00000340: 44f2 41be 0d48 c5bb de06 e2bc 598a b1bc
00000350: a7d6 203d 9a30 b3bd 8b41 e83d 8bc3 49be
00000360: 59da 32bd 17cb 1abe c5ca a63e 4fcc 11bc
00000370: e505 683d 9f5e 0e3d 2737 053e ec18 c3bd
00000380: 4962 d3bd fa29 25ba 99d3 e1bd 4b81 7f3d
00000390: eaa8 acbe fc28 4b3e f605 7c3d 0264 eabd
000003a0: 7187 afbb 9b7b fbbe 5b89 4abd f67c 0dbe
000003b0: d552 71be 1ac8 25bd 9ea8 41bb f192 8a3e
000003c0: 859a 083d c613 853c de9f dabd 5e30 0cbe
000003d0: aa8d 82bc b219 8abc b824 95bd 6c3e 323e
000003e0: a2db e43d daaa 7abd 5293 89bd 406a 1bbf
000003f0: 412c 903d 7699 b6bd cde7 99bd 3abd 1d3e
0.017148413 -0.001377733 0.08938364 -0.13096526 0.21204466 -0.026487844 -0.2037093 0.040087737
-0.47357032 0.07353515 -0.018571448 -0.37589818 -0.13063923 0.026663134 -0.15341774 0.10291123
0.19685836 -0.0802196 0.11368248 -0.047677748 0.10827864 -0.21657518 -0.038821366 -0.0468955
0.08419503 0.011675433 -0.07932182 -0.106669866 0.01709284 -0.11420324 0.04749474 -0.026252532
0.08661736 -0.0071238177 -0.25165966 -0.02833244 -0.023262005 0.023347171 -0.08031512 0.043735404
0.0086576585 0.12248429 0.41267782 0.33010042 0.11372233 0.29369456 0.056759093 0.07215479
-0.0046388097 -0.05764541 -0.12940441 -0.23772793 0.0145202605 -0.082596414 0.06274575 0.055850815
-0.08792193 -0.24883799 -0.15408297 0.060892977 -0.04695999 0.378332 0.029350335 0.03486738
0.079690136 0.0070438962 0.04751325 -0.2520684 -0.09208586 -0.027554398 -0.039092176 -0.047405634
-0.09697936 -0.07628621 0.1931362 -0.14781682 0.014085927 -0.20482914 -0.02843298 -0.058181513
-0.095416956 -0.10071373 -0.0747525 0.007608515 0.13367067 0.030453524 -0.23056659 0.08043143
0.051126257 -0.049516134 0.029640181 -0.14425476 0.0466976 -0.12843218 0.076728776 -0.18337134
-0.027352648 0.15741031 0.0036093155 0.09641317 -0.042578507 0.012595004 -0.08819835 0.047296178
-0.020931778 -0.13016845 0.036234803 -0.07162698 0.045554824 0.08262627 0.0045558107 0.15379737
0.0336256 -0.2311147 0.04601946 -0.3803935 -0.021391772 0.06682887 0.05588742 0.07212019
-0.3587375 0.023884166 0.008418282 -0.14437218 -0.009125897 0.14729266 -0.040651355 -0.3630632
-0.20854165 0.10574469 -0.0056914315 -0.5044278 0.058797278 0.028485488 -0.07826595 0.009628668
0.110223785 0.20223615 0.001295517 0.09150669 -0.014751426 0.011447347 -0.046980575 0.5784129
0.0146499155 0.26615086 -0.47203773 -0.3098288 0.03859561 -0.16536497 0.33432734 -0.1060515
0.07866742 -0.13538593 -0.037893355 0.035062034 0.12808967 -0.074737094 0.05278093 0.060945366
-0.07471596 0.078564994 0.06562495 0.04983936 -0.026488874 -0.16426788 -0.03502637 -0.050114065
-0.16169228 0.014977608 0.098383084 -0.15123963 -0.03874236 -0.08477293 0.033519607 -0.05990399
-0.044516973 0.0054927194 -0.08219688 -0.07680304 -0.020046499 -0.0016903079 0.00794518 -0.009169563
-0.17155147 -0.41310328 -0.3887729 -0.2650496 -0.15623483 -0.026730264 0.14428535 -0.12794718
0.16692983 -0.0968965 -0.08784623 -0.07564407 -0.12568475 -0.32061264 0.06529415 0.007835658
-0.13908638 -0.12393761 0.07284497 -0.17484502 -0.04215296 -0.043110162 -0.43237853 -0.22727735
-0.18940073 -0.006020552 -0.027591165 -0.021672415 0.03926721 -0.087495044 0.11340626 -0.197035
-0.043665264 -0.15116535 0.32576576 -0.008898809 0.056646246 0.034758206 0.1300932 -0.09526238
-0.10321481 -0.00063005055 -0.11026687 0.062379163 -0.3372262 0.19839853 0.061529122 -0.11444856
-0.005356722 -0.4911774 -0.0494474 -0.138172 -0.23566754 -0.040474035 -0.0029549967 0.27065232
0.033350486 0.01624478 -0.106750235 -0.13690326 -0.015936691 -0.016857956 -0.07282394 0.17406625
0.11174704 -0.061198093 -0.06717552 -0.60709 0.07039691 -0.08915989 -0.075149156 0.15404215

classifier.4.bias f4 [150]
00000000: 7a6f 823d 9b5a aabc f99a af3c 54b3 74bd
00000010: 3fb1 debc 02d5 e93c 10c7 d33c 11f5 96bc
00000020: 7fa1 43bd 8bfe 1abd 1d03 733d 27d7 e9bd
00000030: 70b1 ba3d 24d2 adbc eb95 dd3c 955c 6fbd
00000040: 0c87 53bd 5d01 813c cbf9 923d f3bd 9b3d
00000050: d666 1cbd 32b9 903d 5848 0abb b75e f03c
00000060: 39c6 25bd ab0f c8bd 040b ec3c ec00 7039
00000070: 0670 8d3d b8b2 d83d 9caa a53c e150 b53c
00000080: 9206 43bd ebdc 02be 8a42 61bd a89b cebd
00000090: 32d5 30bd 37f1 673c 2c43 05be cead 4b3c
000000a0: 80b8 3c3b 477e 553c f36a b33d 9119 68bd
000000b0: 1982 af3d e678 bdbc be4a 923d 3a8c a63d
000000c0: c954 c0bd fccb 7dbc 6478 d03c 4ac5 403d
000000d0: 361c 263c daa9 1cbd 9062 cc3d 8090 26bd
000000e0: 1cce c9bc 6bd9 d73c 1e9c 82bd c5a8 8dbd
000000f0: fb70 b23d 8718 e6bc f481 ab3d c00d 83bc
00000100: 7695 11bd 0962 543d 97cf e73b 26c5 a03d
00000110: 7064 c6bd 93c8 f6bc 218e 73bc 7546 d23c
00000120: 6287 b03b e293 9bbd 3d15 acbd 3f38 c13c
00000130: b1ad e9bd bef6 80bd e7a9 93bc bd95 1f3d
00000140: 1752 84bc 105e 71bd 4be2 17bd b4a2 6bbd
00000150: 513f 08bd 1891 bcbd d5b7 bbbd 8a9f 67bc
00000160: 8e1d bbbd 184b d1bd 0083 eb3d 45fa ce3c
00000170: b13c 073d d2a9 09be 722e 6dbd b66c 6bbc
00000180: 2666 38bd e239 893d 4e34 113c 4923 e8bd
00000190: 4ae8 973d c5f7 9d3d 8814 ce3c b3ed 9f3d
000001a0: 0f7e 26bd 7942 9fbd 9a22 233d 8af8 1a3e
000001b0: 264b 49bd b5cd 2dbd ba76 38bb 75e5 f03b
000001c0: f19c 5d3d 4ce8 c8bd ca74 d0bc 5b6d 15bc
000001d0: 6669 b7bd 44e7 7ebb 7716 fcbd ebe1 25bd
000001e0: 0654 28bc 6f7c 81bd 849a b53d 74db 9c3d
000001f0: e14f ce3d e7f4 68bd 5f28 4abd d529 ba3b
00000200: a466 dcbc 3d41 25bd 8010 8bbb 010c ad3d
00000210: 61ce cebd d66f d3bc 995c 0dbd 2640 053e
00000220: 6b30 443c 3cc7 113e 088c 123d 3fd3 aabd
00000230: c773 5dbc eb8c 903b 0523 edbd e714 a3bd
00000240: f4b5 e2bb 0619 cc3b c557 be3d 54e0 9d3c
00000250: 6169 50bd 6c87 703d
0.06368919 -0.020795157 0.021436201 -0.059741333 -0.027184127 0.028543953 0.025851756 -0.018427404
-0.047761437 -0.037840407 0.05932914 -0.1141799 0.09115875 -0.021218367 0.027049026 -0.058437902
-0.051642463 0.01574772 0.071765505 0.07604589 -0.03818401 0.07066573 -0.002110025 0.029342039
-0.040472243 -0.097686134 0.028813846 0.00022888527 0.069061324 0.10580963 0.020222954 0.022133293
-0.047613688 -0.12779586 -0.054995097 -0.10088283 -0.04317207 0.014156631 -0.13013905 0.012431575
0.0028796494 0.013030595 0.08760633 -0.056665007 0.08569736 -0.023128938 0.07143162 0.08132215
-0.093911715 -0.015490528 0.025448032 0.04706315 0.010138562 -0.03824792 0.09979737 -0.04066515
-0.024634413 0.02634879 -0.06377433 -0.06916956 0.087129556 -0.028087867 0.08374396 -0.015997767
-0.035542928 0.051851306 0.007074307 0.07850103 -0.09687126 -0.030124938 -0.014865429 0.025668362
0.0053872326 -0.07596566 -0.084024884 0.02358639 -0.11410082 -0.06297062 -0.018025352 0.03896116
-0.016152425 -0.058927596 -0.037081044 -0.057528213 -0.03326351 -0.09207362 -0.091659226 -0.014137158
-0.091364965 -0.10219401 0.11499596 0.025265822 0.033016864 -0.13443688 -0.05790562 -0.01436918
-0.04501929 0.067004934 0.008862568 -0.11334855 0.074173525 0.07713274 0.025156274 0.078090094
-0.040647563 -0.077763505 0.03982792 0.15133873 -0.049143933 -0.042432506 -0.0028146938 0.007351572
0.05410475 -0.09809932 -0.025446314 -0.009120311 -0.0895565 -0.003889517 -0.12308972 -0.040498655
-0.010273939 -0.06322562 0.08867362 0.07659045 0.100738294 -0.056874182 -0.049354907 0.0056812563
-0.026904412 -0.04034542 -0.0042439103 0.08449555 -0.100979574 -0.025810163 -0.034512136 0.13012752
0.011974434 0.14236158 0.035778075 -0.08341073 -0.013516373 0.00441133 -0.11578945 -0.07962971
-0.006918663 0.006228569 0.092940845 0.019272007 -0.050881747 0.0587229

classifier.5.weight f4 [150]
00000000: 0721 823f 92c6 623f ca44 7a3f 5602 503f
00000010: 2756 6e3f 4d74 4b3f 87c8 803f f7cc 713f
00000020: 3019 763f 1930 803f 99a4 683f a795 383f
00000030: 3261 673f 2735 843f e845 483f b2ef 803f
00000040: a8b5 683f d0ca 6f3f 9fc5 993f 14b6 433f
00000050: 7f98 6d3f 862e 413f 3674 4b3f 0ff9 4a3f
00000060: cab4 463f 6153 6f3f 48c3 4d3f ae34 8b3f
00000070: fd83 7b3f 245f 303f 497a 8d3f 9a75 603f
00000080: 423d 883f 9c73 673f 7c4f 4d3f 7a39 3c3f
00000090: 8159 703f 71af 623f 16ee 7e3f b4c1 843f
000000a0: 99de 3a3f b247 7e3f 5606 703f 8af6 923f
000000b0: 0df0 7b3f aa96 1d3f b026 633f 64d4 763f
000000c0: aad2 803f eb4b 6c3f 8973 813f 1c11 3a3f
000000d0: 4a64 383f 9f7e 453f f0ac 3e3f 2408 243f
000000e0: e3a6 213f 4243 813f f01b 503f 9d1d 793f
000000f0: cb4a 623f d48c 333f 63d2 693f 5af0 823f
00000100: 3d20 483f c291 3d3f acb8 8e3f 46ab 473f
00000110: f229 793f bc46 433f a1c4 623f f6f4 6b3f
00000120: 2e72 553f dff1 393f ddbd 4b3f 6632 493f
00000130: 26d2 4b3f a56a 613f 9d6a 433f fd91 5a3f
00000140: d9c8 603f 9c1d 4e3f 2072 6d3f 881a 803f
00000150: 768a 853f 894a 553f 42e7 843f 0f94 7d3f
00000160: 69d9 423f 3bf3 2c3f 5fec 5a3f bba2 683f
00000170: ac1a 513f 353c 7c3f eff5 773f 0d3a 6e3f
00000180: 1b17 753f 7d76 7b3f 74af 823f 386d 493f
00000190: 78c6 7e3f 9064 3c3f 4be6 883f 67b2 773f
000001a0: 1c16 513f fdbf 523f eff8 783f 0034 4c3f
000001b0: 958c 703f 391b 5a3f fdd3 603f 6240 413f
000001c0: fa01 363f 3e4e 7f3f 8288 2d3f f223 7b3f
000001d0: d6d3 813f 0ae3 8b3f ea1f 8c3f 355f 633f
000001e0: d1ea 413f d293 703f 9e66 7b3f 2f94 7c3f
000001f0: 20e7 323f a07d 783f b1ff 803f 32a3 593f
00000200: 659a 6a3f a814 6a3f 397e 4c3f 45d7 783f
00000210: 1981 4c3f 6d50 383f 6590 513f f881 933f
00000220: ee85 703f bae3 453f dbf0 333f 2100 5f3f
00000230: f0ff 693f 5b23 4c3f a076 373f dc35 713f
00000240: 5c97 8f3f e234 6e3f 954a 753f ed24 533f
00000250: 09c9 6b3f bc74 383f
1.0166329 0.88584244 0.97761214 0.81253564 0.9310021 0.79474336 1.0061196 0.94453377
0.96132183 1.0014678 0.90876156 0.7210335 0.90382683 1.0328721 0.7823167 1.0073149
0.90902185 0.9366884 1.2013434 0.76449704 0.92810816 0.75461614 0.794742 0.79286283
0.7761961 0.934866 0.803761 1.0875452 0.98248273 0.68895173 1.1052943 0.87679446
1.0643694 0.9041078 0.8019941 0.735252 0.9388657 0.8854895 0.9958204 1.0371614
0.7299591 0.9932815 0.9375967 1.1481488 0.98413163 0.6155802 0.8873091 0.9641783
1.006429 0.9230334 1.0113384 0.72682357 0.7202803 0.77146333 0.7448263 0.6407492
0.63145274 1.009865 0.8129263 0.9731081 0.88395375 0.7013676 0.9133665 1.02296
0.7817419 0.74050534 1.1150107 0.7799572 0.9732963 0.7627981 0.8858128 0.92170656
0.8337735 0.7263469 0.79586583 0.78592527 0.79617536 0.8805335 0.76334554 0.8537901
0.8780647 0.8051393 0.92752266 1.0008097 1.043288 0.83316857 1.0383074 0.99054044
0.7611299 0.6755864 0.85516924 0.90873307 0.81681323 0.9852937 0.9685964 0.9305733
0.9573838 0.98227674 1.0209794 0.7868228 0.9952159 0.73590946 1.069528 0.96756595
0.8167436 0.823242 0.9725484 0.79766846 0.9396451 0.8519779 0.8782347 0.75488865
0.71096766 0.99728763 0.6778642 0.98101723 1.0142772 1.0928662 1.0947239 0.8881715
0.75748926 0.93975556 0.98203456 0.9866361 0.6988392 0.9706669 1.0078031 0.8501464
0.9164184 0.9143777 0.798801 0.97203475 0.7988449 0.7199772 0.81860954 1.1524038
0.9395436 0.7730061 0.7028939 0.8710957 0.91406155 0.7974145 0.7166538 0.9422281
1.1218066 0.9304944 0.9581693 0.8247822 0.9210363 0.7205312

classifier.5.bias f4 [150]
00000000: c3d7 86be 3530 8ebe d219 88be 2572 52be
00000010: 9821 5dbe 311b 9bbe d924 aabe f8e0 b1be
00000020: dfb3 94be 221e bcbe 994d dfbe a9c4 0ebe
00000030: 743f 38be 37d5 b5be 0038 f0be 79ee b7be
00000040: 04bd 37be f71a cfbe fa59 69bf 7c51 d7be
00000050: 3581 efbe 15fc 91be 6f80 d8be 8e1b 0abf
00000060: bf2a 93be 164a 55be 667e d8be b44a 27bf
00000070: eb06 18bf 16fa 10bf 94aa 4fbf dcfd 9cbe
00000080: 870a 2dbf be8b 46be caa4 afbe 84ad 15be
00000090: a870 b8be 87bb afbe 0505 c1be c891 79be
000000a0: 45da afbe c4e4 e4be 41bf 91be 7154 54bf
000000b0: 5d26 b0bd d9f6 5bbe 161c 8abe 19a7 b4be
000000c0: 915f acbe 24a9 5dbe 1243 1abe 503e a5be
000000d0: 2499 88be 80ce 4fbe f4bb bebe 94e5 8bbe
000000e0: b678 7abd 6ef1 8dbe 7554 00bf 6cbd 05bf
000000f0: 4dfc c9be c55f 87be ca7a bebe 596d 3abe
00000100: be98 70be 5123 e8be 86bb 3ebf 327f abbe
00000110: 6487 e0be 87ed 88be b0af b1be 64d9 4fbe
00000120: 8aa8 19bf dea3 81be 3061 c7be 7d2b c0be
00000130: ddd4 b1bd 6300 5bbe a099 6dbf bafa 44be
00000140: e293 3dbe e30d c6be f8bf 80be 7212 fabd
00000150: 38f0 53be 6927 37bf e14e c8be f3ba eabe
00000160: 4906 40bf 0e2e bfbe 0fc8 8fbe 658e 15bf
00000170: a1a6 f6be 2406 74be 4a8e 73be 0c21 f2be
00000180: bdc3 2bbe e18d 8abe d416 a2be 4fb5 0abf
00000190: 4b04 91be 649a e6be 2901 c4be ad5a a3be
000001a0: bbee 05bf 83c0 9dbe ae1f 88be 5d5d dbbe
000001b0: e161 cabe 39be 0dbf 7dfb 03bf 401b d6be
000001c0: 635a e1be b049 f0bd 7821 e6be def9 a8be
000001d0: 03a4 fdbe 0aeb babe 9e4c 02bf f78a 1ebf
000001e0: 0760 ebbe 3571 b9be a47f 3abf 9b11 56be
000001f0: 084f 8dbe 1f34 3dbf 3443 cdbe a8d4 72be
00000200: ca27 8ebe 81b7 c0be 0b20 d3be e010 c0be
00000210: 53f8 a6be a835 c8be 2354 ffbe a906 54bf
00000220: 2f01 cbbe cfec e7be 2e64 2fbe bbd4 9bbe
00000230: 07a9 4cbe 8794 84be 5fcb 84be 9caf c3be
00000240: dcd7 0bbf cc78 bbbe 5a99 60be 3fe4 81be
00000250: df54 98be ab35 d6be
-0.26336488 -0.27771154 -0.265822 -0.20551355 -0.21594846 -0.30294183 -0.33231238 -0.3474195
-0.2904348 -0.3674174 -0.4361389 -0.13942207 -0.17992955 -0.35514233 -0.46917725 -0.35924128
-0.17943197 -0.4045026 -0.9115292 -0.42054355 -0.46778265 -0.28512636 -0.42285487 -0.53948295
-0.2874355 -0.20829043 -0.42283934 -0.6534836 -0.59385556 -0.566316 -0.81119657 -0.3066243
-0.6759419 -0.19389245 -0.34305412 -0.14616972 -0.3602345 -0.3432276 -0.37699142 -0.24372017
-0.34346214 -0.44705784 -0.28466228 -0.8294135 -0.08601067 -0.21480884 -0.26974553 -0.35283735
-0.3366666 -0.21646553 -0.15064648 -0.32274103 -0.26679337 -0.20293617 -0.37252772 -0.27323592
-0.061150275 -0.2772326 -0.5012887 -0.5224216 -0.39450303 -0.26440254 -0.37203056 -0.18205775
-0.23495767 -0.45339444 -0.7450489 -0.3349548 -0.43853295 -0.2674372 -0.3470435 -0.20297772
-0.60022795 -0.25320333 -0.38941336 -0.3753318 -0.086831786 -0.21386866 -0.9281254 -0.1923627
-0.18513444 -0.3868247 -0.2514646 -0.122105494 -0.20697105 -0.7154451 -0.3912268 -0.45845756
-0.7500959 -0.37339824 -0.2808232 -0.584204 -0.48174003 -0.23830467 -0.23784748 -0.47290838
-0.16773887 -0.2706137 -0.3165804 -0.54182905 -0.28323588 -0.45039666 -0.38282135 -0.31905118
-0.523174 -0.30810937 -0.2658667 -0.42844668 -0.395278 -0.5536838 -0.51555616 -0.41817665
-0.44014272 -0.11732805 -0.4494741 -0.33003134 -0.49539194 -0.36507446 -0.5089816 -0.61930794
-0.459717 -0.36219183 -0.72851014 -0.20905153 -0.2759936 -0.73907655 -0.40090334 -0.23713934
-0.27764732 -0.37640002 -0.41235384 -0.37512875 -0.3261133 -0.39103436 -0.4986888 -0.8282266
-0.3964934 -0.45297858 -0.1712806 -0.30435738 -0.19986354 -0.25894567 -0.2593641 -0.38219917
-0.5462625 -0.36615598 -0.21933499 -0.2536945 -0.29752252 -0.4183782

classifier.5.running_mean f4 [150]
00000000: e425 87be 146a 8abf 6504 86bf 94d2 c6be
00000010: 2181 c1be a8dc b2be 130c 2ebf 075d 97bf
00000020: 50c0 53bf 4a38 92bf 3c04 68bf 86d3 dfbe
00000030: 4974 a0be eec8 58bf f86c 93bf 22fc 3dbf
00000040: 1373 e8be eafc 6cbf 623f 5dbf 6494 39bf
00000050: e4f0 a6bf d6ef 2bbf 8e2a 42bf 39f3 8fbf
00000060: 33a3 f9be 339d 49bf 7cfd 99bf ed0f 56bf
00000070: b883 5dbf 7571 febe e834 64bf f6a5 59bf
00000080: 0cc3 25bf 7c7b e9be b6d4 813c d076 38bf
00000090: 4df3 42bf b3df 33bf 9c1d 44bf 9e27 a3be
000000a0: 91dd 39bf 3c58 0ebf b357 70bf 0357 84bf
000000b0: f074 70bf 24e9 2ebf 5b19 00bf 7ceb b9be
000000c0: 11d3 a4bf 6e53 83bf 643b 73bf 3c7c 23bf
000000d0: 61cf 42bf 8c9b 0dbf 1ac6 02bf c740 fbbe
000000e0: 97e3 20bf 477f 95be f74b a5bf 9294 bcbf
000000f0: 9a17 6cbf 522a 2dbf 65ea 1dbf a700 94bf
00000100: b991 8dbf d4f3 1abf 4790 85bf ec6e febe
00000110: 2b77 98bf 1a33 67bf 183b 8ebe 1135 80be
00000120: 596e 7bbf e8b2 67bf 762a 32bf e445 c6be
00000130: 22d6 6bbf fa17 cebe 5818 34bf 9aa4 05bf
00000140: bd2a 3abf 0fb8 76bf eeba 74bf 7ba8 88bf
00000150: a35a 8ebf 7f18 99bf 0c82 07bf a8d4 1ebf
00000160: 5e72 2abf 000d 1ebf 1662 c2be 0e3c bdbe
00000170: ca6a 8dbf 6e5f 01bf 6073 8abf 509e 6abf
00000180: 3772 c2be 816e 28bf 80c1 87bf be69 8dbf
00000190: 81ac edbe 2f02 6fbf 90e2 1fbf 2029 82bf
000001a0: 426d 54bf 3cd2 1fbf 33a1 0fbf 98e5 aebe
000001b0: fd92 96bf f95d 8fbf ca25 8fbf dd44 7abf
000001c0: 2d0d 7fbf 379c 77bf b673 6dbf 863c 7bbf
000001d0: aefb c1bf da7f 31bf 72ef 4abf 16e1 63bf
000001e0: 30d4 85bf cedd 5fbf 4bde 35bf 1009 89bf
000001f0: c75d 3abf b7f7 b4be 1c16 a0bf 007b 1cbf
00000200: ad47 dfbe 85fe 8cbf 76f6 59bf dab4 89bf
00000210: 082f 4ebf 6b5b 65bf b22f 26be b8ea 36bf
00000220: 7bfe 4ebf 985b 5fbf 5f65 b3be 349b 9bbe
00000230: e304 25bf 8ada 34bf 31ac 08bf 1c86 a1bf
00000240: a05c 3dbf b73d 3dbf cf8c 81bf 1155 6ebf
00000250: 97b2 51bf 0889 81bf
-0.26396096 -1.0813622 -1.0470091 -0.38832533 -0.3779383 -0.34933972 -0.67987174 -1.1825265
-0.8271532 -1.1423428 -0.9063146 -0.43716067 -0.3133872 -0.84681594 -1.151763 -0.7421285
-0.45400295 -0.92573416 -0.8642484 -0.7249205 -1.3042264 -0.67162836 -0.75846183 -1.1246101
-0.48757324 -0.7875549 -1.2030482 -0.8361805 -0.8652911 -0.49695936 -0.8914323 -0.8501886
-0.6475074 -0.45602024 0.015848499 -0.72056293 -0.761525 -0.7026321 -0.7660768 -0.31866163
-0.7260371 -0.55603385 -0.9388382 -1.0339054 -0.9392843 -0.68324494 -0.5003869 -0.36312473
-1.2876912 -1.0259836 -0.950125 -0.6386144 -0.76097685 -0.5531547 -0.5108353 -0.4907286
-0.62847275 -0.29198667 -1.2913808 -1.473284 -0.92223513 -0.676427 -0.6168578 -1.1562699
-1.1060096 -0.605283 -1.0434655 -0.49694002 -1.1911367 -0.9031235 -0.2777946 -0.25040486
-0.9821525 -0.90507364 -0.6959604 -0.38725197 -0.92123616 -0.40252668 -0.70349646 -0.5220429
-0.72721463 -0.963746 -0.9559773 -1.0676416 -1.112141 -1.1960601 -0.5293281 -0.6204324
-0.6658076 -0.61738586 -0.3796546 -0.3695988 -1.1048214 -0.5053624 -1.081646 -0.91647816
-0.37977764 -0.65793616 -1.0605927 -1.1047895 -0.46420673 -0.93362707 -0.6245508 -1.01688
-0.82979214 -0.6243017 -0.56105345 -0.3415954 -1.1763607 -1.1200553 -1.1183407 -0.9776133
-0.9962948 -0.9672274 -0.92754686 -0.98139226 -1.5154932 -0.6933571 -0.79271615 -0.8901533
-1.045538 -0.8744782 -0.7104232 -1.0705891 -0.7279934 -0.3534524 -1.2506747 -0.61125183
-0.43609372 -1.1015173 -0.85141695 -1.0758317 -0.80540514 -0.8959262 -0.16229132 -0.714519
-0.80857056 -0.87249136 -0.35038278 -0.30391848 -0.6446058 -0.70645964 -0.53387743 -1.2619052
-0.7396946 -0.73922294 -1.0121096 -0.9309855 -0.8191313 -1.0119944

classifier.5.running_var f4 [150]
00000000: f934 d13f fdaf c63f 9a40 903f 2c1b 873f
00000010: c28a ab3f 674f fa3f b3fa e23f aa0c 1840
00000020: 3180 693f dbe1 0a40 46ae d63f 82ee d93f
00000030: cf2e e43f 5b43 1240 bba6 753f 7c41 db3f
00000040: a7aa 0140 d96e df3f f588 a73f b600 d53f
00000050: c222 bc3f b7eb 7b3f 09a5 f33f 4589 8b3f
00000060: 724a 0440 9900 0140 dca3 8f3f 6bf4 943f
00000070: 9b18 903f 7f99 8a3f 6a18 b83f 5849 833f
00000080: 26bb 863f 8375 9c3f e6f0 a53f 0d87 353f
00000090: 8776 973f 20fc f23f d1fa dd3f 7c75 c93f
000000a0: eb5a 883f b23a a33f 2dfe 833f 39a3 b63f
000000b0: dc9b f03f 54bc 8d3f 9b51 ae3f e83b 943f
000000c0: f896 0d40 bf83 ee3f 462a c23f c275 f23f
000000d0: 64e5 893f b20d 0440 cfad 923f ec91 8f3f
000000e0: a81d d93f faef cb3f 1084 973f 18f4 943f
000000f0: 325b 0340 6369 c63f 172c 1940 a034 a43f
00000100: 67b4 393f 22fa c33f 6795 c13f eab7 823f
00000110: 5ce4 b13f 182f 713f bd05 853f 235d ce3f
00000120: a954 743f cd28 a63f 9b31 833f 95e7 863f
00000130: c4dd 663f c647 973f 666e 4b3f bc37 0540
00000140: 42e4 ea3f 48b5 be3f 5f43 e43f cbb5 e23f
00000150: aa3a b13f 9928 393f bb39 b63f 52ed 813f
00000160: bad2 383f 61ac 933f 79e5 be3f 667e ca3f
00000170: fe21 873f e127 de3f 5741 0040 e114 993f
00000180: 239b ef3f ace0 0440 0aa0 aa3f 3e7b 583f
00000190: 95c3 ef3f 3b64 a33f 3dd7 ae3f d44b 9e3f
000001a0: dc1b c63f db2b d13f e86b d73f 8490 a93f
000001b0: 79b0 f83f ead2 9b3f 0b25 d73f 9157 923f
000001c0: 6cbf 393f dc1f cc3f 222b 9c3f 5b29 c03f
000001d0: 56d0 b43f 510f ed3f ede4 893f 9c27 893f
000001e0: da33 fd3f d63a f93f d3ff a23f 633e ff3f
000001f0: a9cc 7d3f 2c9d 8f3f 4012 ae3f 73ea 973f
00000200: e93d c03f 5335 eb3f f8e1 863f f6ab 1140
00000210: 4ee8 b43f 95ea 573f 9fed b93f 4804 b33f
00000220: acb3 b93f 7425 d03f 3d8c 0040 9219 b53f
00000230: 4998 a33f b8c6 633f 5c85 ab3f 4dc5 e43f
00000240: 27e7 ea3f 2bb5 0140 9088 f43f 04ce b03f
00000250: d1a4 1540 b838 db3f
1.6344291 1.5522457 1.1269715 1.0555167 1.340172 1.9555482 1.7732757 2.375773
0.9121123 2.1700351 1.6771934 1.7025912 1.7826785 2.285361 0.95957536 1.7129359
2.0260408 1.7455703 1.3088671 1.6640842 1.4698107 0.9840655 1.903474 1.0901266
2.0670438 2.0156615 1.1221881 1.163709 1.1257509 1.0828093 1.438245 1.0256758
1.0525863 1.2223362 1.2964141 0.70909196 1.1833047 1.8983192 1.7342168 1.5738978
1.0652746 1.2752287 1.0311943 1.4268562 1.8797565 1.1073098 1.3618654 1.1580782
2.2123394 1.8633956 1.5169151 1.8942187 1.077313 2.063336 1.1459292 1.1216407
1.6962175 1.593261 1.1837177 1.1636992 2.0524411 1.5500911 2.393316 1.282856
0.725409 1.531071 1.5123719 1.0212376 1.3897815 0.94212484 1.0392376 1.6122173
0.9544168 1.2981201 1.0249513 1.0539423 0.9018214 1.1818779 0.7946533 2.0815268
1.8350909 1.4899073 1.783306 1.7711729 1.3846028 0.7232757 1.4236368 1.015055
0.72196543 1.1536981 1.491378 1.5819824 1.0557249 1.735592 2.003988 1.1959497
1.8719219 2.076213 1.333009 0.8456305 1.8731562 1.2764963 1.3659436 1.2366891
1.5477252 1.6341509 1.6829805 1.3247228 1.9428855 1.2173741 1.680818 1.1432973
0.7255771 1.5947223 1.2200663 1.5012621 1.4126079 1.8520299 1.0772988 1.0715213
1.9781449 1.947108 1.2734321 1.9940914 0.9914041 1.121984 1.359932 1.1868423
1.5018893 1.8375648 1.053771 2.2761207 1.4133394 0.8434232 1.4525641 1.3985682
1.4507957 1.626143 2.0085595 1.4148428 1.2780849 0.88975096 1.3400073 1.7872711
1.8351792 2.0266826 1.9104176 1.3812871 2.3381846 1.7126684
