ckpt/IAP/7/best_loss_BEST5.ckpt (torch, 176160 bytes, 19 tensors)

classifier.0.weight f4 [150, 48]
00000000: e1fc 68be 6052 6b3e 2f22 b63e aff4 003d
00000010: e42e 1f3a bb23 a2bd 8912 be3e 9ef1 2dbc
00000020: ae85 9cbe f674 25be 611b eabc 151d 17be
00000030: 9a69 893e 47ad ccbe d085 803d 6849 58be
00000040: 4967 febd e8cd c2bd ef40 113e a0bd b23d
00000050: ad81 f23e f4a1 85be 0742 8d3e f58f c1bc
00000060: 4826 a5be 5935 27be b20c 02be 045c a4bd
00000070: 641b 51be 305c 8bbe 2de7 183d 58fd 043f
00000080: 5bc8 76be e25f 15bd c8d8 98bd 937d a73e
00000090: 5ac5 aa3c 49f6 91be 0b7b 60bd 2a92 833e
000000a0: 7fe1 97be d70d b03d 90f1 58be 59d5 67bd
000000b0: cd5f 11bf 6d19 2ebd b91f 1d3e 318d cdbe
000000c0: 718b 28bd a995 f73d 6477 7bbe 98e5 43be
000000d0: a645 9fbe e228 84be e97c ad3d 72f4 31bf
000000e0: 065b dc3d 0c4b ddbd 5347 08be 5c72 2a3e
000000f0: b46b 433e 6e8d 613e 9007 9b3e 4ec8 e6be
00000100: 61e8 a93d 5194 9a3d 9c48 8a3d 6d95 d6be
00000110: 17fc a7bd 0708 6cbd 1afc 00be 4c88 1dbf
00000120: b11c 5abe 3925 c53e 3a80 ca3d 4d60 9ebd
00000130: 4def 523e ae72 eb3d b8c7 8ebd 3217 23bf
00000140: eb3f 2abd 4bbe 1b3d b6b3 93bc 0b63 713e
00000150: c6a3 1f3e 6db7 973e 41a3 1c3e b02b febe
00000160: e7b7 f23d 2c59 8abd 5af1 a4be 23f1 0bbe
00000170: 19b3 473c fa58 80bd cd35 093f 0556 e9be
00000180: b58d 023d 42e4 8d3d 7858 e5bc 5f9d 6b3d
00000190: d845 1d3d 865e 133f 95c1 be3d c93a b6bd
000001a0: d866 b33d a215 803b 36fd 173e c72f d0be
000001b0: 0b22 59bc ac51 53bf e623 ddbd 94aa 7bbf
000001c0: 74e4 b0bd f60a 37be 0acb 19be b25a 31be
000001d0: 4cf2 d2bd 9164 87bd 199f edbd 038d f2be
000001e0: 4198 24be febc afbc 1087 013d 7e1d b2be
000001f0: 9060 7dbd efe5 883d 3979 0bbe 2729 a0be
00000200: eba9 be3b 6e2e 8a3d 089c 7c3e 9b8f de3e
00000210: 835d 763b b0bd 48bd ec3c bbbd 5518 2ebf
00000220: ad88 e5bd c1cb bd3d 7e30 3bbe 46a6 2a3e
00000230: 0299 f0bd 12ce 5cbd 2780 843e 5063 e8be
00000240: ff5f b0be c3dd b9bc 8041 37be ef78 29be
00000250: a6d3 a1be bb63 9bbe 6bba 8c3e b8a4 25bf
00000260: 79d4 e0be 2558 35be 2446 403c 0eb9 423e
00000270: bd2c 3a3f d059 eabe 4c9c 0d3f 765d fdbe
00000280: a0ff 87be 9ad5 513d 06ba db3d 5435 383c
00000290: 225a ae3e 7870 b5be ac5d c43e ccc3 12bf
000002a0: 28f5 99be 2687 17bc 8c3b 153e 9240 923e
000002b0: 58d6 1e3e 19da 8ebe c7f5 093f d1f7 903d
000002c0: 2111 d1be 768c 75bd 828e 12bd a0cb 333d
000002d0: 027d b9bd 7a7c a0bd 8e20 9cbd 6aa4 8abe
000002e0: e30a 13be 0a1e 0f3e 7572 3fbc 424c 403a
000002f0: 76b6 83be 7526 80be 7695 f73d b936 4cbf
00000300: 284a 2fbd ac39 5b3d 2241 42be 1883 a83d
00000310: e6d0 3cbf 9c21 033e 54b3 10bf ef9f aebd
00000320: 3f18 4dbd 8b04 a0bd 4f7e 61bd fce1 42be
00000330: 091a e13d 7e33 f93c d352 a3be 0d39 4f3e
00000340: 8af6 11bd 3a89 93bc 9ac7 0bbe 6bc0 353d
00000350: 7afe acbe 4070 433e cad8 a1be a712 153e
00000360: 0e97 e7bc cdac 233b 1d57 abbc 792f 96bd
00000370: 8da0 023e 2ad0 0e3e 6af9 32bf b8b2 f83e
00000380: b5c8 86bb 6459 47bd 8955 143d c153 6abe
00000390: 7bb1 183f 53af 98bd 3e9a 8fbe 0ac9 3e3d
000003a0: 07a9 cdbc 20ab a23d 836e 44be afd7 6abe
000003b0: 4135 07bf 0bca f4bd 2516 30be 5ca0 ecbd
000003c0: f1ba 183d 8085 863e 3995 25bd dcfb 973e
000003d0: 8c9d 21bd 4f2a 393e c3c8 95be a849 5a3e
000003e0: 7788 543d 4c13 a3bd ae70 ae3b 361b 61bc
000003f0: 2841 d03d 213d d7be 8e52 853d 221d 063e
-0.22752716 0.22980642 0.35572955 0.03148335 0.0006072356 -0.07916971 0.37123516 -0.010616688
-0.3057074 -0.16157898 -0.028577508 -0.14757188 0.2683838 -0.3997595 0.06275523 -0.21121752
-0.12422044 -0.0951193 0.14184926 0.08727574 0.4736456 -0.26100123 0.27589437 -0.023628214
-0.3225577 -0.16328944 -0.12700155 -0.08025363 -0.20420605 -0.2721877 0.03732984 0.5194907
-0.24099867 -0.036468394 -0.07463223 0.32712993 0.020846058 -0.28508213 -0.054804843 0.25697452
-0.29664227 0.0859639 -0.21185899 -0.05659995 -0.56786805 -0.042504717 0.15344132 -0.40146783
-0.041148607 0.12089092 -0.24557263 -0.19130552 -0.31107825 -0.2581244 0.0847109 -0.6951362
0.10759549 -0.1080533 -0.13308458 0.16645187 0.19084054 0.22026607 0.30279207 -0.45074695
0.08296276 0.0754782 0.067521304 -0.41910878 -0.08202379 -0.057624843 -0.12596169 -0.615361
-0.21300007 0.3850496 0.098877385 -0.07733212 0.20599099 0.11496483 -0.06971687 -0.6370727
-0.041564863 0.038023274 -0.018030029 0.23572938 0.15589818 0.2963213 0.15296651 -0.49642706
0.11851483 -0.067552894 -0.32215387 -0.13666205 0.012188696 -0.06266971 0.5359772 -0.4557344
0.031873424 0.06928302 -0.027996287 0.057523128 0.038396686 0.57566106 0.093142666 -0.08897931
0.0875985 0.003908829 0.14842686 -0.4066145 -0.013252745 -0.82546496 -0.10797863 -0.98307157
-0.08637324 -0.17875275 -0.1501886 -0.17319754 -0.10300121 -0.066109784 -0.11602611 -0.47373208
-0.16073705 -0.021452423 0.031622946 -0.34788126 -0.061859667 0.06684481 -0.13620462 -0.31281397
0.0058185956 0.06747137 0.24668896 0.43468937 0.0037592358 -0.049009025 -0.09142479 -0.6800588
-0.112077095 0.092673786 -0.18280217 0.16664991 -0.11747934 -0.05390746 0.25879022 -0.4538827
-0.3444824 -0.022688752 -0.1789608 -0.16550039 -0.31606787 -0.30349526 0.27485976 -0.64704466
-0.43912104 -0.17709406 0.011735473 0.19015905 0.72724515 -0.45771646 0.55316615 -0.49485368
-0.26562214 0.051229097 0.107288405 0.011243183 0.3405314 -0.3543737 0.38352716 -0.5733001
-0.30069852 -0.0092485305 0.14573497 0.28564888 0.15511453 -0.2790077 0.5389065 0.07078517
-0.4083338 -0.059948407 -0.035780437 0.043895364 -0.090570465 -0.07836242 -0.07623397 -0.27078563
-0.14359622 0.13976303 -0.0116850035 0.0007335582 -0.25725144 -0.2502934 0.12089054 -0.79771
-0.04279533 0.053521797 -0.18970159 0.08228129 -0.73756254 0.1280579 -0.56523633 -0.08526599
-0.05007195 -0.078133665 -0.055052098 -0.19031519 0.10991294 0.030420061 -0.31899127 0.20236607
-0.03563551 -0.01800977 -0.1365036 0.044372957 -0.337879 0.19085789 -0.3161071 0.14557897
-0.02827027 0.0024974823 -0.020915562 -0.073332734 0.12756558 0.13946596 -0.69911826 0.48573852
-0.0041132816 -0.048669234 0.036214385 -0.22883512 0.59645814 -0.074553154 -0.28047365 0.046578445
-0.025105013 0.07942796 -0.19182782 -0.2293384 -0.52815634 -0.11952599 -0.17195947 -0.115540236
0.037287656 0.26273727 -0.040425513 0.2968434 -0.03945689 0.18082546 -0.29254732 0.2131716
0.051887956 -0.07962665 0.005323491 -0.013739398 0.101686776 -0.42038825 0.06509887 0.13097051

classifier.0.bias f4 [150]
00000000: 4529 bbbe 4523 953d db6c 9d3d c315 b0be
00000010: 4379 06be 5ed7 78bc 18c0 2ebe 7967 733e
00000020: b865 c2bd 8fd1 2dbd dfa5 8fbe c730 c7be
00000030: 9c74 e83d 49a8 96bd 30e7 3e3c 4f21 703d
00000040: 303a 133b edbf 863d 17d5 093e 1e9e cbbd
00000050: 5ea3 553e 528f 58bc 8cee a0bd f657 06bc
00000060: bef3 8dbe d629 80be 8fd7 ab3b 5792 85bd
00000070: 41cc f3be 192a 87bd fa58 b8bd 4efe 54be
00000080: b870 4739 625e 90be c1e6 7a3d dbf3 933d
00000090: 9557 c23d 1c52 97bc bd24 88bd 2fdc 9abe
000000a0: 1562 80be 5541 113e 87d8 3b3d e39e 59bd
000000b0: 7ecd bfbd 0fb5 21be bb17 9bbd 43c5 e4bd
000000c0: a18d 8a3d 7c2b 313e 3090 c0be b358 053d
000000d0: 04bd 1f3e a109 5e3d e194 05be 1b68 2dbe
000000e0: 6177 d93d a96f 03be 3fbd 5e3e 50a6 8c3c
000000f0: 21d1 8b3e 8f98 7dbd 10c2 813d 4326 4cbe
00000100: 48fe f2b9 893f 74be d2e3 363e f54d cc3c
00000110: ca02 71bd ed97 453e b63b 903e fedd afbd
00000120: 7021 80be a9b1 3cbd e3b4 293d bb27 863e
00000130: d7f0 1b3e 7a95 1bbd 8ff6 883d 9201 2b3e
00000140: 4532 a93b 11f3 a3bd acdb fe3d 38e6 aa3c
00000150: 7349 df3d c6ac c3be 9d73 1b3c f781 8d3e
00000160: 7854 9ebc 552b e1bd 474b f93d c607 c33e
00000170: 481f 103e 3a14 b9bd c78c 9dbd d913 ddbe
00000180: 71b4 32be 1105 2bbf b8a3 773e 6c48 8c3d
00000190: 5fcd bfbe 0221 d83c 4225 93bd 992f 3e3e
000001a0: 5a94 a8bc 7704 8a3e 048e 043f c9a1 02be
000001b0: c04f ad3d b447 e53d 8292 b1be 01cc 3b3e
000001c0: cb26 ac3d bd63 56bd 9799 a5be 414d 9e3e
000001d0: 5652 6e3d 89cc 353b f753 e0bd 0726 b03e
000001e0: 3615 fc3c ea43 1cbe 59a6 0d3e c0b3 0abd
000001f0: d390 9bbe f075 913d 0b52 963d 3d86 7b3e
00000200: 23a2 b13e 547f ef3d 9672 eabc d91d af3d
00000210: 4365 57be 8766 6bbd 5288 813e aa4d 363e
00000220: 03b2 2dbe 1ecb b33d f019 cd3d 7510 a5be
00000230: ec76 69be eff1 a5be c3b8 1d3e b8a1 63be
00000240: 6a32 f8bd b2a3 3b3e c8c4 893e c21a 063e
00000250: 4290 e83c 0fd5 913d
-0.36554924 0.07282118 0.07686778 -0.34391603 -0.13132195 -0.015188066 -0.17065465 0.2376994
-0.094920576 -0.04243618 -0.28056237 -0.38904402 0.113503665 -0.073563166 0.011651799 0.058625516
0.0022465102 0.06579576 0.13460194 -0.09942268 0.20863101 -0.013217764 -0.07857999 -0.008199682
-0.27725023 -0.25031918 0.0052442024 -0.06522053 -0.4761677 -0.06599826 -0.09001346 -0.20800135
0.0001902011 -0.28197008 0.06125522 0.07224246 0.09489361 -0.01847177 -0.06647632 -0.30246112
-0.2507483 0.14185078 0.045860793 -0.05313004 -0.093653664 -0.15791725 -0.075728856 -0.11170437
0.06765295 0.17301744 -0.37610006 0.032555293 0.15599447 0.0542084 -0.13045074 -0.16934244
0.10618473 -0.12835564 0.21751879 0.017169148 0.2730799 -0.06191307 0.063358426 -0.1993647
-0.0004634729 -0.23852362 0.17860344 0.024939517 -0.05884055 0.19296236 0.28170556 -0.085872635
-0.2502551 -0.046067867 0.041432273 0.26202187 0.15228592 -0.03798435 0.06687652 0.16699818
0.0051634633 -0.080053456 0.12444243 0.02086173 0.10902681 -0.38217753 0.009488014 0.27638218
-0.019327387 -0.10994593 0.12172561 0.38091868 0.14074433 -0.09037061 -0.07692867 -0.43179205
-0.17451645 -0.66804606 0.24183547 0.06849751 -0.37461373 0.026382927 -0.07184841 0.18572845
-0.020578552 0.2695653 0.517792 -0.12757029 0.08462477 0.11195317 -0.3468209 0.1833954
0.08405837 -0.05234121 -0.32343742 0.30918315 0.05818399 0.002774032 -0.10953515 0.34404013
0.030771833 -0.15260282 0.13832988 -0.03386283 -0.3038393 0.07102573 0.07339867 0.24562927
0.34694013 0.11694208 -0.028619092 0.08550615 -0.21034722 -0.057470825 0.25299317 0.17803064
-0.16962437 0.08778976 0.10014713 -0.32239118 -0.22799271 -0.32411143 0.15402512 -0.2222966
-0.12118991 0.18324164 0.26907945 0.13096145 0.0283891 0.07120716

classifier.1.weight f4 [150]
00000000: e74e 493f cab4 4f3f d48b 4d3f 0b7b 5e3f
00000010: 7b66 5b3f cfd2 4e3f 9055 3b3f d958 693f
00000020: 0d39 d33e 1033 5a3f ab29 873f 8539 633f
00000030: aa59 813f feaf 463f 855d 853f 306b 123f
00000040: ad0f 6f3f 2eca 2b3f 36e4 713f a715 663f
00000050: b623 5f3f 4c88 703f a97a 2a3f da9d 633f
00000060: 419a 603f 23d7 573f 3cd2 553f b6cf 3a3f
00000070: 1672 683f 8e7b 173f 0eed 753f c0ab f03e
00000080: ba5b 753f 3323 673f 7ab7 6f3f 028c 3d3f
00000090: 8136 553f 2184 6a3f 5204 413f be5b 203f
000000a0: 0d83 633f d6cc 343f 4800 463f f692 583f
000000b0: e622 323f d529 723f 431f 8a3f 09a3 153f
000000c0: 08f6 363f 70e4 3b3f 1de9 483f c632 8c3f
000000d0: a6e5 7f3f da72 653f fae5 833f a6eb 163f
000000e0: ba53 643f 8299 733f ff2e 693f 80aa 5f3f
000000f0: 7200 663f edd3 5f3f 7817 753f f5d0 763f
00000100: 01a7 633f 2ac7 8b3f 6cb3 803f 1dc9 643f
00000110: 515d 4b3f 7568 6b3f 1aff 603f 3caf 413f
00000120: 77eb 683f d99b 4f3f ef9f 6b3f 7cdc 733f
00000130: 6d9d 3f3f df46 173f 764a 603f 3cdb 4e3f
00000140: e745 7a3f b176 6b3f ced3 1e3f 417d 113f
00000150: 2da1 4c3f 0c0a 5a3f aa54 763f 623a 663f
00000160: 5f05 4b3f fdb6 353f 87aa 633f e701 113f
00000170: 3d1b 893f 86e6 783f afdb 273f a08f 183f
00000180: 84cf 5e3f 0cac 833f ed5d 423f 901c 173f
00000190: db84 683f 2877 883f 5140 3e3f f010 3f3f
000001a0: 2767 543f 6d26 373f 3623 813f ef55 4e3f
000001b0: 115c 3d3f 3142 203f 7601 743f 7146 823f
000001c0: 7a28 623f cac3 6d3f 39a1 853f 1d0a 063f
000001d0: 571c 743f 7e48 5b3f 09c2 063f c3b0 603f
000001e0: 7cd0 193f 6746 673f 11c0 633f 0c34 393f
000001f0: fe71 503f 2839 643f edea 7a3f c611 223f
00000200: 71c6 763f a5ff 3a3f 60ec 363f d009 2e3f
00000210: cb1a 6c3f 52c5 623f 29ae 463f 8df4 383f
00000220: edf6 303f e727 5e3f 219d 333f 891b 5b3f
00000230: 023a 253f fe8f 653f 1d49 763f 5ea7 563f
00000240: 55b5 093f 5306 5f3f c64d 323f 1cd1 833f
00000250: 84d1 633f 93ce 673f
0.7863602 0.8113524 0.80291486 0.869065 0.8570325 0.8079042 0.73177433 0.91151196
0.41254464 0.85234165 1.0559591 0.8875964 1.0105488 0.7761229 1.0419165 0.57194805
0.93383294 0.67105377 0.9448885 0.8987679 0.87163866 0.9395797 0.66593415 0.8891274
0.8773537 0.8431265 0.8352392 0.7297319 0.9079908 0.59172904 0.9606484 0.47006035
0.9584309 0.90288085 0.9363934 0.7404176 0.8328629 0.9160786 0.7539722 0.6263999
0.8887184 0.70625055 0.7734418 0.84599245 0.695845 0.9459508 1.079079 0.58451897
0.71469164 0.7339544 0.784807 1.0952995 0.9995979 0.89628375 1.0304558 0.5895332
0.89190257 0.9515611 0.91087335 0.8736954 0.8984443 0.8743275 0.95738935 0.96412593
0.889267 1.0920155 1.0054755 0.89369375 0.79439265 0.91956264 0.87889254 0.7565801
0.9098429 0.8109718 0.92040914 0.9525831 0.7484959 0.59092516 0.8761362 0.80803275
0.9776291 0.91977984 0.6204194 0.5683175 0.79933435 0.8517158 0.9622294 0.89932835
0.7930507 0.7098234 0.8893208 0.5664353 1.0711437 0.9722675 0.65569586 0.59594154
0.87035394 1.028688 0.7592457 0.5902796 0.9082772 1.0661364 0.7431689 0.7463522
0.829699 0.7154301 1.008887 0.80599874 0.7396861 0.62601 0.9531473 1.0177747
0.8834301 0.92876875 1.0439826 0.5235918 0.95355743 0.8565749 0.52639824 0.87769717
0.60083747 0.903418 0.88964945 0.7234504 0.8142394 0.89149714 0.9801472 0.6330837
0.9639655 0.7304633 0.7145443 0.6798372 0.9222838 0.88582337 0.776095 0.72248155
0.6912678 0.86779636 0.70161635 0.8558889 0.6454164 0.8967284 0.9620531 0.8384913
0.53792316 0.87119025 0.6964992 1.029819 0.8899157 0.9054958

classifier.1.bias f4 [150]
00000000: 9911 0fbf 0339 a7be 4b28 98be 1671 37bf
00000010: 1991 d5be 4982 17bf ae57 c1be d3ae 93be
00000020: 0c78 2bbe 8c9d 3ebf bbb0 0fbf 93c6 3bbf
00000030: 51ea 48bf 9ac3 1ebf d9c0 f1be cd4e 89be
00000040: 0400 fbbe 7f76 0ebf daa4 27bf 8ff1 bcbe
00000050: 5e1d 41bf c8ba 01bf 473f 20bf 8a13 b5be
00000060: cd4b f1be d7f5 69bf 7f05 30bf 56ba cfbe
00000070: 8464 08bf b029 dcbe 98fe 01bf a53e 89be
00000080: 654b f2be 9f94 bebe 63e7 4ebe 06c8 d4be
00000090: 658a 0cbf cf41 23bf eb6a 13bf 2472 2abe
000000a0: 81b4 1dbf f4d2 e9be 04f3 08bf dab4 f7be
000000b0: 26d2 edbe 2b3f b2be 650c 0fbf c67f 0cbf
000000c0: 82a7 c8be 5f84 a1be d040 c8be e685 2bbf
000000d0: cd47 00bf a8e1 05bf f1cd 07bf d900 85be
000000e0: 5d50 28bf fe20 c6be 44ec 1bbf 776a b9be
000000f0: 0733 eebe 5381 48bf f4d9 22bf 71dd 07bf
00000100: 2f96 d2be bfe6 bbbe e0a4 e1be 6010 01bf
00000110: 5835 b9be f290 16bf 1148 32bf e0bc 0fbf
00000120: 22fb 2abf 632f 19bf a49d 31bf 73e0 04bf
00000130: 1b45 95be a395 00bf 5ef5 21bf 16b8 50bf
00000140: a4c8 e4be 90c8 a1be 8672 9fbe 3566 98be
00000150: 063f c5be 1cff e5be 678f f7be 0b7a 93be
00000160: b997 9abe 4e14 c5be 0963 3abf 7591 0dbf
00000170: 06c2 c9be 8d54 16bf 7813 13bf 5b6d 3cbf
00000180: e8f4 16bf 6937 fbbe 4ac4 e8be 4218 ecbe
00000190: 2742 c5be 5f47 a2be 608b 09bf 5d10 a2be
000001a0: 03c6 e4be 5e5a eebe baee e6be ec36 babe
000001b0: 8896 51be e072 f0be bae3 06bf 9377 62bf
000001c0: b46f 06bf 4b3a 18bf fc0d f8be de54 c5be
000001d0: d8e1 12bf d395 96be 2582 47be b53d 23bf
000001e0: af87 b5be 9c20 02bf 6137 fabe c964 33bf
000001f0: 8090 e8be 9c38 f8be c236 3fbf 3017 bebe
00000200: 13d9 a9be de11 0abf aa24 53bf f7bc 82be
00000210: 767d e6be 9bac e5be b60b 54be 8f51 8cbe
00000220: 0dd9 02bf a04e 9abe e873 d0be a2c1 0dbf
00000230: 5bb4 07bf 06e0 a5be 55fc 09bf c54b 21bf
00000240: a325 bebe 516b f2be a276 98be 0868 77be
00000250: d32f ccbe 4fe3 09bf
-0.55886227 -0.32660684 -0.2971824 -0.7165693 -0.41712263 -0.59183174 -0.37762207 -0.28844318
-0.16745013 -0.7445915 -0.56129044 -0.73349875 -0.7848254 -0.62017214 -0.47217444 -0.26817933
-0.4902345 -0.5564956 -0.6548592 -0.36903045 -0.75435436 -0.5067563 -0.62596554 -0.3536647
-0.47128144 -0.91390747 -0.68758386 -0.4057185 -0.53278375 -0.43000555 -0.50779104 -0.26805606
-0.47323146 -0.37222764 -0.20205455 -0.41558856 -0.54898673 -0.6377229 -0.5758502 -0.16645104
-0.6160355 -0.45668757 -0.5349581 -0.48380166 -0.46449393 -0.34813818 -0.5587829 -0.54882467
-0.39190298 -0.31546304 -0.39111948 -0.6700119 -0.5010956 -0.5229745 -0.53048617 -0.2597721
-0.65747625 -0.38697046 -0.6090739 -0.3621404 -0.46523306 -0.78322333 -0.6361382 -0.5307227
-0.41130206 -0.36699483 -0.44071102 -0.5041561 -0.3617351 -0.5881492 -0.69641215 -0.56147575
-0.6678945 -0.5983793 -0.69381166 -0.5190498 -0.29154286 -0.5022833 -0.63265026 -0.8153089
-0.44684327 -0.3159833 -0.31142062 -0.29765478 -0.38524646 -0.44921196 -0.48351595 -0.2880405
-0.3019388 -0.38492054 -0.72807366 -0.55300075 -0.3940584 -0.58722764 -0.5745158 -0.73604363
-0.5896745 -0.49065712 -0.45462257 -0.46112257 -0.38527033 -0.31695077 -0.53728294 -0.3165311
-0.4468232 -0.4655332 -0.4510401 -0.36370027 -0.2046758 -0.46962643 -0.52691233 -0.88463706
-0.52514195 -0.5946395 -0.4844817 -0.3854131 -0.5737586 -0.29411182 -0.1948324 -0.6376603
-0.3545508 -0.5083101 -0.48870376 -0.7007566 -0.45422745 -0.4848069 -0.7469293 -0.37127066
-0.33173427 -0.53933513 -0.8247782 -0.25534794 -0.45017594 -0.4485825 -0.20707592 -0.27405974
-0.51112443 -0.3013811 -0.4071343 -0.55373585 -0.53009576 -0.3239748 -0.53900653 -0.6300624
-0.3713809 -0.473475 -0.2977801 -0.24160779 -0.39880237 -0.5386247

classifier.1.running_mean f4 [150]
00000000: a3ee 79bf 0aae 023d 7c9b 1dbe 6445 8fbf
00000010: 70e7 ecbe 0ec8 603f 5212 99bf 6240 b33f
00000020: b559 a5be 37b5 113f c971 57bf 8c75 cabf
00000030: 0aae c53e d33b 563e 9443 e53d 1ca1 7f3d
00000040: d649 2dbe 6d6f e83e 814e efbd 4026 993e
00000050: 9fcf 8e3e fee1 d43e 27c6 d6be 6b8b 423e
00000060: ec60 e7be f3e2 863c ec3d 6a3f 21f6 5fbf
00000070: a0b2 f0bf 21a3 963d 9852 153e 9245 d43c
00000080: a296 353e 6b51 50bf 365e 07be 7629 d63e
00000090: 478f db3e 6638 bb3c 26eb 4a3e 0fcb 94be
000000a0: 992a a0bd d52c d63e 1842 ee3d c505 79be
000000b0: 8190 52be 73cc dbbe 3c08 5fbe 8c72 ccbe
000000c0: 0f17 e53d 98ef 493e c0ed 6cbe fcb8 9d3e
000000d0: e51c f0bd a1f0 61be 238d 10bf beca 00be
000000e0: 97b8 06be 5504 b4bd 5d8d 8e3d 7395 353d
000000f0: e83e 053f ed40 983d e5ac d93e a22a 523f
00000100: 2d04 99bf 2969 09bf cf54 33be e5bd da3e
00000110: 40ae b2bd 48cd 633f 65ca 543f f9a9 8fbe
00000120: 423b 65bf e545 25bc f624 463d 0505 bd3e
00000130: eec8 2f3e a721 63bd 2a78 4bbe 2ef0 0c3e
00000140: 5793 84bf fb7e 433e 6d9e 913e ba5e b6be
00000150: 7fcd dbbe 4169 edbe 2a2d a1bd fd6c c7bc
00000160: 0dd4 e13e 8581 afbd f3ed d43e 4ff1 153f
00000170: 0d51 1c3f ac9d 643c dd99 77be f2d3 a8bf
00000180: a85e 65bf 0a56 13c0 2778 823f 201d 8e3e
00000190: d1f2 03bf 940d bcbd 204d 67bd f7eb 8c3e
000001a0: 147e 623e 4b96 023d 5620 4b3f bc27 ecbe
000001b0: cf4b 73bd 11b7 e7bd 98ea e0bf 1ac3 b23d
000001c0: 4351 c03d b9fb 59bc 8abf ccbf 8b4c 983f
000001d0: 2056 13bf 5764 253f 82fb f7be 4f4c c13f
000001e0: f542 e93d 800d 72bf 4e95 be3d 251e 85be
000001f0: e945 62bf e3b8 45be f9e4 75bd d41d 043f
00000200: 11bb d13f 7ddf 4cbe 4f79 00bd b628 a6be
00000210: 28ec 6ebf 3d0a 30bf 6395 86be 7028 b63f
00000220: 24e6 01bf cd4e 313e 9b04 453d 9d40 3bbf
00000230: 2c69 65be e1e2 51bf b55d f5bd 1b04 48bd
00000240: 09f8 203d 24fe 923f a6aa 393e e275 3d3f
00000250: c129 cc3d fd23 55be
-0.97629756 0.031904258 -0.15391344 -1.1193051 -0.46270323 0.8780526 -1.1958716 1.4004023
-0.32295004 0.56917137 -0.84158 -1.5817122 0.38609344 0.20921259 0.1119453 0.062409505
-0.16922697 0.4539751 -0.11684895 0.29911995 0.27892777 0.41578668 -0.41948053 0.18998496
-0.45191133 0.01646564 0.91500735 -0.8748494 -1.8804512 0.07355333 0.14582288 0.02591208
0.17733243 -0.81374234 -0.13219532 0.41828507 0.4288275 0.022854041 0.19816265 -0.2906117
-0.07820625 0.4183108 0.116337 -0.24318607 -0.20562936 -0.4292942 -0.21780485 -0.39931142
0.11186039 0.19720304 -0.2313757 0.30805194 -0.11724261 -0.22064449 -0.5646536 -0.1257734
-0.13156353 -0.08789889 0.06960557 0.04433198 0.5204911 0.074342586 0.4251472 0.820963
-1.1954399 -0.53676087 -0.1751282 0.42723003 -0.08724642 0.8898511 0.8312133 -0.28059366
-0.89543545 -0.010087465 0.048375092 0.36917892 0.17166492 -0.055452015 -0.19870058 0.13763496
-1.0357465 0.19091408 0.28441182 -0.35619146 -0.4293022 -0.46369365 -0.078699425 -0.024343962
0.44107094 -0.08569626 0.4158779 0.5857133 0.61061174 0.0139536075 -0.24179788 -1.318968
-0.8959756 -2.3021264 1.0192918 0.27756596 -0.51542383 -0.09182277 -0.056470037 0.27523777
0.22118407 0.03188161 0.79346216 -0.46124065 -0.05939847 -0.11314214 -1.7571592 0.08728619
0.093904994 -0.013304644 -1.5995953 1.1898359 -0.5755329 0.6460623 -0.48434073 1.5101413
0.11389724 -0.9455185 0.09305821 -0.2599956 -0.88387924 -0.1930881 -0.06003282 0.51608014
1.6385213 -0.20007129 -0.03136569 -0.32452935 -0.93329096 -0.6876562 -0.26285848 1.423109
-0.5074179 0.17315216 0.048100095 -0.7314547 -0.22403401 -0.81986815 -0.11980764 -0.04883204
0.039299045 1.1483808 0.18131503 0.74008 0.099689014 -0.2081451

classifier.1.running_var f4 [150]
00000000: e2dd 423a 7aab ee3b fdc5 273b 40b0 873a
00000010: 32b8 c93a 7a50 6f3b 75f0 933b 54c6 013b
00000020: 3940 dc3b 6770 c73a 3375 073b 58ca 8d3a
00000030: 6186 633a ec0a 893b 882c 2d3a 86ce 983b
00000040: 7ac7 523a b186 ac3a 762b f33a cf2d 953a
00000050: b964 273a 664f 513a 05bf 843a 73a1 893a
00000060: 5aff 853a df7d 103a 5cf1 8a3a 080b e23a
00000070: abdc b03a 0399 2f3a 08b5 413a e704 943b
00000080: 90f3 1f3b c5be 4e3a 6165 863a 3977 983a
00000090: e03e 5b3a b449 ab39 40e8 d939 b055 163b
000000a0: 2276 2f3b 6480 193b a537 6f3a 9213 923a
000000b0: 1d51 c23a 215f 5c3b 9e69 d239 cb91 613b
000000c0: 8478 bf3a f2cb b83b ac1b 7a3b cf31 873a
000000d0: 64c1 053b 27fc 083a b00d 2c3a 5892 fe3a
000000e0: c46e 113b b764 5b3a 3ca8 8d3a 5993 ca3a
000000f0: 0212 9e3a 2d39 0a3b e706 083a 6fa3 153b
00000100: 1b3a cd3a b2da 633a 7934 363b 387c 9e3a
00000110: 5858 293c fe13 503a f3c1 843a 35ee e13a
00000120: d25a 123a 7cf4 193a b192 a73a 52f0 0c3a
00000130: 1532 d33a 0db1 343b 1f9f 5b3a 09b2 133b
00000140: 721c fa3a 9184 6939 9ef0 753b 1783 003c
00000150: ae48 f93a 72cf 063b f6e3 1a3a 3c07 c33a
00000160: a931 693b 2f94 a13a 8a77 423b 5c53 a03a
00000170: 623d 483a b81d af39 11c5 7d3a 60e7 143a
00000180: fb16 793a f504 3e3a 5e21 403b e259 083b
00000190: 7206 f43a c3e0 123b 181d c93a 8220 bc3a
000001a0: a52b 4f3a 86ba 223b ab31 a53a 1360 c23a
000001b0: 7476 773b 9131 8c3b 9039 0e3b f115 693a
000001c0: 70b6 9539 0b71 153a 585a 6f3a 75d4 3a3b
000001d0: 63ac 2d3a c209 233b fb0c 0d3a 1c37 4d3a
000001e0: 04a9 093b d824 a53a 16a4 803a 4d4c ac3a
000001f0: 7531 f83a 7f35 f539 f60d 8a39 0e26 e13a
00000200: d7ac 9c3a dc48 2a3a a615 783a 7ee7 003b
00000210: 8658 953a 43fb 5d3a fcc1 c63b 14b6 713a
00000220: 2ac7 0d3b 0d73 c53b 995a e83a 5895 123b
00000230: 412c 283b 8881 663b 4054 343a 64ba 5b3b
00000240: 94a2 3e3b b0b6 5c3a 5415 093b f2ea b13a
00000250: 08ef 863a 384c f33a
0.0007433576 0.007283625 0.0025600188 0.0010352209 0.0015389977 0.0036516474 0.0045147487 0.001980205
0.006721523 0.0015215994 0.0020669221 0.001081775 0.0008679387 0.00418221 0.0006606062 0.0046632914
0.00080405886 0.00131627 0.0018552381 0.001138145 0.0006385553 0.00079845486 0.0010127729 0.0010500386
0.0010223195 0.00055119203 0.0010600495 0.0017245719 0.0013493499 0.0006698521 0.00073893415 0.004517186
0.002440665 0.0007886703 0.0010253602 0.0011632211 0.0008363556 0.00032670575 0.00041562505 0.0022939257
0.0026773294 0.0023422474 0.0009125418 0.0011144748 0.0014825199 0.0033626037 0.00040133012 0.0034419175
0.001460806 0.0056395466 0.0038163466 0.0010314527 0.002040946 0.0005225562 0.0006563319 0.0019422276
0.0022191266 0.00083691947 0.0010807584 0.001545529 0.001205981 0.0021091208 0.0005189017 0.002283301
0.0015657576 0.0008691951 0.0027802272 0.0012091463 0.010336004 0.00079375494 0.0010128602 0.0017237129
0.0005582991 0.0005872918 0.0012784806 0.00053763867 0.0016112948 0.002757135 0.0008377898 0.0022536537
0.0019081964 0.00022269996 0.0037527452 0.007843754 0.0019018853 0.0020570424 0.00059086026 0.0014879475
0.0035582578 0.0012327487 0.0029673302 0.0012231874 0.0007638541 0.00033400743 0.0009680549 0.00056802295
0.00095020205 0.00072486635 0.0029316763 0.0020805527 0.0018617644 0.00224118 0.0015343754 0.001435295
0.0007902927 0.0024830415 0.0012603303 0.0014829658 0.0037759813 0.0042783697 0.002170179 0.0008891514
0.0002855542 0.00057007436 0.0009130589 0.0028507982 0.0006625114 0.0024877642 0.00053806574 0.00078283413
0.0021005282 0.0012599481 0.0009814526 0.0013145298 0.0018935638 0.000467699 0.00026331813 0.0017177479
0.0011953366 0.0006495842 0.0009463675 0.001966923 0.001139418 0.0008467922 0.006065605 0.0009220552
0.0021633604 0.006025678 0.0017727196 0.0022366848 0.0025661143 0.0035172421 0.00068790093 0.0033527846
0.0029088603 0.00084195565 0.0020917254 0.0013574047 0.0010294626 0.0018562144

classifier.4.weight f4 [110, 150]
00000000: 8ac4 b33d ac24 4abe 6daa 97bc 54de 3fbd
00000010: 86f7 123e 0004 7cbd 3e4a 1bbd f3dc 0f3e
00000020: 3464 f2bc 5624 073d dbdd acbe 331f ddbd
00000030: c669 29bc 1390 383e 4fa8 dbbe ba27 fcbc
00000040: ac91 d93d 5f19 73bd df10 623d 865b d7bd
00000050: d4bd 5a3e f400 b5be 0568 9a3d f01d 2dbe
00000060: 733a 413d 46cf 633d b2aa 2dbd d1f9 8bbe
00000070: 1d79 c8bd bdd3 6bbe 90bf bfbe d8ec eabc
00000080: dece 863b 3dc3 39bf 4b5f d8be a2f3 0bbe
00000090: 151a 9dbd a7fa 3fbd de7b d03d 02bb 1bbe
000000a0: 52d1 873d 9918 49bc a9c4 223d c38b 1cbe
000000b0: 2795 ad3c 1497 aaba b788 9ebd 00eb d5ba
000000c0: 4628 fb3b 8cce 583d 17f7 9e3c 0612 943e
000000d0: 047b 23bd eaa7 de3c 1a4c 00bf 0464 1f3c
000000e0: ba18 87be a3db 8dbe 1790 1b3d e21d e43d
000000f0: 88fd e43d bfc6 233e 94ee f03d e5d0 9bbc
00000100: 17e8 a6bd 2db7 cabc f0c7 2cbc 98a2 ffbe
00000110: 974d 3cbe 03ec 4f3e d2c7 053d 8a52 1f3e
00000120: 7de1 6b3a 44c0 013c a39d 6c3d 83cb d73d
00000130: e8c6 52be c72a edbd 6b33 75bc 8458 023e
00000140: ac88 a7be 6855 6dbe b0d7 92bd dfcb 063d
00000150: 801b 98be ec77 99bd d711 97be f2b1 b6bd
00000160: 5b18 24be a743 2cbe cf9c d03d 686b 0dbe
00000170: 9c57 39bc 5c7a efbd 1d22 fa3c e2c5 703d
00000180: 0403 583e 5bca 3fbf e8b6 b33d 63d3 533d
00000190: ab38 253d ea80 2b3a 6706 f03a 8231 afbe
000001a0: c725 b2be 7413 c9bd 99ee 2c3e e719 3bbe
000001b0: 58d5 e13d b07f 5fbe 43e9 b2b9 2141 c1be
000001c0: e965 293e 09bf 99be 3c17 77bd 1aef ab3c
000001d0: 1555 043e 3ba2 1cbd f6b7 82bc 5f50 1dbe
000001e0: 5882 27bd f177 cfbd 7ce8 29be de67 7e3d
000001f0: 9878 343c 9d47 59be 4ac3 843e 0372 9fbb
00000200: b770 20be 56f1 8c3d ebb5 c63d dc54 1f3d
00000210: 1b07 1dbd 44f2 893d d3db 1ebd 920c f4bd
00000220: 0347 6a3e 6aa4 993b 5ae4 573d 9f0b b8bd
00000230: 08ee 40bd 0e92 0f3e 8ef9 81bd 9b70 8b3d
00000240: f88c a43d 1f37 f5be 396f 01be 0ca4 2ebe
00000250: d4a2 0a3d e08d 0c3e a183 3f3e d8ad 2b3e
00000260: 2d58 8cbe 7571 3f3d 72a9 18be 5431 a7bc
00000270: 8080 e53d cdfb 023e f85e 533c 8bef 293e
00000280: 65b6 43be 5d8b 6c3e 759f 27be 01bf 3abe
00000290: 28d3 143e 9eac 843d 84af 3f3e f4a4 d9bd
000002a0: ba3d 19bf 7214 d73e d931 823e c60f 9ebd
000002b0: c50e 8fbd 908e 863d ff0b ab3d f373 3ebe
000002c0: 45af 8ebd dbc4 adbd e2ca 403e 575a a8bd
000002d0: ba9a 253e 1bbf 38be 6d72 ecba 8b21 263e
000002e0: bf37 eebd 622a efbd b295 ccbe 2f7f 14be
000002f0: a678 be3d 534f 5a3c 95b6 3ebe 77c8 87be
00000300: 1ea7 54be ca32 94be fac6 02bf b7dc 64be
00000310: ae0d 353e 13c1 f93d b98f 253d 3318 013e
00000320: ff1c 2b3e 6c2f b2be bf34 f2bd 52e9 ccbe
00000330: 02c6 56bd 1738 f5bd 1ccd f1be 7754 843d
00000340: d898 cb3e 21a9 96be 5771 3c3d da45 9b3d
00000350: 3776 a63d 711c 563e bcae 1abe 4b05 9dbe
00000360: cf94 aabe 44f8 943e 0934 833e 9261 083d
00000370: cc53 98be 47bb 2d3e eb6e 6fbe 56b6 913c
00000380: 47a1 28be 720a 50ba f2fc 093e 5260 e83c
00000390: 16ca 9ebe 4b8a 9b3e ee65 00be 8e7d 1bbe
000003a0: aec1 eebd 0a19 393c 0a88 ecbd d314 14bb
000003b0: 2ebf 773e 223a 053e df92 683e e1e8 023e
000003c0: 27ca 9c3d c85b a23d fae4 f3bd c95c 67be
000003d0: 6f11 3abe 0600 be3d 44a3 41be 3302 93bd
000003e0: 1265 2fbe 9469 d03d 2925 cc3d 2983 a0bd
000003f0: f833 833d 51fa c53d e252 4d3c 323b d73c
0.08777721 -0.19740552 -0.018513883 -0.046842888 0.14352235 -0.061527252 -0.0379126 0.14049129
-0.029588796 0.032993637 -0.33763012 -0.107969664 -0.01034016 0.1802371 -0.42901847 -0.030780662
0.10623488 -0.059350368 0.05519187 -0.105155036 0.21361476 -0.3535229 0.075393714 -0.16905951
0.047174882 0.055617593 -0.042399116 -0.27339032 -0.097887255 -0.2302999 -0.37450838 -0.028677389
0.004114016 -0.72563535 -0.42260203 -0.13667157 -0.076709904 -0.0468699 0.10179876 -0.15208057
0.066317216 -0.012273931 0.03973833 -0.1528769 0.021189285 -0.0013014995 -0.0774092 -0.0016320646
0.007664713 0.052931353 0.019404931 0.2892 -0.03991224 0.027179677 -0.5011612 0.009728435
-0.26386052 -0.27706632 0.03797921 0.11138512 0.1118117 0.15993784 0.11764255 -0.019020507
-0.081497364 -0.024745548 -0.010545716 -0.49928737 -0.18388973 0.20304875 0.032661267 0.1555883
0.0008998139 0.007919375 0.05776752 0.10536864 -0.20583689 -0.11580425 -0.014965872 0.12729079
-0.3272146 -0.23177111 -0.071700454 0.03290927 -0.2970848 -0.074935764 -0.29505798 -0.08920659
-0.16024916 -0.16822682 0.10186159 -0.13810503 -0.011312392 -0.1169326 0.030533845 0.058782466
0.210949 -0.74918145 0.08775121 0.051715266 0.040337246 0.0006542342 0.0018312455 -0.3421746
-0.34794447 -0.098181635 0.16887893 -0.182716 0.1102702 -0.21826053 -0.000341246 -0.37745002
0.16542782 -0.3002856 -0.060324892 0.020988036 0.12923081 -0.038240653 -0.01595686 -0.1536269
-0.04089579 -0.10130299 -0.16592592 0.062110774 0.01101508 -0.21218725 0.25930244 -0.004865886
-0.15667997 0.06881969 0.09702667 0.038899288 -0.038336854 0.067356616 -0.03878386 -0.1191646
0.22878651 0.004688789 0.052708007 -0.089865915 -0.047102004 0.14020559 -0.06346427 0.06808587
0.080347 -0.47893617 -0.12640084 -0.17054766 0.03384669 0.13725996 0.18702556 0.16765535
-0.27411023 0.04673906 -0.14908388 -0.020409264 0.1120615 0.12791367 0.01290106 0.16595285
-0.19112547 0.23100038 -0.16369422 -0.18236925 0.14533675 0.064782366 0.18719298 -0.106271654
-0.5985981 0.42007786 0.25428656 -0.07717852 -0.06985239 0.065701604 0.083518974 -0.18598919
-0.06967024 -0.08484813 0.18827394 -0.08220356 0.16172305 -0.18041651 -0.0018039473 0.16223733
-0.116317265 -0.11678006 -0.39957958 -0.14501642 0.093003556 0.013324576 -0.18624337 -0.2652013
-0.20766875 -0.28945 -0.51084864 -0.22349821 0.17681 0.12195029 0.040420268 0.12606888
0.1671028 -0.34801805 -0.11826467 -0.4002176 -0.05243493 -0.11973589 -0.472268 0.06461423
0.39765048 -0.2942591 0.046006527 0.075816825 0.081280164 0.20909287 -0.15105718 -0.306681
-0.33316657 0.29095662 0.25625637 0.033296175 -0.29751432 0.16965972 -0.23382156 0.01778714
-0.16467772 -0.0007936127 0.13475397 0.028366242 -0.31013554 0.30378947 -0.12538883 -0.15184614
-0.11658035 0.011297474 -0.11549385 -0.002259542 0.24194023 0.13010457 0.22712277 0.12784149
0.07655745 0.07927662 -0.11908908 -0.22593988 -0.18170713 0.09277348 -0.18909937 -0.07178154
-0.17128399 0.101763874 0.09968025 -0.07837517 0.064063966 0.09666885 0.012531968 0.026273344

classifier.4.bias f4 [110]
00000000: 2017 50bc e992 86bd a091 92bd 7e06 5dbd
00000010: 1a1c 33bd a2e0 1abd e18d 60bd 667c 9bbd
00000020: 7af9 e5bd 4882 8a3c 3d68 173d 0fd0 bf3d
00000030: ae6c 293e 21a5 b23d bb71 b0bd d76c e7bc
00000040: 7fef 98bc 05cf a03c 9d8c 0abe fd3a 98bd
00000050: 01da b03d 6b3a 8cbd 2f62 6e3d 338d 643c
00000060: 9348 fbbd 1e68 153d c438 4dbb 9dcf ef3d
00000070: 340e 113e 74fd f1bc a2d8 d13d b800 11bb
00000080: 9b41 563d da51 e03d 5c24 213c 259a babc
00000090: 87e1 06be 5cc0 10bd 7312 133e 31ca a4bd
000000a0: aa49 10bc a576 b53b ecd7 5cbd fc66 403d
000000b0: 76b4 89bd 5e7e a9bd da09 5abd 8253 103e
000000c0: f47c 013d 5991 473d f7eb 1abd 7b7c ebbc
000000d0: e7a3 d3bc b90c eabd 03ec 75bc 6899 a1bd
000000e0: e646 75bc 4901 0c3d e5ac c93d ea52 b8bc
000000f0: 9613 01bc 9ce0 7fbd d0d1 0b3d 2b6e b0bd
00000100: 6ec4 adbc 05d2 bb3d 237e 7dbd 8350 583e
00000110: 6d72 85bc 0756 23bd 8d7d e1bc a330 03be
00000120: 1c48 d0bd 0f52 84bd c4c4 a2bd 594b 9bbd
00000130: f09b 523d f2cf 2abd 2eba f3bc b1ef f03c
00000140: 4a64 a3bd 08da 2a3d 0ab4 fd3c 538f a8bd
00000150: 9bb4 9b3d dd9f 34be c6ea 4fbd ee2f 4b3d
00000160: 3b39 61bd 0e07 a63d d678 b7bc fba8 d6bd
00000170: ce9a 403d ad07 ea3b 1b1d 2b3d 5272 cb39
00000180: 4157 a43c f5f3 7bbd 96b2 f53b 6113 b43d
00000190: 06b8 6c3d f1a8 aebd 0f9f 9b3d 2124 063d
000001a0: 4d1c 813d 5af6 143c 6a6c ca3c 8ca8 5a3d
000001b0: 7c49 223d 1b86 c2bc
-0.012700826 -0.0657099 -0.07156682 -0.05396127 -0.04372797 -0.037811883 -0.054822806 -0.075920865
-0.112292245 0.016907826 0.036964644 0.09365856 0.16545364 0.08722902 -0.08615442 -0.028250141
-0.018668888 0.019629965 -0.13530202 -0.07433126 0.08635331 -0.0684708 0.058199104 0.01394968
-0.12269702 0.036476247 -0.0031314353 0.11709521 0.14165574 -0.029539801 0.102463976 -0.0022125673
0.05230866 0.10953112 0.009835329 -0.02277858 -0.1317197 -0.0353397 0.14362507 -0.080463775
-0.008806625 0.005537825 -0.053916857 0.046973214 -0.06723873 -0.08276056 -0.05323205 0.14094356
0.031613305 0.0487226 -0.03782269 -0.02874588 -0.02583499 -0.11428208 -0.015009883 -0.07890588
-0.014970517 0.034180913 0.0984743 -0.022500474 -0.007878205 -0.062470064 0.03413564 -0.08614763
-0.021211829 0.091709174 -0.06188787 0.21124463 -0.016289914 -0.039876964 -0.027525688 -0.12811522
-0.10170004 -0.06460964 -0.07947686 -0.07582731 0.051418245 -0.04170222 -0.029751863 0.029411169
-0.07978113 0.041711837 0.030969638 -0.08230462 0.07602807 -0.17639108 -0.050761007 0.049606256
-0.05498622 0.08106814 -0.022396486 -0.10481449 0.047022633 0.0071420283 0.041775804 0.00038804353
0.020061137 -0.061511952 0.0074980957 0.08792759 0.057792686 -0.08528317 0.075986974 0.0327493
0.06304226 0.009091938 0.024709899 0.053383395 0.03962086 -0.023745587

classifier.5.weight f4 [110]
00000000: 3ee2 833f 0c75 673f fe4a 833f a21b 333f
00000010: 01a2 863f 4b2f 893f 5517 883f 1914 523f
00000020: 6805 6d3f 7991 733f e316 523f b1fe 293f
00000030: 7fb0 623f 20ac 4b3f 9873 3d3f 1cb0 303f
00000040: 189e 433f 8ed3 803f 1e40 523f 9d65 363f
00000050: 9cc5 373f e0f3 5d3f cdde 7e3f 7190 4d3f
00000060: d6bf 373f 8b49 6e3f 8145 293f 582a 6f3f
00000070: cbc0 723f 8e56 6e3f 46ae 6b3f 0db0 813f
00000080: 32c9 653f 1aa0 4f3f 1966 763f 77b6 433f
00000090: 5a46 793f 4a01 653f c444 913f e786 683f
000000a0: 32a8 273f 6e8a 703f 8677 5d3f 4c8d 7b3f
000000b0: 4bdf 483f aa7c 4e3f 6fea 753f 50c3 6b3f
000000c0: 4e3c 693f 5636 7e3f 492f 1d3f bc05 6b3f
000000d0: cbb7 523f ab09 5f3f 19f3 803f 788c 283f
000000e0: 6845 373f d37f 883f e0ee 823f 9e77 7b3f
000000f0: 921c 5b3f 3352 743f a8cf 7e3f 40b4 503f
00000100: 97cd 7c3f 5d69 703f 37d3 883f f874 873f
00000110: 6a19 7e3f acaf 453f a627 523f c492 393f
00000120: dd0e 283f ed99 3f3f e70b 393f 8476 493f
00000130: 801f 573f 2077 273f 0d19 4e3f 8a58 783f
00000140: d0f1 3d3f 2b1f 663f 7a62 523f 9dea 863f
00000150: b87c 553f bad8 403f 7b54 5e3f c856 8b3f
00000160: a393 6b3f fbe3 333f 867f 4a3f a5ac 653f
00000170: 11c8 383f a9c7 683f 1cf2 8c3f f2e4 543f
00000180: 7c49 853f dd78 7d3f b3b6 593f fa0a 473f
00000190: d3a4 7b3f d5de 1b3f 4893 453f f3ad 513f
000001a0: 47d1 743f c59c 4d3f 077d 863f 70c1 433f
000001b0: 6d53 6b3f 9ca2 5c3f
1.0303419 0.90412974 1.0257261 0.6996404 1.051819 1.0717558 1.063212 0.82061917
0.92586374 0.9514385 0.8206617 0.66404253 0.8855056 0.79559517 0.7400451 0.6901872
0.76413107 1.0064561 0.82129085 0.712488 0.717859 0.8670025 0.99558717 0.80298525
0.71777093 0.9308097 0.6612168 0.93423986 0.9482543 0.9310082 0.92062795 1.0131851
0.89760125 0.8110367 0.9624954 0.76450294 0.9737297 0.8945509 1.1349111 0.90830845
0.6549102 0.93961227 0.86510503 0.98262477 0.7846572 0.8065897 0.9606084 0.920949
0.9110764 0.9930166 0.61400276 0.91805625 0.82311696 0.8712413 1.0074188 0.6583934
0.7159028 1.0664009 1.0229149 0.98229396 0.8559047 0.95437926 0.9953561 0.8152504
0.98751205 0.9391077 1.0689458 1.0582571 0.9925753 0.7722118 0.8209175 0.7248957
0.6564768 0.7484425 0.72283787 0.78696465 0.8403244 0.65416145 0.80506974 0.970101
0.741971 0.8989131 0.82181513 1.0540348 0.8339343 0.753307 0.86847657 1.0885859
0.9202215 0.70269746 0.79100835 0.8971656 0.7218028 0.9092966 1.1011386 0.8316184
1.0413051 0.9901255 0.850444 0.77751124 0.98298377 0.6088689 0.7717786 0.8190605
0.9563183 0.80317336 1.0506905 0.7646704 0.9192417 0.8618562

classifier.5.bias f4 [110]
00000000: 9070 48be d975 ddbe b132 20bf 2b94 c0be
00000010: cf1a b0be bfe8 f7be 4217 d5bd 6164 e8be
00000020: 94bd aebe d05d b7be 5af1 26bf 470c d2be
00000030: d830 a1be dd99 14bf 2eb3 65be af40 83be
00000040: 5d43 0ebf d5d1 8cbe f97e d9be 4933 15bf
00000050: b10c 3abe 812b c7be b236 38be 9ee2 9fbe
00000060: 45bc b6be e49b a3be 6ffd a6be 6476 aebe
00000070: d396 02bf 70f9 e3be 7add cabe 24c8 4abe
00000080: 09fb acbe 9131 c7be 923d 7bbe a53f 03bf
00000090: e6c9 f2be 6c39 d9be 502e 48bf 3f38 c3be
000000a0: 6b4d a2be ae24 d9be dee5 d6be 16b9 1dbf
000000b0: 8583 ffbe 4ece cabe dec8 ddbe fe16 f9be
000000c0: 9f81 10be e25e a8be 2a36 6fbe ca54 c8be
000000d0: 026a c1be 7127 f7be 0604 fdbe 053d 1ebf
000000e0: a1a2 b4be c91b 01bf 5469 c1be 4ec9 6fbf
000000f0: 4058 9ebe 0e04 27bf 65fd b1bd 832d b5be
00000100: 0c20 fcbe dbad cebe aeb3 1dbf e5d2 29bf
00000110: f7ab fbbe 819c debe 7bcf 16bf aed2 ecbe
00000120: a69d 23be 0824 8abe 7bdf 19bf 9fee 67be
00000130: 9c91 92be fb6a 8bbe c794 38bf ada3 b6be
00000140: d1a6 09bf 9db3 14bf a2a8 09bf 3cb0 04bf
00000150: 9a74 99be 17c5 11bf 1a65 b5be 0a51 42bf
00000160: 1ffb f3be 2684 a9be 5022 dbbe ad58 20bf
00000170: c7c1 b2be c38b 05bf 2e06 3dbf f6e2 1dbf
00000180: 351b f7be 685b c5be 1041 14bf 17e6 19bf
00000190: 41ee 8abe f43f 1ebf d3b8 78be f0a0 dabe
000001a0: 5fd1 aabe b0a2 11bf 5abc 3fbf eecf ebbe
000001b0: 22b3 aebe 3116 b5be
-0.19574189 -0.43253973 -0.6257735 -0.37613043 -0.34395453 -0.4841976 -0.10404827 -0.45389083
-0.34129012 -0.3581376 -0.65212023 -0.41024992 -0.31482577 -0.58047277 -0.22431633 -0.25635287
-0.5557154 -0.2750384 -0.42479685 -0.5828138 -0.18168904 -0.38900378 -0.17989615 -0.31227583
-0.35690513 -0.31954873 -0.3261523 -0.340747 -0.5101139 -0.44526243 -0.39622098 -0.1980291
-0.33785275 -0.38905004 -0.24535206 -0.5126899 -0.4741966 -0.42426622 -0.7819567 -0.3812885
-0.3169969 -0.42410797 -0.4197225 -0.61610544 -0.4990503 -0.39610523 -0.43317312 -0.48650354
-0.14111947 -0.3288489 -0.23360506 -0.3912719 -0.3777619 -0.4827228 -0.49417132 -0.6181186
-0.35280326 -0.5043302 -0.3777567 -0.9366654 -0.30926704 -0.6524056 -0.08690909 -0.35386285
-0.492432 -0.40367016 -0.61602294 -0.66337425 -0.49154636 -0.43478778 -0.5891034 -0.46254486
-0.15978107 -0.26980615 -0.6010663 -0.2264962 -0.28626716 -0.27230057 -0.72102016 -0.3567175
-0.53770167 -0.5808657 -0.5377294 -0.5183141 -0.29971772 -0.5694136 -0.35428697 -0.75904906
-0.47652528 -0.33108634 -0.42799616 -0.6263531 -0.34913465 -0.52166384 -0.73837554 -0.6167444
-0.48262945 -0.385463 -0.5791178 -0.60116714 -0.27134898 -0.61816335 -0.24289255 -0.4270091
-0.33362862 -0.56888866 -0.74896777 -0.46057075 -0.34121042 -0.35368493

classifier.5.running_mean f4 [110]
00000000: da5a a4bf fcbb 2ebf 7ca5 9bbf a8ae 61bf
00000010: 0200 8abf 938a c9bf cade b0bf e8ff 7abf
00000020: e300 88bf 7fe0 88bf 6881 4dbf 64e6 29bf
00000030: 81fc c4be cff7 71bf 0eea 65bf bebb 70bf
00000040: 21f0 9fbf 6369 8dbf be51 a5bf 9173 4dbf
00000050: f3a0 133d 3266 72bf 9350 65bf 7e29 5dbf
00000060: a4cf 42bf 313e 81bf 3099 44bf 5491 51bf
00000070: da92 5ebf 0e09 8ebe e839 4cbf 1c10 55bf
00000080: d707 6ebf e993 cdbe 77f0 f1be faed 8abf
00000090: 0719 6cbf 68f1 55bf 4827 7ebf 390f 81bf
000000a0: 4d2c 24bf 1c10 6cbe c429 99bf 0ba0 55bf
000000b0: a5fb 62bf ab77 90bf 4474 93bf b65e 3cbf
000000c0: daae d13d 771c 78bf 470c 743e 3e9e a7bf
000000d0: 1ca7 35bf aa21 91bf c878 63bf 4b6e abbf
000000e0: 97bb 2fbf a8f9 4bbf 6c3f 8abf d7e8 81bf
000000f0: 1c73 33bf 6618 a8bf 953c 75bf 746b 44bf
00000100: 42f8 b9bf b848 85bf aa74 9bbf 7d5a 29bf
00000110: b3f6 7fbf 338e 68bf 7122 72bf bef1 6ebf
00000120: 94a5 34bf 0b48 07bf b761 90bf 8b61 98be
00000130: 322b 62be 5eed 1fbe 88e6 96bf 2ac1 32bf
00000140: 23c8 35bf cb27 b3bf 2822 a9bf 9519 46bf
00000150: ff37 5fbf 2f27 a2bf 6ebe 54bf 8272 5abf
00000160: 11ec adbf 3a16 bdbe 13a4 9dbf 274d 9abf
00000170: 4519 7fbf 718d bcbe cf2f b2bf a663 aabf
00000180: be1b 11bf 9dd4 64bf 9a75 91bf d3be 60bf
00000190: abfd c3bf c1ed 29bf 98e5 be3e 1441 18bf
000001a0: 7288 cebe 7475 88bf ceaa 69bf 9551 90bf
000001b0: ccec 4fbf 14e1 94bf
-1.2840226 -0.6825559 -1.2159877 -0.8815713 -1.0781252 -1.5745414 -1.381799 -0.9804673
-1.0625271 -1.0693511 -0.80275583 -0.66367173 -0.38473895 -0.9451875 -0.89810264 -0.9403647
-1.2495157 -1.1047786 -1.2915571 -0.80254465 0.036042165 -0.9468719 -0.8957607 -0.8639144
-0.76098084 -1.0097104 -0.76796246 -0.8186238 -0.8694283 -0.27741283 -0.7977586 -0.83227706
-0.9298071 -0.4015191 -0.47253773 -1.0853875 -0.9222569 -0.8357148 -0.9927869 -1.008277
-0.641301 -0.2305302 -1.1965871 -0.8344733 -0.8866523 -1.128652 -1.1519856 -0.7358202
0.102384284 -0.96918434 0.23832808 -1.3095167 -0.70958114 -1.1338398 -0.8885617 -1.3393034
-0.68645614 -0.7967782 -1.0800605 -1.0149182 -0.7009752 -1.3132446 -0.95795566 -0.7672646
-1.4528887 -1.0412817 -1.2144978 -0.661537 -0.9998581 -0.9084198 -0.94583803 -0.9333762
-0.7056515 -0.52844304 -1.127982 -0.2976192 -0.2208679 -0.15617892 -1.1789103 -0.69825995
-0.7100851 -1.3996519 -1.3213549 -0.77382785 -0.8719482 -1.2668208 -0.8310307 -0.85330975
-1.3587667 -0.3693102 -1.2315696 -1.2054795 -0.99647933 -0.3682666 -1.392084 -1.331166
-0.56682956 -0.8938692 -1.1364014 -0.87791175 -1.5311788 -0.6637841 0.3728454 -0.594743
-0.40338475 -1.0660844 -0.9127625 -1.1274897 -0.812207 -1.1631188

classifier.5.running_var f4 [110]
00000000: 7810 1340 2044 763f c9b1 e63f 61cc 563f
00000010: b641 bf3f 015a b13f 079a c93f 9a3d d53f
00000020: 5d05 dc3f d090 0140 be57 443f 4aed 9f3f
00000030: de63 0640 c6fb 5c3f 1157 fa3f 2bec 993f
00000040: e6a1 af3f 2c24 eb3f 64bd 0a40 d25e 413f
00000050: 88a4 a43f b4ce 3940 12e8 cb3f ae1d 0b40
00000060: bf9c 973f 0055 e73f b0b6 b53f 5854 1d40
00000070: 84b0 f23f fa98 c63f 52d3 d03f 565e 2240
00000080: ae9a 3640 4d77 903f e308 0240 ab6f cf3f
00000090: e5eb d43f ecb9 9a3f eb88 d43f 445e e23f
000000a0: a2dc b23f 3a8b b13f e0c3 0840 4a72 963f
000000b0: 94a5 4e3f 3414 2540 060a 533f 6a2a c13f
000000c0: 39df 0140 62f6 0640 dfa3 2a3f 0136 0540
000000d0: fcbd ad3f e6a4 c73f 49c3 4c3f 4028 303f
000000e0: 67e2 ad3f 5985 0d40 f804 b83f 9e49 853f
000000f0: cbf2 ac3f 1f2c be3f 9754 b03f 5c28 863f
00000100: 7d63 b53f d6e0 f23f ca62 a13f 2b96 903f
00000110: 9dd4 0240 db5d 893f bc97 b63f 2b93 933f
00000120: d7e0 b53f 1c82 853f 5286 9e3f f7f1 b73f
00000130: 3deb 0740 e115 9c3f 418f d63f 110b 1240
00000140: 9e78 953f 5122 b33f 736c da3f 714f 1240
00000150: 1434 1240 de7a 403f f075 0c40 980b 8e3f
00000160: c631 3740 bd4c 8a3f 9c46 0240 8ac8 9c3f
00000170: 0165 0240 0127 ad3f 23ea fa3f 4cdb b13f
00000180: cc11 e93f bc28 bb3f 9d71 453f 4393 b63f
00000190: 4e8b ca3f d8d2 f53e c507 903f 0bd8 b63f
000001a0: 1009 c13f 4c69 c83f 8a73 833f 7e1b d03f
000001b0: 1fa2 0340 3190 2840
2.2978802 0.961977 1.8023006 0.8390561 1.4941928 1.3855592 1.575013 1.6659424
1.7189137 2.0244637 0.76696384 1.249429 2.0998454 0.86321676 1.955782 1.2025198
1.3721282 1.8370414 2.1678095 0.7553531 1.2862711 2.9032412 1.5930197 2.1736865
1.184471 1.8072815 1.4196377 2.458273 1.8960118 1.5515435 1.631449 2.5370078
2.853191 1.1286408 2.0317924 1.6205953 1.6634489 1.2087989 1.6604284 1.7685018
1.3973582 1.3870614 2.1369553 1.1753628 0.807214 2.579358 0.8243717 1.5091069
2.0292494 2.108788 0.666563 2.0814211 1.3573604 1.5597198 0.7998548 0.68811417
1.3584718 2.211264 1.4376516 1.0413091 1.3511595 1.4857215 1.3775815 1.0481067
1.4170986 1.8974864 1.2608273 1.1295828 2.044227 1.0731767 1.4265056 1.1529287
1.4209241 1.0430331 1.2384741 1.4370717 2.1237328 1.2194177 1.6762468 2.2819254
1.1677434 1.3994848 1.7064346 2.2860987 2.2844286 0.7518748 2.1946983 1.1097288
2.862413 1.0804669 2.0355597 1.22487 2.0374148 1.3527528 1.9602703 1.3895049
1.8208556 1.4621806 0.77126485 1.4263691 1.5823762 0.48012424 1.1252371 1.4284681
1.5080891 1.5657134 1.0269635 1.625839 2.05677 2.6338007

classifier.8.weight f4 [150, 110]
00000000: 04fa 01be 86f9 073e 5546 a33d e3c6 6bbe
00000010: 1a86 813d 544d 9fbe b3b0 d93d 9551 693d
00000020: 023c 823e 2fc2 0f3e 173e 8b3d 670b 54be
00000030: b86a 98bd c9b6 c4bd 67ae b7bd 9d9f 0dbe
00000040: e031 15bd f34e 6b3e bac8 2c3c ab5f b7be
00000050: d9b7 4f3d 9171 db3d b049 583e 7456 953e
00000060: b143 e1bc acb5 403e 9711 b3be 3afa 2d3d
00000070: 493c b13d 5f24 673d 3d11 313d d270 223e
00000080: f2a5 173e fa52 e93b 4595 9f3d 27ad 02bf
00000090: 39c6 943d 9211 adbc 4de0 683e b37a 483d
000000a0: 749d 78be 4378 a0bb b442 c73d 4996 fb3d
000000b0: a536 0f3e 3923 803d bc65 b63d 7c09 74bc
000000c0: a2b7 c23d 5e60 2d3e 2716 153e 314d 1cbe
000000d0: 120b 4b3c 263b b4bd 4244 4e3e b2fd 8fbe
000000e0: 3dc3 0cbe 8f31 e7bc 6c07 33be b4db b13e
000000f0: c4f5 47bd 401c 0b3e 5012 cb3d 0d72 b63d
00000100: 906f 5bbe 5e4d d23d 8b88 973d a5d6 dc3e
00000110: 12bf 193d d262 eabe 0c50 21be 05db 423e
00000120: c294 9cbd 58b6 273d e8a7 f8be 841c d93d
00000130: 67cc da3a 3b78 ca3d 8f9b 8a3d 8676 85bc
00000140: 8175 b6be cbd6 0ebe 6ec1 9abc d222 32bd
00000150: 66fa 063e abb5 453e d38b b23d 44bf 803e
00000160: 6b52 e3bd 6488 54be f07b 88be 4775 23be
00000170: cf1a 9dbe c2c2 873c 0df6 ef3d b11a 52be
00000180: b68c dfbb 6790 8b3d d8e6 59be 2fcb 2fbf
00000190: 24ff 96be 7914 a3bd f70f ea3d 034a 603e
000001a0: 2014 4c3d eac2 0cbe 2f65 ac3e e430 fdbe
000001b0: cc71 283e 16c7 a23c 32d3 45be 4147 3f3e
000001c0: a41c e8be 757c 593d b1d7 a1bd 05fa 51be
000001d0: b61f 0abe 6ee4 abbc 63d5 7ebd 6e84 fdbd
000001e0: 6a92 3e3d 7d9e ba3d e055 e1bd 86d9 873d
000001f0: 74b1 e13d d4bd 09bd 0368 343e d637 00be
00000200: 7a21 343c f2bb e63d f81d 403c c4d0 fe3d
00000210: 2b72 d7bd 86d4 29be b8a4 403e ad81 70be
00000220: d655 a73d 3c36 c3bd 6a23 683d dfe9 34ba
00000230: 4ea9 2ebe 841d a1bd 8ec2 30be 073f 3ebe
00000240: 3a9d a5be 737a 513e c9af 85be 1274 cfbc
00000250: 1dfe 00bf 7f3d 3bbe 5970 abbd 6cee 37bd
00000260: 3548 8bbd 1365 95bd 4f1f 54bd 0442 4c3d
00000270: c1f7 e1bc e3d5 58bd 1789 4a3d 3199 27be
00000280: e615 cfbc 6445 893e 7fc1 37bd 76a0 7d3d
00000290: d4a9 a83c dbb1 033c 7a0e a43d 6c5f 4bbe
000002a0: b4cc 9a3e 5b69 20bd 1ff6 2abd 38fa 0fbd
000002b0: 16b0 a9bd 60c8 bcbd 6aeb ae3d 768c 51be
000002c0: 7357 3cbe 2d65 483d 6afb ffbe 6447 1b3d
000002d0: f0e9 9f3d 2e42 45bd 9488 fa3d 9ebc bcbd
000002e0: f217 d33b 5fff 303d 29bf 663b 9afe cc3d
000002f0: d608 b93d 1592 9dbe ac4a cc3d 77c1 753e
00000300: 6330 11bd 50eb 3dbe b34d 33be ecc7 b4bd
00000310: 9bd3 1bbf 6ee7 b3bd 3a4b 13be 1748 bdbc
00000320: 8bfc 1d3e 6a61 15bd 2e35 bdbd f82d b43b
00000330: 2930 30bf 7e5c 473e 5163 43bf 8970 2bbd
00000340: 365d 363d 5117 dc3d 5a6f 17be ec6b 353e
00000350: dfc0 163e 1581 c0bd a1f1 e93d 112d 8b3e
00000360: 871c 43bd 3a4d 203d 2dc8 8fbd 4292 e1be
00000370: 945f 87bc 3c79 25be 8bc3 26be 85de 2f3e
00000380: 954f 3c3d d1a6 20be e463 973e c0b2 fdbc
00000390: 834b 253d c28f 123e a7b8 3cbe e6de af3d
000003a0: 2e3d 19bd f0b4 abbd 4001 db3d e35c c43d
000003b0: 90a4 a3bd 4cb9 a13e a8b6 e23d 1021 3f3b
000003c0: b383 64bd c1a5 25bc 4b1c 70be b17e afbe
000003d0: eeb6 83bd 042a c83d b653 ef3d 507f 61be
000003e0: 040a ce3d a34d a3bd 5336 debd 03a8 01be
000003f0: 3188 fdbe 8aab c0bd 1190 abbd 1f9f 6d3d
-0.1269303 0.1327878 0.07972399 -0.23025088 0.06324406 -0.31113684 0.10629406 0.05696257
0.25436407 0.14038919 0.06798952 -0.20707475 -0.0744223 -0.09605176 -0.089688115 -0.13830419
-0.036424518 0.22979335 0.010545904 -0.35815176 0.05071244 0.107150204 0.2112186 0.2916752
-0.027498098 0.18819302 -0.34974357 0.042474963 0.086540766 0.05643117 0.04322933 0.1586335
0.14809397 0.0071204873 0.07792143 -0.5104546 0.072643705 -0.021126542 0.22741814 0.04894514
-0.24278814 -0.004897149 0.097295195 0.12284524 0.13985689 0.06256718 0.08906123 -0.014894839
0.095076814 0.16931292 0.14559232 -0.15263821 0.012392776 -0.08800344 0.20143226 -0.28123242
-0.13746352 -0.028221874 -0.174833 0.34737933 -0.048818365 0.13584995 0.09915602 0.08908472
-0.21429276 0.10268663 0.073990904 0.4313251 0.037535734 -0.4577852 -0.15753192 0.19028862
-0.07645561 0.04094538 -0.48565602 0.10601142 0.0016692997 0.098862134 0.06767952 -0.016291868
-0.35636523 -0.13949125 -0.018891063 -0.04349024 0.13181457 0.19307582 0.087180756 0.25145924
-0.11099704 -0.20755154 -0.26657057 -0.15962707 -0.30684516 0.01657236 0.11716852 -0.20517994
-0.006822194 0.06814652 -0.21279466 -0.6866941 -0.29491532 -0.07962889 0.11428826 0.21903233
0.04982388 -0.13746229 0.33670947 -0.49451363 0.1644966 0.019870322 -0.19318846 0.18679525
-0.4533435 0.053097207 -0.07902468 -0.20505531 -0.1348866 -0.020982947 -0.06221522 -0.123787746
0.04652635 0.091122605 -0.110027075 0.06633286 0.110201746 -0.0336283 0.17617802 -0.125213
0.01099431 0.112663165 0.011725895 0.12442163 -0.10519823 -0.16584978 0.18812835 -0.23486967
0.08170669 -0.09531829 0.0566744 -0.00069013046 -0.17056772 -0.07866958 -0.17261717 -0.1857873
-0.32346517 0.20456867 -0.26110676 -0.025323901 -0.50387746 -0.18285178 -0.08371038 -0.04490511
-0.06800882 -0.07294669 -0.05178767 0.049867645 -0.027583959 -0.052938353 0.049447145 -0.16367032
-0.025278997 0.26810753 -0.044862267 0.061920606 0.020588793 0.0080380095 0.08010574 -0.1986062
0.302343 -0.039162975 -0.041738626 -0.035150737 -0.08285539 -0.09217906 0.085409954 -0.20463738
-0.18392734 0.048924614 -0.499965 0.03790988 0.07808292 -0.048158817 0.122330815 -0.092156634
0.0064420635 0.04321229 0.0035209155 0.10009499 0.090348884 -0.30775514 0.0997518 0.23999582
-0.035446536 -0.18546796 -0.17510109 -0.088271946 -0.6086976 -0.08784376 -0.14384165 -0.023105664
0.15428369 -0.036469854 -0.09238659 0.005498644 -0.68823487 0.19468877 -0.7632342 -0.04185537
0.044522487 0.10746635 -0.14788571 0.1771695 0.14722012 -0.093996204 0.1142304 0.2718282
-0.047634628 0.03913615 -0.070206024 -0.44056898 -0.016525067 -0.16159528 -0.16285531 0.17174728
0.045974333 -0.15688635 0.29568398 -0.030969024 0.040355217 0.14312652 -0.18429814 0.085874364
-0.03741186 -0.083841205 0.10693598 0.09588029 -0.07990372 0.31586683 0.11069995 0.0029163994
-0.05578966 -0.01011032 -0.23448293 -0.34276345 -0.064313754 0.09773639 0.116858885 -0.22021222
0.10060504 -0.079737924 -0.10850205 -0.12661748 -0.49517968 -0.094077185 -0.08377088 0.058013078
