ckpt/MAP_HF/2/best_loss_BEST2.ckpt (torch, 310240 bytes, 19 tensors)

classifier.0.weight f4 [170, 27]
-0.07418968 -0.04718228 0.022100275 0.31070864 0.20371082 -0.2951167 0.07609169 0.03633385
-0.04574007 -0.0047957385 -0.029627388 -0.022600085 -0.37617582 0.22788203 -0.24852464 -1.6879425
-0.35329887 -0.14689839 0.010227701 -0.14532544 -0.096777886 0.17742775 0.112175435 -0.2463361
-0.242006 -0.07317399 0.4668672 0.2100272 -0.12914635 0.111738615 0.28206035 -0.258963
0.0827739 -0.12777215 -0.01605925 -0.56340206 0.15848288 -0.17377378 -0.0654769 -0.31583607
0.18415347 -0.2575735 -1.1913477 0.0043945177 -0.079953544 0.060255315 -0.059546597 -0.12208236
-0.08281203 0.05782368 -0.1557366 -0.068861924 0.049163934 0.37301686 0.1980407 0.058173113
0.1240954 0.14919552 -0.00056321704 -0.34257942 0.10384203 -0.026940946 -0.019009752 0.052050997
0.15621693 0.02432477 -0.6006999 0.041360322 -0.4024065 0.10198724 -0.37640902 0.2427447
0.026058808 -0.044175312 0.22670679 0.10549256 0.21815531 -0.30389172 -0.11570344 0.005269543
-0.08369317 0.15157588 0.08815932 -0.16275087 0.25108778 0.078387685 0.33478248 -0.1718978
0.05617319 -0.0024801136 0.20266446 0.019157432 0.05745028 0.30398488 -0.12273624 -0.10144384
-0.47405744 -0.24526198 -0.15473956 -0.11205035 6.061234e-05 -0.36211547 0.21158855 -0.006766165
0.007214624 0.33444095 -0.28667444 0.015592598 -0.20307994 -0.18309619 0.025620367 -0.054266382
0.06951317 0.004090339 -0.1398543 -0.10877311 -0.112890705 -0.19782108 -0.16047491 -0.08358839
-0.45266542 -0.059889946 -0.04439103 -0.07001915 0.026481107 0.035393678 0.17188996 -0.18671422
-0.16333224 0.02727058 0.23562923 -0.64209855 0.09879515 0.008151058 0.066192925 0.08391749
-0.21877007 -0.06453903 -0.23209392 0.027879482 -0.108825654 0.19144218 -0.03190023 -0.3346086
-0.07865121 -0.25399074 0.02595531 1.4766074 -0.1371249 0.11199534 1.1420425 0.3214593
0.04758828 0.010562766 0.053656396 0.022382453 -0.26370585 -0.09423763 0.106986806 0.04287821
-0.21663032 -0.55809575 -0.028817784 0.36571056 0.008106351 -0.44634393 0.0518142 0.112528086
-0.056223422 -0.011377323 -0.14064017 -0.15240562 -0.053405147 0.29726154 -1.0042282 0.030862072
-0.23072812 -0.71388656 0.11928309 -0.33992156 -0.08792675 0.056812093 -0.090423964 -0.1220089
-0.35637435 0.07007811 -0.18196653 -0.054323614 0.073782444 -0.009275672 -0.1306134 -0.011654264
-0.09910632 -0.14910349 0.32779434 0.09310513 -0.035496242 0.09811098 0.04378427 0.3157154
-0.24450366 -0.6806924 -0.035466366 0.027955387 -0.11074287 0.035948083 0.039635062 0.13635929
0.11804455 0.15827323 0.15935834 -0.050090794 0.45211545 0.119130395 -0.193213 -0.5099036
0.051581338 -0.1603385 -0.09768342 0.26016992 0.035468742 0.15614247 -0.07171342 0.13465412
0.010356174 0.08061221 0.08595287 0.08549625 -0.1984427 -0.64455044 -0.40314734 0.25396508
0.24635923 -0.2397197 -0.16027772 0.17436823 -0.25639126 0.040473603 0.20764048 -0.014135561
-0.032539964 -0.48653048 0.061366428 0.14977598 -0.062334597 0.03483763 -0.3491552 0.07867902
0.09978892 -0.13589005 -0.0067831776 -0.2873518 0.2850776 -0.2616477 -0.6503566 -0.2811263
00000000: c2f0 97bd 3542 41bd a30b b53c 3415 9f3e
00000010: 9299 503e 8919 97be f6d5 9b3d ced2 143d
00000020: f159 3bbd 9225 9dbb 23b5 f2bc d023 b9bc
00000030: 1e9a c0be e859 693e 3e7d 7ebe 800e d8bf
00000040: 97e3 b4be 886c 16be 1692 273c 31d0 14be
00000050: 7c33 c6bd 9faf 353e 3cbc e53d 883f 7cbe
00000060: 6cd0 77be 3fdc 95bd 3809 ef3e 5f11 573e
00000070: f13e 04be 37d7 e43d 376a 903e cc96 84be
00000080: 5d85 a93d b4d6 02be b08e 83bc 1e3b 10bf
00000090: 5649 223e c1f1 31be c118 86bd 44b5 a1be
000000a0: ba92 3c3e ace0 83be 157e 98bf e3ff 8f3b
000000b0: afbe a3bd 47ce 763d 22e7 73bd 5106 fabd
000000c0: 5b99 a9bd 86d8 6c3d 6a79 1fbe 7b07 8dbd
000000d0: 1f60 493d 11fc be3e 2ecb 4a3e ee46 6e3d
000000e0: bb25 fe3d b6c6 183e dba4 13ba 9266 afbe
000000f0: 21ab d43d 42b3 dcbc 57ba 9bbc 6d33 553d
00000100: 55f7 1f3e bd44 c73c 78c7 19bf 7169 293d
00000110: 3a08 cebe b0de d03d afb8 c0be 1192 783e
00000120: 4879 d53c 2cf1 34bd d325 683e 7c0c d83d
00000130: 1b64 5f3e b297 9bbe edf5 ecbd 21ac ac3b
00000140: 5367 abbd b536 1b3e e08c b43d 2aa8 26be
00000150: 948e 803e b989 a03d 9c68 ab3e fa05 30be
00000160: dc15 663d 6789 22bb 4687 4f3e 0cf0 9c3c
00000170: fc50 6b3d e8a3 9b3e 235d fbbd cac1 cfbd
00000180: a8b7 f2be f525 7bbe 0c74 1ebe a77a e5bd
00000190: 013a 7e38 3367 b9be abaa 583e b5b6 ddbb
000001a0: a768 ec3b d83b ab3e fec6 92be 1978 7f3c
000001b0: 30f4 4fbe 917d 3bbe cee1 d13c 6d46 5ebd
000001c0: ec5c 8e3d 4008 863b f735 0fbe 70c4 debd
000001d0: 3e33 e7bd 9c91 4abe 8953 24be 6430 abbd
000001e0: c3c3 e7be 294f 75bd 5ed3 35bd 3366 8fbd
000001f0: e8ee d83c f6f8 103d ec03 303e 0332 3fbe
00000200: 9140 27be 8d66 df3c ca48 713e 9260 24bf
00000210: 1d55 ca3d 048c 053c 2890 873d efdc ab3d
00000220: 4305 60be 0a2d 84bd 07aa 6dbe 8363 e43c
00000230: fcdf debd 6b09 443e d1a9 02bd d251 abbe
00000240: e313 a1bd 130b 82be 3ba0 d43c 7901 bd3f
00000250: 786a 0cbe d05d e53d 732e 923f 5096 a43e
00000260: eeeb 423d 740f 2d3c cfc6 5b3d 685b b73c
00000270: 7404 87be a9ff c0bd e61b db3d 10a1 2f3d
00000280: 57d4 5dbe 5ddf 0ebf 4613 ecbc 6a3e bb3e
00000290: 80d0 043c 3187 e4be 203b 543d 2075 e63d
000002a0: 884a 66bd f467 3abc fa03 10be 3810 1cbe
000002b0: 5bbf 5abd aa32 983e 8d8a 80bf 75d2 fc3c
000002c0: fe43 6cbe 45c1 36bf b14a f43d 330a aebe
000002d0: f112 b4bd ccb3 683d 3330 b9bd cddf f9bd
000002e0: b376 b6be 1d85 8f3d 6f55 3abe 7082 5ebd
000002f0: 401b 973d fdf8 17bc 85bf 05be 87f1 3ebc
00000300: 41f8 cabd 96ae 18be a9d4 a73e e7ad be3d
00000310: 8264 11bd 69ee c83d 2257 333d 73a5 a13e
00000320: 2b5f 7abe db41 2ebf 2e45 11bd b202 e53c
00000330: 28cd e2bd 4c3e 133d 6058 223d c5a1 0b3e
00000340: 57c1 f13d 6112 223e d52e 233e 012c 4dbd
00000350: ad7b e73e a3fa f33d a1d9 45be 0b89 02bf
00000360: f446 533d c72f 24be 3f0e c8bd fe34 853e
00000370: ac47 113d d0e3 1f3e 7cde 92bd c5e2 093e
00000380: f1ac 293c 0418 a53d 0f08 b03d a818 af3d
00000390: 9034 4bbe 4201 25bf 5469 cebe b607 823e
000003a0: 9845 7c3e 1579 75be d81f 24be 968d 323e
000003b0: b745 83be a6c7 253d b59f 543e d798 67bc
000003c0: a048 05bd 861a f9be 5d5b 7b3d e05e 193e
000003d0: 9052 7fbd e7b1 0e3d 78c4 b2be 7722 a13d
000003e0: 225e cc3d c326 0bbe 6b45 debb c61f 93be
000003f0: b1f5 913e b0f6 85be c57d 26bf c9ef 8fbe

classifier.0.bias f4 [170]
-0.15668796 0.13099065 0.37217042 0.002176566 0.12362599 0.10701866 -0.018458119 0.22626573
-0.14108504 -0.24412352 0.35455635 -0.10870347 0.31272626 0.20158583 0.014934882 -0.17470261
-0.08012948 -0.20680316 -0.22729808 -0.5069312 0.18064022 0.022762187 0.015503264 0.4382163
-0.13045193 0.11652974 -0.022657897 -0.36729065 0.13362706 0.13194121 -0.10204826 0.03646708
0.027586857 -0.122692324 0.28597784 -0.17768733 0.36299035 0.06368173 0.20059882 -0.3344124
0.13320637 0.027963176 0.023585482 0.06832474 -0.24628443 0.044007022 -0.17197362 -0.009902773
-0.10748404 0.35026923 0.21440409 0.19723783 -0.15142408 -0.13493927 -0.2306102 0.024605902
-0.115337506 0.28086197 0.00045509695 0.14139155 -0.067186326 0.019763391 -0.19206412 -0.16894403
-0.029290086 -0.028479181 -0.20579697 0.014780206 0.019992964 -0.09073206 -0.033949293 0.16429907
-0.22303471 -0.23744376 -0.022185259 0.1591094 -0.036937755 -0.07157468 0.22115293 -0.39230654
-0.20488743 0.111393556 -0.14006998 0.30389905 -0.1081158 -0.079571486 0.30851442 -0.08789969
0.19384204 0.09035552 0.16091889 0.04273046 0.2799319 -0.38294512 0.08088449 0.017249994
0.10144612 0.03187471 -0.19541478 -0.01422221 -0.0987273 -0.18075716 -0.3147779 0.028804481
-0.38413176 0.034069225 0.14341836 0.0171055 -0.17159812 0.12891813 0.1487076 0.15211986
0.16889128 -0.3464187 -0.1629555 -0.11337042 -0.24255395 0.034304876 -0.35493562 -0.10740405
0.0570207 -0.19103414 -0.33700284 0.19161136 -0.12863101 -0.31693473 -0.19454059 -0.08440257
-0.16983113 0.029769609 -0.07940948 0.25855067 -0.2153304 0.29331523 -0.27172014 -0.06545697
0.27691075 -0.03621715 0.18738258 0.17239136 0.0729994 -0.18281886 0.042631637 -0.079437375
-0.19384815 -0.0076941284 -0.098555714 0.22254936 -0.045768112 0.008963291 -0.14416403 0.2287682
-0.4889056 -0.19950327 -0.34428614 0.22242248 -0.036755778 -0.2829178 0.2604404 -0.07944556
-0.18576774 0.026950799 -0.45233837 0.4048055 0.1003657 0.022227729 -0.061463006 -0.13485716
-0.018818274 -0.076467514
00000000: cf72 20be 6a22 063e 1f8d be3e b8a4 0e3b
00000010: 9f2f fd3d 992c db3d 7b35 97bc 34b2 673e
00000020: 9978 10be 84fb 79be 6988 b53e ed9f debd
00000030: a81d a03e 846c 4e3e 6fb1 743c 3ee5 32be
00000040: ed1a a4bd 35c4 53be d4c0 68be 3ec6 01bf
00000050: c0f9 383e c477 ba3c 6701 7e3c e35d e03e
00000060: 3195 05be 25a7 ee3d 0e9d b9bc 850d bcbe
00000070: 88d5 083e 991b 073e aefe d0bd 815e 153d
00000080: d5fd e13c 1d46 fbbd b06b 923e abf3 35be
00000090: dfd9 b93e 916b 823d c769 4d3e 1a38 abbe
000000a0: 4067 083e 0813 e53c 5736 c13c d7ed 8b3d
000000b0: fc31 7cbe b540 343d da19 30be 3e3f 22bc
000000c0: 9820 dcbd 7d56 b33e bf8c 5b3e b7f8 493e
000000d0: ea0e 1bbe 852d 0abe 1525 6cbe 5192 c93c
000000e0: 1236 ecbd 24cd 8f3e 149a ee39 f2c8 103e
000000f0: fc98 89bd d6e6 a13c 75ac 44be aaff 2cbe
00000100: c3f1 efbc 2c4d e9bc 71bc 52be ad28 723c
00000110: 49c8 a33c bbd1 b9bd 6a0e 0bbd 043e 283e
00000120: 3663 64be 7524 73be dcbd b5bc 93ed 223e
00000130: 0b4c 17bd bf95 92bd ea75 623e 67dc c8be
00000140: 03ce 51be 4e22 e43d 816e 0fbe a898 9b3e
00000150: d16b ddbd 60f6 a2bd 9af5 9d3e c104 b4bd
00000160: 877e 463e 510c b93d ecc7 243e 2306 2f3d
00000170: 3c53 8f3e 6211 c4be c4a6 a53d dc4f 8d3c
00000180: fcc2 cf3d 0e8f 023d d01a 48be 4604 69bc
00000190: 8a31 cabd 6818 39be 922a a1be 60f7 eb3c
000001a0: ebac c4be 2c8c 0b3d 43dc 123e d520 8c3c
000001b0: 6bb7 2fbe 1d03 043e ce46 183e 4fc5 1b3e
000001c0: d6f1 2c3e cb5d b1be cedd 26be c02e e8bd
000001d0: 1060 78be 4583 0c3d 1fba b5be a8f6 dbbd
000001e0: 8a8e 693d 749e 43be a38b acbe c535 443e
000001f0: d9b7 03be 4545 a2be a635 47be 41db acbd
00000200: 36e8 2dbe 65df f33c 70a1 a2bd c160 843e
00000210: 937f 5cbe 6a2d 963e e71e 8bbe 4e0e 86bd
00000220: 3fc7 8d3e 6f58 14bd 38e1 3f3e 5c87 303e
00000230: b680 953d de34 3bbe 839e 2e3d 10b0 a2bd
00000240: 2180 46be 071f fcbb 94d7 c9bd fbe3 633e
00000250: 5877 3bbd c4da 123c bc9f 13be 3642 6a3e
00000260: d651 fabe 964a 4cbe 4646 b0be b8c2 633e
00000270: 3a8d 16bd 9ada 90be 7258 853e 5bb4 a2bd
00000280: e639 3ebe ecc7 dc3c e598 e7be ab42 cf3e
00000290: 888c cd3d ed16 b63c a2c0 7bbd ff17 0abe
000002a0: c828 9abc 009b 9cbd

classifier.1.weight f4 [170]
1.002776 0.77139014 0.9241967 0.7197254 0.70276856 0.9074351 0.8767464 0.64578605
0.8077634 0.8694094 0.8381034 1.0389979 0.71254534 0.7229374 0.8387897 0.6274963
0.84786606 0.8992501 0.99513626 0.71303964 0.9966811 0.74102956 0.79620254 0.94486284
0.9461759 1.0331671 0.9202614 0.6198156 0.78443664 0.9075516 1.0094023 0.83510303
0.76909554 0.8854751 0.89682287 0.9939717 0.6811487 0.5486114 0.8201464 0.803247
0.8647217 0.965874 0.85985297 0.8625736 0.6228621 0.82269126 0.94588614 0.8018105
0.8118819 0.9661974 0.6853336 0.9999991 0.83401227 0.9025738 1.0254401 0.9121845
0.65780616 0.9148088 0.8086001 0.8836438 0.9055876 0.9859858 0.7107424 0.84634244
0.80049556 0.6670191 0.8822565 0.9447065 0.80668193 0.9093175 0.9075139 0.8483056
0.55776703 0.6904774 0.81052077 0.9215729 0.9117434 1.0114156 0.8676718 0.9489227
0.7142086 0.7149711 0.8389779 1.0541595 0.94202536 1.0713781 0.93658406 0.85081846
0.77750385 0.89088905 0.89647585 0.91648877 0.6891627 0.9854344 0.7964524 0.84175634
0.87273747 0.88652235 0.8913995 0.6117309 0.8178926 0.83752096 0.885673 0.7892223
0.84574646 0.9075464 0.81883 0.85144377 0.85931456 0.906918 0.97658354 0.81028515
0.8581869 0.86556596 0.62760293 0.7728347 0.8655193 0.7928315 0.8377247 0.67959124
0.90510833 0.72387624 0.7406313 0.83050853 0.6793574 0.89969474 0.9717733 0.78464276
0.78628236 0.8659424 0.76333076 0.9386272 0.89258987 0.9321744 0.7728166 0.84836864
0.83461225 0.70915717 0.9591475 1.0889248 0.7745471 1.0395923 1.0018283 0.7627648
0.7246684 0.78581387 0.88746256 0.8696192 0.9223528 0.73348045 0.93929386 0.7801244
0.94705963 0.82238257 0.81186765 0.86441904 0.96654236 0.8059898 0.86281407 0.9347763
0.9672122 1.0457135 0.86263144 0.9298151 0.77025425 0.8762879 0.66768736 0.6333869
0.7965004 0.7672524
00000000: f75a 803f d379 453f 2898 6c3f ec3f 383f
00000010: a4e8 333f ab4d 683f 7472 603f 3c52 253f
00000020: 95c9 4e3f 9d91 5e3f f28d 563f e2fd 843f
00000030: 5f69 363f 6d12 393f ecba 563f 99a3 203f
00000040: c00d 593f 4135 663f 40c1 7e3f c489 363f
00000050: 7e26 7f3f 1db4 3d3f eed3 4b3f 88e2 713f
00000060: 9538 723f d23e 843f 4096 6b3f 3cac 1e3f
00000070: d7d0 483f 4d55 683f 1834 813f 50c9 553f
00000080: 72e3 443f 7fae 623f 2f96 653f ee74 7e3f
00000090: c35f 2e3f cc71 0c3f 1df5 513f 98a1 4d3f
000000a0: 675e 5d3f 8543 773f 531f 5c3f a0d1 5c3f
000000b0: e473 1f3f e59b 523f 9825 723f 7443 4d3f
000000c0: 7ed7 4f3f b658 773f 0672 2f3f f1ff 7f3f
000000d0: d481 553f 140f 673f 9f41 833f ec84 693f
000000e0: fc65 283f e930 6a3f 6b00 4f3f 7b36 623f
000000f0: 97d4 673f 9169 7c3f 37f3 353f e6a9 583f
00000100: 47ed 4c3f c4c1 2a3f 90db 613f 49d8 713f
00000110: b582 4e3f 08c9 683f d552 683f 8e2a 593f
00000120: d2c9 0e3f 20c3 303f 4a7e 4f3f 34ec 6b3f
00000130: 0468 693f 1176 813f bd1f 5e3f 99ec 723f
00000140: 60d6 363f 5908 373f 41c7 563f b3ee 863f
00000150: 9328 713f eb22 893f f9c3 6f3f 3dcf 593f
00000160: 7e0a 473f 4e11 643f 717f 653f 029f 6a3f
00000170: f76c 303f 6e45 7c3f 4ee4 4b3f 587d 573f
00000180: b96b 5f3f 21f3 623f c232 643f 659a 1c3f
00000190: 6961 513f c667 563f 77bb 623f 790a 4a3f
000001a0: d782 583f f654 683f d89e 513f 38f8 593f
000001b0: 0afc 5b3f c72b 683f 6101 7a3f d96e 4f3f
000001c0: 23b2 5b3f bb95 5d3f 96aa 203f 7fd8 453f
000001d0: ac92 5d3f 01f7 4a3f 2075 563f b1f9 2d3f
000001e0: 2eb5 673f f44f 393f 039a 3d3f 359c 543f
000001f0: 5eea 2d3f 6552 663f 23c6 783f 59de 483f
00000200: cd49 493f 67ae 5d3f a569 433f df49 703f
00000210: c580 643f fba2 6e3f 4fd7 453f b02e 593f
00000220: 26a9 553f 538b 353f b18a 753f e361 8b3f
00000230: b848 463f 5c11 853f e93b 803f 8e44 433f
00000240: de83 393f 192b 493f bf30 633f 5d9f 5e3f
00000250: 501f 6c3f 60c5 3b3f 9075 703f 3cb6 473f
00000260: 8072 723f aa87 523f 8fd6 4f3f 914a 5d3f
00000270: 526f 773f 5955 4e3f 62e1 5c3f 804d 6f3f
00000280: 389b 773f f1d9 853f 6ad5 5c3f 5d08 6e3f
00000290: 622f 453f 6754 603f 8fed 2a3f a525 223f
000002a0: 73e7 4b3f a76a 443f

classifier.1.bias f4 [170]
-0.6975089 -0.5759213 -0.45618105 -0.34418416 -0.49916032 -0.35404164 -0.5161669 -0.31196627
-0.4589579 -0.41180575 -0.38639688 -0.8335208 -0.6352225 -0.5036802 -0.5916269 -0.26384902
-0.6445464 -0.49450725 -0.48395124 -0.42368004 -0.5693192 -0.49538434 -0.19190955 -0.49282062
-0.67251414 -0.719596 -0.5979739 -0.62247515 -0.47086132 -0.5226933 -0.46111515 -0.58084804
-0.48140728 -0.62590104 -0.7570326 -0.49905375 -0.49233654 -0.1600157 -0.46975455 -0.8121304
-0.762222 -0.50623477 -0.61767316 -0.57388073 -0.5559546 -0.38915566 -0.6935852 -0.55132294
-0.48745006 -0.58746946 -0.479115 -0.7879665 -0.62100244 -0.5929852 -0.48392913 -0.3698374
-0.5076916 -0.35446534 -0.37861672 -0.39632425 -0.40361112 -0.605916 -0.46219605 -0.26681066
-0.4548409 -0.54473937 -0.3714605 -0.44300675 -0.38113236 -0.49367985 -0.4990201 -0.42322505
-0.20244564 -0.53925216 -0.58900756 -0.6894083 -0.3697572 -0.613052 -0.47701484 -0.6451859
-0.56815517 -0.3644197 -0.47701615 -0.8284511 -0.41932854 -0.8390408 -0.6731023 -0.80437315
-0.43846038 -0.93192405 -0.43472472 -0.43100035 -0.40836024 -0.82713205 -0.69104356 -0.43467528
-0.3525028 -0.20295319 -0.48576698 -0.31981662 -0.7051745 -0.32079875 -0.3990538 -0.53942853
-0.565227 -0.30739716 -0.6607859 -0.47959206 -0.44917694 -0.71404296 -0.63701284 -0.5349753
-0.49333826 -0.41193795 -0.29201967 -0.5749457 -0.34858626 -0.64877725 -0.30484182 -0.3386736
-0.36940143 -0.423285 -0.5040457 -0.582704 -0.58565867 -0.50796276 -0.8437949 -0.8500902
-0.55842745 -0.43439627 -0.45559564 -0.6813757 -0.45350203 -0.64741224 -0.43780378 -0.45590177
-0.43841287 -0.5027005 -0.63607615 -0.47445542 -0.46037036 -0.41044247 -0.88061816 -0.40107813
-0.36268842 -0.28013587 -0.45210832 -0.47024527 -0.30426815 -0.5073142 -0.40738708 -0.78092843
-0.4128268 -0.60115176 -0.21830319 -0.5046103 -0.6263504 -0.59078264 -0.8471679 -0.4765662
-0.78250104 -0.5080731 -0.5058855 -0.82083905 -0.40709868 -0.45091066 -0.61233556 -0.40356195
-0.6010525 -0.47172388
00000000: f18f 32bf 946f 13bf 9090 e9be e838 b0be
00000010: f191 ffbe f244 b5be 8423 04bf 0bba 9fbe
00000020: 88fc eabe 34d8 d2be d0d5 c5be 9f61 55bf
00000030: f19d 22bf 30f1 00bf dc74 17bf 3817 87be
00000040: fe00 25bf 0e30 fdbe 75c8 f7be 97ec d8be
00000050: e7be 11bf 04a3 fdbe f083 44be fc52 fcbe
00000060: e329 2cbf 7237 38bf d114 19bf 885a 1fbf
00000070: bc14 f1be 3acf 05bf 4917 ecbe 75b2 14bf
00000080: 047b f6be 0d3b 20bf e3cc 41bf f983 ffbe
00000090: 8913 fcbe 28db 23be ab83 f0be c7e7 4fbf
000000a0: fb20 43bf 9a98 01bf d41f 1ebf d9e9 12bf
000000b0: 0a53 0ebf 693f c7be cd8e 31bf 8023 0dbf
000000c0: 0e93 f9be 6664 16bf 904e f5be 2cb8 49bf
000000d0: 04fa 1ebf e1cd 17bf 8fc5 f7be 545b bdbe
000000e0: 14f8 01bf 7b7c b5be 0dda c1be 03eb cabe
000000f0: 1ea6 cebe 501d 1bbf f6a4 ecbe 689b 88be
00000100: e8e0 e8be 0a74 0bbf 1230 bebe c8d1 e2be
00000110: c823 c3be 9bc3 fcbe 907f ffbe f4b0 d8be
00000120: e94d 4fbe 6e0c 0abf 33c9 16bf 107d 30bf
00000130: d150 bdbe faf0 1cbf 4a3b f4be e72a 25bf
00000140: 9e72 11bf 3895 babe 763b f4be 5f15 54bf
00000150: 3bb2 d6be 61cb 56bf 6f50 2cbf 66eb 4dbf
00000160: e17d e0be 9392 6ebf 3d94 debe 14ac dcbe
00000170: 9814 d1be edbe 53bf 3be8 30bf c28d debe
00000180: 3f7b b4be f6d2 4fbe 73b6 f8be 01bf a3be
00000190: 5186 34bf bc3f a4be c850 ccbe fd17 0abf
000001a0: b7b2 10bf 2963 9dbe 4429 29bf 178d f5be
000001b0: 85fa e5be 85cb 36bf 4613 23bf 24f4 08bf
000001c0: d596 fcbe 88e9 d2be 9a83 95be a42f 13bf
000001d0: e679 b2be 4416 26bf 3a14 9cbe a066 adbe
000001e0: 2f22 bdbe d0b8 d8be 2409 01bf 172c 15bf
000001f0: baed 15bf d909 02bf f102 58bf 839f 59bf
00000200: 1af5 0ebf 3069 debe d543 e9be a36e 2ebf
00000210: 6b31 e8be cfbc 25bf d127 e0be f56b e9be
00000220: a777 e0be fbb0 00bf e3d5 22bf d2eb f2be
00000230: aab5 ebbe 8425 d2be 3170 61bf 1d5a cdbe
00000240: 4cb2 b9be f86d 8fbe be7a e7be fdc3 f0be
00000250: 09c9 9bbe 58df 01bf 0a95 d0be edea 47bf
00000260: 095e d3be 15e5 19bf df8a 5fbe 242e 01bf
00000270: 8058 20bf 883d 17bf ffdf 58bf 7c00 f4be
00000280: fd51 48bf 1411 02bf b681 01bf 8222 52bf
00000290: 3d6f d0be c3dd e6be 06c2 1cbf ac9f cebe
000002a0: 94de 19bf cb85 f1be

classifier.1.running_mean f4 [170]
-0.2664523 -0.035364248 0.52263135 0.12860839 -0.23474506 0.06802165 -0.0870642 0.3419688
-0.11163298 -0.32413977 0.23342684 -0.21616277 0.23448443 0.48020068 -0.1993558 -0.12467219
-0.0737212 -0.038595017 -0.18683515 -0.45707396 0.044164483 0.06709715 0.1826108 0.32702386
-0.19975653 -0.103689544 -0.06155456 -0.71649766 0.13881524 0.34806836 -0.07384126 0.14537013
-0.05906822 0.24511983 0.08965075 0.05503162 0.040720478 -0.23825485 0.38555545 -0.36167583
-0.20180853 -0.15053974 -0.25164902 0.24083632 -0.00059634825 0.15372176 -0.28671908 -0.2040037
0.29590777 0.15216276 0.07989343 0.052259646 -0.27019587 -0.22529814 -0.2093282 -0.10538901
-0.23387235 0.15162474 -0.42060113 0.520463 -0.20872016 0.024601072 -0.3615037 0.056741714
-0.16418731 0.042468566 -0.2844395 -0.10339763 0.011189488 -0.25007752 -0.2904704 0.38102868
-0.49409124 0.024701307 0.11298263 0.04272064 0.26158625 -0.1686631 0.0055290516 -0.3799379
-0.38512686 -0.06315124 0.09963146 0.014702167 -0.17243838 -0.4481398 0.60513824 -0.12530488
0.2001372 -0.14286782 -0.022980263 0.16900238 0.24095039 -0.4002458 -0.11682829 0.09712662
0.029058326 -0.23693803 0.18162188 -0.048848916 -0.17292973 -0.17664501 -0.39288136 -0.077867635
-0.45267284 0.19328284 0.2748172 -0.086755134 -0.123447716 -0.006139865 0.36086822 0.4574449
0.2232873 -0.5387854 -0.5647616 -0.20695058 -0.39461118 -0.09156989 -0.09831994 0.4018268
-0.11825478 -0.4892268 -0.2767279 0.38749886 -0.25863552 -0.3269783 -0.05838461 -0.04454383
-0.4496408 -0.032080684 0.17799444 0.4787835 -0.4358595 0.66544044 0.0059039923 -0.059572846
0.40058073 -0.09291436 0.0024130752 0.36118558 0.09354535 -0.45900327 -0.043247767 -0.060756136
-0.3668346 -0.09099034 -0.322177 0.2547169 0.27246705 0.25945762 -0.20695749 0.24622902
-0.34174594 -0.16152106 -0.18324973 0.26113012 -0.01148007 0.055399373 0.24460347 -0.33729136
-0.47747445 0.055710845 -0.4859522 0.23054358 0.29418808 0.17883305 -0.24251498 -0.22330719
-0.2803566 -0.057355333
00000000: 706c 88be 1ada 10bd 2bcb 053f ebb1 033e
00000010: 0261 70be ef4e 8b3d b74e b2bd 8916 af3e
00000020: d59f e4bd a6f5 a5be 7207 6f3e c659 5dbe
00000030: b01c 703e dddc f53e ed23 4cbe 2254 ffbd
00000040: 24fb 96bd cf15 1ebd b751 3fbe 9905 eabe
00000050: d1e5 343d 3b6a 893d 53fe 3a3e ac6f a73e
00000060: fa8c 4cbe 2f5b d4bd a220 7cbd 646c 37bf
00000070: 9525 0e3e 0436 b23e 163a 97bd e8db 143e
00000080: 85f1 71bd b100 7b3e d09a b73d d668 613d
00000090: 84ca 263d 14f9 73be 8667 c53e 932d b9be
000000a0: e5a6 4ebe 1727 1abe 24d8 80be cc9d 763e
000000b0: 4154 1cba 3d69 1d3e d8cc 92be 59e6 50be
000000c0: 3981 973e 8ed0 1b3e 2b9f a33d 360e 563d
000000d0: 1d57 8abe 8eb4 66be 225a 56be 31d6 d7bd
000000e0: 3c7c 6fbe 8443 1b3e 0859 d7be 103d 053f
000000f0: bdba 55be 3088 c93c 0317 b9be 006a 683d
00000100: b820 28be 85f3 2d3d 0ea2 91be 23c2 d3bd
00000110: 1d54 373c 290a 80be 89b8 94be 3116 c33e
00000120: 87f9 fcbe 655a ca3c 7063 e73d d6fb 2e3d
00000130: a2ee 853e 05b6 2cbe 0c2d b53b 3887 c2be
00000140: 592f c5be 7055 81bd 940b cc3d 5ce1 703c
00000150: b093 30be 9472 e5be 57ea 1a3f ec4f 00be
00000160: c4f0 4c3e f14b 12be 1b41 bcbc f60e 2d3e
00000170: b3bb 763e 04ed ccbe ac43 efbd 52ea c63d
00000180: ba0b ee3c e29f 72be 16fb 393e cd15 48bd
00000190: 7e14 31be 6ee2 34be bf27 c9be 1179 9fbd
000001a0: bcc4 e7be f0eb 453e d7b4 8c3e adac b1bd
000001b0: 28d2 fcbd ec30 c9bb b8c3 b83e 3836 ea3e
000001c0: 6da5 643e d7ed 09bf 3794 10bf daea 53be
000001d0: 7a0a cabe ff88 bbbd f75b c9bd 3ebc cd3e
000001e0: 902f f2bd ef7b fabe 48af 8dbe 4066 c63e
000001f0: e06b 84be b369 a7be b324 6fbd 9773 36bd
00000200: 5237 e6be 0967 03bd 2d44 363e 1c23 f53e
00000210: fa28 dfbe 4e5a 2a3f 4776 c13b a802 74bd
00000220: eb18 cd3e e249 bebd af24 1e3b 51ed b83e
00000230: b494 bf3d 7a02 ebbe 9224 31bd 6ddb 78bd
00000240: bfd1 bbbe 2559 babd 62f4 a4be 416a 823e
00000250: cd80 8b3e a1d7 843e aaec 53be 7623 7c3e
00000260: 53f9 aebe c765 25be d1a5 3bbe d9b2 853e
00000270: e716 3cbc 74ea 623d 5579 7a3e 74b1 acbe
00000280: 8877 f4be 0e31 643d bace f8be 9e13 6c3e
00000290: d29f 963e 0320 373e d955 78be a4aa 64be
000002a0: e68a 8fbe 6ded 6abd

classifier.1.running_var f4 [170]
0.0038024737 0.003686212 0.0036452066 0.0057883076 0.0042947247 0.0038156786 0.0027672779 0.005820337
0.0074181696 0.010099646 0.0047118836 0.0031657591 0.0017013957 0.005628327 0.004195178 0.008215768
0.0031048981 0.0025422066 0.0045389123 0.0028297207 0.002983179 0.00908093 0.0042417357 0.0056353975
0.003651877 0.0021100137 0.00360825 0.005776739 0.0023737221 0.003032898 0.0065692733 0.0024994896
0.004472251 0.005394942 0.0022483226 0.0027928893 0.006094307 0.010260597 0.002874644 0.001953734
0.0058628786 0.0033348135 0.0032999944 0.0045176656 0.0031868077 0.007130331 0.002042462 0.00772013
0.004048669 0.0034926496 0.008746119 0.0030611658 0.007532731 0.002378227 0.009727272 0.0036874248
0.00579627 0.00468572 0.010321189 0.0035851658 0.0059838216 0.00263549 0.0072740074 0.011103749
0.004312685 0.006684133 0.0043606637 0.0029526372 0.0061538382 0.005303189 0.0073193023 0.0038622383
0.008755549 0.0063253334 0.0030737515 0.0010634816 0.0062745614 0.004368222 0.0052860077 0.0022910624
0.003656515 0.003928909 0.002668618 0.0042821956 0.0024142351 0.0049576554 0.0015970947 0.0030934156
0.0056593926 0.0012749279 0.0042157737 0.003676107 0.0032059033 0.003254348 0.003896818 0.0028780075
0.018541252 0.0079298355 0.0035431269 0.004832864 0.0031801295 0.00739697 0.0035067236 0.0043663057
0.0020433648 0.0016842033 0.0033310729 0.0061867055 0.004778297 0.0028174 0.0052980273 0.0040106177
0.0023476442 0.0066129174 0.016715433 0.0025249654 0.0038001451 0.0017992782 0.006898983 0.004319667
0.007229357 0.004686578 0.004527949 0.005133848 0.003897676 0.006438389 0.0025438562 0.0018686866
0.010858136 0.006615832 0.0073765074 0.0021687862 0.0037397018 0.002611583 0.008037672 0.004097959
0.004050429 0.0030833941 0.0013925907 0.0016583625 0.002393959 0.005905237 0.0040806406 0.0071359263
0.00614182 0.003663678 0.0032207298 0.004237494 0.0032084908 0.0073720333 0.011988916 0.0023140977
0.004677193 0.0043700943 0.01227682 0.0052764495 0.006149899 0.004973261 0.0025124478 0.009358681
0.0048234356 0.0031346723 0.0057801516 0.0041298238 0.0037732753 0.0020336548 0.0019041726 0.011313444
0.0051938435 0.0059220823
00000000: ec32 793b 6094 713b 6be4 6e3b d8ab bd3b
00000010: c3ba 8c3b 7710 7a3b 385b 353b 87b8 be3b
00000020: 1e14 f33b fc78 253c 2566 9a3b a078 4f3b
00000030: 5e01 df3a d46d b83b b477 893b 6e9b 063c
00000040: 8c7b 4b3b 269b 263b 28bb 943b d672 393b
00000050: 7081 433b 2ec8 143c 42fe 8a3b 24a9 b83b
00000060: 5454 6f3b 2848 0a3b 6478 6c3b cd4a bd3b
00000070: 7390 1b3b 96c3 463b 0f43 d73b 7ace 233b
00000080: f68b 923b 0ec8 b03b 9858 133b e808 373b
00000090: c1b2 c73b 101c 283c 8664 3c3b 380a 003b
000000a0: 641d c03b e38c 5a3b b844 583b ed08 943b
000000b0: c3d9 503b 8da5 e93b d3da 053b 25f9 fc3b
000000c0: b2aa 843b f0e4 643b e24b 0f3c d79d 483b
000000d0: 21d5 f63b 07dc 1b3b 235f 1f3c b9a8 713b
000000e0: a3ee bd3b ab8a 993b 341a 293c 1af5 6a3b
000000f0: ef13 c43b 2fb8 2c3b cc5a ee3b 80ec 353c
00000100: 6d51 8d3b 9206 db3b e6e3 8e3b 0881 413b
00000110: 23a6 c93b 60c6 ad3b c2d6 ef3b 9b1d 7d3b
00000120: 6f73 0f3c be44 cf3b fe70 493b 8564 8b3a
00000130: d69a cd3b 4d23 8f3b 3f36 ad3b a625 163b
00000140: 24a2 6f3b 14be 803b fbe3 2e3b a951 8c3b
00000150: 2538 1e3b d473 a23b 9b55 d13a e7ba 4a3b
00000160: 6d72 b93b 7b1b a73a 7924 8a3b d7ea 703b
00000170: 221a 523b e646 553b c261 7f3b f49c 3c3b
00000180: d3e3 973c 24ec 013c ce33 683b 005d 9e3b
00000190: b869 503b 4862 f23b 0fd1 653b 3a13 8f3b
000001a0: f9e9 053b 7cc0 dc3a 214e 5a3b d9b9 ca3b
000001b0: 4393 9c3b 21a4 383b 139b ad3b 806b 833b
000001c0: efda 193b 2cb1 d83b ceee 883c e479 253b
000001d0: db0b 793b c2d5 eb3a dd10 e23b fe8b 8d3b
000001e0: 3ee4 ec3b de91 993b 305f 943b d739 a83b
000001f0: 2770 7f3b 1ff9 d23b d3b6 263b b8ee f43a
00000200: 53e6 313c 9fc9 d83b a1b6 f13b 3222 0e3b
00000210: c915 753b 1827 2b3b 71b0 033c 2c48 863b
00000220: 76b9 843b c512 4a3b 9787 b63a 695d d93a
00000230: f8e3 1c3b b880 c13b e5b6 853b 7dd4 e93b
00000240: 5241 c93b 511a 703b e112 533b adda 8a3b
00000250: 8b45 523b 1991 f13b 296d 443c 1ea8 173b
00000260: 2343 993b 0233 8f3b b724 493c 11e6 ac3b
00000270: 1885 c93b bdf6 a23b e1a7 243b 2755 193c
00000280: e90d 9e3b 136f 4d3b 6d67 bd3b 7953 873b
00000290: 0e49 773b 1147 053b 6e95 f93a 065c 393c
000002a0: 1e31 aa3b 070e c23b

classifier.4.weight f4 [200, 170]
-0.27456516 0.042614423 -0.23286943 -0.02936672 0.09829369 -0.07291818 -0.031976223 0.017922008
0.0041528023 -0.0047466853 -0.08350476 -0.21560414 -0.033582453 -0.045514643 0.027470177 0.090716116
-0.12929472 -0.16103822 -0.3692352 -0.068284914 0.002523473 0.061540987 0.010459065 -0.44767904
-0.15692085 -0.17571133 -0.066017166 -0.07164719 -0.36798507 0.046050422 -0.17016353 -0.07857481
-0.34007332 -0.14629677 0.15055504 0.016801773 -0.049588203 0.06505167 -0.053623464 0.118538775
0.10014629 -0.20287387 0.1264546 -0.34261426 0.16175511 0.014703533 -0.1522618 0.072143234
0.018584248 0.016335817 0.08557981 0.06958314 -0.08411554 -0.20952886 0.15115859 -0.0612837
0.22583817 0.04317542 -0.06520038 -0.28647572 0.11935853 0.11408758 0.22969842 -0.40805167
0.049357306 0.1485099 -0.050402287 -0.038640033 0.014150586 0.031617995 -0.0677243 -0.08279355
0.08921909 -0.12366602 0.073097914 -0.024349568 -0.27119744 -0.09111705 -0.09828212 0.044010077
-0.07120313 0.083765835 0.014559625 0.0017027173 0.026965128 -0.11559154 -0.037448343 -0.057121117
0.023488034 -0.054741506 -0.36346504 -0.1251761 0.16512537 -0.26182678 0.14325729 -0.30380377
0.03655109 0.07875945 -0.12660718 0.037241574 0.13576406 0.07792797 -0.035025135 0.19685537
-0.2772894 -0.1214361 -0.020449974 0.20713794 -0.021254586 -0.17847745 0.024841536 -0.27762654
-0.0009361954 0.0650907 -0.0075711003 -0.20567292 -0.1233716 0.08564355 -0.334502 -0.022530025
-0.023988081 -0.17241488 -0.3906914 0.027292075 0.16093229 -0.07371083 0.18198906 0.2812464
0.0016354079 -0.10453383 -0.12702523 -0.043932986 0.07918125 -0.2244045 -0.013643942 0.0840488
-0.13130444 -0.02640196 -0.03811093 -0.33821362 -0.3070714 -0.08439939 0.20804748 -0.018864159
0.09044932 0.029253403 -0.04651279 0.09522307 -0.36491266 -0.060131725 0.16942178 0.015949883
0.049102154 -0.027769214 -0.3009727 -0.2574247 0.014976222 -0.041255046 -0.030609773 0.065348335
0.13997631 0.007239224 -0.21003707 0.26241335 -0.25442123 0.0732618 0.044697724 -0.014626392
-0.16328658 0.10697128 0.11038674 0.12524693 0.21322651 -0.078088515 0.00439034 -0.1136278
0.27903065 0.025629304 0.045045402 0.0009325063 0.1297441 -0.031137949 -0.05251325 0.21466167
0.18863097 0.034007534 0.17642978 0.18610895 0.079497285 0.13215774 -0.021564092 -0.06947314
-0.0118692 0.12063125 0.07405241 -0.13196853 -0.023144884 -0.014732138 0.06606433 -0.2801649
0.13293879 0.10913011 -0.06461573 0.07602648 -0.33177364 0.29314035 -0.020795604 0.06326343
0.21319285 0.19973281 -0.3200682 0.085781455 -0.076267846 -0.053819314 0.052795168 -0.27997276
0.12843277 0.034010448 0.080432504 0.09477224 -0.003451333 0.12734768 -0.52238953 -0.08426447
0.061920248 -0.2305651 -0.057105232 0.06162414 -0.20177409 -0.052913163 -0.38598737 -0.18598531
-0.1839034 0.056061678 0.029070655 0.052760754 -0.086339556 -0.13298623 -0.2917104 -0.24911886
-0.08847328 0.16521597 0.051163208 0.18962047 0.12745667 -0.045991555 0.03235387 0.09133296
-0.07932423 -0.09081142 0.063945726 0.0069041667 0.22251643 -0.0038545504 -0.22226171 0.043832626
00000000: ce93 8cbe 768c 2e3d 5375 6ebe 7a92 f0bc
00000010: 344e c93d 2056 95bd 80f9 02bd 2dd1 923c
00000020: 3b14 883b 158a 9bbb 8b04 abbd 55c7 5cbe
00000030: c18d 09bd 906d 3abd 2309 e13c 5fc9 b93d
00000040: d665 04be 34e7 24be 650c bdbe f6d8 8bbd
00000050: da60 253b 6712 7c3d 805c 2b3c 3036 e5be
00000060: dcaf 20be aced 33be 0234 87bd c3bb 92bd
00000070: 8a68 bcbe 5e9f 3c3d 593f 2ebe d4eb a0bd
00000080: 171e aebe d2ce 15be 1a2b 1a3e dfa3 893c
00000090: 001d 4bbd cf39 853d 47a4 5bbd 75c4 f23d
000000a0: 8019 cd3d 2bbe 4fbe 517d 013e 236b afbe
000000b0: 22a3 253e 16e7 703c 84ea 1bbe d5bf 933d
000000c0: fe3d 983c b1d2 853c 7844 af3d 9b81 8e3d
000000d0: c544 acbd bc8e 56be 51c9 1a3e 9e04 7bbd
000000e0: 1f42 673e b6d8 303d c787 85bd f2ac 92be
000000f0: 3f72 f43d c0a6 e93d 1036 6b3e 26ec d0be
00000100: e32a 4a3d fb12 183e a172 4ebd 0345 1ebd
00000110: dcd7 673c df81 013d 0ab3 8abd aa8f a9bd
00000120: 80b8 b63d 9c44 fdbd 5cb4 953d bf78 c7bc
00000130: 64da 8abe 939b babd 2348 c9bd e943 343d
00000140: f2d2 91bd 6c8d ab3d 7e8b 6e3c b62d df3a
00000150: f9e5 dc3c 42bb ecbd 6f63 19bd d5f7 69bd
00000160: fa69 c03c a138 60bd 1718 babe 2a2e 00be
00000170: a016 293e 290e 86be 0ab2 123e 2b8c 9bbe
00000180: 99b6 153d a24c a13d 50a5 01be 9f8a 183d
00000190: bc05 0b3e b398 9f3d 8476 0fbd 7494 493e
000001a0: e0f8 8dbe 7db3 f8bd b486 a7bc f81b 543e
000001b0: 191e aebc cbc2 36be 7a80 cb3c 1125 8ebe
000001c0: 036b 75ba 464e 853d fe16 f8bb ec9b 52be
000001d0: 40aa fcbd e365 af3d d943 abbe e390 b8bc
000001e0: a782 c4bc 878d 30be b408 c8be a193 df3c
000001f0: 6fcb 243e b4f5 96bd 575b 3a3e 87ff 8f3e
00000200: 2f5b d63a d515 d6bd e712 02be 13f3 33bd
00000210: c729 a23d 4bca 65be d78a 5fbc c721 ac3d
00000220: ac74 06be ec48 d8bc 351a 1cbd 562a adbe
00000230: 7638 9dbe 96d9 acbd 660a 553e 0289 9abc
00000240: 7e3d b93d d5a4 ef3c 3284 3ebd 5004 c33d
00000250: d5d5 babe af4c 76bd e77c 2d3e 54a9 823c
00000260: 571f 493d 437c e3bc 1819 9abe 2ccd 83be
00000270: d45e 753c 0dfb 28bd 59c1 fabc 59d5 853d
00000280: f355 0f3e 0337 ed3b f513 57be 0b5b 863e
00000290: 8043 82be 480a 963d f614 373d 89a3 6fbc
000002a0: 9934 27be c213 db3d 7112 e23d bb40 003e
000002b0: 0d58 5a3e dfec 9fbd d7dc 8f3b b1b5 e8bd
000002c0: 1bdd 8e3e 8cf4 d13c 8781 383d 7073 743a
000002d0: a3db 043e 0315 ffbc 2218 57bd 45d0 5b3e
000002e0: 7a28 413e 7c4b 0b3d 02aa 343e 5893 3e3e
000002f0: 79cf a23d 5c54 073e 2ea7 b0bc ef47 8ebd
00000300: 0877 42bc 840d f73d caa8 973d c222 07be
00000310: 579a bdbc 115f 71bc bc4c 873d c671 8fbe
00000320: 1b21 083e 9b7f df3d 4055 84bd c5b3 9b3d
00000330: 3cde a9be 7e16 963e 8b5b aabc 4290 813d
00000340: 3a4f 5a3e c286 4c3e fbdf a3be 30ae af3d
00000350: 5132 9cbd a471 5cbd bf3f 583d 9758 8fbe
00000360: e183 033e 8a4e 0b3d ccb9 a43d f317 c23d
00000370: c22f 62bb 6e67 023e 52bb 05bf da92 acbd
00000380: 16a0 7d3d 4219 6cbe 2de7 69bd 9869 7c3d
00000390: de9d 4ebe 79bb 58bd 23a0 c5be ef72 3ebe
000003a0: 2c51 3cbe eea0 653d 9525 ee3c a91b 583d
000003b0: cbd2 b0bd 8b2d 08be 115b 95be 0419 7fbe
000003c0: 7b31 b5bd 602e 293e 8390 513d de2b 423e
000003d0: 0084 023e a461 3cbd 7e85 043d c60c bb3d
000003e0: be74 a2bd 56fb b9bd faf5 823d 593c e23b
000003f0: 59db 633e a09c 7cbb 9398 63be d789 333d

classifier.4.bias f4 [200]
0.09810989 0.043429863 0.04219069 0.06426231 0.037620157 0.024701696 0.0047285105 -0.016327944
-0.015776332 -0.15294838 -0.050653066 0.100509346 -0.04485159 0.049597196 -0.020030743 0.058850866
0.068594314 0.08291882 -0.029116577 -0.04305131 0.09119478 0.14211139 -0.03712744 -0.020127675
0.025369331 -0.015389085 -0.008835396 0.033402648 0.023486177 -0.0228668 -0.07005932 -0.0110261
-0.016594023 0.03160442 0.03683256 0.10667467 0.030464375 0.018392641 -0.02051165 0.12773496
-0.01615245 0.07571444 -0.045346364 0.106763884 -0.03103117 -0.08565666 -0.07309208 0.05916954
-0.018838793 0.057214804 -0.028738897 0.07888432 -0.008832598 -0.0148147475 -0.05493507 -0.057318974
-0.052766964 -0.06564166 -0.0029823896 -0.050276704 -0.04141771 -0.049857326 0.051724613 0.007221233
-0.0022895958 -0.033674862 -0.029075343 -0.011848503 -0.004860211 0.03351774 -0.012822151 0.007440587
-0.044117514 0.01814548 -0.012733751 -0.04411392 0.0057450673 -0.037845798 0.026235662 0.0431136
0.0318464 -0.103450365 -0.05997977 0.029877001 0.022112722 0.013013039 0.046736006 -0.018006315
-0.0976815 -0.034780964 -0.080660306 0.025177017 0.032811258 0.045020197 0.025368974 0.039752312
0.024663683 0.042611163 0.10160226 0.011462279 0.06105902 0.02580584 0.08180576 0.077887945
-0.03879717 0.0067204274 -0.103146 -0.0495975 -0.03382356 0.022139024 0.0020112132 -0.024465915
0.010613921 -0.04421295 0.08011863 -0.0013059969 -0.030939713 0.09194359 -0.04360191 0.031186623
0.0072172615 -0.055062182 -0.016833289 -0.037800267 -0.072747715 -0.034237195 0.042732336 -0.13229571
-0.06361889 0.07154369 0.050023858 0.0026006694 -0.09218817 0.06291356 0.014875618 0.010501291
0.030853115 -0.08936841 0.05574738 0.04669297 0.008603371 0.02612563 -0.023201779 0.071279995
-0.050138596 -0.11581619 -0.05274887 0.01888287 0.04521005 -0.010401105 0.015099492 -0.027569432
-0.09393094 -0.047733244 0.053335793 -0.012809626 -0.082152545 -0.097571746 0.030595819 0.026760332
0.01534567 0.094810635 -0.06651429 0.07708165 -0.03892439 0.00697745 0.048576143 -0.0272456
0.031481057 -0.101693235 0.0032523978 -0.024701143 0.106080115 0.05999058 -0.056408428 0.0738655
-0.052579824 -0.0632026 0.05026397 -0.014180976 0.072149634 0.037379406 0.043782026 0.046689935
-0.037825346 -0.03479952 0.038652167 -0.0073142247 -0.08293961 0.042406272 -0.057335775 0.044256125
0.048428304 -0.10709164 -0.05826359 0.0024990242 0.058684297 0.11184005 0.051883493 0.014922264
00000000: d7ed c83d 83e3 313d 25d0 2c3d f59b 833d
00000010: 9817 1a3d 365b ca3c 9ff1 9a3b 2ec2 85bc
00000020: 5e3d 81bc 809e 1cbe 9779 4fbd d8d7 cd3d
00000030: 4db6 37bd 6e26 4b3d 8317 a4bc 9b0d 713d
00000040: 2d7b 8c3d 58d1 a93d e385 eebc 9256 30bd
00000050: 54c4 ba3d a685 113e f112 18bd cbe2 a4bc
00000060: 58d3 cf3c 8022 7cbc 56c2 10bc 37d1 083d
00000070: 1566 c03c 2853 bbbc 437b 8fbd d1a6 34bc
00000080: 30f0 87bc a373 013d bddd 163d 4078 da3d
00000090: 6d90 f93c 2aac 963c 0c08 a8bc f4cc 023e
000000a0: 2552 84bc 2c10 9b3d 1cbd 39bd 06a7 da3d
000000b0: 1535 febc c26c afbd 4db1 95bd c25b 723d
000000c0: d053 9abc 125a 6a3d d66d ebbc 1a8e a13d
000000d0: 9ab6 10bc 8eb9 72bc 9903 61bd 4dc7 6abd
000000e0: 2c22 58bd 226f 86bd 3274 43bb f2ee 4dbd
000000f0: 9ea5 29bd 3237 4cbd 30dd 533d 18a0 ec3b
00000100: 0b0d 16bb a7ee 09bd 6a2f eebc 3920 42bc
00000110: 6842 9fbb e649 093d 0014 52bc 2bd0 f33b
00000120: 91b4 34bd d4a5 943c 39a1 50bc ccb0 34bd
00000130: 1e41 bc3b 3204 1bbd 2cec d63c e397 303d
00000140: 5f71 023d c9dd d3bd 59ad 75bd 9dc0 f43c
00000150: bd25 b53c a434 553c 416e 3f3d fb81 93bc
00000160: 3d0d c8bd 7c76 0ebd 3b31 a5bd 0840 ce3c
00000170: 1965 063d 1967 383d 98d2 cf3c 52d3 223d
00000180: 7e0b ca3c 0b89 2e3d d814 d03d 48cc 3b3c
00000190: 0619 7a3d c566 d33c c789 a73d b783 9f3d
000001a0: c8e9 1ebd 0837 dc3b 363e d3bd c026 4bbd
000001b0: 938a 0abd e65c b53c 8fce 033b be6c c8bc
000001c0: 03e6 2d3c a318 35bd 3c15 a43d fc2d abba
000001d0: 4875 fdbc ec4c bc3d eb97 32bd 177b ff3c
000001e0: c77e ec3b e288 61bd f7e5 89bc 74d4 1abd
000001f0: c1fc 94bd 4d3c 0cbd 1a08 2f3d 8778 07be
00000200: 9f4a 82bd 8085 923d d1e5 4c3d fe6f 2a3b
00000210: 27cd bcbd d3d8 803d ddb8 733c 9b0d 2c3c
00000220: acbf fc3c c906 b7bd 5d57 643d 2141 3f3d
00000230: 27f5 0c3c 6b05 d63c a811 bebc 3ffb 913d
00000240: 215e 4dbd 0a31 edbd 330f 58bd 40b0 9a3c
00000250: 2c2e 393d 6569 2abc dc63 773c 4ad9 e1bc
00000260: dd5e c0bd ef83 43bd a276 5a3d 77df 51bc
00000270: 983f a8bd b2d3 c7bd 15a4 fa3c 7c38 db3c
00000280: 686c 7b3c 142c c23d a538 88bd fcdc 9d3d
00000290: 2e6f 1fbd 18a3 e43b c7f7 463d 2a32 dfbc
000002a0: 48f2 003d 8b44 d0bd 2e26 553b 0d5a cabc
000002b0: 8840 d93d afb8 753d 860c 67bd cc46 973d
000002c0: f15d 57bd 5d70 81bd 98e1 4d3d 5357 68bc
000002d0: 30c3 933d 261b 193d c854 333d f23d 3f3d
000002e0: c0ee 1abd f189 0ebd bc51 1e3d 2aac efbb
000002f0: 3edc a9bd 33b2 2d3d ebd8 6abd e945 353d
00000300: c25c 463d dd52 dbbd cda5 6ebd abc6 233b
00000310: f25e 703d 650c e53d c983 543d 837c 743c

classifier.5.weight f4 [200]
0.91370445 0.9387074 0.8264785 0.6515829 0.7642514 0.8143564 0.85414237 0.8629196
1.0686048 0.8902012 0.8847121 0.89594257 0.8698128 1.098806 1.009218 0.7248474
0.66199374 1.0032442 0.7657727 0.8185393 0.989974 1.0777961 0.7757206 0.98854345
0.67228824 0.76168424 0.67977434 0.75277257 0.8775464 0.94964975 1.0770068 0.6522181
0.7852187 0.8145939 0.9951802 0.72587126 0.94528157 1.0258697 0.72595215 0.8889479
0.8061089 0.7574326 0.9729061 0.91514415 0.7019251 0.7320179 0.97724897 0.59138894
0.7530816 0.9844652 0.8807599 0.89838934 0.921452 0.7623089 0.9205187 0.6474971
0.6395959 0.9015196 0.8061002 1.0245597 0.8126683 0.90782344 0.7497754 0.88025284
1.116231 0.7824393 0.9322703 0.9499573 1.049769 0.77382946 0.7492565 1.0982221
0.89293593 0.58024824 0.7508551 0.9032096 0.7743343 0.80997145 0.581814 0.94437367
0.9359383 0.9218406 0.7860843 0.9167247 0.726288 0.737007 0.7682589 0.9063319
0.96060264 0.86426616 0.68689454 0.581403 0.8968905 0.7599165 0.9705757 1.0327635
0.8754645 1.0044739 0.7903815 0.94817555 0.72613764 1.0357046 0.92504156 1.0005112
0.89872307 0.88224113 0.80502564 0.88066304 0.8025981 0.85404813 0.6439838 0.82182235
0.9962409 0.6568301 0.73431087 0.98646754 0.6530392 0.70045495 0.72124213 0.6599943
0.82734126 0.65842605 0.6997497 0.7805617 0.780389 0.8100554 0.8567775 0.9414211
0.96991855 0.92609704 0.9836088 0.6526784 0.8646876 0.63057417 0.8905688 0.76270574
0.89865416 0.9094847 0.93537706 1.0189067 0.85333014 0.87176496 0.76761967 0.9965072
0.7003838 1.0211592 0.7638412 0.9616893 0.9745764 0.8585845 1.0041263 0.9389425
1.0001264 0.9599137 0.75538516 0.9295113 0.8997627 1.0071061 0.9228233 0.8143138
1.1184776 0.7980339 0.77828884 1.0124303 1.0706909 1.042107 0.91375715 0.8107513
0.8779146 0.9230385 0.97370076 0.7225463 0.82202554 0.81568736 0.771579 0.8300075
0.760311 0.9392733 0.89425755 0.6618518 0.6930472 0.76321083 0.90256023 0.7342769
0.91935605 1.0326631 0.9185797 0.7544789 0.9080967 0.6299378 0.91063374 1.0780987
0.7172786 1.0001974 0.64237094 0.92201906 0.9862507 0.83949155 1.1108986 0.86328393
00000000: 89e8 693f 214f 703f 1894 533f 23ce 263f
00000010: fba5 433f a979 503f 13a9 5a3f 4de8 5c3f
00000020: 0bc8 883f 3ae4 633f 7e7c 623f 7e5c 653f
00000030: 0dac 5e3f ada5 8c3f 0e2e 813f 998f 393f
00000040: 6c78 293f 4e6a 803f ae09 443f cb8b 513f
00000050: f06e 7d3f 39f5 893f a095 463f 2f11 7d3f
00000060: 151b 2c3f bdfd 423f b105 2e3f b4b5 403f
00000070: e2a6 603f 3f1c 733f 5cdb 893f c4f7 263f
00000080: 1804 493f 3a89 503f 21c4 7e3f b3d2 393f
00000090: f9fd 713f b34f 833f 00d8 393f 1792 633f
000000a0: 275d 4e3f 1ae7 413f 6010 793f e346 6a3f
000000b0: 5db1 333f 8665 3b3f fd2c 7a3f 4465 173f
000000c0: f5c9 403f e905 7c3f 7b79 613f d8fc 653f
000000d0: 47e4 6b3f ad26 433f 1da7 6b3f 5fc2 253f
000000e0: 8fbc 233f fdc9 663f 955c 4e3f c624 833f
000000f0: 080b 503f 1e67 683f 48f1 3f3f 4058 613f
00000100: a8e0 8e3f f14d 483f 44a9 6e3f 6730 733f
00000110: d55e 863f b019 463f 46cf 3f3f 8b92 8c3f
00000120: 7397 643f 268b 143f 0a38 403f bf38 673f
00000130: c63a 463f 4a5a 4f3f c3f1 143f 79c2 713f
00000140: a799 6f3f bffd 6b3f d23c 493f 78ae 6a3f
00000150: 03ee 393f 7eac 3c3f 9eac 443f 5e05 683f
00000160: 0eea 753f 8c40 5d3f 52d8 2f3f d4d6 143f
00000170: 9e9a 653f e389 423f a677 783f 9831 843f
00000180: 711e 603f 9a92 803f 7156 4a3f a2bb 723f
00000190: 28e4 393f f891 843f 86cf 6c3f c010 803f
000001a0: b712 663f 8eda 613f 2916 4e3f 2273 613f
000001b0: 1277 4d3f e6a2 5a3f 1fdc 243f f362 523f
000001c0: a509 7f3f 0426 283f ccfb 3b3f 2389 7c3f
000001d0: 942d 273f 0451 333f 53a3 383f 63f5 283f
000001e0: a3cc 533f 9c8e 283f cc22 333f e4d2 473f
000001f0: 93c7 473f ca5f 4f3f c555 5b3f f900 713f
00000200: 954c 783f b214 6d3f c9cd 7b3f ee15 273f
00000210: 2b5c 5d3f 4f6d 213f 51fc 633f af40 433f
00000220: 330e 663f fdd3 683f df74 6f3f 896b 823f
00000230: d873 5a3f fd2b 5f3f b982 443f 191b 7f3f
00000240: 5a4c 333f 58b5 823f 198b 433f 4531 763f
00000250: d77d 793f 32cc 5b3f 3687 803f 895e 703f
00000260: 2404 803f e7bc 753f ec60 413f 74f4 6d3f
00000270: d956 663f dae8 803f 263e 6c3f df76 503f
00000280: 462a 8f3f f34b 4c3f f03d 473f 5197 813f
00000290: 660c 893f c363 853f fdeb 693f 668d 4f3f
000002a0: 03bf 603f 404c 6c3f 7444 793f cbf8 383f
000002b0: 4470 523f e3d0 503f 3486 453f 5f7b 543f
000002c0: bea3 423f 3774 703f 10ee 643f 1f6f 293f
000002d0: 8b6b 313f c961 433f 300e 673f 92f9 3b3f
000002e0: eb5a 6b3f 4e2e 843f 0a28 6b3f 8725 413f
000002f0: 0679 683f 9b43 213f 4b1f 693f 23ff 893f
00000300: 929f 373f 7806 803f 6c72 243f 7109 6c3f
00000310: ed7a 7c3f ebe8 563f ed31 8e3f 2d00 5d3f

classifier.5.bias f4 [200]
-0.35502964 -0.38318393 -0.48878685 -0.3265188 -0.20040615 -0.53713197 -0.227336 -0.16460103
-0.47168913 -0.38767472 -0.38779 -0.33375448 -0.33214542 -0.698089 -0.526812 -0.54465085
-0.3281524 -0.43996093 -0.32059807 -0.18431066 -0.5856737 -0.8585581 -0.45704234 -0.6889347
-0.4849644 -0.2181871 -0.41420645 -0.2252633 -0.48804766 -0.4682944 -0.81353253 -0.5441359
-0.28465068 -0.35089776 -0.35653076 -0.3577616 -0.42609122 -0.51773244 -0.41585475 -0.34209773
-0.6265948 -0.350041 -0.37068912 -0.29974103 -0.34765536 -0.57013285 -0.3788197 -0.44760877
-0.13716544 -0.22194791 -0.5926651 -0.4089103 -0.39706802 -0.49638417 -0.29165253 -0.31922224
-0.39931324 -0.46104696 -0.6783254 -0.55983675 -0.27875218 -0.1699798 -0.68608946 -0.26874092
-0.76559806 -0.29010868 -0.8831885 -0.6494567 -0.38759694 -0.33107153 -0.39316294 -0.7691729
-0.65474486 -0.3427388 -0.39777735 -0.41506168 -0.399608 -0.23283148 -0.47437397 -0.09402435
-0.28072953 -0.39060095 -0.45319816 -0.36309463 -0.3504606 -0.43465093 -0.122469105 -0.24318735
-0.55287826 -0.5106443 -0.4003089 -0.42540985 -0.2963167 -0.5202309 -0.5415853 -0.55420876
-0.2562759 -0.5177183 -0.4780173 -0.2054259 -0.43546462 -0.5233645 -0.3113461 -0.68895596
-0.3282723 -0.28869212 -0.3722926 -0.31922373 -0.4602723 -0.2644818 -0.4800511 -0.33894032
-0.46120253 -0.40769035 -0.57772005 -0.49198925 -0.38255647 -0.42607772 -0.49259162 -0.23723115
-0.22647002 -0.48529425 -0.2961861 -0.5334878 -0.28576002 -0.2798613 -0.41093826 -0.36503193
-0.52098304 -0.74763787 -0.67933404 -0.21525156 -0.26167747 -0.39896235 -0.71234274 -0.42027196
-0.5707599 -0.35514843 -0.38916668 -0.3608076 -0.341864 -0.45516002 -0.39325586 -0.41616318
-0.53945625 -0.40967748 -0.17157108 -0.47157803 -0.644072 -0.43506345 -0.4517291 -0.45728585
-0.6440731 -0.62125224 -0.44188067 -0.30974683 -0.44008598 -0.55426145 -0.2964449 -0.24768539
-0.49005464 -0.50536436 -0.281152 -0.54991853 -0.6783779 -0.60185474 -0.7341644 -0.44005144
-0.4698097 -0.48575583 -0.78766525 -0.35773197 -0.31056622 -0.37967852 -0.24472135 -0.3909212
-0.15856664 -0.4192785 -0.31881 -0.4998442 -0.32084447 -0.59139323 -0.33696374 -0.6913083
-0.5822406 -0.6220449 -0.25292835 -0.14067319 -0.50200623 -0.60176975 -0.5597986 -0.91830045
-0.4757296 -0.726787 -0.5068623 -0.4221176 -0.39452183 -0.50059956 -0.64798343 -0.31129363
00000000: 72c6 b5be af30 c4be 4542 fabe 792d a7be
00000010: 4537 4dbe 7b81 09bf c5ca 68be 2c8d 28be
00000020: 3d81 f1be 4d7d c6be 698c c6be dee1 aabe
00000030: f70e aabe f6b5 32bf 27dd 06bf 3d6e 0bbf
00000040: 9703 a8be 8f42 e1be 6e25 a4be efbb 3cbe
00000050: b6ee 15bf 77ca 5bbf 7401 eabe 065e 30bf
00000060: 414d f8be 706c 5fbe de12 d4be 6cab 66be
00000070: 62e1 f9be 49c4 efbe ab43 50bf 7e4c 0bbf
00000080: bcbd 91be dfa8 b3be 338b b6be 872c b7be
00000090: a128 dabe 1d8a 04bf eaea d4be 6f27 afbe
000000a0: 8468 20bf 9338 b3be f7ca bdbe a877 99be
000000b0: e2ff b1be 3af4 11bf a8f4 c1be fa2c e5be
000000c0: 1975 0cbe 5046 63be e6b8 17bf b15c d1be
000000d0: 804c cbbe 1126 febe 7b53 95be 1971 a3be
000000e0: c972 ccbe 590e ecbe bca6 2dbf 7651 0fbf
000000f0: 9bb8 8ebe 2f0f 2ebe 8fa3 2fbf 6998 89be
00000100: 3cfe 43bf 2089 94be a418 62bf cb42 26bf
00000110: 1b73 c6be 3582 a9be a74c c9be 84e8 44bf
00000120: 5c9d 27bf 767b afbe 79a9 cbbe f782 d4be
00000130: 6b99 ccbe 606b 6ebe 25e1 f2be d78f c0bd
00000140: c8bb 8fbe d9fc c7be 9709 e8be 8ae7 b9be
00000150: 926f b3be 918a debe 15d1 fabd 1b06 79be
00000160: 6e89 0dbf 96b9 02bf 4af5 ccbe 52cf d9be
00000170: d3b6 97be da2d 05bf 56a5 0abf a0e0 0dbf
00000180: 9836 83be 3089 04bf afbe f4be 2b5b 52be
00000190: 38f5 debe 37fb 05bf c268 9fbe 6b5f 30bf
000001a0: 4f13 a8be 74cf 93be 239d bebe 4b71 a3be
000001b0: d0a8 ebbe 296a 87be 42c9 f5be 9689 adbe
000001c0: bd22 ecbe cabc d0be 76e5 13bf 04e6 fbbe
000001d0: 71de c3be dc26 dabe f834 fcbe b9ec 72be
000001e0: c2e7 67be 7d78 f8be b4a5 97be a892 08bf
000001f0: 234f 92be fb49 8fbe 8066 d2be 77e5 babe
00000200: 255f 05bf 3265 3fbf d6e8 2dbf e86a 5cbe
00000210: 97fa 85be cb44 ccbe 185c 36bf e32d d7be
00000220: 521d 12bf 04d6 b5be db40 c7be c6bb b8be
00000230: cc08 afbe bc0a e9be d558 c9be 5713 d5be
00000240: ce19 0abf 3fc1 d1be 54b0 2fbe ad72 f1be
00000250: e7e1 24bf a3c0 debe 0949 e7be 5f21 eabe
00000260: fae1 24bf 630a 1fbf 2f3e e2be 2397 9ebe
00000270: f352 e1be 14e4 0dbf a0c7 97be 3da1 7dbe
00000280: 71e8 fabe 8f5f 01bf 28f3 8fbe 76c7 0cbf
00000290: 2daa 2dbf 2713 1abf 33f2 3bbf 6c4e e1be
000002a0: e68a f0be fdb4 f8be 6ea4 49bf a528 b7be
000002b0: 8902 9fbe 3965 c2be 3c98 7abe d326 c8be
000002c0: 4b5f 22be acab d6be 103b a3be 94eb ffbe
000002d0: ba45 a4be 8c65 17bf 8386 acbe 95f9 30bf
000002e0: b80d 15bf 563e 1fbf d37f 81be a20c 10be
000002f0: 7b83 00bf 950d 1abf f64e 0fbf bd15 6bbf
00000300: d592 f3be b60e 3abf bac1 01bf cc1f d8be
00000310: c4fe c9be 4b27 00bf 3ee2 25bf e161 9fbe
