ckpt/MAP_HF/1/best_loss_BEST3.ckpt (torch, 144096 bytes, 19 tensors)

classifier.0.weight f4 [160, 18]
00000000: ace3 e53d 2d13 97be 1533 4fbd 36de 1bbe
00000010: bd89 4fbd 0e52 de3d d7a3 553e 16e6 babd
00000020: 857a 9a3e e4c9 8ebc 0feb 243f 51f9 15be
00000030: 2e37 4cbe 5413 a83c e4d5 a63e 4968 393d
00000040: 8b6c 9e3e 95cd 513e 2384 fa3d eb0c 8abe
00000050: 9685 af3e a06c df3d 56c8 d23e 5eb5 47be
00000060: d761 25be 5df1 ff3c 8b95 cebe 975d f23d
00000070: abcf a13e 07c9 81be 8389 16be c690 693d
00000080: 4f51 4e3d 5089 b43d c60e 0d3d fc7f 083d
00000090: f97d a43d f20f 553e a5e6 393d 3cea 8f3d
000000a0: b849 3f3d 86be b5bd 1caf 843d abd9 333e
000000b0: 4fae 1ac0 b1d1 d1bc d1aa 7ebf ea56 46be
000000c0: f9fe 7cbc a493 9a3d 7788 dc3d 3252 38be
000000d0: 86ff 75bc c764 e13d 8513 9cbc 67ca 3c3e
000000e0: 589a abbd a7f6 1d3e 3263 a1be c14f 8fbe
000000f0: e204 613e 654e 1a3e d505 953f 5a92 043e
00000100: 3d48 6abe 0877 36be 2cfc 513d 6bc8 833c
00000110: a084 e13a be3b a43d eaeb 883d 70a2 87be
00000120: cd9f 763d 2c05 f63d 44cd c0bc 84a2 f93d
00000130: b8a5 95bd 1bd1 4ebd 2910 423e a043 bdbd
00000140: 6ecd d73e 5fa8 c0be c1b7 f33f 0c29 aa3e
00000150: 9c33 07be 972f 57be 158f 823d f60d 483e
00000160: 5418 cd3d 25ef 76bd c505 8e3d 4b76 323e
00000170: b7ad 233e 618c b03e fca8 eebd c57f b3bc
00000180: 73cd b1bd 11d7 6cbe 5eb2 9f3f 3e68 993e
00000190: 2bf9 9b3f 21b1 233c 8f46 6bbd 7a79 043e
000001a0: 0907 babd 586b 91be d0e8 82bd f79c bebb
000001b0: 554b 793e 8afc 833e 000e fd3d a429 bcbd
000001c0: 52f6 1bbd 75d1 143c 93d4 b33e 6d1a 6e3e
000001d0: 17be 71bf 445a 87bc 8de7 983f 564a b4bd
000001e0: ba23 2f3d 7f48 b7bd fba5 063c d79d 32bd
000001f0: ca65 173d 29db 46bd 0e08 6dbd a9f7 36be
00000200: 4d77 dc3e 0d32 e03c 60d8 e3bd 3e6a 0abe
00000210: 3752 7dbe 71dc 713d b7ad 25c0 7347 413e
00000220: 826c 4fbf 29e5 41be c561 bbbd b2f4 febd
00000230: fd93 27be e0f4 303d 47cd 7dbe 408f 313e
00000240: e1bf 8bbe 580e 943d 23de d63e 1971 813e
00000250: 43b0 713e dce4 53bd 6aea fcbe 11a2 d0bd
00000260: 6e41 343f ea6f 773d 2d6d acbd 99cf 883d
00000270: d15e 063e fc0e 0cbe 6f5f 913d 6c47 d43d
00000280: 33b6 9cbe 6b22 77ba 9d59 08be 7bd9 6f3d
00000290: e651 2c3c f00e 70bd 08c0 ab3d 1dee d63d
000002a0: 2f76 c8bd c940 4fbd ff39 ca3d f1a3 bebd
000002b0: cd73 803f 558b 8fbd a2dc 3d3b 8405 533d
000002c0: 0f85 c1be 4ca1 babe e9c6 55be dee0 413d
000002d0: 2b84 0e3e 53ce b83e c101 983d d66a 5d3e
000002e0: 68ec 683e ffcd 563c 5b22 f93d ec67 d5be
000002f0: 4a4b 3bbe c448 043e 63d7 ca3d 85ad 793e
00000300: e73d 23be 83be 2a3b ae68 553d 5b96 933d
00000310: 3c0b 21be 12dd 213e 3b5b aabd 186a 503d
00000320: 6c69 953e e24e b6bd ecd8 20be 119f 0c3e
00000330: 4eb4 0ebf c03a 123e 0b28 503e 442b a8be
00000340: 087f 283f 0032 333e 8cbc 9f3d c773 eebd
00000350: c37a 5a3d 5cc9 65bc ae35 163c 16d3 30be
00000360: ea23 f93d d6e1 e73d bd3c d43d c8d6 2f3d
00000370: 0962 8a3d 7c0b 2f3c 65d3 573e b82a ab3c
00000380: c56e 5140 d825 5fbe fdc1 323e 1776 5d3e
00000390: 45aa eebc a3ae 0c3e 0d13 3cbe 948a 9dbd
000003a0: b63b 27be 0e49 68be ff41 b2bd 5e7a 8d3d
000003b0: 1d2b 4c3e 08e8 3c3d c6b0 44be 78f0 7cbd
000003c0: f586 9e3d 3f41 0e3e 3d4b 26bf 9014 f8bd
000003d0: 8751 d1be 23e1 96bd d34e 293e eb38 6bbe
000003e0: 4664 dabe 2dcb ad3e 7bec abbd da66 033e
000003f0: 5600 f6bd 165b a73e f21f 11be 1c53 733e
0.112250656 -0.29506817 -0.050585825 -0.15221485 -0.050668467 0.108554944 0.20863281 -0.09125917
0.301716 -0.017430253 0.6442117 -0.14645888 -0.19942924 0.020517029 0.3258506 0.04526547
0.30942187 0.2048858 0.12232234 -0.2696298 0.34281605 0.109093904 0.4116847 -0.1950278
-0.16150604 0.03124302 -0.40348467 0.11834257 0.3160375 -0.25348684 -0.14700894 0.057022832
0.05037051 0.08815253 0.034437917 0.03332518 0.0803184 0.20806864 0.045385975 0.070270985
0.046701163 -0.0887423 0.06478712 0.17563502 -2.416889 -0.025612684 -0.99479395 -0.19369093
-0.01544165 0.075476915 0.10768216 -0.18000105 -0.015014535 0.1100555 -0.019052276 0.18436585
-0.08379048 0.15426122 -0.31520993 -0.27990535 0.21974519 0.15068968 1.1642405 0.12946454
-0.22879119 -0.17818844 0.05126588 0.016086778 0.0017205663 0.080192074 0.06685622 -0.26491117
0.06021099 0.12012705 -0.023535378 0.121892005 -0.07306999 -0.050492387 0.18951477 -0.09241414
0.42148918 -0.37628457 1.9040452 0.3323444 -0.13203281 -0.21014248 0.06374947 0.19536576
0.10014406 -0.06028666 0.06934694 0.17427938 0.15984236 0.344821 -0.11653325 -0.021911511
-0.086817645 -0.23128916 1.2476308 0.29962343 1.2185415 0.009990961 -0.057440337 0.12936965
-0.09083373 -0.2840221 -0.06392062 -0.0058170515 0.24345143 0.2577861 0.12356186 -0.0918763
-0.038076706 0.009083142 0.3512312 0.23252268 -0.9443068 -0.016522534 1.1945664 -0.08803241
0.04275868 -0.089493744 0.008218284 -0.04360756 0.036962308 -0.04854885 -0.05786901 -0.17867912
0.4305977 0.027367616 -0.11125255 -0.1351709 -0.24738394 0.05904812 -2.5887277 0.18874912
-0.81024945 -0.18935074 -0.091495074 -0.12449016 -0.16365047 0.04320228 -0.24785338 0.17339802
-0.2729483 0.07229298 0.41966352 0.252816 0.23602395 -0.05173193 -0.49397594 -0.10187162
0.7041234 0.060409464 -0.08419261 0.06680221 0.13122107 -0.13677591 0.07098281 0.10365185
-0.30607757 -0.0009427431 -0.13315435 0.058557015 0.010517573 -0.058607996 0.083862364 0.10494635
-0.09788167 -0.050598893 0.09874343 -0.09308613 1.003534 -0.07008997 0.0028970619 0.051518932
-0.37796828 -0.36451185 -0.2087666 0.04733359 0.13917606 0.36094913 0.074222095 0.21622786
0.22746432 0.013110637 0.12164756 -0.4168085 -0.18290439 0.12918383 0.09904363 0.24382599
-0.15941583 0.0026053495 0.052101783 0.072064124 -0.15726942 0.15806988 -0.08318182 0.05088243
0.29181993 -0.089017645 -0.15707749 0.13732554 -0.55743873 0.14280224 0.20327775 -0.3284551
0.65818834 0.17499542 0.07799634 -0.116431765 0.05333973 -0.014025059 0.009168072 -0.17268023
0.12165053 0.11322372 0.103631474 0.04292944 0.0675698 0.01068389 0.21076734 0.020894393
3.2723858 -0.2179178 0.17456813 0.21627079 -0.029133925 0.13738494 -0.18366642 -0.07692447
-0.16331372 -0.22684118 -0.08703994 0.06908105 0.19938321 0.04611972 -0.19208059 -0.061752766
0.07740585 0.13892077 -0.64958555 -0.12113297 -0.40882513 -0.0736716 0.16533975 -0.22970931
-0.42654628 0.33944073 -0.083947144 0.12832204 -0.12011783 0.3268668 -0.14172342 0.23762172

classifier.0.bias f4 [160]
00000000: ab1a 3f3e f797 d4bd f53b b83d 2547 753e
00000010: 1d65 36be 4804 a9bd fc94 cebc 1112 cbbd
00000020: f742 c0bc b12d c23d 21ae 73bb 98ad a8bd
00000030: 7674 d83c 6caa fc3d 9480 8d3e 4856 3b3e
00000040: e234 cbbd 3493 6c3e 9ce4 7ebd 981e 773b
00000050: 78ba 16be 0463 25bd 951d aabd 0b5a 22be
00000060: bbb7 5a3d 613c 45be 4a45 523e 55c4 46be
00000070: 2c18 08be e39e e4bc 8153 db3d 436a 2abe
00000080: a7cb 003e 10cd d23c 637c 3ebe 6627 903d
00000090: 4aa7 3cbe d347 c83d 3ac5 39bc 186f 1fbd
000000a0: fd35 81bd d0d6 44be f5e5 a23d 0f38 243e
000000b0: 3dff 3abc 282a 253e 0ccb d83d 8b60 603e
000000c0: 70b2 6fbe e867 ef3d 56f5 c8bd e558 d53e
000000d0: c93b 02be 723e f7bd c96b 9f3e e408 60bd
000000e0: a876 32bd 36dc 8e3e 20ca a53d 725a debd
000000f0: b8cd 69bd 8088 843e 942f 3c3e d884 3dbe
00000100: 9672 75be 3043 6ebb e79c 923c 8157 203b
00000110: 9517 173e 10c4 f43d 893f 64be 4a7a 0f3d
00000120: 9a5f 8abe 04ea 24be 395e 833e 48cc 2e3d
00000130: e90f a83d 8301 7dbe c1f0 273d 51ad 88be
00000140: 173d b3bb b649 8b3e 4109 bcbd cd9e 44be
00000150: cbe7 093b d9d9 85be b446 f7bd 5d42 f33d
00000160: fbf6 f53c df93 36be d8da 87be ec8b d23d
00000170: ae73 fabb df11 e2bc ec8a 24be 40bb 073e
00000180: 6bf8 a33d 4775 0dbe bd68 54bd 6336 3f3e
00000190: 1202 7abe 42e6 7abe b271 833e 817e 813c
000001a0: 66a9 64bc 577c af3c 81dd 3dbe 8483 333d
000001b0: e270 8dbe fdb3 90bc 957e 0dbf 84c0 05bc
000001c0: 350e b2bd 8b8c 9ebe 80f9 51be 0ab5 ac3d
000001d0: a871 da3d 5dcd 17be c2e1 ebbb 03c4 d5bd
000001e0: e9b6 08bb 7eaf 6ebe b1a8 84be dc65 fc3d
000001f0: 3a4a 7bbd c05b 12be 4ace ecbd be3b e63d
00000200: 07bf f63d 3fed 5c3e 4520 dc3d d6b3 423e
00000210: c002 e2bd 980d d73d 31fc be3d 4cbb 273e
00000220: 9943 c23c 1fe8 57bd b413 05be f814 443e
00000230: 2cab 333d a890 36bd 7db5 f33c f8de 143f
00000240: fb63 313e d410 4a3d 4104 bebd e548 143e
00000250: fcba ffbc dd2e d43e 849e 5bbd 52b4 7d3d
00000260: 24e0 803d 0bed d83c 7226 ad3d f52d 35be
00000270: 2878 803b 69d0 703e 961f af3d 8361 0cbd
0.18662517 -0.103805475 0.08995811 0.2395292 -0.17812009 -0.0825277 -0.025217526 -0.09915555
-0.023469431 0.09481371 -0.0037182646 -0.082362354 0.02642272 0.12337193 0.2763716 0.18294632
-0.09922196 0.23103029 -0.062229738 0.0037707444 -0.1471957 -0.04037763 -0.083064236 -0.15854661
0.053397875 -0.19261314 0.20534244 -0.19410832 -0.13290471 -0.027907794 0.107092865 -0.16642098
0.12577687 0.025732547 -0.18602137 0.07038765 -0.1842319 0.097793244 -0.011338526 -0.038924307
-0.063091256 -0.1922257 0.07954017 0.1603701 -0.011413393 0.16129363 0.10585603 0.21911828
-0.23407912 0.116897404 -0.09812419 0.41669384 -0.12718119 -0.120724574 0.3113692 -0.05469598
-0.04357019 0.27902383 0.08095193 -0.10857095 -0.057080954 0.2588539 0.18377525 -0.18507707
-0.23969492 -0.0036355965 0.017897082 0.002446622 0.1475509 0.119514585 -0.22289862 0.035028733
-0.27026063 -0.16104895 0.25657824 0.042675287 0.082061596 -0.24707608 0.041001085 -0.2669473
-0.005469929 0.27204674 -0.091814525 -0.19201203 0.00210427 -0.26142767 -0.120740324 0.11877892
0.030024996 -0.17829846 -0.26534152 0.10280594 -0.0076431846 -0.027596412 -0.1606862 0.13255024
0.08006366 -0.13814269 -0.0518577 0.1867309 -0.24414852 -0.24501899 0.2567268 0.015807392
-0.013956403 0.021421595 -0.18541528 0.043826595 -0.27625185 -0.01766395 -0.55271274 -0.008163575
-0.08694116 -0.309666 -0.20505333 0.08432968 0.106662095 -0.14824434 -0.0071985433 -0.10437777
-0.0020860976 -0.23309132 -0.2590995 0.12324116 -0.061350085 -0.14292812 -0.11562784 0.11241864
0.12048154 0.21574877 0.107483424 0.19013914 -0.11035681 0.1050064 0.093254454 0.16380042
0.023713874 -0.052711602 -0.12995797 0.19148624 0.043864414 -0.04457155 0.029749626 0.58152723
0.17323296 0.049332455 -0.09278155 0.14480932 -0.03121709 0.41442004 -0.05361797 0.061939545
0.062927514 0.026480218 0.084545985 -0.17693312 0.0039205737 0.23517002 0.085509464 -0.034272682

classifier.1.weight f4 [160]
00000000: a9a6 883f cc14 8a3f 7557 6f3f de15 5d3f
00000010: d942 733f 346c 593f 7880 a43f 6bcd 8c3f
00000020: 540c 953f d4e2 5d3f 2748 613f c40d 883f
00000030: a32a 8f3f cfb7 473f d19e 833f 71ea 2f3f
00000040: 6785 793f f4b1 543f 4d37 7f3f 91b4 163f
00000050: a2c4 523f 2f12 603f 1a65 243f 4e15 683f
00000060: e1f6 483f 59d8 773f ca57 8b3f 9356 733f
00000070: 3a94 883f c571 153f b062 933f 893b 753f
00000080: 810b 733f 10aa 993f c23d 923f 77ce 843f
00000090: 1b2f 7c3f c851 5a3f 11dd 453f 07b7 793f
000000a0: e716 543f 8947 363f 4d1f 523f a1f2 843f
000000b0: 3a52 613f 818d 593f 4a9d 3a3f cef8 5e3f
000000c0: 7f43 5e3f ade2 a73f 19ff 453f 75de 643f
000000d0: ec7e 7c3f ad47 363f 259d 833f 3113 9c3f
000000e0: f2c4 5a3f 8b51 1f3f 296a 8c3f 1506 703f
000000f0: 5627 773f 6be3 613f 48fb 7d3f 8fed 333f
00000100: 7d1b 8b3f ef4a 363f 1150 6f3f be38 8a3f
00000110: 58de 963f 4237 8d3f 9b16 8c3f 9f6d 673f
00000120: 1e6c 783f 3b30 563f dd79 853f 253e 463f
00000130: 7eae 7d3f ad3f 923f 6d67 8b3f dcd7 733f
00000140: 792f 683f 6700 313f cebf 803f 74cd 993f
00000150: 2b7f 5f3f f773 8a3f 2fd0 8c3f d968 6c3f
00000160: 5a92 823f 1c16 393f db9a 803f 367a 8b3f
00000170: e3ac 713f a019 7c3f 77e2 9a3f 340a 663f
00000180: d077 663f e203 853f 0ea9 4b3f e9c1 4d3f
00000190: b6d2 923f d0b9 853f 2ffc 3c3f 68bd 5e3f
000001a0: 35c8 f83e 3122 5c3f 0c71 673f 87ba 673f
000001b0: bb03 7a3f 44d6 6f3f 5ed6 a83f 3287 7c3f
000001c0: 395a 8c3f 7618 633f 7dab 893f ae17 953f
000001d0: da9c 5e3f a1bd 6a3f 30e8 723f 5339 753f
000001e0: f377 803f 6765 8e3f 6209 693f d253 7a3f
000001f0: 7de8 803f 159d 783f 83cd 8e3f 760a 793f
00000200: 4c07 953f 5c43 8a3f 1a18 403f 9549 913f
00000210: 61bf 8a3f dbf8 863f 4a69 6e3f ef0d 5c3f
00000220: 2392 7a3f 4235 683f 617f 423f eb19 4c3f
00000230: d881 763f 0a2b 813f eadb 503f ef3b 973f
00000240: 326c 813f 2cfc 2c3f 3588 653f b968 673f
00000250: 5306 3e3f 581e 403f e04b 813f 6751 673f
00000260: d88d 7d3f de4c 703f 0dd9 173f 11d9 773f
00000270: 405c 7a3f 8451 633f 0c61 653f 4a99 5c3f
1.0675861 1.0787597 0.93492824 0.8636149 0.95023876 0.8493073 1.2851706 1.1000189
1.1644387 0.8667424 0.8800072 1.0629201 1.1184887 0.78014845 1.0282842 0.68717104
0.9746918 0.83084035 0.9969376 0.5886927 0.8233129 0.87527746 0.6421677 0.9065751
0.7850171 0.96814495 1.0886166 0.95053977 1.0670235 0.58376724 1.1514492 0.9579397
0.9493943 1.2005024 1.1425097 1.0375508 0.9850938 0.8528104 0.77290446 0.975449
0.82847446 0.71202904 0.8207901 1.0386544 0.8801609 0.8498154 0.72896254 0.87098396
0.8682174 1.3116051 0.77342373 0.8940194 0.9863117 0.7120312 1.0282332 1.2193357
0.85456765 0.622338 1.0969898 0.9375928 0.96544397 0.8823764 0.9921155 0.7028436
1.0867764 0.7120809 0.93481547 1.0798566 1.1786604 1.1032488 1.0944399 0.90401644
0.97039974 0.83667344 1.0427815 0.77438575 0.9909438 1.1425682 1.0890938 0.9525125
0.9069744 0.6914124 1.0058534 1.2015824 0.8730342 1.081664 1.1001033 0.92347485
1.0200913 0.7229936 1.0047258 1.0896671 0.9440443 0.984766 1.2100362 0.8985932
0.9002657 1.039181 0.7955483 0.8037401 1.1470554 1.044733 0.738223 0.8700776
0.48590246 0.8598967 0.9040687 0.90518993 0.9766194 0.9368632 1.319042 0.9864379
1.0965034 0.887092 1.0755459 1.1647851 0.86958086 0.916956 0.9488554 0.95790595
1.0036606 1.1124696 0.9102994 0.9778415 1.007095 0.9711469 1.1156467 0.9728159
1.1642852 1.0801806 0.75036776 1.135058 1.0839654 1.0544695 0.9312941 0.8595876
0.97879237 0.90706265 0.75975615 0.7972705 0.96291876 1.009126 0.8158556 1.1815165
1.0111144 0.67572284 0.8966096 0.9039417 0.742284 0.750463 1.010128 0.90358585
0.9904456 0.9386729 0.5931557 0.9681559 0.9779701 0.8879626 0.89601207 0.861714

classifier.1.bias f4 [160]
00000000: 8cc9 f4bd d562 84be 0595 19be 6012 4cbd
00000010: 0078 a6bd ba8b a5be 72aa abbd b4d8 79be
00000020: b185 95bd 1261 eabe 777e 70be 3f0f 94be
00000030: 1d51 14be 4a18 ebbe e314 81be d844 92be
00000040: 8f99 9abe 2f8c a9be d1d2 0bbe c009 80be
00000050: c1f3 54be 252e 97be 9aed 85be 9480 8cbe
00000060: ed41 81be d063 dcbe 83ca 5dbe 3ed7 f3be
00000070: a537 a4be 652d 1bbe 45b2 97be b8b0 d4be
00000080: 9693 9dbe f122 63be 62d7 90be b880 b0be
00000090: 0f35 77be c9ec 06be fcb7 98be acd8 9dbe
000000a0: dedf 27be e520 0ebe 6c6f bbbe 2cd7 afbe
000000b0: b9de b1bd dce2 c4bd dd2a 00be c97e 42be
000000c0: 5577 5fbe 3d6c eebe 4443 46be 204f 21be
000000d0: 31d9 50be b241 53be 7873 1cbf de3a 47be
000000e0: dfbb f3bd 6225 8b3a 4e68 95be c407 d1be
000000f0: 0c9c 57be b5a7 8bbe 6f2f fcbe 7c31 1bbe
00000100: 8d85 9cbe 558b 8dbe c898 24be 2f35 11be
00000110: 79d2 f4be 4a40 52be 25d7 d6bd e27b c6bd
00000120: 1f75 2abe 6de8 13bf d70d d2be b509 8abe
00000130: 5a93 c1be cc87 12be 9684 a8be b4c7 94be
00000140: ef2e a6be e9a1 02be 4f41 a3be a45e b3be
00000150: e1fb 493c af6d b2be 9346 cfbe fd8e c1be
00000160: 03f3 c7be 023a 4ebd 7103 15be a1e6 75be
00000170: 2d77 f93c 6d46 dcbe dc93 96be 6a90 51be
00000180: bb2b 97bd 1de3 94be b345 9fbe fc77 96be
00000190: 2c44 d1be 519b bfbe d8e0 84be 1761 7dbe
000001a0: c968 e6be fb07 58bd 4a8a 11be 3f49 a6be
000001b0: f0b4 8cbe ef03 83be da53 52be e102 bebe
000001c0: ea15 cdbe d317 19be 97ca 30be bb44 37be
000001d0: 03e9 2cbe e24a 55be ac67 58bd 4780 12be
000001e0: 03bc 10be 1901 27be 5878 28bd 9e63 9fbe
000001f0: 26a1 f7be f31f b4be de12 6cbe 1ccc c7bd
00000200: 142b 59be fcc6 9cbe e947 9dbe b246 fcbe
00000210: 6c3f c2be 921f 8ebe f7d5 12be 0e30 4ebe
00000220: 996a c6bd c7cf 48be 50bd 19be 06d3 b3be
00000230: 5bd8 7abe 1bc0 a8be 688c 6ebe cf96 bdbe
00000240: 5e10 2fbe 12c8 16be 6c35 5abe 0595 f7bd
00000250: cb3b 453d a58b 6fbe 8604 aebe 17d0 8ebe
00000260: 43b6 20be cc4b 03be a569 1dbe 080a 92ba
00000270: 0041 9abe 79c9 2bbe eb7c 15be 561f 53be
-0.119525045 -0.25856653 -0.14998253 -0.04982221 -0.08128357 -0.32333165 -0.08382119 -0.24399072
-0.0730089 -0.45777184 -0.23485743 -0.28917882 -0.14484067 -0.4591697 -0.25211248 -0.2856815
-0.3019528 -0.33114764 -0.13654639 -0.2500744 -0.2079611 -0.29527393 -0.26157838 -0.27441847
-0.2524561 -0.430449 -0.21659283 -0.47625154 -0.32073703 -0.15154035 -0.29628196 -0.41541076
-0.30776662 -0.22181298 -0.28289324 -0.34473205 -0.24141334 -0.13176264 -0.2982787 -0.3082937
-0.16393992 -0.13879736 -0.36608446 -0.3434385 -0.08685059 -0.096135825 -0.12516351 -0.18993677
-0.21822865 -0.46566954 -0.19361597 -0.1575284 -0.20395352 -0.2063053 -0.6111369 -0.1945605
-0.11901068 0.0010615999 -0.2918114 -0.40826237 -0.21055621 -0.27276388 -0.4925494 -0.15155596
-0.3057064 -0.27645364 -0.16073906 -0.14180444 -0.47816828 -0.20532337 -0.10490254 -0.096915975
-0.1664624 -0.5777653 -0.41026184 -0.2696053 -0.37807733 -0.14309615 -0.32913655 -0.2905861
-0.32457682 -0.12757076 -0.31885764 -0.35033143 0.012328119 -0.34849307 -0.4048353 -0.37804404
-0.3905259 -0.05034829 -0.14552094 -0.24013759 0.030452335 -0.4302248 -0.29409683 -0.20465246
-0.07381388 -0.29079524 -0.31107864 -0.29388416 -0.40872324 -0.37423185 -0.25952792 -0.24744068
-0.4500182 -0.052741986 -0.1421291 -0.32477757 -0.27481794 -0.2558894 -0.205398 -0.3711157
-0.40055782 -0.14950494 -0.17264782 -0.17897312 -0.16885762 -0.20829347 -0.052833244 -0.14306746
-0.14134221 -0.16309012 -0.041130394 -0.3113069 -0.48365134 -0.35180625 -0.23054072 -0.09755728
-0.21207839 -0.30620563 -0.30718926 -0.49272686 -0.37939012 -0.2775846 -0.14339434 -0.20135519
-0.09688301 -0.19610511 -0.15013623 -0.35121936 -0.24496596 -0.32959065 -0.23295748 -0.3702912
-0.17096087 -0.14724758 -0.21309441 -0.1208897 0.048152726 -0.23393114 -0.33987826 -0.27893135
-0.15694527 -0.12821883 -0.15372331 -0.0011141906 -0.30127716 -0.16776074 -0.14598434 -0.20617422

classifier.1.running_mean f4 [160]
00000000: 9ad4 983e ca57 ca3c 51d8 3f3e bdda 993e
00000010: 5208 c33d 5a62 883d d5b3 a13e 6a48 8ebe
00000020: efef 30be 1e12 25be 1753 313e cee7 1dbe
00000030: 0c9b 213e d09d 043c 3914 ef3e 4c7e 263e
00000040: 67c4 c1bc cf8b b03d 171e 56be 8a48 9f3c
00000050: 4ca2 11be 6ca0 343d e88a 2cbc 1c70 40be
00000060: a715 563c 4077 22be e8ff 1e3e 70a6 cfbe
00000070: 0ab5 96be b9de 34be 4c48 823e e821 6bbd
00000080: 1b9d e23e 4044 863d 5359 28bd a894 cd3d
00000090: 1344 04bc b465 223e ac8b eebd d3a4 b9be
000000a0: ee3a 44be 819d fabe 3fe3 00bd 9bdc 853e
000000b0: e80a 01be b665 c33d bc77 5e3d 9b00 9a3e
000000c0: 3030 ebbd ed3c 9bbb b79f 4fbe f06e 283f
000000d0: ec50 b0be 198c 34bd d154 413f 2810 d9bd
000000e0: fcd6 75bb 8a10 723e 9395 5fbe 8af3 0cbc
000000f0: 269d ccbd e5e9 023e 2f73 813d 0f45 ca3c
00000100: 574f 75be 7958 acbb 6eb1 15be f5b8 37be
00000110: f986 a03e 0c74 303e 7933 bdbe a132 293e
00000120: 0b07 11bf a9d9 80bd 4c04 4b3e 9aa7 4abe
00000130: e8c8 9ebe 4173 583e 643c 4c3d 5bfd 07bf
00000140: 3b70 883d a91e 2e3e 8aea 563e c04b e4be
00000150: 0684 f3b8 2670 c8bd f64a 63be 4bc7 a93e
00000160: e05d b7bd b266 94be 4bdd f3be 6242 2d3c
00000170: 3a55 1e3e 1d3d 2f3b 324f 12be 1ce4 cabd
00000180: 2f3e 8b3e 3324 ebbd 4f88 6dbe bc46 cd3e
00000190: 41f0 cbbe 23ac a8be f84b 873d 976d 383d
000001a0: 69d1 f3be 6438 01be 38b7 203e 6cb0 c13c
000001b0: 4353 bbbe 14ad f83e 2c50 39bf df36 5dbc
000001c0: 9838 123e c18b c9be 9456 babe b5a2 c23d
000001d0: 78f6 5f3e 57fa abbe 34d8 2cbe 584f 9b3c
000001e0: 7db8 353c da10 94be 627c 4abe 588c 0d3f
000001f0: 2531 89be a9f3 78bd 7453 debd b1a6 a23e
00000200: aa9c 393d 33e7 b83e 50be bd3d 9be2 5b3e
00000210: 5d6e 0cbe c2c7 753e 9171 55bd 1e7f 8ebb
00000220: e372 7c3e 6a7f 94be fbed f4be fcfa f23e
00000230: da3d c6bd 8b2f 06bd 4886 11be c075 1e3f
00000240: da6d 323d 1d76 a63c 6539 d8be 8354 b73e
00000250: 9491 eabd 81df 163f e92a 22bc 53d6 f73d
00000260: 5eb9 6fbe a38a 8f3d d6e5 a83d 7b34 99be
00000270: 6f47 72bd 8e1f f73e 6bdf 7f3d eaac 4c3e
0.29849702 0.024700064 0.18734862 0.30049697 0.09523071 0.06659384 0.31582513 -0.27789623
-0.17279027 -0.16120192 0.17316853 -0.15420458 0.15781802 0.008094266 0.46695116 0.16259116
-0.023653222 0.086204164 -0.20909916 0.019443769 -0.14222068 0.044098303 -0.010531165 -0.18792766
0.013066686 -0.15865803 0.15527308 -0.4055667 -0.29434997 -0.17663087 0.25445783 -0.057405382
0.44260487 0.065559864 -0.04110081 0.100381196 -0.008072871 0.15859109 -0.11647734 -0.36258563
-0.19163105 -0.4894829 -0.03146672 0.2614487 -0.12601817 0.09540884 0.054313406 0.30078587
-0.114838004 -0.0047374875 -0.2027577 0.6579428 -0.34436738 -0.04407892 0.75520045 -0.10598785
-0.0037512174 0.23639122 -0.21834402 -0.008602986 -0.09990911 0.12784536 0.06320798 0.024691133
-0.23956047 -0.00525957 -0.14618465 -0.1794165 0.31352976 0.17231768 -0.36953333 0.1652322
-0.5665137 -0.062915154 0.19825858 -0.19790497 -0.31012654 0.21137716 0.04986228 -0.53120965
0.06662031 0.17003883 0.20987907 -0.44589043 -0.00011611734 -0.097870156 -0.22196564 0.3315986
-0.08953452 -0.289846 -0.4762977 0.010574909 0.15462199 0.0026739307 -0.14288023 -0.0990679
0.2719588 -0.11481514 -0.23196529 0.4009303 -0.39831737 -0.3294383 0.06606287 0.045026388
-0.47620705 -0.12619168 0.15694892 0.023643695 -0.3658696 0.48569548 -0.7238796 -0.013501852
0.14279401 -0.39364436 -0.3639418 0.0950369 0.21871364 -0.33589432 -0.1687935 0.018958732
0.011091349 -0.28919107 -0.19774011 0.5529227 -0.26795307 -0.060779247 -0.10855761 0.317678
0.045315422 0.3611389 0.09264815 0.21473162 -0.13713975 0.24001983 -0.05211026 -0.0043486496
0.24653201 -0.2900346 -0.47837815 0.4745711 -0.09679766 -0.032760184 -0.1421138 0.6189842
0.043561794 0.020319993 -0.4223129 0.35806665 -0.11453548 0.5893479 -0.009897926 0.12101426
-0.23410556 0.07008865 0.08246963 -0.29922852 -0.059150156 0.48266262 0.062468927 0.19987836

classifier.1.running_var f4 [160]
00000000: 0d5f 583b c73d 903b 722b 4e3b d703 6d3b
00000010: a77e 613b eb95 403c f122 d239 33d6 1a3b
00000020: d262 ab3a 74e8 cc3b ff4d b43b 3e14 f63a
00000030: 46ae da3a 6362 0b3c f3bd 903b 8e1d 773b
00000040: c882 9f3a ff15 073b a8ed 473b 5542 ac3b
00000050: 244a 853b d8db 1d3b 99d1 243c a201 133b
00000060: 3e60 d03a 1021 e13a 1763 543b 5630 b73a
00000070: 754c 373b db37 cc3b 79c8 9d3a 5b42 c83a
00000080: b4f1 653b 97ab 003b 7d5e d63a 9c05 2e3b
00000090: 696a 193b 9110 533b a552 183c d973 bb3c
000000a0: 29df e13a 1cf4 2f3c b1a2 5d3b b3d7 703a
000000b0: 2675 b23c 8687 b53b df5e 4c3b 9067 683b
000000c0: 79c9 673b 7334 373b bb8f 9f3b 87f4 893b
000000d0: 7512 bc3a 738e a33b 2db2 823b 8d1c 533c
000000e0: 152e 003b 84bb fd3a 2295 093b 3af3 3a3b
000000f0: f97b 213b 1905 823b 8bb3 b33b 38ac d13b
00000100: 42f0 923b 1e52 443b 934a a83b cc8c cf3a
00000110: 02a0 213b ed32 1e3b 75fe c73a 017e 413c
00000120: 47c6 b83a ec74 2f3b eb0d a83b f29b 6d3b
00000130: 0625 093c e328 3f3a a16c 153b a0fe dc3b
00000140: 4240 993b 5a5b 893b 934c dc3a d0a4 013b
00000150: 584d 013b cc21 5f3b 3f1e 3e3b 94ce a43b
00000160: 7869 173a 6eed 343b 9485 443c 27fa f63a
00000170: deba a33b 1054 9a3b e396 a53b 1f6e 223c
00000180: 9997 363b fd7d ff3a 5e10 213b 5e39 363b
00000190: 1d90 523b fd47 8b3b ff44 3a3b 848c 863b
000001a0: 05fc a33c f6cb 0a3b f936 1d3c 4a14 713b
000001b0: deda e13b 5fd0 fa3a dde7 7a3a b61b 973a
000001c0: 37d5 be3a 4e03 4a3c d173 333b 300e ee3b
000001d0: ddee 9f3a 585f 1c3c 2193 803b 81b4 0c3b
000001e0: 33a7 553b b5fa bb3b 5355 e33b 373d 453b
000001f0: 3eab db3b 9ab0 263b 0c4c 043b a33e 0c3b
00000200: 2af3 ca3b 3360 973a 716b 053c 2418 fa3a
00000210: e84d de3a ef03 bf3a a730 743b 14f1 453b
00000220: d084 b83b df67 a93b 1499 293b 2d70 493c
00000230: 64bc 873b 9f95 8b3b 2cdc e73b 6e59 8c3a
00000240: a80b 0e3b e095 943b 8157 073b c263 413b
00000250: 102c 003b d5fa 1c3c 624b a53b eb20 603c
00000260: f2c5 573b 1d7f cb3b 6660 0a3c cd5e 303b
00000270: 3730 2e3c caa6 ae3b 83a0 d93b c2cf 523c
0.003301564 0.0044018957 0.0031459 0.0036165619 0.0034407766 0.011754493 0.00040080355 0.0023626208
0.0013075715 0.0062532965 0.005502462 0.0018774343 0.0016684018 0.008507344 0.004417175 0.0037706825
0.0012169713 0.0020612476 0.0030506644 0.005256931 0.004067676 0.0024087336 0.010059738 0.0022431393
0.0015897823 0.0017175991 0.0032407695 0.0013976197 0.0027969156 0.0062322444 0.0012037895 0.0015278565
0.0035086693 0.0019633526 0.0016355064 0.0026553636 0.0023409373 0.003220592 0.009297048 0.022882389
0.0017232645 0.010739353 0.0033818895 0.0009187415 0.021784376 0.0055398373 0.0031184477 0.0035462119
0.003536789 0.0027954846 0.004869429 0.004210058 0.0014348762 0.0049913465 0.0039885254 0.012885225
0.0019558717 0.0019358252 0.002099343 0.0028526322 0.0024640544 0.003967893 0.0054840497 0.006398704
0.0044842074 0.0029956172 0.005135843 0.0015834807 0.0024662022 0.002413924 0.0015258329 0.011809827
0.0014097177 0.0026772572 0.0051286123 0.003625628 0.0083706435 0.00072921644 0.0022800344 0.006744221
0.0046768496 0.004191798 0.0016807489 0.0019782074 0.0019729938 0.0034047244 0.0029009727 0.005029509
0.0005775909 0.002760734 0.011994738 0.0018842862 0.0049966415 0.004709728 0.0050533875 0.00991395
0.0027861355 0.0019492503 0.0024576406 0.002780519 0.0032129355 0.004250525 0.0028422473 0.0041061062
0.020017633 0.00211787 0.009595626 0.0036785775 0.006892546 0.0019135586 0.00095712935 0.0011528644
0.0014559393 0.012329889 0.0027382264 0.007264875 0.0012201924 0.009544216 0.003923789 0.0021469893
0.003260088 0.0057366737 0.0069376617 0.0030096301 0.0067037633 0.0025434853 0.002018693 0.002139964
0.006193538 0.0011549055 0.008143292 0.0019080681 0.0016960474 0.0014573316 0.0037260444 0.0030203508
0.005631067 0.005169853 0.0025878595 0.012294811 0.004142331 0.0042597796 0.007075807 0.0010707804
0.0021674428 0.004534468 0.0020651522 0.0029508923 0.0019557513 0.009581287 0.0050443867 0.013679723
0.003292438 0.0062102214 0.008445835 0.0026911974 0.0106316125 0.0053299414 0.006641449 0.012866916

classifier.4.weight f4 [90, 160]
00000000: 6151 003e ec6c 913d 06b2 3cbc 8c13 b63d
00000010: 9585 ecbc eb12 58bd 9079 7cbe 588e 663d
00000020: 87d1 e43d 194a 533d 9f98 d93d a8eb ddbb
00000030: 2132 7bbd 9c71 ccbd 6aa0 83bd 5084 7e3c
00000040: fecc a33c 36d2 a13d 0f77 333c 7024 0fbe
00000050: 6a23 d5bc 4b12 853d e5ff 4f3d c6ec 2b3e
00000060: 0e11 863d 3bc6 3abe 32ae febe 084f ebbd
00000070: 0273 073e 37e0 79bd ed33 25be 0e34 263e
00000080: 4dac 45be 8940 8d3d 0c57 b9bd 3128 19be
00000090: 8219 863d ab36 ecbc 1b54 3f3c 02a6 8abd
000000a0: 48b8 e73d 8f3c c5bc 1005 91bd 5c3c d3ba
000000b0: b6a8 37bd 0a52 d4ba aac1 a23c 9da1 7dbd
000000c0: 7c30 34be a64e ba3c 5e54 0abd 11b2 05bd
000000d0: 2c58 c1bd 07d3 1abe 71eb 523e ccf8 913c
000000e0: 2d94 053e 13b2 e8bd f63f f73d b0f6 a73d
000000f0: bad0 73bc 4aea 503e 0a98 7a3d 2e34 903d
00000100: c972 103e 793c 21bd c5c5 47be 318f 233e
00000110: eda1 ad3d 8ba7 bdbd 3694 af3c d6ba f93a
00000120: c12c ef3d 71a2 e43d d7fe c3bd 4ce2 13bd
00000130: e6b7 75bd 6c02 e4bd aafc 59be e9be d5bb
00000140: 7ef7 803b 0f69 a13d eeef 263e 2612 9f3d
00000150: 7e47 70bd 5743 2a3e cfe2 643e bf74 443e
00000160: 67fd 153e fcee 253d ec9c 5ebc 6220 073d
00000170: 57ba 96bc 174e ffbc 516d f6bc bf07 2d3d
00000180: 598c c3bc ab7e adbe fdcc 37bd 168e 0cbe
00000190: ef0f 4abd 609d 083e 94e2 05bd edbd 063d
000001a0: 7cda c1bd 1f50 00be d0f2 183e c328 d4bd
000001b0: 8e7d e23c 54c1 04bd d4c9 833c a93b 6bbd
000001c0: 68dd b6bd ad05 b7bc 0061 b2bd 6372 08bd
000001d0: f0f8 93be 4aef 00be d390 05bd dbba 7cbb
000001e0: 2eff 2c3e 7790 343d a78a 14be 54b8 423d
000001f0: 356d 1a3e b196 173d 7d12 50be 3519 60bc
00000200: 62b6 6cbc 9b7e b13d 3a53 11be 19dd 453e
00000210: 9bc1 5e3e 3fde 423e 62c4 d7bd e967 e8be
00000220: 9acd 0fbe f4b7 a23d 582c 883d 9e03 f63c
00000230: 97d1 86bd e8f1 763c 67c0 debc 126e d93d
00000240: e975 45bd c8fc 8ebd 3167 37be 8706 213e
00000250: d1d1 ac3b 0c98 713d b02a ac3d 0d4b 93bc
00000260: aaea 16be 0345 e33c a0b4 20bd bfcb 6abc
00000270: ceeb 29be 8a2b 763b 1032 99bc 74b3 8e3d
00000280: 58d5 16be 6031 2bbe be6b 36be 7e24 e23d
00000290: bd44 8ebc d9e6 013e e091 253c c135 87be
000002a0: 9773 d53d ed75 613d f94a fdbd d934 1ebd
000002b0: 03a9 253d eaf0 b73d b0b5 163e 8a0a eebd
000002c0: ee6c f0bd 0e34 60bc 7b0e c7bc 38b2 57be
000002d0: 6167 403e 917c a83c fc36 66bd 7ab9 6a3e
000002e0: cdea 153e 69f4 5b3e 6f51 733d 8583 2abe
000002f0: 5929 e0bd a3e6 4c3e a756 2bbc b0e7 83bd
00000300: 879f 6c3d 1a22 2d3e d39b bbbd 5b29 b63d
00000310: 66ce cebc 6e72 2ebd d635 a83e 70b2 2c3d
00000320: 4d3f 56bb 7d9a c53c e2fc 48bc 1b40 76bd
00000330: c0bc 243e 6e73 013e 2c6c 1ebd 7772 81bd
00000340: ef2d 68bc 147b 40bd 0630 f63d 6f0d 3bbe
00000350: 8377 d33d 24f5 4fbb 9b84 e73c 6f95 aebe
00000360: 327b a33d 2d2e dd3c d96f b93d a558 bfbd
00000370: a5ab 00bd cae1 9cbc 093e 15bd d134 0ebe
00000380: cbdd 4d3b 7bc8 25bb a9f7 63bd eed4 9ebd
00000390: 2d90 1b3e 14cd 46bd 94a3 2e3d 7523 d53d
000003a0: 1c6b bebc d29f 3a3d d79b 1b3d 66a0 96be
000003b0: cb3e 1f3d a7ee 43bd 3d18 a6bd 24bf c03d
000003c0: 29c0 103e 0f01 123e ef98 e2bd 6f49 0d3e
000003d0: 4501 543a 9d9e d7be 55ec 0f3e d3f1 9e3c
000003e0: 2ba4 893c 57bd 833d a121 07be 5150 3abe
000003f0: 03ba 9b3d e408 a83d 30e6 a33d 1e3d 123d
0.12531044 0.07100853 -0.0115170535 0.08890447 -0.02887229 -0.052752417 -0.24655747 0.056288093
0.11172777 0.051584337 0.10624813 -0.006772477 -0.061327104 -0.09982607 -0.06427081 0.015534475
0.019995209 0.07901423 0.010953679 -0.13978744 -0.026017863 0.0649763 0.05078115 0.1678954
0.06546222 -0.18239681 -0.49742275 -0.114896834 0.13227466 -0.061004844 -0.1613309 0.16230795
-0.19304009 0.06897075 -0.09049806 -0.14956738 0.06547834 -0.028834661 0.011677767 -0.06769945
0.11314446 -0.024076728 -0.07081044 -0.0016116011 -0.04483863 -0.0016198766 0.019867737 -0.061921705
-0.1759662 0.02274258 -0.033771865 -0.03264052 -0.094406456 -0.15119563 0.20597626 0.01781883
0.13044806 -0.1136209 0.120727465 0.08201349 -0.014881307 0.20401874 0.061180152 0.070412025
0.14106287 -0.03936431 -0.19509037 0.15972592 0.084781505 -0.09260472 0.021432977 0.0019052874
0.11678458 0.11163796 -0.09570091 -0.036104485 -0.059989832 -0.111332744 -0.2128779 -0.0065230024
0.0039357534 0.078813665 0.16302463 0.077671334 -0.05866193 0.1662725 0.22352146 0.1918516
0.14647447 0.040511116 -0.013587218 0.032989867 -0.0183994 -0.031165166 -0.030081423 0.042243715
-0.023870634 -0.33885702 -0.044873226 -0.13726076 -0.0493316 0.13341284 -0.032686785 0.03289597
-0.09465501 -0.12530564 0.14936376 -0.10359337 0.02764776 -0.032410935 0.01608745 -0.057429943
-0.08928949 -0.022341574 -0.087099075 -0.033312213 -0.28900862 -0.12591282 -0.03260882 -0.0038563523
0.16894218 0.044083085 -0.14506017 0.04753907 0.15080722 0.037008945 -0.20319553 -0.013677885
-0.01444778 0.08666726 -0.14191905 0.19322623 0.21753542 0.19030093 -0.10535504 -0.45391777
-0.14043275 0.079452425 0.06649083 0.030031022 -0.06582945 0.015072323 -0.027191354 0.10616697
-0.04820815 -0.06981808 -0.17910458 0.15725146 0.0052740355 0.058982894 0.084065795 -0.017980123
-0.14737955 0.027742868 -0.039234757 -0.014330803 -0.16593859 0.0037562572 -0.01870063 0.06967822
-0.14729822 -0.16718054 -0.17814538 0.110421166 -0.017366761 0.12685718 0.01010558 -0.26408198
0.10422438 0.055044103 -0.123678155 -0.03862462 0.040444385 0.089814976 0.14717746 -0.11623104
-0.11739527 -0.013684286 -0.024298897 -0.21064079 0.18789436 0.02056721 -0.05620478 0.22922316
0.1464035 0.21479954 0.059403833 -0.16651733 -0.109453864 0.20009856 -0.010457671 -0.06440675
0.057769325 0.1690754 -0.091605805 0.08894607 -0.025244903 -0.042589597 0.32853574 0.04216236
-0.0032691539 0.024121517 -0.012267323 -0.06011973 0.16087627 0.12641689 -0.03867738 -0.063206606
-0.014171108 -0.046992376 0.120208785 -0.18266843 0.103255294 -0.0031731809 0.028261473 -0.34098384
0.07982482 0.026999557 0.09054536 -0.093430795 -0.031413693 -0.019150633 -0.036436114 -0.13887335
0.0031412716 -0.0025296498 -0.05565611 -0.07755457 0.15191717 -0.04853542 0.04263647 0.104071535
-0.023244433 0.045562573 0.037990417 -0.2941925 0.038878243 -0.04783502 -0.08110092 0.09411457
0.14135803 0.14258216 -0.11064326 0.13797544 0.00080873474 -0.421132 0.14054997 0.01940242
0.016801914 0.06432598 -0.13196422 -0.18194701 0.07603838 0.08204821 0.08002889 0.035702817

classifier.4.bias f4 [90]
00000000: c346 afbb 8c0d a23d 8d72 4a3d 93d1 583d
00000010: 2378 a43d 5dc3 5cbd 65d5 f2bd 675b 8fbd
00000020: 1656 ecbc 5b76 d1bd e2d6 dcbd e703 41bd
00000030: 8ed1 da3d 34ac 73be e4a0 e03d 90aa b03d
00000040: d856 5d3d 2b58 003e fa0d 9d3d c214 25bd
00000050: 2d1a 89bd 416d cd3d 431a 5c3d 567a 72bd
00000060: 82bc 96bd 0d42 e23d a1e4 c4bd 91d3 bb3c
00000070: 63df 1b3c 6773 bc3a 3255 7ebd bbf7 5dbc
00000080: cd54 bd3c eee5 223d ef6e 1fbd 20c7 0f3e
00000090: 60f3 fc3c ba0b a63d 74bb 673d cc22 d83d
000000a0: 7b56 30bd c31d 6bbd 76f7 afbd a833 dcbd
000000b0: 1f68 48bd f395 e63c 458b d4bc d829 7ebd
000000c0: 0313 d63c a00b bf3c b758 443d cc06 6bbd
000000d0: 17d3 57bd abf9 4fbd 511c b0bd 8a6a d03d
000000e0: f33d 8e3d 2798 9c3c 56b4 fcbd 5b01 f2bb
000000f0: c3a8 ccbd 7801 53bd a0f5 3ebc 1938 3b3d
00000100: 15ce e0bd 95fb 37bd f597 cdbd c33a e43d
00000110: 22a9 b1bb de37 99bc 7b9f 40bd 2b36 893c
00000120: 5e29 4d3d ecc5 f43d a50c a43d 27ee 22bb
00000130: bf03 1d3c 23f5 953c 281e 81bd 7ed2 a63d
00000140: c37d 02bd 8836 183c 6a32 c6bd 38ec 15be
00000150: 8aaf 2fbd 30bf 04bd f39f a2bd cd8f 663d
00000160: 0a5d f83c 4d00 11bd
-0.0053490116 0.0791274 0.04942565 0.05293424 0.08030727 -0.05389725 -0.11857108 -0.069998555
-0.028849643 -0.10227653 -0.10783173 -0.047122862 0.10684501 -0.23796159 0.109681875 0.08626282
0.0540379 0.12533633 0.076686814 -0.040303 -0.06694446 0.10030604 0.053735983 -0.0591987
-0.07360174 0.110477544 -0.0961392 0.022928031 0.009513709 0.0014377654 -0.062092967 -0.013547833
0.023111725 0.03977006 -0.038924154 0.14040804 0.030877769 0.081077054 0.056575254 0.10553512
-0.043051224 -0.05740143 -0.08592121 -0.1075204 -0.048927423 0.028147673 -0.025945315 -0.062051624
0.026132112 0.023320973 0.047936168 -0.05737953 -0.052691545 -0.05077521 -0.08599151 0.10176571
0.069454096 0.01911552 -0.12339084 -0.0073854155 -0.09993126 -0.051515073 -0.011655241 0.045707796
-0.10976807 -0.04491766 -0.10038749 0.111440204 -0.0054217735 -0.018703397 -0.047027092 0.016749462
0.05008828 0.11951813 0.08010224 -0.0024861188 0.009583413 0.018305367 -0.0630458 0.08145617
-0.031858217 0.009290345 -0.096775845 -0.14640892 -0.042892016 -0.032408893 -0.07940664 0.056289483
0.030317802 -0.035400677

classifier.5.weight f4 [90]
00000000: 8f23 603f 0ca1 683f 3904 6d3f 5574 5b3f
00000010: 103a 913f 433a 7d3f 0fb1 823f 604d 623f
00000020: 0cbb 753f 32c0 6f3f ece9 863f fa3e 523f
00000030: c9b6 7c3f 8f3a 803f 5a8c 903f 97f6 823f
00000040: 6bea 683f 7353 783f 8d58 8e3f 0e3f 503f
00000050: 2c1a 9c3f ef92 723f db29 663f ec64 823f
00000060: 7334 8b3f 9f27 5c3f 48b4 763f 065f 6d3f
00000070: 75c6 743f 29a3 803f 6480 683f c8cc 8c3f
00000080: 3bb8 6a3f 604d 673f 5c63 933f f99b 913f
00000090: 6fa4 533f c002 833f 0b9a 633f d8e3 723f
000000a0: 5c43 743f f311 6c3f a0d3 923f 1923 6b3f
000000b0: 1587 823f da97 713f f3ac 723f 642b 6d3f
000000c0: a585 7b3f 4c0d 773f 9df0 613f 5ba9 8e3f
000000d0: 14ce 683f abed 663f 9b9b 693f 3c65 593f
000000e0: c517 553f b02d 7f3f a2c5 853f 9b38 6a3f
000000f0: e8f4 843f 634f 7b3f c1c0 813f 472e 343f
00000100: e27d 893f acb4 8b3f 36fa 883f 7805 473f
00000110: b734 843f e899 783f f44c 463f 3b4a 743f
00000120: 3b54 5c3f 772a 593f 25fb 693f bd08 723f
00000130: b7bd 683f 12db 883f c758 783f 6837 563f
00000140: 6dac 853f 8abe 653f c777 893f b669 6a3f
00000150: 7626 6c3f 1b5d 3f3f 1a31 753f 284e 813f
00000160: 70ce 6f3f d7be 733f
0.8755426 0.9087074 0.9258457 0.85724384 1.1345844 0.98917025 1.0210284 0.88399315
0.95988536 0.9365264 1.0540137 0.82127345 0.9871641 1.0017871 1.1292832 1.0231503
0.90982693 0.97002333 1.1120774 0.81346214 1.2195487 0.9475545 0.89907616 1.0187049
1.0875381 0.85997957 0.9636884 0.9272312 0.9561532 1.0049793 0.9082091 1.0999994
0.91687363 0.9035244 1.1514697 1.1375724 0.8267278 1.0235214 0.88906926 0.9487891
0.9541528 0.9221489 1.1470833 0.9185043 1.0197474 0.9437233 0.9479515 0.92644334
0.982508 0.96504664 0.8825777 1.1145433 0.9093945 0.902064 0.9125306 0.84920096
0.83239394 0.9967909 1.0450938 0.91492623 1.038724 0.9816801 1.0136949 0.70383114
1.0741541 1.0914512 1.0701358 0.7774272 1.0328587 0.9710984 0.7746117 0.95425767
0.86066025 0.8483042 0.9139884 0.94544584 0.9091448 1.0691855 0.97010463 0.83678293
1.0443245 0.89743865 1.0739678 0.9156755 0.92246187 0.7475144 0.9577805 1.0101976
0.93674374 0.95213073

classifier.5.bias f4 [90]
00000000: d40d 92be 2f19 93bd e122 b6be 0440 04be
00000010: d297 93be cc1e 16bd 6028 a0be 5350 d8bd
00000020: 2f58 b8be d07d d5be 5019 f0be 5212 6cbe
00000030: ff35 3bbe 75e1 a2be 36d1 5abe 838d 56be
00000040: 65cb 38be 8b18 87bd ea87 c0be c8ac 69be
00000050: 6851 0bbf deee b03c aa2e e0bd 97fa 9bbe
00000060: e92e 5cbe 6ed4 71be c689 8dbe 2f7a c7bd
00000070: bb60 aebe f5b3 45be e471 c5bd 7a57 4abe
00000080: bef9 e1bd 0b4e 76be 0d22 f8be 5cca 73be
00000090: 8a13 90be 80f1 57be 85cb 91be 0079 16be
000000a0: 0f36 a9be 5ba1 66be e6ca 3ebe d0f8 82bd
000000b0: 01c2 89bd 4c76 bdbe 0867 68be 4572 b4be
000000c0: c50f 42be 7a07 aebe b0cf 06be fe17 36be
000000d0: a607 d1be 1033 b6be 116f 94be b104 3fbe
000000e0: 0d67 6fbe 37c2 a3be 1544 1fbf 503a 98be
000000f0: 23ee 0abe c911 b5be 434d 03be 662d 90be
00000100: ba61 aebe 04be 9dbe 956c 8abe bc26 80be
00000110: 2daf eabe 0e52 f1be bee6 6cbe 45b7 25be
00000120: 2064 8ebe 5c3e 17be ad8a 5bbe 20b1 84be
00000130: d550 16be abe5 82bd dc1c 37be a947 ddbd
00000140: c686 76be f2f8 043d d914 c1bd 57c5 5bbe
00000150: c629 b4be 8a61 9bbe f30c 17be e0bf e0bd
00000160: 5a6d e9be 72a3 36be
-0.28526175 -0.07182538 -0.35573485 -0.12915045 -0.28826767 -0.036650464 -0.31280804 -0.10562196
-0.3600478 -0.4169755 -0.46894312 -0.23053864 -0.18282317 -0.31812635 -0.2136887 -0.2095242
-0.18046339 -0.06596478 -0.37603694 -0.22819817 -0.5442109 0.021598276 -0.109464005 -0.30464622
-0.2150227 -0.23616192 -0.27644175 -0.097401015 -0.34058174 -0.1930693 -0.096408635 -0.19759932
-0.11033963 -0.24053209 -0.4846348 -0.23807663 -0.28139907 -0.21088219 -0.28475586 -0.14694595
-0.33049056 -0.2252249 -0.18632087 -0.063951135 -0.067264564 -0.37004316 -0.22695553 -0.3524343
-0.18951328 -0.3399008 -0.13165164 -0.1778259 -0.40826148 -0.35585833 -0.28990987 -0.18654133
-0.23379155 -0.31984112 -0.6221326 -0.2973199 -0.13567404 -0.35365131 -0.12822442 -0.28159636
-0.34058934 -0.30809033 -0.27035967 -0.25029552 -0.45836774 -0.47132915 -0.23134896 -0.16183193
-0.27810764 -0.14769882 -0.2143962 -0.25916386 -0.14679272 -0.06391462 -0.17882103 -0.10804684
-0.2407485 0.032463975 -0.094278045 -0.21461998 -0.3518812 -0.30347854 -0.14751033 -0.10974097
-0.4559124 -0.17835787

classifier.5.running_mean f4 [90]
00000000: 4997 cabe b057 06bf 9e67 78be 0c33 7cbf
00000010: 2df4 c9be 2996 eabe fcdc 7cbf e40e c9bd
00000020: e9c1 2fbe fba4 b43e 03ad 54bf beef 6ebf
00000030: 7f6d c63e 86d0 aebf 7a89 c7bf fde4 b53e
00000040: fc93 a4be 505d 7dbf 12e0 8abf bd05 ffbe
00000050: be25 28bf 7f73 69bf 912b d9bf f38d abbf
00000060: 31c8 e8bf 5f8f 3ebf bfbb 973e a500 9bbf
00000070: 7e45 55bf 3038 c9be 5cee 8ebd 5de5 efbf
00000080: 4ed5 a3bf 3203 8f3d 2599 70be 00d9 e0bc
00000090: 4179 6bbf 093c a6be 01b0 b7be 1bd1 90be
000000a0: a440 4bbf 2e1b a13d 8053 33bf 127c 56bf
000000b0: 20a6 0d3e 6375 78bf 13e4 b53e 46d8 a03e
000000c0: 0649 22bf 4f75 33bf 29a1 19bd 15d4 e8bc
000000d0: 9a1f 8cbf 0872 303e 6c89 83bf 1c83 d5be
000000e0: 5589 63bf 87e9 953d 4931 69bf d72c 063d
000000f0: 17e2 61bf ca01 11bf bc8e ebbe a50f 5fbf
00000100: 4695 9cbf 2382 35bf 9123 35bf f4da 00bf
00000110: 59e3 edbe d146 0c3f 6bf9 0a3f 8d1e 05be
00000120: 080a bcbe 44d2 0e3e c06f 91bf e120 adbb
00000130: 9e9d 27bf 96d0 95bf c4df 83bf 3beb 2ebf
00000140: f068 40be a3b8 64bf 8e5f 6bbf d4b2 033f
00000150: cce7 eebd 06d5 01bf 6e70 3abf 5d2c 0c3d
00000160: df40 473f bf90 16bf
-0.39568546 -0.5247755 -0.24258277 -0.9851539 -0.39444104 -0.45817688 -0.98774695 -0.09817293
-0.17163815 0.3528212 -0.83076495 -0.9333457 0.38755414 -1.3657386 -1.558883 0.35526267
-0.32144153 -0.9897051 -1.0849631 -0.49809065 -0.6568259 -0.9119186 -1.696642 -1.3402694
-1.8186094 -0.74437517 0.29635426 -1.2109572 -0.8330916 -0.3930068 -0.06979057 -1.8741871
-1.279947 0.06983031 -0.2349592 -0.027447224 -0.91981894 -0.32467678 -0.35876468 -0.28284535
-0.7939551 0.07866512 -0.70049286 -0.83783066 0.13832903 -0.9705412 0.3552557 0.31415004
-0.63392675 -0.70100874 -0.03750721 -0.028421441 -1.0947144 0.17231 -1.0276313 -0.4170159
-0.8888143 0.073199324 -0.9109083 0.032757606 -0.8823561 -0.56643355 -0.46007335 -0.87133247
-1.2233055 -0.709017 -0.70757395 -0.50334096 -0.46462515 0.5479556 0.5428683 -0.12999935
-0.36726403 0.13947397 -1.1362228 -0.0052834605 -0.6547488 -1.170428 -1.0302663 -0.68327683
-0.1879003 -0.89344233 -0.9194268 0.51444745 -0.116653055 -0.5071567 -0.72827804 0.034221996
0.7783336 -0.58814615

classifier.5.running_var f4 [90]
00000000: 3a94 2a3f 5214 c33f f8a5 4740 c805 0a40
00000010: e7b8 b03f caf1 ce3f fd16 9d3f 566a 0b40
00000020: d23b 5b3f 988c 6f3f cee8 673f 2b62 443f
00000030: 9f73 643f f8c6 a23f 75d6 863f d7f8 af3f
00000040: d26b fd3f b471 933f b2df 833f 0027 e03f
00000050: cf36 223f 1c94 523f 8327 683f 5776 523f
00000060: 9cbe b23f c097 373f 22fe 9a3f 56f3 a93f
00000070: 7334 353f 5869 d43f 307e c73f 4f97 be3f
00000080: e6f1 553f f0c9 b43f 063a 2c3f 8f8b 543f
00000090: 7c47 9f3f 0e4a 8f3f a46d 453f 4199 3b3f
000000a0: e8de a83f 4569 e13f c4db 7e3f ab34 0240
000000b0: 1c03 f23f 3740 473f 891e 5f3f d701 6b3f
000000c0: e378 9a3f 271b 9b3f 07fa e63f b5d6 d43f
000000d0: 8c6d 053f 3a50 603f 6a2c 623f 9d02 c73f
000000e0: d4f3 6c3f 6aad 143f fff8 263f 36da 8a3f
000000f0: 90e5 e53f f246 953f f75e 873f 9cfa 1d3f
00000100: fa6b 3e3f 0cea 433f 2f86 6a3f e8b1 173f
00000110: 87a3 2a3f 04b6 a73f 4c62 663f 73f8 e93f
00000120: 69cc ab3f fcb8 a63f 0463 7c3f 4484 b83f
00000130: 5d34 6c3f 8c26 a23f fcfb 433f 893d 8b3f
00000140: b038 7d3f c1c7 9d3f 87a8 b53f aaef 9b3f
00000150: c534 603f d2b2 843f 3dbc 8e3f 6dd6 be3f
00000160: e6a3 853f 31a6 bb3f
0.66632426 1.5240576 3.119505 2.1566029 1.3806428 1.6167538 1.227264 2.1783652
0.85638154 0.93573904 0.90589607 0.7671229 0.89238924 1.271697 1.0534197 1.3747815
1.9798529 1.1519074 1.0302641 1.7511902 0.6336488 0.82257247 0.9068529 0.8221182
1.3964419 0.7171593 1.2108805 1.3277385 0.70783156 1.6594648 1.5585384 1.4889926
0.8357223 1.4124126 0.67276037 0.8302545 1.244369 1.1194475 0.77120423 0.7328072
1.3193026 1.7610251 0.99554086 2.0344646 1.8907199 0.7783236 0.8715597 0.9179968
1.2068142 1.2117661 1.8045052 1.6628023 0.5212028 0.87622416 0.8834902 1.5547673
0.9255955 0.5807711 0.6522369 1.0847843 1.7960682 1.1662276 1.0575856 0.61710525
0.7438351 0.76529 0.91611 0.5925584 0.6665577 1.3102422 0.8999374 1.8278946
1.3421756 1.3025203 0.98588586 1.4415364 0.922674 1.2668014 0.7655637 1.0878154
0.98914623 1.2326585 1.4192055 1.2182515 0.8758052 1.0367072 1.1151196 1.4909188
1.0440643 1.4660093

classifier.8.weight f4 [160, 90]
00000000: ef87 26bc 759a 0b3d cbf9 483c 820c c9bd
00000010: a967 b7bc 8eed 1cbe cdb4 4c3d 570c 54bd
00000020: 28d5 5abd 9fbc 38be 2477 3c3d f816 7f3d
00000030: 8fb2 85bd 55d2 b1ba c690 963e 2d1d 283e
00000040: 9426 40bd b994 913c 0d30 81bc 7e42 2cbe
00000050: e714 8b3c d940 133e 78de 2dbc af8e 2e3e
00000060: e7e3 bbbd f75a c43b 9e2b 86bd c6ed 3fbe
00000070: f7c9 ab3d 5577 25bd 8baf c3bb 99eb 943d
00000080: 91e5 3b3c 5798 61be c547 92bd 947f b8be
00000090: 0946 c8bd d20c 86bd d964 113c 9c4c 143e
000000a0: 10f5 373d 05d4 29bc 4228 53bc b26f eb3c
000000b0: 52cc 88bd a373 4a3d 515e 01bf f423 87bc
000000c0: e1c8 87bd 4492 45bd 81e6 40be 8d18 febd
000000d0: 900e 7f3e a3a8 8ebe d998 e9bc ab6b 713d
000000e0: f9ee d9bc 4c72 0bbe f7a3 b1bd 2f98 b03c
000000f0: 258c e93d 95c1 4ebd 7bc5 213e b2fa 35be
00000100: b7e7 333e ce4a 6d3c 6cf1 a93d d59a df3b
00000110: 49a2 983d 5bb2 93bd 37ca 22be e86c 9cbb
00000120: 663c 9a3d 1dba d63d dedc 6a3d 586a 00be
00000130: dbe9 763e 902a c8bc 823a 2cbe 83b2 ebbd
00000140: 82e4 90bc 8ba6 d73d 25c8 a13d 1f2a f43c
00000150: ab96 8bbd aea4 67be f308 3bbd 61da c7bd
00000160: cfa8 5fbe f9c3 893c c091 1abd adb8 92bd
00000170: c273 033e 72ba a53d 84c7 95bd cb45 943c
00000180: 3bfb 21be d87f 79bd 6eda 9d3d f9b3 a7bc
00000190: bda8 81be ebc7 d93d 0014 81be 9967 c33d
000001a0: c531 07be 97c5 cabd 4818 b7bd 7454 103e
000001b0: d0fa a03c a853 573d f93b f9bd 1812 dd3b
000001c0: 45a2 e63e 0ea4 533d cac0 22be 36bb 133e
000001d0: e58a dd3d d216 74bc 5cd2 c93d d826 253e
000001e0: 6dd6 023e 653b b2bd f238 773d 791f ccbc
000001f0: c2c2 7cbe db8f 9bbd cb47 97bd 5191 173d
00000200: db88 2b3d ccb1 1cbd 3540 3fbb 236a 863d
00000210: 3be2 9fbe a0d9 bb3d ffc8 14bc 8c73 f1bd
00000220: e54f d7bd fe9c efbb 1833 c73d a096 2d3d
00000230: b9aa c7bd 1a56 49be 465c 06bd 93da 47be
00000240: b830 683d df8e 8cbd 14c9 a03d d97a e1bd
00000250: 5cd2 d53c 601b fabd cb02 ab3c 5921 b7bd
00000260: 2205 41be f671 353d 277e e6bc 520f aabd
00000270: b054 8c3d 018a 5b3e 8451 ab3d 4c7e fcbc
00000280: 2e97 2bbd cc46 cebd 81a8 44bd d8a6 77bd
00000290: cfcd c2bd dc5d d3bd 2168 1cbe bdcd ff3d
000002a0: fb51 2abd cf1d 86bd 523f 1ebe fcce 8f3e
000002b0: 3d5b 1d3e 933d 2ebd c4a8 5c3e cb3f 063d
000002c0: 2cbd 363e 3540 b7bd 3f10 b7bd 4b9e 2f3d
000002d0: d225 9f3b 4a57 183d b112 343d 76cd 09be
000002e0: 788b 003b 8d53 cabd 9773 efbc 16f4 c33d
000002f0: 0487 08be c370 f03b 9a58 0c3b 3324 9f3d
00000300: cc4d 21bd 18b6 b2bd 7609 0abe eca8 c53d
00000310: 8198 86be 12a7 163e 1e82 02bd 0b4a 65be
00000320: 44b5 933d b869 133e 8625 3bbd eed4 1a3e
00000330: c524 aabd 9aad f5bb 8aee 2dbd ed76 2bbf
00000340: 9c31 513c e858 3e3d 95d3 e2bb 9404 8fbd
00000350: 734f 19bd f37d 8abe d338 7cbe 2800 30be
00000360: 03e0 c23d 738b a63d 4f1e 5ebe 2837 aa3d
00000370: 22f6 023d 3415 89bc a585 de3d 0934 5abd
00000380: 22dc 063d 00f7 5cbd b30c 67be 5863 e23d
00000390: 7dc7 0fbd 1172 2bbc 185a 14bf ee70 eb3d
000003a0: dbfb 9a3d 10e7 07be fec6 37be 5cfb 2abe
000003b0: 69d9 cbbd 73d1 c6bc 1050 283c 9483 9bbd
000003c0: e1ea e73d cf13 d33d 53cb a2bd 0994 a73c
000003d0: 4444 1cbc f4f9 b83c 6a71 b53b 8967 093c
000003e0: e05d 42bd 1baf f1be 29e7 81be 6515 c43d
000003f0: f3ed a7bd 70e1 21be 2106 c83c 1f9b 0bbd
-0.010164245 0.03408285 0.012266587 -0.09816839 -0.022388296 -0.15324995 0.049977113 -0.05176958
-0.053425938 -0.18040703 0.04601206 0.062277764 -0.06528198 -0.0013566712 0.29407328 0.1641738
-0.04691179 0.017771112 -0.015769983 -0.1682224 0.01697774 0.14380206 -0.010612123 0.17046617
-0.09174328 0.005992289 -0.06551288 -0.18743047 0.08388131 -0.040397007 -0.005971854 0.07271499
0.011468307 -0.2203077 -0.07142595 -0.36034834 -0.09778983 -0.06545414 0.008874142 0.14482349
0.044911444 -0.010365491 -0.012888016 0.028739784 -0.06679596 0.049426686 -0.5053454 -0.016496636
-0.066301115 -0.048235193 -0.1883793 -0.124070264 0.24907899 -0.27863035 -0.028515266 0.05894057
-0.026603209 -0.1361782 -0.08673852 0.021556942 0.114036836 -0.050477583 0.15797989 -0.17771414
0.17568861 0.014483167 0.08298001 0.0068238773 0.074528284 -0.07211753 -0.15897451 -0.004773725
0.07531051 0.10484717 0.05733954 -0.12540567 0.24112646 -0.024434358 -0.16819194 -0.11508658
-0.017687086 0.105298124 0.07899503 0.029805241 -0.06815847 -0.22621414 -0.04566283 -0.09758449
-0.21841739 0.01681708 -0.037736654 -0.0716413 0.12837127 0.08092202 -0.07313445 0.018099686
-0.15818493 -0.060912937 0.07707678 -0.02047156 -0.2532405 0.106338345 -0.2521057 0.09541244
-0.1320258 -0.099009685 -0.08940178 0.14094716 0.019650847 0.052570015 -0.12169642 0.0067465417
0.45045677 0.051670127 -0.15893856 0.14426884 0.10817508 -0.014898019 0.09854576 0.16128099
0.1277711 -0.08702735 0.06035704 -0.024917351 -0.24683669 -0.07595798 -0.0738674 0.03700382
0.041878562 -0.038255498 -0.0029182557 0.06563213 -0.31227288 0.09172368 -0.009081124 -0.11789617
-0.105132855 -0.007312416 0.09726542 0.042379975 -0.0974936 -0.19661751 -0.032802843 -0.19516973
0.056687087 -0.06863188 0.078508526 -0.110097595 0.026101284 -0.122122526 0.020875355 -0.089419074
-0.18849614 0.044298135 -0.028136326 -0.08303703 0.0685209 0.21439363 0.08365157 -0.030821942
-0.041892223 -0.10072097 -0.04801226 -0.06046185 -0.09511911 -0.10320637 -0.15274097 0.12490413
-0.04158209 -0.06548654 -0.15453842 0.28087604 0.15366836 -0.04253919 0.21548754 0.03277568
0.17845601 -0.089477934 -0.089386456 0.04287557 0.0048568035 0.03719262 0.043963138 -0.13457283
0.001961438 -0.09879217 -0.029229922 0.0956804 -0.13332754 0.007337661 0.0021415115 0.07770576
-0.039380834 -0.08726138 -0.13480172 0.0965136 -0.26288226 0.1471217 -0.03186237 -0.22391526
0.07212308 0.14395797 -0.045690082 0.15120289 -0.083077945 -0.0074975016 -0.042463817 -0.6697834
0.012768175 0.046471506 -0.006922195 -0.06983295 -0.037429284 -0.27049217 -0.24631052 -0.1718756
0.09515383 0.081320666 -0.2169125 0.083113015 0.03197301 -0.016733743 0.108653344 -0.05327228
0.03292478 -0.053946495 -0.22563438 0.110541046 -0.035102356 -0.010464207 -0.5794997 0.11496149
0.07567569 -0.13271737 -0.17947003 -0.16697448 -0.09953577 -0.024269795 0.010272995 -0.07593456
0.113240965 0.103065126 -0.07948937 0.02045633 -0.00953776 0.022580124 0.0055372017 0.008386501
-0.047452807 -0.47203907 -0.25371674 0.09574393 -0.08199682 -0.15808654 0.024416985 -0.034083482
