ckpt/MAP_CAM/3/best_loss_BEST3.ckpt (torch, 157472 bytes, 19 tensors)

classifier.0.weight f4 [180, 36]
000000 50 39 51 be c7 c9 9b be 0a 9a 93 3d 3b 49 ef be
       -0.20432019 -0.3042738 0.07207115 -0.46735558
000010 98 b5 4b 3e 9f 0a 29 3e af 44 37 3d f8 fa 93 be
       0.19893491 0.16507958 0.044743236 -0.2890241
000020 f9 c2 84 bd 2d ab c6 3c ee bf d2 3d 75 e1 80 bd
       -0.064825006 0.024251545 0.10290514 -0.062930025
000030 ad 52 85 bd f2 c6 7b 3e 50 d4 ac bc 5f eb a0 3e
       -0.0650991 0.2458761 -0.021097332 0.31429574
000040 80 7a 86 3e 3f 3c d4 be 79 15 29 bc 03 90 5d be
       0.26265335 -0.41452214 -0.010320061 -0.21636967
000050 35 24 7c bf f1 8d 68 be fb 5a 63 be 79 bf d9 bd
       -0.9849275 -0.22710396 -0.22202675 -0.10632224
000060 58 1e 9c 3d 4a 04 12 3e ad 6e 03 be 6f bd 88 3e
       0.07622975 0.14259449 -0.12835188 0.26707026
000070 0c 71 16 3e 30 de c8 bb 00 99 de bd 6a b7 5f bc
       0.14691561 -0.0061300024 -0.10869026 -0.013654569
000080 70 ff 07 be 15 87 9f 3c 37 23 5a be e6 fa 22 3e
       -0.13281035 0.019473592 -0.21302496 0.15916023
000090 af 42 1e bd fa 05 13 be a7 06 32 3e 50 9c 22 3d
       -0.038637813 -0.14357749 0.1738535 0.039699852
0000a0 c3 30 2c 3d 96 71 d5 3b f7 8e 96 bd 06 38 a0 be
       0.04203869 0.0065137846 -0.07351487 -0.31292742
0000b0 e1 08 01 3d 18 7d a3 bd cd f2 16 be 5f 2a e0 3d
       0.03150261 -0.07982844 -0.14741059 0.10945582
0000c0 d7 79 36 3e 95 b9 31 3e e3 fd 71 3e 86 dd f1 3d
       0.17819916 0.1735595 0.23632006 0.1180983
0000d0 81 d3 97 be 40 b9 e9 3d 7e ea a1 bd 0a 47 19 3e
       -0.29653552 0.11412287 -0.07906054 0.14968506
0000e0 66 3f 29 bf f4 0f 05 bf 4b 5f 08 3d 94 32 3b bd
       -0.66112363 -0.5197747 0.033294003 -0.045702532
0000f0 c2 c2 15 3e 5c e7 9c 3e 03 8c 09 3e d4 00 4d be
       0.14625075 0.30645263 0.13432316 -0.20019847
000100 3a ff a3 3d f1 04 a6 3d 93 b8 c7 3e f7 2b e0 3d
       0.08007665 0.08106411 0.39008006 0.10945886
000110 4d 88 89 be 06 a3 42 3e 04 26 f3 bd 47 e6 e0 3b
       -0.26861802 0.19007501 -0.11872485 0.0068633887
000120 d3 51 97 bd 2b 58 18 be e2 ca bb bd ec 4e 75 3e
       -0.073886536 -0.14877383 -0.09169556 0.23955888
000130 0d 14 c2 be a6 93 02 3e 5a 48 bd be e3 70 2d 3e
       -0.37905923 0.12751636 -0.36969262 0.16937594
000140 8e ad e2 bd 83 cf 29 3d 3b fb ce bd aa 89 71 3d
       -0.11068259 0.041457664 -0.10106512 0.058969177
000150 89 95 89 3d b8 3e f6 bd 9f e7 a6 3d bf a8 1c be
       0.06717975 -0.120236814 0.08149647 -0.15298747
000160 b1 1e 34 3f 96 76 3a 3e a5 b6 00 be 76 38 a1 3d
       0.7035933 0.182093 -0.12569673 0.07872097
000170 d3 74 ac 3e 1d 4f b2 bd d0 04 99 3d d1 9c 5b bd
       0.3368288 -0.08706496 0.07471621 -0.05361635
000180 3e ff cb bd 3e fe c9 3e 05 c7 a1 3e d9 98 bb 3d
       -0.09960793 0.39451784 0.31597152 0.09160013
000190 8e 26 13 3e 99 7b 4c 3e 51 cd 86 be 03 9f a8 3d
       0.14370176 0.19969024 -0.2632852 0.08233454
0001a0 04 aa 75 be 9e fc 3e 3e 91 f9 83 be 25 de ac 3b
       -0.23990637 0.18651053 -0.25776342 0.005275505
0001b0 ce 1e 3d 3c b0 e4 e5 bd 88 6f 87 3d 6d 6c 37 3e
       0.011542989 -0.11225259 0.0661307 0.17912455
0001c0 c8 a7 55 3e ad aa 10 be 47 b6 c6 3d 4c 1a 8a 3d
       0.20864785 -0.14127608 0.097027354 0.06743297
0001d0 35 dd 25 be d5 cc 14 bd ca 49 f8 bd 4c c2 8d 3c
       -0.16197665 -0.036328156 -0.12123449 0.017304562
0001e0 49 61 dc bd 1b 40 02 be f1 13 17 be cc df 4b 3e
       -0.10760743 -0.12719767 -0.14753701 0.1990959
0001f0 3d 00 25 3d fe ab 94 bc 67 b2 38 be 64 0f b0 bf
       0.04028343 -0.018148419 -0.18036805 -1.3754697
000200 7c 75 85 3e 4e e8 75 3e 24 e7 cd 3c 28 7b aa 3e
       0.26066196 0.24014398 0.02513463 0.33297086
000210 1f d7 01 3e 24 43 13 3f 02 07 5b 3e 56 4b 3c be
       0.12679718 0.57524323 0.21389392 -0.18388113
000220 c2 6d 8e bc e9 53 80 be c7 3f 8c 3b 95 72 19 3f
       -0.017386321 -0.25064018 0.004280064 0.59940463
000230 a8 4f 3b be 9f 92 88 3b f3 c6 0b be 3d 09 31 3e
       -0.18292105 0.004167869 -0.13650112 0.1728868
000240 10 1b 8a 3d ec e2 30 3e d3 bc fd 3d 5c 36 e8 be
       0.06743443 0.17274064 0.12389531 -0.45353973
000250 90 76 69 be be 9e 91 bd 30 e8 07 be 25 e5 8f be
       -0.22799134 -0.07110356 -0.13272166 -0.2810451
000260 b1 07 a2 3d 2f 42 9e bd b2 d7 82 be 3d ff fa 3b
       0.07911623 -0.07727467 -0.25555187 0.0076598213
000270 36 0e 55 3d 20 3c 12 3e 26 17 2f 3e ff 70 2a 3b
       0.052015506 0.14280748 0.17098674 0.0026007292
000280 2b ab b0 be de 4d 13 3e 6e 96 85 3a fd 3e 8e bd
       -0.3450559 0.14385173 0.0010191926 -0.06945608
000290 37 9b e2 3d e1 21 9c be 43 b7 74 3e fa 74 1f 3e
       0.11064761 -0.30494598 0.23898034 0.15571967
0002a0 50 0c 57 3d 55 ca cb be bb bf 30 be 53 90 6d be
       0.052501976 -0.39802805 -0.1726064 -0.23199587
0002b0 f3 f0 b1 bd 4a 62 86 bd ac c0 88 3e 0d 96 c9 bd
       -0.086885355 -0.06561716 0.26709497 -0.09843073
0002c0 3c 5b 59 bd ec 7f 72 be c5 52 c3 be 97 c3 14 3c
       -0.053065524 -0.23681611 -0.38149086 0.009079835
0002d0 27 ae 37 3e 45 82 04 be 1a ac 4f be c0 e1 52 be
       0.17937528 -0.12940319 -0.20280495 -0.2059393
0002e0 b4 99 8f 3e ec 64 57 3d 48 1e 9a 3e 7d 6d a3 3e
       0.28046954 0.05258648 0.30101228 0.3191947
0002f0 98 ee 84 ba af 16 d5 3d 9c 4d 4a 3d bb df 69 3d
       -0.0010141907 0.10404717 0.04939042 0.05709813
000300 92 80 1a 3e a9 35 75 be 6a 37 bc 3e 37 e2 45 3e
       0.15088108 -0.23946251 0.36761028 0.19324575
000310 75 5e 18 bf ef d0 ee 3d 3f de 9b be 36 96 25 3d
       -0.5951913 0.11660945 -0.30442998 0.040426455
000320 2d 95 8c 3e 47 6d 97 bc 9c 49 43 3e 68 e8 ca 3d
       0.27457562 -0.018484725 0.19071048 0.09907609
000330 2a e3 0c be 12 17 bb bd 7b 73 cd 3d 32 7d 4e be
       -0.13758531 -0.0913526 0.10031792 -0.20164946
000340 25 d5 fd 3d f8 a8 94 bc 5b 7e 17 3e db 2d f9 be
       0.1239417 -0.018146977 0.14794295 -0.48667797
000350 53 51 97 3d 5e 78 22 3e 2f 37 08 3e ca 4e 1c 3e
       0.07388558 0.15866229 0.13302301 0.1526443
000360 7c 80 2d 3e 93 e0 06 bd dd 27 18 be 31 79 f2 3d
       0.16943544 -0.032929014 -0.14858957 0.11839522
000370 d4 f0 89 3d ff f3 2f 3d 59 37 30 3e 9e 27 74 3c
       0.067353874 0.042957302 0.17208613 0.014902024
000380 2c 88 8f bd bd 5a 1f 3d 8a d5 ca 3d cd 46 8a be
       -0.070083946 0.038904894 0.099040106 -0.27007142
000390 9a 44 97 3d 78 53 d5 be 30 25 dc be f3 8c b8 bd
       0.073861316 -0.41665244 -0.42997122 -0.09011259
0003a0 90 3a df 3e 68 f0 06 bd e5 0d c6 3e 65 94 bb 3d
       0.43599367 -0.032944113 0.38682476 0.091591634
0003b0 b4 67 40 3e c1 08 31 3e b1 39 c4 3e e6 75 85 be
       0.1878956 0.17288496 0.38325265 -0.26066512
0003c0 2b ee 9e 3b bd bf 08 3e 9e a3 07 3d b1 c0 cb bc
       0.004850169 0.13354392 0.033115022 -0.024872156
0003d0 1e 3c 54 bd ab 8f 55 3e 89 34 81 be 7e 16 a9 3d
       -0.051815145 0.20855586 -0.25235394 0.08256243
0003e0 9e b5 b6 3c 99 c5 05 3e da 04 0a be 4a 06 8e 3d
       0.022303399 0.13063659 -0.13478413 0.06934793
0003f0 28 01 9e 3d 36 75 5d 3e 88 c2 95 3e f9 cd bc bb
       0.07715064 0.21626744 0.29249978 -0.0057618585

classifier.0.bias f4 [180]
000000 0a da 60 3d de 4a 51 3c 55 21 1d bd f0 60 5c be
       0.05489544 0.012774197 -0.038361866 -0.21521354
000010 82 82 8a 3b fb 0f 13 be e9 6d 1a be 01 0f 95 3e
       0.0042269835 -0.14361565 -0.1508099 0.2911301
000020 ba a4 f1 3a 5d cc a7 bd 64 c5 26 3d 2e 84 e9 bc
       0.0018435933 -0.08193276 0.04071559 -0.028505411
000030 e2 ec 19 be db e8 9e 3c 60 7a 00 3e ca 92 22 bd
       -0.1503177 0.019398144 0.12546682 -0.03969077
000040 1d 85 98 3d 1d 35 00 bd 3a 7d d5 bc 7b f8 01 be
       0.07447264 -0.031300653 -0.02606069 -0.12692444
000050 e0 a1 c4 bc 0c 3b 17 be 4c a3 4b 3e b7 d3 43 3e
       -0.02400297 -0.14768618 0.19886512 0.19123732
000060 63 13 7c 3e 23 a5 5b 3e 81 03 15 bd c2 fe 36 be
       0.2461677 0.21449713 -0.036380295 -0.1787062
000070 52 b9 c0 3d c8 38 87 bc e3 14 56 bd f2 65 35 3d
       0.09410347 -0.016506568 -0.052266013 0.044286676
000080 eb 35 b2 3c 18 d7 3f bc cb af 3a be aa 8f e0 3d
       0.021754226 -0.011708997 -0.18231122 0.10964902
000090 6e 10 e5 bd ab de f1 bd 66 0b 21 3e 49 13 09 bd
       -0.11184774 -0.11810049 0.15727004 -0.033465657
0000a0 ff 14 c2 3d e5 5d 9b 3e 17 b6 8c be 12 3c a3 3d
       0.09476661 0.30345073 -0.27482674 0.07970442
0000b0 3d 04 1c be 22 b4 62 bd a7 d0 66 be 50 37 49 3d
       -0.15235992 -0.05534757 -0.22540532 0.049125016
0000c0 cc c9 0b be 99 f4 8d 3e ad de 22 bd be 97 88 3b
       -0.13651198 0.27725676 -0.03976314 0.0041684797
0000d0 a2 74 26 3d 4a 18 30 bd 07 59 82 bd c8 e4 1e 3d
       0.040638573 -0.042991914 -0.06364637 0.0387924
0000e0 cd f2 eb 3d cb 4f a4 bd 22 c3 8c be 99 c2 ed bd
       0.1152092 -0.08023032 -0.27492625 -0.11609382
0000f0 6c 07 1d 3e c0 14 5e bd 68 0b 42 be 5b 98 e8 bc
       0.15334862 -0.054219007 -0.18949664 -0.028392961
000100 c8 aa 40 bd 6a 8c 6f 3e 20 c5 49 3c da 44 a2 bd
       -0.04703787 0.23393407 0.012315065 -0.07923289
000110 c9 ab a1 3e 7e f0 f9 3d 03 f3 07 be 1b 75 58 3e
       0.31576374 0.12204073 -0.13276295 0.21138422
000120 d8 e0 28 3b 5e 42 1d 3e ac c1 cc bd 95 a3 1e bd
       0.0025768783 0.15357348 -0.099978775 -0.038730223
000130 ae bb a6 bc 12 84 d9 bd 77 81 5c 3d ec 5f a1 bd
       -0.020353165 -0.106208935 0.053834405 -0.07879624
000140 3b 8e 80 3d 11 9b 66 be 3f 0b 32 bd 33 07 51 bb
       0.06277128 -0.2252009 -0.043467756 -0.003189516
000150 c7 71 2f be 26 27 03 3e 81 9d 6d bc 38 23 d5 bd
       -0.17133246 0.12807903 -0.014502884 -0.10407108
000160 74 16 62 bd 47 bc 23 bc 21 75 1b be c8 cb 78 be
       -0.055197194 -0.009993619 -0.151814 -0.24296486
000170 0c eb 0d 3e a8 09 81 3d ce c0 33 bd eb 31 d2 3d
       0.13859195 0.0630067 -0.043885045 0.10263427
000180 ba c5 ac bc bd e6 77 3c 82 c8 3c 3e c3 12 aa be
       -0.021090377 0.015130696 0.18435863 -0.3321744
000190 1b 14 a6 be 92 74 89 bc cf 56 f4 3d 5e 63 01 3e
       -0.32437214 -0.016779218 0.1193062 0.12635562
0001a0 ca 64 58 be 90 0c 5a 3e 23 9d 01 be 89 87 95 3e
       -0.21132198 0.21293855 -0.12657599 0.29204968
0001b0 29 f3 d4 3d a6 11 04 3e 3f e3 96 be 4a 8b 73 be
       0.103979416 0.12897357 -0.2947025 -0.23783603
0001c0 92 32 45 bb 8e 30 8b 3e 3e a7 59 3e 20 1f 74 be
       -0.0030089957 0.27185482 0.21255204 -0.23839998
0001d0 b0 72 de 3c 60 7f 95 3d c6 27 7d 3e 36 03 27 3e
       0.027154297 0.072996855 0.24722204 0.16309819
0001e0 2a c8 4d bc c5 5a 03 3e 9e cf 55 bc b8 03 b8 bd
       -0.01255993 0.12827595 -0.013049988 -0.08985084
0001f0 d4 64 c2 bd 20 d5 4e be 41 15 b5 3e ee 0e f4 bd
       -0.09491888 -0.20198488 0.35367778 -0.1191691
000200 44 cc d2 3d 0b df 34 be d5 44 85 3e 75 de 42 be
       0.10292867 -0.17663209 0.26029077 -0.19030173
000210 ed 91 80 3e 95 84 32 3d 58 3a ae 3c 91 ed 79 3e
       0.25111333 0.04358347 0.021268055 0.2440703
000220 40 06 99 be 71 6e 52 3e 24 92 cc 3d 26 e3 f9 3c
       -0.2988758 0.20549943 0.099888116 0.03050382
000230 1e fe 2b bd 51 e8 92 bd 1e 05 39 3e b7 31 f8 3b
       -0.041990392 -0.07173217 0.18068358 0.007574286
000240 10 34 4b be 86 e8 8e 3d 5f ec 41 bd d6 b9 b9 3d
       -0.19844079 0.06977944 -0.04734456 0.090686485
000250 a8 63 08 bc d3 1f 05 bb f8 5d 6d bd 1e 8a a5 bd
       -0.008324541 -0.0020313158 -0.057950944 -0.080829844
000260 9a 45 59 3d 8a 28 aa 3d 94 82 29 3e 1f bd 9b 3d
       0.053044893 0.083085135 0.16553718 0.07604431
000270 20 a9 9a 3d ad 2a 52 3d 34 9d a5 bd 94 bc 18 3d
       0.07551789 0.05131023 -0.08086625 0.037289217
000280 30 dd 5c 3c 60 ba 4f 3e c8 b1 2e 3d e8 11 16 3e
       0.01348047 0.2028594 0.042650014 0.14655268
000290 cf e7 93 3e 49 67 08 be 74 40 f3 3d 9f 71 30 3e
       0.28887793 -0.1332065 0.11877528 0.17230843
0002a0 65 cb c6 3c 54 ed 9b 3d 06 bd d7 3c 51 0a 70 be
       0.024266908 0.07613626 0.02633525 -0.23441435
0002b0 00 35 de bc b3 e6 64 be 06 30 b3 bd 32 fb 00 3e
       -0.027124882 -0.2235363 -0.08749394 0.12595823
0002c0 a3 3a a5 3e 2f 12 f9 bd 67 76 89 3e 20 fc ee bd
       0.322713 -0.12161671 0.26848146 -0.11669183

classifier.1.weight f4 [180]
000000 2a ea 85 3f 29 a1 65 3f 3a 47 5e 3f e6 44 7d 3f
       1.0462086 0.89699036 0.86827433 0.98933256
000010 f6 01 45 3f eb 66 85 3f e6 a3 61 3f 60 d2 7a 3f
       0.7695612 1.0422033 0.88140714 0.97977257
000020 2f 7d 44 3f 60 1c 86 3f 5f 5b 79 3f dc d7 4f 3f
       0.76753515 1.0477409 0.97405046 0.8118875
000030 5f b8 2a 3f 54 fe 5b 3f 64 d2 5d 3f cf 20 6e 3f
       0.6668758 0.8593495 0.86649156 0.9301881
000040 67 46 6e 3f f6 0c 6c 3f 5d ba 7c 3f 60 5a 62 3f
       0.93076175 0.92207277 0.9872187 0.8841915
000050 ce c4 7b 3f 48 77 56 3f ba f0 80 3f 6f 74 7b 3f
       0.98347175 0.8377576 1.0073464 0.9822454
000060 6b b1 8a 3f a6 39 72 3f 49 25 4b 3f e1 01 60 3f
       1.0835394 0.94619215 0.7935377 0.87502867
000070 a9 6e 79 3f ac 5a 4c 3f b4 1f 3c 3f c3 f6 78 3f
       0.9743448 0.79825854 0.73485875 0.9725153
000080 20 20 73 3f 23 f2 51 3f cb dd 4c 3f 2a b0 5d 3f
       0.94970894 0.82010096 0.8002593 0.8659693
000090 3c 50 69 3f c7 b7 6d 3f 28 6d 67 3f be 4a 7a 3f
       0.9113805 0.92858547 0.90400934 0.977703
0000a0 a8 a5 1b 3f 6c fc 76 3f 0e 0d 72 3f 42 c3 58 3f
       0.60799646 0.96478915 0.9455117 0.8467294
0000b0 6f 88 64 3f 75 7b 5d 3f 90 b6 52 3f aa f8 54 3f
       0.8927068 0.86516505 0.8230982 0.8319193
0000c0 33 a0 66 3f 67 9a 43 3f 5c ce 68 3f 22 c5 4f 3f
       0.90088195 0.76407474 0.9093988 0.81160176
0000d0 d2 ee 72 3f 49 08 57 3f 76 04 69 3f 45 80 70 3f
       0.9489566 0.8399702 0.9102243 0.93945724
0000e0 cb dc 48 3f 51 22 39 3f 2d 53 54 3f 9c c2 6b 3f
       0.78461903 0.7231799 0.82939416 0.92093825
0000f0 35 f9 74 3f 66 fb 80 3f a1 11 85 3f 4a 98 60 3f
       0.9569276 1.0076721 1.0396005 0.87732375
000100 e1 bb 34 3f a8 45 68 3f 9c dc 74 3f c0 a9 77 3f
       0.7059918 0.90731287 0.95649123 0.9674339
000110 76 53 7f 3f 28 8f 40 3f c7 25 76 3f 88 0b 5a 3f
       0.99736726 0.7521844 0.96151394 0.85173845
000120 79 71 79 3f ec ec 91 3f 3d 9c 54 3f 92 3d 24 3f
       0.9743877 1.1400428 0.830509 0.6415645
000130 d0 7f 71 3f d7 2f 42 3f ab 6e 68 3f ea 16 35 3f
       0.9433565 0.7585425 0.90793866 0.7073809
000140 f9 58 3f 3f df 03 39 3f dc 5a 54 3f 98 6a 78 3f
       0.74745136 0.7227153 0.8295114 0.9703765
000150 18 78 82 3f b3 3b 68 3f 95 90 4e 3f b6 4f 3d 3f
       1.01929 0.90716094 0.80689365 0.73949754
000160 f4 b0 7c 3f 5e 12 4a 3f 0f bb 77 3f fd d4 7c 3f
       0.9870751 0.78934276 0.96769804 0.98762494
000170 21 99 4b 3f 49 ff 7d 3f 09 2f 5e 3f 30 d5 86 3f
       0.7953053 0.9921766 0.8679052 1.053381
000180 fb dc 74 3f 0a e2 67 3f bc 5c 6e 3f 76 fa 80 3f
       0.9564969 0.90579283 0.9311025 1.0076435
000190 9d 22 71 3f 15 eb 34 3f 59 08 6c 3f 4e 3a 66 3f
       0.9419344 0.70671207 0.9220024 0.89932716
0001a0 a3 a7 4c 3f 7f 69 6f 3f b1 d6 5e 3f 81 95 83 3f
       0.79943293 0.9352035 0.87046343 1.028
0001b0 36 5a 6e 3f 14 90 2f 3f a1 17 7a 3f 8c 03 74 3f
       0.931064 0.6857922 0.97692305 0.9531791
0001c0 04 95 80 3f 23 40 55 3f bc 48 13 3f 09 05 80 3f
       1.0045476 0.8330099 0.5753286 1.0001537
0001d0 f3 46 67 3f b3 4c 78 3f 64 06 4d 3f d0 15 7a 3f
       0.90342635 0.96992034 0.80087876 0.97689533
0001e0 c5 ce 3b 3f b6 84 91 3f f8 64 5a 3f be f8 3b 3f
       0.7336238 1.1368625 0.85310316 0.73426425
0001f0 f8 51 62 3f 86 48 82 3f 3f 9e 67 3f 9f 5c 90 3f
       0.88406324 1.0178382 0.9047584 1.1278266
000200 61 16 78 3f d8 84 6c 3f 66 42 5f 3f df 45 55 3f
       0.9690915 0.92390203 0.8721069 0.8330974
000210 c3 39 5d 3f ed 55 6c 3f 5c 24 52 3f 3a e8 83 3f
       0.8641626 0.9231861 0.8208673 1.0305245
000220 0f d1 7b 3f e6 19 65 3f 63 20 69 3f 15 03 5f 3f
       0.98365873 0.8949264 0.91065043 0.8711408
000230 4a 65 92 3f d5 e3 83 3f cc c1 7a 3f 47 92 4c 3f
       1.1437161 1.0303904 0.9795196 0.799107
000240 97 8c 79 3f 8e 95 65 3f 4b 77 3d 3f ba fa 7c 3f
       0.9748015 0.8968133 0.7401015 0.9882008
000250 4f c0 73 3f 8c 34 80 3f d2 06 51 3f 0c d5 80 3f
       0.95215315 1.0016036 0.8165103 1.0065017
000260 03 9e 5b 3f 15 5d 85 3f 7e 1a 4b 3f d9 20 84 3f
       0.8578798 1.0419031 0.793373 1.0322524
000270 cd a3 6d 3f 5d b8 51 3f 22 f5 4a 3f 26 cb 2d 3f
       0.92828065 0.8192194 0.79280293 0.67888105
000280 bc 9c 84 3f f7 e5 56 3f 3d b6 62 3f b8 e5 60 3f
       1.0360332 0.8394465 0.88559324 0.87850523
000290 3e 35 8b 3f a3 90 36 3f e5 09 5b 3f 82 d1 52 3f
       1.0875623 0.7131445 0.8556197 0.82350934
0002a0 33 b0 70 3f ec e8 6a 3f 25 f0 4e 3f 5f af 61 3f
       0.9401886 0.9176166 0.8083518 0.8815822
0002b0 54 63 4e 3f 89 8c 82 3f 60 30 37 3f 51 df 72 3f
       0.8062031 1.0199138 0.7155819 0.94872004
0002c0 dc 9b 58 3f bd cf 82 3f 0b f0 80 3f 3a b1 70 3f
       0.8461282 1.0219647 1.0073255 0.94020426

classifier.1.bias f4 [180]
000000 b5 96 0a bf 77 04 dc be ec 0b f3 be 03 1b ed be
       -0.5413621 -0.42972156 -0.47470033 -0.4630967
000010 ce cc 96 be 66 50 dc be 06 22 07 bf 1d ad 02 bf
       -0.2945313 -0.4303009 -0.5278629 -0.510454
000020 79 c2 9a be cf 18 4b bf ea 3e ef be 79 72 ab be
       -0.30226496 -0.7933473 -0.46727687 -0.33485773
000030 d8 01 3e be 23 f1 d0 be 1c ea 92 be 73 77 fe be
       -0.18555391 -0.40808973 -0.28694236 -0.49700508
000040 af e9 cd be 03 df 06 bf 52 b3 be be b4 1a b7 be
       -0.4021735 -0.5268404 -0.37246186 -0.3576256
000050 16 e3 0a be 2b 98 b7 be 01 82 cd be bc e0 2b bf
       -0.13563189 -0.35858282 -0.40138248 -0.6713979
000060 88 0e cc be f1 78 d9 be 3b 6d 7e be b1 f5 d1 be
       -0.39854836 -0.42475083 -0.24846356 -0.4100776
000070 89 44 1b bf 0e 23 92 be 14 73 05 bf 2c 6f 10 bf
       -0.6065145 -0.2854237 -0.5212872 -0.56419635
000080 13 e9 00 bf f9 6b 06 bf ee b4 d0 be 1f 62 8f be
       -0.50355643 -0.52508503 -0.40763038 -0.28004548
000090 74 de 11 bf e9 7c a7 be 59 39 b0 be 91 f6 00 bf
       -0.5698006 -0.32712486 -0.34418753 -0.5037623
0000a0 ca 59 96 be 40 cf 13 bf 72 53 cc be de ec b6 be
       -0.2936538 -0.57738113 -0.39907414 -0.3572759
0000b0 72 96 ba be 80 6e 28 bf bc c3 f7 be 12 a3 2d be
       -0.36442906 -0.6579361 -0.4839152 -0.16956738
0000c0 ff 65 77 be ee 63 d0 be f8 ec cf be 67 fc ff be
       -0.24160002 -0.4070124 -0.4061048 -0.49997255
0000d0 31 21 9f be b4 f8 db be ad 2c e2 be 21 d2 03 bf
       -0.3108001 -0.42963183 -0.4417471 -0.51492506
0000e0 9d 59 e4 be c2 3f 90 be 49 4c ff be e4 a3 86 be
       -0.4459962 -0.28173643 -0.49862888 -0.26296914
0000f0 13 db 1c bf 06 cb 52 be 51 c8 18 bf 6e 51 cd be
       -0.6127178 -0.2058526 -0.5968066 -0.40101188
000100 bb c9 f0 be c2 d7 f7 be 3c 70 a6 be cc 86 cc be
       -0.47028908 -0.48406798 -0.32507503 -0.39946592
000110 95 1f f0 be 1f 4f ae be 81 47 0f bf b5 d5 09 bf
       -0.46899095 -0.3404474 -0.5596848 -0.53841716
000120 a7 ee 22 bf ef cd a2 be a8 a8 1d bf db f3 bb be
       -0.63645405 -0.3179774 -0.61585474 -0.36709484
000130 fd e2 ca be 46 af e8 be 11 54 f6 be 56 d6 a2 be
       -0.39626303 -0.45446223 -0.48111013 -0.3180415
000140 fd 3a 61 bd 4e 5b f0 be 47 ce 8a be 8c fc cf be
       -0.054987896 -0.4694466 -0.27110502 -0.40622365
000150 79 e6 cb be 05 9b d6 be 6a de 16 bf d2 d0 cc be
       -0.39824274 -0.41915146 -0.58933127 -0.40003067
000160 3e 04 c2 be 98 09 5e be 27 db 06 bf ef c5 b9 be
       -0.37893862 -0.21683347 -0.5267815 -0.36283824
000170 59 e0 85 be 97 3b 08 bf 9d 5c 78 be fa 02 eb be
       -0.26147726 -0.53215927 -0.24254079 -0.45900708
000180 f1 3d 1f bf 96 2e 97 be a3 45 11 bf ee 19 be be
       -0.6220389 -0.2952773 -0.5674688 -0.37129158
000190 36 1f 62 be 04 94 d7 be 5e 28 cf be b8 85 af be
       -0.22082219 -0.42105114 -0.40460485 -0.34281707
0001a0 47 e8 95 be 22 c5 2c bf 17 18 15 bf c7 2d eb be
       -0.29278776 -0.674883 -0.58239883 -0.45933363
0001b0 95 b4 fa be 89 ba 61 be b4 20 05 bf d9 30 12 bf
       -0.48965898 -0.22043814 -0.52003026 -0.57105786
0001c0 7d eb d8 be fc 4d e3 be 59 67 42 be 66 15 20 bf
       -0.42367163 -0.44395435 -0.18984737 -0.6253265
0001d0 66 cf c9 be c9 4a d8 be 0c ca c6 be c5 cf c6 be
       -0.39416045 -0.42244557 -0.38826025 -0.3883039
0001e0 0b 2b c7 be b1 91 de be 46 32 fc be c5 a1 cc be
       -0.38900027 -0.4347053 -0.49257106 -0.3996717
0001f0 47 b6 09 bf f1 62 0a bf 34 87 06 bf 84 37 f5 be
       -0.5379376 -0.5405722 -0.52550054 -0.47893918
000200 54 db ff be 9f 3e ce be bb 2a 0d bf c9 29 af be
       -0.49972022 -0.4028215 -0.55143327 -0.34211567
000210 11 2e bd be 1f 55 e9 be 49 b5 26 bf ad 3f 59 be
       -0.36949208 -0.45572755 -0.6512037 -0.21215697
000220 cd 9c 5c bf c9 1c ba be 82 6d 00 bf 79 26 e9 be
       -0.8617676 -0.36350086 -0.50167096 -0.45537165
000230 e2 f0 11 bf 82 88 d9 be 0b 38 fb be 81 6b a3 be
       -0.57008183 -0.4248696 -0.49066195 -0.31917956
000240 65 d5 dd be 63 91 e7 be a9 48 bd be cd 0a 8b be
       -0.4332687 -0.4522811 -0.36969498 -0.27156678
000250 42 96 ce be 80 a0 d6 be 96 ff 00 bf f5 e0 28 bf
       -0.40349013 -0.41919327 -0.50389993 -0.6596826
000260 4d 0a e0 be f3 eb fa be bd 5e ec be 58 52 ab be
       -0.4375786 -0.4900814 -0.4616603 -0.3346126
000270 c0 0d 99 be cd 89 dc be 02 e2 6f bd 8d 50 0a be
       -0.29893303 -0.43073884 -0.058565147 -0.1350729
000280 8b 79 02 bf b1 4d f8 be 46 dd ab be 84 72 5f be
       -0.5096671 -0.48496774 -0.33567256 -0.21821028
000290 cb 75 dc be a4 c1 0a bf d4 b1 03 bf 76 45 c6 be
       -0.4305862 -0.5420172 -0.5144322 -0.3872487
0002a0 d9 f9 3c be 3f 73 a7 be fd dd 23 be 61 7f ff be
       -0.18454684 -0.32705113 -0.1600265 -0.4990187
0002b0 e8 85 0e bf 68 fa 43 bf e0 70 5d be 58 1a e7 be
       -0.55673075 -0.76553965 -0.2162509 -0.45137286
0002c0 25 b4 0a bf 25 7a e1 be 0c 71 01 bf 23 6e 08 bf
       -0.5418113 -0.440385 -0.5056312 -0.53293055

classifier.1.running_mean f4 [180]
000000 ef 3e 4c 3d be a8 21 3e c1 20 08 bd 9c 3d bd be
       0.049864706 0.15787026 -0.03323436 -0.36961067
000010 f8 1e 98 3b f0 01 1f 3e ee 85 69 be 60 46 46 3e
       0.0046423636 0.15528083 -0.22804996 0.19362783
000020 0e 7f 90 bd f7 96 11 be 61 84 0e 3e 7f 30 2d be
       -0.07055484 -0.14217745 0.13917686 -0.16913031
000030 f4 f4 98 be c0 bd d4 bd ec 86 98 3d 1d 2c 98 bd
       -0.29874384 -0.103877544 0.07447609 -0.07430289
000040 15 a1 a1 3d c2 b4 5d be ef fa 93 3e fa 89 8d bd
       0.07892052 -0.21650985 0.28902385 -0.069110826
000050 68 0e 5e be ae f2 bf be de b9 2e 3e e4 93 1f 3f
       -0.21685183 -0.37489837 0.1706309 0.6233504
000060 a2 5a 88 3e b7 de 41 3e 44 3f 0e 3e de 17 aa be
       0.26631647 0.18932615 0.13891321 -0.33221334
000070 d3 76 16 3e ae 2f 2f bc b2 bc 49 3d 42 3a 2f 3c
       0.14693765 -0.01069252 0.04925222 0.010695042
000080 eb ee 84 3c 89 7a d6 bc fb 06 50 bc 6e db e4 bd
       0.016227206 -0.026181476 -0.012696977 -0.111746654
000090 9b db 4d be e7 ac a0 3e ea a8 6b 3e 12 51 33 3d
       -0.20103304 0.31381914 0.23013654 0.043778487
0000a0 6a 80 56 3c 6e 27 ca 3e 8a 03 07 3e 06 ac d7 3e
       0.01309214 0.39483207 0.13184944 0.4212343
0000b0 28 c8 43 3e f3 43 2e bd 3f fc 7f be 8d dc 3a 3d
       0.19119322 -0.04254527 -0.24998568 0.04562049
0000c0 b5 d7 ec be f2 8f 39 bd e3 5f 01 3e 13 0a 3d 3e
       -0.4625832 -0.045303293 0.12634234 0.18460874
0000d0 a0 8a f1 bd 5d 8c b5 bd b8 a7 ce 3c 13 a9 35 3e
       -0.11794019 -0.08864663 0.025226459 0.17740278
0000e0 ae 52 b2 3e ca 87 48 bd 17 e1 6c 3d c0 4b 4c 3e
       0.34828705 -0.048957624 0.05783185 0.19950771
0000f0 5b 1b 31 3d c6 e6 38 be 9b 9a 73 bd b8 f2 85 3e
       0.04323898 -0.18056783 -0.059473615 0.26161742
000100 64 9e 8a bd 0a 41 bc 3e 64 9f c3 3d 21 33 bd bc
       -0.06768492 0.3676837 0.09551886 -0.02309567
000110 6a 85 b7 3e 20 7f c4 bd 20 df fe 3c 9f fb f5 3d
       0.35843974 -0.0959456 0.031112254 0.120108835
000120 cc 36 04 bd 03 cf 0b be 7d 37 a0 be 20 89 4d be
       -0.03227882 -0.13653187 -0.31292334 -0.2007184
000130 31 87 59 3c 95 e6 91 be 24 8b 98 3e 86 c2 e6 3c
       0.013276861 -0.28496233 0.29793656 0.028168928
000140 5d d9 cf 3d 10 49 da be 7a af 59 3e e4 87 b1 3c
       0.10148881 -0.42633867 0.21258345 0.021671243
000150 04 98 d0 bd 82 51 44 3d a4 62 9c 3c f9 43 49 3d
       -0.10185245 0.047929294 0.019090004 0.04913709
000160 c7 0c 03 be e2 f6 2a be df f6 83 bd 20 a1 37 be
       -0.12797843 -0.16695741 -0.06443571 -0.17932558
000170 45 b9 96 3e 09 2c 39 3c 12 7f 5d bc 28 9e 19 3b
       0.29438224 0.011302003 -0.013519065 0.0023440216
000180 73 e3 e0 bc 3e a2 50 3e ba 5a b4 3e 70 e2 94 be
       -0.027452206 0.2037439 0.3522547 -0.29079008
000190 bd 5b e6 bd 55 e2 e6 bc 4f ed c7 3d 0f c3 29 3e
       -0.112479664 -0.028184095 0.0976206 0.16578315
0001a0 27 5e 74 3d 80 14 00 3e e7 17 88 3d 02 58 dc 3e
       0.059660103 0.1250782 0.06645184 0.43035895
0001b0 f7 57 95 3c f0 bc 70 bd f4 e5 f1 be 87 87 d9 bc
       0.018230421 -0.058773935 -0.47245753 -0.026553882
0001c0 7f a9 57 bc 00 9c 09 3f 15 44 79 bd db a8 b0 be
       -0.01316297 0.5375366 -0.060855944 -0.34503826
0001d0 ad 46 8d be dc 1c 94 bd b4 cd 59 3e 84 bc 94 3e
       -0.27592984 -0.07232067 0.21269876 0.29050076
0001e0 84 4a a3 bd 83 4f 81 3e dd 16 c5 bd 64 d8 9c bd
       -0.07973197 0.25255975 -0.096235014 -0.07658461
0001f0 06 f9 42 be f7 bd 93 be 72 77 e8 3e d8 cf 98 be
       -0.19040307 -0.2885587 0.4540363 -0.29846072
000200 e0 ad da 3d 74 aa 94 be d9 2c 8f 3e 4a 46 08 be
       0.10677695 -0.29036295 0.27963904 -0.13308063
000210 26 85 a7 3e ed 31 10 3d 8c 70 61 bd cf 71 c1 3d
       0.32718772 0.035203863 -0.055038974 0.094455354
000220 50 15 21 bf 2f e6 b3 3d 0d c6 52 3e 22 01 9c bd
       -0.62923145 0.087841384 0.20583363 -0.076174036
000230 f2 ad 7b 3e 48 6e 03 bd ed 2a 17 3f 90 ec 89 3c
       0.24578074 -0.032087594 0.59049875 0.016836435
000240 cc 41 1d be 77 cb 78 3e c2 68 ce bc 1e ca 02 3e
       -0.15357131 0.24296366 -0.025196437 0.12772414
000250 a2 c9 63 3e 9d ee dc bd 43 e2 20 bc a4 b2 3e be
       0.22244886 -0.10787699 -0.00981957 -0.18622833
000260 34 26 f0 bd 87 78 93 bc 07 d3 8a 3c 32 3c 39 3c
       -0.11726037 -0.018001808 0.016946329 0.011305856
000270 78 2f 88 3d 21 04 a6 bd b9 51 4e bd 7a 36 17 bc
       0.06649679 -0.08106256 -0.050370906 -0.009229297
000280 5d ae e1 bb 28 c7 fd bd bf 24 19 3d 4c 44 9c 3e
       -0.006887241 -0.12391502 0.03738856 0.30520856
000290 fd 3f 20 be 86 15 c5 be 95 de 90 bd 98 47 11 be
       -0.1564941 -0.38492984 -0.07073704 -0.14187467
0002a0 9d 58 22 3e 65 d0 03 3f 8f 63 fd 3d 4c ad 20 bc
       0.15854116 0.5148986 0.12372505 -0.009806942
0002b0 86 69 66 be d8 b9 6e be 98 9a 70 be ca c7 f4 3d
       -0.22501191 -0.23313081 -0.23496473 0.11952169
0002c0 63 55 0a 3f c2 5f d6 bd 4d 6a 11 3e 7c 6b fb bc
       0.5403654 -0.10467483 0.14200707 -0.030690901

classifier.1.running_var f4 [180]
000000 c0 93 c6 3b 20 9d e7 3b 94 a3 d4 3b 11 18 a8 3b
       0.0060600936 0.0070682913 0.0064892266 0.005129822
000010 fd 1e 2e 3c 4b 58 c9 3b 4d 58 97 3b 0e b3 6f 3b
       0.010627505 0.0061445585 0.0046186806 0.003657523
000020 16 d7 88 3b bd c4 2e 3b 6c 87 93 3b df 24 35 3c
       0.004176031 0.0026667558 0.0045022275 0.011056154
000030 1f f2 f1 3b 23 d3 a4 3b a4 02 d2 3b de 1a bd 3b
       0.0073835994 0.0050300523 0.006409006 0.005771025
000040 cc 79 2c 3c d2 32 9c 3b 46 b4 b8 3b a1 74 a2 3b
       0.0105270855 0.0047668004 0.0056367246 0.004957751
000050 4f b7 5c 3c b2 11 28 3b ab 80 92 3b 53 31 df 3a
       0.013471439 0.0025645313 0.004470905 0.001702825
000060 1f a5 55 3b c3 66 00 3c ee 7b d0 3b a0 1e 20 3b
       0.003259964 0.007837 0.00636243 0.0024432316
000070 a5 e2 31 3c d6 72 3d 3c b5 f6 9a 3b d6 66 dd 3b
       0.010857259 0.011563024 0.004729117 0.0067566438
000080 b9 29 73 3b f7 ac de 3b c5 ae 03 3c 5c 17 dd 3b
       0.0037103726 0.0067955214 0.008037274 0.0067471694
000090 e6 24 d6 3b 7c fc 0d 3c 64 5c 04 3b 8c 16 a4 3b
       0.0065351604 0.008666154 0.002019667 0.0050075706
0000a0 20 1c ff 3b e9 f6 7a 3b a4 44 81 3b 94 ef 12 3c
       0.007785335 0.0038294143 0.00394495 0.008968253
0000b0 f7 3e 96 3b 4c d5 c6 3b ca cb 49 3b 42 b1 f0 3b
       0.0045851427 0.0060679074 0.0030791634 0.0073453495
0000c0 16 c8 62 3b e8 a4 60 3c d4 3b b9 3b e2 41 60 3b
       0.0034604124 0.013711192 0.005652884 0.0034218957
0000d0 5b b6 8a 3b 8e 28 0d 3b 25 68 02 3c 84 4b ee 3b
       0.0042331642 0.0021539065 0.0079594 0.0072721858
0000e0 46 b4 b1 3b 04 0b 22 3c 6a 2a ed 3b f4 67 6a 3b
       0.0054231016 0.009890322 0.007237722 0.0035767527
0000f0 26 ee 99 3b 32 b1 11 3c 9a f3 4a 3b 5f d6 a8 3b
       0.004697579 0.008892344 0.0030967952 0.005152508
000100 a7 11 0d 3c e9 9f a9 3b 5c 09 4e 3b bc f1 1f 3c
       0.008610166 0.0051765335 0.0031438684 0.009762224
000110 1a 21 c4 3b 4c 19 94 3b 72 e1 50 3b 25 5f 82 3b
       0.0059853913 0.004519617 0.0031872657 0.0039786273
000120 40 9d 56 3b 49 30 0e 3c d8 0a aa 3b 0c 0c 52 3c
       0.0032747537 0.008678504 0.005189281 0.012820255
000130 0e 80 8d 3b 25 31 15 3c dc fc 95 3b 8a d0 98 3b
       0.004318244 0.009105955 0.0045772623 0.0046635317
000140 b3 0b ab 3b e3 e5 e6 3b 9c aa 17 3c 70 0f 8d 3b
       0.0052199005 0.0070464476 0.009256985 0.004304819
000150 99 3e c4 3b d3 d3 1d 3c ad 90 3f 3c 70 3a fb 3b
       0.0059889075 0.009633022 0.011692208 0.0076668784
000160 9b 5f de 3b 16 0f d1 3b c5 99 f5 3a e2 56 1a 3c
       0.0067862994 0.006379972 0.0018737843 0.009420129
000170 f0 16 53 3b 9f df 4e 3b 1f 11 2f 3b 73 aa 1c 3b
       0.0032209717 0.0031566394 0.0026713086 0.0023905307
000180 67 8b f1 3a aa 3b d8 3b cc a6 6e 3b 58 c7 b5 3b
       0.0018428386 0.0065989094 0.0036415337 0.0055474453
000190 c7 15 38 3c 70 cc c2 3b 94 25 d0 3b c6 0f ca 3b
       0.011235661 0.005944781 0.006352136 0.006166431
0001a0 75 58 1b 3c 62 71 23 3b 12 8f a7 3b a0 d3 1a 3b
       0.009481539 0.0024939408 0.005113491 0.0023624673
0001b0 96 7f d3 3b 73 7a 98 3c 43 73 4c 3b fd 30 3c 3b
       0.0064544184 0.018613076 0.003119663 0.0028715723
0001c0 25 7b 2a 3c 9e 47 9c 3b d5 85 1b 3c 6f 64 06 3b
       0.0104053365 0.0047692796 0.009492357 0.002050664
0001d0 f6 01 2d 3c 6d 1f 1c 3b dd 36 fe 3b ef 65 e2 3b
       0.01055955 0.0023822442 0.007758005 0.006909124
0001e0 4d 7c 9d 3b a8 0b dc 3b ca 74 92 3b 92 e2 21 3c
       0.0048060776 0.0067152567 0.0044694887 0.009880679
0001f0 23 06 0f 3c 08 ba 16 3c 5c 6c 96 3b 1b 62 d3 3b
       0.00872949 0.009199627 0.004590554 0.006450904
000200 63 a1 8d 3b 55 96 e2 3b 44 45 3c 3b 90 ba 0d 3c
       0.0043222173 0.0069148936 0.002872781 0.008650437
000210 13 4f a5 3b 20 5f a2 3b 91 39 bc 3b 69 63 37 3b
       0.005044827 0.0049551874 0.005744167 0.0027982837
000220 7d c2 c8 3a 87 be 93 3b 26 e2 d7 3a c2 c1 0e 3c
       0.0015316751 0.0045087966 0.0016470596 0.008713188
000230 f8 0a 99 3b 01 be a0 3b b8 ff ea 3b ad 09 00 3c
       0.004670497 0.0049054627 0.0071715973 0.007814807
000240 2d 68 9c 3b 8d 49 c0 3b e9 b8 18 3c bb ff 1c 3c
       0.004773161 0.005868143 0.00932143 0.009582455
000250 b3 46 18 3c 0f 22 02 3c 40 38 34 3b db 78 a3 3b
       0.0092942 0.0079426905 0.0027499348 0.0049887723
000260 33 87 c6 3b 12 fb 50 3b 96 c1 88 3b e1 82 09 3c
       0.0060585975 0.003188793 0.004173468 0.00839302
000270 da 8b 84 3b 64 bb 15 3c 4e b4 2d 3c 44 bd a7 3b
       0.004044992 0.009138916 0.01060207 0.005118998
000280 68 38 79 3b ed 16 db 3b ad 44 fa 3b df 4c a4 3b
       0.0038028006 0.0066860826 0.0076375813 0.0050140466
000290 ec 8f 51 3b ad e3 c8 3b 6d c9 a2 3b db 6d 6d 3b
       0.0031976653 0.0061306567 0.0049678595 0.003622881
0002a0 e1 ab d8 3b fa b4 86 3b cd d4 9e 3b 2e ba 1e 3c
       0.0066122864 0.0041109296 0.004847145 0.009687943
0002b0 a0 bc 84 3b ec e3 00 3b 8f 56 09 3c b7 94 3d 3b
       0.004050806 0.0019667102 0.008382454 0.0028927752
0002c0 b2 7a a1 3b fb f5 0f 3b af f0 71 3b d0 ab d7 3b
       0.0049279565 0.0021966684 0.003691714 0.006581761

classifier.4.weight f4 [80, 180]
000000 f0 89 32 bd 09 93 bf bc 36 35 1c bd c6 b1 d8 bd
       -0.04358858 -0.023385542 -0.038136683 -0.105807826
000010 dc a3 6f 3b 2b 8c 26 be 97 f5 82 3d 92 89 27 3d
       0.0036566174 -0.16264407 0.06394499 0.04090268
000020 b6 92 42 bd da ad 25 be 07 6e 03 be 7c 17 20 3d
       -0.047503196 -0.161796 -0.12834941 0.039084896
000030 a5 67 2f 3d c3 18 5e 3d d9 ef 6c bc 03 2b be 3d
       0.042823453 0.054222833 -0.014461481 0.092855476
000040 78 b7 0d 3d 06 4c c8 3d a4 67 5e be 13 73 70 bd
       0.034598798 0.09780125 -0.21719223 -0.058703493
000050 5d c5 61 bd 9d e5 f1 bb 59 2f 80 be 7e e2 d5 bd
       -0.05511986 -0.0073821084 -0.25036123 -0.104435906
000060 d9 09 96 3d 22 92 27 be a8 a2 47 bc ea 23 a3 be
       0.07326097 -0.16364339 -0.012184776 -0.31863338
000070 3c 2a 2b 3e fe 21 0e 3c 4f 82 38 3c 4d e8 e7 bd
       0.1671533 0.008675097 0.011261537 -0.11323605
000080 ba b7 9c bc 0d 9c d9 3d ff 83 66 bd f9 75 81 be
       -0.019130576 0.106254674 -0.056278225 -0.25285318
000090 84 49 a3 be 2d bd e3 bd 4b a4 62 bd fa 7c 24 be
       -0.31892025 -0.11120067 -0.055332463 -0.160633
0000a0 db ad 60 3c 76 72 0f 3e fa 63 bc be e3 08 8d bd
       0.013713325 0.14008507 -0.36795026 -0.06886461
0000b0 65 f5 03 be b0 3c 29 be 65 82 9b be 98 87 94 bc
       -0.1288658 -0.16527057 -0.3037292 -0.018131062
0000c0 86 79 4a 3d 45 f8 a7 bd 46 c4 9a bd a7 40 b9 bd
       0.0494323 -0.082016505 -0.075569674 -0.090455346
0000d0 0a 86 c0 bd 8e bb f6 39 70 a5 0f 3d 99 4b 28 3d
       -0.09400566 0.00047060515 0.035069883 0.04108772
0000e0 a8 80 e5 3b 51 4f 44 bd 49 3c bc 3d e8 3e a4 be
       0.0070038624 -0.047927205 0.09191186 -0.32079244
0000f0 b1 e9 51 3d 08 fa ed bd 74 9f 2b 3e 7b 44 36 3e
       0.051248256 -0.11619955 0.16760045 0.1779956
000100 5f 40 55 be ad f1 d5 be 06 b3 75 3c a5 1a 79 bd
       -0.20825337 -0.41785946 0.014996296 -0.060816426
000110 1c 82 8f bc 97 fb 3b be 29 93 e7 be 89 f4 ac 3c
       -0.017518096 -0.18357693 -0.45229462 0.021112697
000120 e9 6a 3b 3e 31 70 84 bd 5c a5 74 3c b5 10 10 be
       0.18302502 -0.06466711 0.014932003 -0.14068873
000130 d8 e6 4a be 9e d1 4f be ed 40 98 be 62 26 02 3e
       -0.19814622 -0.20294806 -0.29737034 0.12709954
000140 09 3c bf 3d ea 71 1f be 48 b5 e1 3d 90 2e c9 3d
       0.09337623 -0.15570799 0.11020905 0.09823334
000150 c7 8f 3e be 20 66 df 3d 98 6e 76 3c e4 2a f0 be
       -0.18609534 0.10908151 0.015041016 -0.46907723
000160 9b 20 a6 bd 84 88 a3 3c 63 3a 5b 3d 6a dd 0e be
       -0.08111688 0.019962557 0.05352248 -0.1395165
000170 8c 27 12 bc 0f 8c 72 3d e9 a0 24 be 81 59 8d be
       -0.0089205615 0.0592156 -0.16077007 -0.2760735
000180 83 7f 20 be dc 2a 2f bd 73 ea b0 be ba 6e 8c 3d
       -0.15673642 -0.042765483 -0.3455387 0.06857057
000190 5e c2 c4 bd 4f de 85 be da bb 59 bc f6 0e 65 be
       -0.09607385 -0.2614617 -0.013289416 -0.22368988
0001a0 c5 2c 09 3e 53 d9 1b be 32 6c a7 be cd 40 fa 3d
       0.13395984 -0.15219621 -0.32699734 0.12219391
0001b0 02 79 d6 bd d1 4f 19 be 56 ae 42 3e 7b f2 b3 3d
       -0.10472299 -0.14971854 0.19011816 0.08786484
0001c0 c2 18 9a bd 6f 48 f4 3d 35 62 a0 bd 2b ff 9c be
       -0.075242534 0.11927878 -0.078312315 -0.30663428
0001d0 c6 b3 85 3e 86 73 dc bc a7 c1 aa be 2f 06 fc 3a
       0.2611372 -0.026910555 -0.3335087 0.0019227917
0001e0 78 bc ef bc 65 6d 7f 3d 25 08 93 3d d9 db 09 be
       -0.029264674 0.062360186 0.07179288 -0.13462771
0001f0 f7 9b 1c 3d 23 a6 e8 bd da c5 42 3c 61 46 22 3d
       0.038234677 -0.11359813 0.011887992 0.0396179
000200 17 84 2e be c9 59 30 bd 41 ec 94 bc e7 37 c0 bd
       -0.17042576 -0.043054376 -0.01817906 -0.093856625
000210 05 2b db 3c bd 51 ac 3d 6d 23 e4 bd af b2 31 bd
       0.026753912 0.08414028 -0.111395694 -0.043383297
000220 73 6b 57 bd d6 a8 0d 3e 20 24 4f 3d c3 dd 67 be
       -0.052592706 0.13833937 0.05057156 -0.22643189
000230 e2 0b eb be 13 d7 98 bd ff af c2 be 76 d4 19 3b
       -0.45907503 -0.07462897 -0.380249 0.0023472584
000240 ea e5 44 bd 03 9e 52 3e f0 fa a1 bd e0 d8 24 3d
       -0.048070826 0.20568089 -0.07909191 0.04024589
000250 b6 a5 34 be a9 6d ab 3d c5 1b 20 be a2 6f 3f bc
       -0.17641339 0.083705254 -0.15635593 -0.01168433
000260 66 95 0a 3a 97 7d d6 bd 27 94 46 3e f7 fd 37 bb
       0.00052865443 -0.10473173 0.19392453 -0.0028074959
000270 9d 08 01 3d 59 89 2e be e0 f6 0f 3d 03 7e cc bb
       0.031502355 -0.17044581 0.035147548 -0.0062406077
000280 d0 22 a3 3d 3b 35 35 be ff 9f 6c 3d 37 47 56 3c
       0.07965624 -0.17696087 0.05776977 0.013078502
000290 f2 d4 05 bd d4 ce 2b be fd 1d 23 bd 86 c3 4f be
       -0.032673784 -0.16778117 -0.03982352 -0.2028943
0002a0 fc 54 ac bc c4 45 8f 3c 25 1e 98 3c bb 6a a9 3d
       -0.021036617 0.017489322 0.018569062 0.0827231
0002b0 08 87 b5 3d a5 04 27 3e d6 6c e5 bd 03 37 12 3c
       0.08863646 0.16310365 -0.112023994 0.008924249
0002c0 62 37 25 be 99 96 0c bf e1 3c aa 3d 2c 68 82 bd
       -0.16134408 -0.54917294 0.08312393 -0.063675255
0002d0 5c 67 06 bd dc 47 9d 3d 04 34 4b 3e f7 5d 3b bd
       -0.032813415 0.07679722 0.19844061 -0.04574391
0002e0 3d 97 99 be 43 d5 87 3c e1 b6 54 ba 92 b7 03 be
       -0.29998198 0.016581183 -0.0008114409 -0.12862995
0002f0 47 46 34 bf 59 68 c0 bd 14 79 6b be b5 cf 46 be
       -0.70419735 -0.09394903 -0.22995406 -0.19415171
000300 94 a7 90 bd 29 12 12 3d e4 25 46 bd 1a 21 3e bd
       -0.07063213 0.03566185 -0.04837598 -0.046418287
000310 c8 27 b5 bd 46 69 21 be 51 96 95 bd 0e f4 83 bd
       -0.08845478 -0.15762815 -0.07304061 -0.06443034
000320 c8 3f 98 3d b2 f2 b6 be 3f 24 23 bd 16 1b 39 3d
       0.0743404 -0.35732037 -0.03982949 0.045191847
000330 32 61 b7 3e 9e 26 a0 bd d1 8a c0 3d 2d 4a 2c bd
       0.35816342 -0.07819866 0.09401477 -0.042062927
000340 0d 79 d3 bb a1 22 bc 3d 2c e6 41 3e 5e e9 50 be
       -0.0064536394 0.091862924 0.1893546 -0.20401523
000350 be 50 23 be 10 fc 3f bd f2 28 7d be a4 65 89 3d
       -0.1594877 -0.046871245 -0.2472265 0.067088395
000360 99 6f 82 3e 93 22 4d bd 0a 77 cd be 95 4b 39 bd
       0.25475767 -0.0500818 -0.40129882 -0.045238096
000370 52 db f2 bd 2a 4f 31 3e 11 03 fb bd ff d7 dc 3d
       -0.11858238 0.17315355 -0.12256444 0.107833855
000380 d6 e7 b6 bc 6c c6 65 be 62 14 31 be 90 c2 d4 be
       -0.022327345 -0.22438973 -0.17292932 -0.4155469
000390 65 94 06 be 45 1c 93 3c 5c 7f c4 bd be 16 83 be
       -0.13142546 0.017957816 -0.095946044 -0.25603288
0003a0 2f 68 8d be 38 d4 e5 bd b5 29 ec bd cb fb 5b 3d
       -0.27618548 -0.11222118 -0.115313925 0.053706925
0003b0 56 0a 2b 3e 74 5d 9f be 01 37 8e 3d 20 d1 5b 3d
       0.16703162 -0.31125987 0.06944085 0.053666234
0003c0 ae 76 05 3e b3 fa 33 3d 6b b9 86 be e8 94 9f bc
       0.13033554 0.043940257 -0.26313338 -0.019480184
0003d0 15 65 74 be 8a ff 9a bd 99 b8 54 bd fa 16 f1 3d
       -0.23866685 -0.075682715 -0.05193386 0.117719606
0003e0 25 fb 05 be c4 ab 8d 3d 5b 50 f6 bd 39 aa b9 3d
       -0.13084085 0.06917527 -0.12027045 0.090656705
0003f0 54 6e 20 be 1e fa 38 bd 96 ef 96 bd e7 54 9d bd
       -0.15667087 -0.045160405 -0.07369916 -0.076822095

classifier.4.bias f4 [80]
000000 18 71 2b 3d ea 9b 1a 3c b0 21 c4 39 9c a1 e3 bd
       0.0418559 0.009436587 0.00037409132 -0.11114809
000010 41 32 88 3d 57 87 f8 bc 12 df 36 bd 29 73 d3 3c
       0.0665021 -0.030337973 -0.04464633 0.025811749
000020 49 1e ed 3c 88 40 43 3d f5 6d d9 3b c4 c0 9d bc
       0.028945105 0.047668964 0.0066354224 -0.019256957
000030 49 b1 18 be e1 39 1b 3c 58 0f 82 3d 98 19 3a 3d
       -0.14911379 0.009474249 0.06350583 0.045434564
000040 d9 ef 51 3d fb 12 7a bc 36 01 5e be e8 aa be 3d
       0.051254127 -0.015263314 -0.2168015 0.093099415
000050 09 97 63 bd 9e 3b de 3c 11 ab 18 3a 96 49 24 3d
       -0.05556396 0.027128037 0.0005823831 0.04010924
000060 16 f4 dc bc d9 e9 ac bd d9 2d eb 3c 2c 41 81 bc
       -0.026971858 -0.084430404 0.028708385 -0.015778147
000070 3b 54 47 bc 0f 5c 98 3d e2 ed 6f 3d a2 ba 32 3d
       -0.012166078 0.07439434 0.058576472 0.04363502
000080 90 0a 2e bd 29 0a 7b 3c d0 ec 53 3d 5e 73 c1 3b
       -0.042490542 0.015322247 0.051739514 0.0059036454
000090 db 2b b8 3d e3 db 62 3d 56 ff 13 3b 2f e8 cb bc
       0.0899274 0.05538548 0.0022582612 -0.024890987
0000a0 f0 14 b8 bd dc b4 87 bd 55 f0 2f bd aa e9 f1 bd
       -0.089883685 -0.06626293 -0.042953808 -0.11812146
0000b0 41 2b d4 3c aa c6 33 bd 07 3f 11 bd a3 81 e7 3c
       0.025899531 -0.043890633 -0.0354605 0.028260058
0000c0 3d ce 2d bb fd 14 84 3c 75 1f 5e bc b0 a3 ad 3c
       -0.0026520633 0.01612329 -0.013557305 0.021196216
0000d0 c6 ef 13 bd a9 c2 ed 3c fe 73 0f 3d 57 49 5a bd
       -0.036117338 0.029023485 0.03502273 -0.0532926
0000e0 35 cb 3f 3c 6a 00 34 bd ef bc f6 bc 33 4f 8a bd
       0.011706163 -0.043945707 -0.030119387 -0.06753387
0000f0 a9 77 82 bd 95 c1 92 3b 62 ee b6 3d 98 98 37 bc
       -0.063704796 0.004478643 0.08932187 -0.011205815
000100 c6 7c 09 3c 7b 68 00 be ee ca 8c bc 9f 9b fb 3c
       0.008391565 -0.12539856 -0.017186608 0.030713854
000110 45 24 fa 3d de 43 fb bc 3c d2 8a bd 77 39 69 3d
       0.12213949 -0.03067201 -0.0677838 0.05693957
000120 26 cb e6 bc 45 a3 bd bd 43 5d 41 bd f5 9f a1 bd
       -0.02817304 -0.09259657 -0.047208082 -0.078918375
000130 4e 03 b1 bc ff 9a 0a 3c 75 e7 d4 bd a7 16 24 bd
       -0.021608021 0.0084598055 -0.103957094 -0.040060665

classifier.5.weight f4 [80]
000000 55 0e 82 3f 30 7e 8c 3f 09 d2 80 3f 9d 53 6b 3f
       1.0160624 1.0976009 1.0064098 0.9192446
000010 cd b8 81 3f 75 8f 90 3f e0 79 3f 3f 08 4a 31 3f
       1.0134522 1.129378 0.7479534 0.6925359
000020 2e c4 55 3f cb 73 70 3f db 55 65 3f 31 48 a4 3f
       0.8350247 0.93926686 0.8958413 1.2834531
000030 b4 a5 94 3f 79 b4 9f 3f 08 d0 8f 3f f8 88 47 3f
       1.1613069 1.2476951 1.1235361 0.7794337
000040 e0 4c 81 3f 6c a3 7f 3f bb 63 78 3f 40 e3 85 3f
       1.0101585 0.99858737 0.97027177 1.0459976
000050 68 7a 6a 3f a9 92 37 3f 34 e2 81 3f 6d bb 6b 3f
       0.9159303 0.7170816 1.0147157 0.92082864
000060 c3 02 5d 3f 78 86 73 3f f4 c7 65 3f 84 1b 66 3f
       0.8633234 0.9512706 0.8975823 0.89885736
000070 38 ad 61 3f 94 ee 50 3f d7 72 5e 3f d0 5b 76 3f
       0.88154936 0.8161404 0.8689398 0.96233845
000080 18 5d 4f 3f fc 9d 8e 3f c7 95 35 3f 70 52 43 3f
       0.81001425 1.1141963 0.7093167 0.76297665
000090 f9 f3 65 3f 1b d0 81 3f d7 32 39 3f 46 14 83 3f
       0.898254 1.0141634 0.723432 1.0240562
0000a0 8c 45 74 3f 5f 2f 66 3f 31 d5 45 3f 7d 8b 3f 3f
       0.9541862 0.8991603 0.7727843 0.7482222
0000b0 2b ec 82 3f 06 29 52 3f 74 07 7f 3f 17 b6 7d 3f
       1.0228323 0.82093847 0.9962075 0.9910597
0000c0 6a 52 42 3f 8e 22 41 3f 04 b5 85 3f 25 f7 5d 3f
       0.75907004 0.7544335 1.0445867 0.8670524
0000d0 11 68 73 3f 65 ea 66 3f 0a 7a 77 3f d4 e8 76 3f
       0.9508067 0.9020141 0.9667059 0.9644902
0000e0 2b 33 65 3f f6 77 86 3f 97 6c 6b 3f 71 85 3b 3f
       0.895312 1.0505359 0.9196257 0.7325049
0000f0 91 f4 42 3f b0 97 5d 3f a7 80 5f 3f be 39 96 3f
       0.7615443 0.8655958 0.8730568 1.1736372
000100 4f 07 6c 3f a4 f5 84 3f 66 b9 5f 3f 99 0c 91 3f
       0.9219865 1.0387464 0.8739227 1.133197
000110 ea d6 90 3f 8a d9 69 3f 3a 2f 94 3f 29 3d 43 3f
       1.1315587 0.91347563 1.1576912 0.762652
000120 ef 35 62 3f 8e 86 5d 3f 22 0b 51 3f 7f 39 84 3f
       0.88363546 0.8653344 0.8165761 1.0330046
000130 4b 92 78 3f c0 16 5e 3f ba c1 83 3f 1f 9b 3f 3f
       0.97098225 0.86753464 1.0293496 0.7484607

classifier.5.bias f4 [80]
000000 bb 63 88 be 4c b4 03 be 7e b9 a0 be ff 38 05 bf
       -0.26638588 -0.12861747 -0.3139152 -0.52040094
000010 3d d1 1e bf f2 93 83 be 76 e6 96 be 77 80 43 bd
       -0.6203802 -0.2569881 -0.29472703 -0.047729935
000020 dd 1c a7 be bd 08 cc be 4d 38 77 be 03 a8 b9 be
       -0.32639208 -0.39850417 -0.24142571 -0.36260995
000030 ef 0c dc be cc 00 02 bf cf 52 0b be e9 89 66 be
       -0.42978618 -0.50782466 -0.13605808 -0.22513546
000040 6a 01 bc be 00 29 85 be 1c 15 7b be 2d e2 41 be
       -0.3671983 -0.26007843 -0.24519771 -0.18933935
000050 6c 10 2b bf 09 3f a5 be b1 b6 23 bf 3d e7 f0 be
       -0.6682193 -0.32274655 -0.6395064 -0.4705142
000060 43 ab cf be 6e 68 b2 be aa 32 2d be b1 71 9e be
       -0.4056035 -0.348453 -0.16913858 -0.30946115
000070 23 f5 57 be 0f 71 01 bf fe bc 85 bd ea 2f 1e bf
       -0.21089606 -0.5056314 -0.06530188 -0.6179186
000080 de 0e eb bd d2 a3 1c be 76 c0 da be bf 00 85 be
       -0.11477445 -0.15296867 -0.4272496 -0.25977132
000090 a1 b6 23 be 72 11 d8 be 5b 4a 15 bf 9a c9 74 be
       -0.15987636 -0.4220081 -0.5831658 -0.2390503
0000a0 fe e4 f4 be 21 28 81 be 22 d7 0c be 22 cc cb be
       -0.47830957 -0.25225928 -0.13753942 -0.39804178
0000b0 61 06 0a be 39 a1 8a be 25 54 8d be 48 71 aa be
       -0.13478996 -0.27076128 -0.2760326 -0.33289552
0000c0 27 1e c6 bd 57 38 e3 bd 7d dd a7 be b2 6b 67 be
       -0.0967372 -0.1109473 -0.3278617 -0.22599676
0000d0 9d a0 33 be 15 db ab be 5b de 86 be de cf 77 be
       -0.17541738 -0.33565584 -0.2634152 -0.24200389
0000e0 8f 65 0b bf 33 f3 6c be f9 c4 9f be e3 49 b3 be
       -0.5445184 -0.23139648 -0.31204966 -0.3501731
0000f0 2f 74 ec bd c9 44 b3 be b1 ef 71 be 0c 3b ce bd
       -0.11545598 -0.35013416 -0.23626591 -0.10069856
000100 64 b2 a3 be 8a ba 49 bf 5f 82 9b be 91 c8 0e be
       -0.3197204 -0.7880026 -0.30372903 -0.13943698
000110 0a d8 81 bd 76 c9 91 be 3d 68 97 bd 2d f1 81 be
       -0.06340034 -0.28474015 -0.07392929 -0.25379315
000120 e9 e6 ac be 17 d5 9b be 1e 0a cc bd 40 f1 84 be
       -0.3376992 -0.30436012 -0.09962867 -0.2596531
000130 9d e3 b3 be 84 a7 12 be 75 71 5e be 6d 54 ca be
       -0.35134593 -0.14321715 -0.21722968 -0.39517537

classifier.5.running_mean f4 [80]
000000 db f2 b8 bf ac ae cf bf 29 ad c8 bf 20 e5 c4 bf
       -1.4449114 -1.6225181 -1.5677844 -1.5382423
000010 6c 46 a8 3d 41 4c 6d bf e4 73 9b 3e a3 ee 48 3e
       0.08216557 -0.9269448 0.30361855 0.19622283
000020 44 c4 4c bf 86 f8 2a bf 54 29 64 bf 64 d5 8e be
       -0.7998698 -0.66785467 -0.8912556 -0.2789718
000030 38 88 88 bf e0 49 3c bf 72 f2 c5 bf ac 81 65 bf
       -1.0666571 -0.73550224 -1.5464613 -0.8965099
000040 00 38 26 3e 7b 47 3c bf 62 30 d7 be 46 dc 16 bf
       0.162323 -0.7354657 -0.420291 -0.5892986
000050 98 70 c8 be 02 d0 83 bf 8c 26 0d be 41 f8 00 be
       -0.39148402 -1.0297854 -0.13784236 -0.12594701
000060 0d 68 09 bf 27 dc d6 bf 29 6a ff be 5a 0c 15 bf
       -0.53674394 -1.6785935 -0.4988568 -0.5822197
000070 e5 d9 f2 be a6 bd 79 bf 1f 3a 42 bf 4a 71 7a bf
       -0.47431865 -0.97555006 -0.75869936 -0.97829115
000080 a1 01 f0 be 30 13 d8 bf bd af 20 be 4b 25 0b bf
       -0.46876243 -1.6880856 -0.15692039 -0.5435378
000090 76 de 1c bf a8 eb 04 be 99 37 1e bf dd e2 a7 bf
       -0.6127695 -0.1298052 -0.61803585 -1.3116108
0000a0 10 ea d7 be 5c b9 a3 bf 61 03 40 bf 92 61 8d be
       -0.42170763 -1.2790942 -0.75005156 -0.27613503
0000b0 6c 2e 3f bf 20 a7 86 bf 76 cb 67 bf ba 64 19 bf
       -0.7468021 -1.0519753 -0.9054483 -0.5991932
0000c0 ee ef 8f be 2d 2b dd be 60 94 6e 3e 2e b4 52 bf
       -0.2811274 -0.43197003 0.23298788 -0.8230618
0000d0 9e ad 1d bf e0 a4 e0 3d ff bb 8e bf 87 c3 ee bf
       -0.61593044 0.109689474 -1.1151122 -1.865342
0000e0 d1 30 5e bf db 68 d3 bf 7e cf 68 be fa 34 cd bf
       -0.8679324 -1.6516374 -0.22735402 -1.6031792
0000f0 33 de 52 bc ea 00 da be 65 ff 87 bf b4 9c 8e bf
       -0.012870359 -0.42578822 -1.0624815 -1.1141572
000100 a2 99 ad bf 62 0e 1b bf ba f2 d9 be 0d 09 fe bf
       -1.356251 -0.6056882 -0.42567998 -1.9846512
000110 22 fc d9 bf 56 ca 6e bf 06 41 03 c0 0a bd f7 bd
       -1.703007 -0.9327749 -2.0508437 -0.12096603
000120 b7 23 20 bf b4 b2 cd bf 88 df fe 3c 32 a0 b9 bf
       -0.62554497 -1.6070161 0.031112447 -1.4502013
000130 70 76 6f bf b3 93 ea be c3 f3 cf bf c2 8f d5 be
       -0.93540096 -0.4581581 -1.6246265 -0.4171124

classifier.5.running_var f4 [80]
000000 fd 0e c6 3f 8b 41 33 40 b5 8f 29 40 b0 63 c4 3f
       1.5473324 2.8008754 2.6493962 1.5342922
000010 76 5c 3a 3f f7 55 08 40 20 5c b9 3f b6 a4 aa 3f
       0.72797334 2.1302469 1.4481239 1.3331516
000020 5b e8 db 3f 63 e5 bf 3f 12 49 08 40 f0 de 01 40
       1.7180284 1.4991878 2.1294599 2.029232
000030 dc 24 05 40 27 f6 10 40 ee da 3c 40 c9 8b 06 40
       2.0803747 2.265024 2.9508624 2.1022818
000040 c6 27 a9 3f 62 e1 b5 3f ae 2f d8 3f 28 3a e9 3f
       1.3215263 1.4209406 1.6889551 1.8220873
000050 e4 90 4f 3f db 19 65 3f 98 fe bd 3f 6f 9a b4 3f
       0.8108046 0.8949258 1.4843321 1.4109629
000060 bf c4 2c 3f 82 be b6 3f a4 b6 97 3f 3f dd 1f 40
       0.6748771 1.4276888 1.1852612 2.4978788
000070 65 fa 34 40 05 00 8f 3f bb ea 85 3f 56 c1 d8 3f
       2.8277829 1.1171881 1.0462259 1.6934001
000080 53 a5 99 3f dd 2f 41 40 73 bf ad 3f 44 ad ee 3f
       1.2003578 3.0185463 1.3574051 1.8646626
000090 21 f5 da 3f 7c 72 e4 3f e8 5a 2a 3f 1e 72 c9 3f
       1.7106057 1.7847438 0.6654496 1.5737951
0000a0 ae 36 fd 3f 1a 83 f5 3f 50 f7 07 40 d5 0d b0 3f
       1.9782312 1.9180634 2.1244698 1.3754221
0000b0 30 37 b1 3f 92 c4 c8 3f f3 b1 f6 3f 4c 35 fc 3f
       1.3844967 1.5684988 1.9273056 1.9703765
0000c0 6f 5a d6 3f 3f 0a ac 3f 70 9d 9e 3f d9 5e 11 40
       1.6746348 1.3440627 1.2391796 2.271414
0000d0 a1 2d 3b 40 19 3a ac 3f 10 48 37 40 11 5f 14 40
       2.92466 1.345523 2.8637733 2.3183024
0000e0 6a d5 5b 3f 63 6d 0b 40 04 e5 ec 3f 2f 9a 57 3f
       0.8587252 2.1785514 1.850739 0.8421964
0000f0 0d ad 17 40 1b c5 34 40 b8 65 b8 3f 74 16 30 40
       2.3699372 2.8245304 1.4406042 2.7513704
000100 56 ce f8 3f a2 b6 b2 3f c5 40 03 40 e5 c7 1a 40
       1.9437969 1.3961985 2.0508282 2.4184506
000110 7d 17 6d 40 8c fb c1 3f 0f b5 73 40 42 c9 ee 3f
       3.7045586 1.5154891 3.807926 1.8655169
000120 ee 2e 38 40 67 c4 11 40 36 89 ab 3f 5a 84 b0 3f
       2.8778644 2.2776124 1.3401248 1.379039
000130 15 70 17 40 fc e2 10 40 a0 82 1c 40 a6 fa c2 3f
       2.366216 2.263854 2.4454727 1.5232742
