ckpt/MAP_CAM/3/best_loss_BEST1.ckpt (torch, 205600 bytes, 19 tensors)

classifier.0.weight f4 [120, 36]
0	0xbda2db04	-0.0795193
1	0xbdae2825	-0.08503751
2	0x3d1a0e47	0.037611272
3	0xbe3d99db	-0.18515722
4	0x3d30b476	0.04314085
5	0x3cbcca63	0.023045724
6	0xbdb3c396	-0.087775394
7	0xbd6c29c4	-0.05765702
8	0x3e04e11f	0.12976502
9	0x3c9b0740	0.018924356
10	0x3e29ff7a	0.16601363
11	0xbe3c6f4f	-0.18401836
12	0xbdfd3725	-0.123640336
13	0x3c9495a1	0.018137755
14	0xbd62bc5b	-0.05535541
15	0x3dd3305a	0.10311957
16	0xbe3002d0	-0.17188573
17	0xbe7008b5	-0.23440821
18	0x3b1b3f0b	0.00236887
19	0xbe329b73	-0.17442112
20	0xbf0244a4	-0.5088599
21	0xbdec5ac6	-0.11540751
22	0xbd403f5b	-0.04693542
23	0x3d8270b9	0.063691564
24	0x3d9c1e58	0.07622975
25	0x3ef1638e	0.47146267
26	0xbe069f9c	-0.13146824
27	0x3d1e0286	0.038576625
28	0x3deb1e5e	0.114804015
29	0x3d8a6af1	0.06758679
30	0xbea65898	-0.32489467
31	0x3dd05eb5	0.10174314
32	0xbde4b2fe	-0.111669526
33	0x3bc2670c	0.0059326943
34	0xbe87d85e	-0.26532263
35	0x3e583692	0.21114567
36	0x3d9048a1	0.07045103
37	0xbd11a61f	-0.035558816
38	0x3e026ad9	0.12736072
39	0x39e9ad9d	0.00044570575
40	0x3e0d8784	0.13821226
41	0x3d4fed27	0.050763275
42	0xbd28e258	-0.041231483
43	0xbcf89a10	-0.0303469
44	0xbe208322	-0.15675023
45	0xbb4fd4d8	-0.0031712558
46	0x3d6af281	0.057360176
47	0x3c8170f7	0.015800936
48	0x3e3753e1	0.17903091
49	0x3da1825d	0.07886193
50	0x3dd59cc1	0.10430289
51	0xbb30bfef	-0.002696987
52	0xbda731db	-0.08163806
53	0x3d8b7eaa	0.06811269
54	0xbe25652b	-0.16151874
55	0x3e18d250	0.14923978
56	0xbe922606	-0.28544635
57	0xbe104b45	-0.14091213
58	0xbe553eec	-0.20824784
59	0x3ba49cfe	0.0050235977
60	0x3e15c2c2	0.14625075
61	0x3d82892d	0.063738205
62	0x3c0c39a1	0.008558662
63	0x3cb13902	0.021633629
64	0x3d623006	0.05522158
65	0xbe266908	-0.16251004
66	0x3e3a5727	0.18197308
67	0x3e66cae2	0.22538331
68	0xbe5b3c58	-0.21409738
69	0x3da95aa5	0.08269242
70	0xbd11a809	-0.03556064
71	0xbe4c413a	-0.19946757
72	0xbe27be99	-0.16381301
73	0xbdae7abe	-0.08519505
74	0xbb734541	-0.0037120136
75	0x3cbc8631	0.023013206
76	0xbdc965e4	-0.09833887
77	0xbe0575d9	-0.13033237
78	0xbdabc53f	-0.08387231
79	0xbe248608	-0.16066754
80	0x3dd1055a	0.10206099
81	0x3d17ef64	0.037093535
82	0x3d37cd69	0.04487363
83	0x3e6b16e4	0.22957951
84	0x3dc19b4d	0.094534494
85	0x3e137879	0.14401425
86	0xbdc456bf	-0.09586858
87	0xbc16a2fb	-0.009194131
88	0x3e1c44fe	0.15260693
89	0x3cef8d17	0.029242082
90	0x3d8875f6	0.06663124
91	0x3cc20dc2	0.0236882
92	0xbeca479a	-0.39507753
93	0xbe37da8c	-0.17954463
94	0x3b2eb76c	0.002665962
95	0x3dc24c8c	0.094872564
96	0xbdcbff3e	-0.09960793
97	0x3e16f2e8	0.14741099
98	0x3db131fd	0.08652113
99	0xbc9ac41d	-0.018892342
100	0x3dfe85c4	0.124278575
101	0xbd4f3f4d	-0.050597478
102	0x3d1fd6a3	0.039023053
103	0x3dcea8d3	0.100907944
104	0xbe0f14ae	-0.13972732
105	0x3dc0f441	0.09421588
106	0xbe074055	-0.13208134
107	0xbe53311e	-0.20624205
108	0xbbfe70c8	-0.0077649094
109	0xbe09e692	-0.13466862
110	0x3d08f87a	0.03344009
111	0xbdd9e795	-0.10639874
112	0x3dc7ac9a	0.09749718
113	0xbe1f8430	-0.1557777
114	0xbdfdd0ff	-0.123933785
115	0x3ceb6c38	0.028738126
116	0xbd2a4838	-0.04157278
117	0x3d2468ef	0.040139135
118	0x3d53c068	0.051697165
119	0x3d56c820	0.052436948
120	0x3cd810a6	0.026375126
121	0x3db4ec47	0.08834129
122	0x3d2308fc	0.03980349
123	0xbdaa3464	-0.08310774
124	0x3e589def	0.21153997
125	0x3cbd040c	0.023073219
126	0xbd035be9	-0.032070074
127	0xbd813d77	-0.063105516
128	0x3e235e38	0.1595391
129	0x3dbac953	0.09120431
130	0xbddfb91c	-0.10923979
131	0xbd0b82fd	-0.034060467
132	0x3e01d71f	0.12679718
133	0x3ea4bb84	0.32174313
134	0xbb9956fa	-0.004679558
135	0x3decb7c1	0.11558486
136	0x3dda7936	0.106676504
137	0x3d837f0c	0.06420717
138	0x3e86c5dd	0.26322833
139	0x3e03314e	0.12811777
140	0xbe10c310	-0.1413691
141	0x3e3a4d7e	0.18193623
142	0xbe88e498	-0.26736903
143	0x3dd5cb15	0.104391254
144	0x3de4835e	0.11157869
145	0x3da2b7e4	0.079452306
146	0x3d881824	0.066452295
147	0x3dda4188	0.1065703
148	0x3e672c83	0.22575574
149	0xbe0f0f5d	-0.13970704
150	0xbdcfd6c0	-0.10148382
151	0x3c9f1ec7	0.019423855
152	0xbbc44d40	-0.005990654
153	0x3deaf6f3	0.11472883
154	0xbe0fe686	-0.14052781
155	0xbdde14d1	-0.10843814
156	0xbe202b2b	-0.15641467
157	0xbd9ec923	-0.077532075
158	0x3d86cb0c	0.06581697
159	0xbeb25416	-0.34829777
160	0xbd38dae8	-0.04513064
161	0x3dc15a7d	0.094410874
162	0xbd5b18aa	-0.05349032
163	0x3dcb3491	0.099221356
164	0xbd11b3eb	-0.035571974
165	0xbde57ca9	-0.11205418
166	0x3b1d7051	0.0024023245
167	0x3e158aec	0.14603776
168	0x3d570c50	0.052501976
169	0xbe1971b6	-0.14984784
170	0x3dc8b032	0.097992316
171	0xbde1f5fc	-0.11033246
172	0xbe0ee0ca	-0.13952938
173	0xbdbd5017	-0.092437916
174	0x3e01f7cf	0.12692188
175	0x3d360acc	0.04444389
176	0x3e10c180	0.14136314
177	0x3b32bbc9	0.0027272573
178	0xbe679a3a	-0.22617427
179	0x3d624333	0.055239867
180	0x3dd1915f	0.102328055
181	0xbdbb1e61	-0.09136654
182	0xbdb843e5	-0.08997325
183	0xbc91f496	-0.017816823
184	0x3d4e667b	0.0503907
185	0x3e1611ea	0.14655271
186	0x3e761739	0.24032296
187	0x3d65decb	0.056120675
188	0x3dec6715	0.11543099
189	0xbc9b5d2e	-0.01896533
190	0xbe75014a	-0.23926273
191	0xbd746f76	-0.05967661
192	0x3df70218	0.12060946
193	0xbe86bedc	-0.2631749
194	0xbd431ae1	-0.047633056
195	0xbd2e9f3d	-0.04263233
196	0xbe4642ed	-0.19361468
197	0x3d81a33e	0.06329964
198	0xbe7a88cd	-0.24466248
199	0xbe84b4f1	-0.25919297
200	0x3ed92128	0.4240811
201	0x3e26c12c	0.16284627
202	0x3e54a948	0.207677
203	0xbe35a75c	-0.17739624
204	0xbe0ce32a	-0.13758531
205	0xbdb8d99b	-0.0902588
206	0x3d6ed7d0	0.058311284
207	0xbd74aa3a	-0.059732653
208	0x3c593665	0.013257598
209	0x3e28a13d	0.16467758
210	0xbcfdafd6	-0.030967634
211	0x3d859650	0.065228105
212	0x3c4a687d	0.0123540135
213	0x3ccfdb66	0.025373172
214	0x3d985241	0.07437564
215	0x3d166b2e	0.03672331
216	0x3e1f7fac	0.15576047
217	0x3cd7cdab	0.026343187
218	0xbd56e3b6	-0.052463256
219	0x3e7f9a94	0.2496131
220	0xbd965bea	-0.0734175
221	0x3e16f326	0.14741191
222	0x3e26db40	0.16294575
223	0xbdf46c5c	-0.119347304
224	0x3d80d7d8	0.06291169
225	0xbd15b659	-0.036550853
226	0x3dc897d7	0.09794586
227	0xbe2919e4	-0.16513783
228	0xbc8bda9a	-0.01707201
229	0xbe5cf651	-0.21578337
230	0xbe18e4df	-0.14931057
231	0xbde8d9fd	-0.11369703
232	0x3d81c8fb	0.06337162
233	0xbd5d1fa5	-0.053985257
234	0x3e977dd6	0.29588193
235	0x3d8b517c	0.06802651
236	0x3df95870	0.12175071
237	0x3e006122	0.12537053
238	0x3e0bdb20	0.13657808
239	0xbdbc94bb	-0.092080556
240	0x3b9eee2b	0.004850169
241	0x3e8fdd24	0.28098404
242	0x3e285b9e	0.16441199
243	0x3dbbb58b	0.09165486
244	0xbd49d4de	-0.04927527
245	0x3de05a90	0.109547734
246	0xbe0cc9fe	-0.13748929
247	0x3de4e01d	0.11175559
248	0x3c6f2331	0.014595793
249	0x3e114aa1	0.14188625
250	0x3d1cdaeb	0.038294714
251	0x3e2210c6	0.15826711
252	0x3d42c158	0.04754767
253	0x3e28adb4	0.16472512
254	0x3e38f565	0.1806236
255	0x3cb2e2be	0.021836635

classifier.0.bias f4 [120]
0	0xbd20c702	-0.03925229
1	0xbd97eaf3	-0.0741786
2	0xbcec5ef6	-0.028853875
3	0xbe45b3bf	-0.19306849
4	0x3ca6dd46	0.020369183
5	0xbe394244	-0.18091685
6	0x3d71964c	0.058981225
7	0x3d16468c	0.036688372
8	0xbda2f84e	-0.079575166
9	0xbc89b7e5	-0.01681132
10	0x3e4820ea	0.19543806
11	0x3d8898ab	0.06669744
12	0xbc91949b	-0.017771056
13	0x3db0cf9d	0.08633349
14	0xbc44bf3e	-0.012008486
15	0xbd18d119	-0.037308786
16	0xbd465838	-0.048423976
17	0xbe1d8910	-0.15384316
18	0xbcc5c64a	-0.024142403
19	0x3dd40e86	0.103543326
20	0xbe2eeaa3	-0.17081694
21	0x3e0086fd	0.12551494
22	0x3c671b8b	0.014105688
23	0xbe63e646	-0.22255811
24	0x3e329119	0.17438163
25	0xbe35f417	-0.17768894
26	0xbdaaa768	-0.083327115
27	0x3d4ca510	0.049962103
28	0x3ce9280c	0.028461479
29	0xbe13027d	-0.14356418
30	0x3c11c57f	0.008897184
31	0xbd0397d0	-0.0321272
32	0x3e31e2e1	0.17371704
33	0xbc6544b4	-0.013993431
34	0xbcb3e5ea	-0.021960218
35	0xbd3e33e8	-0.04643622
36	0xbd961912	-0.073290005
37	0x3e0abaa4	0.1354776
38	0x3d283f38	0.041075915
39	0xbe34a197	-0.17639767
40	0x3e13ec3b	0.14445584
41	0x3e119322	0.14216283
42	0xbdaafaf9	-0.083486505
43	0xbd1e5d8d	-0.038663436
44	0xbe082e9a	-0.13299027
45	0xbd487ec4	-0.048949018
46	0xbe4a31d3	-0.19745569
47	0xbdb8efb4	-0.09030095
48	0x3e0843a0	0.13307047
49	0xbd24881c	-0.040168867
50	0x3dd58d78	0.10427374
51	0xbe3093d8	-0.17243898
52	0x3d9b436f	0.07581221
53	0xbde86372	-0.11347093
54	0xbe120766	-0.14260635
55	0xbde6dca1	-0.112725504
56	0x3e56848e	0.20949003
57	0x3dcb8e17	0.09939211
58	0xbe2efe25	-0.17089136
59	0x3ca2a431	0.019853683
60	0x3d2e1f98	0.0425106
61	0xbdc49d77	-0.096003465
62	0x3d7d953a	0.06190989
63	0xbe094cad	-0.13408156
64	0x3de3e5e9	0.11127836
65	0x3dc8cab1	0.09804285
66	0x3ce16cdc	0.027517729
67	0xbdc7af4b	-0.09750231
68	0xbdbae71d	-0.091261126
69	0xbb9b20cd	-0.004734135
70	0x3d932b9a	0.07186051
71	0x3e3d24f5	0.18471129
72	0xbd1a3f07	-0.037657764
73	0xbda173fc	-0.078834504
74	0x3e3c7eeb	0.1840779
75	0xbdfcd1ae	-0.12344681
76	0x3d0bdadd	0.03414427
77	0x3e8397ab	0.2570165
78	0x3e681e7b	0.22667877
79	0xbd60f993	-0.054925513
80	0xbd5bdf4b	-0.053679746
81	0x3e0c30fd	0.13690563
82	0xbe26a025	-0.16272028
83	0xbd5acf68	-0.053420454
84	0xbd8cacb7	-0.0686888
85	0x3d36a865	0.044594187
86	0x3d598f6a	0.053115286
87	0xbe09e52f	-0.13466333
88	0xbdb7dbd1	-0.089774735
89	0xbd98f512	-0.074686185
90	0xbc79f0ab	-0.015255134
91	0x3dee7560	0.11643481
92	0xbe53c211	-0.20679499
93	0x3c8d261d	0.017230088
94	0x3d6ea780	0.05826521
95	0x3e01f3a9	0.12690605
96	0xbd631389	-0.055438552
97	0x3d8701a8	0.06592113
98	0xbe5856c8	-0.21126854
99	0xbe2e9882	-0.17050365
100	0xbe1113f7	-0.14167772
101	0xbe1e9d41	-0.15489675
102	0x3ddda91f	0.10823273
103	0xbd8fec9c	-0.070275515
104	0xbd24ed83	-0.04026557
105	0x3d267f34	0.040648654
106	0xbd0f46b3	-0.034979533
107	0xbd99007e	-0.07470797
108	0xbe056609	-0.13027205
109	0xbd229546	-0.03969314
110	0x3e1a04fa	0.15040961
111	0x3caa02fb	0.020753374
112	0xbda40ce1	-0.08010269
113	0xbd0515d5	-0.032491524
114	0x3dd9c2db	0.10632869
115	0x3d891a99	0.06694526
116	0x3db64906	0.08900647
117	0xbd2882fe	-0.04114055
118	0x3e084a9a	0.13309708
119	0xbbc299e1	-0.005938754

classifier.1.weight f4 [120]
0	0x3f8922f4	1.0713792
1	0x3f736a5f	0.95084184
2	0x3f52d8d6	0.82362115
3	0x3f748bba	0.95525706
4	0x3f5e5fae	0.86864746
5	0x3f7360fd	0.9506987
6	0x3f8128ee	1.0090616
7	0x3f65a654	0.8970692
8	0x3f788907	0.9708409
9	0x3f6decdf	0.9293956
10	0x3f632020	0.88720894
11	0x3f83ef09	1.0307323
12	0x3f4dab60	0.8033962
13	0x3f6b74a9	0.91974884
14	0x3f48dd61	0.784628
15	0x3f85df4e	1.0458772
16	0x3f6125eb	0.87948483
17	0x3f6b707f	0.9196853
18	0x3f4e8b2e	0.8068112
19	0x3f6be95e	0.92152965
20	0x3f807bd5	1.003779
21	0x3f6396aa	0.8890177
22	0x3f64ad8e	0.89327323
23	0x3f538ecf	0.82639784
24	0x3f55c6cf	0.8350648
25	0x3f87f572	1.0621779
26	0x3f707123	0.9392263
27	0x3f59f286	0.85135686
28	0x3f748bb5	0.95525676
29	0x3f6439f4	0.8915093
30	0x3f62f004	0.88647485
31	0x3f63f98a	0.8905264
32	0x3f82af26	1.0209701
33	0x3f79bb59	0.97551495
34	0x3f885b99	1.0652953
35	0x3f6e9bbb	0.93206376
36	0x3f695138	0.91139555
37	0x3f7ccc9a	0.987497
38	0x3f6fcd21	0.93672377
39	0x3f86c95e	1.0530202
40	0x3f54f4e7	0.8318619
41	0x3f727b8e	0.9471978
42	0x3f7e6844	0.99377847
43	0x3f571d9b	0.8402955
44	0x3f85786f	1.0427378
45	0x3f7c73ae	0.98614013
46	0x3f803840	1.0017166
47	0x3f51bedf	0.8193187
48	0x3f77a79e	0.9674014
49	0x3f597fb7	0.849605
50	0x3f5931c2	0.8484155
51	0x3f64eb18	0.89421225
52	0x3f73e495	0.95270663
53	0x3f6bf74d	0.92174226
54	0x3f682e3e	0.9069556
55	0x3f3c4904	0.73548913
56	0x3f73de5f	0.95261186
57	0x3f67752f	0.9041318
58	0x3f7e4c16	0.9933485
59	0x3f6eccfc	0.9328153
60	0x3f3eb942	0.7450143
61	0x3f827c1d	1.0194126
62	0x3f7c742a	0.9861475
63	0x3f6a9d1a	0.9164597
64	0x3f7198bc	0.9437368
65	0x3f70e56b	0.94100064
66	0x3f79b4f6	0.9754175
67	0x3f8aa7ef	1.0832499
68	0x3f68760c	0.90805125
69	0x3f79c8ee	0.9757222
70	0x3f6fac25	0.93622047
71	0x3f74895f	0.9552211
72	0x3f7c67be	0.985958
73	0x3f7d87e1	0.9903546
74	0x3f7a0089	0.97657067
75	0x3f546a97	0.82975143
76	0x3f770389	0.9648977
77	0x3f479f24	0.77977204
78	0x3f7b116f	0.98073477
79	0x3f42cb5b	0.76091546
80	0x3f52f6bf	0.82407755
81	0x3f80c4ed	1.0060097
82	0x3f665348	0.8997083
83	0x3f802a30	1.0012875
84	0x3f804bc5	1.0023123
85	0x3f69cd41	0.9132882
86	0x3f766bd5	0.9625829
87	0x3f541066	0.8283752
88	0x3f88bd5f	1.0682791
89	0x3f689092	0.90845597
90	0x3f8c3298	1.095294
91	0x3f77dd98	0.968225
92	0x3f7b6646	0.9820293
93	0x3f722df3	0.9460136
94	0x3f900a20	1.125309
95	0x3f6e835f	0.93169206
96	0x3f6a3297	0.91483444
97	0x3f8c035b	1.0938524
98	0x3f81d983	1.0144504
99	0x3f79eaf0	0.9762411
100	0x3f764fcd	0.96215516
101	0x3f5ecc7b	0.8703076
102	0x3f79145e	0.972967
103	0x3f8b17bb	1.0866617
104	0x3f4565a7	0.77108234
105	0x3f6ff2be	0.9372977
106	0x3f8171a2	1.0112803
107	0x3f4a1b6e	0.78948104
108	0x3f5a8906	0.8536533
109	0x3f4fbcba	0.8114735
110	0x3f5fb143	0.87379855
111	0x3f66fb6f	0.9022741
112	0x3f848a22	1.0354655
113	0x3f68b44a	0.909001
114	0x3f54277d	0.82872754
115	0x3f888c41	1.0667802
116	0x3f72f28c	0.9490135
117	0x3f800689	1.0001994
118	0x3f649548	0.89290285
119	0x3f7e6022	0.9936544

classifier.1.bias f4 [120]
0	0xbf0d4ab7	-0.5519213
1	0xbe603cae	-0.21898147
2	0xbe709cab	-0.23497264
3	0xbe47d6cc	-0.19515532
4	0xbe7c940c	-0.2466585
5	0xbe96dee8	-0.2946694
6	0xbeb7f057	-0.35925552
7	0xbee0e473	-0.43924293
8	0xbe72324f	-0.23652004
9	0xbeb075aa	-0.3446477
10	0xbe73a30f	-0.2379267
11	0xbea85d3e	-0.32883638
12	0xbe8a2f83	-0.26989374
13	0xbe29cc15	-0.16581757
14	0xbe4516d8	-0.19246995
15	0xbed8872f	-0.42290637
16	0xbe8165ab	-0.2527288
17	0xbee1dcfb	-0.44113907
18	0xbe9987d8	-0.29986453
19	0xbe72e5d3	-0.23720483
20	0xbe5a2090	-0.21301484
21	0xbe8a6f0d	-0.2703785
22	0xbeaf0b9e	-0.3418855
23	0xbe714451	-0.23561217
24	0xbe902d70	-0.28159666
25	0xbed98971	-0.42487672
26	0xbe9cb999	-0.3061035
27	0xbf0270fd	-0.50953656
28	0xbed3b1c2	-0.41346556
29	0xbea97c5d	-0.33102694
30	0xbe7c6c39	-0.24650659
31	0xbea62dea	-0.32456905
32	0xbe9ba342	-0.30397993
33	0xbe86a2b8	-0.2629602
34	0xbed5193f	-0.41620824
35	0xbe73949e	-0.23787162
36	0xbe87bdc6	-0.26511973
37	0xbe3372f8	-0.17524326
38	0xbdcd5188	-0.100253165
39	0xbef6f04c	-0.48230207
40	0xbe2a0d01	-0.16606523
41	0xbeae726e	-0.34071678
42	0xbea5fd34	-0.3241974
43	0xbed7a711	-0.4211965
44	0xbe8aebbd	-0.2713298
45	0xbec08d65	-0.37607875
46	0xbe9d73ea	-0.30752498
47	0xbe530474	-0.20607167
48	0xbeae8715	-0.34087434
49	0xbf06349a	-0.52424014
50	0xbec2ecef	-0.3807139
51	0xbea785bb	-0.32719216
52	0xbea18706	-0.31548327
53	0xbf18af77	-0.5964274
54	0xbe27b6c7	-0.16378318
55	0xbe981734	-0.29705203
56	0xbed8336a	-0.42226726
57	0xbe260de3	-0.16216235
58	0xbea6398f	-0.3246579
59	0xbe64df63	-0.2235084
60	0xbe8e1055	-0.27746835
61	0xbe0d4d55	-0.13799031
62	0xbecfc90f	-0.40583083
63	0xbee04a07	-0.43806478
64	0xbead2657	-0.33818313
65	0xbe7819a9	-0.24228539
66	0xbe88741e	-0.2665109
67	0xbee73ab6	-0.4516198
68	0xbf01fa8a	-0.5077292
69	0xbe492ed2	-0.19646767
70	0xbeb0f5b2	-0.3456245
71	0xbe7fa7f3	-0.24966411
72	0xbecc7f48	-0.39940858
73	0xbe422dae	-0.18962738
74	0xbe960dfa	-0.29307538
75	0xbeac3930	-0.3363738
76	0xbea0b349	-0.31386784
77	0xbebfe007	-0.37475607
78	0xbe959c19	-0.29220656
79	0xbe6e8fd5	-0.23297055
80	0xbec6f32d	-0.38857403
81	0xbebda15d	-0.37037173
82	0xbe5f6029	-0.21814026
83	0xbe65e7ee	-0.22451755
84	0xbe35532f	-0.17707513
85	0xbeebfdd5	-0.46092096
86	0xbeb95414	-0.3619696
87	0xbe9e881b	-0.30963215
88	0xbe28f697	-0.16500317
89	0xbef03f4f	-0.469233
90	0xbe91ca21	-0.28474525
91	0xbeb8e798	-0.36114192
92	0xbda4aad8	-0.08040398
93	0xbec46659	-0.38359335
94	0xbeddea53	-0.43342838
95	0xbef8b5ff	-0.48576352
96	0xbe258ae3	-0.16166262
97	0xbe8e3d78	-0.27781272
98	0xbec829de	-0.39094442
99	0xbe15e525	-0.14638193
100	0xbe067450	-0.13130307
101	0xbe48ec1d	-0.1962132
102	0xbef756eb	-0.483085
103	0xbeefe232	-0.4685226
104	0xbe4d37ef	-0.20040868
105	0xbe7bbd7e	-0.24584004
106	0xbee29964	-0.44257653
107	0xbf13f4cd	-0.5779541
108	0xbee3891c	-0.44440544
109	0xbe5abb4e	-0.21360514
110	0xbec73621	-0.38908485
111	0xbeba3ea7	-0.36375925
112	0xbe94c6ae	-0.2905783
113	0xbec61588	-0.38688302
114	0xbe9bb073	-0.30408058
115	0xbf276bad	-0.65398675
116	0xbe9b7ac7	-0.3036711
117	0xbe61d849	-0.22055162
118	0xbe9c280a	-0.30499297
119	0xbf29ba81	-0.6630021

classifier.1.running_mean f4 [120]
0	0xbdf19fa9	-0.11798031
1	0x3d3cd9b4	0.046106055
2	0xbe19230f	-0.1495478
3	0xbdc4fca9	-0.096185036
4	0xbdb5c613	-0.0887567
5	0xbe28f318	-0.16498983
6	0x3e3dc7e7	0.18533288
7	0xbd1371d0	-0.035997212
8	0xbc39649d	-0.011315492
9	0x3c8b48eb	0.017002543
10	0x3d970ae5	0.07375125
11	0x3bd96957	0.006634872
12	0xbdc6fb6c	-0.09715924
13	0x3d9e4a0e	0.077289686
14	0xbe11d599	-0.14241637
15	0x3c765bab	0.015036504
16	0x3c7ac9ea	0.015306929
17	0xbe820df2	-0.25401264
18	0x3d8eb526	0.06968145
19	0xbb907484	-0.004408421
20	0xbe16227a	-0.1466159
21	0x3d383147	0.04496887
22	0x3e82fec5	0.25585
23	0xbdbc90e4	-0.09207323
24	0x3e2fc12f	0.17163537
25	0xbe6d9b5e	-0.23203799
26	0xbc632745	-0.013864343
27	0x3cbd4d89	0.02310826
28	0x3de4e578	0.1117658
29	0xbc3c3a4b	-0.0114885075
30	0x3d8437e8	0.06455976
31	0x3b938bea	0.004502763
32	0x3e35c9b6	0.17752728
33	0x3db83572	0.08994569
34	0x3dc33133	0.095308684
35	0xbda67eb4	-0.081296355
36	0xbd457ff0	-0.048217714
37	0x3e98c97a	0.29841214
38	0x3c91071f	0.01770359
39	0xbd9f9b3e	-0.07793282
40	0x3de33e97	0.110959224
41	0x3e5d0900	0.21585464
42	0xbc40e129	-0.011772432
43	0x3d797698	0.060904115
44	0x3e251c91	0.16124178
45	0x3e2312f3	0.15925197
46	0xbd4ba22b	-0.049715202
47	0xbe4e290d	-0.20132847
48	0xbca77074	-0.020439364
49	0x3c8c3df3	0.017119383
50	0x3df9b12a	0.121919945
51	0xbddbac79	-0.10726256
52	0x3d86113c	0.06546256
53	0xbe0d4be4	-0.13798481
54	0xbcf5a76f	-0.029987065
55	0xbd16930c	-0.03676133
56	0x3e8c5d3c	0.27414882
57	0x3d87765c	0.06614372
58	0x3dc77595	0.09739224
59	0x3e6a78fb	0.22897713
60	0xbd4e00cb	-0.050293725
61	0x3d3ed9f9	0.046594594
62	0x3e30d4f6	0.17268738
63	0x3d9d9547	0.07694488
64	0x3e280879	0.16409482
65	0x3e859837	0.26092693
66	0x3dc1379e	0.09434436
67	0xbe008e6e	-0.12554333
68	0xbc42feb8	-0.01190155
69	0xbd4c7266	-0.049913786
70	0x3e1aa0de	0.15100428
71	0x3c62f132	0.013851451
72	0xbd9e4c68	-0.07729417
73	0xbe01adb0	-0.12663913
74	0x3ed9d112	0.4254232
75	0x3def44b1	0.11683024
76	0x3e168bb4	0.1470173
77	0x3d1fa091	0.038971487
78	0x3ee2743e	0.4422931
79	0xbe13650b	-0.14394014
80	0xbe0b26a6	-0.13588962
81	0x3d18458f	0.03717571
82	0xbabe5486	-0.001452104
83	0xbe000b48	-0.12504303
84	0x3c8fcad3	0.017552769
85	0x3e5a8f0f	0.21343635
86	0x3dc8cc45	0.09804586
87	0xbe66c150	-0.2253468
88	0xbe2d6410	-0.16932702
89	0xbe1c1c3c	-0.15245146
90	0x3d60bdfa	0.054868676
91	0x3eb64fb0	0.35607672
92	0xbda9c903	-0.08290293
93	0x3dca4587	0.098765425
94	0x3cc8e55e	0.024523433
95	0x3e550e7d	0.20806308
96	0xbd108562	-0.035283454
97	0x3e65ee2e	0.2245414
98	0xbd935c6a	-0.07195361
99	0xbe3079c3	-0.17233948
100	0x3c212224	0.0098348
101	0xbcb44bfa	-0.022008885
102	0x3e6898a4	0.22714478
103	0x3dc09921	0.09404207
104	0xbe56548c	-0.2093069
105	0x3e26f463	0.16304164
106	0x3e09a3c1	0.13441373
107	0x3d0305d9	0.031988
108	0xbd850e1a	-0.0649683
109	0xbd54fa5c	-0.051996574
110	0x3df79876	0.120896265
111	0x3e2e888b	0.17044275
112	0xbd8d0e4e	-0.06887494
113	0x3d9de12a	0.07708962
114	0xbdbb9ff7	-0.0916137
115	0xbd5f8eb1	-0.05457944
116	0x3b16f921	0.0023036676
117	0xbd4508aa	-0.048103966
118	0x3e4a3638	0.19747245
119	0x3b9840e3	0.004646407

classifier.1.running_var f4 [120]
0	0x3b13d504	0.0022557387
1	0x3bb536b1	0.0055302014
2	0x3b4bbc42	0.0031087552
3	0x3b5a5cc3	0.003331945
4	0x3ab677d0	0.0013921205
5	0x3b764e36	0.0037583238
6	0x3b9708f7	0.004609223
7	0x3aeba5cc	0.0017978488
8	0x3b0ed3d2	0.0021793735
9	0x3ac09f2e	0.0014695877
10	0x3b13203d	0.0022449635
11	0x3b043b1c	0.0020176833
12	0x3b75a4ca	0.0037482255
13	0x3ae06b05	0.0017121738
14	0x3b93e2be	0.0045131138
15	0x3b42c25c	0.0029717898
16	0x3b6b3176	0.0035887635
17	0x3b0d09e2	0.0021520783
18	0x3b6a817c	0.0035782745
19	0x3b10975a	0.0022062869
20	0x3b665bb5	0.0035149876
21	0x3b6f624a	0.003652709
22	0x3b053e40	0.0020331293
23	0x3b114ec3	0.002217219
24	0x3a7e9bc8	0.0009712544
25	0x3b49c2ac	0.00307862
26	0x3b4dd455	0.0031407077
27	0x3af5ee24	0.0018762988
28	0x3bd1e303	0.0064052357
29	0x3b85af31	0.0040797223
30	0x3af0384a	0.0018327322
31	0x3b4fb2f6	0.0031692362
32	0x3b348304	0.0027543912
33	0x3b79a0e7	0.003809029
34	0x3ae7c690	0.0017683078
35	0x3b305fd1	0.002691258
36	0x3b96124d	0.0045798183
37	0x3b462321	0.003023334
38	0x3acd7f77	0.0015678246
39	0x3b1420c5	0.002260254
40	0x3c0723a4	0.0082482435
41	0x3b7ab9ca	0.0038257712
42	0x3b1cc88a	0.0023923242
43	0x3bb36dcd	0.0054757358
44	0x3b83ca3e	0.004021912
45	0x3b42c8de	0.0029721777
46	0x3b0aaa2b	0.0021158557
47	0x3bd7a43b	0.006580857
48	0x3ae9d3ee	0.0017839649
49	0x3a9374b8	0.0011249995
50	0x3b5f3354	0.0034057694
51	0x3ae48f6d	0.0017437764
52	0x3b7115ea	0.0036786743
53	0x3a97a507	0.0011569568
54	0x3b34da22	0.0027595838
55	0x3b87982d	0.004138014
56	0x3a07ac19	0.0005175486
57	0x3b6e808f	0.0036392545
58	0x3b871b47	0.0041231248
59	0x3ae42774	0.0017406777
60	0x3b87c580	0.004143417
61	0x3b76920a	0.0037623667
62	0x3b5c8810	0.0033650436
63	0x3b54083d	0.0032353543
64	0x3b750fb5	0.0037393395
65	0x3b5bd863	0.0033545725
66	0x3a764bc6	0.00093954464
67	0x3b52189f	0.0032058132
68	0x3aeeff72	0.0018234088
69	0x3a457632	0.0007532566
70	0x3b1620b5	0.0022907679
71	0x3aee4c90	0.0018180776
72	0x3ae2d20b	0.0017305029
73	0x3bb65d99	0.005565357
74	0x3b821cdd	0.003970726
75	0x3ba2e39c	0.004970981
76	0x3b8029d5	0.0039112368
77	0x3b84fead	0.00405868
78	0x3b539bff	0.0032289026
79	0x3b11b2eb	0.0022231888
80	0x3b40cf8c	0.0029420583
81	0x3b046465	0.0020201441
82	0x3b6dc4c6	0.0036280616
83	0x3b3fe83c	0.002928271
84	0x3bcafd79	0.006194767
85	0x3b0c9ed6	0.0021456978
86	0x3b1112e4	0.0022136504
87	0x3b11afa7	0.002222994
88	0x3b4f8dc2	0.0031670188
89	0x3a765b2b	0.00093977404
90	0x3b4605a4	0.0030215764
91	0x3ab3b935	0.0013711812
92	0x3adc4044	0.0016803821
93	0x3afe174b	0.0019385604
94	0x3ad00a99	0.0015872299
95	0x3aa0ab9d	0.0012258176
96	0x3b5799a6	0.0032897978
97	0x3bc183f5	0.005905623
98	0x3b226632	0.0024780151
99	0x3af15bc7	0.0018414193
100	0x3b25645d	0.0025236823
101	0x3ba066a3	0.0048950478
102	0x3b39308d	0.0028257698
103	0x3b050a09	0.002030017
104	0x3c29eb24	0.010371003
105	0x3b582432	0.0032980558
106	0x3b62f936	0.0034633405
107	0x3b0e85d1	0.0021747241
108	0x3b8471bd	0.004041879
109	0x3bd91dee	0.0066258823
110	0x3ac62aba	0.0015118935
111	0x3b00de86	0.0019663884
112	0x3ba0a1c2	0.0049020955
113	0x3b7242ec	0.0036966158
114	0x3b1675de	0.0022958438
115	0x3a93b164	0.0011268076
116	0x3b5b6cff	0.0033481715
117	0x3b25800f	0.002525333
118	0x3b9e7d02	0.0048366794
119	0x3b397362	0.0028297533

classifier.4.weight f4 [180, 120]
0	0x3c38e7c5	0.011285727
1	0x3d4eb12c	0.050461933
2	0xbd4fd7db	-0.050742965
3	0xbd1d978f	-0.038474616
4	0x3db3b0a6	0.087739274
5	0xbcdf55c6	-0.02726258
6	0x3d2c024b	0.041994374
7	0xbd822203	-0.063541435
8	0xbdb6e474	-0.08930293
9	0xbd346389	-0.044040237
10	0xbce7f0c7	-0.028313054
11	0xbdf726db	-0.12067958
12	0xbd9588b1	-0.073014624
13	0xbdafd73f	-0.08585977
14	0xbcee9b81	-0.029126884
15	0xbd007592	-0.031362124
16	0xbdd0c860	-0.101944685
17	0xbd1823bd	-0.037143458
18	0xbdc97662	-0.09837033
19	0x3cdaa489	0.026689785
20	0x3cbedae4	0.023297735
21	0xbe5103ec	-0.20411652
22	0x3d8890e8	0.06668264
23	0xbc3ddbbf	-0.011588036
24	0xbe05b1b2	-0.13056067
25	0xbd4b998d	-0.049706984
26	0xbdea9b9d	-0.11455462
27	0xbe0483ad	-0.12940855
28	0x3d18e9ac	0.037332222
29	0xbc8c74bc	-0.017145507
30	0xbe03e979	-0.12882032
31	0x3b288ff2	0.0025720564
32	0xbca41eff	-0.020034311
33	0x3d7ccb78	0.06171748
34	0xba795dfa	-0.00095126
35	0x3d891953	0.06694283
36	0x3d9ea6c9	0.077466555
37	0x3cae937a	0.021310557
38	0xbe5a1a91	-0.21299197
39	0x3d625217	0.05525407
40	0xbe050a7e	-0.12992284
41	0x3d8e55fd	0.06949995
42	0x3c87510d	0.01651814
43	0xbd88a896	-0.0667278
44	0xbe126e79	-0.14299954
45	0xbe5ff1aa	-0.21869531
46	0xbd6cabad	-0.05778091
47	0xbd980555	-0.07422892
48	0xbe0b82d1	-0.13624121
49	0x3dcf8d54	0.10134378
50	0x3d3ba954	0.04581578
51	0xbda64076	-0.08117764
52	0xbd39f62d	-0.045400787
53	0x3b12e243	0.0022412695
54	0x3c90f040	0.017692685
55	0xbd942779	-0.07234091
56	0xbccd270d	-0.025043035
57	0x3c22b5de	0.009931056
58	0xbdcb7da8	-0.099360764
59	0x3c6a0fce	0.014285995
60	0xbdeb2445	-0.11481527
61	0x3d13ff47	0.036132123
62	0xbc1d712b	-0.009609501
63	0x3c628c1f	0.013827353
64	0xbe3c04ad	-0.18361159
65	0x3d94e87f	0.072709076
66	0xbde8c941	-0.11366511
67	0xbd4e4917	-0.050362673
68	0xbdd8e13a	-0.105898336
69	0xbcf19399	-0.029489325
70	0x3ba533d3	0.0050415783
71	0xbcd8146c	-0.026376925
72	0xbd165696	-0.03670367
73	0xbd99f480	-0.07517338
74	0x3cd9f18d	0.026604438
75	0xbd5c3692	-0.05376298
76	0x3caea283	0.021317726
77	0xbe2a3f28	-0.16625655
78	0x3bcb6a45	0.0062077367
79	0xbe05f2f4	-0.1308096
80	0x3ba2515c	0.0049535464
81	0xbdbba872	-0.09162988
82	0xbd88857d	-0.06666086
83	0xbd007f50	-0.031371415
84	0x3c6a8b81	0.014315487
85	0xbd8214d3	-0.06351628
86	0xbda53e2f	-0.08068501
87	0xbdd5b4b2	-0.104348555
88	0xbd939492	-0.07206072
89	0x3c8ca7d4	0.01716987
90	0x3d0fdec7	0.035124566
91	0x3c335584	0.0109456815
92	0x3bababf7	0.0052390057
93	0xbd7d2692	-0.06180436
94	0xbd799e1f	-0.06094181
95	0xbcd1cc39	-0.025610076
96	0x3db51220	0.08841348
97	0xbcc120f2	-0.02357528
98	0x3cb7efc5	0.022453198
99	0x3ccb83fa	0.024843205
100	0xbc1c6f27	-0.009547985
101	0xbc8796ce	-0.016551401
102	0xbc4b1a56	-0.012396416
103	0xbe008d12	-0.12553814
104	0xbdac0912	-0.084001675
105	0xbe19d1ed	-0.15021487
106	0xbcc3a797	-0.023883624
107	0xbbfcd6cf	-0.007716037
108	0x3d283fc4	0.041076437
109	0xbe1052fe	-0.14094159
110	0xbca57731	-0.020198436
111	0xbd82709c	-0.06369135
112	0x3d5e273b	0.05423663
113	0xbcc7472a	-0.024325926
114	0xbd231275	-0.039812524
115	0xbda3bbf0	-0.079948306
116	0xbcc9b27e	-0.024621245
117	0x3c984cc7	0.018591298
118	0xbc787838	-0.015165381
119	0x3e45c794	0.19314414
120	0x3e085dd2	0.1331704
121	0x3c06624f	0.0082021495
122	0xbe177343	-0.14790063
123	0xbc9e0fe1	-0.019294681
124	0x3d5b7918	0.05358228
125	0x3c48cdb7	0.0122560775
126	0x3d856c20	0.06514764
127	0x3d1290b7	0.035782542
128	0xbdfbba5a	-0.12291403
129	0x3ceaf4d8	0.028681204
130	0x3b8df837	0.004332568
131	0xbe70d90c	-0.23520297
132	0x3def0701	0.11671258
133	0xbdcf116b	-0.10110744
134	0xbc23f087	-0.010006077
135	0x3d589e7d	0.05288552
136	0x3d8132a1	0.06308485
137	0xbdcd0be7	-0.10012036
138	0xbd26a5ad	-0.040685344
139	0xbd9a46b5	-0.075330175
140	0xbbfc006b	-0.0076904795
141	0xbd38d9a5	-0.045129437
142	0xbd37face	-0.04491692
143	0xbd011197	-0.031510916
144	0xbcec1305	-0.028817663
145	0xbcabfa41	-0.020993354
146	0xbe2bcbca	-0.16776958
147	0xbc206dff	-0.00979185
148	0x3da04e96	0.07827489
149	0xbd5f069f	-0.054449674
150	0x3d0c5a24	0.034265652
151	0x3ba135cf	0.0049197446
152	0x3d3d43d0	0.04620725
153	0x3b5b530a	0.0033466243
154	0x3e02c41c	0.12770122
155	0x3cd21d02	0.025648598
156	0xbd830e5a	-0.06399222
157	0x3d8b239d	0.06793902
158	0x3d537af2	0.05163092
159	0xbc2d527c	-0.010578748
160	0x3c152a07	0.009104258
161	0x3d0a75de	0.033803813
162	0xbbb0143c	-0.005373506
163	0xbe00daba	-0.12583438
164	0xbdaa614c	-0.08319339
165	0xbd79d02b	-0.06098954
166	0xbce5721d	-0.028008515
167	0xbd0611a4	-0.032731667
168	0x3d63810d	0.055542994
169	0x3d0cc3a2	0.034366257
170	0xbca15b7c	-0.019696943
171	0xbe2e5a20	-0.17026567
172	0xbe1d5731	-0.15365292
173	0xbcd4d899	-0.025982188
174	0xbbb24f9d	-0.0054416195
175	0x3d12c8c5	0.035836
176	0x3d4cef57	0.05003294
177	0xbe2656ab	-0.16243999
178	0xbbe50f26	-0.006990331
179	0xbd14552f	-0.03621405
180	0xbd85bc43	-0.06530049
181	0x3cd4bdca	0.025969405
182	0x3c1ff21c	0.009762313
183	0xbd997611	-0.074932225
184	0xbd91121f	-0.070835344
185	0x3df0b375	0.11752979
186	0xbd92a201	-0.07159806
187	0x3de004b2	0.109383956
188	0xbe31f904	-0.17380148
189	0xbdea1354	-0.11429468
190	0xbda92133	-0.082582854
191	0xbe129972	-0.14316347
192	0xbde3a2ee	-0.11115061
193	0x3bfd2c89	0.0077262563
194	0xbc041e4a	-0.008063862
195	0xbcaa0070	-0.020752162
196	0x3e13da11	0.14438654
197	0xbd295ccf	-0.041348275
198	0xbd1e028c	-0.038576648
199	0xbce240a8	-0.027618721
200	0xbe063739	-0.13107003
201	0xbd97af83	-0.07406523
202	0xbe0ef9ed	-0.13962527
203	0x3be8a97a	0.0071002813
204	0x3d2b36db	0.04180036
205	0xbd10237e	-0.035190098
206	0x3cca4774	0.024692275
207	0xbd0f9e32	-0.035062976
208	0xbe24058b	-0.1601774
209	0x3d06f3e3	0.032947432
210	0x3e023546	0.12715635
211	0x3d9ccbf7	0.07656091
212	0xbd0f8f60	-0.035048842
213	0xbca95a22	-0.020672861
214	0x3e0a3881	0.13498117
215	0xbe19d9ee	-0.1502454
216	0xbd203ea8	-0.039122254
217	0xbcc278ea	-0.023739297
218	0xbcef83ea	-0.029237706
219	0xbe063cf1	-0.13109185
220	0xba1dbc56	-0.0006017139
221	0xbd8a3941	-0.067492016
222	0x3d7a31f1	0.061082784
223	0xbc5ce32b	-0.013481895
224	0xbd891a30	-0.06694448
225	0xbd08bfdb	-0.033386093
226	0x3c5ac3c9	0.013352343
227	0xbd69c9ad	-0.0570771
228	0x3d41bcd6	0.04729923
229	0xbc4acb51	-0.012377576
230	0xbde2d02c	-0.11074862
231	0x3d8d7d04	0.069086105
232	0x3b3fa6f5	0.0029243801
233	0x3d4f2008	0.050567657
234	0x3d176633	0.0369627
235	0xbd1fe35b	-0.039035182
236	0xbd954e63	-0.07290342
237	0xbe3edd79	-0.18639173
238	0xbd31b456	-0.043384872
239	0x3d8bb914	0.0682241
240	0x3e409b89	0.18809332
241	0xbdd19d60	-0.10235095
242	0xbc88194f	-0.01661363
243	0xbd684c94	-0.056713656
244	0xbd63748f	-0.05553108
245	0xbdc100dd	-0.09423993
246	0xbd402b33	-0.046916198
247	0xbd3ad8da	-0.045616962
248	0x3bb30499	0.0054631946
249	0xbe22be07	-0.15892802
250	0x3cb64065	0.022247503
251	0x3de11ed7	0.1099221
252	0xbdf07c1c	-0.11742422
253	0x3d4dd824	0.050254956
254	0xbc33fca2	-0.010985525
255	0x3d93ee0b	0.072231375

classifier.4.bias f4 [180]
0	0xbd58d7fa	-0.052940346
1	0x3d59301b	0.053024393
2	0x3ca438e6	0.020046663
3	0xbd5485ca	-0.051885404
4	0xbd25f854	-0.040520027
5	0x3dfb4de4	0.12270716
6	0xbda6944b	-0.081337534
7	0x3db59fcc	0.088683695
8	0xbd31979a	-0.04335747
9	0xbd7e72e1	-0.062121276
10	0xbd181c78	-0.037136525
11	0x3bd92634	0.0066268686
12	0xbd8db567	-0.069193654
13	0x3d9a3315	0.075292744
14	0x3d29800d	0.041381884
15	0x3d018dff	0.03162956
16	0xbd795708	-0.060874015
17	0x3d05fc07	0.032711055
18	0xbdde2fb7	-0.10848945
19	0x3d1914ee	0.037373476
20	0x3dd444ba	0.10364671
21	0x3d1e0a50	0.038584054
22	0xbd986076	-0.074402735
23	0x3dc2466b	0.094860874
24	0x3c279b56	0.010229906
25	0xbd639592	-0.055562563
26	0xbcbf6f1d	-0.023368413
27	0xb984f488	-0.00025359192
28	0xbd621b2c	-0.055201694
29	0x3ccd5e8f	0.025069503
30	0xbd825cc8	-0.06365353
31	0xbd852280	-0.06500721
32	0xbd82e59b	-0.0639145
33	0xbd8ec351	-0.069708474
34	0x3ce8d372	0.028421137
35	0x3e04cbed	0.12968417
36	0x3b9e3a8b	0.004828756
37	0xbda5df13	-0.08099189
38	0x3c835652	0.016032372
39	0xbd900567	-0.070322804
40	0x3d7ae0ee	0.061249666
41	0x3b95872a	0.004563232
42	0xbc82a3c1	-0.015947225
43	0x3c832571	0.016009064
44	0x3cdd4a3c	0.027012937
45	0x3c462ede	0.012096135
46	0x3d3454fa	0.044026352
47	0x3c81f964	0.015865989
48	0xbdb3a3b8	-0.08771461
49	0xbda1824a	-0.07886179
50	0xbd0abc3f	-0.03387093
51	0x3d2166a1	0.039404515
52	0x3d540e49	0.051771436
53	0xbd70db52	-0.05880291
54	0xbd3ab34c	-0.045581147
55	0xbd79e061	-0.061005
56	0xbc17df90	-0.00926961
57	0x3c4d8784	0.0125445165
58	0x3da13068	0.07870561
59	0xbc31cedc	-0.010852542
60	0x3d49253a	0.049107768
61	0x3dbc6957	0.091997795
62	0x3c612ec7	0.013744063
63	0xbd0ae024	-0.033905163
64	0xbd6c611c	-0.0577098
65	0xbe0689aa	-0.13138452
66	0x3c29c37d	0.010361549
67	0x3e0d2cdb	0.13786642
68	0xbb986c47	-0.0046515795
69	0x3cd26a18	0.025685355
70	0xbc999436	-0.01874743
71	0xbd4bcbde	-0.04975497
72	0xbd7288ff	-0.05921268
73	0xbd6996bf	-0.05702853
74	0xbc6fb005	-0.014629369
75	0xbd01995e	-0.031640403
76	0xbc855bc0	-0.016279101
77	0xbc0958f2	-0.008383023
78	0x3d362a45	0.044473905
79	0x3db48700	0.08814812
80	0xbd60193c	-0.054711565
81	0x3da69aaa	0.081349686
82	0x3de3149d	0.11087916
83	0x3c6cc5d9	0.014451467
84	0x3db49c5b	0.08818885
85	0xbd20733a	-0.03917239
86	0x3d4cc97c	0.049996838
87	0x3da1ef48	0.079069674
88	0x3da99e44	0.0828214
89	0x3d866861	0.065628774
90	0x3c226f1b	0.009914185
91	0x3ddede21	0.108822115
92	0xbd348ee4	-0.044081584
93	0x3c3e3424	0.011609111
94	0xbd28cf29	-0.04121319
95	0x3d5895b6	0.05287715
96	0xbd427b47	-0.047480848
97	0xbcab8124	-0.020935602
98	0xbd8a3c10	-0.06749737
99	0xbc5f5357	-0.01363071
100	0xbd302207	-0.0430012
101	0x3d508aad	0.0509135
102	0xbd296539	-0.0413563
103	0x3c89511b	0.016762307
104	0x3d8a085e	0.06739877
105	0x3d37e168	0.0448927
106	0x3d8f3448	0.06992394
107	0xbdfed7de	-0.12443517
108	0xbc50c4cf	-0.012742235
109	0xbd0b9292	-0.034075327
110	0xbc6aa1f8	-0.014320843
111	0xbd2001b0	-0.03906411
112	0xbd0462fc	-0.03232096
113	0x3c0aef9d	0.00847998
114	0x3daef473	0.08542719
115	0x3cc80dda	0.024420667
116	0xbc2d60da	-0.010582173
117	0xbd6126ae	-0.05496853
118	0x3cc8742c	0.024469458
119	0xbb5aeb17	-0.0033404285
120	0x3d58bf62	0.052916892
121	0xbdc7b4d5	-0.09751288
122	0xbd7d582c	-0.061851665
123	0xbd59d346	-0.05318
124	0x3d423db2	0.04742212
125	0xbb304218	-0.0026894864
126	0xbc25f306	-0.010128742
127	0x3cbb323a	0.022851098
128	0x3ca45716	0.020061057
129	0xbda06dfb	-0.07833477
130	0xbceb8285	-0.02874876
131	0x3ddf9ff3	0.1091918
132	0xba55ecfa	-0.00081606174
133	0x388788fe	6.4628184e-05
134	0x3d9a4ecc	0.075345606
135	0x3d8e2ffd	0.06942747
136	0x3d82261d	0.06354926
137	0xbdcc5b40	-0.09978342
138	0xbdac906b	-0.08425983
139	0x3d464275	0.048403222
140	0x3d47d7ac	0.048789665
141	0x3e07d413	0.13264494
142	0xbb03bf55	-0.0020103056
143	0xbdc47343	-0.09592297
144	0xbde329d8	-0.110919654
145	0xbb6839f9	-0.0035434945
146	0x3c847604	0.016169555
147	0x3dc49d3f	0.09600305
148	0x3c44caac	0.012011211
149	0x3d37f2a8	0.04490915
150	0xbdd8ef25	-0.10592488
151	0x3dd84034	0.10559121
152	0x3d70e34a	0.05881051
153	0x3e11d00d	0.14239521
154	0xbdc7df14	-0.09759346
155	0x3da241ca	0.079227045
156	0xbcfa31a5	-0.03054125
157	0x3d60eac9	0.05491141
158	0xbddf4528	-0.109018624
159	0xbd3dd89a	-0.046349145
160	0xbd2e532e	-0.042559795
161	0xbc5759d5	-0.013143976
162	0xbd029833	-0.03188343
163	0xbd751a09	-0.059839282
164	0x3dd9930e	0.106237516
165	0x3d4efcbe	0.050534002
166	0xbd63f76f	-0.055655893
167	0x3dff580f	0.12467968
168	0xbca35d7b	-0.019942036
169	0x3c7e9374	0.015538085
170	0x3d0bae54	0.0341018
171	0x3cb1ce77	0.021704895
172	0xbd3d9e44	-0.046293512
173	0xbd3fcb1f	-0.04682457
174	0x39431105	0.0001860299
175	0xbc87ad5f	-0.016562162
176	0x3d2f0ffe	0.04273986
177	0xbcc2f84b	-0.023800036
178	0x3d3f7820	0.04674542
179	0xbcbeeac9	-0.023305314

classifier.5.weight f4 [180]
0	0x3f818029	1.0117236
1	0x3f87e11a	1.061557
2	0x3f727e22	0.94723713
3	0x3f82eba3	1.0228161
4	0x3f7314d0	0.9495363
5	0x3f616dac	0.8805797
6	0x3f749e3b	0.9555394
7	0x3f7f38d9	0.9969612
8	0x3f94528d	1.1587692
9	0x3f859bf2	1.0438216
10	0x3f7ebf4f	0.99510664
11	0x3f845305	1.0337836
12	0x3f639fe3	0.8891584
13	0x3f7b50a9	0.9816995
14	0x3f92878b	1.1447614
15	0x3f89507d	1.0727688
16	0x3f70376e	0.9383458
17	0x3f6b8143	0.9199411
18	0x3f7f0476	0.9961618
19	0x3f8e22e2	1.1104395
20	0x3f9ebc17	1.240115
21	0x3f8d1e16	1.1024806
22	0x3f5fa9a3	0.8736822
23	0x3f865379	1.0494224
24	0x3f6d8a48	0.92789125
25	0x3f6935c6	0.91097677
26	0x3f855339	1.0416023
27	0x3f81202c	1.0087943
28	0x3f4ff4c4	0.8123286
29	0x3f8640c6	1.0488517
30	0x3f6b0257	0.91800445
31	0x3f68bf99	0.90917355
32	0x3f8d7e1b	1.1054109
33	0x3f48948b	0.7835166
34	0x3f8439a3	1.0330089
35	0x3f7a1c1b	0.97699136
36	0x3f69f160	0.91383934
37	0x3f96d4c9	1.1783687
38	0x3f814129	1.009801
39	0x3f810765	1.0080382
40	0x3f93f01f	1.1557654
41	0x3f6feec4	0.937237
42	0x3f5f5657	0.8724112
43	0x3f993a8f	1.1970996
44	0x3f70174f	0.93785566
45	0x3f75699b	0.95864266
46	0x3f74c6d0	0.95615864
47	0x3f733bc7	0.9501309
48	0x3f84b14d	1.0366608
49	0x3fa0ca91	1.2561818
50	0x3f6ec809	0.9327398
51	0x3f7e03f2	0.9922477
52	0x3f5df054	0.86694837
53	0x3f7790c1	0.9670525
54	0x3f6049f1	0.87612826
55	0x3f70825e	0.93948925
56	0x3f664f75	0.8996499
57	0x3f6a1d18	0.91450644
58	0x3f810a3e	1.0081251
59	0x3f7aa1c4	0.97903085
60	0x3f804d52	1.0023596
61	0x3f86fc49	1.0545741
62	0x3f5a6f9f	0.8532657
63	0x3f7c2015	0.98486453
64	0x3f809815	1.0046412
65	0x3f777388	0.9666066
66	0x3f7e9840	0.99451065
67	0x3f897b92	1.0740836
68	0x3f79198c	0.97304606
69	0x3f5cf41f	0.8631
70	0x3f7648b9	0.96204716
71	0x3f5874f1	0.8455344
72	0x3f564bf0	0.8370962
73	0x3f8a26db	1.0793108
74	0x3f93a0e6	1.1533477
75	0x3f65e457	0.89801544
76	0x3f6cd6fa	0.9251553
77	0x3f86a138	1.051795
78	0x3f74c5f0	0.9561453
79	0x3f762a63	0.96158427
80	0x3f6987c0	0.91222763
81	0x3f91eb0e	1.1399858
82	0x3f8c8f35	1.0981203
83	0x3f88819b	1.0664552
84	0x3f7b8a13	0.9825756
85	0x3f7bbfc3	0.9833948
86	0x3f811b32	1.0086424
87	0x3f616be5	0.8805526
88	0x3f4bb8b2	0.795787
89	0x3f6557da	0.89587176
90	0x3f7d975d	0.9905909
91	0x3f836d31	1.0267698
92	0x3f84f355	1.0386759
93	0x3f97513c	1.1821666
94	0x3f90d9f6	1.1316516
95	0x3f8c9bdb	1.0985063
96	0x3f8a5f11	1.0810262
97	0x3f837f47	1.0273217
98	0x3f8300e5	1.0234648
99	0x3f76930d	0.9631813
100	0x3f610e09	0.8791204
101	0x3f6ab452	0.91681397
102	0x3f97082d	1.179937
103	0x3f7019e2	0.93789494
104	0x3f6adb16	0.9174055
105	0x3f65f6d6	0.89829767
106	0x3f695c56	0.9115652
107	0x3f7894cb	0.9710204
108	0x3f6ece04	0.93283105
109	0x3f80337f	1.0015715
110	0x3f788ea9	0.9709268
111	0x3f8941e3	1.0723232
112	0x3f92859e	1.1447027
113	0x3f71e4f2	0.9448997
114	0x3f6f74e7	0.93537754
115	0x3f4dba2f	0.8036222
116	0x3f7c3c84	0.9852984
117	0x3f74a60c	0.9556587
118	0x3f83aa83	1.0286411
119	0x3f7238a0	0.9461765
120	0x3f637d0f	0.888627
121	0x3f85f0e3	1.0464138
122	0x3f87a171	1.0596143
123	0x3f85acb8	1.0443335
124	0x3f7e8132	0.99415886
125	0x3f703d3c	0.93843436
126	0x3f4f059b	0.8086793
127	0x3f87aae0	1.0599022
128	0x3f8b7a48	1.0896692
129	0x3f8a146d	1.0787483
130	0x3f791b4e	0.9730729
131	0x3f4c5204	0.79812646
132	0x3f7bf6ce	0.9842347
133	0x3f6ee884	0.9332354
134	0x3f5237f7	0.82116646
135	0x3f8cdfd1	1.1005803
136	0x3f64fde6	0.8944992
137	0x3f5f7b2f	0.8729734
138	0x3f56a527	0.8384575
139	0x3f737c0d	0.9511116
140	0x3f891a5d	1.071117
141	0x3f81ca62	1.0139887
142	0x3f5ea5d3	0.8697178
143	0x3f5f4422	0.8721334
144	0x3f8604f1	1.0470258
145	0x3f84a1b6	1.036185
146	0x3f868119	1.0508147
147	0x3f56784c	0.8377731
148	0x3f8e7589	1.1129619
149	0x3f526d39	0.8219791
150	0x3f7b5568	0.98177195
151	0x3f70b489	0.94025475
152	0x3f711f53	0.9418842
153	0x3f5828db	0.8443734
154	0x3f649fda	0.89306414
155	0x3f6b9957	0.92030853
156	0x3f859eaa	1.0439045
157	0x3f80b13c	1.0054088
158	0x3f6fb1f0	0.93630886
159	0x3f7acd21	0.9796925
160	0x3f76c94c	0.96400905
161	0x3f793d0a	0.97358763
162	0x3f46fb3e	0.77727115
163	0x3f59a311	0.85014445
164	0x3f6d121d	0.92605764
165	0x3f6fc7e5	0.9366439
166	0x3f58de3e	0.84714115
167	0x3f78f4f9	0.972488
168	0x3f53ef62	0.82787144
169	0x3f6c02bd	0.9219168
170	0x3f846426	1.0343063
171	0x3f8b8728	1.0900621
172	0x3f76c40b	0.9639289
173	0x3f66ce2c	0.90158343
174	0x3f7c27d2	0.9849826
175	0x3f6a5953	0.9154255
176	0x3f622974	0.883445
177	0x3f89952e	1.0748651
178	0x3f866855	1.050059
179	0x3f772df5	0.965545

classifier.5.bias f4 [180]
0	0xbdea1283	-0.11429312
1	0xbe60214a	-0.21887699
2	0xbe9d8249	-0.30763462
3	0xbdd2d00a	-0.102935866
4	0xbdf4d916	-0.11955468
5	0xbdeeb90a	-0.11656387
6	0xbdba8b00	-0.091085434
7	0xbe391e91	-0.18078066
8	0xbed592e8	-0.41713643
9	0xbe774110	-0.24145913
10	0xbe9c6d41	-0.30552104
11	0xbdf0203d	-0.11724899
12	0xbe09fa5b	-0.1347441
13	0xbe836e56	-0.25670117
14	0xbdf8e6a3	-0.121533655
15	0xbe090c8d	-0.13383694
16	0xbd83f7cf	-0.0644375
17	0xbdade8d6	-0.084916756
18	0xbe2d2303	-0.16907887
19	0xbde7cd38	-0.11318439
20	0xbeb935a6	-0.36173743
21	0xbe48f30e	-0.19623968
22	0xbe2d91c1	-0.16950132
23	0xbb03779f	-0.0020060313
24	0xbd62086d	-0.055183817
25	0xbe7a347f	-0.24434088
26	0xbdb2a1e2	-0.08722283
27	0xbdec7d55	-0.11547343
28	0xbedbaf91	-0.42907384
29	0xbe810f3d	-0.25206938
30	0xbe3f6a1d	-0.18692823
31	0xbe30295c	-0.17203277
32	0xbdc2a897	-0.09504812
33	0xbeeefbad	-0.46676388
34	0xbe3b1bcc	-0.18272322
35	0xbe1a72bd	-0.15082832
36	0xbe32c0ef	-0.17456411
37	0xbe46c71c	-0.19411892
38	0xbd676d23	-0.056500565
39	0xbd00997f	-0.031396385
40	0xbe1bd26a	-0.15216985
41	0xbdc4c3b0	-0.09607637
42	0xbe5b4977	-0.21414743
43	0xbe8546af	-0.2603049
44	0xbdc8c97a	-0.098040536
45	0xbdc53344	-0.09628919
46	0xbd92ac8b	-0.07161816
47	0xbbaf6af2	-0.005353325
48	0xbe3223de	-0.17396495
49	0xbe9bae73	-0.30406532
50	0xbd811ec4	-0.06304696
51	0xbdb0c73b	-0.0863175
52	0xbe21af15	-0.15789445
53	0xbe189e95	-0.14904244
54	0xbde133c4	-0.10996202
55	0xbd2737c9	-0.040824685
56	0xbe31f109	-0.17377104
57	0xbdd24be5	-0.10268382
58	0xbe8d950d	-0.2765278
59	0xbde1ed9a	-0.11031647
60	0xbdef84ea	-0.11695273
61	0xbdd54af9	-0.104146905
62	0xbdcc98f3	-0.0999011
63	0xbdf0a500	-0.11750221
64	0xbe5bbf93	-0.21459799
65	0xbe29d8e7	-0.16586648
66	0xbb15e6ad	-0.002287309
67	0xbe2321e5	-0.15930898
68	0xbdaeaf0a	-0.0852948
69	0xbdf3e549	-0.11908967
70	0xbded0b89	-0.11574466
71	0xbe848bea	-0.25887996
72	0xbe8b6765	-0.2722732
73	0xbe32704b	-0.17425649
74	0xbe9ea8de	-0.3098821
75	0xbe22e6f1	-0.1590841
76	0xbe7e53a4	-0.24836594
77	0xbdb8d848	-0.090256274
78	0xbe1036d4	-0.14083415
79	0xbe15f51a	-0.1464428
80	0xbe0bab91	-0.13639666
81	0xbe824fc5	-0.25451484
82	0xbe0c9d54	-0.13731891
83	0xbe5c6393	-0.2152236
84	0xbdd483f3	-0.1037673
85	0xbd9306fb	-0.07179066
86	0xbd9279cf	-0.071521394
87	0xbdb80977	-0.0898618
88	0xbeaef49b	-0.34170994
89	0xbe97e364	-0.29665673
90	0xbda2cc47	-0.07949119
91	0xbe44cca6	-0.19218692
92	0xbe3ebfe7	-0.18627892
93	0xbe52424b	-0.20533101
94	0xbe7ac2f0	-0.24488425
95	0xbe77dd54	-0.24205524
96	0xbe25777b	-0.1615886
97	0xbdc9be32	-0.0985073
98	0xbe24d96d	-0.16098566
99	0xbde5b021	-0.112152345
100	0xbe036ea1	-0.1283517
101	0xbd6f0ffd	-0.058364857
102	0xbe72fc15	-0.23728974
103	0xbe18d09c	-0.14923328
104	0xbe0d6cdf	-0.13811062
105	0xbd50fc45	-0.051021833
106	0xbddde661	-0.10834957
107	0xbdb1b7ab	-0.0867761
108	0xbe1d8920	-0.1538434
109	0xbd914663	-0.07093503
110	0xbe210cde	-0.15727565
111	0xbe356ea6	-0.1771799
112	0xbe691837	-0.22763143
113	0xbe290895	-0.1650718
114	0xbe5089ec	-0.20365113
115	0xbeb12443	-0.34597978
116	0xbe859c39	-0.2609575
117	0xbd2a032d	-0.041506935
118	0xbde58f23	-0.11208942
119	0xbe014896	-0.12625346
120	0xbdea04a6	-0.11426668
121	0xbdf3e94f	-0.119097345
122	0xbdc7446a	-0.09729846
123	0xbd0f4ab7	-0.034983363
124	0xbd9d5972	-0.07683076
125	0xbe0d1cc0	-0.13780499
126	0xbdee7df8	-0.116451204
127	0xbe277a7e	-0.16355321
128	0xbe91acba	-0.28452092
129	0xbe6810dd	-0.22662683
130	0xbe45c9cf	-0.19315265
131	0xbe3aab51	-0.18229415
132	0xbe44242a	-0.1915442
133	0xbd21dbdb	-0.03951631
134	0xbe9298cc	-0.286322
135	0xbe67054b	-0.22560613
136	0xbe0d0eeb	-0.13775222
137	0xbe5ec050	-0.21753049
138	0xbe6e34ff	-0.23262404
139	0xbd5a993f	-0.053368803
140	0xbe3a96cd	-0.18221588
141	0xbd53d580	-0.05171728
142	0xbe035f63	-0.12829356
143	0xbe1a9558	-0.15096033
144	0xbdf3a575	-0.11896793
145	0xbe210525	-0.15724619
146	0xbe2a6c59	-0.16642894
147	0xbe736f8e	-0.23773023
148	0xbe917f3e	-0.2841739
149	0xbeb6e3e6	-0.35720748
150	0xbdbae8b4	-0.09126416
151	0xbd24858e	-0.04016643
152	0xbe2933ed	-0.16523714
153	0xbe9bb552	-0.30411774
154	0xbe0d6573	-0.13808231
155	0xbe702dff	-0.23455046
156	0xbe230132	-0.15918425
157	0x3d849c8a	0.0647517
158	0xbd92f87f	-0.07176303
159	0xbddda2a0	-0.10822034
160	0xbe0801f2	-0.13281992
161	0xbe0f6788	-0.14004338
162	0xbebc9f4a	-0.36840278
163	0xbed743bd	-0.42043868
164	0xbe0bf324	-0.1366697
165	0xbe6b9d6d	-0.23009272
166	0xbe10fbe9	-0.14158596
167	0xbe6de3db	-0.23231451
168	0xbe98595c	-0.29755676
169	0xbe113840	-0.14181614
170	0xbe1e25c2	-0.15444091
171	0xbdae2576	-0.08503239
172	0xbe0c6839	-0.13711633
173	0xbd9f4377	-0.0777654
174	0xbbe90e0e	-0.007112271
175	0xbe291a8d	-0.16514035
176	0xbe34f156	-0.17670187
177	0xbd9e6766	-0.077345654
178	0xbe834600	-0.25639343
179	0xbe5849b2	-0.21121863

classifier.5.running_mean f4 [180]
0	0xbf7b9e72	-0.98288643
1	0xbf02b5a7	-0.5105843
2	0xbe850fb8	-0.25988555
3	0xbf2768fe	-0.6539458
4	0xbf514d48	-0.81758547
5	0xbf084c2f	-0.53241247
6	0xbf59b6c0	-0.8504448
7	0x3c75fcc4	0.015013877
8	0xbf15b20d	-0.5847481
9	0xbf4d5c75	-0.80219203
10	0xbe684af8	-0.22684848
11	0xbf35a141	-0.7094918
12	0xbf23d705	-0.6399997
13	0x3a0415be	0.000503864
14	0x3e03a73c	0.12856764
15	0xbe4a5ce8	-0.19762003
16	0xbdc074e5	-0.09397296
17	0xbf1688f6	-0.58802736
18	0xbecf7ab6	-0.4052331
19	0xbdf1a24e	-0.11798535
20	0xbee5e10f	-0.4489827
21	0xbefba521	-0.4914942
22	0xbe0c2ffb	-0.13690178
23	0x3e96fdde	0.2949056
24	0xbf32cc4f	-0.69843
25	0xbf67a08e	-0.9047936
26	0xbe296a8a	-0.16544548
27	0xbeed2759	-0.46319082
28	0xbeab628a	-0.33473617
29	0xbe3beb88	-0.18351567
30	0xbf43fd0d	-0.76558
31	0x3ee4e950	0.44709253
32	0xbce1e667	-0.027575685
33	0x3ecbcdef	0.39805552
34	0xbef83071	-0.48474458
35	0xbf007ae5	-0.5018752
36	0xbeb75d8d	-0.3581356
37	0xbec403e9	-0.38284233
38	0xbf3418ed	-0.70350534
39	0xbf854306	-1.0411079
40	0xbdd6f64e	-0.10496198
41	0xbe18aad5	-0.14908917
42	0x3e32399b	0.17404787
43	0xbdac7518	-0.08420771
44	0xbf0ebc43	-0.55756015
45	0x3e722303	0.23646168
46	0xbe0a9e9f	-0.13537072
47	0xbf258351	-0.646535
48	0x3def6342	0.11688854
49	0xbeec885c	-0.46197784
50	0xbf7fa1f2	-0.99856484
51	0xbeef6f26	-0.46764487
52	0xbedb2aa9	-0.42805985
53	0xbf2e381b	-0.6805436
54	0xbf23ab81	-0.6393357
55	0xbf5eb07b	-0.8698804
56	0xbf6115be	-0.879238
57	0xbd55e441	-0.052219633
58	0xbe3d855e	-0.18507907
59	0xbe3815b9	-0.17977037
60	0xbed0cb78	-0.40780234
61	0x3d0f418e	0.034974627
62	0xbf2a49a0	-0.6651859
63	0xbe9e4840	-0.30914497
64	0xbf33637c	-0.70073676
65	0xbeb68fd0	-0.35656595
66	0xbefdf814	-0.4960333
67	0xbcdf9d8e	-0.027296808
68	0xbef2f034	-0.47448885
69	0x3d8b7bcc	0.06810722
70	0x3f0092cb	0.5022399
71	0xbf37697b	-0.71645325
72	0xbeb1f950	-0.34760523
73	0x3dbf53ce	0.09342156
74	0xbf05f831	-0.52331835
75	0x3e668b7b	0.22514145
76	0x3e14dd45	0.14537533
77	0xbedb4857	-0.42828628
78	0xbd57ff44	-0.052733675
79	0xbe3ba28d	-0.18323727
80	0xbe2d99da	-0.16953221
81	0x3e642d86	0.22282991
82	0x3d4a5611	0.049398486
83	0xbf272bc4	-0.65301156
84	0xbf6abf2c	-0.91697955
85	0xbe78283a	-0.24234095
86	0xbd68413c	-0.056702837
87	0xbee22d3f	-0.44175145
88	0xbe4d2964	-0.2003532
89	0xbf19030b	-0.5977027
90	0xbeb233a0	-0.34805012
91	0xbd5da5d8	-0.05411324
92	0x3e558c1b	0.20854227
93	0x3d92b016	0.07162492
94	0xbe2cb61a	-0.16866341
95	0x3ef6e3e0	0.4822073
96	0xbf600005	-0.8750003
97	0xbf516149	-0.8178907
98	0xbf39c759	-0.72569805
99	0xbe8f287a	-0.2796057
100	0xbcce3341	-0.025170924
101	0xbf41b825	-0.7567161
102	0xbe472bc1	-0.19450285
103	0xbeb3fd5c	-0.35154235
104	0xbbbba25a	-0.005726141
105	0xbe1edf54	-0.1551488
106	0xbf373ef6	-0.71580446
107	0xbf664fa9	-0.899653
108	0x3d0ed43e	0.03487038
109	0xbf0229cd	-0.5084503
110	0xbe20c5e6	-0.15700492
111	0xbe6cde84	-0.23131758
112	0xbf0b1d79	-0.54341847
113	0xbef68443	-0.48147783
114	0xbf15297c	-0.58266425
115	0xbe0a735d	-0.1352057
116	0xbeee031d	-0.4648675
117	0xbd058474	-0.03259702
118	0xbf33b282	-0.70194256
119	0xbeb2046b	-0.34768996
120	0xbe39ba14	-0.1813739
121	0xbe8a5129	-0.27015045
122	0xbe5890e3	-0.2114902
123	0xbf86826b	-1.050855
124	0xbd7fa9e2	-0.062417872
125	0xbeee170a	-0.46501952
126	0xbe928e6f	-0.28624293
127	0x3d2234e8	0.039601237
128	0x3da2c9cf	0.07948648
129	0xbe2ea607	-0.17055522
130	0xbf5da092	-0.86573136
131	0xbe8d0b9d	-0.27547923
132	0x3d100d16	0.03516873
133	0xbf8cefa8	-1.1010637
134	0xbe2dda56	-0.1697782
135	0xbeeedff6	-0.46655244
136	0xbe012cbb	-0.1261472
137	0xbe905d4c	-0.2819618
138	0xbf34a17f	-0.70558923
139	0xbba2e88d	-0.00497157
140	0x3b83e8a7	0.004025537
141	0xbe4f685b	-0.20254652
142	0xbe292606	-0.16518411
143	0xbcdef1bb	-0.027214875
144	0xbea4921c	-0.32142723
145	0xbf571847	-0.8402142
146	0xbf4b0d84	-0.793175
147	0xbd16b364	-0.036792174
148	0xbe824679	-0.2544439
149	0xbf1ff315	-0.6248029
150	0xbf33fb25	-0.7030509
151	0xbf5452f3	-0.8293907
152	0x3ed6fd16	0.41989964
153	0xbef7ee55	-0.4842402
154	0xbe5c7f7f	-0.21533011
155	0xbf075e36	-0.5287813
156	0xbde080cf	-0.10962068
157	0x3f044596	0.5166868
158	0xbf5c4ae5	-0.8605178
159	0xbec85b40	-0.39132118
160	0xbed2d7d8	-0.411803
161	0xbe068c0b	-0.1313936
162	0xbe5621e3	-0.20911364
163	0xbf21188c	-0.6292808
164	0xbefd9429	-0.495271
165	0xbf5b3dc0	-0.856411
166	0xbecaef84	-0.3963586
167	0xbe14659a	-0.14491883
168	0xbf1486a4	-0.58017945
169	0xbf1bb7ee	-0.6082753
170	0xbee2e177	-0.4431264
171	0xbead9071	-0.33899263
172	0xbf1264f9	-0.5718532
173	0xbdddfb6f	-0.10838973
174	0x3e051183	0.12994961
175	0xbf5c9b9d	-0.8617495
176	0xbea81116	-0.32825536
177	0xbe6ab5e5	-0.2292095
178	0xbf03974e	-0.5140275
179	0xbefdabc8	-0.4954512
