ckpt/MAP_HF/10/best_loss_BEST1.ckpt (torch, 365152 bytes, 19 tensors)

classifier.0.weight f4 [180, 99]
-0.031282816 0.019220691 0.09797947 0.035599183 -0.03515529 -0.07044081 0.050101064 0.006566535
-0.22619246 0.006438545 -0.24532151 0.015928676 0.04077496 0.09044639 -0.093164474 0.1342367
-0.058929212 -0.058061082 -0.12013151 -0.0671455 -0.3005643 -0.042310905 0.12647569 0.05961549
-0.14227347 -0.0063583218 0.034428764 -0.018279944 0.13042197 0.10138415 -0.09127554 -0.38127404
0.107531734 -0.070969 0.07717653 0.0946897 -0.00046492656 0.16958252 0.07247604 0.055022027
-0.032669697 -0.35327736 -0.24873681 -0.09601558 -0.14320701 0.18108186 -0.20826188 -0.029985351
-0.07181421 0.030834902 -0.010442184 -0.24231116 -0.24674252 -0.2947082 -0.19515158 0.016969644
0.08099049 -0.031053131 0.15892945 0.12369194 0.37659615 0.18534967 -0.34422266 0.01248449
-0.28017715 -0.097408935 0.060418796 -0.091043465 -0.044069592 0.017935375 -0.38029623 -0.07401801
0.22928408 -0.049186785 -0.4323755 -0.2584967 0.022819702 -0.102353774 0.06958165 0.017973179
0.038018692 0.26045883 0.18132141 0.340127 -0.38413718 -0.23981786 0.2102737 0.1283948
0.122140646 0.029836722 -0.036513314 -0.03164856 0.19457333 -0.0743115 0.04242948 0.10081317
-0.37205824 -0.107040375 -0.12553118 -0.08228311 -0.11999258 0.03704351 0.20898733 -0.16664757
-0.05878736 -0.0015678381 0.42319337 0.08090987 -0.09599161 -0.08432116 0.044493675 0.024601268
-0.19395047 0.021699056 -0.042596728 0.13132718 0.08235202 0.050195117 0.019080294 0.072700374
-0.45431936 0.05626666 -0.0056167943 0.123901606 0.045703396 0.13656394 -0.022723492 0.32032838
0.009386257 0.0074037854 0.28039646 -0.27018142 0.001692803 0.13559417 0.050846893 -0.039593097
-0.17699172 0.20652284 0.5568236 0.016034905 -0.09914067 0.0035024413 -0.24875857 -0.2787131
-0.029541768 -0.04568299 0.13276325 0.05090449 0.20430781 0.42543054 -0.38075554 -0.042697035
-0.035932444 -0.27969953 -0.23761816 -0.1266811 0.01432435 -0.06953372 -0.05891637 0.13386922
0.15109009 -0.13512753 0.020539623 -0.089053206 -0.07355093 0.0467983 0.019354394 -0.0629799
0.034472764 0.010347182 0.23213102 0.22979859 -0.10198676 -0.1844129 0.12499553 -0.10248092
0.07290812 -0.016153185 -0.02434073 -0.012726064 0.34064034 -0.06105209 0.039290495 -0.0602046
0.242059 -0.23745883 0.109652966 -0.04044195 -0.03963452 -0.1957954 0.18868676 -0.13524978
-0.05990497 0.17836273 0.8546828 0.10314301 0.30340788 -0.06588219 -0.005929998 -0.13465688
0.083077915 -0.07112798 -0.18004067 0.011778401 0.0111960275 -0.060053486 0.22706197 -0.67552805
-0.080482975 -0.045317285 -0.03699981 -0.030407924 0.05086251 0.25088397 -0.20558082 -0.12984739
-0.25700977 0.12831825 0.073848136 -0.4562636 0.07276404 0.0402498 0.058904618 -0.0039687483
-0.09063877 0.08097484 -0.3119174 0.19190475 0.3381636 0.4663734 -0.21570486 0.03282671
0.02275855 0.100289635 0.011241644 -0.20888713 -0.109878756 -0.15699771 -0.026632166 0.24309516
0.26097283 0.035069626 -0.376929 -0.043006547 0.014524747 0.04571303 -0.08837799 0.034080174
0.06859377 -0.059568483 0.3777752 0.27206275 -0.1674957 -0.07011694 0.0037283702 -0.014468383
00000000: 6922 00bd b674 9d3c 76a9 c83d 73d0 113d
00000010: fefe 0fbd 4543 90bd c636 4d3d 172c d73b
00000020: ff9e 67be 6efa d23b 9035 7bbe db7c 823c
00000030: a503 273d f53b b93d 04cd bebd 5875 093e
00000040: c25f 71bd 75d1 6dbd 8207 f6bd 9483 89bd
00000050: 90e3 99be 334e 2dbd d882 013e 5f2f 743d
00000060: 23b0 11be 7859 d0bb 2d05 0d3d d2bf 95bc
00000070: 568d 053e 7ea2 cf3d acee babd 5a36 c3be
00000080: 9939 dc3d 3258 91bd bb0e 9e3d acec c13d
00000090: 63c1 f3b9 0aa7 2d3e 516e 943d c75e 613d
000000a0: a9d0 05bd c5e0 b4be ddb4 7ebe d1a3 c4bd
000000b0: dca4 12be 866d 393e 9a42 55be d7a3 f5bc
000000c0: 5413 93bd 7a99 fc3c b215 2bbc 6b20 78be
000000d0: 12aa 7cbe fee3 96be d1d5 47be ec03 8b3c
000000e0: 58de a53d 2363 febc 67be 223e 3352 fd3d
000000f0: 36d1 c03e 4ecc 3d3e f43d b0be bf8b 4c3c
00000100: 6173 8fbe 567e c7bd b379 773d ff74 babd
00000110: 5182 34bd 35ed 923c 30b6 c2be c196 97bd
00000120: 72c9 6a3e 1578 49bd 5260 ddbe ae59 84be
00000130: 62f0 ba3c db9e d1bd d380 8e3d 7d3c 933c
00000140: 7db9 1b3d dc5a 853e 52ac 393e 2025 ae3e
00000150: a1ad c4be d092 75be fd51 573e ed79 033e
00000160: e024 fa3d 246c f43c fc8e 15bd eca1 01bd
00000170: 3b3e 473e a130 98bd 89ca 2d3d 2377 ce3d
00000180: 6b7e bebe fc37 dbbd 3f8b 00be 0c84 a8bd
00000190: abbe f5bd efba 173d c600 563e a9a5 2abe
000001a0: 04cb 70bd eb7f cdba cdac d83e 13b4 a53d
000001b0: 4097 c4bd 93b0 acbd 003f 363d 9988 c93c
000001c0: f49a 46be 38c2 b13c e879 2ebd a27a 063e
000001d0: 2da8 a83d 6599 4d3d 474e 9c3c efe3 943d
000001e0: 8c9c e8be df77 663d 160d b8bb 20c0 fd3d
000001f0: 7c33 3b3d 6bd7 0b3e 9e26 babc 1502 a43e
00000200: d1c8 193c 749b f23b 2090 8f3e 3855 8abe
00000210: 0be1 dd3a 33d9 0a3e d544 503d 5f2c 22bd
00000220: 513d 35be b97a 533e fe8b 0e3f a25b 833c
00000230: 430a cbbd 3789 653b 91ba 7ebe 7cb3 8ebe
00000240: 9401 f2bc 161e 3bbd 17f3 073e 3a81 503d
00000250: 1136 513e 08d2 d93e 64f2 c2be 16e3 2ebd
00000260: e62d 13bd c734 8fbe 2d52 73be b1b8 01be
00000270: aeb0 6a3c b267 8ebd 4b52 71bd 0315 093e
00000280: 5cb7 1a3e df5e 0abe b642 a83c 8761 b6bd
00000290: dfa1 96bd 93af 3f3d 1b8d 9e3c 9bfb 80bd
000002a0: 5033 0d3d 3a87 293c c1b3 6d3e 5250 6b3e
000002b0: 6fde d0bd bcd6 3cbe a8fd ff3d 84e1 d1bd
000002c0: da50 953d af53 84bc 3666 c7bc fb80 50bc
000002d0: 6968 ae3e c211 7abd 12ef 203d 1999 76bd
000002e0: 51de 773e 6828 73be bc91 e03d 75a6 25bd
000002f0: ce57 22bd 977e 48be 1a37 413e eb7e 0abe
00000300: ea5e 75bd b8a4 363e 7ecc 5a3f a43c d33d
00000310: 4758 9b3e 3eed 86bd 6e50 c2bb 7ee3 09be
00000320: c124 aa3d 8cab 91bd 955c 38be 32fa 403c
00000330: 8b6f 373c a5fa 75bd ef82 683e 68ef 2cbf
00000340: 42d4 a4bd 9e9e 39bd 1d8d 17bd 0a1a f9bc
00000350: 3555 503d dd73 803e c783 52be b7f6 04be
00000360: c996 83be dc65 033e b13d 973d 629b e9be
00000370: 5005 953d f9dc 243d f845 713d 460c 82bb
00000380: d2a0 b9bd 23d6 a53d a3b3 9fbe ae82 443e
00000390: c823 ad3e 7fc8 ee3e bce1 5cbe 4d75 063d
000003a0: 2370 ba3c a764 cd3d df2e 383c 82e6 55be
000003b0: 1d08 e1bd 02c4 20be b32b dabc f0ed 783e
000003c0: 3b9e 853e 2ba5 0f3d d6fc c0be a227 30bd
000003d0: 34f9 6d3c 963d 3b3d 85ff b4bd a797 0b3d
000003e0: e47a 8c3d 15fe 73bd c06b c13e cf4b 8b3e
000003f0: fe83 2bbe 7899 8fbd ac57 743b cc0c 6dbc

classifier.0.bias f4 [180]
0.00946604 -0.23035218 0.039370686 -0.08747064 -0.08730885 0.006658105 0.09574241 -0.09446472
-0.01966904 0.074552126 0.11026985 -0.04146283 0.12260481 -0.058130134 -0.10535326 0.08795911
0.07040521 -0.053460393 -0.009287052 0.08186243 -0.093163766 0.1321259 -0.11142995 -0.08483936
-0.016808413 0.05311372 -0.030648546 -0.16269343 -0.16956584 0.14972472 -0.0500442 -0.046907183
-0.06348052 -0.07408426 -0.0112858005 0.044042792 -0.04446847 0.05126218 -0.03296603 -0.061371442
0.008361381 -0.022645293 0.11606951 -0.16374812 0.047175612 0.031217078 -0.023958666 -0.023432212
-0.01791665 0.17816317 0.12698089 0.08835181 0.18598002 -0.036882102 -0.0573908 -0.036994603
-0.14159831 0.13428888 -0.059613463 -0.23360094 -0.15901114 -0.05744469 0.05340932 -0.008897116
-0.10497698 0.058204107 -0.13107392 -0.17268318 -0.032579374 0.0723227 -0.03490875 -0.0049163755
-0.0022009904 -0.02443676 0.03531569 -0.04113569 0.050382134 -0.2674836 0.13013047 0.20837429
0.10833117 -0.12806511 -0.19357409 0.065908775 -0.0048338757 -0.18034616 0.02665612 0.13259566
-0.09483716 0.17421952 0.08291058 0.071322694 -0.048616946 -0.041976564 -0.12607588 -0.1692452
-0.07507569 -0.031060766 -0.02314215 -0.068983555 -0.017271472 0.0118275955 0.13997746 -0.06758722
0.03106755 -0.06649215 -0.16267326 -0.09146768 0.07150935 -0.11263535 0.11386749 0.11256669
0.16244921 0.07767986 0.09481718 -0.053265467 0.012621577 -0.23624204 0.17241123 -0.14499246
0.004413056 -0.15985225 -0.03403408 0.030107217 0.015970225 0.21686839 0.10840074 0.049227934
0.18586555 0.024400609 -0.15106444 0.0028888232 0.03687107 0.08820716 0.018706143 -0.044438764
0.19453871 0.04182419 -0.10216915 0.0733698 0.02978795 -0.1767755 0.09706929 -0.0012184491
-0.09408933 -0.05618678 -0.002992317 0.15591466 -0.07539536 -0.025509864 -0.0010433111 0.034241647
-0.056121882 0.07316659 0.09610353 -0.055880424 -0.13823438 0.10705949 0.04247024 -0.028415749
-0.0034507744 0.10884033 0.11153284 -0.14272635 0.03452985 -0.15713279 -0.13252077 -0.07052699
-0.042862006 -0.041862663 0.05576554 0.0053003808 0.19130154 -0.09191002 0.043059573 0.12921719
-0.005946927 0.13509318 0.10644862 -0.044938255
00000000: 7317 1b3c 71e1 6bbe 2843 213d cf23 b3bd
00000010: fbce b2bd 3c2c da3b 9914 c43d b876 c1bd
00000020: f720 a1bc c9ae 983d 29d5 e13d eed4 29bd
00000030: 3b18 fb3d dd19 6ebd 73c3 d7bd e823 b43d
00000040: 9b30 903d 49f9 5abd b828 18bc 7da7 a73d
00000050: a5cc bebd 034c 073e 6335 e4bd 42c0 adbd
00000060: ccb1 89bc c68d 593d a912 fbbc 1b99 26be
00000070: aba2 2dbe 7051 193e 26fb 4cbd bf21 40bd
00000080: 1302 82bd 7db9 97bd 14e8 38bc 3766 343d
00000090: 9224 36bd 4bf8 513d 6307 07bd 9f60 7bbd
000000a0: 2cfe 083c 9f82 b9bc dab5 ed3d 96ad 27be
000000b0: 373b 413d f5ba ff3c f744 c4bc e9f4 bfbc
000000c0: f0c5 92bc 6870 363e 4707 023e cbf1 b43d
000000d0: 8c71 3e3e b011 17bd 9e12 6bbd a787 17bd
000000e0: 26ff 10be 0683 093e 3f2d 74bd 1635 6fbe
000000f0: d1d3 22be 204b 6bbd bbc3 5a3d 36c5 11bc
00000100: 2cfe d6bd 6e67 6e3d 3e38 06be dcd3 30be
00000110: f371 05bd ec1d 943d 7afc 0ebd 8c19 a1bb
00000120: 7e3e 10bb 9a2f c8bc 2fa7 103d e67d 28bd
00000130: 7f5d 4e3d 9cf3 88be ec40 053e 1260 553e
00000140: bcdc dd3d 8023 03be 4938 46be 2efb 863d
00000150: 7d65 9ebb aaac 38be ef5d da3c 28c7 073e
00000160: fc39 c2bd 9a66 323e 06cd a93d a211 923d
00000170: 9022 47bd 9eef 2bbd 091a 01be 9d4e 2dbe
00000180: 49c1 99bd 2673 febc 9b94 bdbc 4047 8dbd
00000190: e77c 8dbc 88c8 413c 4056 0f3e 2b6b 8abd
000001a0: 6081 fe3c 092d 88bd d293 26be 6853 bbbd
000001b0: 7e73 923d 5dad e6bd 5c33 e93d 5d89 e63d
000001c0: 1659 263e 9e16 9f3d 822f c23d e42c 5abd
000001d0: bbca 4e3c 6fe9 71be 928c 303e e778 14be
000001e0: 669b 903b 4fb0 23be 5267 0bbd 69a3 f63c
000001f0: fdd3 823c bf12 5e3e 3501 de3d 3ba3 493d
00000200: 8a53 3e3e c9e3 c73c a3b0 1abe 6952 3d3b
00000210: 1e06 173d f5a5 b43d a03d 993c 6c05 36bd
00000220: 2835 473e d84f 2b3d 0f3e d1bd e842 963d
00000230: dc05 f43c a304 35be 44cc c63d 5eb4 9fba
00000240: e8b1 c0bd 1c24 66bd c01a 44bb 18a8 1f3e
00000250: e268 9abd 10fa d0bc b6bf 88ba f840 0c3d
00000260: 0fe0 65bd 5dd8 953d edd1 c43d dfe2 64bd
00000270: 508d 0dbe 0242 db3d 46f5 2d3d 25c8 e8bc
00000280: 6326 62bb aee7 de3d 546b e43d db26 12be
00000290: 2c6f 0d3d 6be7 20be 86b3 07be 7470 90bd
000002a0: 1290 2fbd 2f78 2bbd 686a 643d d1ae ad3b
000002b0: 8de4 433e 523b bcbd 3c5f 303d 8351 043e
000002c0: 70de c2bb de55 0a3e bc01 da3d 2d11 38bd

classifier.1.weight f4 [180]
0.8112436 0.9055511 0.91393185 0.8896168 0.94568837 0.9286203 0.9936519 1.0352938
1.0130067 0.9314644 0.92744994 0.932337 1.0736365 1.0553553 0.9198237 0.86049277
0.9624866 1.022902 1.0488102 0.98727477 0.9746637 0.97058165 1.0379753 0.87133104
0.93830705 1.0324917 0.74739134 0.9826644 1.0974209 0.94923925 0.97403276 1.0317376
1.039897 0.92939246 0.97526556 1.040257 1.0807186 0.9820496 0.91917264 0.8913435
0.9392264 0.88550395 0.91283685 0.95854425 0.866347 0.9688875 1.0123343 1.001913
0.84496224 1.0948896 0.93420786 0.9288212 1.0433577 0.95589006 1.0920525 1.0274819
0.97553545 0.9311255 1.0030283 0.9981939 0.95756006 1.0231907 0.92247546 1.0705714
0.93823975 0.90814763 1.0005989 0.9878551 0.9453056 0.89946544 1.0400566 1.0543604
1.0003616 0.8140276 0.9889279 0.942996 0.85532004 0.92012566 0.9494413 1.0925967
0.9966328 0.85611093 1.0239103 1.039797 1.0515419 0.9548557 1.0386114 1.085813
0.9276828 0.92525387 1.0324371 0.99397874 0.96267426 0.98808813 0.91233104 1.0243454
1.0766463 1.0708594 0.98701006 0.99677455 0.92639345 0.94365805 0.92704386 0.94175375
0.9019396 0.8887848 0.934646 0.99111265 0.9360826 0.9828327 0.898642 1.0136886
1.0522603 1.0507755 0.9944192 0.9653722 1.008509 0.96749544 0.940163 1.0085555
0.9341968 0.92610556 0.85640776 1.0417064 1.0297878 0.9824122 1.0800858 0.9087834
0.8901694 0.99489087 0.9873665 0.8924414 0.8352335 1.0742283 0.89173937 1.0401523
1.0498475 0.81445324 1.0481341 0.97062457 0.86384267 1.0190316 0.9180069 1.0675507
0.8756169 1.0036169 0.93548083 0.9273731 0.98450315 0.972755 0.99790704 1.0194159
0.97613215 0.9783123 0.8798009 0.9629985 0.8608622 0.96215886 0.8999757 1.164107
0.98594576 1.1270133 0.85914636 1.0140834 0.98469603 1.0170822 1.0936071 1.0403581
0.92000395 0.9815288 0.9581678 0.982291 0.95044726 0.9811232 0.88942534 0.9533778
0.98469996 0.9870448 1.2342802 0.996271
00000000: a9ad 4f3f 32d2 673f 70f7 693f edbd 633f
00000010: a218 723f 0fba 6d3f f95f 7e3f 8284 843f
00000020: 34aa 813f 7374 6e3f 5c6d 6d3f a3ad 6e3f
00000030: ec6c 893f e215 873f 9179 6b3f 4149 5c3f
00000040: 8665 763f 74ee 823f 6a3f 863f 0abe 7c3f
00000050: 8f83 793f 0a78 783f 60dc 843f 8d0f 5f3f
00000060: e434 703f b028 843f 0a55 3f3f e58f 7b3f
00000070: 4a78 8c3f 5801 733f 365a 793f fa0f 843f
00000080: 581b 853f aaec 6d3f 01ab 793f 2427 853f
00000090: fd54 8a3f 9a67 7b3f e64e 6b3f 162f 643f
000000a0: 2471 703f 63b0 623f adaf 693f 2863 753f
000000b0: ebc8 5d3f 0309 783f 2c94 813f af3e 803f
000000c0: 724f 583f 5825 8c3f 3f28 6f3f 3ac7 6d3f
000000d0: bf8c 853f 36b5 743f 60c8 8b3f 8784 833f
000000e0: b1bc 793f 3e5e 6e3f 3b63 803f a389 7f3f
000000f0: a822 753f eaf7 823f 5a27 6c3f 7c08 893f
00000100: 7b30 703f 5d7c 683f a013 803f 12e4 7c3f
00000110: 8cff 713f 5e43 663f 9320 853f 48f5 863f
00000120: d90b 803f 1d64 503f 612a 7d3f 3068 713f
00000130: 41f6 5a3f 5b8d 6b3f 960e 733f 35da 8b3f
00000140: 5423 7f3f 162a 5b3f 7e0f 833f 1118 853f
00000150: ed98 863f 6c71 743f 38f1 843f ecfb 8a3f
00000160: 9f7c 6d3f 70dd 6c3f e626 843f 6475 7e3f
00000170: d271 763f 58f3 7c3f 878e 693f c01d 833f
00000180: 8ccf 893f ec11 893f b1ac 7c3f 9e2c 7f3f
00000190: 1f28 6d3f 9393 713f bf52 6d3f c616 713f
000001a0: 83e5 663f 6787 633f f644 6f3f 8fb9 7d3f
000001b0: 1ca3 6f3f ec9a 7b3f 670d 663f 8cc0 813f
000001c0: 77b0 863f d07f 863f 4292 7e3f a222 773f
000001d0: d316 813f c8ad 773f 86ae 703f 5918 813f
000001e0: 8627 6f3f 4115 6d3f 8a3d 5b3f a356 853f
000001f0: 16d0 833f 5e7f 7b3f 4040 8a3f 07a6 683f
00000200: 24e2 633f 2bb1 7e3f 0dc4 7c3f 0a77 643f
00000210: ddd1 553f 5080 893f 0849 643f b623 853f
00000220: 6761 863f 0280 503f 4229 863f da7a 783f
00000230: cb24 5d3f a16f 823f 8002 6b3f 80a5 883f
00000240: 6e28 603f 8576 803f ac7b 6f3f 5368 6d3f
00000250: 6608 7c3f 7906 793f d676 7f3f 387c 823f
00000260: cce3 793f ad72 7a3f a23a 613f 1287 763f
00000270: 7761 5c3f 0b50 763f cf64 663f 7501 953f
00000280: f166 7c3f f941 903f 04f1 5b3f 7ccd 813f
00000290: 0a15 7c3f c02f 823f 51fb 8b3f 742a 853f
000002a0: 6185 6b3f 7945 7b3f 7c4a 753f 6c77 7b3f
000002b0: 8350 733f e42a 7b3f 61b1 633f 9110 743f
000002c0: 4c15 7c3f f8ae 7c3f e5fc 9d3f 9e0b 7f3f

classifier.1.bias f4 [180]
-0.26292333 -0.21305735 -0.21362503 -0.22157791 -0.2590979 -0.26069254 -0.23416871 -0.22979674
-0.31729925 -0.20144169 -0.27007896 -0.21028756 -0.3048544 -0.13232921 -0.2956166 -0.3256882
-0.32465026 -0.14587559 -0.16614954 -0.31460997 -0.14034198 -0.35588104 -0.25574657 -0.23211585
-0.2543213 -0.27211925 -0.30321652 -0.2745605 -0.25418586 -0.19818759 -0.21729296 -0.20082453
-0.16604954 -0.2196327 -0.19319278 -0.1237581 -0.24698727 -0.30540067 -0.17880313 -0.21231008
-0.117703095 -0.104339726 -0.23295872 -0.19325645 -0.20308492 -0.19844505 -0.23983158 -0.27459952
-0.40232152 -0.22929679 -0.26351857 -0.22551453 -0.20230383 -0.22410326 -0.3121112 -0.16457434
-0.23604573 -0.258382 -0.21942553 -0.15957779 -0.2851038 -0.15096328 -0.21891092 -0.11736464
-0.18202302 -0.24635881 -0.31910095 -0.333843 -0.15899259 -0.293423 -0.3574563 -0.3139313
-0.27537838 -0.32246947 -0.12583956 -0.1209607 -0.22033654 -0.29190668 -0.25789374 -0.20394674
-0.20309967 -0.21362615 -0.22364266 -0.3233693 -0.31921294 -0.14225395 -0.2116594 -0.352865
-0.3047392 -0.28139043 -0.18697813 -0.16046633 -0.20228633 -0.2708932 -0.13177721 -0.28145573
-0.31167778 -0.2525767 -0.1679623 -0.20265952 -0.22349979 -0.39304322 -0.27148396 -0.33678907
-0.35525507 -0.2992135 -0.09694761 -0.3933632 -0.2799677 -0.22465941 -0.2757843 -0.19308247
-0.19730628 -0.2278166 -0.32657766 -0.1910923 -0.24647795 -0.18910073 -0.2193458 -0.119956404
-0.25822446 -0.33577374 -0.3083953 -0.20585445 -0.30677065 -0.2660907 -0.32930323 -0.13914289
-0.17681853 -0.23903297 -0.26427165 -0.2429217 -0.30768606 -0.25331643 -0.21474801 -0.062709235
-0.3623023 -0.3262814 -0.22381584 -0.21366672 -0.2035764 -0.023303127 -0.17587906 -0.016221505
-0.19545595 -0.21895026 -0.10514555 -0.14671691 -0.31875563 -0.27501413 -0.19329096 -0.1044428
-0.16660748 -0.2024305 -0.236671 -0.24125682 -0.35927498 -0.27645668 -0.32206616 -0.23003693
-0.18799397 -0.18210813 -0.18295875 -0.39196786 -0.27010328 -0.21416292 -0.26087782 -0.29188842
-0.32084927 -0.06613755 -0.0657065 -0.099413015 -0.1976458 -0.24418099 -0.24943534 -0.14658228
-0.077928156 -0.2404661 -0.40361425 -0.2959602
00000000: e39d 86be b52b 5abe 85c0 5abe 52e5 62be
00000010: 7ba8 84be 7e79 85be ecc9 6fbe d64f 6bbe
00000020: 0c75 a2be bb46 4ebe ca47 8abe 9f55 57be
00000030: e015 9cbe 4f81 07be 0f5b 97be 9bc0 a6be
00000040: 8f38 a6be 6960 15be 1b23 2abe 8f14 a1be
00000050: cfb5 0fbe 0a36 b6be 37f1 82be c7af 6dbe
00000060: 6736 82be 3753 8bbe 323f 9bbe 3293 8cbe
00000070: a624 82be b0f1 4abe 0c82 5ebe f2a4 4dbe
00000080: e408 2abe 65e7 60be 54d4 45be e374 fdbd
00000090: 3bea 7cbe 7a5d 9cbe 2b18 37be d067 59be
000000a0: 520e f1bd 11b0 d5bd bb8c 6ebe 05e5 45be
000000b0: 7ef5 4fbe 2e35 4bbe 6996 75be 4f98 8cbe
000000c0: 16fd cdbe c7cc 6abe e8eb 86be 48ed 66be
000000d0: bc28 4fbe 537b 65be 0acd 9fbe 2d86 28be
000000e0: f9b5 71be a54a 84be 16b1 60be 5c68 23be
000000f0: 20f9 91be 1e96 1abe 2f2a 60be df5c f0bd
00000100: 3e64 3abe 7c45 7cbe 3361 a3be 78ed aabe
00000110: f4ce 22be 8a3b 96be 8304 b7be 9abb a0be
00000120: 65fe 8cbe b81a a5be 16dc 00be 3eba f7bd
00000130: e79f 61be cb74 95be a60a 84be 6ad7 50be
00000140: 5cf9 4fbe d0c0 5abe 9502 65be a990 a5be
00000150: e16f a3be 05ab 11be 3ebd 58be b9aa b4be
00000160: c706 9cbe 6812 90be 3277 3fbe 4951 24be
00000170: 2624 4fbe 83b2 8abe 9bf0 06be f71a 90be
00000180: 3b94 9fbe bc51 81be 4ffe 2bbe fa85 4fbe
00000190: 21dd 64be f63c c9be f2ff 8abe 9e6f acbe
000001a0: fee3 b5be 8332 99be 788c c6bd e766 c9be
000001b0: ed57 8fbe 1e0d 66be 9a33 8dbe 69b7 45be
000001c0: a80a 4abe c148 69be 3035 a7be b3ad 43be
000001d0: b764 7cbe 9fa3 41be 2f9c 60be b4ab f5bd
000001e0: ff35 84be 89ea abbe fde5 9dbe 82cb 52be
000001f0: 0b11 9dbe 0a3d 88be 6f9a a8be 797b 0ebe
00000200: eb0f 35be 0fc5 74be 9d4e 87be 77c0 78be
00000210: 0789 9dbe b1b2 81be e7e6 5bbe b36d 80bd
00000220: b07f b9be 5b0e a7be fb2f 65be 73cb 5abe
00000230: 5576 50be 33e6 bebc a419 34be f6e2 84bc
00000240: 9b25 48be 7f34 60be 8d56 d7bd f53c 16be
00000250: f033 a3be a7ce 8cbe 11ee 45be 1be6 d5bd
00000260: 279b 2abe f149 4fbe e259 72be 070c 77be
00000270: e4f2 b7be bb8b 8dbe dbe5 a4be cd8e 6bbe
00000280: 7e81 40be 8e7a 3abe 8a59 3bbe 03b0 c8be
00000290: fa4a 8abe 864d 5bbe c791 85be 6672 95be
000002a0: 5b46 a4be 2073 87bd 2191 86bd 0d99 cbbd
000002b0: a963 4abe 950a 7abe fa6b 7fbe aa19 16be
000002c0: cc98 9fbd bf3c 76be 87a6 cebe 1888 97be

classifier.1.running_mean f4 [180]
0.09610634 -0.20102605 0.081555516 -0.14782633 0.00075473735 0.13006216 0.15482548 -0.14788961
-0.13719939 0.042272333 0.023486255 -0.119777225 0.22741972 -0.022334974 -0.18638647 0.07296266
-0.06780117 -0.04606899 -0.06261302 0.08193842 -0.095390946 0.070070915 -0.16278464 -0.025847288
-0.053193238 0.057747137 -0.022845939 -0.25685573 -0.085613415 0.07068875 -0.13942792 -0.08283053
-0.15658547 0.07994663 0.09022295 0.1935193 -0.22732955 0.181846 0.07631022 -0.04149316
0.15897408 -0.013279206 0.062569186 -0.09200043 -0.05562693 0.12400081 0.101266965 0.085661754
-0.11730378 0.34779656 0.041402843 0.02149274 0.19304515 0.2656794 -0.027896944 -0.007952659
-0.21619485 0.31668907 -0.14202379 -0.012673325 -0.33546156 0.06194487 0.07377221 -0.049319487
-0.042866383 -0.056426127 -0.0010688722 -0.19019629 -0.12359551 -0.03059102 0.08779364 0.07916612
0.15821156 -0.05556193 0.14055698 0.042847145 0.031831376 -0.1717135 0.30453208 0.17397794
0.1500204 -0.19661677 0.029751197 0.022392418 0.08386622 -0.106208004 0.027132433 0.17482898
-0.060716033 0.07594531 -0.11214079 0.1624108 -0.00613121 0.0030421012 -0.0029860036 -0.33269215
-0.13458045 -0.09350342 -0.0022640396 -0.11859207 0.027468555 0.056222156 0.079611026 -0.21242054
0.18399867 -0.053035658 -0.11314094 -0.18407111 0.082662374 -0.12311297 0.12251998 0.20700124
0.040636532 0.08259227 0.20791528 -0.1355063 0.105957 -0.34711275 0.3139737 -0.23353085
0.042294383 -0.15083465 -0.08391668 0.04864268 -0.0642196 0.28612494 0.14119151 0.07214549
0.23538849 0.008666025 0.025257658 0.07834085 0.1358755 0.20159127 0.13243282 -0.035329692
0.27991566 -0.03432938 -0.00735187 0.22276974 0.023129271 -0.3189027 -0.015780032 0.05088082
-0.15593165 0.023747258 0.086284935 0.06340762 -0.12432288 0.009930415 0.006485069 0.16866484
-0.10987719 0.022138285 0.02903412 0.052921362 -0.31592453 0.14553514 0.060528506 0.24425687
0.17944986 0.113536224 -0.007454712 0.029828098 0.035745602 -0.09511256 -0.020522509 -0.0113208685
-0.1771513 0.09896281 -0.04042687 0.17034265 0.24771895 -0.10045339 0.04380379 0.11322783
-0.118459925 0.05052943 -0.15235959 -0.025419684
00000000: 67d3 c43d c6d9 4dbe 9406 a73d c95f 17be
00000010: 91d9 453a 042f 053e 928a 1e3e 6070 17be
00000020: ff7d 0cbe c125 2d3d 3f66 c03c c34d f5bd
00000030: b7e0 683e d6f7 b6bc 18dc 3ebe 726d 953d
00000040: 57db 8abd d6b2 3cbd 413b 80bd 55cf a73d
00000050: 545c c3bd 5781 8f3d 04b1 26be b1bd d3bc
00000060: 27e1 59bd 4388 6c3d 6827 bbbc 9882 83be
00000070: 1656 afbd 43c5 903d 31c6 0ebe 0ea3 a9bd
00000080: f157 20be 0fbb a33d cfc6 b83d ec29 463e
00000090: 14c9 68be d635 3a3e 8848 9c3d bbf4 29bd
000000a0: 1aca 223e 0791 59bc 4624 803d b96a bcbd
000000b0: 10d9 63bd 23f4 fd3d 0e65 cf3d 6e6f af3d
000000c0: f73c f0bd 6412 b23e 0796 293d 8b11 b03c
000000d0: a1ad 453e 2107 883e 2288 e4bc df4b 02bc
000000e0: 2f62 5dbe 1225 a23e af6e 11be c7a3 4fbc
000000f0: 9ec1 abbe e7b9 7d3d e215 973d 3b03 4abd
00000100: a994 2fbd 151f 67bd 6619 8cba d1c2 42be
00000110: a51f fdbd 059a fabc 27cd b33d d921 a23d
00000120: 3602 223e e894 63bd 2bee 0f3e 7d80 2f3d
00000130: 9e61 023d aad5 2fbe a1eb 9b3e 4627 323e
00000140: f39e 193e e855 49be c8b8 f33c 4e70 b73c
00000150: 0ec2 ab3d 9583 d9bd d644 de3c 5e06 333e
00000160: 60b1 78bd 3789 9b3d 12aa e5bd 044f 263e
00000170: 51e8 c8bb fd5d 473b d4b0 43bb a056 aabe
00000180: 75cf 09be b97e bfbd 4860 14bb 66e0 f2bd
00000190: bc05 e13c 3449 663d 1b0b a33d c584 59be
000001a0: 266a 3c3e eb3b 59bd 70b6 e7bd 237d 3cbe
000001b0: e44a a93d a722 fcbd c1eb fa3d 22f8 533e
000001c0: 7e72 263d 2326 a93d bee7 543e 2ac2 0abe
000001d0: fcff d83d c3b8 b1be 29c1 a03e b622 6fbe
000001e0: e03c 2d3d 6674 1abe 82dc abbd 8c3d 473d
000001f0: 9185 83bd f87e 923e 8294 103e 04c1 933d
00000200: ae09 713e f1fb 0d3c 26e9 ce3c 2b71 a03d
00000210: f222 0b3e f16d 4e3e 789c 073e deb5 10bd
00000220: 1b51 8f3e f79c 0cbd f5e7 f0bb c01d 643e
00000230: 9979 bd3c 3747 a3be 2045 81bc 6868 503d
00000240: 8cac 1fbe 9c89 c23c 28b6 b03d dbdb 813d
00000250: fe9c febd 2eb3 223c b480 d43b 7ab6 2c3e
00000260: 4b07 e1bd 595b b53c f6d8 ed3c 12c4 583d
00000270: dcc0 a1be 2a07 153e bdec 773d 791e 7a3e
00000280: b4c1 373e ae85 e83d a846 f4bb 0e5a f43c
00000290: fb69 123d 60ca c2bd d21e a8bc 2a7b 39bc
000002a0: 2667 35be 04ad ca3d a596 25bd 4e6e 2e3e
000002b0: 09aa 7d3e 82ba cdbd 9a6b 333d fee3 e73d
000002c0: 1e9b f2bd f3f7 4e3d 2704 1cbe f13c d0bc

classifier.1.running_var f4 [180]
0.004568207 0.00096895767 0.0019105349 0.0017979585 0.0013986572 0.0011396828 0.0012415013 0.00045889383
0.0016047151 0.0017403103 0.0013569947 0.0014195868 0.0006147032 0.0011786403 0.0012294011 0.0016371621
0.00094567746 0.0012390794 0.0016455372 0.0009506954 0.0013114867 0.00076281215 0.0005003588 0.0034049437
0.0008092578 0.0013020147 0.0045748847 0.0014033893 0.0008794616 0.0010752548 0.0006957605 0.0008313786
0.0006383266 0.0016624159 0.0020912872 0.0015556009 0.0032226911 0.0007562689 0.0013813787 0.0013189851
0.0017991887 0.0010333052 0.0008563423 0.0012655051 0.0024443562 0.0013294332 0.0010201223 0.0027772877
0.0021747414 0.00084814976 0.001390886 0.0015802883 0.0017546881 0.0020642583 0.00061763875 0.0030015232
0.00071210216 0.0022689428 0.0017009284 0.0020333128 0.0023561365 0.00084008375 0.0005455031 0.00066161936
0.0010482958 0.0010938145 0.0019618054 0.0018346459 0.0029412734 0.0015704271 0.0016603188 0.00064428797
0.0012449096 0.0012855828 0.0021006346 0.0029591166 0.0019454238 0.0007812296 0.0014152379 0.0014523105
0.0011135201 0.0014137519 0.0017564502 0.00077032606 0.00091733586 0.0007285083 0.00074275036 0.0007327292
0.0011797822 0.0022287953 0.0010162478 0.002075165 0.001352489 0.0016698858 0.002526452 0.0007009618
0.0009287575 0.0007052323 0.0018962399 0.0024160375 0.0010444381 0.0014309227 0.0008575217 0.0015249252
0.0020662576 0.0025635813 0.0008022471 0.000868612 0.000901306 0.0010373521 0.0028103555 0.0012880778
0.0019270591 0.0006312372 0.0011073406 0.0021167637 0.002546453 0.0012373262 0.0011310595 0.0012439191
0.000811322 0.0024045715 0.0015483203 0.0013366067 0.0013244689 0.0009944474 0.00086716446 0.0042246454
0.003803094 0.00053059286 0.0013416093 0.00188386 0.004606484 0.0021445593 0.0042345664 0.002912966
0.0009973696 0.0064695533 0.0014748956 0.0014164257 0.0031447962 0.0028249184 0.0016838796 0.0038383016
0.0012734436 0.0015575427 0.0039021694 0.0011351794 0.0006127398 0.0008929883 0.00050523266 0.0017122071
0.0016266593 0.0009543153 0.0021200052 0.0027880184 0.0010209378 0.0008222645 0.0015986956 0.0015131376
0.0019450835 0.0016523423 0.0016610665 0.002422769 0.0009682947 0.0012360521 0.0006888883 0.0009582185
0.0010056411 0.0041805813 0.003070524 0.0038536547 0.0013432183 0.00082864513 0.0029344813 0.0015908314
0.0015329929 0.0012445991 0.0012434396 0.0015044317
00000000: e6b0 953b a601 7e3a ea6a fa3a 7aa9 eb3a
00000010: 2653 b73a 6961 953a dfb9 a23a b097 f039
00000020: 4e55 d23a 201b e43a 30dd b13a 6e11 ba3a
00000030: 0924 213a 9b7c 9a3a db23 a13a 0b96 d63a
00000040: 57e7 773a 9b68 a23a 11af d73a 1738 793a
00000050: 31e6 ab3a 75f7 473a 832a 033a 7a25 5f3b
00000060: 5f24 543a 5da8 aa3a eae8 953b eef1 b73a
00000070: ab8b 663a 90ef 8c3a b263 363a e0f0 593a
00000080: 5f55 273a 6ce5 d93a fa0d 093b 4ee5 cb3a
00000090: c933 533b 5940 463a 610f b53a cce1 ac3a
000000a0: c1d2 eb3a f86f 873a 297c 603a 4edf a53a
000000b0: 7e31 203b 6040 ae3a a0b5 853a 2803 363b
000000c0: 1b86 0e3b 5e56 5e3a 644e b63a ad21 cf3a
000000d0: 90fd e53a 8248 073b 09e9 213a 34b5 443b
000000e0: 5eac 3a3a 8bb2 143b b0f1 de3a 5441 053b
000000f0: 6969 1a3b 1139 5c3a 1800 0f3a 8670 2d3a
00000100: f866 893a 535e 8f3a a291 003b 8078 f03a
00000110: 61c2 403b cad6 cd3a 0e9f d93a 6fe5 283a
00000120: 3c2c a33a 0081 a83a cdaa 093b bded 413b
00000130: 97fd fe3a 6ecb 4c3a 817f b93a 745b be3a
00000140: 89f3 913a a44d b93a b038 e63a b5ef 493a
00000150: 5e79 703a 5df9 3e3a 22b5 423a a014 403a
00000160: eca2 9a3a fb10 123b 9e33 853a 7eff 073b
00000170: 0046 b13a 12e0 da3a d592 253b c0c0 373a
00000180: dc77 733a 57df 383a 418b f83a 6256 1e3b
00000190: 87e5 883a cc8d bb3a 4fcb 603a 00e0 c73a
000001a0: 0d6a 073b c201 283b e44d 523a 91b3 633a
000001b0: 9f45 6c3a c3f7 873a f12d 383b b8d4 a83a
000001c0: 6095 fc3a 9d79 253a 2f24 913a 67b9 0a3b
000001d0: 64e2 263b c72d a23a 0f40 943a 000b a33a
000001e0: e6ae 543a 0496 1d3b 02f1 ca3a 1431 af3a
000001f0: cd99 ad3a 1e58 823a 6c52 633a e56e 8a3b
00000200: 543d 793b 7c17 0b3a f0d8 af3a daeb f63a
00000210: fdf1 963b bc8b 0c3b 1ec2 8a3b 76e7 3e3b
00000220: 2cba 823a 8cfe d33b 4951 c13a 5ca7 b93a
00000230: ed18 4e3b 4422 393b a0b5 dc3a 048c 7b3b
00000240: ade9 a63a 7626 cc3a 8abb 7f3b 4dca 943a
00000250: 46a0 203a 6e17 6a3a 9771 043a 236c e03a
00000260: a135 d53a 042b 7a3a c9ef 0a3b 30b7 363b
00000270: fdd0 853a 3d8d 573a 538b d13a 7954 c63a
00000280: 2cf2 fe3a 6893 d83a 25b8 d93a 52c7 1e3b
00000290: 28d5 7d3a 0703 a23a 8396 343a f430 7b3a
000002a0: b7cf 833a 42fd 883b d83a 493b 998d 7c3b
000002b0: ed0e b03a 6f39 593a 6d50 403b 7283 d03a
000002c0: b5ee c83a d121 a33a e9fa a23a 5a30 c53a

classifier.4.weight f4 [190, 180]
0.024203816 -0.020310458 -0.121852785 -0.15134807 -0.12288024 -0.17898178 -0.028264575 0.15518884
0.12911902 -0.021352986 -0.07700695 -0.0753232 0.10296939 -0.16305606 0.06695943 -0.12170519
0.026287299 0.042584777 -0.08513277 0.023544002 -0.0020921028 -0.071627244 0.011977227 -0.011877761
0.17148578 0.055705503 0.17901404 -0.17641957 -0.086009935 0.009064867 0.03975865 0.04704099
-0.07121884 0.010135449 0.02896135 -0.004759352 0.04946213 -0.0023877635 0.05890092 -0.057861336
-0.070403896 -0.15063873 0.124759495 0.07524343 0.089479454 -0.12545338 -0.057935517 -0.04516387
0.084035225 0.041856777 0.12859568 0.11088793 0.049496613 -0.003051264 -0.057307463 -0.12836786
0.104715 -0.0943859 -0.0072163804 -0.068909235 -0.031242093 -0.11388226 0.014323013 -0.04710483
-0.12361202 -0.026042104 -0.00422446 0.013048015 -0.23023784 0.112152986 0.013588642 0.015055405
-0.12715548 0.042840082 -0.007534319 -0.10484687 0.05239625 -0.023243062 -0.10351384 -0.22478373
0.057763714 -0.11121713 -0.04054005 0.16320978 -0.019118689 -0.06093692 0.054278295 -0.020567808
-0.05352995 0.10734465 -0.047283627 -0.028858658 0.03794894 0.04993266 -0.031446826 -0.040377595
0.018980421 -0.12285355 0.09951847 -0.0863814 0.020119729 -0.0523769 0.009340237 -0.10568657
-0.029888026 0.00962418 0.13067748 0.17214727 0.022043033 0.019429566 -0.03482478 -0.047786694
0.018382113 -0.2379342 -0.1341052 -0.05502628 0.035472564 0.12166686 0.04673316 0.11196456
-0.03624225 0.14642574 -0.015866118 -0.039164834 0.17475179 0.007442362 -0.0046929596 -0.090164945
0.027078805 0.121446855 0.05874997 0.10827351 0.1234573 -0.08437591 0.0148457475 0.04170062
-0.24659307 0.18545105 -0.07026201 0.025253989 0.07843233 -0.011565039 0.011175733 -0.12469178
0.10196632 -0.034999534 -0.009385566 -0.10260453 -0.06977647 -0.0600192 0.039507076 0.0967576
0.10307026 0.037380625 0.028824352 -0.035566337 0.12938482 0.07530479 0.099304385 -0.054858085
-0.19494 -0.08494237 -0.079951055 -0.03709333 -0.06507113 -0.11925119 0.058046177 -0.047593284
0.12544182 -0.038611013 -0.07475474 -0.038908653 -0.07166391 -0.122185156 0.121205054 -0.095329374
-0.04611892 -0.026871268 0.006788118 -0.012444632 0.09105436 -0.15299405 -0.088377535 0.097937524
0.04590795 0.08026425 0.01476012 -0.10651521 -0.08995205 0.008414443 0.086686596 0.03426461
-0.054470785 -0.06650231 -0.017147733 0.008163071 -0.046323787 0.02039279 -0.10744641 0.06794662
-0.021889007 0.07333148 0.03093926 -0.17273182 -0.011248338 0.009185757 -0.06372867 -0.08020259
0.02749547 -0.033023164 -0.020977754 -0.07430664 -0.09378755 0.0010914934 -0.10510117 -0.009996818
-0.083884224 0.1413895 0.02457565 0.043784842 -0.07885619 -0.0014484451 0.063081 0.105553925
-0.006813433 -0.17415251 -0.085665375 -0.09247508 -0.0032898372 -0.011119044 -0.056342304 0.016298804
-0.13553472 0.07103134 0.06438756 -0.02203189 0.14289486 0.055357903 -0.08147736 -0.004785467
-0.15398794 0.052882124 0.03400146 0.015496194 -0.00081179535 0.067863956 -0.0077634277 0.17198193
-0.0963965 -0.08728933 -0.22931588 0.08345858 0.12566547 0.02738813 -0.1057633 0.05443288
00000000: 1547 c63c 1e62 a6bc f48d f9bd fdfa 1abe
00000010: a3a8 fbbd 0047 37be 1c8b e7bc d3e9 1e3e
00000020: c737 043e 75ec aebc d2b5 9dbd 0d43 9abd
00000030: 9ee1 d23d 2bf8 26be 0722 893d 9240 f9bd
00000040: 7658 d73c 606d 2e3d 175a aebd 5adf c03c
00000050: a91b 09bb 4eb1 92bd 223c 443c f19a 42bc
00000060: f899 2f3e 742b 643d 754f 373e 55a7 34be
00000070: fa25 b0bd cf84 143c f7d9 223d 0eae 403d
00000080: 2fdb 91bd 270f 263c 5a40 ed3c 57f4 9bbb
00000090: cd98 4a3d 067c 1cbb 1742 713d 0200 6dbd
000000a0: eb2f 90bd 0a41 1abe e881 ff3d 3a19 9a3d
000000b0: 0141 b73d da76 00be cb4d 6dbd c0fd 38bd
000000c0: a91a ac3d 0372 2b3d 96ae 033e 3619 e33d
000000d0: f6bc 4a3d b7f7 47bb 3bbb 6abd dd72 03be
000000e0: d174 d63d 654d c1bd 6377 ecbb 4920 8dbd
000000f0: 6bef ffbc 1a3b e9bd 12ab 6a3c fff0 40bd
00000100: 4c28 fdbd 4056 d5bc 576d 8abb 57c7 553c
00000110: 78c3 6bbe 77b0 e53d e5a2 5e3c f2aa 763c
00000120: 0c35 02be 1579 2f3d 73e2 f6bb f5b9 d6bd
00000130: 739d 563d 3c68 bebc 10ff d3bd b52d 66be
00000140: a599 6c3d cfc5 e3bd 530d 26bd 7720 273e
00000150: cc9e 9cbc fe98 79bd eb52 5e3d d27d a8bc
00000160: 3942 5bbd 83d7 db3d 7aac 41bd fe68 ecbc
00000170: 5970 1b3d 3086 4c3d 63ce 00bd fa62 25bd
00000180: d47c 9b3c a49a fbbd 57d0 cb3d bbe8 b0bd
00000190: 21d2 a43c 2989 56bd cb07 193c 3372 d8bd
000001a0: bcd7 f4bc bdae 1d3c 51d0 053e 6047 303e
000001b0: 9793 b43c c12a 9f3c 6ea4 0ebd fbbb 43bd
000001c0: 1696 963c 06a5 73be e052 09be 3d63 61bd
000001d0: ae4b 113d 7a2c f93d 456b 3f3d ad4d e53d
000001e0: c172 14bd a1f0 153e a9f9 81bc 4e6b 20bd
000001f0: 22f2 323e 0fdf f33b 66c7 99bb 66a8 b8bd
00000200: 5fd4 dd3c 21b9 f83d cfa3 703d 81be dd3d
00000210: 2ed7 fc3d 47cd acbd 943b 733c 45ce 2a3d
00000220: e582 7cbe e1e6 3d3e 87e5 8fbd 74e1 ce3c
00000230: 21a1 a03d 4a7b 3dbc 6c1a 373c 675e ffbd
00000240: b8d3 d03d ac5b 0fbd ebc5 19bc 5322 d2bd
00000250: f7e6 8ebd b1d6 75bd 2cd2 213d d928 c63d
00000260: 8016 d33d 6d1c 193d 0c21 ec3c 02ae 11bd
00000270: 747d 043e 6639 9a3d 1960 cb3d dfb2 60bd
00000280: 5a9e 47be 44f6 adbd 61bd a3bd 2def 17bd
00000290: 0344 85bd f839 f4bd d4c1 6d3d 2df1 42bd
000002a0: d273 003e 9526 1ebd 0319 99bd ae5e 1fbd
000002b0: 87c4 92bd 363c fabd 5b3a f83d 0c3c c3bd
000002c0: 31e7 3cbd 2221 dcbc dc6e de3b 92e4 4bbc
000002d0: b57a ba3d 79aa 1cbe 48ff b4bd 7893 c83d
000002e0: f909 3c3d 9561 a43d 6ed4 713c a524 dabd
000002f0: c838 b8bd bbdc 093c be88 b13d 0c59 0c3d
00000300: c21c 5fbd 5d32 88bd 6779 8cbc 67be 053c
00000310: 03be 3dbd c80e a73c dd0c dcbd 9927 8b3d
00000320: 9350 b3bc d12e 963d 5574 fd3c 9ce0 30be
00000330: f34a 38bc db7f 163c 2d84 82bd 4141 a4bd
00000340: 2e3e e13c 4c43 07bd 8ad9 abbc 142e 98bd
00000350: b013 c0bd 7110 8f3a 483f d7bd b2c9 23bc
00000360: 7ecb abbd 69c8 103e e052 c93c bc57 333d
00000370: 5b7f a1bd c1d9 bdba 9c30 813d a82c d83d
00000380: 3843 dfbb 0955 32be 5471 afbd 9363 bdbd
00000390: 4f9a 57bb a72c 36bc 30c7 66bd 1285 853c
000003a0: 9dc9 0abe e178 913d a0dd 833d 397c b4bc
000003b0: 0853 123e f8be 623d 9add a6bd 68cf 9cbb
000003c0: 04af 1dbe ed9a 583d 1d45 0b3d c0e3 7d3c
000003d0: aace 54ba 42fc 8a3d 5a64 febb 081c 303e
000003e0: 876b c5bd c0c4 b2bd c8d1 6abe 55ec aa3d
000003f0: 73ae 003e 125d e03c 6e9a d8bd 03f5 5e3d

classifier.4.bias f4 [190]
-0.07516946 -0.005709827 -0.07114747 -0.015361492 -0.053458225 0.006113912 0.06502425 -0.07194693
0.0043913526 -0.05412011 -0.021574898 0.0822195 -0.09063064 0.029365169 0.04688227 -0.007215369
0.08437532 0.025533766 -0.03965715 0.043913536 0.052715015 0.07565452 -0.098812945 0.070660524
0.0062746108 -0.020613953 -0.057982147 0.07489748 -0.008763962 -0.0072852336 0.05066396 0.013495074
-0.0013994664 0.040280927 0.067083314 -0.055899344 0.016346049 0.022838097 -0.08049994 0.030346425
-0.017612945 0.028130183 -0.055338103 -0.03415126 -0.0016483206 0.028357873 0.041320335 -0.040587563
-0.06291348 0.019842114 0.025205977 0.023264447 -0.052951317 0.047079165 0.01975768 -0.052127045
0.07362783 0.025069926 0.04052545 -0.082664765 -0.05245497 -0.019810013 0.057818305 -0.070310615
-0.007568618 0.053168837 -0.045852482 -0.04477814 -0.08376352 0.055645473 -0.06661928 0.023063045
-0.011367368 0.036508165 -0.021986349 0.023091167 0.0298109 -0.009661213 -0.032114547 -0.117314875
0.021997066 -0.057429772 0.01104679 0.002871303 -0.080780186 -0.051981166 -0.0025825633 0.019442853
-0.057401523 -0.008594724 0.010795941 -0.0005333104 -0.027906097 0.0049526584 0.064047575 -0.023918588
-0.02705339 -0.0570068 -0.05576367 0.029543504 -0.033915542 0.0098185325 -0.009607356 -0.042707745
0.0006720822 -0.080970034 -0.029675793 -0.081220545 0.02012508 0.041596677 0.04300144 -0.002319883
0.060427684 0.076414235 0.010757055 -0.03877941 0.0059488784 0.050273333 -0.03435373 0.04889526
-0.05300596 -0.028940054 -0.06389878 -0.03549317 0.005027336 -0.018408751 -0.08397925 0.040430978
-0.00630224 -0.003257822 0.023576837 -0.012755445 -0.02255062 0.08720277 0.0020690614 -0.06096867
-0.037400104 0.06469739 0.005170343 -0.06656476 -0.0731792 -0.07838543 -0.040828567 0.056027267
0.05406915 0.050496202 0.03436395 -0.062365633 0.012577285 -0.017698849 -0.041528452 0.028583806
0.029587097 -0.034426115 -2.1771704e-05 -0.0746481 -0.062186092 0.014032775 -0.0141854165 0.02502531
-0.0730764 -0.041716762 0.030329792 0.04003143 -0.053824354 0.013281163 0.0011468504 0.050669115
-0.04666276 -0.05365504 0.03523011 -0.060792588 0.0054678842 0.06065213 -0.024500923 0.054850753
-0.018036405 0.05366966 0.0070104934 -0.06810123 -0.021845378 -0.016645025 0.07032009 -0.02356968
-0.029024385 0.012880657 0.04244924 -0.02254609 0.023302177 0.06833459
00000000: 72f2 99bd 8019 bbbb c4b5 91bd c4ae 7bbc
00000010: 03f7 5abd 3657 c83b 6f2b 853d e958 93bd
00000020: 56e5 8f3b 0cad 5dbd d7bd b0bc b262 a83d
00000030: 8f9c b9bd 398f f03c a007 403d e76e ecbb
00000040: f8cc ac3d 302c d13c 896f 22bd aede 333d
00000050: b3eb 573d c2f0 9a3d 715e cabd 77b6 903d
00000060: 409b cd3b 98de a8bc b07e 6dbd da63 993d
00000070: b996 0fbc f8b8 eebb 0385 4f3d 711a 5d3c
00000080: 4d6e b7ba 9dfd 243d fa62 893d b6f6 64bd
00000090: 26e8 853c f616 bb3c 27dd a4bd 1199 f83c
000000a0: 0649 90bc 4571 e63c 35aa 62bd 31e2 0bbd
000000b0: 760c d8ba c54e e83c 833f 293d 253f 26bd
000000c0: c8d8 80bd ee8b a23c c47c ce3c 1595 be3c
000000d0: 7be3 58bd 15d6 403d dcda a13c 2b83 55bd
000000e0: 30ca 963d 725f cd3c 04fe 253d 254c a9bd
000000f0: 06db 56bd 9c48 a2bc e3d2 6c3d 03ff 8fbd
00000100: 2b02 f8bb 91c7 593d d0cf 3bbd 4869 37bd
00000110: 358c abbd 82ec 633d b06f 88bd b6ee bc3c
00000120: 323e 3abc 9689 153d b71c b4bc b029 bd3c
00000130: fd35 f43c 104a 1ebc 8b8a 03bd c842 f0bd
00000140: 3133 b43c 7b3b 6bbd 98fd 343c 782c 3c3b
00000150: 1570 a5bd 34ea 54bd 3940 29bb 9e46 9f3c
00000160: dc1d 6bbd e3d0 0cbc 75e1 303c dbcd 0bba
00000170: 549b e4bc e949 a23b 602b 833d eaf0 c3bc
00000180: 129f ddbc f67f 69bd 7268 64bd 3805 f23c
00000190: 06eb 0abd e9dd 203c 2c68 1dbc 51ee 2ebd
000001a0: ac2e 303a 9ed3 a5bd a61a f3bc f556 a6bd
000001b0: 5add a43c 4761 2a3d 4722 303d 2e09 18bb
000001c0: 0583 773d 117f 9c3d 5c3e 303c 29d7 1ebd
000001d0: cfee c23b 69eb 4d3d 7fb6 0cbd 6546 483d
000001e0: c71c 59bd b113 edbc 5ddd 82bd 4961 11bd
000001f0: 5abc a43b f3cd 96bc 50fd abbd f49a 253d
00000200: 0583 cebb 2f81 55bb 3624 c13c 37fc 50bc
00000210: 14bc b8bc 5e97 b23d 1799 073b 49ba 79bd
00000220: da30 19bd 1180 843d fb6b a93b 1b53 88bd
00000230: fade 95bd 8a88 a0bd db3b 27bd d97c 653d
00000240: 9d77 5d3d 1bd5 4e3d 37c1 0c3d 1b73 7fbd
00000250: f510 4e3c 2dfd 90bc bd19 2abd 9628 ea3c
00000260: a460 f23c 6602 0dbd 61a2 b6b7 1ae1 98bd
00000270: d8b6 7ebd b9e9 653c f369 68bc e101 cd3c
00000280: 14a9 95bd 32df 2abd 2f76 f83c fff7 233d
00000290: ed76 5cbd 3c99 593c ea51 963a 6b8a 4f3d
000002a0: 7321 3fbd 63c5 5bbd 734d 103d a601 79bd
000002b0: f02b b33b 5e6e 783d 29b6 c8bc 2fab 603d
000002c0: 15c1 93bc b8d4 5b3d 48b8 e53b a878 8bbd
000002d0: 14f5 b2bc 265b 88bc fb03 903d 3415 c1bc
000002e0: 8cc4 edbc 6409 533c 41df 2d3d 94b2 b8bc
000002f0: 35e4 be3c 01f3 8b3d

classifier.5.weight f4 [190]
0.9916699 0.88119626 1.1018064 1.131495 0.938157 0.96144813 1.010541 0.84590065
1.0765158 1.1007856 1.0927231 0.925264 0.9481906 0.98818195 1.039777 1.0009073
0.8908247 1.0271894 1.0146532 0.9160691 1.0074109 0.9289565 0.84124887 0.9557329
1.0386487 0.9711423 1.0427862 1.0266479 0.7687897 1.1025641 0.84763885 1.0066537
1.0464051 0.9453941 1.0758282 0.9621738 0.9194662 0.8947142 1.0260608 1.0596564
1.1371179 0.8698342 1.2931888 1.0055355 1.075164 1.0317444 0.84262025 0.93715715
0.9827883 0.8129348 1.0343646 0.9044186 0.8583154 0.91704255 0.9464615 0.907249
1.0350263 0.88917166 1.1311749 1.0302953 1.149893 1.061861 0.9274611 1.0874928
1.0394244 0.86579996 0.9833722 0.9340254 0.9663061 1.0972384 0.9500157 1.1108978
0.9800653 0.97941434 1.0037538 1.0075644 0.9430672 0.9225368 0.82368225 1.1845098
0.8761574 1.0977881 0.91436726 0.9031422 1.035182 1.1515644 0.8987228 0.96966213
0.9923031 0.9077301 0.9428094 0.8488751 0.82368696 0.9192014 1.0015739 0.95519155
0.92407644 0.9286257 1.022836 0.9899322 0.95291996 0.9050748 1.0116633 0.8294734
0.82513356 1.1016763 0.96084267 1.0144373 0.9300349 0.97498286 0.9612452 0.98284924
1.0321337 1.0493402 1.0797762 0.9663232 0.9267116 0.8625895 0.91239 1.0002187
0.9185208 1.0117108 1.0576648 0.9852936 0.8945081 1.069973 0.8992916 1.0046691
0.9725753 0.88491124 0.9391487 1.0414578 1.0619035 1.0030942 0.86216587 0.86222506
0.9894987 0.8368683 0.9912062 1.0626553 1.1043696 1.1089705 0.8977648 0.97832453
0.807706 1.0326707 0.91835 0.79716104 0.888153 1.0190475 1.0148481 1.1339331
0.9985017 0.8261625 0.9998528 1.2154527 1.0128098 0.99690384 1.0236635 0.9524433
0.8925265 1.1415725 0.97132874 1.0077355 1.087056 0.94697887 0.90082467 0.8521706
0.964857 0.9454003 1.0770687 1.0961263 0.95883805 0.9392277 1.0368063 1.0190506
1.0678692 1.0833497 1.0001956 0.8940687 0.9884479 1.0825387 0.8365654 0.9539844
1.0265949 1.0578276 1.1146652 1.0081061 0.99399585 0.8513899
00000000: 14de 7d3f 1496 613f fe07 8d3f d4d4 903f
00000010: 0f2b 703f 7721 763f 6859 813f f28c 583f
00000020: 45cb 893f 8be6 8c3f 5ade 8b3f 1ade 6c3f
00000030: 9fbc 723f 7ef9 7c3f 6a17 853f bb1d 803f
00000040: 160d 643f f17a 833f 28e0 813f 8183 6a3f
00000050: d7f2 803f 18d0 6d3f 165c 573f e9aa 743f
00000060: 71f2 843f c89c 783f 057a 853f 3369 833f
00000070: 67cf 443f d220 8d3f dcfe 583f 07da 803f
00000080: 9af0 853f 5905 723f bdb4 893f 0651 763f
00000090: 2362 6b3f fd0b 653f f655 833f d2a2 873f
000000a0: 148d 913f 74ad 5e3f 3687 a53f 63b5 803f
000000b0: f99e 893f 3310 843f f6b5 573f 88e9 6f3f
000000c0: 0498 7b3f 7f1c 503f 0f66 843f fa87 673f
000000d0: 8fba 5b3f 4dc3 6a3f 4d4b 723f 7841 683f
000000e0: be7b 843f c1a0 633f 57ca 903f b7e0 833f
000000f0: b22f 933f 10eb 873f 176e 6d3f f732 8b3f
00000100: dc0b 853f 11a5 5d3f 48be 7b3f 4a1c 6f3f
00000110: d65f 773f 4f72 8c3f 3b34 733f e631 8e3f
00000120: 8fe5 7a3f e6ba 7a3f 017b 803f dff7 803f
00000130: da6c 713f 5f2b 6c3f d7dc 523f 049e 973f
00000140: da4b 603f 5284 8c3f f913 6a3f 5434 673f
00000150: d880 843f 7666 933f b312 663f c73b 783f
00000160: 9307 7e3f 0061 683f f55b 713f e14f 593f
00000170: 26dd 523f c850 6b3f 9333 803f 6f87 743f
00000180: 4690 6c3f 6aba 6d3f 4aec 823f 326c 7d3f
00000190: 90f2 733f fbb2 673f 2f7e 813f 5e58 543f
000001a0: f43b 533f bb03 8d3f c9f9 753f 15d9 813f
000001b0: c416 6e3f 7a98 793f 2a14 763f 029c 7b3f
000001c0: f51c 843f c850 863f 1b36 8a3f f560 773f
000001d0: f93c 6d3f aad2 5c3f 6492 693f 2b07 803f
000001e0: 2e24 6b3f bd7f 813f 8f61 873f 343c 7c3f
000001f0: 7cfe 643f e0f4 883f f937 663f ff98 803f
00000200: b2fa 783f 8b89 623f 0d6c 703f 7d4e 853f
00000210: 74ec 873f 6465 803f e7b6 5c3f c8ba 5c3f
00000220: c94f 7d3f 003d 563f b1bf 7d3f 1705 883f
00000230: fc5b 8d3f bff2 8d3f ead3 653f 7a73 7a3f
00000240: d2c5 4e3f 8e2e 843f fc18 6b3f bf12 4c3f
00000250: ff5d 633f 2670 823f 8be6 813f b824 913f
00000260: cf9d 7f3f 637f 533f 5af6 7f3f f493 9b3f
00000270: c0a3 813f 1735 7f3f 6807 833f 53d3 733f
00000280: 9e7c 643f 0c1f 923f 00a9 783f 7afd 803f
00000290: a724 8b3f 356d 723f 729c 663f da27 5a3f
000002a0: de00 773f c105 723f 63dd 893f de4d 8c3f
000002b0: 6976 753f 3a71 703f 12b6 843f 4070 823f
000002c0: f0af 883f 34ab 8a3f 6906 803f b0e1 643f
000002d0: ec0a 7d3f a190 8a3f 2629 563f 5238 743f
000002e0: 7667 833f e566 873f 59ad 8e3f 9f09 813f
000002f0: 8376 7e3f b0f4 593f

classifier.5.bias f4 [190]
-0.17814907 -0.10826859 -0.12293095 -0.038985644 -0.13534363 -0.32367292 -0.13527904 -0.0846267
-0.039672073 -0.116674334 -0.12234801 -0.21835649 -0.22991124 -0.16915858 -0.10256965 -0.26965457
-0.24971393 -0.12822896 -0.12823169 -0.065936856 -0.11777568 -0.14433263 -0.30811432 -0.028492933
-0.20969865 -0.20304365 -0.22800264 -0.05000931 -0.32562548 -0.022099443 -0.20921764 -0.10324598
-0.15357932 -0.15930714 -0.19347887 -0.10992571 -0.21677245 -0.16581193 -0.15819769 -0.116482355
-0.097989 -0.10536108 -0.13905744 -0.1497181 -0.08288003 -0.19269243 -0.24760789 -0.21892044
-0.08842164 -0.35150608 -0.19149521 -0.27074274 -0.15322712 -0.24998336 -0.12762767 -0.0961592
-0.09054046 -0.2269626 -0.04738472 -0.05293802 -0.034527652 -0.28887945 -0.12209388 -0.17318647
-0.2970526 -0.26249033 -0.12251728 -0.08656156 -0.21133204 -0.029576864 -0.07354196 -0.05163047
-0.13251682 -0.1592518 -0.19841404 -0.16307421 -0.21748841 -0.21088871 -0.43296927 -0.14800672
-0.19128616 -0.045836348 -0.17150332 -0.2542652 -0.13238394 -0.022606993 -0.24453494 -0.05331204
-0.15003844 -0.12556392 -0.21763007 -0.44095716 -0.3095298 -0.11287032 -0.15995756 0.035727426
-0.28408068 -0.1383958 -0.12632276 -0.18583268 -0.26074448 -0.2620611 -0.14757158 -0.14272933
-0.10691517 -0.24874362 -0.14722392 -0.18174034 -0.17159498 -0.39022225 -0.122936286 -0.1869037
-0.08305466 -0.20225337 -0.10880739 -0.107514255 -0.143769 -0.2713384 -0.18501747 -0.14133687
-0.0857742 -0.03873923 -0.17515251 -0.097551055 -0.23995945 -0.20281759 -0.07529266 -0.10792146
-0.20695534 -0.32508028 -0.035048828 -0.05077069 -0.14693713 -0.20320377 -0.21389052 -0.31228626
-0.1904362 -0.17887506 -0.1944298 -0.1158522 -0.0022361232 -0.15478744 -0.09881694 -0.12318256
-0.2602554 -0.12101593 -0.24573468 -0.19084875 -0.20795755 -0.1909014 -0.29031032 -0.020529607
-0.20027542 -0.18199322 -0.074190915 -0.02439101 -0.20289989 -0.2508182 -0.09820023 -0.057272475
-0.08913348 -0.0935199 -0.119822875 -0.096302785 -0.07659306 -0.1671633 -0.21601048 -0.13806283
-0.16345508 -0.088637754 -0.083437465 -0.00056367414 -0.053858347 -0.20334393 -0.17239213 -0.23854004
-0.10711546 -0.09065095 -0.22539586 -0.1839432 -0.12761782 -0.07416096 -0.28888315 -0.077307224
-0.17012314 -0.039910026 -0.10781639 -0.08131004 -0.29598054 -0.17194408
00000000: b66c 36be ecbb ddbd 39c3 fbbd 69af 1fbd
00000010: 8597 0abe 75b8 a5be 9786 0abe c350 adbd
00000020: 2f7f 22bd f4f2 eebd 9891 fabd d898 5fbe
00000030: da6d 6bbe e837 2dbe 0910 d2bd 2a10 8abe
00000040: 02b5 7fbe 744e 03be 2b4f 03be e709 87bd
00000050: 6034 f1bd efcb 13be 29c1 9dbe 036a e9bc
00000060: 3ebb 56be adea 4fbe 8679 69be 90d6 4cbd
00000070: 62b8 a6be e409 b5bc 263d 56be a172 d3bd
00000080: e643 1dbe 6921 23be 531f 46be bb20 e1bd
00000090: 99f9 5dbe 9aca 29be 93fe 21be 4d8e eebd
000000a0: 75ae c8bd 8dc7 d7bd 1365 0ebe b44f 19be
000000b0: 01bd a9bd 2a51 45be ec8c 7dbe ae2c 60be
000000c0: 6816 b5bd 9bf8 b3be 5217 44be cb9e 8abe
000000d0: 92e7 1cbe a3fb 7fbe d4b0 02be 1def c4bd
000000e0: 476d b9bd e268 68be 7b16 42bd 8ad5 58bd
000000f0: de6c 0dbd 02e8 93be 5b0c fabd cb57 31be
00000100: 4717 98be 2265 86be 57ea fabd 3047 b1bd
00000110: 6d67 58be 2e4b f2bc 2b9d 96bd 797a 53bd
00000120: 7db2 07be e712 23be 0d2d 4bbe edfc 26be
00000130: 48b5 5ebe 36f3 57be 26ae ddbe 138f 17be
00000140: 85e0 43be e5be 3bbd 919e 2fbe 0c2f 82be
00000150: a88f 07be 4d32 b9bc 5e67 7abe ba5d 5abd
00000160: ada3 19be d493 00be 6bda 5ebe 23c5 e1be
00000170: b17a 9ebe 8e28 e7bd eacb 23be ec56 123d
00000180: 0673 91be a1b7 0dbe c15a 01be ec4a 3ebe
00000190: 4d80 85be df2c 86be 011d 17be a327 12be
000001a0: 57f6 dabd a6b6 7ebe dec1 16be 241a 3abe
000001b0: 98b6 2fbe 36cb c7be 05c6 fbbd af63 3fbe
000001c0: 9018 aabd 821b 4fbe 69d6 debd 6f30 dcbd
000001d0: 2e38 13be deec 8abe 3875 3dbe 9dba 10be
000001e0: 62aa afbd 07ad 1ebd 2e5b 33be d9c8 c7bd
000001f0: eeb7 75be 6aaf 4fbe 0a33 9abd ed05 ddbd
00000200: 1aec 53be ec70 a6be 5c8f 0fbd edf4 4fbd
00000210: b076 16be a614 50be 1e06 5bbe fce3 9fbe
00000220: b501 43be 062b 37be 9b18 47be eb43 edbd
00000230: ec8b 12bb 9980 1ebe 8960 cabd 2347 fcbd
00000240: 3240 85be 33d7 f7bd dfa1 7bbe db6d 43be
00000250: d3f2 54be a87b 43be 8ea3 94be b52d a8bc
00000260: 0015 4dbe 6e5c 3abe 68f1 97bd a8cf c7bc
00000270: fdc4 4fbe 3e6b 80be 341d c9bd 8b96 6abd
00000280: 9d8b b6bd 5d87 bfbd b265 f5bd 653a c5bd
00000290: d2dc 9cbd db2c 2bbe da31 5dbe 5860 0dbe
000002a0: c560 27be b687 b5bd 43e1 aabd 88c3 13ba
000002b0: 929a 5cbd 6439 50be 9087 30be d743 74be
000002c0: 5a5f dbbd 35a7 b9bd 2cce 66be 9b5b 3cbe
000002d0: 3fae 02be b4e1 97bd 7ee8 93be 4053 9ebd
000002e0: c334 2ebe b278 23bd d7ce dcbd e185 a6bd
000002f0: c38a 97be 1c12 30be
