ckpt/MAP_HF/10/best_loss_BEST5.ckpt (torch, 336032 bytes, 19 tensors)

classifier.0.weight f4 [180, 99]
00000000: 391b a2bc 8a4b cdbd 3b9e e23d 5d2b 543e
00000010: dc79 5bbd 7559 f5bd 373b 93bd ee9c b23e
00000020: 1b1d dcbd 7e91 f3be a2ac b93e 52f4 3dbc
00000030: 2141 10bc 1e69 2f3e 61be 68bc f237 38bd
00000040: 1ec9 203e a210 133c 8c06 b8be bf9d c5be
00000050: 3836 993e f451 b1bd ed65 373e a437 b8b7
00000060: 8204 3fbe 6485 af3d c80f 003e 2c09 913e
00000070: d765 893e 363d 3bbe 35dc 00bf 8e34 4d3d
00000080: 87ae cd3d 789f cabb 4d44 3f3d 782d 493e
00000090: 5c04 4a3d 7518 6b3e 7448 713e f754 843e
000000a0: 5d0b cf3d 34a0 1dbe 861a e43e ccf8 003f
000000b0: a8d5 4abe e7af 843d ab53 30be dddb 07be
000000c0: 2fb2 023e 1e24 3a3d 11bf 22bc 6a2c fdbd
000000d0: 1064 ebbd 6dbb 023f 7820 9b3e 58c3 f4bc
000000e0: 64b5 003d a7b1 11bc 00ff 00be ef40 a03d
000000f0: 9642 c53c c871 253e 8ab7 aebe 168e 8dbd
00000100: 7615 213e 5b3d f23e b379 773d ff74 babd
00000110: d173 dfbd d00a a8bd 252a 3bbe 34c6 bfbe
00000120: b43c 0b3e f7d8 15bc 5e8b 07bf 1775 a83d
00000130: a58f b53d 8c79 2abb dbb5 843d 8dd0 163e
00000140: 6ca7 273b dd6c 043f 24ed b93e 6a87 66be
00000150: e6a7 e6be 9f17 19bd 64ab 58be ffc0 1d3e
00000160: 9937 cd3b a075 2bbb b49c 133e 4f16 21be
00000170: 5f0a 373d 2438 6cbd 4547 bc3e 6920 0d3f
00000180: f676 4c3e 5ca2 a43d a192 123f afe3 19bc
00000190: 7f64 11be 5fd8 443d 2a26 bb3d 77fb b4be
000001a0: d489 ab3d 7a9e 84be 8610 91bd bde7 013f
000001b0: e936 863e 7f08 abbe 4c4d a43d f4d3 d539
000001c0: 9eab 29be 3a94 853d 8d9a 1f3d 97bd 39be
000001d0: 592f 8bbe f330 013e 700f db3d b7b6 0b3e
000001e0: 19a8 173f a539 cc3b cc18 e0bd 0816 d93d
000001f0: 61c8 833d 3461 c13d 5b71 b2be 749e a3bd
00000200: ab49 623e d01d eb3d f7b0 d23e 9a92 7c3d
00000210: 56a5 8bbd 8ec7 923d e873 033e ba69 073d
00000220: 4c51 0dbe 31ba 4abe 8b04 f63c 17cf 383e
00000230: e50d f73e 1564 d83e f6bc c13e f849 a83c
00000240: 4049 00bd 8ece cfbd 1937 6a3d 13a4 2f3c
00000250: dc70 d4bd 431e 873d a524 4abd bd2f 123f
00000260: b730 0e3f 9a98 903e 156c 023e e0e8 4abe
00000270: 1aca 0b3c bf88 60bd baaf 7e3b bdf9 96be
00000280: 09f8 06be f2da 03be cfd9 a83e d8e9 043f
00000290: 804c 1c3e 93af 3f3d 1b8d 9e3c fba9 3abd
000002a0: c696 59bd 5ad2 51be 6d90 57be 5608 953e
000002b0: e8f0 3abe 38d0 debe a4b9 cbbe 33e6 ecbd
000002c0: b252 00bd 5e46 1b3d 205a 12be 146e e6bd
000002d0: 13f2 093e 617e 283c 5ef2 b43d c67d b23e
000002e0: 84bf 163f 9da7 79be 68d6 a63d cbea 05be
000002f0: 46a9 aabd 6b98 e7bd d026 d93d 71ec 0c3d
00000300: 1408 07be a729 fdbd 2306 11be ea64 5d3e
00000310: 5f2b 9e3e 8811 8ebe 9c97 cbbd 5a79 b8bd
00000320: bdb8 663a 3c0c 38bd b102 61bd 816e 26be
00000330: c98f 94be 01a7 b1be 4544 71bd 6b1b 8c3d
00000340: 6856 a2bc 7466 743c c09f 573d 4b2e 0ebc
00000350: a9e8 573d 3279 92bd f836 f6bd 6065 95be
00000360: 1176 bebe f006 c53d 3728 de3a b3e3 53be
00000370: ecfc 443c 6787 dd3c 2b48 97bc c4b3 393e
00000380: 29ca 2d3e 542f b13c 244e e1be ae94 cdbe
00000390: 2137 aa3e 7458 6fbd 028c 773e fd46 3ebc
000003a0: b644 083e 591f 793d 5fb9 cfbd 95b4 40be
000003b0: f388 5bbe 9334 1bbf d301 b0be 68b1 49be
000003c0: 6c04 fabd c8fc d7be b9fe c23d aaae 06be
000003d0: 909f 4b3d 613d 0c3e 7760 80be 7894 a53c
000003e0: 8836 febe d846 3e3e da3d e5bc 2bb6 a4be
000003f0: b089 81be 8ab6 da3e 7fd2 c7bd 1a94 1a3d
-0.019788371 -0.100241736 0.11065336 0.20719667 -0.05358301 -0.11979953 -0.07189029 0.34885353
-0.10747739 -0.4757194 0.3626452 -0.011593895 -0.00880459 0.17129943 -0.014205546 -0.04497523
0.1570172 0.008976134 -0.35942495 -0.38596913 0.29924178 -0.086582094 0.17909975 -2.1960419e-05
-0.18654063 0.08570364 0.1250602 0.2832731 0.2683551 -0.18285069 -0.5033601 0.05009895
0.10043054 -0.006183561 0.046695996 0.19646251 0.049320564 0.22958548 0.23562795 0.25846073
0.10109589 -0.15393144 0.44551486 0.50379634 -0.19808066 0.06478863 -0.17219417 -0.13267465
0.12763284 0.0454446 -0.009933249 -0.12361987 -0.11493695 0.5106724 0.3029821 -0.029878303
0.031422988 -0.008892453 -0.12597275 0.07824885 0.024079602 0.16156685 -0.34124404 -0.06911866
0.15730843 0.47312436 0.060418796 -0.091043465 -0.10910762 -0.08205187 -0.18277796 -0.37455904
0.13597375 -0.009145967 -0.5294703 0.08225458 0.08865289 -0.002601239 0.06479999 0.14727993
0.002558197 0.5172861 0.36313736 -0.22512594 -0.4504997 -0.037376042 -0.2115913 0.15405653
0.0062627313 -0.002616264 0.14415246 -0.15731166 0.044687625 -0.057670727 0.36773124 0.5512758
0.19967255 0.0803878 0.5725499 -0.009392663 -0.14198492 0.04805791 0.091381386 -0.35348102
0.08375898 -0.25902158 -0.0708323 0.5074423 0.26213768 -0.3340492 0.08022556 0.00040784443
-0.16569373 0.065224126 0.03896575 -0.18138729 -0.2718456 0.12616329 0.10696304 0.13643919
0.5924087 0.0062324577 -0.1094223 0.10599905 0.064347036 0.09442368 -0.34852108 -0.07989207
0.22098415 0.11480296 0.41150638 0.061663248 -0.06818645 0.07166968 0.12837183 0.033059813
-0.13800544 -0.19797589 0.030031463 0.18047749 0.48252788 0.42263857 0.37839478 0.020543084
-0.031319857 -0.10146819 0.05718145 0.010720271 -0.10373089 0.06597569 -0.049351353 0.5710409
0.5554308 0.28241426 0.12736543 -0.19815397 0.0085320715 -0.05481791 0.0038862065 -0.2948741
-0.13180555 -0.1287649 0.32978675 0.5191932 0.15263557 0.0467983 0.019354394 -0.045572262
-0.053122304 -0.20490399 -0.21051188 0.29107922 -0.18255961 -0.43518233 -0.3979007 -0.115673445
-0.031328864 0.037908904 -0.14292192 -0.112514645 0.1347125 0.010284037 0.0883529 0.34861583
0.5888598 -0.24380346 0.081463635 -0.13077848 -0.083330676 -0.11308368 0.10603106 0.034405176
-0.13186675 -0.1236146 -0.14162497 0.21620527 0.30892465 -0.2774775 -0.099410266 -0.09007521
0.0008801332 -0.044933543 -0.054934207 -0.16253091 -0.2901595 -0.34697726 -0.058902998 0.06841167
-0.019816592 0.014917005 0.052642584 -0.008678029 0.052712116 -0.071520224 -0.12022203 -0.29178905
-0.37199453 0.09620464 0.0016949241 -0.20692329 0.012023192 0.027042104 -0.01846703 0.18134981
0.16971649 0.021629013 -0.4400493 -0.40152496 0.33245185 -0.058433965 0.24174502 -0.011613605
0.13307461 0.06082091 -0.101427786 -0.18818887 -0.2143896 -0.60627097 -0.34376392 -0.19696581
-0.12207875 -0.42185044 0.09521241 -0.13152567 0.049712718 0.13695289 -0.25073597 0.020212397
-0.4965098 0.18581712 -0.027983595 -0.32170233 -0.2530036 0.4271739 -0.09756946 0.037738897

classifier.0.bias f4 [180]
00000000: d4d9 4fbd e9bf bfbd 6eea 8cbd 6674 1c3d
00000010: 034e aabc 57cc a9bc 7b0c 6a3d 0226 3cbe
00000020: ca4c 30bd bdea 78bb e24e 133d 25bf 05be
00000030: 5430 123d 83b9 d9bd ce9c a8bc f99e fc3d
00000040: 4a74 b6bd be7a 15bd e5be 183e 5641 903d
00000050: e219 46bd 4648 9d3b fdb1 02be 6cd1 00bd
00000060: 59d5 293c da2e 58bd ad00 35bc c0b7 483d
00000070: 602c 693d d333 f93d d63e f03d 222c d13c
00000080: 9603 a1bd 4358 7fbb 3bd6 f3bd 448e 75bd
00000090: bf08 793c ea16 e53d 4e3f b0bd 519a 67bd
000000a0: 444f 4b3c 7caf 5d3c 36d7 a13d df03 93bd
000000b0: 92a9 1f3e fac1 883c a759 ff3d 3af9 64bc
000000c0: ca71 cb3c dae1 913d 4aeb 883c a67d 2a3c
000000d0: 3f07 a53d 508e 213e 164a 3cbe 3189 b63d
000000e0: d8d6 6e3d bd6b 1bbd 0040 c2bc 3553 87bd
000000f0: 1068 233d 3a45 0ebe aa8b f73d d2b8 223d
00000100: 5151 aabd 9665 c73d 8eb0 a6bd 326a bd3d
00000110: d288 023e 2848 ab3d 2c40 fd3d 67ce d8bc
00000120: b7cf 1bbd 75ee 5e3d e837 1dbe efc0 44be
00000130: bf02 53bd 78fe 8abc 937e b1bd d1bf 203e
00000140: a165 c43d 3d5c 0cbe 4615 22be 957b bdbd
00000150: df4a 5fbc fc2e 11be c785 0d3d 5fa7 c63c
00000160: 8d95 56bd 8e9d 623d c5a8 3f3e 006e 13be
00000170: 91d5 8cbc c794 8f3d 0993 d9bd b501 2cbd
00000180: 89e9 8c3d c1ca edbc 2a17 27be a414 2dbd
00000190: b81a e1bd ebaf 0c3e 163a db3d d3cc 0d3e
000001a0: d298 3ebe bac2 93bd 25ff 9ebd 0fb5 503c
000001b0: 746e 22be 5758 a83b e30c 2a3e 3dc2 033e
000001c0: c334 6fbc deed a9bc 629a b8bc 77dc 2a3d
000001d0: fd59 dabd f7b3 91be 5830 183c 6f55 fa3b
000001e0: 3900 81bb 3da0 2e3d 0d12 a9bd 6dac 2a3d
000001f0: afc7 0f3e 3421 39be 26ed e4bc 9184 f53d
00000200: ac3d 0e3e a083 bcbc 8d61 81bb 03f2 113e
00000210: 9157 7d3c cb00 1cbd f41f 0dbc 86a6 0bbd
00000220: 0915 523e 0112 b73d f72b 6dbd 017c eebd
00000230: d6f7 173e 4167 bb3d 577a 803d cd8b 81be
00000240: 5b54 2ebe 2aa0 fcbc 68ef 8fbc 747b 663e
00000250: 0faa 10bc 94c8 1bbd feda c9bd 825f 0abe
00000260: 5dec b23d 79e2 393c 71e5 c83d 67c3 ccbc
00000270: eb35 92bd ef05 ee3d cde2 283d 8cc8 8d3c
00000280: 5a33 433d 603f eebd 95dc 40bc 214c dfbd
00000290: b9ff 923d 32cc a0bd 595c 64bd 0b87 cf3d
000002a0: e364 f93d 3992 153e e7ae e03d 8980 8fbd
000002b0: 5483 413e 1b51 efbd 75b7 5b3d 6c16 6f3d
000002c0: 8c41 1cbd da25 0c3d b03d ad3c 51b9 9cbd
-0.050744846 -0.09362776 -0.068806514 0.038196944 -0.020789152 -0.02072732 0.05714081 -0.18373874
-0.04304198 -0.0037981712 0.0359639 -0.13061197 0.03569062 -0.10631087 -0.020582583 0.12335009
-0.08908899 -0.03649401 0.1491657 0.07043712 -0.048364528 0.0047998754 -0.1276321 -0.03144972
0.010365807 -0.052779056 -0.011047524 0.049003363 0.056927085 0.12168088 0.11730735 0.02553374
-0.07862012 -0.003896252 -0.119060956 -0.05995013 0.015199839 0.11186011 -0.086058244 -0.056543652
0.012409035 0.013530608 0.07902376 -0.07178473 0.1559203 0.016694058 0.12468272 -0.013975436
0.024834532 0.07123156 0.016713757 0.0104059335 0.08058023 0.15776944 -0.18387637 0.08912886
0.05831036 -0.037944544 -0.023712158 -0.06607667 0.039894164 -0.13893595 0.12087186 0.03972704
-0.08316291 0.09736173 -0.08139144 0.09248771 0.12747505 0.08363372 0.123657554 -0.026465608
-0.03803989 0.05442663 -0.15353358 -0.19214223 -0.05151629 -0.016967043 -0.0866672 0.15698172
0.09589697 -0.13707061 -0.15828428 -0.09252087 -0.0136286905 -0.1417808 0.03455141 0.02424973
-0.052388716 0.055326037 0.18716724 -0.1439743 -0.01719168 0.07010799 -0.10623748 -0.041993815
0.06880481 -0.029027345 -0.1631743 -0.042256013 -0.10991424 0.13738982 0.107044384 0.13847665
-0.18612984 -0.072148755 -0.07763509 0.01273848 -0.15862447 0.005137484 0.16606478 0.12867065
-0.014599982 -0.020743307 -0.022534553 0.041714158 -0.10661695 -0.28457615 0.00928887 0.007639579
-0.003936794 0.042633284 -0.08255396 0.041668344 0.14041017 -0.18079072 -0.027945112 0.11988176
0.13890713 -0.023011982 -0.0039483965 0.14252476 0.015462772 -0.038086694 -0.008613575 -0.034094356
0.20515837 0.08938981 -0.057903256 -0.116447456 0.14840636 0.091505535 0.062733345 -0.25301972
-0.17024367 -0.03083809 -0.017570212 0.22508031 -0.008829608 -0.038033083 -0.098562226 -0.13512996
0.08736489 0.011345499 0.098093875 -0.024995519 -0.0713919 0.116222255 0.04123192 0.017307542
0.047656395 -0.116331816 -0.011771341 -0.10903192 0.071776815 -0.07851447 -0.055752132 0.10133179
0.12177446 0.14606561 0.1097086 -0.07006938 0.18897754 -0.116853915 0.053641755 0.058370993
-0.038148448 0.034215786 0.021147579 -0.07652534

classifier.1.weight f4 [180]
00000000: 954d 763f c9dc 683f bd97 643f 0a5e 513f
00000010: 1ee8 6c3f 0dfd 663f c717 7e3f 1535 7d3f
00000020: b8e5 833f f2f7 643f 6542 833f fe99 673f
00000030: 3303 813f 7ce8 6a3f 507d 5f3f 9205 813f
00000040: 73e3 683f 25d1 7c3f 89a0 8c3f 7013 863f
00000050: a460 813f 439f 4f3f e6fc 823f 0abc 7e3f
00000060: 4b0a 733f 2b48 773f badc 773f def9 743f
00000070: 9c0b 813f fb73 7b3f 2efa 6a3f b6fe 6c3f
00000080: 075c 803f 62db 7f3f ea2a 873f b0e3 843f
00000090: e5b5 7d3f d24a 843f b092 843f 5aca 5f3f
000000a0: 4ff2 7d3f bde8 5f3f ad63 6a3f 9585 653f
000000b0: 3c9b 6d3f aa64 663f b763 853f c604 723f
000000c0: c0dd 4f3f 86db 743f dc61 6c3f 4d8d 803f
000000d0: 95f5 6f3f 6c4f 7b3f 9b3f 963f 1435 7c3f
000000e0: 276d 833f 0238 723f 3676 753f 0f30 823f
000000f0: caae 763f 31bb 6e3f dcd6 503f 9de9 833f
00000100: 4f18 6d3f 899b 753f 8f87 773f 6f8a 683f
00000110: 5875 823f 92f2 843f 9e0b 793f 8494 813f
00000120: 97ce 793f 10e9 6c3f aa24 8d3f 462b 713f
00000130: b849 753f 9788 863f b56f 703f 3bfb 833f
00000140: 77ab 7e3f 8b84 433f e1cc 6a3f 9ff1 6c3f
00000150: 6c09 683f dd12 763f 4a0d 7e3f faa2 7a3f
00000160: 3ae0 663f abe8 4f3f 1776 733f 0f00 883f
00000170: 55c5 803f 7aa1 803f b4f5 5a3f 2390 853f
00000180: 13b7 6c3f 446e 803f 5052 803f 7d33 6a3f
00000190: 4551 883f 8941 6b3f 0277 793f 0e8d 823f
000001a0: 51b8 6b3f 59a8 583f 2b63 793f 16b7 823f
000001b0: 36b4 863f 8f31 773f 5836 813f 00f9 823f
000001c0: 6d9a 673f 764a 833f 8b9f 763f fb68 793f
000001d0: 269c 8a3f 5961 5a3f f336 783f 74be 5f3f
000001e0: ed1c 7c3f 68a0 633f 3955 6f3f 233a 603f
000001f0: 5f21 7c3f 67c1 8a3f 4dff 5e3f 8ec1 7e3f
00000200: 16c1 5a3f 49a6 713f 38f9 6e3f 909e 743f
00000210: 24e8 763f 0525 813f cbdf 6d3f 9217 813f
00000220: 0eb1 713f 1229 663f 62dc 883f f13f 883f
00000230: 99f7 663f 6ca2 843f 5234 7f3f 2516 793f
00000240: e698 6a3f f5f0 683f 4a98 7b3f 8de4 713f
00000250: f7f8 853f e7a7 4e3f b09a 873f 59fd 8a3f
00000260: 3aee 773f 356c 823f 3bff 733f a62e 593f
00000270: ac9a 703f c549 583f c943 633f 170e 823f
00000280: 185f 7f3f 8952 743f 74af 7e3f 2173 5f3f
00000290: 7fe2 853f 3825 6e3f e74e 6a3f 0456 703f
000002a0: 1dc5 673f fb07 733f 7dd6 7c3f 0f28 7a3f
000002b0: 85f4 623f 027b 723f 825f 5f3f aa47 833f
000002c0: 0f48 6d3f 6dcc 7e3f 1a55 7a3f 9eb3 743f
0.9621213 0.9096189 0.89294034 0.8178412 0.9254168 0.90229875 0.9925503 0.9890912
1.030448 0.89440835 1.0254637 0.9046935 1.0079101 0.91760993 0.87300587 1.0079825
0.9097206 0.9875663 1.0986491 1.0474682 1.0107617 0.8110239 1.0233428 0.99505675
0.9493758 0.96594495 0.96821177 0.9569377 1.0081668 0.9822385 0.91787994 0.9257616
1.0028085 0.99944127 1.0559971 1.0381985 0.99105674 1.0335333 1.0357265 0.8741814
0.9919786 0.87464505 0.91558343 0.89656955 0.92814994 0.8999735 1.0421056 0.94538534
0.8119774 0.95647466 0.9233682 1.0043122 0.93734103 0.98168063 1.1738161 0.9851849
1.0267686 0.9461671 0.958835 1.0170916 0.96360457 0.9325438 0.8157785 1.0305668
0.92615217 0.9594045 0.9669122 0.9083623 1.019206 1.0386527 0.9728335 1.0123448
0.97580856 0.92543125 1.1026814 0.94206655 0.9581561 1.0510434 0.9392045 1.0311044
0.99480385 0.7637412 0.9171887 0.92556185 0.90639377 0.96122533 0.9923903 0.9790493
0.9018589 0.812144 0.95102066 1.0625018 1.0060221 1.0049279 0.85531163 1.0434612
0.9246685 1.003365 1.002512 0.91484815 1.0649801 0.91896874 0.97447217 1.0199296
0.9207812 0.8463188 0.97416943 1.0212123 1.0523746 0.96559995 1.0094709 1.0232239
0.9047001 1.0257099 0.96337193 0.9742581 1.0828903 0.8530479 0.96958846 0.87399983
0.9848164 0.88916636 0.93489414 0.8758871 0.9848842 1.0840272 0.8710831 0.9951409
0.85450876 0.94394356 0.9334903 0.9555445 0.9644797 1.0089422 0.92919606 1.0085318
0.9441079 0.8990642 1.0692255 1.0644513 0.90221554 1.0362067 0.9968921 0.97299415
0.91639555 0.9099267 0.9827925 0.94489366 1.0466603 0.8072495 1.0594082 1.0858566
0.9684788 1.0189272 0.95311326 0.84836805 0.9398601 0.84487563 0.88775307 1.016055
0.99754477 0.9543844 0.9948647 0.8728505 1.0459746 0.9302554 0.91526645 0.9388125
0.90535146 0.9493405 0.98764783 0.97717375 0.8865436 0.94718945 0.8725511 1.0256245
0.9268808 0.9953068 0.97786105 0.95586574

classifier.1.bias f4 [180]
00000000: f72c 8abe fb64 fcbd baaa 79be f8a5 8cbe
00000010: 6002 99be d158 2bbe 4eed 74be 2c27 73be
00000020: 3a20 3bbe a734 87bd d327 dbbe 3635 bdbe
00000030: 5aa0 98be 4ec3 a6be 1b67 66be ef23 8dbe
00000040: da51 43be 75ed e0bd d504 3abe 607e b6be
00000050: 75a7 8abe fddc adbe a0ab 80be 518c 57be
00000060: 7c5a 68be 8517 7cbe 5372 a2be 9a31 80be
00000070: 9a8f afbe 40cc a4be 8bcd 1cbe 1b94 95be
00000080: 4e53 a4be 3c1d 8cbe dd31 6abe f971 c2be
00000090: c88b 8ebe cc39 32be 7cd5 98be ea73 b4be
000000a0: 7175 87be dedd 9dbe fb13 a0be e055 aabe
000000b0: 83e4 4bbe 9a89 bdbe 0d85 2abe cb43 66be
000000c0: ef33 abbe 2efd 9bbe 1b74 bebe 26e7 24be
000000d0: c0f1 85be 464d 81be aa5e d7be f7c9 47be
000000e0: e3a3 61be da76 46be d5fc 8abe b02c 14be
000000f0: 7607 81be 0140 97be e657 5cbe f302 bbbd
00000100: 7492 b3be 54f3 31be 497c c2be bf3c 94be
00000110: c665 8cbe 5331 adbe ba44 25be e35f 9cbe
00000120: 044d f1be e374 a5be f08b 80be 8030 89be
00000130: 1134 57be 9aff d4be ea69 b2be e1a1 06bf
00000140: 1b63 77be 8833 77be 1d8e 7fbe 1196 abbe
00000150: 00e0 59be 1426 c6be 5ba2 8ebe 5eca aebe
00000160: fae0 94be e67e 04be 9282 5ebe 7f7f 95be
00000170: 384a e3be 0fe2 b3bd 95e5 adbe 75fe 8cbe
00000180: 62e8 8bbe c653 70be c3e9 07be 09aa 8abe
00000190: e6f3 69be 1f2c cebe 1072 6bbe 303a a8be
000001a0: 90a4 88be be60 4d3d 09c4 67be 137e ccbe
000001b0: 73a7 9abe c2d0 53be bca0 27be 7528 dcbe
000001c0: 7e5c 6fbe bd69 33be ed23 76be f4df a8be
000001d0: aa72 a6be efb2 cabe 70fe 83be 4e6d 12be
000001e0: 44b9 a3be a3cd 57be f797 3cbe 100f a2be
000001f0: b7ae 55be d6d1 e0be ce13 56be bc74 2ebe
00000200: 38e5 6bbe a50a 85be e22a 6abe d970 b1be
00000210: 1787 b4be fd57 b9be ac4d b8bd ef83 49be
00000220: 169f 9ebe 0ba5 83be b574 96bd f5ce 7ebe
00000230: 534e 87be b907 fabd 6f48 adbe 9049 33be
00000240: 0a38 82be 6648 22be 1e8a 22be 0fbe b3be
00000250: 26f8 f5be 443c 7abe 6678 a8be 92f0 aabe
00000260: f69d c5be ada9 cebe 26aa 08be 54b6 6bbe
00000270: 1e83 67be fa88 16be ae96 fdbe 9c73 34be
00000280: f7e7 2abe 2836 7cbe 331c 33be 1b33 71be
00000290: a4e6 9cbe 6b3f a4be cec3 2cbe 3e10 82be
000002a0: d57b 1fbe 93b1 adbd 8b7c 92bd bb56 1ebe
000002b0: 821d c4be fa76 8dbe 1a0b 08be 0cdb 92be
000002c0: dbe4 b1be 459d d2bd 1c81 2dbe 72a1 5bbe
-0.2698743 -0.12323948 -0.24381533 -0.27470374 -0.29884624 -0.167331 -0.2391865 -0.23745412
-0.18274012 -0.066018395 -0.4280382 -0.3695466 -0.2980984 -0.3257088 -0.22500269 -0.27566478
-0.19074193 -0.10982791 -0.18165906 -0.3564329 -0.27080885 -0.33957663 -0.2513094 -0.2104962
-0.22690767 -0.24618347 -0.31727847 -0.25037843 -0.34289247 -0.3218708 -0.15312783 -0.29214558
-0.32094806 -0.27366054 -0.22870584 -0.3797758 -0.2784102 -0.1740486 -0.29850376 -0.35244685
-0.26456788 -0.30833334 -0.31265244 -0.33268642 -0.19911389 -0.37019044 -0.16652317 -0.22486798
-0.3343806 -0.30466598 -0.37197956 -0.16103801 -0.26161003 -0.25254267 -0.4206441 -0.19510637
-0.22035174 -0.19381276 -0.2714602 -0.14470172 -0.25201005 -0.2954102 -0.21517906 -0.09131422
-0.35072672 -0.17377979 -0.37985447 -0.28952596 -0.27421397 -0.33826694 -0.16139498 -0.30541906
-0.4712907 -0.3231574 -0.25106764 -0.26794815 -0.21015956 -0.4160126 -0.3484643 -0.5259076
-0.241589 -0.24140751 -0.24956556 -0.3351293 -0.21276855 -0.38700926 -0.27858242 -0.3413877
-0.29077893 -0.12939033 -0.21729496 -0.29198834 -0.44392562 -0.08783352 -0.3396422 -0.27537885
-0.27325732 -0.23469457 -0.13272767 -0.27082852 -0.22846946 -0.40268037 -0.2299273 -0.32856894
-0.2668805 0.05014109 -0.22633375 -0.39939937 -0.3020588 -0.20685104 -0.16369909 -0.42999616
-0.23375127 -0.17520805 -0.24037142 -0.32983363 -0.32509357 -0.3958964 -0.25780058 -0.14299509
-0.31977284 -0.21074538 -0.18417345 -0.31652117 -0.2086743 -0.43910092 -0.20905992 -0.17036718
-0.23036659 -0.25984684 -0.22867921 -0.34656408 -0.35259315 -0.36199942 -0.0899919 -0.19679235
-0.30980748 -0.25711855 -0.07346479 -0.24883635 -0.26426944 -0.12208504 -0.33844325 -0.1750853
-0.2543338 -0.1584793 -0.15873 -0.3510594 -0.48040885 -0.24437052 -0.32904357 -0.33386666
-0.38597077 -0.40363827 -0.13346156 -0.23018771 -0.22608611 -0.1470069 -0.49529022 -0.17622226
-0.1669005 -0.24630034 -0.17491226 -0.23554651 -0.30644715 -0.32079634 -0.16871569 -0.25403017
-0.15574582 -0.08481135 -0.07152661 -0.15462773 -0.38303763 -0.27629834 -0.13285485 -0.28682745
-0.34744915 -0.10283903 -0.16943783 -0.21448305

classifier.1.running_mean f4 [180]
00000000: b512 a23d 4b4b 0abe 069c c3bd 5389 97bd
00000010: 2f6d a83d a6c3 4c3e eac3 023e 43a2 1cbe
00000020: c6d8 41bc ef0e 0bbe dfef cd3d a5c0 63be
00000030: 39aa 0b3d fc90 8abc a93c b5bd 9d3f a5bd
00000040: 5c5e 23be aa41 fdbd d37d 243e 4c19 a73d
00000050: ae86 eb3c b96d 3dbd 6149 86be 3014 903c
00000060: c0e0 05bd 015f a9bd 76db 07bc 1169 973d
00000070: b158 4a3e 34f9 60bd e01f d73d fa37 573c
00000080: 13db 5dbe 6b58 443e 0ff3 923c 2bd9 753d
00000090: b2b6 99bd 5f7f 903e 60ca ec3c 8fe0 423d
000000a0: f4d3 693d 0496 c6bc 34f9 b83d 3894 8cbd
000000b0: 627b cf3c 1b3b 2b3d ec64 5e3e 674a 703c
000000c0: 90e2 16be f5d9 503e 90e0 053d 603f b6bd
000000d0: 7952 e73d 4ad1 c23e f8c2 98be 8f5e 153e
000000e0: a09c 0f3c 3712 383e 1e43 aabd 5cb6 003e
000000f0: 2975 f4bd b77d 15bb ff4c bb3d f522 80bd
00000100: 9091 b0bc abb1 99bd 2a1c 9f3c 7d58 993c
00000110: 0d0f 403d 9972 f13d 59b3 833e d62b dd3d
00000120: 3d2d 8d3d e30b 353e 0291 4e3d 2183 04be
00000130: b9fa ecbc 1315 e33a d007 953d 15a3 423e
00000140: ff45 843e 69b8 46be 7fc1 25be c721 00be
00000150: 93c2 713c 436e c3bc 94a8 4fbc 4bd0 3b3e
00000160: 00b3 08bd 9bd3 3cbd 2407 4f3c 34f0 e6bd
00000170: c86c 413d d760 333e b5b6 99bc a6c8 3cbe
00000180: 1975 753b 96dd dbbd 38ca c0bd fcbc b93d
00000190: 7062 b6bc 3f3c a03e 4a60 983c b714 a53d
000001a0: 3d72 42be 542a b3bd 7fcd f7bd 9859 b3bd
000001b0: b628 61bc ddc9 2d3e 6c7b a83e ec25 3a3e
000001c0: e3ab abbd fa75 61bc 8ab2 7e3e 1d13 2f3d
000001d0: f5e8 d5bc cac2 9fbe e31a d63d 337c 15be
000001e0: b7c8 80bd 1b29 74bd 967b 003d 70cd 3d3b
000001f0: 8d1d 013e 989e 4cbe 0860 6cbd e680 873e
00000200: 4b55 ac3d 43b9 18be aed3 07bd e7f9 303e
00000210: d392 58bd eb5f 273d 30b4 6cbd 06e7 a5bc
00000220: 1bd8 7a3e 2ae0 af3c b3ae c43d ec6f c9bb
00000230: c263 403e d4de ba3c 0fcf 17bb c8e7 a0be
00000240: 1d55 21be 9992 1e3d 0052 9f3d 93a9 f63d
00000250: a65a 8fbd 70a5 8dbc 23a6 27be 1974 1ebb
00000260: 2b2e d23d 4025 e53c 908d 10bd 04bb 893d
00000270: 783a 5dbe bba4 6d3e df47 ed3b 12db 833e
00000280: cddd 2e3e e771 a5bd f1d5 0abe 53fc 94bc
00000290: ba01 9c3d 6af0 74bc 94b3 163e cdc4 9c3e
000002a0: 13b2 4e3d a52c 9a3e 77b7 d43d 654c 663e
000002b0: aeff 6f3e df3e e1bd 70cd d83c 081a 193c
000002c0: 7087 03be 1586 d33b 4450 f7bd 6cfb c8bc
0.07913724 -0.13505284 -0.095512435 -0.073992394 0.0822395 0.19996509 0.12770048 -0.15296273
-0.011831468 -0.13579915 0.100555174 -0.22241457 0.034097884 -0.016914837 -0.08849461 -0.08068774
-0.15953964 -0.1236604 0.16063623 0.08159122 0.028750744 -0.046247218 -0.2622786 0.017587751
-0.03268504 -0.08270074 -0.00829207 0.07393087 0.19760396 -0.05492516 0.105041265 0.013135904
-0.21665601 0.19174354 0.017938165 0.06002156 -0.075055495 0.28222176 0.028905094 0.047577437
0.0570869 -0.024241455 0.09031907 -0.06864208 0.025327388 0.041804414 0.21718186 0.014666176
-0.14734864 0.20395644 0.032684863 -0.088988066 0.11295027 0.380503 -0.2983625 0.14586852
0.00876537 0.17975698 -0.08313583 0.12569565 -0.11936409 -0.0022810528 0.09145545 -0.062566675
-0.021553785 -0.075045906 0.01942261 0.018718952 0.046889354 0.11789436 0.2572277 0.10799377
0.06893394 0.17680316 0.05043126 -0.12940647 -0.028928148 0.0017325006 0.07276881 0.19007523
0.25834653 -0.19406284 -0.16187094 -0.12512885 0.014755863 -0.023856288 -0.0126744695 0.18341176
-0.033373833 -0.04610024 0.01263598 -0.11276284 0.047222883 0.1751741 -0.01876388 -0.18435916
0.003745383 -0.107356235 -0.0941357 0.09069249 -0.022263736 0.31295964 0.018600602 0.08060592
-0.18988891 -0.08748308 -0.12099742 -0.08757323 -0.013742616 0.16971536 0.32906663 0.18178529
-0.08382394 -0.013761038 0.24872795 0.042742837 -0.02611206 -0.312033 0.10454347 -0.1459816
-0.06288283 -0.059609514 0.03136786 0.0028961562 0.12608929 -0.19982374 -0.05770877 0.2646553
0.08414706 -0.14914422 -0.033160858 0.1728283 -0.052874397 0.04086296 -0.057789028 -0.020251762
0.244965 0.021469194 0.09603634 -0.0061473753 0.18788055 0.02281133 -0.0023164188 -0.31426835
-0.15755124 0.038714025 0.07779312 0.120440625 -0.06999712 -0.0172908 -0.1637197 -0.0024178086
0.10262712 0.027971864 -0.035291255 0.067251235 -0.21604335 0.23207371 0.0072412337 0.25753075
0.17076798 -0.08078366 -0.13558175 -0.018186724 0.07617517 -0.014949897 0.14716941 0.30618897
0.050462794 0.30112186 0.10386556 0.2249008 0.23437378 -0.1099832 0.026465148 0.009344585
-0.12844634 0.006455193 -0.12075856 -0.02453395

classifier.1.running_var f4 [180]
00000000: fef4 b23a 64db 0e3b c731 c13a 7db4 003b
00000010: 4c08 c13a a147 d03a 8eb1 b73a 0c2e 113b
00000020: 9d37 1a3b fe1a 1a3b 15cf 3d3a 1495 543b
00000030: 30fa a03a e205 ab3a 2501 373b 5cd5 7f3a
00000040: a8be 0d3b a284 ad3a 845d b53a 76cd 553a
00000050: 4c24 303a 592f e13a b05e d43a 8712 3d3b
00000060: 0930 3b3a 9a96 a53a 6481 b83a fd5a e13a
00000070: 196b a73a 68ae 983a 6731 bd3a 2a6d 873a
00000080: 417c 5b3a 2ef9 093b 7a0d 843a 8da5 0c3b
00000090: cde7 243b 9d80 6a3a c9f1 333a 2ea9 ce3a
000000a0: 9578 d83a ca21 753a d0c5 df3a bf55 613a
000000b0: 2a78 043b bacf 193a 91da 973a 3f44 9f3a
000000c0: 02e2 9f3b 64fe ef3a aba0 883b e12e bf3a
000000d0: a081 fb3a 1e9c 093b f044 203a d87d 863b
000000e0: 3e5b 793a 395b 4d3b 53e6 d53a 0217 133b
000000f0: 160e c93a 4e28 2f3a 4198 f13a d89c 883a
00000100: 8119 5c3a b69e d73a 8366 2d3b d0a7 803b
00000110: b411 293a ae16 5d3a 237b d23a c6eb 2d3b
00000120: d72c 9e3a eee7 ac3a d733 a03a b027 1c3b
00000130: 0ab3 5c3b 06f2 553a 767f 7e3b 5142 cf39
00000140: 1fd2 063b 7888 423b 31c7 c23a f547 213a
00000150: 98d3 b03a c423 bb3a 5c4b 553a ea3a 3f3a
00000160: ff0a fb3a 46b5 153b 2829 8b3a eb33 8f3a
00000170: 98c1 023a c7c6 013b 978c f93a 4e55 363a
00000180: c837 ca3a f1dc 533a aa7b 9e3b f1b9 aa3a
00000190: 9fb9 a13a f391 a73a acac cd3a 9fff 4f3a
000001a0: e981 d03a 7a97 fb3a 0c0f f53a 5327 f63a
000001b0: 675d d33a 6475 a63a 4da0 083b f610 223a
000001c0: dc88 8d3a 63a9 303a 0b9a 913b 7888 b13a
000001d0: 5e52 ed3a 01c6 7a3a b9d6 7c3a 11cb a63a
000001e0: 0618 9b3a 0b6f 953b f23f 833b 5d5c c03a
000001f0: b9f0 df3a 1069 4a3a 7b6d 093b 0495 2e3b
00000200: 5451 6c3a 7fae 013b 4eea 023b d113 493a
00000210: da7f 053b abb1 ff3a 6646 043c 1452 f73a
00000220: 9adf d43a baa4 0f3b eded 203b 3a5f b43a
00000230: 755c ae3a fc38 0f3b a6e1 9e3a 10a1 653b
00000240: 8080 cf3a f8c6 033b 6c3e ff3a d033 8d3a
00000250: 5b79 063a 4ebf bb3a d6f3 dc39 2010 0c3a
00000260: 2728 753a ae8e 763a a919 c83a 8ffe b73a
00000270: 6dbd d03a 0e19 ee3a ccdd 023b 5ac3 bd3a
00000280: f742 123b 321e 5a3a 73e4 ad3a 4111 f73a
00000290: 505e a43a 1515 633a d66a db3a 717c b63a
000002a0: aae8 1e3b b428 ad3b 8406 f63a 6bce 473b
000002b0: fb4d 213b f2d5 bb3a e599 803b db8e 823a
000002c0: 10d3 bb3a cc44 5d3b 10ca 023b 4081 a43a
0.0013653336 0.0021798247 0.0014739566 0.001963883 0.0014727204 0.0015890488 0.0014014707 0.002215269
0.0023531683 0.0023514624 0.00072406355 0.003243749 0.0012281593 0.0013048018 0.0027924266 0.0009759271
0.0021628533 0.001323838 0.0013837074 0.0008155921 0.0006719276 0.0017180248 0.0016202535 0.0028850154
0.00071406417 0.0012633384 0.0014076647 0.0017193254 0.0012773006 0.0011648657 0.0014434279 0.0010332216
0.0008372702 0.0021053064 0.0010074817 0.002146098 0.0025162578 0.00089455565 0.0006864337 0.0015766972
0.0016515428 0.0009351043 0.0017072503 0.0008595846 0.0020213225 0.00058674405 0.0011585524 0.0012151076
0.004879237 0.0018310067 0.0041695437 0.0014586115 0.0019188412 0.0020997594 0.0006113788 0.004104357
0.00095121923 0.003133489 0.0016319252 0.0022444134 0.0015339281 0.0006681726 0.0018432216 0.001042272
0.00083961344 0.0016450498 0.0026458807 0.003926255 0.00064494764 0.00084338605 0.0016058426 0.0026538237
0.0012067807 0.0013191679 0.0012222481 0.0023827367 0.0033676052 0.00081613695 0.0038833297 0.00039531526
0.002057202 0.0029683392 0.0014860389 0.0006152385 0.0013490794 0.0014277627 0.00081365346 0.00072948507
0.0019153057 0.0022843643 0.0010617124 0.0010925507 0.0004987954 0.0019802318 0.0019039091 0.00069554604
0.0015428001 0.0008081934 0.0048365192 0.0013025386 0.0012338645 0.0012784585 0.0015691719 0.0007934514
0.0015907857 0.0019194924 0.0018696501 0.001878003 0.0016125859 0.001269978 0.00208475 0.0006182337
0.0010798234 0.0006739108 0.004443412 0.0013544699 0.0018106212 0.0009566248 0.0009645033 0.0012725313
0.0011832721 0.0045603565 0.0040054256 0.0014675964 0.0017085291 0.0007721344 0.0020969796 0.0026639113
0.00090148044 0.0019787846 0.0019976082 0.00076704944 0.0020370395 0.0019507905 0.008073425 0.0018869066
0.0016240955 0.0021918253 0.0024555877 0.001376129 0.0013302701 0.0021854034 0.0012121692 0.0035038628
0.0015831143 0.0020107608 0.0019473559 0.0010772888 0.0005129778 0.0014323981 0.00042143342 0.0005342979
0.00093519915 0.0009405416 0.0015266436 0.0014037656 0.0015925594 0.0018165426 0.0019968627 0.0014477775
0.0022317746 0.00083205395 0.0013266936 0.0018849747 0.0012540314 0.0008662504 0.0016740214 0.0013922584
0.0024247565 0.005284393 0.0018770252 0.0030488025 0.002461313 0.0014330728 0.0039245957 0.0009960787
0.0014329869 0.003376293 0.0019956864 0.0012550727

classifier.4.weight f4 [170, 180]
00000000: 4fde 23bd aed2 e6bd 4913 a4bc 6717 1dbe
00000010: 5089 3dbe c5ae 19be 1f5a 153e b864 553d
00000020: cce4 7e3d a6f9 eabd 0b9d 2dbd e54f 03be
00000030: 3514 253d 3806 afbc ae3c 883d 73ca ec3d
00000040: bf00 fe3d 0f63 6f3d b83f ed3c 5fbc 3dbd
00000050: 9d58 713d 59d9 313d 8b32 7d3d f9b4 65bd
00000060: d45e e43d 0de6 943d 5b21 1c3b 2f04 343d
00000070: 4b62 193e 49d4 49bd fb32 a13c 57f3 693d
00000080: 584f eabb bb48 0b3d f7d7 293d 7c21 ee3d
00000090: 8f10 393e d671 1c3e 2535 1ebe aee6 253d
000000a0: 62ab e73d c74b c3bd 36b6 8c3d 7f19 4dbd
000000b0: 579c ae3d 54a1 de3c bb6b 8dbd 4cf2 b63c
000000c0: a129 553b 033e 5fbe 3577 013e a7fa 83bc
000000d0: 4200 e83d ab08 36bd 0ca0 f33c 253f 0cbd
000000e0: e123 2c3d fece c1bc 87df a33d 54c8 35be
000000f0: c8b5 243e 13ba e53d 29af 353d eee6 5bbd
00000100: ca71 abbc ecb3 46bc fa05 be3d 4e5c da3c
00000110: 6d10 0a3c f303 96bc 7865 843d b957 4cbd
00000120: 2d13 94bd faba 91bd 22bb d7bc b21f 41bc
00000130: 9e12 e0bd a9f5 0ebc a039 483d 731f d3bd
00000140: dc28 2aba aeff c7bd c5a3 4c3d ba97 b63d
00000150: 2411 053d 7123 adbe 8c00 133d 5e44 aabb
00000160: 3906 c93c 4463 5abd a26b a53d fff4 c7bd
00000170: 7fc9 263d 729f c8bc a45d 903d 6448 343d
00000180: 934d 51bd 73fb 703d 4ce2 a2bd ab3b a53d
00000190: 4e82 04be 816c 8e3d 0b8a 7d3d 7aad 7bbc
000001a0: 523a 68bd 0a42 65bd 65c9 e63d 3452 0f3e
000001b0: 1d43 8c3d dc33 cabd d6e6 10be 8acc 103d
000001c0: 1045 193c 6f7c 62bd d5ad 28be 558d 86bd
000001d0: d606 1a3d 3029 193d 64a6 3f3e 84eb 983d
000001e0: a7bd c0bb 0f70 95bd 883e ecbb 9694 27be
000001f0: 5f0b 57bd 2cbc 993e 4358 9b3d f9da 83bc
00000200: e74a 5c3d 79c2 45be dfb1 343d 14aa e7bd
00000210: 54c7 8a39 e262 e03d e469 b9bd 5b24 0a3e
00000220: cdcb d7bc 834a d33d 18db 6bbb ce27 85bb
00000230: 1e3f 2bbd 4a58 973d d5a4 143d ad38 b23d
00000240: 1976 0f3d da19 73bd 2cf1 7e3c a58e 77bd
00000250: 5028 0d3d 27dd 16be 3b8c 5c3d a2fe 943d
00000260: 8461 02bd 3049 bd3d b6d8 243e 876a 663d
00000270: 03fe 573d ffc9 c4bd d73f 343e 334f 57bd
00000280: 8737 b53d aff5 f1bd 1983 58be 964b 4dbd
00000290: b093 a0bd bd50 b8bd 5321 f6bb 744f 26bd
000002a0: bb3f b03d c46a 443c e770 48be 973b fcbc
000002b0: e417 dabd 9283 26bc 3942 923c 3761 42bd
000002c0: 215a 073e b7ca 293d 6777 eb3d a8b3 e53d
000002d0: 1095 2a3e 73c8 48be d931 783d 854a c03c
000002e0: a1e0 48bc f0b2 c13d c9c9 5c3d 731f 90bd
000002f0: e27a 68bd b828 d1bc bb99 ecbd b7fe 99bd
00000300: 2da8 3dbe ef26 f3bb aee1 2bbd 1262 193e
00000310: abd9 093e 0fc9 81be 186b 1e3b cfa3 bcbc
00000320: 438c 053e 3553 f63d 5dcd 9dba 4907 efbd
00000330: e967 8b3d b8e2 b9bc cbc8 2c3d c4ed 1e3c
00000340: 0b1f 923d 91cc acbe 008e 5ebd d656 4bbd
00000350: 1595 c03b 366d 373d 1ef5 133d 9151 58bc
00000360: 00e5 c93d 7c85 46bd fcd3 6bbd 312b 4c3c
00000370: fbb4 7e3d 0843 59be db5b 1d3e 847b 17bd
00000380: c9df 9e3c 2521 573d 079f 96bd 7155 7abd
00000390: 4fc7 82bd 0b03 fcbb 048e 9c3d 1650 90bc
000003a0: e13f 733c faa9 ab3d a8c8 9dbc 83b4 a23c
000003b0: b006 16be 0d81 ddbc 07fc d63d c2a6 7e3d
000003c0: 200b b73c f2a3 313e ab50 be3d 3a41 9bbd
000003d0: 10c2 52bc 387e 013e ba32 d13d d118 8c3d
000003e0: 3c14 12bc c5b2 013d df4d b8bc 79e9 0bbe
000003f0: 58b8 9abd c466 29bd 0db0 84bc 0f46 3c3e
-0.040006932 -0.11270653 -0.020028727 -0.15340959 -0.18509412 -0.15008076 0.1458516 0.052098006
0.062229916 -0.11473398 -0.042386096 -0.12823446 0.040302474 -0.02136527 0.06652199 0.115620516
0.12402486 0.05844408 0.028961048 -0.046322223 0.0589224 0.04342017 0.06181578 -0.056080792
0.111508995 0.07270441 0.0023823592 0.043949302 0.14978902 -0.049274717 0.01967763 0.057116833
-0.007150572 0.034004908 0.041465726 0.116274804 0.18072723 0.152778 -0.1544996 0.040503196
0.113119856 -0.09535938 0.068706915 -0.050073143 0.08525913 0.027176537 -0.069053136 0.022332333
0.0032526033 -0.21801 0.1264313 -0.016110731 0.11328174 -0.04444186 0.029739402 -0.034239907
0.042026404 -0.023658272 0.08001619 -0.177522 0.16084969 0.112171315 0.0443565 -0.05368703
-0.020928282 -0.012127858 0.09278484 0.026655342 0.008426768 -0.01831243 0.06464666 -0.049888346
-0.0723022 -0.07115741 -0.026334349 -0.011787342 -0.10941051 -0.008725562 0.04888308 -0.10308733
-0.0006491074 -0.09765564 0.04996087 0.08915658 0.03248705 -0.33816102 0.035889193 -0.0051961383
0.0245391 -0.053317323 0.0807717 -0.09763526 0.040719505 -0.024490092 0.070491105 0.04401435
-0.05109937 0.05883355 -0.07953319 0.080680214 -0.12940332 0.06954289 0.061899226 -0.015361184
-0.056696244 -0.055971183 0.11268882 0.13996202 0.06848738 -0.09873173 -0.14150557 0.035351314
0.009354845 -0.05529445 -0.16472562 -0.06569926 0.037604176 0.037392795 0.18715817 0.07466796
-0.0058819833 -0.07296764 -0.0072096027 -0.16365275 -0.05250108 0.30026376 0.07585194 -0.016095625
0.05378237 -0.19312467 0.044114944 -0.11311737 0.00026469922 0.109563604 -0.090534 0.13490431
-0.026342297 0.10316946 -0.0035988744 -0.004063583 -0.04180824 0.07389887 0.03629001 0.08702216
0.035024736 -0.059350826 0.01556043 -0.06043877 0.034462273 -0.147328 0.05384467 0.0727513
-0.03183128 0.09242475 0.16098294 0.056253936 0.05273248 -0.0960884 0.17602478 -0.052565765
0.088484816 -0.118144386 -0.2114376 -0.050120912 -0.07840669 -0.089997746 -0.007511297 -0.040603116
0.086059056 0.0119883455 -0.19574319 -0.030790133 -0.10649088 -0.010163205 0.017853843 -0.047455993
0.13217975 0.04145309 0.114973836 0.11215907 0.16658425 -0.19607715 0.060594413 0.023473034
-0.012260587 0.09457958 0.053903375 -0.070372485 -0.056757815 -0.025532112 -0.11552759 -0.07519286
-0.18521185 -0.0074204127 -0.04196327 0.14978817 0.1346194 -0.25348708 0.002417272 -0.023027329
0.13041787 0.12027589 -0.0012039352 -0.116713114 0.06806929 -0.022691116 0.04218368 0.009700242
0.07134827 -0.33749822 -0.05433464 -0.04964336 0.005877147 0.044781886 0.036122434 -0.013203041
0.098581314 -0.048467144 -0.05757521 0.0124614695 0.062184315 -0.21216977 0.15367071 -0.036983028
0.019393818 0.052521843 -0.07354551 -0.06111664 -0.06385671 -0.0076907924 0.07644275 -0.017616313
0.014846773 0.0838203 -0.01926072 0.019861465 -0.14650989 -0.027039075 0.10497289 0.06217075
0.022344172 0.17347696 0.0929273 -0.075808 -0.012863651 0.12645805 0.102147534 0.06840671
-0.008915957 0.03166463 -0.02249807 -0.13663282 -0.07554692 -0.04135777 -0.016197229 0.183861

classifier.4.bias f4 [170]
00000000: ce4e 19bd 7786 05bd d20b 933c 3750 f53c
00000010: d9d8 bcbc 2482 753d 5fc7 903b 7e96 5dbd
00000020: 852d f63c 826f 30bd 49c2 2d3c 5825 82bd
00000030: d810 10bd 07a7 30bd 0f02 8fbd f4e2 2fbd
00000040: ec07 91bc d312 8ebd 3644 b4bc 153f 813c
00000050: 9697 85bd 5097 68bd 25f6 c33d cb2f 6dbc
00000060: 9685 dbbc 96d4 66bb ae16 8a3c 3554 22bc
00000070: ff43 2fbd 9d21 d73c 855a aebc 0d04 703d
00000080: 9ece 093d 226c 433c 3e43 2fbb cd1a ec3c
00000090: dbbb 443d 33e1 93bd 9d25 0fbc 5afe 31bd
000000a0: 0aac 113d 889e c0b9 c4d9 47bd 1bb9 9f3d
000000b0: 7194 a2bc 0c68 93bd 35b7 77bd 1b10 f3bc
000000c0: ddbb 683d 5369 4b3c cc88 b93c 2eeb c63d
000000d0: 3026 883d e5f5 88bc 4c2d 5a3d 1304 d83c
000000e0: a990 5bbc ed89 6dbc 0c54 853d 219b 013d
000000f0: 6bee a0bb cec1 373c 5949 00bc b135 43bd
00000100: 8717 cd3c c2d0 543d 900a 053d 4a88 4c3d
00000110: 07cd febc de31 9e3d 025a a6bd c5c9 5d3d
00000120: c07c 2fbd 58e4 55bc ee99 ef3c 24c6 463d
00000130: f645 f7bb 292e 553b 2a78 3bbd 82d3 d5bc
00000140: 0e41 be3d aef5 41bd 6d4e 27bd 14e0 c4bd
00000150: ab04 2c3d 25be e8bc 6ca8 91bc 79cc 013d
00000160: c235 023d f734 f6bc 00e1 173d 9828 923d
00000170: bdef a7bc 1b7a a0bd 6c66 d13c 0752 75bb
00000180: a8c4 a5bd 9694 373d d91f e43a 77a9 8ebd
00000190: cbba 0fbd 9e7b f5bb e515 2ebd 6b63 76bd
000001a0: 16b1 1a3d 3b64 3dbd 4dee a1bc 78bb 503d
000001b0: 8782 c13d 653b 8cbd 5b1e 23bc e04a 8cbd
000001c0: fd1d c13c 8645 603c c54e b8bd 0b44 82bc
000001d0: 15ce 703c ce0a e83c 9985 973c 0dc6 4bbd
000001e0: 8b78 22bc 44d5 953d 3f23 32bd dc61 143d
000001f0: 88e0 c93d 43e6 bbbd 7215 8bbd 338f aebc
00000200: b204 15bd 02eb 1f3c 9709 f8bc 50e6 3dbd
00000210: 4b1c a3bd fa45 af3d 4aba 62bd 2972 503d
00000220: f3dd 26bd 01f2 193d 5009 233d c8bb 7b3d
00000230: 4d23 333d 32e4 6b3d 8f87 40bd b711 85bc
00000240: 1c6c acbb e911 91bc 054d 26bd 605a 6b3d
00000250: a0e9 eabc aa05 f43c 4b82 1fbd 3ca8 45bd
00000260: 25b5 293d 11f5 9a3b de3b 853d 12f8 b5bd
00000270: c192 413c 0dbf 133d 7988 f23c d132 443c
00000280: 31fe 85bb 82f2 1fbb 4b80 fd3c cbd9 f4bc
00000290: c37f 23bd 105d 393d 7ea5 f4ba 92a3 693d
000002a0: e981 e33d 688a 4f3c
-0.03742867 -0.03259894 0.017949972 0.029945476 -0.02305262 0.059938565 0.004418298 -0.0540986
0.030051002 -0.043075092 0.010605403 -0.06354779 -0.035172313 -0.04312804 -0.069828145 -0.04294105
-0.017703973 -0.06937184 -0.022005182 0.01577715 -0.06523053 -0.056784928 0.09568433 -0.014476727
-0.026797097 -0.0035221926 0.016856518 -0.009907772 -0.042789456 0.026261145 -0.021283397 0.058597613
0.03364431 0.011927636 -0.002674296 0.028821373 0.048030715 -0.07220688 -0.008736995 -0.04345546
0.03556446 -0.0003673921 -0.04879166 0.07798978 -0.019846173 -0.0719758 -0.060477454 -0.029670766
0.056819785 0.012415248 0.022648238 0.09712826 0.06647909 -0.016718814 0.053265855 0.02636913
-0.013401189 -0.014498216 0.06510171 0.031642083 -0.004911234 0.01121564 -0.007829987 -0.047658626
0.025035633 0.0519569 0.032480776 0.049934663 -0.031103624 0.07724355 -0.081226364 0.0541475
-0.04284358 -0.01305493 0.029248204 0.048528805 -0.007546182 0.0032528734 -0.045768894 -0.026101831
0.09289752 -0.04735344 -0.040846277 -0.09613052 0.04199664 -0.02841098 -0.017780505 0.03168914
0.03178955 -0.030054552 0.03707981 0.07136649 -0.020500058 -0.0783579 0.025561534 -0.0037432925
-0.0809415 0.044819437 0.0017404511 -0.069659166 -0.03509025 -0.007491543 -0.04250135 -0.060153406
0.03776654 -0.046238165 -0.019766951 0.050960034 0.09448724 -0.06847266 -0.009955968 -0.06850219
0.02357387 0.013688451 -0.08999399 -0.015901586 0.014697571 0.028325465 0.018496322 -0.049749423
-0.009916435 0.07316068 -0.043490645 0.03622614 0.09857279 -0.09174778 -0.067912 -0.021308517
-0.03638143 0.00976062 -0.03027801 -0.04636222 -0.07964381 0.08558269 -0.05535344 0.05089012
-0.04073901 0.03758431 0.039803803 0.06145838 0.043734837 0.05759067 -0.04700428 -0.016243799
-0.005261911 -0.017708736 -0.040600795 0.057459235 -0.028675854 0.029787857 -0.038942616 -0.048256144
0.04143252 0.004728921 0.065055594 -0.08885206 0.011814774 0.036070872 0.02960609 0.011975006
-0.00408914 -0.002440602 0.030944964 -0.029889008 -0.039916765 0.045254767 -0.0018665043 0.05704076
0.11108763 0.012667276

classifier.5.weight f4 [170]
00000000: 5904 7f3f 30a9 713f 8389 863f a13d 593f
00000010: 18c7 733f 2c24 5b3f e9bc 7f3f 2c95 6b3f
00000020: 66a4 813f be91 8b3f a34f 703f 0654 6d3f
00000030: 98ef 793f 3423 853f c58f 4d3f 6a0a 933f
00000040: 79b8 6a3f dfed 813f e31f 7a3f c772 783f
00000050: b0b1 7d3f 8b99 753f d927 813f e574 7b3f
00000060: c266 7c3f e1b6 783f 59d9 7f3f d67c 863f
00000070: ed87 5a3f 6a28 763f 88ba 5c3f e29f 823f
00000080: 9f15 923f f01b 753f 63f2 833f 6dea 883f
00000090: 9e87 6c3f efd7 5c3f db09 823f 2ffa 783f
000000a0: 7ff9 9f3f 2a78 863f 1cca 9a3f 38c3 803f
000000b0: 3501 9f3f 40f4 833f f33b 4e3f 4bac 743f
000000c0: caf9 6f3f b396 923f f84a 843f 9171 783f
000000d0: 8a67 763f f27d 643f 809c 823f c4f4 813f
000000e0: 54c1 723f 1be5 5e3f 2d2b 993f ebaf 603f
000000f0: da18 7a3f 2bb0 6c3f a2fc 6b3f cb3d 713f
00000100: 6552 843f 964e 463f 12d4 6f3f 9bc5 823f
00000110: 1f4e 803f 3d0d 883f c8c6 413f ca1e 633f
00000120: 98a3 7b3f f276 833f 0aef 843f 3a8f 783f
00000130: 0f7d 6a3f 0b03 663f 3ede 4c3f b867 843f
00000140: 6473 853f d002 6c3f b012 543f 248d 8f3f
00000150: a4b2 7e3f b61c 6a3f 2ff7 4f3f ff70 783f
00000160: 8ffe 643f bb06 823f b2fe 8b3f d84d 633f
00000170: 3888 6d3f 7fab 783f 74c7 833f 826e 8e3f
00000180: 6f8d 883f 6dd1 743f 9529 813f a5e2 883f
00000190: 436f 893f 7d25 663f bc34 7f3f 4aba 753f
000001a0: 587d 783f 81dc 783f f34c 803f a4bb 613f
000001b0: 391f 7e3f 35cb 8a3f da2f 7b3f ce08 713f
000001c0: 9fa3 7c3f 6628 783f fc7f 6e3f 6f2e 613f
000001d0: 3934 543f 7419 6b3f f0e1 4f3f bfed 6c3f
000001e0: e7f0 5a3f c47b 753f 737a 903f a562 5f3f
000001f0: 2112 723f 53cd 693f 6d3f 803f 40b8 7c3f
00000200: cb9a 7e3f a510 653f 896a 8c3f 5737 863f
00000210: 215b 463f c96a 6c3f a62c 693f dc71 763f
00000220: 524f 8f3f 8001 7b3f 344b 893f a644 743f
00000230: 495a 793f 712f 763f 97bf 713f d201 833f
00000240: ca4a 5e3f cd0e 7c3f d976 7e3f cea2 7e3f
00000250: f0ce 6e3f 1d34 723f 843b 5e3f bbb2 8f3f
00000260: f275 853f 06c5 663f 053c 783f 7b8a 8a3f
00000270: 06e1 693f 8f8c 803f 1693 8d3f cdb7 553f
00000280: 24bb 6c3f 5de9 873f 67ff 583f 9923 8b3f
00000290: 07d6 7e3f 803f 893f dab5 923f ea73 603f
000002a0: c91d 973f 8d46 873f
0.9961601 0.94398785 1.0510715 0.84859663 0.9522567 0.8560207 0.9989763 0.92024493
1.0128295 1.0903852 0.93871516 0.92706335 0.97631216 1.0401368 0.802975 1.1487553
0.9168773 1.0150717 0.97704905 0.97050136 0.99099255 0.9593741 1.0090286 0.9822524
0.98594296 0.9715405 0.9994102 1.0506847 0.85363656 0.96155417 0.86222124 1.0205042
1.1412848 0.95745754 1.0308346 1.0696541 0.92394435 0.8626699 1.0159258 0.9725675
1.2498015 1.0505421 1.2092929 1.0059576 1.2422243 1.0308914 0.80560225 0.955754
0.9374052 1.145224 1.0335379 0.9704829 0.9625174 0.8925468 1.020401 1.0152822
0.94826245 0.8706834 1.1966301 0.8776843 0.9769417 0.9245631 0.9218236 0.94234914
1.0337645 0.7746366 0.9368297 1.0216554 1.0023841 1.062904 0.7569394 0.88718855
0.982965 1.0270674 1.0385449 0.97093546 0.91597074 0.89848393 0.80026615 1.0344152
1.042584 0.9219179 0.82841015 1.1214948 0.99491334 0.9145006 0.8123655 0.9704742
0.89450926 1.0158304 1.0937102 0.88790655 0.9278598 0.9713668 1.0295243 1.1127474
1.0668162 0.9563206 1.0090815 1.0694166 1.0737079 0.8990095 0.9968984 0.9598738
0.9706626 0.9721146 1.0023483 0.8817694 0.9926639 1.0843264 0.9811989 0.9415406
0.98687166 0.96936643 0.9316404 0.8796148 0.82892185 0.91835713 0.8120413 0.9255027
0.8552384 0.95891976 1.1287369 0.87259895 0.9455891 0.91328925 1.0019356 0.98718643
0.99454945 0.8947852 1.0970012 1.0485638 0.774828 0.9235044 0.91083753 0.96267486
1.1196082 0.98049164 1.0726075 0.9541725 0.9740339 0.9616614 0.9443297 1.023493
0.8683287 0.98460084 0.994001 0.9946717 0.9328451 0.9461077 0.86809564 1.1226419
1.0426619 0.90144384 0.9696658 1.0823511 0.91358984 1.0042895 1.1060512 0.8348358
0.92473054 1.0618092 0.84764713 1.0870239 0.9954533 1.0722504 1.1461747 0.8767687
1.1805965 1.0568405

classifier.5.bias f4 [170]
00000000: 3c17 99be 464b d1bc 3ecd e3bd fa9b 2fbe
00000010: f600 2fbe b2d7 89be 572a e1bd 1c48 86be
00000020: 5bb3 12be 3758 98be 0126 93bd 80a7 01be
00000030: 06aa 3fbd 2507 e4bd 108e 26be f359 9dbe
00000040: 2141 9dbe 6baf 04be 597a f1bd dff2 2ebe
00000050: daf7 e7bd 2811 47bd 3fe5 8cbe bbe0 3dbe
00000060: ce5e 7fbe 253f f4bd 0f15 41be 6252 9abd
00000070: c4e9 95be 6d54 2bbe a549 36be 1669 4ebd
00000080: 3745 20be 7e7d 22be 51ac 1dbe c7ce 40be
00000090: 072b 24be cda3 85be bde3 1fbe 3651 fbbd
000000a0: b74b fd3b 301d cfbd 769b 323c 92b2 97bd
000000b0: 744a c13a dc37 a7bd 7e45 dabe 1ddb 52be
000000c0: 3fca 25be 6c47 59be 6e9a 01be cf81 1bbe
000000d0: 146b 0ebe 2586 d9be 7608 ffbd 7c89 3cbe
000000e0: e5f0 3bbe c142 e0be 4ae7 d6bd fa44 25be
000000f0: 975d 00be 803b debe 89d1 32be 82c0 5abd
00000100: 0335 28bd 986c 9ebe b6f5 43be 3ef6 e3bd
00000110: e7e2 a3be 9aa2 0dbe 9dbb 83be d77d 3bbe
00000120: c77e 35be b030 20be b3a1 0cbe bf43 34bd
00000130: 7a5b 3ebe 0339 6cbe 4c7d ccbe 6b76 a2bd
00000140: 4783 59be a200 c3bd 1493 9bbe f543 9fbc
00000150: 81b6 19be 188a 34be 345d c8be 885f 57be
00000160: 2dbe 5abe b78c a0be f2d2 20be 46cc 5ebe
00000170: 1509 86be d684 63be 566b 44bd d2f0 033d
00000180: 454c 80bd 2849 1abe b21e d9bc e4e8 bcbe
00000190: d88a 47be f429 70be e20f 8abe b82b 4ebe
000001a0: 7e73 42be f813 35be 6614 5abe f18b f6be
000001b0: 1dd1 16be 4a54 31be b02d 28be a265 31be
000001c0: a7d1 85bd a762 c4bd 966b 0dbe bfa6 3fbe
000001d0: ccfb 77be a24d 1ebe 4b5a 38be d247 99bc
000001e0: 7c12 7fbe 9db0 8cbd 97f8 c4bd 169e b9be
000001f0: d128 f9bd dcd4 65be b941 97be f3ae a7bd
00000200: a05a 29bd 91ff bcbd 6748 afbd 049b 86be
00000210: 14df 84be 6dff 67be 53fd 44be 8c33 92bd
00000220: 10e7 0abe 8ca4 20be 80d5 44be 01b8 84be
00000230: a36a 11be f54c 1fbe 9828 7cbe da25 3dbe
00000240: f267 56be b363 20be f589 cebd 76d7 2ebe
00000250: b87f 2abe 98c6 ddbd b237 33be 86eb 5fbe
00000260: d35b 2ebe cfea b0bd f0de 94bd dda7 5bbd
00000270: ccbf 99be e5f7 03be 6e0d 6bba 7265 94be
00000280: 9dc9 33be 1788 53be b570 30be 292f d7bd
00000290: 1b94 46be c1a8 b1bd 5882 e33c a64a 5ebe
000002a0: 4454 bbbe 5a08 babd
-0.2990054 -0.025548588 -0.11123131 -0.17149344 -0.1709021 -0.26922375 -0.10994404 -0.2622689
-0.14326231 -0.29754803 -0.07184983 -0.12661552 -0.046793006 -0.11134175 -0.1626513 -0.30732688
-0.30713752 -0.12957542 -0.11790914 -0.17084835 -0.11326571 -0.048600346 -0.2751865 -0.18542759
-0.24938509 -0.11926106 -0.1885569 -0.075352445 -0.29279912 -0.16731425 -0.1780153 -0.050393187
-0.15651403 -0.15868184 -0.15397765 -0.1882888 -0.16032039 -0.26101533 -0.15614219 -0.12271349
0.007729973 -0.10112989 0.010901323 -0.074071065 0.001474692 -0.08164951 -0.42631143 -0.20591398
-0.16190432 -0.21218652 -0.12656567 -0.15186237 -0.13908035 -0.42485157 -0.12452786 -0.18411821
-0.18353613 -0.4380093 -0.10493334 -0.16139594 -0.12535702 -0.4340477 -0.17462744 -0.053406246
-0.04106618 -0.30942225 -0.191367 -0.11130951 -0.3200905 -0.13831559 -0.25729075 -0.18309723
-0.17724143 -0.15643573 -0.13733558 -0.04400992 -0.18589583 -0.23068623 -0.39939344 -0.07932743
-0.21241485 -0.09521605 -0.3038565 -0.019441584 -0.15011026 -0.17630804 -0.39133608 -0.21032536
-0.21361609 -0.31357357 -0.15705469 -0.21757612 -0.26178804 -0.22218642 -0.047953926 0.032212086
-0.06264547 -0.1506697 -0.026503894 -0.3689643 -0.19486558 -0.23453504 -0.26965243 -0.20133865
-0.1898937 -0.17683399 -0.21296844 -0.48153642 -0.14728208 -0.1731731 -0.16423678 -0.17323926
-0.06534129 -0.09589129 -0.13810572 -0.18715952 -0.24217147 -0.15459302 -0.18003194 -0.018711004
-0.24909395 -0.06869624 -0.09617727 -0.36253422 -0.12165988 -0.2244448 -0.2954233 -0.08187666
-0.041346192 -0.09228433 -0.085587315 -0.26290143 -0.25951445 -0.22656031 -0.1923726 -0.07138738
-0.13564706 -0.1568777 -0.19222069 -0.25921634 -0.14200835 -0.155567 -0.2462486 -0.1847147
-0.2093809 -0.15663032 -0.10084907 -0.1707438 -0.16650283 -0.108288944 -0.17501715 -0.21867189
-0.17027216 -0.08638536 -0.072690845 -0.053626884 -0.30029142 -0.12887533 -0.000896654 -0.28983647
-0.17557378 -0.20657383 -0.17230494 -0.10507042 -0.19392435 -0.086747654 0.027772114 -0.21708164
-0.36587727 -0.09083624
